Assets/ML-Agents/Training Files/results/9roads_cameraSensor_ppo_vehiclesAndChekpointsMasked_brakeX2_1layer_64_256/VehicleAgent/VehicleAgent-19999941.onnx (onnx, 139655 bytes, 11 tensors)

network_body.observation_encoder.processors.0.conv_layers.0.weight f4 [16, 9, 8, 8]
00000000: a9a8 8a3c f727 123c e678 9fbc 2701 9e3b
00000010: a228 62bc ac3d 1fbd 20b8 f8bc cbf6 89b9
00000020: df02 fd3c 82df 1fbd fdf5 e13c 634d acbb
00000030: ac3b 0abd 5d4e be3c fb18 6a3c 7184 053d
00000040: 731f 30bc 7b34 123a 7e79 303c af9a 88bc
00000050: af28 803c 8e17 9b3d 2735 8e3d f627 8d3d
00000060: 1c4c 9d3b 9935 d8bc d88a 003c b2aa 6cbb
00000070: 8449 daba e439 833a e162 c13b 355c a23d
00000080: a699 123d d035 583d cd16 533d 0aab 573d
00000090: e725 593d 9222 113d d067 5c3c a3be 193d
000000a0: 6cf4 2a3c d00b 7a3d fa68 2e3c e834 933d
000000b0: fafd 0a3c 986a 6b3c 56ee 1c3d 05d1 1a3d
000000c0: 9c6f 813d a05e bc3c fece 683d 8ad8 753c
000000d0: d0ff 303d da07 fa3c 2f53 e4bc f631 a3bc
000000e0: b533 0f3d 617d 77bb 824f 8a3b 6cff 8a3b
000000f0: 19e9 623c cd9f 473d 02fd 163d 0b09 dfbb
00000100: 2e80 05bd 0b13 0d3b 6b3b b73c 416b 66bd
00000110: 4202 06bd 1500 ab3c 98c9 c5bc 5f3f 0bbd
00000120: eb04 b83c 27ff f63c d663 9cbb bea5 3dbc
00000130: eb3d f03c 46d7 6a3d 67d4 223d 65a6 a7bb
00000140: 1f96 ac3b b7a7 323d 7ff3 813c 0d6e f83c
00000150: b07b 863d 9b7e 643d 6042 c13d 47f5 f23d
00000160: 8bcc ab3d 7590 913d f2a7 a83d 0f05 1b3d
00000170: 5f4a 3b3d a08e c33d c958 c73d 9758 a63d
00000180: f5c2 a73d 2986 853d 08f6 a53d 2591 0e3e
00000190: c763 8a3d bfc7 a13d 1808 053e 6d9d 683d
000001a0: fa5c 733d 6b72 893d 5eb5 013e de69 6f3d
000001b0: 8968 943d fe8c 9b3d ec4c b83d 7192 da3d
000001c0: 4a58 733d 2949 e93d a773 f13d 0b2e ef3d
000001d0: 1a68 793d 20f1 4c3d 0207 7b3d bf63 953d
000001e0: 61cc ac3d 7809 f03d e664 023e b5eb 8b3d
000001f0: 43dd db3d 1dc7 e63d ec70 833d 73cc 923d
00000200: c814 b0bd e077 9dbc 14cc 6abd f7be c4bc
00000210: d761 a0bd a4e2 2dbd 2fea 95bd 7a97 32bd
00000220: 830b 34bd 835f 61bc eded 91bd 55f7 58bd
00000230: 3cc9 8ebd bdb3 a7bc 1da2 41bd e5b6 c73c
00000240: 43bf 6fbc faf3 9eba dc1e 26bd e294 06bc
00000250: ea44 783d ce7f 183c 0de4 693d ef83 bc3d
00000260: ff76 bebc 5a90 b7bc a187 79bb bb56 193d
00000270: 75c2 143c 8569 9b3d 8f4c 9d3d ad89 823c
00000280: e608 923c 3f2b ea3c b3c9 363d c3ba 303d
00000290: f28b e23c 22cd bb3c e3d8 683d cf70 113d
000002a0: 2aa5 bf3c 6ed3 443d afa1 a83d f477 0e3d
000002b0: 73e1 623d 4fe0 ac3d 6e1b aa3d 1a46 9d3c
000002c0: 6dc7 8e3d 755d b53d 3e92 bc3d 64e2 b63d
000002d0: 1b84 b13c 16c0 003b 26b3 8c3d cc62 aa3c
000002e0: c2d1 cb3d 1482 903d ca2e 853d 396f bb3d
000002f0: a8e1 993d 035d b13c 4cb9 813d d486 813d
00000300: 1369 07bd c739 46bd 24da 8bbd e6c2 15bd
00000310: f6d6 0bbd 5add 94bd b4ca 3abd 853e cbbc
00000320: b24f 7ebd 9a2f 12bd 11ce 0bbd 9905 2bbd
00000330: 1ddc 1ebd 4bff 3abd a8af 31bd cadc 45bd
00000340: 7224 77bd a11e 33bd d1d4 52bd a345 043c
00000350: 0b02 81bd c662 88bd 0807 87bc f37a 363c
00000360: 9dbd a4bd 342a c4bd bfa9 98bd 65a1 cfbd
00000370: 607d 99bd cedf c7bc baaf b3b9 b1c4 a9bc
00000380: 8bbc 68bd 411b 96bd 825b 36bd 756f 8abd
00000390: c1c6 8abd 9238 11bd fbb6 f7bc bf5f 56bc
000003a0: 3a81 0fbd 8dcd 01bd 328c f6bc 7bf5 f7bc
000003b0: 6fd4 38bd f59e 4b3d baf6 473b 26b5 293d
000003c0: 4515 85bd 3cc4 4abd dba2 33bd b7e8 383c
000003d0: 82ba 6d3d 7ca4 1b3d 4c4a 0c3d 66f5 4fbc
000003e0: d9e5 12bd 7e3e 1bbc 3a45 00bd ec7c 5cbc
000003f0: 1a0e 4f3c 3cc9 c0bb f60c 363d d4de 023d
0.016926127 0.008920661 -0.019466829 0.0048219147 -0.013803633 -0.038877174 -0.030361235 -0.0002631455
0.030885158 -0.039031513 0.027583117 -0.0052582487 -0.033748314 0.023230726 0.014288182 0.03259701
-0.010749686 0.0005577278 0.0107711535 -0.016675321 0.0156444 0.07572852 0.06943732 0.068923876
0.0048003327 -0.026392745 0.007845603 -0.0036112485 -0.001665399 0.001001176 0.00590168 0.07927743
0.03579106 0.052785695 0.051535416 0.05265335 0.053014662 0.03543336 0.013452485 0.03753532
0.010434251 0.06104642 0.010645146 0.071878254 0.008483404 0.014368676 0.038313232 0.037796993
0.06320116 0.02299434 0.056838028 0.01500524 0.04321271 0.030521322 -0.027871696 -0.019921284
0.03496142 -0.003776394 0.004220904 0.0042418744 0.01384952 0.048736382 0.03686238 -0.006806498
-0.032592945 0.0021526243 0.0223672 -0.05625463 -0.032716997 0.020874063 -0.024143979 -0.033995982
0.022463283 0.030150963 -0.0047726436 -0.011575161 0.0293264 0.057334207 0.039753344 -0.0051162713
0.0052669193 0.043616977 0.015863178 0.030325914 0.0656656 0.055784803 0.09436488 0.11863189
0.08388623 0.07107631 0.08235158 0.03784662 0.045725223 0.09548688 0.09733731 0.08122366
0.08191482 0.0651973 0.08103567 0.13922556 0.06757312 0.07899427 0.12991369 0.056790758
0.05941484 0.067112766 0.12666842 0.058450572 0.07246501 0.075952515 0.08999047 0.10672463
0.05941037 0.11390907 0.11789637 0.11678704 0.060890295 0.050034642 0.06128598 0.07294416
0.0843742 0.11720556 0.12733802 0.06832067 0.10735562 0.112684466 0.064180225 0.07167902
-0.08597714 -0.0192222 -0.05732353 -0.02401684 -0.078311615 -0.04245247 -0.073200576 -0.04360149
-0.04395629 -0.013755682 -0.07125459 -0.05297025 -0.06971976 -0.020471448 -0.047273744 0.024379203
-0.014633003 -0.0012127154 -0.040556774 -0.008214207 0.060612597 0.009307815 0.05710225 0.09204852
-0.023250101 -0.0224077 -0.0038075226 0.03743623 0.009079565 0.07588486 0.07680618 0.01593479
0.017826509 0.028585074 0.04462595 0.04314686 0.027654622 0.022924963 0.056847464 0.035507973
0.023394186 0.048053198 0.08233964 0.034782365 0.055390786 0.08441221 0.08306013 0.019198466
0.06971631 0.08855716 0.09207581 0.08929899 0.021669438 0.0019645742 0.06870107 0.020799063
0.099521175 0.070560604 0.06503065 0.091520734 0.07513744 0.021650797 0.06334171 0.063245445
-0.03305919 -0.048394945 -0.068287164 -0.036562823 -0.03414055 -0.07268782 -0.04560347 -0.024810085
-0.062087722 -0.035689928 -0.034132067 -0.041753385 -0.038784135 -0.045653623 -0.04338041 -0.048306264
-0.06033749 -0.043730382 -0.05147249 0.008073243 -0.06299218 -0.066594645 -0.016482845 0.011137712
-0.08043978 -0.09578362 -0.074542515 -0.101382054 -0.074946165 -0.02439871 -0.00034272467 -0.020723673
-0.056820434 -0.07329417 -0.044520862 -0.0675954 -0.067761905 -0.03545434 -0.03023862 -0.013084351
-0.03503535 -0.03169017 -0.030096147 -0.030268421 -0.045124467 0.04971214 0.003051205 0.041432522
-0.064981975 -0.04950355 -0.043856483 0.011285952 0.058039196 0.03799866 0.034250543 -0.012692785
-0.03586373 -0.0094753485 -0.03131602 -0.013457518 0.012637639 -0.005883364 0.044445954 0.031950787

network_body.observation_encoder.processors.0.conv_layers.0.bias f4 [16]
00000000: d946 49bd 8bd9 84bd 7fe0 a13d ce45 46bc
00000010: c088 8abd 255c 173e bb29 6cbe bb67 05be
00000020: 7c8f f2b9 dc09 7ebd d265 a63d 1731 b13c
00000030: bcad 023d 7232 a13d d1d2 57be 748e 0fbe
-0.04913983 -0.064868055 0.07904147 -0.012101604 -0.06764364 0.14781244 -0.23062794 -0.13027851
-0.0004626474 -0.06202112 0.081248894 0.021629853 0.031903967 0.0787095 -0.21076514 -0.14019185

network_body.observation_encoder.processors.0.conv_layers.2.weight f4 [32, 16, 4, 4]
00000000: 0493 c0bd 41cd 45bd 99f9 89bd 0502 05bd
00000010: 8e70 20be b92e 53be 7df0 13be f586 e2bd
00000020: 4d92 bd3a e89b 12bd 7979 d9bc e60d ff3c
00000030: 0276 23be 29e0 57bd 6c93 93bd b90c a3bd
00000040: 62ef e63d f91d 07bd a836 f63c b5ff 263d
00000050: d9c9 6f3b 5dce 9e3b e566 b33d c55d 9cbc
00000060: 2411 ab3d a7f6 ac3d 4e31 f73d e541 073e
00000070: 365d 9a3d ffbf c53d 5887 8c3d c57d 3e3d
00000080: df4a e83c ccc3 933c bd99 093c d0c4 193d
00000090: 89b8 6d3b ce1c 03bd 1715 74bd 0fba 343c
000000a0: a6cb 5e3d 9ae5 2a3c 539a dd3c 7ab0 34bd
000000b0: 5889 a53d 5abe cd3d 7771 b93d 5ff7 bd3c
000000c0: 51c6 3c3d 7170 b73d d5c5 053d af60 3c3d
000000d0: 5452 96bb c801 7b3c 7b58 8c3d 43ac 09bd
000000e0: aa1b 213d 893d 65bb 4b9b 8bbc e4b7 9bbd
000000f0: a41a 403d 727c 333d f50b fabc d31b 853b
00000100: 6947 d8bd 333f 05bc 2314 9d3b 27e1 5a3d
00000110: 1df8 103d f2dd a33d 55b2 093c ed07 073c
00000120: a91e 38bd 2f4c 59bd 1be6 703c d25e 0cbd
00000130: 3ff2 993d 7b56 c73b 5f35 593d ea19 373c
00000140: a081 313e b393 793d 4792 203e 8bb5 f33d
00000150: 550f 7e3d a26a eb3d 2ff5 b03d 01bb b13d
00000160: 47eb c83c 2ef8 ce3d 0a4d 333e ec41 fe3d
00000170: 09c0 d3bc a00a eebc 8c73 a03d aa22 593d
00000180: 7733 833d 1ce8 94bc 37cc 1d3a 3e00 17bd
00000190: f556 0fbe 6026 afbd 00a0 c0bd 0795 ddbd
000001a0: 3290 8f3d f7b0 bb3b 109d efbc 7ad8 413c
000001b0: c417 943d c2e9 fabc 7450 f8bb 41d3 babc
000001c0: 0e4a 91bd b40a dbbb 570e 493d 67fc 7b3d
000001d0: 29a0 053c 8585 f53d 605a 2abb 6dd5 d23d
000001e0: 0b8b 623d 88b4 8a3d 4e80 a33d 4d26 e23d
000001f0: c206 b73d 5bba e83d 6ca0 8e3d 5d8f ff3d
00000200: e5d4 58bc 4e5f 81bd 3abe 7bbd 3979 54bd
00000210: 7991 443c 8ccb 3cbd 6819 ac3c 9b0c 313d
00000220: 87df 293d 046d d7bc 58dc 33bc 1495 b03c
00000230: d88b 923d 32f1 ad3d 6d31 303d ae81 09bc
00000240: 4d20 b3bd 8472 d5bc 38a6 933b de53 9cbc
00000250: b8f8 843c f90d 90bc a2aa cc3c 988e 0f3c
00000260: 266c 88bb 7589 943d 4497 6d3d d709 08bc
00000270: 9d83 a6bc eb45 41bd b81c aebc 96a0 19bd
00000280: 5118 f33d a93a 0d3e 2218 173e 3660 183d
00000290: 4fbe ff3d df61 283d 93b8 46bd 6a05 c5bd
000002a0: 6c71 e1bd 58d5 a4bd ab9a 63bd 093d 05be
000002b0: 7844 dcbc 5b4c 41bd fcc0 97bd f4c7 ccbd
000002c0: 6ba5 46bd cb02 a3bd e66b 7ebd 8eeb 86bd
000002d0: de83 febd 58e9 afbd 2bd6 7abd 8cd3 c23c
000002e0: c9d8 193d a226 01bc 0c95 7c3d 3209 a1bc
000002f0: c028 d73d 65b3 ee3c b8ea 153d 12a5 943b
00000300: 4009 b7bd 124b bdbc 5c09 df3c f1d0 19bd
00000310: 5356 523d 58b6 88bd acd9 a63c ab22 063c
00000320: c28e fbbc 741c d9bc 75d5 893b 8975 5a3c
00000330: 5dd0 f7bc f3b5 e93c 71d1 8ebd 052d f63c
00000340: c5ed ccbd 18dc b7bd e6d1 88bd 9b4f bcbd
00000350: 47c5 1c3b a819 433d ad1a 343b 4fc9 9f3d
00000360: 4886 4a3d d132 cc3d 1074 9b3d b81a 963d
00000370: 323f fa3c e7c8 953d 6efd 3cbd d147 9c3c
00000380: ce9b 303e 9bd4 623e 2197 3b3e 7268 e33d
00000390: a2fd 3f3e 6fea 933e 41a4 683e f792 5b3e
000003a0: bcb9 463e 085f 793e 912e 8c3e effa 823e
000003b0: 7012 503e 2750 563e 32f0 443e 97a1 983e
000003c0: 867e bfbd fb66 b8bd 99d2 1c3d 7f90 fe3c
000003d0: 090c 92b9 8554 3d3d 95cb 183d 8383 0a3d
000003e0: 99a6 843d ff8f 833d 6e8b 473d 390d e03d
000003f0: 940b 533e de8b 463e b4a4 883d 6342 063e
-0.09403041 -0.04829145 -0.0673706 -0.03247263 -0.15667936 -0.20623292 -0.14447208 -0.11060897
0.0014463157 -0.035793215 -0.02654718 0.031134557 -0.15962985 -0.05270401 -0.07205853 -0.07961411
0.112761274 -0.03298757 0.030055359 0.040771205 0.0036588816 0.0048463778 0.0875986 -0.019087682
0.08352879 0.08445483 0.12069951 0.1320873 0.0753731 0.09655761 0.06861752 0.046506662
0.028356014 0.0180377 0.0083984705 0.03754121 0.0036273322 -0.032009892 -0.059590425 0.011030688
0.054393433 0.010430718 0.027051127 -0.044113614 0.08082837 0.10046072 0.09054845 0.023189245
0.046087567 0.08956993 0.03265937 0.045990642 -0.004587451 0.015320249 0.06852814 -0.033611547
0.039333023 -0.0034979305 -0.017041823 -0.07603434 0.046900406 0.043819852 -0.03052328 0.004062155
-0.105604954 -0.008132744 0.0047936602 0.05343738 0.03539287 0.08001317 0.008404334 0.008241636
-0.044951115 -0.05305117 0.014703299 -0.034270115 0.07516908 0.0060833073 0.053029414 0.011175612
0.17334604 0.060931873 0.156808 0.11899861 0.06202634 0.11494948 0.08640515 0.08678246
0.024526251 0.1010593 0.17509857 0.12414917 -0.025848405 -0.0290578 0.07834539 0.053011574
0.064063005 -0.018177085 0.0006019505 -0.036865465 -0.13998015 -0.08552241 -0.094055176 -0.1081944
0.07009925 0.005727883 -0.029249698 0.011831397 0.072310954 -0.030629043 -0.00757795 -0.022805812
-0.07094203 -0.0066846255 0.04908594 0.061520007 0.008155861 0.119883575 -0.002599381 0.10294614
0.055308383 0.06772715 0.079834566 0.110424615 0.08936836 0.113636695 0.06964192 0.12478516
-0.013234352 -0.06317006 -0.06146071 -0.05187342 0.011997574 -0.046092555 0.021008208 0.043224912
0.041472938 -0.0262971 -0.010977827 0.021555461 0.07155579 0.0849327 0.043015886 -0.008392734
-0.08746395 -0.026055582 0.004505899 -0.01908296 0.01623188 -0.017584788 0.024983708 0.008762024
-0.004163283 0.0725278 0.058005586 -0.008303127 -0.02032643 -0.04718582 -0.021253929 -0.037506662
0.11869872 0.13791908 0.147553 0.03720113 0.1248747 0.041108962 -0.048515867 -0.09620173
-0.11007962 -0.080485046 -0.055567425 -0.13011564 -0.026888117 -0.04719196 -0.07409856 -0.099990755
-0.0484976 -0.07959517 -0.06211462 -0.06587897 -0.124274954 -0.08589429 -0.061239403 0.023782514
0.037560258 -0.007882746 0.06166558 -0.019657705 0.10505819 0.029138276 0.0366008 0.0045362795
-0.08937311 -0.023107085 0.027226143 -0.037552778 0.051351856 -0.06675404 0.020367466 0.008186976
-0.03070772 -0.026502825 0.0042063543 0.013333687 -0.030250723 0.028529143 -0.069735415 0.030050764
-0.100062884 -0.089775264 -0.0668066 -0.09194871 0.0023921297 0.04763189 0.002748172 0.078020684
0.049444467 0.0997063 0.075904965 0.07329315 0.030547712 0.0731371 -0.046140127 0.019077213
0.17246935 0.22151415 0.1831937 0.11103906 0.18749097 0.28889796 0.22718908 0.21442781
0.1940679 0.24352658 0.27379277 0.25582072 0.20319533 0.20929013 0.19232252 0.29810783
-0.09350304 -0.09004017 0.03828678 0.03107476 -0.00027856257 0.046223182 0.037303526 0.033816826
0.064770885 0.064239495 0.048716955 0.10940022 0.20609885 0.19389293 0.0667204 0.13111262

network_body.observation_encoder.processors.0.conv_layers.2.bias f4 [32]
00000000: b8ff 203c 8b36 ec3c 05e3 38bc 7b69 aa3d
00000010: 2c7a 11bd 39ed 803c d706 ebbb b112 9fbd
00000020: da4a 35bd 1d8a 12be 57ae 143d b429 fd3d
00000030: f8e9 733d 9789 eabd 65d7 f93d 623c 393d
00000040: dac2 b73d 8402 2c3e a767 353d 4396 7d3d
00000050: 7d6a 7c3d 1833 c93d cbce 123e 5c9e 523d
00000060: 418d 863d 35d7 e7bc 1fe8 2b3e 4d52 29bd
00000070: ee99 dc3d 2fbd 7d3d 517a c2bd f6d0 12bc
0.009826593 0.028834602 -0.011284594 0.083209 -0.035516903 0.015738117 -0.007172446 -0.07767237
-0.044260837 -0.14310499 0.036299076 0.1236147 0.059549302 -0.114520244 0.12199286 0.0452236
0.08972712 0.16797835 0.044288304 0.06191088 0.061624993 0.098241985 0.14336698 0.051420555
0.06569911 -0.02830086 0.16787766 -0.041338254 0.10771547 0.061947998 -0.09495986 -0.008960953

network_body.observation_encoder.processors.0.dense.0.weight f4 [30, 512]
00000000: 6864 a9bd 52f5 fabc d9b4 04be d890 663d
00000010: ace5 7d3e 286f 353d 3e12 d13d 8c24 72bd
00000020: 906a 4dbc 3f5b b33b 6d84 a8bd e006 843d
00000030: e486 ee3d e4c7 8cbc 5e6e 41bd 25aa b2bb
00000040: 365e 11be 822d a7bd 020c 57bd d348 953c
00000050: 8bcd b5bd 0d21 70bd 56a4 0cbd 955a 22be
00000060: 49f1 1a3d 0f03 75bc e48e d83d f459 663d
00000070: c865 8abd de42 263d bc8e 06bd 1c40 bdbc
00000080: da34 29be a9ef e73b df67 b5bc dff1 78bd
00000090: e0c9 8a3d b176 873d d790 1fbd ac0a f1bd
000000a0: 5434 993d e2d6 91bd 2a1a cbbd b8b1 693d
000000b0: d0ed 60bb fd66 8c3c e390 0bbd 3b3f d2bd
000000c0: 66a4 5c3d ae80 06be 9ab9 08be e622 06bd
000000d0: a167 b13d 1015 203e 02b5 64bc ebc3 603d
000000e0: cb56 c13e 50ee 6e3e 05d1 873d 178a 84bd
000000f0: 6e60 943d 5b31 f8bc 8f72 d8bd 76bd eabd
00000100: 1530 cb3c ac0a 7bbd 3dd4 cabd 4fa2 93be
00000110: 2502 3fbd 60a1 373d 5837 6abd 4159 bdbd
00000120: dd0e 4ebe cce2 a2bd 2eac 99bd e21a 89bd
00000130: 0f32 6d3c d8ad 96bd dd8e f73c 7191 8dbc
00000140: e6a0 ccbd 4a97 80bd 4d09 30be 3bec 29be
00000150: 7627 043d 13d6 253e 671b 48bd 9a78 0cbd
00000160: b0f6 403e 6fcf 4f3e 4b0e b13c 1b78 e33d
00000170: 1ad7 ab3d 89fa 493d 31a8 8c3c 6e5e b1bd
00000180: 1b36 e3bd d303 fcbd baf9 cebc c4b8 96be
00000190: 8c72 de3d 492a 65bd 42b4 b1bb 34d4 b0bd
000001a0: 610b 593d a710 103c 9677 15bd fbb0 07be
000001b0: b2f6 6dbc e95b c1bb 85f2 4abe b143 97bd
000001c0: 3b8a 37bb 0d74 a7bc e0fa ecbc 57de f5bd
000001d0: a5bb b63b 045d fcbd 563c eabd c8b0 e8bb
000001e0: fa7a 313e 673a fb3d 22fb fa3d 792d 033c
000001f0: 8873 ef3d 909d 8abd e3db 41be 21e4 0c3b
00000200: 7115 b13d cf57 bb3d f5a3 ea3c 4691 243d
00000210: 83f9 debd addf 6bbd 5c65 a03c afdb 3d3d
00000220: e627 d03c ab49 013e 76f1 e3bd d994 2cbe
00000230: cc78 be3d 0c06 233d 8b20 adbd 1561 3dbe
00000240: 54b0 bdbc 2a5a 46bd 5cfe 7bbe c7d2 87bd
00000250: 488b 953c bb52 5abd 142f 33bd 6184 25bd
00000260: e2d5 073e a3e6 f03b 93ab 78bd bbad 093c
00000270: da1a 4f3e 42ea ca3d 46e6 433d da49 e7bc
00000280: e266 fcbb 17ff 31bd f448 83bd 4d08 c53d
00000290: 348b 413d 0116 8b3d 1d1e 8c3d 56a0 aebb
000002a0: 0e83 5b3e 9b6e 483d 318c 213d 91bd 10bd
000002b0: 2756 da3c 04a1 d53d a081 adbc b4d6 51bd
000002c0: 8c82 48be 29c3 903c 325e babd 9fbd 73bd
000002d0: e76a 0cbe 7621 173d 26b1 28bd 605a 70be
000002e0: 3b43 07bd 7f6f b93c ab22 c3bd e217 cebd
000002f0: b330 c83d 811a 7abd 0aa9 54bc 2eb1 0abe
00000300: 45f5 62bd 43f6 85bd ef91 83bd f8a7 7dbd
00000310: 8372 8dbd ff4a a23d 0260 25be 59ca ed3b
00000320: 377a 5d3d 0b7a 673d 9e01 37be d181 3dbd
00000330: 2867 363e 4cd3 823d c530 04bd 5064 c43d
00000340: dc45 ab3d f478 c93b 5352 41bd 4eb0 f33d
00000350: 8cc1 b53d 0935 8e3b 0e3a fe3b 9a5f 623c
00000360: 48f7 0abd 0424 d83d de4a 5dbd 324e bdbd
00000370: 9f08 81bd 569c 26bd 0780 4fbe 86f3 1dbe
00000380: 7093 a43d 6db8 133d 2f0c 5e3a 23cc 0d3d
00000390: 9f99 3c3e f4bc ac3d 74ed f83d a0e4 85bd
000003a0: f03e b43d 0f19 ee3d 1103 353c c367 fd3d
000003b0: 65d5 923e 2562 0d3e d4f4 863d 695b d9bd
000003c0: 6d5e 243e 4d00 b03d 5e17 65bc 87bd 64bd
000003d0: 0d9b bf3d b187 0c3d 86b8 bb3c 273e 513d
000003e0: 5a45 243e aaec 3d3d 83c4 8ebd 89d3 80bd
000003f0: 5ca0 af3d 133d 983d 0fe5 a93c f588 9fbd
-0.08271104 -0.030634556 -0.12959613 0.056290478 0.24794644 0.04429546 0.102085575 -0.059116885
-0.0125376135 0.005473524 -0.08228383 0.06446624 0.11646822 -0.017185159 -0.047224395 -0.0054524117
-0.14196095 -0.08162977 -0.052501686 0.018223202 -0.08877095 -0.05862527 -0.03433641 -0.15854867
0.037827764 -0.0149543425 0.10574129 0.05623813 -0.067576945 0.040591113 -0.032850966 -0.023101859
-0.16524068 0.0070781303 -0.022144256 -0.06077754 0.06776786 0.066144355 -0.03895649 -0.117696136
0.07480684 -0.07121064 -0.099171 0.05705425 -0.0034321435 0.017138952 -0.03407372 -0.102659665
0.05386772 -0.13135025 -0.13352051 -0.032748125 0.08662344 0.15633035 -0.013959171 0.054874342
0.3776153 0.23333097 0.06631664 -0.06471651 0.07244955 -0.030296972 -0.10568725 -0.11461918
0.0248032 -0.061289474 -0.099037625 -0.2883477 -0.046632905 0.044831634 -0.057181686 -0.092455395
-0.20122857 -0.07953414 -0.07503544 -0.066945806 0.014477267 -0.07357377 0.03021949 -0.017281266
-0.099916264 -0.06278856 -0.17191048 -0.16594021 0.032264195 0.16194944 -0.048854258 -0.034294702
0.18844104 0.20293973 0.02161326 0.11106893 0.08390637 0.049311195 0.017170044 -0.08660589
-0.11094304 -0.12305417 -0.025265563 -0.2943784 0.10861692 -0.05594853 -0.0054230997 -0.086342245
0.052989367 0.008793033 -0.036491 -0.13251106 -0.014524149 -0.005900849 -0.19819076 -0.07385958
-0.0028005976 -0.02044108 -0.02892822 -0.120052986 0.005576568 -0.12322429 -0.114372894 -0.007101152
0.17332068 0.12266999 0.12254931 0.008006447 0.11691958 -0.06768334 -0.18931536 0.002149828
0.08646668 0.091476075 0.028642634 0.040177606 -0.10887434 -0.05758636 0.019579582 0.046352085
0.02540965 0.12625758 -0.111300394 -0.16853656 0.09300384 0.03980069 -0.08453473 -0.18494065
-0.023155369 -0.04842583 -0.24608749 -0.066319995 0.018254891 -0.053301554 -0.04374607 -0.04040945
0.13265184 0.007351713 -0.0607105 0.008403237 0.20225087 0.099079624 0.047827028 -0.028233457
-0.0077026943 -0.043456163 -0.06410399 0.09620724 0.047251895 0.06791306 0.06841681 -0.005329172
0.21436712 0.048933607 0.039440338 -0.035337035 0.026652409 0.10431102 -0.021179974 -0.051230147
-0.1958105 0.017671185 -0.090999976 -0.05950701 -0.13712655 0.036897145 -0.041184567 -0.23471975
-0.0330231 0.022636173 -0.09528097 -0.10063149 0.09774914 -0.061060432 -0.012979755 -0.13544151
-0.05540969 -0.06541111 -0.06424319 -0.061927766 -0.06906607 0.079244606 -0.16149905 0.0072567877
0.05407163 0.056512874 -0.1787171 -0.04626638 0.17812788 0.06387958 -0.032273073 0.095894456
0.08362934 0.006148452 -0.04719765 0.11898862 0.08874807 0.0043398184 0.0077583855 0.0138167385
-0.033927232 0.105537444 -0.054026477 -0.0924343 -0.063004725 -0.040676437 -0.20263682 -0.15424928
0.08035934 0.036064554 0.00084704434 0.034618508 0.18417977 0.084344774 0.121546656 -0.065377474
0.08801067 0.11625873 0.011048094 0.123733066 0.28678432 0.1380697 0.06589666 -0.10613138
0.16051646 0.08593807 -0.013982622 -0.05584481 0.093557455 0.034309093 0.022915136 0.051084664
0.1604208 0.04636828 -0.069710754 -0.06290347 0.08575508 0.07433524 0.020739106 -0.07789794

network_body.observation_encoder.processors.0.dense.0.bias f4 [30]
00000000: 910e e8bb 85a1 05bd 8859 623c c3a2 e5bd
00000010: 00c9 c2bd 16a4 b1bd decb dabd b05e b33c
00000020: ad00 043d 22fe a1bd ac9a 1dbe 481c 99be
00000030: 43f0 cebd d8e3 27be ed1b ecbc f9d7 05be
00000040: 1b06 a2bc 0e5a 8f3d b26d 2fbe 7d55 05be
00000050: 7f9d 3b3d ba43 eabc 7503 35be d7ec 31bc
00000060: 560e efbd 37fc e2bd 2339 5cbc 6d79 f6bd
00000070: b288 49be dc7d 28be
-0.0070818146 -0.03262474 0.013815291 -0.11212685 -0.09510994 -0.08673875 -0.10683416 0.021895736
0.032227207 -0.079098 -0.15391034 -0.2990439 -0.1010442 -0.16395509 -0.02882191 -0.13070668
-0.019778302 0.069995984 -0.17131689 -0.13020892 0.045804497 -0.028596748 -0.176771 -0.01085969
-0.11672656 -0.110832624 -0.013441357 -0.12034879 -0.19681051 -0.16454262

network_body._body_endoder.seq_layers.0.weight f4 [30, 33]
00000000: 7d7f bc3c b3e3 bcbc eefe c53b a902 81bd
00000010: f2d6 03be bdd6 b0bd d8c5 8ebe 43f4 5abd
00000020: 576c 28bd 96d7 86bc 585c da3d 9ca7 0cbd
00000030: 83d6 b83d 89e1 88bc e861 963c da05 a0be
00000040: 2977 66bd cfda 9abc 3fbd 963d 1dea 37bd
00000050: 6102 e13d 4b1d c6bb dc0f c7bd e604 06be
00000060: 558b 11be b231 8e3e 0be2 9fbd 6a13 86be
00000070: 8dbf 163e e13f 62be 30ad d5bd 81cd c2bf
00000080: f3f6 2b3b 9ae2 c43e fa9d 4fbe 1d06 02bf
00000090: 76a9 5fbc 0448 5a3e dfcc f63d f4ba 04bd
000000a0: 21ed 99be 24f6 0fbd 41b7 94bd 512b 163e
000000b0: 09e0 fd3d c939 943e 3e29 073e a09f 8ebe
000000c0: 68f3 713e d474 6c3e 8298 febd cbed 5ebc
000000d0: c50d f13e 1bf0 873e e52b 403e 62d4 db3e
000000e0: 1f08 03be a851 923c 3cd2 033e 9a99 dabc
000000f0: 930f 0bbd 9685 a73b f52e 753c e9f4 263e
00000100: 139a 3f3f ad1b a63e c290 35be b342 883d
00000110: 3cb9 c23d ac3d 71bd 5dce 3dbe 547c b23c
00000120: 2152 a2be 7b5e 0b3d d74d 8a3d 0e93 c13d
00000130: 8f37 bfbd b0ec ebbd 588b 07be 80d0 a3be
00000140: bc4f db3d 3bf4 12be 104c 9cbd 45da db3d
00000150: e9f2 b3bd 1dd8 71be 8cd0 1ebe 63cd abbe
00000160: 20f8 96bd 00ee 91be b912 063e 351e 5cbe
00000170: 7835 1ebe a66d 9f3a 6bcc 86bd 133e d73d
00000180: 1f36 b33d 55d6 ab3f 685a 96bc 1348 f5bd
00000190: d06f 0fbe 6c96 88bc 9f82 533d ba03 7bbd
000001a0: 1e5f 1fbe af8d 06be 7283 9b3d 6d2b a53e
000001b0: 8ce9 1fbe f838 2f3e 63d1 a1be 85ed 1abe
000001c0: 40d1 24be 79a3 81bc 52a6 db3d 83fa adbe
000001d0: 336f ba3d 19e4 15be 8dd9 f9bd 8265 01be
000001e0: 111c 973d 6824 b73d f48f 4a3e f3ae 19be
000001f0: 93e7 44bb 2a21 99bd 4fab 65bd de42 07bd
00000200: bc17 ebbd 2240 383e 59da 73bf 2842 3ebf
00000210: 37c8 19be fc80 94be ee55 373d e05f f9bd
00000220: 17b2 cb3d 82c3 f63d 59fb a4be 8c03 d33d
00000230: 5935 44bd 72ae 1abd efff 7abd df06 233d
00000240: 270b 413e c57c 9abe a486 6a3d 43dd 32be
00000250: 894e 35be 2a90 973d 5bde b73c f32a 983e
00000260: 5056 343e 3a3e 84be e5c9 d13c 5bcd 773e
00000270: 78da 8a3d 0210 74bd 35a0 a33e e394 54bd
00000280: a3b9 66bd 0f81 62bb ede9 19be 09b5 aabf
00000290: 3e3e 9abe dcba 38be 29b7 5b3d 11fb 8fbe
000002a0: 8aff cfba ba16 89bd d0ae b4be f5cb b9be
000002b0: 23ab 97be 1846 39be ca9c ed3b 5e9f 99bd
000002c0: 2d08 6c3e 4da9 aebc c753 f13d fbb9 31bc
000002d0: 739e 50be 3c5c e5be 2e11 703d 1025 e53d
000002e0: 0733 9abe 3b73 a7bd 2eb2 253e 0422 65bd
000002f0: 6f77 2fbe c78f 91bd 85e5 19be 9407 c43d
00000300: 6bc6 32be 0aa4 283e 4e78 763e 13bb 783f
00000310: 7558 5b3e 4918 56bf 748c 19bd 7fc0 5cbe
00000320: 7f30 593d acb2 88bd a6e3 df3c 9ad8 99bd
00000330: 1d9a e43c 14e5 23be 206e f13e 8d3a a03d
00000340: 9f77 f33c 0f51 013e 57e6 21bd d2e7 2abe
00000350: 876e 60bd 6c7e 2b3e e0c4 bc3e 5854 433c
00000360: bcd0 c43d d3ce 873d da68 cbbe c1b4 043e
00000370: e224 a7bd 5d96 8dbe f45d 223e 42ee c2be
00000380: 227c e0be 5fc8 f8bd d3f2 65be 25da e03d
00000390: 7e47 3cbe 8feb 953f d40f ef3d 357d 1fbe
000003a0: 3e05 a13d be88 fabc f658 08be ca15 57bc
000003b0: 16bc 4c3d ef49 43be 8da4 8ebe c4a3 5d3d
000003c0: 7a6f 57be 488e 9fbe 4822 43be 628c 623e
000003d0: 9dd2 ebbd 1c84 333c e379 923d 0db0 bc3e
000003e0: 645a ad3d aa80 3bbe 06a9 9bbd 04c4 253e
000003f0: 06e2 033d 8fb3 af3d 0363 84bd 7a9f 0e3d
0.02301001 -0.023057794 0.006042353 -0.062993355 -0.12874964 -0.08634708 -0.27885318 -0.053455602
-0.041118946 -0.016460221 0.106621444 -0.034339532 0.0902529 -0.016709106 0.018357232 -0.31254464
-0.056265984 -0.018903164 0.073603146 -0.044901002 0.10986782 -0.0060459725 -0.09719822 -0.13087806
-0.14213307 0.2777229 -0.07806786 -0.26186687 0.14721508 -0.2209468 -0.104334235 -1.5218965
0.0026239723 0.38454133 -0.20275107 -0.5079058 -0.0136512425 0.21316534 0.12050795 -0.032404855
-0.30063727 -0.035146847 -0.072615154 0.14664961 0.12396247 0.28950337 0.13199326 -0.2785616
0.23628008 0.23091441 -0.12431432 -0.013606499 0.47080818 0.26550373 0.18766744 0.42935473
-0.12796067 0.017861202 0.12873167 -0.026684571 -0.0339504 0.00511236 0.014964809 0.16304363
0.74844474 0.3244299 -0.17731002 0.06653347 0.09507987 -0.058896706 -0.18535753 0.0217878
-0.31703284 0.03402565 0.06753128 0.094518766 -0.09336769 -0.11519754 -0.13236749 -0.3199501
0.107085675 -0.14350979 -0.07631695 0.10734991 -0.08786566 -0.23617597 -0.15509242 -0.33555135
-0.07371545 -0.28501892 0.1309308 -0.21495898 -0.15450084 0.0012163415 -0.065819584 0.105098866
0.08750557 1.3424784 -0.018353656 -0.11976638 -0.14007497 -0.01667329 0.05163824 -0.06128285
-0.15563628 -0.13139986 0.075934306 0.32259694 -0.15616435 0.17111576 -0.31605062 -0.15129669
-0.16095448 -0.01582502 0.107250825 -0.33980188 0.09103241 -0.14637794 -0.12199698 -0.12636378
0.073784 0.08942491 0.19781476 -0.15008144 -0.0030045256 -0.07477029 -0.056071576 -0.033022754
-0.11479136 0.17993215 -0.9525505 -0.74319696 -0.15017782 -0.29004657 0.044759683 -0.1217649
0.09946077 0.12049009 -0.32223013 0.10303411 -0.04790244 -0.03776402 -0.061279234 0.039801475
0.1885191 -0.30173317 0.05725731 -0.17467217 -0.1770574 0.07400544 0.022444895 0.29720268
0.1761105 -0.25828725 0.025608966 0.2419943 0.06779951 -0.05958558 0.31958166 -0.051899802
-0.05632938 -0.0034561788 -0.15030642 -1.3336498 -0.30125612 -0.18040031 0.053641472 -0.28121236
-0.0015869003 -0.06693788 -0.3528962 -0.3628842 -0.29622754 -0.18093145 0.0072513567 -0.075011
0.23049994 -0.021320963 0.117835574 -0.010847564 -0.20372944 -0.44796932 0.058610134 0.1118871
-0.30117056 -0.08176275 0.16181251 -0.055940643 -0.17135404 -0.071075015 -0.15028961 0.09571758
-0.17458503 0.16468826 0.2406933 0.9716045 0.21420462 -0.83630806 -0.037487462 -0.21557806
0.053024765 -0.06674704 0.02733023 -0.075120166 0.027905518 -0.16005355 0.4715433 0.07823668
0.029720126 0.12628578 -0.03952631 -0.16689995 -0.054792907 0.16747445 0.36868954 0.011921965
0.096101254 0.066312455 -0.39728433 0.12959577 -0.08161332 -0.2765378 0.15856153 -0.380724
-0.43844706 -0.12147593 -0.22455911 0.10979108 -0.18386647 1.1712512 0.11672941 -0.15575106
0.07862328 -0.030582782 -0.13315186 -0.0131277535 0.04998406 -0.19071172 -0.27859917 0.054111257
-0.21038619 -0.3116324 -0.19056046 0.22123864 -0.11514781 0.01095679 0.07152154 0.36853066
0.08464506 -0.183108 -0.07600598 0.16188055 0.032197975 0.0857917 -0.064641975 0.034820057

network_body._body_endoder.seq_layers.0.bias f4 [30]
00000000: ea4a 963d e310 d2bd 1e77 753e 69bf 483e
00000010: c27a 2b3e 97cf 5b3d 3405 4f3e 63df 293e
00000020: 21e3 8ebe e9b8 e53d a8f8 abbe 145b d8bd
00000030: a6fb 613e c224 113e 5e8a 7a3d 42de 513e
00000040: 6042 5b3d c6c3 9abe 03e0 c83c 287a 0d3e
00000050: 3083 2f3e 214f 1d3e c6ad 3ebe b148 833e
00000060: f63d 9a3e e85a 303e 787b 413e d28c 533d
00000070: 0ebb fd3d 05e6 4c3e
0.073385075 -0.10257127 0.23971221 0.19604267 0.16746047 0.05366477 0.20216829 0.16589122
-0.2790766 0.112169094 -0.33588147 -0.10564247 0.22068653 0.14174178 0.061167113 0.20494941
0.053530097 -0.30227488 0.02452088 0.1381613 0.17139888 0.15362217 -0.18620977 0.25641397
0.30125397 0.17222178 0.18894756 0.05164797 0.123891935 0.2000962

action_model._continuous_distribution.log_sigma f4 [1, 2]
00000000: 8546 e3be 6c57 05bf
-0.4438974 -0.5208652

action_model._continuous_distribution.mu.weight f4 [2, 30]
00000000: 7eb6 af3d 84e1 58be 29bc 1d3e ccaa 9d3e
00000010: ee45 3d3e f976 bc3e 34b8 a63e bce3 b2bd
00000020: 73ba 0bbf 1683 363d 587e 1dbf 3ba9 61bd
00000030: e4d2 e43d dd08 f73a 5480 0bbe 34e5 89bd
00000040: 7f4a dabb 1c2b 3abf 2798 1cbd b058 cebd
00000050: 2a5b 943e b9e9 5d3e d57d 45be 89ac 883e
00000060: 971b c03d fbc3 183e 7875 893e 4a21 873d
00000070: 466f fd3b 2ada 67bd 0554 36bf 88aa 243e
00000080: 4acb 103f 2869 a6be 12ad e8be 4086 113e
00000090: a728 dd3e d18f 1b3f 308d 103d 0b61 e13e
000000a0: b8af ddbe c708 bc3e 68d2 18bf a94c 153f
000000b0: 74d5 ec3e 5b31 f93e 31c9 0fbf 97ac 38be
000000c0: 3868 d53e facf d03e b867 6dbf 97d7 f2be
000000d0: bb5c e5be 5cde b2be a438 033f 5200 08bf
000000e0: cf63 14bf 4ded 03bf 5390 c43e ebeb 1c3e
0.085797295 -0.21179777 0.15403809 0.3079437 0.18483707 0.3680952 0.3256241 -0.08734843
-0.54581374 0.044558607 -0.6152091 -0.05509303 0.11173037 0.0018847246 -0.13623172 -0.0673317
-0.0066617127 -0.7272203 -0.03823104 -0.100755095 0.28975803 0.2167119 -0.19286282 0.26694134
0.09380262 0.1491851 0.26847434 0.06598146 0.007734212 -0.05660454 -0.71221954 0.16080678
0.56560194 -0.32502103 -0.45444542 0.14211369 0.43195078 0.6076632 0.035290897 0.4401935
-0.43298125 0.36725447 -0.59696054 0.583201 0.46256602 0.48670468 -0.5616637 -0.18034588
0.41681075 0.40783674 -0.9273639 -0.47430107 -0.4479731 -0.34935272 0.512583 -0.5312549
-0.57964796 -0.5153397 0.3839136 0.1532437

action_model._continuous_distribution.mu.bias f4 [2]
00000000: f800 9e3e 78c2 2a3e
0.30860114 0.16675746
