Assets/ML-Agents/Training Files/results/9roads_cameraSensor_ppo_vehiclesAndChekpointsMasked_brakeX2_1layer_64_256/VehicleAgent/VehicleAgent-20499775.pt (torch, 838483 bytes, 72 tensors)

network_body.observation_encoder.processors.0.conv_layers.0.weight f4 [16, 9, 8, 8]
00000000: 3c90 943c e441 263c 91fd 93bc 8053 c53b
00000010: 8a19 51bc b669 1cbd 5504 f1bc d900 7f3a
00000020: 8998 003d 2c0c 1fbd 8507 e53c d2d8 aabb
00000030: 7f43 0abd 2793 bd3c fe73 6c3c c7b1 063d
00000040: 79a5 3abc dd03 94b9 8c80 233c 287f 8fbc
00000050: 91d4 743c fb7b 993d 0b80 8e3d 31b5 8e3d
00000060: 8513 923b 7c04 dbbc c7f5 f83b 40ff 4fbb
00000070: b26e 82b9 32e4 003b 1485 ed3b f94a a53d
00000080: ab8a 163d d7aa 583d 31ac 523d 6830 583d
00000090: ba5a 583d 28bd 0e3d f844 533c db4e 1a3d
000000a0: 3cba 3d3c c2fc 7e3d e0ca 333c 6503 943d
000000b0: e470 133c 7e29 783c f09c 1f3d 8197 1e3d
000000c0: 35ba 863d 5b00 ce3c aebb 6f3d fd30 873c
000000d0: 09f9 353d 52e6 013d 14c1 dcbc d523 97bc
000000e0: 32d3 1a3d 0a06 02bb d9dd b53b 2357 b03b
000000f0: 055f 7d3c b27f 4c3d b0bf 193d 219a b9bb
00000100: 950a 00bd 3623 643b 2ab1 c23c 10ef 60bd
00000110: b91d 01bd 9e88 b03c 7a90 bebc 611e 05bd
00000120: bb79 ba3c d3d9 f43c 3239 9ebb 8db5 44bc
00000130: cdb7 ee3c bf81 693d 4fc9 213d bdc3 a9bb
00000140: 29a4 823b 02dd 2a3d ff0c 6d3c e5d7 ed3c
00000150: 3e21 843d d05b 5f3d 5abe c13d c565 f53d
00000160: 75f8 aa3d a4a8 903d e741 a83d 7d34 1e3d
00000170: 6f6a 443d ad18 c73d 7b9c cb3d 85bd aa3d
00000180: 87ef a83d 7782 853d 649a a53d 569a 0e3e
00000190: 7170 893d 8688 9f3d 8932 043e e7aa 683d
000001a0: a6e0 743d 63b9 8a3d 6691 013e 24ba 6e3d
000001b0: 2d73 943d 0ab1 9c3d 815b b93d 4a67 dc3d
000001c0: 155b 7d3d bf46 ed3d 1f17 f43d d07a f13d
000001d0: afe5 7d3d f946 513d fb5b 7e3d e367 983d
000001e0: 9e79 b33d 0a33 f43d 13ca 033e 5297 8e3d
000001f0: 1120 df3d 0857 e93d 9041 853d 0a55 953d
00000200: 7582 aebd 1f63 97bc 61f4 67bd 5ee6 bfbc
00000210: d68c 9fbd 2159 2ebd 910e 96bd 91e4 30bd
00000220: fa60 34bd 1a1b 6cbc fae8 92bd 817b 5cbd
00000230: 1833 90bd c311 afbc d882 45bd 00e0 c03c
00000240: 64fa 83bc 5c1b 53bb 8dda 2cbd 00e1 21bc
00000250: a8da 713d 97d6 f93b d4e7 673d daf3 bc3d
00000260: 9346 c4bc f7db bdbc 79b7 8ebb e399 1a3d
00000270: 8460 2e3c 4773 9d3d bed7 9f3d 2fa3 8c3c
00000280: c165 933c 21c2 e63c cc2d 343d 8adc 2e3d
00000290: aedf da3c fc70 ae3c 35fa 623d f258 0e3d
000002a0: 28c1 be3c bd26 453d bd48 a73d 0a95 0b3d
000002b0: 19b9 603d cfad ac3d 7dd0 a93d d851 9e3c
000002c0: 4bed 923d da7b b83d 8d73 be3d c14b b83d
000002d0: b475 b63c 92bb 243b 333f 8d3d 4c92 b03c
000002e0: 94ef d13d 6035 943d d980 873d cf6b bd3d
000002f0: 0a66 9c3d 0f26 b93c 62b7 823d c2ff 823d
00000300: 9cf7 04bd ac19 45bd 30d8 8bbd da48 19bd
00000310: e69c 10bd 4249 98bd 5c03 41bd 2d4f d9bc
00000320: 282a 77bd 4cd7 0bbd 0870 06bd 0f3b 27bd
00000330: 8749 1dbd b53c 3dbd ecd1 34bd f034 48bd
00000340: 2673 69bd 6e29 24bd 8384 46bd 5b3a 2f3c
00000350: 1966 7abd 6efe 85bd 7511 88bc f844 2d3c
00000360: fec2 9ebd be54 bfbd 6c1f 93bd 98a2 cbbd
00000370: 53a7 95bd 6fc3 c2bc af1b fb39 ae3d a6bc
00000380: 11ff 59bd 0094 8ebd 3dbd 27bd 8b12 83bd
00000390: 151c 85bd 397e 06bd 52b2 e5bc 5c95 2bbc
000003a0: 7ef5 0cbd f158 fcbc c6ae f0bc ba24 f4bc
000003b0: 94ad 34bd 96df 4b3d b81c 513b fe4f 283d
000003c0: d605 84bd 1129 4bbd 064e 30bd 0e16 453c
000003d0: 5724 723d 94ef 1e3d 63b6 103d 982a 47bc
000003e0: b638 11bd 1ca3 13bc 772a 01bd b443 4fbc
000003f0: ee8c 6b3c dc9e 75bb 66d4 3b3d b3e2 083d
0.018135183 0.0101475455 -0.018065246 0.006021917 -0.012762437 -0.03818675 -0.029421011 0.00097276043
0.03139547 -0.038829967 0.027957687 -0.0052138353 -0.033755776 0.023141457 0.014431952 0.032884385
-0.011391991 -0.00028231638 0.009979378 -0.017516688 0.014943258 0.074943505 0.06958016 0.06968153
0.0044578933 -0.026735537 0.0075976583 -0.0031737834 -0.00024878007 0.0019667265 0.00724853 0.080709405
0.036753338 0.0528973 0.051433746 0.05278054 0.0528209 0.034848362 0.012894861 0.03767286
0.011580046 0.062252767 0.010973662 0.0722721 0.008999083 0.015146611 0.038968027 0.038718704
0.06578485 0.025146654 0.058528595 0.016502852 0.04442695 0.03171379 -0.026947536 -0.018449703
0.037799068 -0.0019840025 0.005550128 0.0053814813 0.015464549 0.049926467 0.037536323 -0.0056641256
-0.03126009 0.0034811026 0.023766119 -0.054915488 -0.031522486 0.02154952 -0.023262251 -0.032499675
0.022763124 0.029889023 -0.0048285956 -0.012006176 0.029140377 0.0570085 0.039498623 -0.0051808045
0.0039868546 0.041714676 0.014468431 0.02903361 0.06451653 0.05453092 0.09460135 0.119823016
0.08348171 0.07063416 0.08215695 0.038624275 0.047953065 0.097215034 0.09941956 0.08336929
0.08248811 0.06519025 0.08086088 0.13926062 0.067108996 0.07789712 0.12909903 0.05680361
0.059784554 0.06773641 0.12653121 0.058282986 0.072485305 0.07650955 0.09050656 0.10761888
0.06185444 0.11585759 0.119184725 0.11791003 0.06198662 0.051093075 0.06209944 0.0744169
0.08763431 0.119237974 0.12870054 0.06962456 0.10894788 0.11393553 0.06506646 0.072916105
-0.085209765 -0.018479882 -0.056629542 -0.023425277 -0.07790534 -0.04256547 -0.07326997 -0.043186728
-0.044037797 -0.014410758 -0.07173343 -0.05382872 -0.07040995 -0.021370774 -0.048220485 0.023544312
-0.016110606 -0.0032212352 -0.042200614 -0.009880304 0.059046417 0.007624458 0.056617573 0.092261985
-0.023959434 -0.023176176 -0.0043553677 0.037744414 0.010643128 0.07688003 0.078048214 0.017167656
0.017992856 0.02816874 0.043988988 0.04269079 0.026717987 0.02129411 0.055414397 0.034752794
0.023285463 0.048132647 0.081681706 0.03407768 0.054864023 0.08431589 0.08291719 0.019326136
0.07174166 0.09007998 0.09299383 0.08998824 0.022272922 0.0025136215 0.0689682 0.021554135
0.10250774 0.07236743 0.066163726 0.092490785 0.0763665 0.022601156 0.06382634 0.06396438
-0.0324627 -0.048120186 -0.06828344 -0.037422992 -0.03530588 -0.07435848 -0.047122344 -0.026527012
-0.060342938 -0.03414087 -0.032821685 -0.040827807 -0.0384002 -0.046200473 -0.04414551 -0.04887861
-0.05699458 -0.040078573 -0.048466217 0.010695065 -0.061132524 -0.06542669 -0.016609887 0.010575525
-0.077520356 -0.09342335 -0.071837276 -0.09943122 -0.07307305 -0.02377483 0.00047895077 -0.020293083
-0.053221766 -0.069618225 -0.040951956 -0.06400021 -0.06499497 -0.03283522 -0.028039131 -0.010472622
-0.034413807 -0.03080413 -0.029380213 -0.029802669 -0.04411085 0.049773775 0.0031907987 0.04109191
-0.064464256 -0.04959971 -0.04304316 0.012029184 0.059116688 0.0388027 0.035330188 -0.012156151
-0.035454474 -0.009011056 -0.03153464 -0.012650419 0.014376862 -0.003747872 0.045856856 0.033419322

network_body.observation_encoder.processors.0.conv_layers.0.bias f4 [16]
00000000: 63e5 45bd 536b 74bd ef52 993d 8f23 52bc
00000010: 4c72 92bd 6868 0b3e be1a 6bbe 8e3e 05be
00000020: 6057 57b9 1c00 77bd 48f3 aa3d 9188 be3c
00000030: 2980 303d 2b47 9a3d 8b49 59be 07cd 0abe
-0.048314463 -0.059672665 0.074865215 -0.012825861 -0.07150707 0.13614047 -0.2295942 -0.13012144
-0.00020536548 -0.06030284 0.083471835 0.02325848 0.043090973 0.075331055 -0.2121946 -0.13554774

network_body.observation_encoder.processors.0.conv_layers.2.weight f4 [32, 16, 4, 4]
00000000: b042 c5bd 6fdc 33bd 1a45 75bd e027 c2bc
00000010: d192 0dbe 4588 4fbe d2bb 12be 914f dabd
00000020: 5ba5 da3b bbb1 7cbc 5413 65bb c7aa 6f3d
00000030: 50c7 fdbd 2983 d6bc fe8e 64bd c323 93bd
00000040: 9f93 e13d 4a40 22bd 53f9 cc3c 2e54 113d
00000050: b03d 543b 5aba ae3a 525b ac3d 3789 a7bc
00000060: 0a9b 9c3d 707c ae3d 2ecb ff3d 8171 0d3e
00000070: 7f8c a23d 1785 d03d 4771 9a3d 747d 553d
00000080: 1031 b83c 7f4c 493c 2c23 c13a 1b57 f33c
00000090: 9e7e afba f83f 1cbd bc2e 7cbd 477b 453c
000000a0: edd7 803d a610 9a3c 9756 0d3d f3f3 1abd
000000b0: a7bf ae3d e963 d43d 04e0 bd3d 76d9 ca3c
000000c0: 3931 183d dc98 aa3d 2ecf e93c 0764 313d
000000d0: 6cb5 823a ecf5 9e3c 4126 903d 9c90 08bd
000000e0: 1708 463d ff89 a33b 8114 13bc 7eeb 8cbd
000000f0: a623 5e3d 9c31 4e3d 1d1d cbbc e445 173c
00000100: 3741 d2bd 7d88 96bb 0f62 fd3b c264 663d
00000110: bd85 173d 3981 a43d 8c59 263c 6eb2 c73b
00000120: ed29 57bd 8fa1 6fbd a91d 693c 0d8f 07bd
00000130: 4814 aa3d bfef 963c 9dc4 7d3d 7f82 8c3c
00000140: d344 243e bda1 4e3d d677 173e fa18 e13d
00000150: 8ba1 603d d55c de3d 30ad a33d a575 a23d
00000160: e461 e53c 6011 d53d 967d 363e 9e69 003e
00000170: 0937 f1bc b663 08bd d497 963d 00bf 803d
00000180: 8857 6f3d b5bd c7bc 8ce7 adbb e79d 29bd
00000190: b12a 0ebe 4638 aebd 5ff9 bfbd ab52 d8bd
000001a0: 54c7 a23d a723 743c f5ce 84bc c0fc d93c
000001b0: a2a2 ac3d 4cea 6abc f1ce 153c 78ae 28bb
000001c0: 596a 79bd 24c1 123b 527b 6d3d 5b24 923d
000001d0: 954a 313c 7c81 f93d 05d9 3abb 3c5f dd3d
000001e0: 0b43 533d c981 8e3d 8b3f a93d d898 e93d
000001f0: 1f14 c53d 5221 003e bb54 9f3d 6c0a 093e
00000200: 4a3e 973a 0a1e 67bd 274a 5dbd 996b 35bd
00000210: ba1b 8b3c 339c 29bd 33be b63c 8cf7 343d
00000220: ea13 383d b7cf bdbc c1c9 06bc c0bf c73c
00000230: cc6f 9a3d 2b11 b43d 934b 3b3d e1fd aebb
00000240: 144f acbd 3d0c b7bc 2303 1b3c 3851 7bbc
00000250: 5fbd 433c dc3f aebc 2e22 b73c e9c0 663b
00000260: 347a 2bba a036 853d b208 623d 4e2f 41bc
00000270: 2c34 78bc 2ee4 2fbd fe31 8dbc 2e05 0cbd
00000280: 3f12 fa3d 00c2 123e 5bb0 1d3e 85f7 343d
00000290: f838 003e 900c 2c3d 9b85 45bd 4737 c3bd
000002a0: 6482 c6bd 9b50 8abd 6794 2ebd 47f2 f4bd
000002b0: fa2c 9fbc bc13 27bd 2042 8ebd c191 c7bd
000002c0: 4153 19bd 1a19 84bd a089 38bd e7ae 3dbd
000002d0: 6bad f8bd d263 aebd 1d74 61bd 8a70 013d
000002e0: 72f1 803d 64c7 f13c 250d d33d 03ca 993c
000002f0: 79f5 173e e8d0 853d 83ff 7e3d 6053 083d
00000300: cc7e bbbd 7c71 c2bc 297f dd3c 828e 1cbd
00000310: c209 853d f558 67bd 53b0 e33c 2ee7 7c3c
00000320: 5a31 d9bc cdcd 46bc 92b4 fa3c 466f 3e3d
00000330: 58b0 93bc 01fb 283d d959 70bd 17a2 1e3d
00000340: 8218 cebd 296c b6bd c5d2 89bd 9d59 bebd
00000350: e814 033c 6f6f 5b3d 37b8 053c 9f43 ab3d
00000360: d8e3 863d e52e e73d a671 b13d a6cb aa3d
00000370: 3b6f 0b3d a637 a73d 55a9 1dbd 01fd c43c
00000380: 115b 313e 2f58 633e 8f3d 3c3e b624 e53d
00000390: 9929 3f3e 6e6a 933e eda5 673e 9280 5a3e
000003a0: 2a2b 4b3e dc6a 7d3e 0acf 8d3e 1814 843e
000003b0: 9c07 533e 6d70 583e 0532 463e d7d8 983e
000003c0: a431 bdbd 71da b7bd 2ddf 1a3d 6238 003d
000003d0: 02ad 9e3a 7337 443d a92d 1f3d 3403 103d
000003e0: 9767 6f3d 0a6f 733d b515 3e3d adda e23d
000003f0: 818b 533e cc65 493e 58a4 903d 16e7 093e
-0.0963186 -0.043911394 -0.059880354 -0.023700655 -0.13825537 -0.20266826 -0.1432946 -0.10659707
0.006672544 -0.015423234 -0.0034954147 0.058512475 -0.123915315 -0.026185589 -0.05580043 -0.071845554
0.110144846 -0.039612092 0.02502123 0.03548067 0.0032385401 0.0013330684 0.084158555 -0.020451171
0.07646759 0.08519828 0.12489925 0.1381283 0.07936954 0.10181635 0.07541137 0.052121595
0.022484332 0.0122863045 0.0014735213 0.029704621 -0.0013389175 -0.038146943 -0.061568007 0.012053317
0.062911846 0.018806767 0.034506407 -0.037830304 0.085326485 0.10370619 0.09271243 0.024761897
0.037156317 0.08329937 0.028541174 0.043308284 0.0009972281 0.019404374 0.07038546 -0.033341035
0.04834756 0.0049908157 -0.0089770565 -0.06880854 0.054233216 0.05034028 -0.024794156 0.009232972
-0.10266345 -0.0045939074 0.0077326368 0.056248434 0.036992777 0.0803246 0.010153186 0.0060942685
-0.052530218 -0.058503684 0.014228263 -0.03309541 0.083046496 0.018424867 0.061955083 0.01715207
0.1604188 0.050447214 0.14791808 0.10991092 0.05484156 0.1085755 0.07992017 0.07932595
0.02800078 0.10403705 0.17821345 0.1254029 -0.029445188 -0.033298217 0.07353178 0.0628643
0.058433086 -0.024382452 -0.0053071436 -0.041410353 -0.13883473 -0.08506827 -0.09373736 -0.10562643
0.07948175 0.014901078 -0.016211966 0.026609778 0.08429457 -0.014338087 0.009143577 -0.0025738757
-0.060892437 0.0022392953 0.057978936 0.071358405 0.010821004 0.121829 -0.0028510701 0.1080918
0.05157761 0.06958348 0.08264073 0.11406106 0.096229784 0.1251271 0.07779833 0.13382882
0.0011538949 -0.05642513 -0.054025795 -0.044292066 0.016980994 -0.04140873 0.02230749 0.04418139
0.044940867 -0.023170335 -0.008226813 0.024383426 0.07540855 0.08792337 0.04572637 -0.0053403233
-0.084135205 -0.022344703 0.009461197 -0.015339188 0.011947005 -0.021270685 0.022355165 0.0035210198
-0.0006541342 0.065045595 0.055184074 -0.0117910635 -0.0151491575 -0.04294222 -0.017235752 -0.034184627
0.122105114 0.14331818 0.15399306 0.044181366 0.12521732 0.042004168 -0.04822312 -0.09532028
-0.09692839 -0.067536555 -0.042621996 -0.11960273 -0.019430626 -0.040790305 -0.06946206 -0.09744597
-0.037432913 -0.064501 -0.045053124 -0.046309378 -0.12142452 -0.08515133 -0.055042375 0.031601466
0.06296052 0.029514022 0.103052415 0.018773085 0.14839734 0.06533986 0.062255394 0.033282638
-0.09155044 -0.023735754 0.027038174 -0.038221844 0.06496002 -0.05648132 0.027794039 0.015435977
-0.02651279 -0.012134028 0.03060368 0.046492837 -0.018028423 0.041255 -0.058679435 0.0387288
-0.10063268 -0.08907349 -0.06729654 -0.09294436 0.00800059 0.05357307 0.008161596 0.08362507
0.065864265 0.11288241 0.08664255 0.08339624 0.034041625 0.08164911 -0.038491566 0.024046423
0.17319895 0.22201608 0.18382858 0.11188643 0.18668212 0.28792137 0.2262189 0.21338108
0.19840685 0.24747795 0.2769702 0.2579658 0.20608371 0.21136637 0.19355018 0.29852936
-0.09237984 -0.08977211 0.037810493 0.03130377 0.0012106004 0.047904443 0.038861904 0.035159305
0.0584484 0.059432067 0.04640742 0.11076865 0.20658685 0.19667739 0.07062596 0.13467059

network_body.observation_encoder.processors.0.conv_layers.2.bias f4 [32]
00000000: ef22 883b 8410 a63c d538 10bc 9437 973d
00000010: ba82 10bd 45d3 d63b 86e8 01bc 3296 95bd
00000020: 0c72 46bd 188e 06be b29c 103d 5987 f93d
00000030: 240b 443d b220 f2bd 4d03 ef3d 9733 413d
00000040: 97c7 b43d ba99 2c3e f1d7 3d3d 58b3 6d3d
00000050: 089b 653d 4f3f c43d e53a 073e a4da 4a3d
00000060: 2797 763d f36d 24bd e10c 2b3e 6995 2dbd
00000070: 334a e13d 03c6 703d 9072 b7bd 71ef bdbc
0.004154555 0.020271547 -0.008802612 0.073836476 -0.03528092 0.006555947 -0.007928973 -0.07304038
-0.048448607 -0.13140142 0.035305686 0.12184019 0.047862187 -0.118226424 0.116705514 0.04716834
0.08827131 0.16855517 0.046348516 0.058032364 0.056056052 0.09582388 0.1320606 0.04952492
0.060202744 -0.04014392 0.16704132 -0.042378817 0.110004805 0.05878259 -0.08957398 -0.023185464

network_body.observation_encoder.processors.0.dense.0.weight f4 [30, 512]
00000000: b250 82bd 3848 45bc cada ebbd 33b6 8e3d
00000010: 5fc0 863e 903a 843d 77e9 f53d 4f77 4cbd
00000020: 7eb8 9d3a ea8d 783c 601d 96bd c03e 903d
00000030: 9edc 013e 23af bdbc 00aa 5fbd e9bc 0abc
00000040: f632 15be 6b6f bebd 6ed6 77bd e617 bc3c
00000050: 8deb a2bd 87d3 4abd 7395 e8bc 41d8 21be
00000060: 5fb3 2e3d c322 0dbc ea54 ea3d d979 7b3d
00000070: 46a8 80bd 8fc7 0a3d edba 20bd 48c0 e4bc
00000080: 87bd 29be 84ac dc3b 0273 a9bc dd40 67bd
00000090: 135e 953d edbd 943d fd37 0cbd 1850 f3bd
000000a0: 00fc 9b3d b62b 8fbd d9ea bbbd 73e6 863d
000000b0: 14d2 17bb d7e0 973c 5141 02bd ecab c3bd
000000c0: 8e99 823d 351f 00be f20b f4bd 1652 72bc
000000d0: 8134 cf3d 3032 353e 6c6d eaba 6d51 823d
000000e0: 05f9 c33e 3b09 763e 9423 8e3d 2e8b 81bd
000000f0: 55da a03d b7e5 08bd af98 e2bd 9e17 f2bd
00000100: 3a5c 223d c841 30bd 7127 a5bd adca 8cbe
00000110: 1352 56bd d33b 2e3d 6a32 46bd 60c2 a7bd
00000120: 7e64 46be 177b abbd 625b 82bd 4cf6 86bd
00000130: cf27 073d d319 babd 00c2 df3c 2ddb bfbc
00000140: 18da c7bd 4edd 7dbd 0d0c 30be d73a 2dbe
00000150: 977e 193d 1422 2d3e e1d9 2abd c679 e7bc
00000160: 554d 413e d44f 513e ca64 b83c bcdb d53d
00000170: 8bee a43d 92d4 373d eb3a 513c 4681 b8bd
00000180: 04b1 efbd 39c8 04be 1661 04bd 1ae7 99be
00000190: d45a dc3d 952b 67bd 5e8d fbbb 65c0 b7bd
000001a0: 91d8 603d 710d f13b d2e1 27bd 5f68 0dbe
000001b0: e9e1 a3bc 968a 30bc 3dde 50be a4c0 a5bd
000001c0: 5573 c8bb 4ca0 dbbc dd55 26bd ac58 ffbd
000001d0: 8226 7b3b 4b38 03be a0b5 fbbd e643 92bc
000001e0: d2ad 303e cb56 fa3d f766 fb3d 9134 b63a
000001f0: dd6d ee3d 9be6 aabd 73c8 51be 7d10 4fbc
00000200: a1f8 ae3d ac74 b63d d31a c23c ffb2 043d
00000210: 49b1 debd e5cb 6cbd c06d a53c 97c5 3d3d
00000220: b5d5 f33c 5c91 033e 3002 dfbd 0f36 2bbe
00000230: 1b53 ba3d 4492 1d3d d627 a7bd 07ec 3abe
00000240: c961 c4bc 3a7d 4dbd 5b58 80be b607 98bd
00000250: 65bd 263c c131 7bbd d2a8 51bd b976 40bd
00000260: f86a 013e c09b 8b38 9519 8cbd 16cc cc38
00000270: 414b 483e 9317 b93d 4604 1a3d 5ba9 1fbd
00000280: beb1 2cbb 2d8b 2abd 987b 80bd a98a ca3d
00000290: 2991 303d a72c 843d 6b96 853d c35c 13bc
000002a0: 8d2b 5c3e 18f1 453d 20eb 1c3d bee9 19bd
000002b0: 6710 d13c 23ba c83d f656 f7bc 620c 76bd
000002c0: 58bf 4cbe cc98 563c 69b1 c4bd 35d0 84bd
000002d0: 7a54 12be b7a9 f63c 112f 47bd bea6 78be
000002e0: 3cf4 19bd 7253 873c 8a29 d1bd 6ba1 ddbd
000002f0: 23ca bb3d 78a6 8cbd 39bd b6bc 6168 15be
00000300: 64f0 58bd f934 83bd 8269 80bd 8c57 6ebd
00000310: 601e 91bd 7da2 9f3d 7d90 26be 700e f33b
00000320: 9f19 643d 2073 6a3d 8dff 35be 6a86 3fbd
00000330: 4dea 353e b1cc 763d d322 20bd 1f39 b73d
00000340: cb49 b23d 076a ee3b 7daf 31bd c8ea fa3d
00000350: e8fe ab3d 0d52 1f3c aca3 5f3c da3d b73c
00000360: ca0f 6cbc 0246 f33d e8aa 33bd 912e a5bd
00000370: 1c84 1ebd 9f2e 08bd d95d 53be 062b 11be
00000380: d955 a13d 16fd 0b3d 4139 29bb 89cf f83c
00000390: aba0 403e 0715 b93d 249f 033e 5338 7fbd
000003a0: d448 b23d 5bdf ef3d a8e5 5d3c 45a2 fe3d
000003b0: ecb8 913e a747 093e 8212 813d f93e ddbd
000003c0: 6cbe 2d3e 80ee cb3d b04f 3dbb 4ba9 4abd
000003d0: b9ca c03d b03a 293d dc1a 003d abfd 723d
000003e0: 4e64 213e e97a 2a3d b0d9 9ebd 1073 8ebd
000003f0: 469d aa3d 5815 913d 2a93 c93b d64b 92bd
-0.06363048 -0.012041144 -0.1151634 0.069683455 0.26318642 0.064564824 0.120074205 -0.04991847
0.0012033132 0.015170554 -0.073298216 0.070432186 0.12681815 -0.0231548 -0.054605484 -0.008467891
-0.14570221 -0.09298595 -0.06050723 0.022960614 -0.07955084 -0.049518134 -0.028391575 -0.1580515
0.04265153 -0.008614245 0.11441977 0.0613955 -0.062820956 0.03388172 -0.039240766 -0.027923718
-0.16576205 0.0067344327 -0.020684723 -0.056458343 0.07293334 0.07262788 -0.034233082 -0.11880511
0.076164246 -0.06990759 -0.09175653 0.065869235 -0.0023165988 0.01853983 -0.03180057 -0.09554276
0.063769445 -0.12511905 -0.11916341 -0.014790079 0.10117436 0.17694926 -0.0017885393 0.06363187
0.38275924 0.24026959 0.0694038 -0.063253745 0.078541435 -0.0334222 -0.11064278 -0.11820911
0.039638735 -0.043031484 -0.080641635 -0.2749838 -0.052324366 0.04253752 -0.048387922 -0.08191371
-0.19374272 -0.08373087 -0.06365086 -0.06589946 0.03299695 -0.09086957 0.027314186 -0.02341994
-0.09758395 -0.06197863 -0.17192097 -0.16916977 0.03747424 0.16907531 -0.04171169 -0.028256308
0.18877156 0.20440608 0.022508997 0.10442302 0.08053311 0.044880457 0.012770395 -0.09009032
-0.11703685 -0.12967004 -0.03231915 -0.3005913 0.107595116 -0.056438047 -0.0076767644 -0.08972243
0.054894034 0.0073563387 -0.040986843 -0.13809346 -0.020005183 -0.010775229 -0.20397277 -0.08093384
-0.0061172643 -0.026809834 -0.04060923 -0.12468085 0.0038322513 -0.12814443 -0.122905016 -0.017854642
0.17253807 0.12223586 0.12275498 0.0013901164 0.116420485 -0.08344766 -0.20486622 -0.012638208
0.08543516 0.08908972 0.023694431 0.032397266 -0.10873658 -0.057811636 0.020193934 0.046331014
0.02976499 0.12848419 -0.10889089 -0.1671984 0.09097882 0.038469568 -0.08161895 -0.182541
-0.023972409 -0.050168253 -0.2506741 -0.07423346 0.010176991 -0.061326746 -0.05118639 -0.046988223
0.12638462 6.657047e-05 -0.06840817 9.765492e-05 0.19559957 0.090376996 0.03760173 -0.03897987
-0.002635106 -0.041636635 -0.06273574 0.098897286 0.043107186 0.06453829 0.065228306 -0.008994284
0.21500988 0.048325628 0.03831017 -0.03757643 0.025520517 0.09801128 -0.030192833 -0.060070403
-0.19994867 0.013097953 -0.09604151 -0.06485025 -0.14290038 0.030110223 -0.04862887 -0.24282357
-0.037586436 0.016519282 -0.10213001 -0.10821804 0.09169414 -0.06867689 -0.022307025 -0.14590599
-0.05296363 -0.06406588 -0.06270124 -0.05818896 -0.07085872 0.07794664 -0.16266055 0.0074174926
0.055688497 0.057238698 -0.17773266 -0.046759047 0.1776516 0.060253803 -0.03909571 0.08946442
0.08705481 0.007275823 -0.04338025 0.12251812 0.08398229 0.009724152 0.013649862 0.02236836
-0.014408061 0.11878587 -0.04386416 -0.080655225 -0.038700208 -0.033247586 -0.20641269 -0.14176568
0.07877702 0.03417691 -0.002582148 0.030372398 0.1881129 0.09037214 0.12853676 -0.062309574
0.08705297 0.117125235 0.013543524 0.12433294 0.28461397 0.1340624 0.06302358 -0.10803027
0.16967171 0.099576 -0.0028886609 -0.049477857 0.09413666 0.041315734 0.031275615 0.059323948
0.1576092 0.041621123 -0.07756364 -0.0695554 0.08330779 0.07084149 0.0061515765 -0.07143371

network_body.observation_encoder.processors.0.dense.0.bias f4 [30]
00000000: c36b 1d3b 5e5e 34bd 54ef c83b e463 dcbd
00000010: dc91 cdbd 2d7c c2bd 5a39 febd 4a5a 0e3d
00000020: e392 303d 7d02 a7bd 36f7 20be 9de2 9fbe
00000030: a747 b8bd 9c5a 30be 5245 14bd 7160 0cbe
00000040: c99b d5bc 7051 8a3d 7d8d 2bbe 8b99 02be
00000050: 4191 2d3d 4604 43bd 11b2 41be d817 bcbc
00000060: 8c6b e5bd b7ce fdbd 3760 49bc 9e02 06be
00000070: 6be5 48be 2188 2abe
0.002402053 -0.044035308 0.0061320458 -0.1076124 -0.10037586 -0.09496341 -0.12413283 0.034754075
0.043108832 -0.081547715 -0.15719303 -0.3122758 -0.089980416 -0.17222065 -0.03619892 -0.13708664
-0.02607526 0.06753814 -0.16753192 -0.12753884 0.042374853 -0.047611497 -0.18915583 -0.022960588
-0.112021536 -0.12392943 -0.012291006 -0.13086936 -0.19618766 -0.16653492

network_body.processors.0.conv_layers.0.weight f4 [16, 9, 8, 8]
00000000: 3c90 943c e441 263c 91fd 93bc 8053 c53b
00000010: 8a19 51bc b669 1cbd 5504 f1bc d900 7f3a
00000020: 8998 003d 2c0c 1fbd 8507 e53c d2d8 aabb
00000030: 7f43 0abd 2793 bd3c fe73 6c3c c7b1 063d
00000040: 79a5 3abc dd03 94b9 8c80 233c 287f 8fbc
00000050: 91d4 743c fb7b 993d 0b80 8e3d 31b5 8e3d
00000060: 8513 923b 7c04 dbbc c7f5 f83b 40ff 4fbb
00000070: b26e 82b9 32e4 003b 1485 ed3b f94a a53d
00000080: ab8a 163d d7aa 583d 31ac 523d 6830 583d
00000090: ba5a 583d 28bd 0e3d f844 533c db4e 1a3d
000000a0: 3cba 3d3c c2fc 7e3d e0ca 333c 6503 943d
000000b0: e470 133c 7e29 783c f09c 1f3d 8197 1e3d
000000c0: 35ba 863d 5b00 ce3c aebb 6f3d fd30 873c
000000d0: 09f9 353d 52e6 013d 14c1 dcbc d523 97bc
000000e0: 32d3 1a3d 0a06 02bb d9dd b53b 2357 b03b
000000f0: 055f 7d3c b27f 4c3d b0bf 193d 219a b9bb
00000100: 950a 00bd 3623 643b 2ab1 c23c 10ef 60bd
00000110: b91d 01bd 9e88 b03c 7a90 bebc 611e 05bd
00000120: bb79 ba3c d3d9 f43c 3239 9ebb 8db5 44bc
00000130: cdb7 ee3c bf81 693d 4fc9 213d bdc3 a9bb
00000140: 29a4 823b 02dd 2a3d ff0c 6d3c e5d7 ed3c
00000150: 3e21 843d d05b 5f3d 5abe c13d c565 f53d
00000160: 75f8 aa3d a4a8 903d e741 a83d 7d34 1e3d
00000170: 6f6a 443d ad18 c73d 7b9c cb3d 85bd aa3d
00000180: 87ef a83d 7782 853d 649a a53d 569a 0e3e
00000190: 7170 893d 8688 9f3d 8932 043e e7aa 683d
000001a0: a6e0 743d 63b9 8a3d 6691 013e 24ba 6e3d
000001b0: 2d73 943d 0ab1 9c3d 815b b93d 4a67 dc3d
000001c0: 155b 7d3d bf46 ed3d 1f17 f43d d07a f13d
000001d0: afe5 7d3d f946 513d fb5b 7e3d e367 983d
000001e0: 9e79 b33d 0a33 f43d 13ca 033e 5297 8e3d
000001f0: 1120 df3d 0857 e93d 9041 853d 0a55 953d
00000200: 7582 aebd 1f63 97bc 61f4 67bd 5ee6 bfbc
00000210: d68c 9fbd 2159 2ebd 910e 96bd 91e4 30bd
00000220: fa60 34bd 1a1b 6cbc fae8 92bd 817b 5cbd
00000230: 1833 90bd c311 afbc d882 45bd 00e0 c03c
00000240: 64fa 83bc 5c1b 53bb 8dda 2cbd 00e1 21bc
00000250: a8da 713d 97d6 f93b d4e7 673d daf3 bc3d
00000260: 9346 c4bc f7db bdbc 79b7 8ebb e399 1a3d
00000270: 8460 2e3c 4773 9d3d bed7 9f3d 2fa3 8c3c
00000280: c165 933c 21c2 e63c cc2d 343d 8adc 2e3d
00000290: aedf da3c fc70 ae3c 35fa 623d f258 0e3d
000002a0: 28c1 be3c bd26 453d bd48 a73d 0a95 0b3d
000002b0: 19b9 603d cfad ac3d 7dd0 a93d d851 9e3c
000002c0: 4bed 923d da7b b83d 8d73 be3d c14b b83d
000002d0: b475 b63c 92bb 243b 333f 8d3d 4c92 b03c
000002e0: 94ef d13d 6035 943d d980 873d cf6b bd3d
000002f0: 0a66 9c3d 0f26 b93c 62b7 823d c2ff 823d
00000300: 9cf7 04bd ac19 45bd 30d8 8bbd da48 19bd
00000310: e69c 10bd 4249 98bd 5c03 41bd 2d4f d9bc
00000320: 282a 77bd 4cd7 0bbd 0870 06bd 0f3b 27bd
00000330: 8749 1dbd b53c 3dbd ecd1 34bd f034 48bd
00000340: 2673 69bd 6e29 24bd 8384 46bd 5b3a 2f3c
00000350: 1966 7abd 6efe 85bd 7511 88bc f844 2d3c
00000360: fec2 9ebd be54 bfbd 6c1f 93bd 98a2 cbbd
00000370: 53a7 95bd 6fc3 c2bc af1b fb39 ae3d a6bc
00000380: 11ff 59bd 0094 8ebd 3dbd 27bd 8b12 83bd
00000390: 151c 85bd 397e 06bd 52b2 e5bc 5c95 2bbc
000003a0: 7ef5 0cbd f158 fcbc c6ae f0bc ba24 f4bc
000003b0: 94ad 34bd 96df 4b3d b81c 513b fe4f 283d
000003c0: d605 84bd 1129 4bbd 064e 30bd 0e16 453c
000003d0: 5724 723d 94ef 1e3d 63b6 103d 982a 47bc
000003e0: b638 11bd 1ca3 13bc 772a 01bd b443 4fbc
000003f0: ee8c 6b3c dc9e 75bb 66d4 3b3d b3e2 083d
0.018135183 0.0101475455 -0.018065246 0.006021917 -0.012762437 -0.03818675 -0.029421011 0.00097276043
0.03139547 -0.038829967 0.027957687 -0.0052138353 -0.033755776 0.023141457 0.014431952 0.032884385
-0.011391991 -0.00028231638 0.009979378 -0.017516688 0.014943258 0.074943505 0.06958016 0.06968153
0.0044578933 -0.026735537 0.0075976583 -0.0031737834 -0.00024878007 0.0019667265 0.00724853 0.080709405
0.036753338 0.0528973 0.051433746 0.05278054 0.0528209 0.034848362 0.012894861 0.03767286
0.011580046 0.062252767 0.010973662 0.0722721 0.008999083 0.015146611 0.038968027 0.038718704
0.06578485 0.025146654 0.058528595 0.016502852 0.04442695 0.03171379 -0.026947536 -0.018449703
0.037799068 -0.0019840025 0.005550128 0.0053814813 0.015464549 0.049926467 0.037536323 -0.0056641256
-0.03126009 0.0034811026 0.023766119 -0.054915488 -0.031522486 0.02154952 -0.023262251 -0.032499675
0.022763124 0.029889023 -0.0048285956 -0.012006176 0.029140377 0.0570085 0.039498623 -0.0051808045
0.0039868546 0.041714676 0.014468431 0.02903361 0.06451653 0.05453092 0.09460135 0.119823016
0.08348171 0.07063416 0.08215695 0.038624275 0.047953065 0.097215034 0.09941956 0.08336929
0.08248811 0.06519025 0.08086088 0.13926062 0.067108996 0.07789712 0.12909903 0.05680361
0.059784554 0.06773641 0.12653121 0.058282986 0.072485305 0.07650955 0.09050656 0.10761888
0.06185444 0.11585759 0.119184725 0.11791003 0.06198662 0.051093075 0.06209944 0.0744169
0.08763431 0.119237974 0.12870054 0.06962456 0.10894788 0.11393553 0.06506646 0.072916105
-0.085209765 -0.018479882 -0.056629542 -0.023425277 -0.07790534 -0.04256547 -0.07326997 -0.043186728
-0.044037797 -0.014410758 -0.07173343 -0.05382872 -0.07040995 -0.021370774 -0.048220485 0.023544312
-0.016110606 -0.0032212352 -0.042200614 -0.009880304 0.059046417 0.007624458 0.056617573 0.092261985
-0.023959434 -0.023176176 -0.0043553677 0.037744414 0.010643128 0.07688003 0.078048214 0.017167656
0.017992856 0.02816874 0.043988988 0.04269079 0.026717987 0.02129411 0.055414397 0.034752794
0.023285463 0.048132647 0.081681706 0.03407768 0.054864023 0.08431589 0.08291719 0.019326136
0.07174166 0.09007998 0.09299383 0.08998824 0.022272922 0.0025136215 0.0689682 0.021554135
0.10250774 0.07236743 0.066163726 0.092490785 0.0763665 0.022601156 0.06382634 0.06396438
-0.0324627 -0.048120186 -0.06828344 -0.037422992 -0.03530588 -0.07435848 -0.047122344 -0.026527012
-0.060342938 -0.03414087 -0.032821685 -0.040827807 -0.0384002 -0.046200473 -0.04414551 -0.04887861
-0.05699458 -0.040078573 -0.048466217 0.010695065 -0.061132524 -0.06542669 -0.016609887 0.010575525
-0.077520356 -0.09342335 -0.071837276 -0.09943122 -0.07307305 -0.02377483 0.00047895077 -0.020293083
-0.053221766 -0.069618225 -0.040951956 -0.06400021 -0.06499497 -0.03283522 -0.028039131 -0.010472622
-0.034413807 -0.03080413 -0.029380213 -0.029802669 -0.04411085 0.049773775 0.0031907987 0.04109191
-0.064464256 -0.04959971 -0.04304316 0.012029184 0.059116688 0.0388027 0.035330188 -0.012156151
-0.035454474 -0.009011056 -0.03153464 -0.012650419 0.014376862 -0.003747872 0.045856856 0.033419322

network_body.processors.0.conv_layers.0.bias f4 [16]
00000000: 63e5 45bd 536b 74bd ef52 993d 8f23 52bc
00000010: 4c72 92bd 6868 0b3e be1a 6bbe 8e3e 05be
00000020: 6057 57b9 1c00 77bd 48f3 aa3d 9188 be3c
00000030: 2980 303d 2b47 9a3d 8b49 59be 07cd 0abe
-0.048314463 -0.059672665 0.074865215 -0.012825861 -0.07150707 0.13614047 -0.2295942 -0.13012144
-0.00020536548 -0.06030284 0.083471835 0.02325848 0.043090973 0.075331055 -0.2121946 -0.13554774

network_body.processors.0.conv_layers.2.weight f4 [32, 16, 4, 4]
00000000: b042 c5bd 6fdc 33bd 1a45 75bd e027 c2bc
00000010: d192 0dbe 4588 4fbe d2bb 12be 914f dabd
00000020: 5ba5 da3b bbb1 7cbc 5413 65bb c7aa 6f3d
00000030: 50c7 fdbd 2983 d6bc fe8e 64bd c323 93bd
00000040: 9f93 e13d 4a40 22bd 53f9 cc3c 2e54 113d
00000050: b03d 543b 5aba ae3a 525b ac3d 3789 a7bc
00000060: 0a9b 9c3d 707c ae3d 2ecb ff3d 8171 0d3e
00000070: 7f8c a23d 1785 d03d 4771 9a3d 747d 553d
00000080: 1031 b83c 7f4c 493c 2c23 c13a 1b57 f33c
00000090: 9e7e afba f83f 1cbd bc2e 7cbd 477b 453c
000000a0: edd7 803d a610 9a3c 9756 0d3d f3f3 1abd
000000b0: a7bf ae3d e963 d43d 04e0 bd3d 76d9 ca3c
000000c0: 3931 183d dc98 aa3d 2ecf e93c 0764 313d
000000d0: 6cb5 823a ecf5 9e3c 4126 903d 9c90 08bd
000000e0: 1708 463d ff89 a33b 8114 13bc 7eeb 8cbd
000000f0: a623 5e3d 9c31 4e3d 1d1d cbbc e445 173c
00000100: 3741 d2bd 7d88 96bb 0f62 fd3b c264 663d
00000110: bd85 173d 3981 a43d 8c59 263c 6eb2 c73b
00000120: ed29 57bd 8fa1 6fbd a91d 693c 0d8f 07bd
00000130: 4814 aa3d bfef 963c 9dc4 7d3d 7f82 8c3c
00000140: d344 243e bda1 4e3d d677 173e fa18 e13d
00000150: 8ba1 603d d55c de3d 30ad a33d a575 a23d
00000160: e461 e53c 6011 d53d 967d 363e 9e69 003e
00000170: 0937 f1bc b663 08bd d497 963d 00bf 803d
00000180: 8857 6f3d b5bd c7bc 8ce7 adbb e79d 29bd
00000190: b12a 0ebe 4638 aebd 5ff9 bfbd ab52 d8bd
000001a0: 54c7 a23d a723 743c f5ce 84bc c0fc d93c
000001b0: a2a2 ac3d 4cea 6abc f1ce 153c 78ae 28bb
000001c0: 596a 79bd 24c1 123b 527b 6d3d 5b24 923d
000001d0: 954a 313c 7c81 f93d 05d9 3abb 3c5f dd3d
000001e0: 0b43 533d c981 8e3d 8b3f a93d d898 e93d
000001f0: 1f14 c53d 5221 003e bb54 9f3d 6c0a 093e
00000200: 4a3e 973a 0a1e 67bd 274a 5dbd 996b 35bd
00000210: ba1b 8b3c 339c 29bd 33be b63c 8cf7 343d
00000220: ea13 383d b7cf bdbc c1c9 06bc c0bf c73c
00000230: cc6f 9a3d 2b11 b43d 934b 3b3d e1fd aebb
00000240: 144f acbd 3d0c b7bc 2303 1b3c 3851 7bbc
00000250: 5fbd 433c dc3f aebc 2e22 b73c e9c0 663b
00000260: 347a 2bba a036 853d b208 623d 4e2f 41bc
00000270: 2c34 78bc 2ee4 2fbd fe31 8dbc 2e05 0cbd
00000280: 3f12 fa3d 00c2 123e 5bb0 1d3e 85f7 343d
00000290: f838 003e 900c 2c3d 9b85 45bd 4737 c3bd
000002a0: 6482 c6bd 9b50 8abd 6794 2ebd 47f2 f4bd
000002b0: fa2c 9fbc bc13 27bd 2042 8ebd c191 c7bd
000002c0: 4153 19bd 1a19 84bd a089 38bd e7ae 3dbd
000002d0: 6bad f8bd d263 aebd 1d74 61bd 8a70 013d
000002e0: 72f1 803d 64c7 f13c 250d d33d 03ca 993c
000002f0: 79f5 173e e8d0 853d 83ff 7e3d 6053 083d
00000300: cc7e bbbd 7c71 c2bc 297f dd3c 828e 1cbd
00000310: c209 853d f558 67bd 53b0 e33c 2ee7 7c3c
00000320: 5a31 d9bc cdcd 46bc 92b4 fa3c 466f 3e3d
00000330: 58b0 93bc 01fb 283d d959 70bd 17a2 1e3d
00000340: 8218 cebd 296c b6bd c5d2 89bd 9d59 bebd
00000350: e814 033c 6f6f 5b3d 37b8 053c 9f43 ab3d
00000360: d8e3 863d e52e e73d a671 b13d a6cb aa3d
00000370: 3b6f 0b3d a637 a73d 55a9 1dbd 01fd c43c
00000380: 115b 313e 2f58 633e 8f3d 3c3e b624 e53d
00000390: 9929 3f3e 6e6a 933e eda5 673e 9280 5a3e
000003a0: 2a2b 4b3e dc6a 7d3e 0acf 8d3e 1814 843e
000003b0: 9c07 533e 6d70 583e 0532 463e d7d8 983e
000003c0: a431 bdbd 71da b7bd 2ddf 1a3d 6238 003d
000003d0: 02ad 9e3a 7337 443d a92d 1f3d 3403 103d
000003e0: 9767 6f3d 0a6f 733d b515 3e3d adda e23d
000003f0: 818b 533e cc65 493e 58a4 903d 16e7 093e
-0.0963186 -0.043911394 -0.059880354 -0.023700655 -0.13825537 -0.20266826 -0.1432946 -0.10659707
0.006672544 -0.015423234 -0.0034954147 0.058512475 -0.123915315 -0.026185589 -0.05580043 -0.071845554
0.110144846 -0.039612092 0.02502123 0.03548067 0.0032385401 0.0013330684 0.084158555 -0.020451171
0.07646759 0.08519828 0.12489925 0.1381283 0.07936954 0.10181635 0.07541137 0.052121595
0.022484332 0.0122863045 0.0014735213 0.029704621 -0.0013389175 -0.038146943 -0.061568007 0.012053317
0.062911846 0.018806767 0.034506407 -0.037830304 0.085326485 0.10370619 0.09271243 0.024761897
0.037156317 0.08329937 0.028541174 0.043308284 0.0009972281 0.019404374 0.07038546 -0.033341035
0.04834756 0.0049908157 -0.0089770565 -0.06880854 0.054233216 0.05034028 -0.024794156 0.009232972
-0.10266345 -0.0045939074 0.0077326368 0.056248434 0.036992777 0.0803246 0.010153186 0.0060942685
-0.052530218 -0.058503684 0.014228263 -0.03309541 0.083046496 0.018424867 0.061955083 0.01715207
0.1604188 0.050447214 0.14791808 0.10991092 0.05484156 0.1085755 0.07992017 0.07932595
0.02800078 0.10403705 0.17821345 0.1254029 -0.029445188 -0.033298217 0.07353178 0.0628643
0.058433086 -0.024382452 -0.0053071436 -0.041410353 -0.13883473 -0.08506827 -0.09373736 -0.10562643
0.07948175 0.014901078 -0.016211966 0.026609778 0.08429457 -0.014338087 0.009143577 -0.0025738757
-0.060892437 0.0022392953 0.057978936 0.071358405 0.010821004 0.121829 -0.0028510701 0.1080918
0.05157761 0.06958348 0.08264073 0.11406106 0.096229784 0.1251271 0.07779833 0.13382882
0.0011538949 -0.05642513 -0.054025795 -0.044292066 0.016980994 -0.04140873 0.02230749 0.04418139
0.044940867 -0.023170335 -0.008226813 0.024383426 0.07540855 0.08792337 0.04572637 -0.0053403233
-0.084135205 -0.022344703 0.009461197 -0.015339188 0.011947005 -0.021270685 0.022355165 0.0035210198
-0.0006541342 0.065045595 0.055184074 -0.0117910635 -0.0151491575 -0.04294222 -0.017235752 -0.034184627
0.122105114 0.14331818 0.15399306 0.044181366 0.12521732 0.042004168 -0.04822312 -0.09532028
-0.09692839 -0.067536555 -0.042621996 -0.11960273 -0.019430626 -0.040790305 -0.06946206 -0.09744597
-0.037432913 -0.064501 -0.045053124 -0.046309378 -0.12142452 -0.08515133 -0.055042375 0.031601466
0.06296052 0.029514022 0.103052415 0.018773085 0.14839734 0.06533986 0.062255394 0.033282638
-0.09155044 -0.023735754 0.027038174 -0.038221844 0.06496002 -0.05648132 0.027794039 0.015435977
-0.02651279 -0.012134028 0.03060368 0.046492837 -0.018028423 0.041255 -0.058679435 0.0387288
-0.10063268 -0.08907349 -0.06729654 -0.09294436 0.00800059 0.05357307 0.008161596 0.08362507
0.065864265 0.11288241 0.08664255 0.08339624 0.034041625 0.08164911 -0.038491566 0.024046423
0.17319895 0.22201608 0.18382858 0.11188643 0.18668212 0.28792137 0.2262189 0.21338108
0.19840685 0.24747795 0.2769702 0.2579658 0.20608371 0.21136637 0.19355018 0.29852936
-0.09237984 -0.08977211 0.037810493 0.03130377 0.0012106004 0.047904443 0.038861904 0.035159305
0.0584484 0.059432067 0.04640742 0.11076865 0.20658685 0.19667739 0.07062596 0.13467059

network_body.processors.0.conv_layers.2.bias f4 [32]
00000000: ef22 883b 8410 a63c d538 10bc 9437 973d
00000010: ba82 10bd 45d3 d63b 86e8 01bc 3296 95bd
00000020: 0c72 46bd 188e 06be b29c 103d 5987 f93d
00000030: 240b 443d b220 f2bd 4d03 ef3d 9733 413d
00000040: 97c7 b43d ba99 2c3e f1d7 3d3d 58b3 6d3d
00000050: 089b 653d 4f3f c43d e53a 073e a4da 4a3d
00000060: 2797 763d f36d 24bd e10c 2b3e 6995 2dbd
00000070: 334a e13d 03c6 703d 9072 b7bd 71ef bdbc
0.004154555 0.020271547 -0.008802612 0.073836476 -0.03528092 0.006555947 -0.007928973 -0.07304038
-0.048448607 -0.13140142 0.035305686 0.12184019 0.047862187 -0.118226424 0.116705514 0.04716834
0.08827131 0.16855517 0.046348516 0.058032364 0.056056052 0.09582388 0.1320606 0.04952492
0.060202744 -0.04014392 0.16704132 -0.042378817 0.110004805 0.05878259 -0.08957398 -0.023185464

network_body.processors.0.dense.0.weight f4 [30, 512]
00000000: b250 82bd 3848 45bc cada ebbd 33b6 8e3d
00000010: 5fc0 863e 903a 843d 77e9 f53d 4f77 4cbd
00000020: 7eb8 9d3a ea8d 783c 601d 96bd c03e 903d
00000030: 9edc 013e 23af bdbc 00aa 5fbd e9bc 0abc
00000040: f632 15be 6b6f bebd 6ed6 77bd e617 bc3c
00000050: 8deb a2bd 87d3 4abd 7395 e8bc 41d8 21be
00000060: 5fb3 2e3d c322 0dbc ea54 ea3d d979 7b3d
00000070: 46a8 80bd 8fc7 0a3d edba 20bd 48c0 e4bc
00000080: 87bd 29be 84ac dc3b 0273 a9bc dd40 67bd
00000090: 135e 953d edbd 943d fd37 0cbd 1850 f3bd
000000a0: 00fc 9b3d b62b 8fbd d9ea bbbd 73e6 863d
000000b0: 14d2 17bb d7e0 973c 5141 02bd ecab c3bd
000000c0: 8e99 823d 351f 00be f20b f4bd 1652 72bc
000000d0: 8134 cf3d 3032 353e 6c6d eaba 6d51 823d
000000e0: 05f9 c33e 3b09 763e 9423 8e3d 2e8b 81bd
000000f0: 55da a03d b7e5 08bd af98 e2bd 9e17 f2bd
00000100: 3a5c 223d c841 30bd 7127 a5bd adca 8cbe
00000110: 1352 56bd d33b 2e3d 6a32 46bd 60c2 a7bd
00000120: 7e64 46be 177b abbd 625b 82bd 4cf6 86bd
00000130: cf27 073d d319 babd 00c2 df3c 2ddb bfbc
00000140: 18da c7bd 4edd 7dbd 0d0c 30be d73a 2dbe
00000150: 977e 193d 1422 2d3e e1d9 2abd c679 e7bc
00000160: 554d 413e d44f 513e ca64 b83c bcdb d53d
00000170: 8bee a43d 92d4 373d eb3a 513c 4681 b8bd
00000180: 04b1 efbd 39c8 04be 1661 04bd 1ae7 99be
00000190: d45a dc3d 952b 67bd 5e8d fbbb 65c0 b7bd
000001a0: 91d8 603d 710d f13b d2e1 27bd 5f68 0dbe
000001b0: e9e1 a3bc 968a 30bc 3dde 50be a4c0 a5bd
000001c0: 5573 c8bb 4ca0 dbbc dd55 26bd ac58 ffbd
000001d0: 8226 7b3b 4b38 03be a0b5 fbbd e643 92bc
000001e0: d2ad 303e cb56 fa3d f766 fb3d 9134 b63a
000001f0: dd6d ee3d 9be6 aabd 73c8 51be 7d10 4fbc
00000200: a1f8 ae3d ac74 b63d d31a c23c ffb2 043d
00000210: 49b1 debd e5cb 6cbd c06d a53c 97c5 3d3d
00000220: b5d5 f33c 5c91 033e 3002 dfbd 0f36 2bbe
00000230: 1b53 ba3d 4492 1d3d d627 a7bd 07ec 3abe
00000240: c961 c4bc 3a7d 4dbd 5b58 80be b607 98bd
00000250: 65bd 263c c131 7bbd d2a8 51bd b976 40bd
00000260: f86a 013e c09b 8b38 9519 8cbd 16cc cc38
00000270: 414b 483e 9317 b93d 4604 1a3d 5ba9 1fbd
00000280: beb1 2cbb 2d8b 2abd 987b 80bd a98a ca3d
00000290: 2991 303d a72c 843d 6b96 853d c35c 13bc
000002a0: 8d2b 5c3e 18f1 453d 20eb 1c3d bee9 19bd
000002b0: 6710 d13c 23ba c83d f656 f7bc 620c 76bd
000002c0: 58bf 4cbe cc98 563c 69b1 c4bd 35d0 84bd
000002d0: 7a54 12be b7a9 f63c 112f 47bd bea6 78be
000002e0: 3cf4 19bd 7253 873c 8a29 d1bd 6ba1 ddbd
000002f0: 23ca bb3d 78a6 8cbd 39bd b6bc 6168 15be
00000300: 64f0 58bd f934 83bd 8269 80bd 8c57 6ebd
00000310: 601e 91bd 7da2 9f3d 7d90 26be 700e f33b
00000320: 9f19 643d 2073 6a3d 8dff 35be 6a86 3fbd
00000330: 4dea 353e b1cc 763d d322 20bd 1f39 b73d
00000340: cb49 b23d 076a ee3b 7daf 31bd c8ea fa3d
00000350: e8fe ab3d 0d52 1f3c aca3 5f3c da3d b73c
00000360: ca0f 6cbc 0246 f33d e8aa 33bd 912e a5bd
00000370: 1c84 1ebd 9f2e 08bd d95d 53be 062b 11be
00000380: d955 a13d 16fd 0b3d 4139 29bb 89cf f83c
00000390: aba0 403e 0715 b93d 249f 033e 5338 7fbd
000003a0: d448 b23d 5bdf ef3d a8e5 5d3c 45a2 fe3d
000003b0: ecb8 913e a747 093e 8212 813d f93e ddbd
000003c0: 6cbe 2d3e 80ee cb3d b04f 3dbb 4ba9 4abd
000003d0: b9ca c03d b03a 293d dc1a 003d abfd 723d
000003e0: 4e64 213e e97a 2a3d b0d9 9ebd 1073 8ebd
000003f0: 469d aa3d 5815 913d 2a93 c93b d64b 92bd
-0.06363048 -0.012041144 -0.1151634 0.069683455 0.26318642 0.064564824 0.120074205 -0.04991847
0.0012033132 0.015170554 -0.073298216 0.070432186 0.12681815 -0.0231548 -0.054605484 -0.008467891
-0.14570221 -0.09298595 -0.06050723 0.022960614 -0.07955084 -0.049518134 -0.028391575 -0.1580515
0.04265153 -0.008614245 0.11441977 0.0613955 -0.062820956 0.03388172 -0.039240766 -0.027923718
-0.16576205 0.0067344327 -0.020684723 -0.056458343 0.07293334 0.07262788 -0.034233082 -0.11880511
0.076164246 -0.06990759 -0.09175653 0.065869235 -0.0023165988 0.01853983 -0.03180057 -0.09554276
0.063769445 -0.12511905 -0.11916341 -0.014790079 0.10117436 0.17694926 -0.0017885393 0.06363187
0.38275924 0.24026959 0.0694038 -0.063253745 0.078541435 -0.0334222 -0.11064278 -0.11820911
0.039638735 -0.043031484 -0.080641635 -0.2749838 -0.052324366 0.04253752 -0.048387922 -0.08191371
-0.19374272 -0.08373087 -0.06365086 -0.06589946 0.03299695 -0.09086957 0.027314186 -0.02341994
-0.09758395 -0.06197863 -0.17192097 -0.16916977 0.03747424 0.16907531 -0.04171169 -0.028256308
0.18877156 0.20440608 0.022508997 0.10442302 0.08053311 0.044880457 0.012770395 -0.09009032
-0.11703685 -0.12967004 -0.03231915 -0.3005913 0.107595116 -0.056438047 -0.0076767644 -0.08972243
0.054894034 0.0073563387 -0.040986843 -0.13809346 -0.020005183 -0.010775229 -0.20397277 -0.08093384
-0.0061172643 -0.026809834 -0.04060923 -0.12468085 0.0038322513 -0.12814443 -0.122905016 -0.017854642
0.17253807 0.12223586 0.12275498 0.0013901164 0.116420485 -0.08344766 -0.20486622 -0.012638208
0.08543516 0.08908972 0.023694431 0.032397266 -0.10873658 -0.057811636 0.020193934 0.046331014
0.02976499 0.12848419 -0.10889089 -0.1671984 0.09097882 0.038469568 -0.08161895 -0.182541
-0.023972409 -0.050168253 -0.2506741 -0.07423346 0.010176991 -0.061326746 -0.05118639 -0.046988223
0.12638462 6.657047e-05 -0.06840817 9.765492e-05 0.19559957 0.090376996 0.03760173 -0.03897987
-0.002635106 -0.041636635 -0.06273574 0.098897286 0.043107186 0.06453829 0.065228306 -0.008994284
0.21500988 0.048325628 0.03831017 -0.03757643 0.025520517 0.09801128 -0.030192833 -0.060070403
-0.19994867 0.013097953 -0.09604151 -0.06485025 -0.14290038 0.030110223 -0.04862887 -0.24282357
-0.037586436 0.016519282 -0.10213001 -0.10821804 0.09169414 -0.06867689 -0.022307025 -0.14590599
-0.05296363 -0.06406588 -0.06270124 -0.05818896 -0.07085872 0.07794664 -0.16266055 0.0074174926
0.055688497 0.057238698 -0.17773266 -0.046759047 0.1776516 0.060253803 -0.03909571 0.08946442
0.08705481 0.007275823 -0.04338025 0.12251812 0.08398229 0.009724152 0.013649862 0.02236836
-0.014408061 0.11878587 -0.04386416 -0.080655225 -0.038700208 -0.033247586 -0.20641269 -0.14176568
0.07877702 0.03417691 -0.002582148 0.030372398 0.1881129 0.09037214 0.12853676 -0.062309574
0.08705297 0.117125235 0.013543524 0.12433294 0.28461397 0.1340624 0.06302358 -0.10803027
0.16967171 0.099576 -0.0028886609 -0.049477857 0.09413666 0.041315734 0.031275615 0.059323948
0.1576092 0.041621123 -0.07756364 -0.0695554 0.08330779 0.07084149 0.0061515765 -0.07143371

network_body.processors.0.dense.0.bias f4 [30]
00000000: c36b 1d3b 5e5e 34bd 54ef c83b e463 dcbd
00000010: dc91 cdbd 2d7c c2bd 5a39 febd 4a5a 0e3d
00000020: e392 303d 7d02 a7bd 36f7 20be 9de2 9fbe
00000030: a747 b8bd 9c5a 30be 5245 14bd 7160 0cbe
00000040: c99b d5bc 7051 8a3d 7d8d 2bbe 8b99 02be
00000050: 4191 2d3d 4604 43bd 11b2 41be d817 bcbc
00000060: 8c6b e5bd b7ce fdbd 3760 49bc 9e02 06be
00000070: 6be5 48be 2188 2abe
0.002402053 -0.044035308 0.0061320458 -0.1076124 -0.10037586 -0.09496341 -0.12413283 0.034754075
0.043108832 -0.081547715 -0.15719303 -0.3122758 -0.089980416 -0.17222065 -0.03619892 -0.13708664
-0.02607526 0.06753814 -0.16753192 -0.12753884 0.042374853 -0.047611497 -0.18915583 -0.022960588
-0.112021536 -0.12392943 -0.012291006 -0.13086936 -0.19618766 -0.16653492

network_body._body_endoder.seq_layers.0.weight f4 [30, 33]
00000000: 825a d93c 8c50 1bbc f3ea d83a 0827 7dbd
00000010: 3095 fcbd 0b5a b7bd 1f68 8cbe 5c48 7ebd
00000020: 71f4 3abd de28 0bbc 66ab d33d 7037 d7bc
00000030: ff5a ac3d e17e 80bc 8437 9f3c 0ce1 a2be
00000040: 5f96 84bd 71bb d2bc 4514 963d db18 4fbd
00000050: da87 df3d 69eb 2bbc e4b3 bdbd 8f2e efbd
00000060: b6cf 13be 371c 8e3e 5127 a1bd 0026 88be
00000070: 5707 153e 777a 65be 07fd debd 185a c2bf
00000080: d6e8 d73b 3998 ca3e a7d9 45be 24f9 00bf
00000090: 07a7 f437 ae85 5f3e d4fd 023e 7385 b1bc
000000a0: f4fd 93be 4c2d d2bc 644c 86bd abe0 1c3e
000000b0: e163 093e 43c3 9c3e dacc 103e 6137 8dbe
000000c0: 3be4 753e aa3d 713e bf2d 04be e833 b7b9
000000d0: f854 f93e 5e0f 873e a01a 4a3e 96d2 e03e
000000e0: 99ba f5bd 498d 773c d535 103e bd14 31bd
000000f0: c7ee b7bc eda9 b03c 2465 db3c 4678 253e
00000100: ca46 3f3f 0189 a53e 6953 46be 47bd 8c3d
00000110: 8811 e13d fcfd 78bd e92b 3cbe f078 c13c
00000120: e6b2 a3be f14f 103d 9dd6 8d3d 7f62 a93d
00000130: d2fb bbbd 55d0 e0bd c537 02be 9b02 9bbe
00000140: 3d14 ed3d b4e6 12be accf 7cbd da34 ef3d
00000150: 7e03 a9bd 6000 75be 0e20 21be 3139 abbe
00000160: 4e0e 9fbd f6af 8bbe 69cf 003e 74d3 5ebe
00000170: c433 2cbe 996f c03c 7195 3dbd 3705 dc3d
00000180: 86ae a43d a5e7 ab3f 4c03 62bc 2a4f e3bd
00000190: 9307 0ebe cb56 58bd 49fa 3d3d 948f 9dbd
000001a0: bebf 28be bdcf 11be 42b6 8e3d c48b a23e
000001b0: 4693 24be 75f3 253e 0e73 a0be 14ca 27be
000001c0: 5fdb 36be 1416 e2bc d770 c73d 3889 b2be
000001d0: e000 953d 9a67 11be 8d0a 05be bf10 05be
000001e0: 0087 7c3d b3c4 b73d dcfa 3f3e 4cf5 1ebe
000001f0: 5a24 9bbb 6ee7 6dbd 78d8 88bd 07d6 24bd
00000200: 2d45 e8bd b016 243e 3d44 71bf 4013 3cbf
00000210: 3322 11be e67e 87be a0a2 323d 9029 e0bd
00000220: 6d84 f83d 4624 063e 9382 a0be 3745 ca3d
00000230: 36f8 36bd c9da f9bc 106d 6fbd 558b 8c3d
00000240: 13ce 4b3e 1bfb 93be 6fbf 503d 7204 32be
00000250: 44e6 2fbe d847 8a3d 5262 073d cef2 9c3e
00000260: 842e 353e a943 84be 7983 f73c 5f1b 853e
00000270: 65c1 943d eb71 5cbd 0350 a93e 0636 19bd
00000280: 4e47 4abd 9c25 943c d9e0 29be ddcd a9bf
00000290: 2a43 9abe f3e2 2dbe 98c9 683d 5266 97be
000002a0: 4888 41ba 0f66 8bbd 9cf2 b2be fe42 bcbe
000002b0: e255 96be 654a 39be 7d46 23bd 02ae 9abd
000002c0: 560a 6c3e d106 cbbc e389 ea3d 1386 73bc
000002d0: 2ff4 4dbe 2a9d e8be 3367 1e3d 35fc e93d
000002e0: 9fa3 9abe 458f a8bd a0bf 243e f6fc 6dbd
000002f0: bed0 28be 9bc7 b5bd 3141 1ebe 3f21 c83d
00000300: 59ee 2cbe d24b 2d3e a18c 773e 8630 783f
00000310: 831a 543e 4375 53bf 75f0 58bd 03f6 59be
00000320: 47af 753d 2f8f 8cbd 5a10 c33c bdb2 9ebd
00000330: e8f8 c33c 3f82 26be 2abc f13e 96a2 933d
00000340: 0a50 053d 51f8 fd3d 3593 17bd a1a2 30be
00000350: 6463 43bd 2907 223e eb24 be3e ec8a de3c
00000360: 9b68 d13d 22e3 713d c532 ccbe 3045 0c3e
00000370: 596c acbd 265e 90be 5dad 1f3e 27e7 c3be
00000380: 13f5 e6be 2aba ccbd a866 54be a704 dd3d
00000390: b043 55be 91b9 963f 011f fe3d 9f9c 35be
000003a0: 556d 903d b5d8 1ebd 69d2 0dbe 8bda f7bc
000003b0: 3aa3 113d 6ae7 4fbe a1d3 8cbe 299d 3d3d
000003c0: 179b 61be ce4d a3be ad1b 53be 78b3 523e
000003d0: b595 0cbe dbd7 8e3c e2db 973d ff8b b53e
000003e0: da2c b83d 6193 49be ad5f a7bd 2331 233e
000003f0: ce83 1a3d d51c a03d 2eb9 a9bd b027 023d
0.026532415 -0.009479653 0.0016549513 -0.0618048 -0.12333143 -0.08952721 -0.27423188 -0.062080726
-0.045643274 -0.00849363 0.10335426 -0.026271552 0.08415794 -0.0156855 0.019435652 -0.31812322
-0.064739935 -0.025724145 0.07328085 -0.050560813 0.109145835 -0.010493138 -0.09262827 -0.11678802
-0.14434704 0.277559 -0.07868827 -0.26591492 0.14553581 -0.22409998 -0.10888105 -1.5183744
0.0065890355 0.39569262 -0.19321309 -0.5038016 2.9164845e-05 0.21828339 0.1279214 -0.021670079
-0.28904688 -0.025656365 -0.06557539 0.15320079 0.13417007 0.30617723 0.14140645 -0.27581313
0.24012844 0.23558679 -0.12908076 -0.00034943153 0.4869764 0.26378912 0.19736719 0.43910664
-0.11998481 0.015109369 0.14083035 -0.04323267 -0.022452725 0.021565402 0.026781626 0.16159162
0.7471739 0.32331088 -0.19367756 0.06872039 0.10989672 -0.060789093 -0.18376125 0.023617238
-0.31972426 0.035232488 0.069257 0.0827074 -0.0917889 -0.10977236 -0.12716587 -0.30275425
0.11576126 -0.14345819 -0.06172149 0.116800025 -0.08252619 -0.23925924 -0.15734884 -0.3344207
-0.077664 -0.27282685 0.1257912 -0.2176035 -0.16816622 0.023490714 -0.046285097 0.10743182
0.080411 1.3430067 -0.013794731 -0.11099084 -0.13870077 -0.052817147 0.04638127 -0.07693401
-0.16479394 -0.14239402 0.06968357 0.31747258 -0.16071805 0.16206153 -0.3133778 -0.1638568
-0.17857121 -0.027598418 0.09738319 -0.34870315 0.072755575 -0.14199677 -0.12992306 -0.1299467
0.061652184 0.08973064 0.18748039 -0.15523261 -0.004734558 -0.058082037 -0.06681913 -0.040243175
-0.11341319 0.1602428 -0.9424475 -0.73466873 -0.14173202 -0.26464003 0.043612123 -0.109454274
0.12134633 0.13099775 -0.3134962 0.09876483 -0.044670306 -0.030499833 -0.05845362 0.06862513
0.1990283 -0.28902516 0.050963815 -0.17384508 -0.17177683 0.06751984 0.03305275 0.30653995
0.17693526 -0.2583287 0.030214058 0.25997445 0.072634496 -0.05381958 0.33068857 -0.037405036
-0.049384408 0.01808434 -0.16589679 -1.326595 -0.30129367 -0.16981106 0.05683288 -0.29570252
-0.0007382673 -0.068065755 -0.3495072 -0.3676986 -0.29362398 -0.18094786 -0.039862145 -0.075527206
0.23050818 -0.024783524 0.11452081 -0.014863509 -0.2011268 -0.45432407 0.038672637 0.11425058
-0.30202958 -0.082304515 0.16088724 -0.05810257 -0.16485879 -0.08875962 -0.15454556 0.09771966
-0.16887797 0.16923454 0.2417474 0.9694904 0.20713238 -0.826008 -0.052963693 -0.21285252
0.05998161 -0.068632476 0.023811508 -0.07748935 0.023922399 -0.16260622 0.4721387 0.07208745
0.032547034 0.12400878 -0.037005622 -0.17249538 -0.04770221 0.15823044 0.3713754 0.027165852
0.1022503 0.0590545 -0.39882484 0.13698268 -0.08419103 -0.2819683 0.15593477 -0.38262293
-0.45108852 -0.099964455 -0.20742285 0.10791903 -0.20826602 1.177538 0.12408257 -0.17735527
0.070521034 -0.038780887 -0.13849796 -0.030255577 0.035556056 -0.20303121 -0.2750521 0.046292458
-0.22031818 -0.31895298 -0.20616026 0.20576274 -0.13728984 0.017436912 0.07414986 0.3545837
0.0899293 -0.19685127 -0.081725456 0.15936713 0.037723355 0.07817999 -0.08287273 0.03177613

network_body._body_endoder.seq_layers.0.bias f4 [30]
00000000: 06b5 953d 556d d8bd 6356 773e de62 473e
00000010: 4289 2b3e 1328 3f3d 1c7c 573e 208f 273e
00000020: 2a55 8fbe 7fce e53d d870 b0be 59f0 d8bd
00000030: 129e 633e 9412 103e f815 763d 8ab3 523e
00000040: f4a9 4d3d 852b a0be d675 973c 1986 073e
00000050: f7d8 303e 5cc5 1a3e e3c5 44be 26c5 833e
00000060: d65a 9a3e 49c6 2f3e 6c21 423e 6c6f 4b3d
00000070: cc06 003e 1591 4b3e
0.07309918 -0.105677284 0.24154048 0.19471309 0.16751578 0.046669077 0.21043438 0.16363192
-0.27994663 0.11221027 -0.34461093 -0.10592718 0.22228268 0.14069587 0.060079545 0.20576301
0.050210908 -0.31283203 0.018488806 0.13234748 0.17270266 0.15114349 -0.19216113 0.2573635
0.30147427 0.17165484 0.18958062 0.049666807 0.12502593 0.19879563

action_model._continuous_distribution.log_sigma f4 [1, 2]
00000000: c20d d1be 7a4e 02bf
-0.4083081 -0.50900996

action_model._continuous_distribution.mu.weight f4 [2, 30]
00000000: 8255 953d a231 4dbe 30d6 223e 416a 953e
00000010: 1236 363e 8a42 b43e 1b2e b23e 6753 b2bd
00000020: 30ef 09bf 3377 553d 2527 1cbf 6c42 52bd
00000030: 2f5c d73d 0d47 0c3c bfdf 06be 5a18 8abd
00000040: 3d7c a1bc f69e 36bf 2f5e 04bd 478d b9bd
00000050: 60f9 903e 80ea 613e 2042 49be 548b 843e
00000060: 25f1 cb3d 42a4 0a3e 577b 843e 15f8 273d
00000070: 1cca 593c 1d14 7bbd 87ce 34bf a0cd 323e
00000080: b720 113f e3cc a1be e257 e7be fe86 0b3e
00000090: 9331 dd3e ca67 1b3f d9dd 413d fa96 e13e
000000a0: 28bf d4be 36bf be3e 9f37 18bf 88da 133f
000000b0: 8e3c f13e b3a5 fd3e 66ca 0dbf 1abc 29be
000000c0: 9875 cf3e 0262 cc3e 40fa 6bbf 9971 e9be
000000d0: 9f2c e6be 683b aebe 45c7 023f eab1 05bf
000000e0: c28f 12bf e8ab 00bf c408 ca3e 2b16 1f3e
0.072917 -0.20038465 0.15902019 0.29182628 0.17794064 0.35207015 0.348008 -0.08707314
-0.53880596 0.05211563 -0.6099723 -0.051332876 0.105156295 0.008561862 -0.1317129 -0.06742926
-0.019712562 -0.71336305 -0.032316383 -0.0906015 0.28315258 0.22062111 -0.19654131 0.2588755
0.09958104 0.13539222 0.2587535 0.041008074 0.013292816 -0.06129848 -0.70627636 0.17461252
0.56690544 -0.3160163 -0.45184237 0.13625714 0.43201885 0.60705245 0.04733071 0.44060498
-0.4155209 0.37255257 -0.5945987 0.5775533 0.47116512 0.4954048 -0.5538696 -0.16575661
0.40519404 0.39918524 -0.92178726 -0.4559448 -0.44955918 -0.34029698 0.5108531 -0.522246
-0.57250607 -0.5026231 0.39459813 0.155358

action_model._continuous_distribution.mu.bias f4 [2]
00000000: 66b0 a23e 807f 2b3e
0.31775206 0.16747856
