Assets/ML-Agents/Training Files/results/9roads_cameraSensor_ppo_vehiclesAndChekpointsMasked_brakeX2_1layer_64_256/VehicleAgent/VehicleAgent-21562108.onnx (onnx, 139655 bytes, 11 tensors)

network_body.observation_encoder.processors.0.conv_layers.0.weight f4 [16, 9, 8, 8]
0	0x3ca0471e	0.019565161
1	0x3c547714	0.012967844
2	0xbc4e020e	-0.012573732
3	0x3c4da768	0.01255212
4	0xbbca48d3	-0.006173232
5	0xbd06ca8d	-0.03290801
6	0xbccf3dc1	-0.025298001
7	0x3c062b42	0.008189024
8	0x3cf3064b	0.029666087
9	0xbd1da399	-0.038486097
10	0x3ced09ce	0.02893534
11	0xbb54badb	-0.0032460007
12	0xbd0124bb	-0.03152917
13	0x3cc9f9d2	0.024655256
14	0x3c90f3fd	0.017694468
15	0x3d1a407f	0.037659165
16	0xbc7bb396	-0.015362641
17	0xbb26c162	-0.0025444855
18	0x3c0c474f	0.008561923
19	0xbc93ada9	-0.018027144
20	0x3c83894c	0.01605668
21	0x3d9bf14e	0.076143846
22	0x3d91cd48	0.071192324
23	0x3d94088a	0.07228191
24	0xb87177e9	-5.7570553e-05
25	0xbcf852ae	-0.030312862
26	0x3bba2ae2	0.0056813816
27	0xbb6b3ecb	-0.0035895582
28	0x3a826a88	0.0009949962
29	0x3b44aafb	0.003000914
30	0x3c10d05b	0.008838738
31	0x3da9a5af	0.08283555
32	0x3d0c4df1	0.03425402
33	0x3d55b0c4	0.05217053
34	0x3d574961	0.052560214
35	0x3d5ee74a	0.054419793
36	0x3d6065ca	0.054784574
37	0x3d1851bd	0.037187327
38	0x3c808e85	0.015692959
39	0x3d20f1cb	0.03929309
40	0x3c119319	0.0088851685
41	0x3d7a0f79	0.061049912
42	0x3c2aaec7	0.010417647
43	0x3d9368ca	0.07197721
44	0x3c2d4be0	0.010577172
45	0x3c9211f3	0.017830824
46	0x3d268b9c	0.040660486
47	0x3d1ae28b	0.037813704
48	0x3d895302	0.067052856
49	0x3cc4494e	0.023960736
50	0x3d6b8ea0	0.057509065
51	0x3c9145f6	0.017733555
52	0x3d44c053	0.048034977
53	0x3d0c73c9	0.03429011
54	0xbcd7d74d	-0.02634778
55	0xbc96479e	-0.018344697
56	0x3d21d59b	0.03951035
57	0xbb4b18df	-0.0030990166
58	0x3baec023	0.005332963
59	0x3bf2c0b8	0.007408228
60	0x3c844788	0.01614739
61	0x3d51fd0f	0.051266726
62	0x3d12900e	0.035781913
63	0xbbbb8ebc	-0.0057238024
64	0xbd0ca311	-0.0343352
65	0x3aa46d8b	0.0012544853
66	0x3cc55030	0.024086088
67	0xbd5d2134	-0.053986743
68	0xbcf42794	-0.029804029
69	0x3cb70104	0.022339351
70	0xbcbafc31	-0.022825332
71	0xbcef8d53	-0.029242193
72	0x3c91d6c9	0.017802613
73	0x3cd75440	0.02628529
74	0xbc027d5d	-0.007964459
75	0xbc5f9ac6	-0.013647741
76	0x3ce60a13	0.028080976
77	0x3d6111af	0.054948505
78	0x3d229530	0.039693058
79	0xbb1e09ff	-0.0024114845
80	0xbb3d5e2d	-0.0028895244
81	0x3d148f54	0.0362695
82	0x3c32e372	0.010918485
83	0x3cd6209b	0.026138594
84	0x3d81ef02	0.06344415
85	0x3d5b485d	0.053535808
86	0x3dc41c2c	0.09575686
87	0x3dfb516e	0.12271391
88	0x3d9eb384	0.07749084
89	0x3d877c26	0.06615476
90	0x3da209ef	0.07912051
91	0x3d1b39d9	0.037896965
92	0x3d473ece	0.04864388
93	0x3dc90f3a	0.09817357
94	0x3dcfc2ab	0.10144552
95	0x3db0cf2b	0.08633264
96	0x3d9fc898	0.07801932
97	0x3d805748	0.062666476
98	0x3da4059d	0.08008883
99	0x3e0f5f6d	0.14001246
100	0x3d8b9f67	0.06817513
101	0x3da2971a	0.079389766
102	0x3e05fc30	0.13084483
103	0x3d70f6be	0.05882906
104	0x3d5fe764	0.05466403
105	0x3d836367	0.06415444
106	0x3dfe8324	0.12427357
107	0x3d67e5fd	0.05661582
108	0x3d9659bb	0.073413335
109	0x3da0525e	0.0782821
110	0x3dbb0105	0.09131054
111	0x3ddbf8dc	0.107408255
112	0x3d7f360e	0.06230741
113	0x3dea6da3	0.11446693
114	0x3df378b2	0.11888255
115	0x3df4dc8d	0.11956129
116	0x3d8603b5	0.06543676
117	0x3d5b4386	0.053531192
118	0x3d81fac2	0.063466564
119	0x3d9aae15	0.07552735
120	0x3db7869c	0.089612216
121	0x3df43776	0.11924641
122	0x3e04c997	0.12967525
123	0x3d949c93	0.07256427
124	0x3de3e620	0.11127877
125	0x3deec240	0.11658144
126	0x3d8588e8	0.065202534
127	0x3d970a50	0.07375014
128	0xbdbbe261	-0.09174038
129	0xbcc5f687	-0.024165405
130	0xbd75cb89	-0.06000856
131	0xbcd979c0	-0.026547313
132	0xbda49a70	-0.08037269
133	0xbd3bef03	-0.045882236
134	0xbd9d4bd2	-0.07680477
135	0xbd3668bb	-0.044533473
136	0xbd559b3d	-0.05215
137	0xbcaf5ab0	-0.021405548
138	0xbda085ec	-0.078380436
139	0xbd72dada	-0.059290744
140	0xbd9a91bf	-0.0754733
141	0xbcdfd7f5	-0.027324656
142	0xbd56078d	-0.052253295
143	0x3caea08a	0.021316785
144	0xbcd723e0	-0.026262224
145	0xbc4503b3	-0.012024808
146	0xbd4adcde	-0.04952704
147	0xbc880226	-0.016602587
148	0x3d5c7131	0.053818885
149	0x3b1acbd2	0.0023620022
150	0x3d58ff42	0.052977808
151	0x3db89b6d	0.0901402
152	0xbd07e44b	-0.0331767
153	0xbcfef2be	-0.031121608
154	0xbc348914	-0.01101901
155	0x3d06f8eb	0.03295223
156	0x3be85e85	0.0070913457
157	0x3d961bb1	0.073295005
158	0x3d9a9373	0.07547655
159	0x3c77bccd	0.015120697
160	0x3c355358	0.011067234
161	0x3cb989bd	0.022648687
162	0x3d23e24f	0.040010747
163	0x3d23bd82	0.03997565
164	0x3cc77c0a	0.024351139
165	0x3c9df7c7	0.019283189
166	0x3d5a6380	0.053317547
167	0x3d05ca69	0.032663736
168	0x3c8291d5	0.015938679
169	0x3d2cb211	0.042162005
170	0x3d9e0792	0.07716288
171	0x3cf48de7	0.02985282
172	0x3d58d75b	0.052939754
173	0x3daa7e60	0.08324885
174	0x3da5f65f	0.08103632
175	0x3c85187d	0.016247028
176	0x3d8f9f7f	0.07012843
177	0x3db1f8f2	0.08690061
178	0x3db9e310	0.09076512
179	0x3db7cc82	0.08974554
180	0x3cc390e2	0.023872796
181	0x3b561808	0.0032668132
182	0x3d8c8802	0.06861879
183	0x3cac8c4b	0.02106299
184	0x3dd2d6ae	0.10294853
185	0x3d91bf59	0.07116575
186	0x3d86a53d	0.065744855
187	0x3dc09b98	0.09404677
188	0x3d9e5e14	0.07732788
189	0x3cc3b8aa	0.023891766
190	0x3d8095d2	0.06278576
191	0x3d81de1e	0.063411936
192	0xbd0f3f9b	-0.03497277
193	0xbd5039de	-0.050836436
194	0xbd903f67	-0.07043343
195	0xbd218beb	-0.039440077
196	0xbd153bc8	-0.036433965
197	0xbd98cb4f	-0.07460653
198	0xbd391dcb	-0.04519443
199	0xbcc51465	-0.024057576
200	0xbd82074c	-0.06349048
201	0xbd1a51d9	-0.037675712
202	0xbd191ce7	-0.03738108
203	0xbd35383b	-0.04424308
204	0xbd26b42f	-0.04069918
205	0xbd3db5bc	-0.046315894
206	0xbd382dad	-0.044965435
207	0xbd4c558e	-0.04988628
208	0xbd7b0519	-0.06128416
209	0xbd33f627	-0.04393592
210	0xbd5503f7	-0.052005734
211	0x3c054d65	0.008136128
212	0xbd766687	-0.06015637
213	0xbd81f076	-0.063446924
214	0xbc750ba2	-0.014956387
215	0x3c58a28d	0.013222349
216	0xbdabc562	-0.08387257
217	0xbdcb65d0	-0.099315286
218	0xbd9c0718	-0.076185405
219	0xbdd1e384	-0.10248473
220	0xbd9a41c6	-0.075320765
221	0xbcc554b1	-0.024088236
222	0x39f66ed5	0.00047003353
223	0xbca1a067	-0.019729806
224	0xbd6cfda1	-0.057859067
225	0xbd97d48c	-0.07413587
226	0xbd38ec20	-0.04514706
227	0xbd85b568	-0.06528741
228	0xbd83eb6e	-0.06441389
229	0xbd099afa	-0.033595063
230	0xbce13cb9	-0.027494775
231	0xbbfaaba1	-0.0076498543
232	0xbd267571	-0.040639345
233	0xbd1c997c	-0.03823231
234	0xbd0dde66	-0.034635924
235	0xbd0bede1	-0.034162406
236	0xbd410237	-0.047121253
237	0x3d3fbfe8	0.046813875
238	0x3b417546	0.0029519363
239	0x3d2ceff0	0.04222101
240	0xbd9761a7	-0.073916726
241	0xbd757164	-0.05992259
242	0xbd515d02	-0.05111409
243	0x3be1151c	0.0068689715
244	0x3d5b83cf	0.0535925
245	0x3d0d3578	0.03447482
246	0x3d07ec72	0.033184476
247	0xbc686146	-0.014183348
248	0xbd2e22b1	-0.042513553
249	0xbc7d62fc	-0.015465494
250	0xbd19ba3d	-0.037531126
251	0xbc89703c	-0.01677715
252	0x3c380f5a	0.011234129
253	0xbbe396b3	-0.006945455
254	0x3d36fd85	0.04467537
255	0x3d07af4f	0.03312617

network_body.observation_encoder.processors.0.conv_layers.0.bias f4 [16]
0	0xbd3b671c	-0.04575263
1	0xbd8f34af	-0.069924705
2	0x3da47e27	0.08031874
3	0xbc9da937	-0.019245727
4	0xbd65a291	-0.05606324
5	0x3e094dd2	0.13408592
6	0xbe69cf1e	-0.22832915
7	0xbe06cd6a	-0.13164297
8	0x3b6b9aa2	0.0035950323
9	0xbd747464	-0.05968131
10	0x3da235f4	0.07920447
11	0x3c147bf6	0.009062758
12	0x3d114519	0.035466287
13	0x3daa4d93	0.08315577
14	0xbe6d6c33	-0.23185806
15	0xbe12370c	-0.14278811

network_body.observation_encoder.processors.0.conv_layers.2.weight f4 [32, 16, 4, 4]
0	0xbdcac13c	-0.09900138
1	0xbd29974d	-0.041404057
2	0xbd61494b	-0.05500154
3	0xbcb2f701	-0.021846296
4	0xbe09b568	-0.13448107
5	0xbe4bdbd5	-0.19908078
6	0xbe1c6aa1	-0.1527505
7	0xbe068374	-0.13136083
8	0xbb463c33	-0.0030248284
9	0xbd04dd7c	-0.032437786
10	0xbc89e55c	-0.016833
11	0x3d3fdf63	0.046843898
12	0xbe123e60	-0.14281607
13	0xbd202391	-0.03909642
14	0xbd62fd0b	-0.0554171
15	0xbd55c412	-0.05218894
16	0x3e00a046	0.1256114
17	0xbcc6778a	-0.024226923
18	0x3d22b53c	0.03972362
19	0x3d4b0690	0.049566805
20	0x3b9f4162	0.004860089
21	0x3b145b84	0.0022637555
22	0x3db0b91c	0.08629057
23	0xbc64fb36	-0.013975909
24	0x3daf596e	0.08561979
25	0x3dafc86b	0.085831486
26	0x3df385f6	0.118907854
27	0x3e058395	0.13038476
28	0x3d971020	0.073761225
29	0x3dd080ff	0.10180854
30	0x3d997f0c	0.074949354
31	0x3d56344a	0.05229596
32	0x3d5ca8f3	0.05387206
33	0x3d318390	0.04333836
34	0x3d04fe61	0.032469157
35	0x3d7b9a4e	0.061426453
36	0x3ce9ec1b	0.028554967
37	0xbc0dd11b	-0.008655812
38	0xbd068164	-0.03283824
39	0x3d259d51	0.04043323
40	0x3dbf28eb	0.09333976
41	0x3d4a1982	0.049340732
42	0x3d83aaec	0.06429085
43	0xbc18e4e9	-0.00933192
44	0x3debe3d4	0.11518064
45	0x3e09afd0	0.13445973
46	0x3dfb8759	0.12281675
47	0x3d5c47db	0.053779464
48	0x3d669d6a	0.056302465
49	0x3dd4639c	0.103705615
50	0x3d79676f	0.060889658
51	0x3d9c61db	0.07635852
52	0x3ca2556e	0.019816127
53	0x3d0dd1a0	0.034623742
54	0x3da4e46a	0.08051379
55	0xbcb01110	-0.021492511
56	0x3d8c8da7	0.068629555
57	0x3cbb205c	0.022842579
58	0x3c417d7d	0.011809704
59	0xbd46e9b8	-0.048562735
60	0x3da77036	0.081756994
61	0x3da0703c	0.07833907
62	0x3b3b2531	0.0028556103
63	0x3d106afc	0.03525828
64	0xbdf9aeaa	-0.12191518
65	0xbccb369e	-0.024806317
66	0xbc291e8c	-0.010322224
67	0x3d32bfd9	0.04363999
68	0x3c7ce945	0.015436475
69	0x3d658d1e	0.056042783
70	0xbc9b9b16	-0.01899485
71	0xbcc6f38a	-0.02428605
72	0xbd88ed19	-0.06685848
73	0xbda19f5f	-0.07891726
74	0xbc2294b1	-0.009923146
75	0xbd68361f	-0.05669224
76	0x3d7217df	0.059104796
77	0xbaf86ef6	-0.0018953967
78	0x3d5809f0	0.052743852
79	0x3ba86545	0.0051390254
80	0x3e0f2d7e	0.13982198
81	0x3cdadb76	0.026715975
82	0x3df8b97a	0.12144752
83	0x3dad639b	0.08466264
84	0x3cf45370	0.029824942
85	0x3da76f05	0.08175472
86	0x3d557158	0.052110046
87	0x3d47b687	0.048758056
88	0x3bf2a0c0	0.007404417
89	0x3daacde7	0.08340054
90	0x3e1eb0b9	0.15497102
91	0x3dc75824	0.09733608
92	0xbd858cac	-0.06520972
93	0xbd844060	-0.06457591
94	0x3d199dea	0.037504114
95	0x3cc2b2ab	0.023766836
96	0x3d337fdf	0.04382312
97	0xbd3dee22	-0.04636968
98	0xbd0064aa	-0.031346
99	0xbd89d3eb	-0.06729873
100	0xbe249046	-0.16070661
101	0xbddaf4de	-0.10691236
102	0xbdde2d9f	-0.10848545
103	0xbdf016e5	-0.11723117
104	0x3d8b3ae5	0.067983426
105	0x3ba760a3	0.0051079555
106	0xbc8d1574	-0.017222144
107	0x3cef8828	0.029239729
108	0x3d832d32	0.06405105
109	0xbd0d33f7	-0.034473386
110	0xbc124d48	-0.008929558
111	0xbc834c6d	-0.016027654
112	0xbd114f8a	-0.035476245
113	0x3cd2c113	0.02572683
114	0x3dab7a26	0.08372907
115	0x3dc1fd08	0.0947209
116	0x3d0ee334	0.034884647
117	0x3e0d7c26	0.1381689
118	0x3c4260ce	0.0118639
119	0x3e07b142	0.13251212
120	0x3d9dc67e	0.07703875
121	0x3db3dc16	0.087822124
122	0x3ded99a9	0.11601574
123	0x3e09ea86	0.1346837
124	0x3de5d987	0.11223131
125	0x3e0e7d99	0.13915099
126	0x3dbb45a7	0.091441445
127	0x3e135d03	0.1439095
128	0xbb04384b	-0.0020175155
129	0xbd73a8c2	-0.059487112
130	0xbd885c9b	-0.06658288
131	0xbd6b3047	-0.057419088
132	0x3c16d3e6	0.009205794
133	0xbd346860	-0.044044852
134	0x3cb35125	0.021889279
135	0x3d350eba	0.044203497
136	0x3d2546cc	0.04035072
137	0xbd028d8a	-0.031873263
138	0xbc88efcb	-0.016715905
139	0x3c993b68	0.018705085
140	0x3d68454b	0.056706708
141	0x3d940d78	0.072291315
142	0x3ce00db5	0.027350286
143	0xbcc4b143	-0.024010306
144	0xbdabf321	-0.083959825
145	0xbcb21567	-0.021738721
146	0x3bbf4c01	0.005837918
147	0xbc862c57	-0.016378565
148	0x3c0e6338	0.008690648
149	0xbc81b0fc	-0.015831463
150	0x3ccf4cd3	0.025305187
151	0x3c405206	0.011738306
152	0xba602117	-0.00085498526
153	0x3d8735a4	0.06602028
154	0x3d774918	0.060372442
155	0xbc696f0e	-0.014247669
156	0xbc4f5d5b	-0.012656535
157	0xbd1059d6	-0.035241924
158	0xbc1c3e77	-0.009536377
159	0xbcce94e5	-0.025217483
160	0x3e0d3c4a	0.1379253
161	0x3e30f335	0.17280276
162	0x3e3c6b16	0.18400225
163	0x3d9bbfae	0.076049194
164	0x3e0077ac	0.12545651
165	0x3d3af51f	0.045643922
166	0xbd3f6937	-0.0467312
167	0xbdab16b1	-0.083539374
168	0xbdb36df5	-0.08761207
169	0xbd740906	-0.059578918
170	0xbd1f9add	-0.03896605
171	0xbdf84c48	-0.121239245
172	0xbbaa3f48	-0.005195532
173	0xbccfd936	-0.025372129
174	0xbd4ce3d6	-0.05002197
175	0xbd8e23d0	-0.069404244
176	0xbd371e72	-0.04470677
177	0xbd882e9b	-0.06649514
178	0xbd0c1566	-0.034200095
179	0xbcd38a88	-0.025822893
180	0xbde6e708	-0.112745345
181	0xbd9aeeec	-0.07565102
182	0xbd6a17fb	-0.057151776
183	0x3cb3e3d3	0.021959221
184	0x3d5dc9b6	0.054147445
185	0x3cc2e49f	0.023790656
186	0x3dd06ac9	0.10176618
187	0x3c83a4c1	0.016069772
188	0x3e20ad7e	0.15691182
189	0x3d90e8c4	0.070756465
190	0x3d8c8e1e	0.06863044
191	0x3d39a665	0.0453247
192	0xbdb6f7f1	-0.0893401
193	0xbc947640	-0.018122792
194	0x3d08a1d2	0.03335745
195	0xbcd0484c	-0.025425099
196	0x3d98aa42	0.07454349
197	0xbd524452	-0.051334687
198	0x3cf22d39	0.02956258
199	0x3c97aecb	0.018515965
200	0xbc98cb8a	-0.018651742
201	0xbc4be7ef	-0.012445434
202	0x3ccb8b48	0.024846688
203	0x3d316cb5	0.04331656
204	0xbc851b22	-0.01624829
205	0x3d34f17f	0.04417562
206	0xbd5fe726	-0.0546638
207	0x3d25de0b	0.04049496
208	0xbdd49d2c	-0.10381541
209	0xbdb5b4dc	-0.08872387
210	0xbd8548b5	-0.065080084
211	0xbdaacd61	-0.08339954
212	0xbc71d887	-0.014761097
213	0x3d2986cd	0.04138832
214	0x3a542c13	0.0008093726
215	0x3da10363	0.07861974
216	0x3d701127	0.058610108
217	0x3dc2a5f2	0.09504308
218	0x3d8ed525	0.06974248
219	0x3d97cec0	0.07412481
220	0x3c809419	0.015695618
221	0x3d8f6d44	0.07003263
222	0xbd158f47	-0.036513593
223	0x3ce8baea	0.02840944
224	0x3e523c3f	0.20530795
225	0x3e826b30	0.25472403
226	0x3e5e382f	0.2170112
227	0x3e14e855	0.14541753
228	0x3e62200f	0.22082542
229	0x3ea4add9	0.32163885
230	0x3e84cecb	0.2593902
231	0x3e7c18d2	0.24618843
232	0x3e6d5a37	0.23178945
233	0x3e8fd121	0.2808924
234	0x3e9ec248	0.310076
235	0x3e9494e6	0.2901985
236	0x3e7401c4	0.23828799
237	0x3e79f717	0.24410664
238	0x3e6795cb	0.22615735
239	0x3ea93e7f	0.33055493
240	0xbdf9f4a6	-0.12204866
241	0xbdf3e689	-0.119092055
242	0x3c19938c	0.009373557
243	0x3b008649	0.001961129
244	0xbcde19cb	-0.027111908
245	0x3ca66ac7	0.020314587
246	0x3c562c1e	0.013072042
247	0x3c36be24	0.0111537315
248	0x3ceb5fa2	0.028732125
249	0x3cee4230	0.029084295
250	0x3c8c536c	0.017129622
251	0x3dab06dc	0.08350918
252	0x3e35d823	0.17758231
253	0x3e2abd7a	0.16673842
254	0x3d2a9591	0.041646544
255	0x3ddad0d0	0.10684359

network_body.observation_encoder.processors.0.conv_layers.2.bias f4 [32]
0	0xbcdb6434	-0.026781179
1	0x3bfb74db	0.0076738424
2	0xbcb06b99	-0.021535682
3	0x3d4e29c4	0.0503328
4	0xbd328734	-0.04358597
5	0xbb80d011	-0.0039310534
6	0xbc3a57e4	-0.011373494
7	0xbd89c098	-0.067261875
8	0xbd15bd75	-0.036557633
9	0xbdfb9f79	-0.12286276
10	0x3d5c8b6d	0.053843904
11	0x3dec5937	0.11540454
12	0x3d814b4a	0.063131884
13	0xbde95b50	-0.113943696
14	0x3dde5bfa	0.10857387
15	0x3d2bde6b	0.04196016
16	0x3daae266	0.08343963
17	0x3e142419	0.14466895
18	0x3d47e05b	0.048797946
19	0x3d838f79	0.064238496
20	0x3d1abb57	0.037776317
21	0x3dc44768	0.09583932
22	0x3df5c95f	0.12001299
23	0x3d20802a	0.039184727
24	0x3d68cb76	0.05683466
25	0xbd5e6f85	-0.054305572
26	0x3e2e8d1e	0.1704602
27	0xbd8040fc	-0.06262395
28	0x3de2e3cd	0.11078606
29	0x3d1ace17	0.0377942
30	0xbde04420	-0.10950494
31	0xbd3d0507	-0.046147373

network_body.observation_encoder.processors.0.dense.0.weight f4 [30, 512]
0	0xbdb0983d	-0.08622787
1	0xbce23fa2	-0.027618233
2	0xbe049a98	-0.12949598
3	0x3d91e38e	0.07123481
4	0x3e79e647	0.2440425
5	0x3d4ebf79	0.05047557
6	0x3ddeceef	0.10879313
7	0xbd80edc9	-0.06295354
8	0x3c004a06	0.007830149
9	0x3cd32ef3	0.025779223
10	0xbd890d51	-0.06691993
11	0x3d9c2110	0.07623494
12	0x3e0d92f6	0.13825592
13	0xbcafbe94	-0.02145318
14	0xbd5968ab	-0.053078335
15	0xbc28624f	-0.010277345
16	0xbe1e27b1	-0.15444829
17	0xbdbc9d64	-0.092097074
18	0xbd62cfc9	-0.05537394
19	0x3c7921ef	0.015205844
20	0xbda5cdf5	-0.08095924
21	0xbd5c1c84	-0.053738132
22	0xbca6f0a0	-0.02037841
23	0xbe177c96	-0.1479362
24	0x3cd17464	0.025568195
25	0xbca567eb	-0.020191154
26	0x3dd79ce9	0.10527975
27	0x3d53381d	0.051567186
28	0xbd6b407b	-0.05743454
29	0x3d014cd0	0.031567395
30	0xbd164401	-0.036685947
31	0xbce8c8e9	-0.028416114
32	0xbe30d8cc	-0.17270201
33	0x3b8290d0	0.003984548
34	0xbcb39c52	-0.021925125
35	0xbd4beb0f	-0.049784716
36	0x3d9ec20f	0.077518575
37	0x3da1f8b9	0.07908768
38	0xbcfcd852	-0.030864868
39	0xbdfd1ba6	-0.12358789
40	0x3d9ad1e4	0.07559565
41	0xbd936f52	-0.07198967
42	0xbdbfdec6	-0.093686625
43	0x3d8f9ae4	0.07011965
44	0x3c33e294	0.010979313
45	0x3cb43682	0.021998648
46	0xbcf55e2d	-0.029952133
47	0xbdb274b4	-0.087136656
48	0x3d63304f	0.055465993
49	0xbe0c28cc	-0.13687438
50	0xbde11a7f	-0.10991382
51	0x3bd2eed2	0.006437161
52	0x3daf6fba	0.08566232
53	0x3e235dec	0.15953797
54	0xbc8d6b39	-0.017263042
55	0x3d48cba6	0.04902234
56	0x3ec82ad2	0.3909517
57	0x3e7e0d84	0.24809843
58	0x3d86c1e9	0.06579954
59	0xbd82b1a9	-0.06381542
60	0x3db1df37	0.08685153
61	0xbd0deb7c	-0.034648404
62	0xbdf0d375	-0.11759082
63	0xbdf3a079	-0.11895842
64	0x3d1c005c	0.03808628
65	0xbd624a53	-0.055246662
66	0xbdb47e04	-0.08813098
67	0xbe8a1920	-0.26972294
68	0xbd74b0b7	-0.05973884
69	0x3cf72dce	0.030173209
70	0xbd7a8e19	-0.06117067
71	0xbdacc7a9	-0.0843652
72	0xbe42a18a	-0.19006935
73	0xbdacb127	-0.08432227
74	0xbd83fe68	-0.064450085
75	0xbd9fabdb	-0.07796451
76	0x3d4ad586	0.049520038
77	0xbdaeef0b	-0.085416876
78	0x3cca4421	0.02469069
79	0xbd056889	-0.032570396
80	0xbdd1a0e4	-0.102357656
81	0xbd85107d	-0.064972855
82	0xbe2e5915	-0.1702617
83	0xbe29c225	-0.16577967
84	0x3d092759	0.03348479
85	0x3e283665	0.16427
86	0xbd351dd9	-0.044217918
87	0xbcf1ab68	-0.029500678
88	0x3e439c4b	0.1910259
89	0x3e4de9cf	0.20108722
90	0x3c8a0709	0.016849058
91	0x3dcd8a4f	0.10036146
92	0x3dab3f54	0.08361688
93	0x3d20f94a	0.03930024
94	0x3b39377b	0.0028261829
95	0xbdcce428	-0.10004455
96	0xbde648e9	-0.11244375
97	0xbdfe8d7d	-0.124293305
98	0xbccd66a0	-0.02507335
99	0xbe957208	-0.2918856
100	0x3de90a08	0.113788664
101	0xbd4d6f15	-0.050154764
102	0x3a0c7464	0.000535792
103	0xbda4962d	-0.08036456
104	0x3d7e2b01	0.06205273
105	0x3c0f7a52	0.008757191
106	0xbd274ae3	-0.040842902
107	0xbe0b4e49	-0.13604082
108	0xbbe6979a	-0.0070371153
109	0xbbbdd374	-0.0057930294
110	0xbe506978	-0.20352733
111	0xbdac9005	-0.08425907
112	0xbc0cb5fc	-0.00858831
113	0xbcebf4a2	-0.028803173
114	0xbd22e85e	-0.039772384
115	0xbdf0a3d0	-0.11749995
116	0xb96c0f4a	-0.0002251241
117	0xbe06cde3	-0.13164477
118	0xbdf8ab1f	-0.12142014
119	0xbc73b26e	-0.014874084
120	0x3e2a11c4	0.1660834
121	0x3de6a320	0.112615824
122	0x3ddde308	0.108343184
123	0x39ea6293	0.00044705402
124	0x3defe2d1	0.11713184
125	0xbdc034b2	-0.09385051
126	0xbe6133a8	-0.21992362
127	0xbcf0dd2a	-0.029402334
128	0x3daaa66f	0.08332526
129	0x3db3878a	0.087660864
130	0x3cc1d060	0.023658931
131	0x3d0c620c	0.034273192
132	0xbdde3532	-0.1084999
133	0xbd606aa2	-0.054789193
134	0x3cd32ad2	0.025777254
135	0x3d5451b7	0.05183574
136	0x3caa10a2	0.020759884
137	0x3df0aefa	0.11752124
138	0xbdeafaa6	-0.11473589
139	0xbe291f83	-0.16515927
140	0x3dc5699f	0.09639286
141	0x3d0fe87c	0.035133824
142	0xbdc04c22	-0.09389521
143	0xbe4799d5	-0.19492276
144	0xbcdda5ff	-0.027056692
145	0xbd5256c5	-0.05135228
146	0xbe7fb448	-0.24971116
147	0xbd91fac3	-0.07127907
148	0x3c03e1d0	0.008049443
149	0xbd8180ed	-0.06323419
150	0xbd53ae4d	-0.051679898
151	0xbd3bbe52	-0.0458358
152	0x3e03c18a	0.12866798
153	0xba9b7346	-0.0011859916
154	0xbd908072	-0.07055749
155	0xb9f7b40e	-0.00047245662
156	0x3e5015df	0.20320843
157	0x3db747ad	0.08949218
158	0x3d010626	0.031500004
159	0xbd3978aa	-0.04528109
160	0xbbd5fb7f	-0.006530225
161	0xbd34bedf	-0.04412734
162	0xbd81c450	-0.06336272
163	0x3dcd01ce	0.1001011
164	0x3d2a6811	0.04160315
165	0x3d80de2e	0.062923774
166	0x3d84931b	0.06473371
167	0xbc01b165	-0.007915829
168	0x3e5e3f5f	0.21703862
169	0x3d3dbb43	0.046321165
170	0x3d0ffeea	0.035155214
171	0xbd216b14	-0.03940876
172	0x3d004001	0.03131104
173	0x3dc462b0	0.09589136
174	0xbd1826d9	-0.037146423
175	0xbd899ec1	-0.06719733
176	0xbe4c6622	-0.19960836
177	0x3c81bb04	0.015836246
178	0xbdba1454	-0.090859085
179	0xbd6a7c05	-0.05724718
180	0xbe111fc4	-0.14172274
181	0x3cffc569	0.031222062
182	0xbd3d4c04	-0.046215072
183	0xbe745f13	-0.23864393
184	0xbd06f7b4	-0.03295107
185	0x3c88f88c	0.016720079
186	0xbdd4526e	-0.10367285
187	0xbddb6745	-0.107130565
188	0x3dd58ce6	0.10427265
189	0xbd854fb0	-0.0650934
190	0xbcd61f9f	-0.026138125
191	0xbe1a5cb3	-0.15074424
192	0xbd642181	-0.055696014
193	0xbd858d13	-0.065210484
194	0xbd7db7d6	-0.061942898
195	0xbd63e220	-0.05563557
196	0xbd94dac0	-0.07268286
197	0x3d9b465b	0.075817786
198	0xbe26f373	-0.16303806
199	0x3c10d20d	0.0088391425
200	0x3d703de5	0.058652777
201	0x3d64dbc9	0.055873666
202	0xbe389433	-0.18025284
203	0xbd43954f	-0.047749814
204	0x3e3eae1e	0.18621108
205	0x3d746118	0.05966291
206	0xbd3c6448	-0.045994073
207	0x3da7f89d	0.08201716
208	0x3d560293	0.05224855
209	0xbceb118b	-0.028694889
210	0xbd8e6d45	-0.06954435
211	0x3dbfa851	0.09358276
212	0x3d6d3b46	0.057917856
213	0xbb577b96	-0.003288006
214	0x3b0b2fb0	0.002123814
215	0xbc11007a	-0.008850211
216	0xbd51f28b	-0.051256698
217	0x3db7fad4	0.089833885
218	0xbce3e201	-0.027817728
219	0xbda8b07e	-0.08236788
220	0xbd1d71bc	-0.038438544
221	0xbd00f2f4	-0.0314817
222	0xbe023ce2	-0.12718537
223	0xbd7ce9e6	-0.0617465
224	0x3d9efea4	0.077634126
225	0x3d0d1701	0.034445766
226	0xb9019acc	-0.00012360065
227	0x3d0c57c2	0.03426338
228	0x3e39e5da	0.18154088
229	0x3da91b23	0.08257129
230	0x3e003ea7	0.125239
231	0xbd8302dd	-0.063970305
232	0x3db21f23	0.08697345
233	0x3ddf831a	0.109136775
234	0x3b1c796e	0.0023876089
235	0x3deb440e	0.1148759
236	0x3e937439	0.28799608
237	0x3e009354	0.12556201
238	0x3d3edf59	0.04659972
239	0xbdfd4dfb	-0.12368389
240	0x3e1dcdec	0.15410584
241	0x3daff522	0.08591677
242	0xbc57a236	-0.013161233
243	0xbd6a6a34	-0.05723019
244	0x3db50396	0.088385746
245	0x3d0d24cd	0.034458924
246	0x3cc6fe97	0.02429132
247	0x3d60dd0c	0.054898307
248	0x3e1ffa43	0.15622811
249	0x3d1651dc	0.03669916
250	0xbda8bbc3	-0.08238938
251	0xbd927c8a	-0.0715266
252	0x3db0e308	0.08637053
253	0x3d84c5ad	0.06483016
254	0xbaa1edcd	-0.0012354195
255	0xbda826a0	-0.08210492

network_body.observation_encoder.processors.0.dense.0.bias f4 [30]
0	0x3bad9a72	0.0052979523
1	0xbd3b8e34	-0.045789912
2	0x3cd14c6f	0.025549142
3	0xbdc4c77c	-0.09608361
4	0xbe0370a8	-0.12835944
5	0xbdbbf21b	-0.09177037
6	0xbe021a9e	-0.12705466
7	0x3d264ca3	0.04060043
8	0x3d301a05	0.042993564
9	0xbd965b9f	-0.07341694
10	0xbe4079f4	-0.18796521
11	0xbea2a45f	-0.3176603
12	0xbdcd540c	-0.10025796
13	0xbe3d607f	-0.18493842
14	0xbd1f1d85	-0.03884651
15	0xbe0c883b	-0.13723843
16	0xbd5e2413	-0.05423362
17	0x3d82ebb3	0.06392612
18	0xbe17e8a2	-0.14834836
19	0xbe0af7dd	-0.13571115
20	0x3d36cb0f	0.044627246
21	0xbcff4275	-0.031159619
22	0xbe45ce88	-0.19317067
23	0xbd44aa3e	-0.048013918
24	0xbdc983cf	-0.098395936
25	0xbdf06e03	-0.11739733
26	0xbcf9a82c	-0.030475698
27	0xbde014ea	-0.10941489
28	0xbe41ba77	-0.18918787
29	0xbe26e0db	-0.16296713

network_body._body_endoder.seq_layers.0.weight f4 [30, 33]
0	0x3c6599ad	0.01401369
1	0xbd15010f	-0.036377963
2	0xbca07ba5	-0.019590208
3	0xbd959c41	-0.07305194
4	0xbde5fc0b	-0.11229714
5	0xbdb63be7	-0.08898144
6	0xbe903707	-0.28166983
7	0xbd34bf99	-0.044128034
8	0xbcf46ebd	-0.02983796
9	0xbad70ef2	-0.0016407652
10	0x3ddaf777	0.106917314
11	0xbc93b5d6	-0.018031042
12	0x3d9dc1af	0.07702958
13	0xbd08b87b	-0.03337906
14	0xbc382550	-0.011239365
15	0xbe9b08a9	-0.30280045
16	0xbd4e7988	-0.05040887
17	0xbcb3c7d3	-0.02194587
18	0x3da09752	0.07841362
19	0xbd2f453b	-0.042790633
20	0x3dc74dab	0.09731611
21	0xbbff8758	-0.0077981167
22	0xbda546d4	-0.0807015
23	0xbe115697	-0.14193188
24	0xbe1e427d	-0.15455051
25	0x3e910d7a	0.28330594
26	0xbd9f9078	-0.07791227
27	0xbe9a3c28	-0.3012402
28	0x3e0995d4	0.13436061
29	0xbe5e6fad	-0.21722288
30	0xbdbdad80	-0.09261608
31	0xbfc0ae5c	-1.505321
32	0xbc990894	-0.018680848
33	0x3ec62f08	0.38707757
34	0xbe640a18	-0.22269475
35	0xbf03b661	-0.51450163
36	0xbbe7b522	-0.0070711533
37	0x3e3c1259	0.18366374
38	0x3de86fed	0.11349473
39	0xbd23267c	-0.039831623
40	0xbea272f0	-0.31728315
41	0xbc945f18	-0.01811175
42	0xbd836369	-0.06415445
43	0x3e127060	0.1430068
44	0x3e032663	0.12807612
45	0x3e98bc1a	0.2983101
46	0x3e012bec	0.12614411
47	0xbe8b13c6	-0.27163523
48	0x3e80b39c	0.2513703
49	0x3e78fd12	0.24315289
50	0xbe0f95c5	-0.14021976
51	0xbb6f1df5	-0.0036486362
52	0x3ef412f7	0.4767072
53	0x3e884b16	0.26619786
54	0x3e2d4b20	0.16923189
55	0x3ee04967	0.43806002
56	0xbe05f14e	-0.13080332
57	0x3baf3508	0.005346898
58	0x3dff865d	0.124768
59	0xbd4ff575	-0.050771195
60	0xbc61dbe5	-0.013785337
61	0x3c4f0ae8	0.012636878
62	0x3c5def25	0.013545786
63	0x3e060063	0.13086085
64	0x3f3d4ac1	0.7394219
65	0x3eac3181	0.33631518
66	0xbe3a78b0	-0.18210101
67	0x3da1e9f2	0.0790595
68	0x3ddbf9d2	0.10741009
69	0xbd85a889	-0.06526286
70	0xbe37794a	-0.17917362
71	0x3ce1e669	0.027575688
72	0xbea0cb00	-0.31404877
73	0x3c80151d	0.015635068
74	0x3d8d3a3f	0.06895875
75	0x3daba190	0.08380425
76	0xbdb0ef8e	-0.086394414
77	0xbde076dc	-0.109601706
78	0xbe067146	-0.13129148
79	0xbe9abb49	-0.30221012
80	0x3e025ed4	0.12731487
81	0xbe0ebe18	-0.13939703
82	0xbd9056e3	-0.07047822
83	0x3dda1c5b	0.106499396
84	0xbdaeef4f	-0.08541738
85	0xbe71fbb6	-0.23631176
86	0xbe18b85f	-0.14914082
87	0xbeaa3bfb	-0.33248886
88	0xbd9a1d12	-0.07525076
89	0xbe833537	-0.25626537
90	0x3e06a0d2	0.13147286
91	0xbe5d9b36	-0.2164124
92	0xbe2da2cf	-0.16956638
93	0x3cbc7228	0.023003653
94	0xbd53ec54	-0.051739052
95	0x3dd8d5cd	0.10587654
96	0x3d9dd3b6	0.07706396
97	0x3faa79ca	1.3318417
98	0xbc66aae5	-0.01407883
99	0xbdcad8c8	-0.09904629
100	0xbe3cd90f	-0.18442176
101	0xbd846293	-0.06464114
102	0x3caa86a0	0.020816147
103	0xbdecadb8	-0.11556572
104	0xbe51f45f	-0.20503376
105	0xbe2f653f	-0.17128466
106	0x3d12bd6d	0.03582518
107	0x3e9c3ffe	0.30517572
108	0xbe49cd0f	-0.1970713
109	0x3e0da386	0.1383191
110	0xbeab8018	-0.33496165
111	0xbe4d4685	-0.20046432
112	0xbe4cefa0	-0.20013285
113	0xbc46f648	-0.012143679
114	0x3d87c2ff	0.066289894
115	0xbec52833	-0.38507232
116	0x3cc852bb	0.024453511
117	0xbe03a0e7	-0.12854348
118	0xbe2920cc	-0.16516417
119	0xbe184df1	-0.14873482
120	0x3d3ef594	0.04662092
121	0x3db7be09	0.08971793
122	0x3e271a4d	0.16318627
123	0xbe388873	-0.18020801
124	0xbbc565c1	-0.006024093
125	0xbd62b5b8	-0.05534908
126	0xbd86dc09	-0.06584937
127	0xbd7286c5	-0.059210557
128	0xbe0835a3	-0.13301711
129	0x3e3e9279	0.18610562
130	0xbf67f025	-0.90600806
131	0xbf3da1c1	-0.7407494
132	0xbe0480ba	-0.1293973
133	0xbe8a2ed8	-0.26988864
134	0x3d124792	0.035712786
135	0xbde0f422	-0.10984065
136	0x3e17b899	0.14816512
137	0x3e17fea9	0.14843239
138	0xbea2f079	-0.3182409
139	0x3dfb116d	0.12259183
140	0xbd1cba88	-0.038263828
141	0xbcc8a794	-0.02449397
142	0xbd347c6c	-0.04406397
143	0x3d8be548	0.06830841
144	0x3e479ed7	0.19494186
145	0xbe975926	-0.29560202
146	0x3d0a3ea4	0.033751145
147	0xbe302d8a	-0.17204872
148	0xbe26f820	-0.1630559
149	0x3d9e506c	0.07730183
150	0x3d150247	0.036379125
151	0x3e9a5b82	0.3014794
152	0x3e27352a	0.16328874
153	0xbe82d9af	-0.25556704
154	0x3d0a3065	0.03373756
155	0x3e800f81	0.2501183
156	0x3d9241df	0.0714147
157	0xbd50977c	-0.050925717
158	0x3eae3f1b	0.3403252
159	0xbd7efc03	-0.062252056
160	0xbd76b345	-0.06022956
161	0x3ca28978	0.01984094
162	0xbe1d11fb	-0.1533889
163	0xbfa8e9ab	-1.319631
164	0xbe9cf772	-0.30657536
165	0xbe2af64d	-0.16695519
166	0x3d91bad7	0.07115715
167	0xbe990af7	-0.29891178
168	0xbab9ea6e	-0.0014184245
169	0xbdd6fd63	-0.104975484
170	0xbeca1df8	-0.3947599
171	0xbec5afa2	-0.3861056
172	0xbeb15d54	-0.34641516
173	0xbe5dd6c2	-0.21663955
174	0xbdbe85f0	-0.0930289
175	0xbdd174b8	-0.102273405
176	0x3e530042	0.20605567
177	0xbd84b67d	-0.064801194
178	0x3dd87477	0.10569089
179	0xbc1a75a5	-0.009427463
180	0xbe7179f3	-0.23581676
181	0xbf00ac45	-0.5026286
182	0xbca8751c	-0.020563655
183	0x3ddb938e	0.10721503
184	0xbeb0f846	-0.34564418
185	0xbd557177	-0.05211016
186	0x3e1732e4	0.14765507
187	0xbd8ee52a	-0.06977303
188	0xbe2f4b0b	-0.1711847
189	0xbdc40db6	-0.09572928
190	0xbe2ab566	-0.1667076
191	0x3dc5d400	0.096595764
192	0xbe320947	-0.17386352
193	0x3e16ca89	0.14725699
194	0x3e60d6a3	0.21956877
195	0x3f7d58a9	0.9896341
196	0x3e77ae93	0.24187689
197	0xbf5461aa	-0.82961524
198	0xbcfa9d40	-0.03059256
199	0xbe4b57d7	-0.19857727
200	0x3d5c7a8f	0.05382782
201	0xbdad0930	-0.08449018
202	0x3cb5f4d6	0.022211473
203	0xbdac3a63	-0.08409574
204	0x3cd0804c	0.025451802
205	0xbe4296cb	-0.19002835
206	0x3ef038fb	0.46918473
207	0x3dafbeb9	0.08581299
208	0x3d08dde9	0.033414755
209	0x3df0ac4a	0.117516115
210	0xbd489e5d	-0.048979152
211	0xbe2f57eb	-0.17123382
212	0xbd01fb2d	-0.03173368
213	0x3e1e2ad3	0.15446024
214	0x3eb5eef7	0.35533878
215	0x3cc82aca	0.024434466
216	0x3dc3a55e	0.09553026
217	0x3d6310b3	0.055435847
218	0xbecd9f24	-0.40160477
219	0x3e0c50ba	0.1370267
220	0xbdb098e2	-0.0862291
221	0xbe8c7fe4	-0.27441323
222	0x3e2b8da1	0.16753246
223	0xbec4ae4b	-0.38414225
224	0xbee37c4a	-0.44430763
225	0xbdcd3781	-0.10020352
226	0xbe6376c5	-0.22213276
227	0x3dd1c221	0.10242105
228	0xbe645433	-0.22297744
229	0x3f94deca	1.163049
230	0x3dffa393	0.12482371
231	0xbe3142f9	-0.17310704
232	0x3d941ba4	0.072318345
233	0xbd0b1a57	-0.033960667
234	0xbe175473	-0.14778309
235	0xbced04cf	-0.028932957
236	0x3d3e1509	0.04640678
237	0xbe462ae3	-0.19352297
238	0xbe92d528	-0.2867825
239	0x3d4d77e6	0.050163172
240	0xbe631863	-0.22177272
241	0xbe9e2880	-0.30890274
242	0xbe4c5d6c	-0.19957513
243	0x3e574c0d	0.21025105
244	0xbe0882fb	-0.13331215
245	0x3cf46aba	0.029836047
246	0x3dae6b13	0.085165165
247	0x3eb42881	0.35187152
248	0x3da1b494	0.07895771
249	0xbe4a8e3e	-0.19780824
250	0xbd908415	-0.07056443
251	0x3e28ca2c	0.16483372
252	0x3d20c907	0.039254215
253	0x3dab1582	0.08353712
254	0xbd8cd2c0	-0.06876135
255	0x3d0bb696	0.034109674

network_body._body_endoder.seq_layers.0.bias f4 [30]
0	0x3d5a760a	0.053335227
1	0xbdd8e078	-0.10589689
2	0x3e7af8ae	0.24508926
3	0x3e4b1bc7	0.19834815
4	0x3e1de0da	0.15417805
5	0x3d86c06d	0.06579671
6	0x3e5d4135	0.21606906
7	0x3e27e0c7	0.1639434
8	0xbe8fac7d	-0.28061286
9	0x3de652ac	0.11246237
10	0xbebe6b64	-0.37191308
11	0xbddd399a	-0.10802002
12	0x3e52bb96	0.20579371
13	0x3e0c16c9	0.13680567
14	0x3d6db2a8	0.058031708
15	0x3e54d1d3	0.20783167
16	0x3d01d84d	0.03170042
17	0xbea58bcf	-0.32333228
18	0x3c477f87	0.012176401
19	0x3e03390d	0.12814732
20	0x3e18df97	0.14929043
21	0x3e17b372	0.14814547
22	0xbe639d38	-0.22227943
23	0x3e8478f0	0.25873518
24	0x3e9aa155	0.30201212
25	0x3e28a1a2	0.16467908
26	0x3e384741	0.17995931
27	0x3d00e47e	0.031467907
28	0x3e020e99	0.12700881
29	0x3e4b2ffb	0.19842522

action_model._continuous_distribution.log_sigma f4 [1, 2]
0	0xbecfe88c	-0.40607107
1	0xbee9af01	-0.4564133

action_model._continuous_distribution.mu.weight f4 [2, 30]
0	0x3d5268e2	0.051369555
1	0xbe4894c0	-0.19587994
2	0x3e2d33cb	0.16914289
3	0x3e95c6a3	0.2925311
4	0x3e207116	0.15668139
5	0x3ec1fc7f	0.37887952
6	0x3ebd1ed6	0.36937588
7	0xbda857bf	-0.08219861
8	0xbf05bac3	-0.522381
9	0x3d73fa38	0.0595648
10	0xbf1d8dc4	-0.6154444
11	0xbca2c080	-0.019867182
12	0x3da8826e	0.082280025
13	0x3c9bb0fa	0.019005287
14	0xbde6677e	-0.11250208
15	0xbd4bd4ca	-0.04976348
16	0xbbc2aef4	-0.005941266
17	0xbf32c24d	-0.6982773
18	0xbc969d43	-0.018385535
19	0xbdcae6a1	-0.0990727
20	0x3e887644	0.2665273
21	0x3e6c6fa9	0.2308947
22	0xbe51bb7b	-0.20481674
23	0x3e873181	0.26404956
24	0x3dd73c48	0.105095446
25	0x3de25067	0.11050492
26	0x3e80c455	0.2514979
27	0x3cfd138e	0.030893113
28	0x3d12fb2d	0.03588407
29	0xbd82ec4d	-0.06392727
30	0xbf2e2daf	-0.6803846
31	0x3e309dd7	0.17247711
32	0x3f0e453e	0.55574405
33	0xbea5bd95	-0.32371202
34	0xbed9508d	-0.42444268
35	0x3e04b4f6	0.12959656
36	0x3ed39b22	0.41329294
37	0x3f196f82	0.5993577
38	0x3d2a0ee7	0.04151812
39	0x3edad944	0.42743886
40	0xbedde5a7	-0.43339273
41	0x3eb7e191	0.3591428
42	0xbf13d01c	-0.57739425
43	0x3f0b8d05	0.54512054
44	0x3ee73567	0.4515793
45	0x3ef82fbc	0.48473918
46	0xbf0fd83c	-0.5618932
47	0xbe26c279	-0.16285123
48	0x3ebdd4d4	0.37076437
49	0x3ec07cd4	0.37595236
50	0xbf69d5fc	-0.9134214
51	0xbeee4c9c	-0.46542823
52	0xbedeecfe	-0.43540186
53	0xbead69ac	-0.33869684
54	0x3efe7aa6	0.49702948
55	0xbf0366b8	-0.5132861
56	0xbf11d428	-0.5696435
57	0xbef5afed	-0.47985783
58	0x3ec3542f	0.38150164
59	0x3e1c5314	0.15266067

action_model._continuous_distribution.mu.bias f4 [2]
0	0x3ea79f54	0.32738745
1	0x3e30e60a	0.17275253
