Assets/ML-Agents/Training Files/results/9roads_cameraSensor_ppo_vehiclesAndChekpointsMasked_brakeX2_1layer_64_256/VehicleAgent/VehicleAgent-21499934.onnx (onnx, 139655 bytes, 11 tensors)

network_body.observation_encoder.processors.0.conv_layers.0.weight f4 [16, 9, 8, 8]
000000 9e b8 c5 3c 3b 8e 90 3c 76 de 05 bc 69 46 87 3c
       0.024135884 0.017645946 -0.008170715 0.016513066
000010 8c 38 02 bb eb d8 ee bc ec f5 b0 bc 21 65 3b 3c
       -0.001987013 -0.029156169 -0.02160164 0.011437685
000020 b6 c9 0f 3d 1d bb 07 bd d2 77 0b 3d 7d cb e7 3a
       0.035104476 -0.03313743 0.034049816 0.0017684546
000030 6c 95 de bc f8 5a ee 3c 14 51 b2 3c f3 bb 2a 3d
       -0.02717086 0.029096112 0.021767177 0.04168315
000040 97 51 23 bc e2 a2 38 3b 4a c9 5a 3c 3c 36 61 bc
       -0.009968183 0.0028173258 0.013353655 -0.013745841
000050 36 76 a7 3c 5f a1 a4 3d 33 78 9a 3d b0 a5 9c 3d
       0.02044211 0.080385916 0.075424574 0.0764879
000060 34 8e 97 3b 19 7e d4 bc 9a 3c 21 3c c9 12 54 3a
       0.004625106 -0.025939034 0.009841109 0.00080899574
000070 44 cb a2 3b f2 ab ed 3b 21 33 58 3c 8b e5 b2 3d
       0.004968079 0.0072531635 0.013195784 0.08735188
000080 5d 47 1c 3d e8 29 66 3d 2f 99 68 3d e1 03 70 3d
       0.038153995 0.05619231 0.056786712 0.05859745
000090 26 c5 71 3d 11 47 2a 3d 83 30 a6 3c 38 6f 32 3d
       0.059025906 0.04157168 0.020286804 0.043563098
0000a0 21 77 4b 3c d2 43 84 3d 78 d4 6a 3c 6d 2d 9c 3d
       0.012418539 0.06458248 0.014332883 0.07625852
0000b0 d1 a1 6d 3c 67 54 b5 3c a4 00 38 3d 24 f4 2b 3d
       0.014503912 0.022134973 0.044922486 0.041980878
0000c0 da bc 8f 3d 08 77 e1 3c cf 58 7c 3d d7 df b2 3c
       0.070184425 0.027522579 0.061608132 0.02183525
0000d0 0f 3a 54 3d 84 69 1d 3d bc ca b6 bc 63 c3 6b bc
       0.05181318 0.038430706 -0.022313468 -0.014389846
0000e0 04 50 2d 3d c4 83 eb 38 97 c4 0e 3c 89 8b 2f 3c
       0.042312637 0.000112302165 0.008713863 0.01071442
0000f0 c6 4c a1 3c 15 dc 60 3d d6 90 21 3d 7b 02 03 bb
       0.019689929 0.054897387 0.039444767 -0.0019990492
000100 11 0b f5 bc b4 c6 be 3b 48 c9 e8 3c 24 31 4d bd
       -0.029912503 0.005822027 0.02841629 -0.050095692
000110 6c fd d1 bc 5c a2 d6 3c a3 31 9c bc ec b3 d4 bc
       -0.025633536 0.026200466 -0.019066637 -0.0259647
000120 20 c6 bb 3c 2e 77 00 3d f4 81 4a bb 03 55 10 bc
       0.022921622 0.03136366 -0.0030900212 -0.008809331
000130 0c 46 05 3d 3a ff 72 3d 39 e2 32 3d fa 6c c4 3a
       0.032537505 0.059325434 0.043672774 0.0014986091
000140 4a 99 0f 3b 57 53 29 3d dc 64 7d 3c 9a ac f8 3c
       0.0021911436 0.041339245 0.015465941 0.03035574
000150 b7 e7 8a 3d e8 28 6c 3d 2f 85 cc 3d b2 cc 01 3e
       0.06782477 0.0576562 0.0998634 0.12675741
000160 f7 cc a7 3d 34 1d 90 3d 8a 61 aa 3d e0 e6 2c 3d
       0.08193391 0.0703682 0.08319385 0.042212367
000170 e5 43 57 3d be 6a d1 3d 21 4b d8 3d 70 b9 b9 3d
       0.052554984 0.102254376 0.10561205 0.090685725
000180 d3 5e a7 3d a3 65 88 3d fe 6e ac 3d 33 8a 13 3e
       0.08172383 0.06660011 0.084196076 0.14408188
000190 96 bf 93 3d db 36 ab 3d b9 81 0a 3e cd b2 80 3d
       0.072142765 0.08360072 0.13526048 0.062841035
0001a0 bc dd 6d 3d 2a 5d 8a 3d 48 18 03 3e 21 4c 78 3d
       0.05807279 0.06756051 0.12802231 0.060619477
0001b0 92 e8 9d 3d 35 a9 a8 3d be 3d c3 3d 45 c6 e3 3d
       0.07710375 0.08235399 0.09533261 0.11121801
0001c0 96 97 85 3d 41 1c f1 3d 86 2a fb 3d f5 7c fc 3d
       0.06523053 0.11772967 0.1226397 0.12328521
0001d0 c1 03 8d 3d ad 81 6a 3d 81 58 89 3d 8a fe a1 3d
       0.068854816 0.057252575 0.06706334 0.079098776
0001e0 af db bc 3d 5d 33 fa 3d 4b e4 07 3e c7 ac 9a 3d
       0.09221589 0.12216828 0.1327068 0.07552486
0001f0 22 a9 ea 3d ba 41 f5 3d f9 2a 8c 3d a8 0c 9e 3d
       0.11458041 0.11975427 0.06844134 0.07717258
000200 41 50 b3 bd 5d c4 a2 bc 07 d2 64 bd 99 c9 ba bc
       -0.087555416 -0.019869024 -0.05586436 -0.022801207
000210 44 5f 9c bd f5 70 2c bd 0c b4 95 bd ed d8 28 bd
       -0.07635358 -0.04209991 -0.07309732 -0.0412225
000220 f6 9a 42 bd 4d 95 89 bc b1 52 97 bd 96 7c 60 bd
       -0.047511064 -0.016794825 -0.07388819 -0.054806314
000230 1e 10 92 bd 75 3c be bc 16 53 46 bd fe de cd 3c
       -0.0713198 -0.023222188 -0.04841908 0.025130745
000240 f2 1a b2 bc 12 7d f5 bb 04 fb 39 bd 1c 96 50 bc
       -0.021741364 -0.007491716 -0.045405403 -0.012731101
000250 cf 02 6d 3d 59 ce ca 3b 3b d2 68 3d fc 6f c0 3d
       0.057864007 0.0061891493 0.056841116 0.09396359
000260 11 1b f0 bc 74 bd e0 bc 7d 3a f3 bb f6 b2 16 3d
       -0.029309781 -0.027434088 -0.007422744 0.036791764
000270 5f 54 2d 3c 30 91 9d 3d ce 53 a2 3d 57 95 9c 3c
       0.010579198 0.07693708 0.07926141 0.01911418
000280 ff 6e 69 3c 18 88 d5 3c 3b b3 32 3d f6 84 32 3d
       0.014247655 0.026065871 0.04362796 0.043583833
000290 7e 53 e4 3c 17 9b bc 3c 58 8b 6a 3d e1 e6 14 3d
       0.027871843 0.023023171 0.057261795 0.036352996
0002a0 cd 21 9b 3c 89 1d 39 3d 19 e5 a4 3d 44 d7 08 3d
       0.018937016 0.045194183 0.080515094 0.03340842
0002b0 ef 6b 66 3d 5c f5 b1 3d 86 71 ad 3d 24 10 a2 3c
       0.056255277 0.08689377 0.084689185 0.019783087
0002c0 2f d4 94 3d f2 e6 b7 3d 35 bf c0 3d df a0 be 3d
       0.07267033 0.08979596 0.0941147 0.093080275
0002d0 ea f0 dc 3c f3 09 d9 3b 65 5a 93 3d f0 8a c7 3c
       0.026970346 0.0066235005 0.07194976 0.024358243
0002e0 4d 87 d7 3d 96 20 97 3d c2 36 8c 3d 6b 0d c6 3d
       0.105238535 0.07379262 0.06846382 0.09670528
0002f0 8c 87 a4 3d 1f 53 dc 3c 5d e0 86 3d bd 7d 88 3d
       0.08033666 0.026895104 0.06585763 0.06664608
000300 3a 24 02 bd 8e 84 41 bd 9f a2 88 bd a9 f6 11 bd
       -0.03177283 -0.047245555 -0.066716425 -0.035635624
000310 8f 13 05 bd 64 61 90 bd 96 17 29 bd 24 c1 a9 bc
       -0.032489356 -0.07049826 -0.04128226 -0.02072198
000320 b2 0b 75 bd 01 b2 0a bd 24 ab 08 bd 8e b2 24 bd
       -0.059825607 -0.033861164 -0.033366337 -0.040209346
000330 43 df 14 bd a0 27 2b bd 6a 5a 26 bd 7d 83 3d bd
       -0.03634573 -0.041785836 -0.04061357 -0.046267975
000340 e2 07 6b bd 0e e7 23 bd a3 22 44 bd 31 e2 4a 3c
       -0.057380565 -0.040015273 -0.047884595 0.01238303
000350 66 2e 64 bd c8 d0 71 bd 7c f9 28 bc fc a2 8e 3c
       -0.05570831 -0.059037 -0.010313388 0.017411701
000360 ca 00 a4 bd 8b 9d c3 bd ea 7b 94 bd ce 90 c9 bd
       -0.08007963 -0.09551533 -0.07250197 -0.098420724
000370 ae b0 91 bd 8e ad a2 bc f6 2f 99 3b 37 db 7e bc
       -0.07113777 -0.019858148 0.004674907 -0.015555195
000380 57 16 5f bd 97 89 90 bd a8 73 2a bd 11 c9 7b bd
       -0.054464664 -0.07057493 -0.041614205 -0.06147105
000390 cb 14 78 bd a0 f8 f1 bc 4d 24 c0 bc 44 56 64 bb
       -0.060566705 -0.029537499 -0.02345481 -0.0034841457
0003a0 0c 6b 1a bd 2d fb 0f bd 2a 8d 00 bd 10 c9 fa bc
       -0.037699744 -0.03515165 -0.031384625 -0.030613452
0003b0 fa 1c 32 bd e1 b9 4e 3d c1 bc e0 3b b8 f3 3c 3d
       -0.043484665 0.050470237 0.0068584387 0.046130866
0003c0 42 d5 90 bd 20 56 69 bd c6 0e 44 bd 8b d6 27 3c
       -0.07071926 -0.0569669 -0.04786565 0.010244022
0003d0 8c 7c 69 3d c8 e6 1a 3d 00 93 16 3d 2c 73 2c bc
       0.057003543 0.037817746 0.036761284 -0.010525506
0003e0 11 eb 21 bd 0c 03 4e bc 8f 43 0c bd 7b 3b 5b bc
       -0.039530817 -0.012573969 -0.034244116 -0.0133808805
0003f0 bd 55 6c 3c 19 57 75 bb 26 ff 43 3d fe b8 15 3d
       0.0144247385 -0.0037435947 0.04785075 0.036553375

network_body.observation_encoder.processors.0.conv_layers.0.bias f4 [16]
000000 61 d8 2e bd 29 39 95 bd cd 39 a3 3d cd 4e 93 bc
       -0.042686824 -0.07286293 0.07970009 -0.017981911
000010 a4 28 80 bd f2 1d 07 3e 83 af 6c be 46 c9 09 be
       -0.062577516 0.13195017 -0.23113827 -0.13455686
000020 c7 9c 98 3b f6 3b 79 bd d9 1c a3 3d 58 36 d5 3b
       0.004657361 -0.0608482 0.07964487 0.0065067224
000030 3d a8 08 3d 8d 1f ac 3d 99 2a 6e be b5 83 13 be
       0.03336357 0.08404455 -0.23258437 -0.14405711

network_body.observation_encoder.processors.0.conv_layers.2.weight f4 [32, 16, 4, 4]
000000 92 f5 c6 bd 14 56 30 bd 80 dc 68 bd af 87 b5 bc
       -0.097148076 -0.04305084 -0.05685091 -0.022159426
000010 22 5e 0c be bc 43 4f be 73 7d 1e be de d6 07 be
       -0.13707784 -0.20240682 -0.15477543 -0.13265559
000020 a0 a3 a5 ba 64 74 ef bc 65 20 51 bc cb 6e 56 3d
       -0.0012637265 -0.029230304 -0.012764071 0.052351754
000030 3b 78 0b be d4 da 16 bd 7d 39 65 bd b0 a6 65 bd
       -0.13620083 -0.036829785 -0.05596303 -0.05606717
000040 14 1a fe 3d 52 9e d4 bc 38 56 17 3d a8 79 3c 3d
       0.12407318 -0.0259544 0.03694746 0.046014458
000050 59 1d f8 3a 76 10 c3 3a 3e 70 ad 3d bb 7a 8d bc
       0.0018929645 0.0014882225 0.08468674 -0.017270437
000060 e7 66 ab 3d 3a 47 b2 3d f7 c3 00 3e f4 0b 0f 3e
       0.083692364 0.08704992 0.12574755 0.13969404
000070 39 fd a7 3d 39 83 d6 3d 0e 80 9c 3d a3 c8 43 3d
       0.08202595 0.104742475 0.07641612 0.047798764
000080 ee ef 56 3d d2 72 2b 3d 34 41 fd 3c b9 8d 74 3d
       0.05247491 0.041857548 0.03091488 0.05970547
000090 cc e6 db 3c 2f 39 2b bc fc 8a 0d bd 1e 0a 1f 3d
       0.026843451 -0.010450645 -0.034556374 0.038828008
0000a0 63 32 bb 3d 01 42 42 3d ae 1c 80 3d fa b3 32 bc
       0.0914047 0.047426227 0.0625547 -0.010907168
0000b0 a2 50 e8 3d 9c d5 07 3e b4 1d f8 3d e7 b1 55 3d
       0.113435045 0.1326508 0.121150404 0.052171614
0000c0 cd 30 61 3d ab ae d2 3d 2e 7a 75 3d 6f e8 99 3d
       0.05497818 0.102872215 0.059930973 0.07515036
0000d0 d8 57 92 3c 9f aa 05 3d 18 96 a0 3d 55 b4 be bc
       0.017864153 0.03263342 0.07841128 -0.023279348
0000e0 dd 03 88 3d 5a 8b a7 3c 6c bf 1b 3c 3c d7 4f bd
       0.06641362 0.02045219 0.009506088 -0.050742373
0000f0 ab d2 a2 3d 0c b9 9b 3d 21 06 1b 3a 8a dc 07 3d
       0.07950338 0.07603654 0.0005913694 0.033169307
000100 79 a6 fc bd ff 6b d4 bc 6c 1d 4d bc 78 9f 28 3d
       -0.1233644 -0.025930403 -0.012519222 0.041167706
000110 7c f7 80 3c 1d a4 6b 3d 83 a8 8e bc b0 b1 bf bc
       0.01574301 0.057529557 -0.017414337 -0.023400158
000120 65 f7 84 bd 2e 32 a0 bd 8b da 26 bc cf 45 6a bd
       -0.06492499 -0.07822071 -0.010183941 -0.05719548
000130 a7 a4 76 3d 73 1f de ba 3b 1f 56 3d ab 02 b1 3b
       0.06021562 -0.0016946628 0.052275877 0.0054019294
000140 7d a6 10 3e 0c a8 f0 3c 28 88 ff 3d 5e a8 b0 3d
       0.1412601 0.029377006 0.124771416 0.086258635
000150 21 b8 01 3d e0 f6 ab 3d 9e 3d 60 3d 43 0d 54 3d
       0.03166974 0.08396697 0.054746263 0.05177046
000160 9e 4a 07 3c bc ae ae 3d a6 f3 1f 3e 68 b7 c8 3d
       0.008257536 0.08529422 0.15620288 0.09800607
000170 da e5 67 bd 6a ef 68 bd 7f c2 33 3d 8d 5e e8 3c
       -0.056615688 -0.056868948 0.043886658 0.028365398
000180 d4 2f 37 3d d8 01 38 bd d5 9b f5 bc 45 5e 87 bd
       0.044723347 -0.044923633 -0.029981533 -0.06609777
000190 89 ab 22 be 7d a7 d7 bd 34 17 dc bd f4 dc ed bd
       -0.15885748 -0.10529993 -0.10746613 -0.11614409
0001a0 ea 08 89 3d 2f 23 9a 3b 9d ef 92 bc 02 8e eb 3c
       0.06691153 0.0047039012 -0.017936522 0.028754238
0001b0 fe 7c 86 3d 7a b7 06 bd f5 ce ed bb d9 ef 6c bc
       0.06566809 -0.03288982 -0.007257337 -0.014461481
0001c0 88 a2 06 bd 7b bd ee 3c 33 e7 b3 3d b2 9f c8 3d
       -0.032869846 0.029143086 0.08784332 0.097960845
0001d0 62 53 17 3d 36 24 13 3e 1b f3 80 3c a4 9e 0a 3e
       0.036944754 0.14369282 0.015740922 0.13537079
0001e0 77 ab a6 3d 76 00 bb 3d 4c eb f5 3d 7e 5d 0e 3e
       0.08138173 0.09130947 0.1200777 0.13902852
0001f0 f9 e3 f0 3d 7e 18 13 3e 32 0b c3 3d ee 06 18 3e
       0.11762232 0.14364812 0.0952362 0.14846393
000200 48 ff 82 b9 da ba 6a bd a2 ea 84 bd 54 ef 63 bd
       -0.00024985732 -0.0573071 -0.06490065 -0.055648163
000210 56 24 4f 3c 19 80 27 bd df a6 cc 3c d7 08 41 3d
       0.0126429405 -0.040893648 0.024981914 0.04712757
000220 ad c9 2c 3d f3 de f3 bc aa c5 6d bc aa 8d ae 3c
       0.04218452 -0.029769396 -0.014512459 0.021307785
000230 79 11 79 3d 15 e0 9b 3d 05 3b 00 3d e5 dd 9c bc
       0.06080768 0.076111 0.031306285 -0.019148776
000240 a8 bf af bd 88 8a c4 bc d5 f8 62 3b 16 4c 9b bc
       -0.085814774 -0.023991838 0.0034633179 -0.018957179
000250 e9 b3 ce 3b 63 1f 97 bc e2 71 b3 3c d6 ea 19 3c
       0.006308068 -0.018447584 0.02190489 0.009394368
000260 09 09 93 bb 5e e7 7e 3d d9 6c 6a 3d fa f7 87 bc
       -0.004487161 0.062232368 0.05723271 -0.016597737
000270 e7 cb 6d bc c8 ae 18 bd d9 7a 3b bc 00 9e da bc
       -0.014513946 -0.03727606 -0.011442863 -0.026686668
000280 a3 46 0f 3e c1 c3 31 3e 1d a0 3c 3e d8 02 9a 3d
       0.1399179 0.1735983 0.18420453 0.07520074
000290 36 13 fd 3d d5 48 26 3d 24 d0 3e bd fd e0 a5 bd
       0.1235718 0.0405968 -0.046585217 -0.08099554
0002a0 49 6a b5 bd 1f 88 77 bd 0a 14 1c bd 2f a9 f7 bd
       -0.08858163 -0.06043255 -0.03810505 -0.12092816
0002b0 bf 9d 40 3a be 7b a5 bc ee 86 48 bd bd 3f 96 bd
       0.0007347725 -0.020200606 -0.048956804 -0.07336376
0002c0 6c 6c 39 bd 23 db 89 bd d9 e0 10 bd 65 13 e0 bc
       -0.045269415 -0.0673125 -0.03537068 -0.027352998
0002d0 a3 27 ea bd 7b 36 9e bd 22 14 73 bd 68 3a a1 3c
       -0.11433341 -0.07725235 -0.059345372 0.01968117
0002e0 e4 ac 57 3d 00 a0 b7 3c a7 7e ce 3d f9 0e 6c 3c
       0.052655116 0.022415161 0.10082751 0.014407867
0002f0 79 5a 1e 3e 8d 7b 8c 3d bd 81 87 3d be ab 30 3d
       0.154642 0.06859503 0.066165425 0.043132536
000300 0d 78 b8 bd 4d 6f 9b bc 61 75 04 3d 8b bf da bc
       -0.09007273 -0.01897397 0.032338504 -0.026702663
000310 86 c8 89 3d 9f d0 60 bd 31 91 e4 3c 8d 21 84 3c
       0.067277 -0.054886457 0.027901264 0.01612928
000320 fd 0d c2 bc 39 ec 77 bc fa 3c cf 3c 0a 72 2b 3d
       -0.02368831 -0.015132003 0.02529763 0.041856803
000330 ee 2c af bc 22 0f 13 3d da 7a 7f bd 9a ba 08 3d
       -0.021383729 0.035903104 -0.06237302 0.033381082
000340 aa 9d cb bd 3e e8 ac bd 8e e3 79 bd c4 fe a1 bd
       -0.099421814 -0.08442734 -0.06100803 -0.07909921
000350 90 a3 32 bc 78 51 39 3d f1 6e 88 3b 39 20 a6 3d
       -0.010903254 0.04524371 0.004163616 0.08111615
000360 07 4d 7c 3d 9c ea c7 3d a1 0f 93 3d fc 09 9c 3d
       0.061596896 0.09761545 0.07180715 0.07619092
000370 1b 12 99 3c a7 af 94 3d ee 90 0c bd 63 aa f9 3c
       0.018685391 0.072600655 -0.034317903 0.030476755
000380 dc 3f 50 3e 14 54 81 3e 54 eb 5b 3e 9c 76 12 3e
       0.2033686 0.2525946 0.2147649 0.14303058
000390 54 95 5f 3e 5f 57 a3 3e 9c 79 83 3e ad 8b 79 3e
       0.21834308 0.31902596 0.25678718 0.24369688
0003a0 08 94 6a 3e 4c 69 8e 3e 87 74 9d 3e f3 6d 93 3e
       0.22908032 0.2781471 0.30752966 0.28794822
0003b0 c2 50 71 3e de 51 77 3e 49 30 65 3e 4a 2b a8 3e
       0.23565963 0.24152324 0.223817 0.32845527
0003c0 ab 8b f6 bd 28 18 f0 bd ec 0b 37 3c f7 a2 82 3b
       -0.12038358 -0.117233574 0.011172276 0.003986712
0003d0 13 c0 ce bc 49 40 b6 3c dc e1 72 3c 0a 69 4e 3c
       -0.025238072 0.02224745 0.014824357 0.012598285
0003e0 75 0c fb 3c c1 22 ff 3c df b2 9a 3c d1 4c ae 3d
       0.030645588 0.031144502 0.01888412 0.08510745
0003f0 cb 6b 37 3e e4 5d 2c 3e b7 ef 30 3d 16 c0 dd 3d
       0.17912214 0.16832691 0.04319736 0.10827653

network_body.observation_encoder.processors.0.conv_layers.2.bias f4 [32]
000000 c6 76 c9 bc dd f5 e2 3b 8d a5 99 bc d3 2a 4a 3d
       -0.024592768 0.006926282 -0.018755699 0.049357247
000010 da 19 40 bd 36 05 75 bb 6f ea 49 bc 2b 9e 85 bd
       -0.046899654 -0.003738714 -0.01232396 -0.06524309
000020 b4 69 1b bd b6 43 f8 bd 1a 76 5f 3d 48 6a eb 3d
       -0.037942603 -0.1212229 0.05455599 0.11494881
000030 af a0 82 3d c9 d3 f1 bd 9b f0 e2 3d e5 be 2f 3d
       0.06378304 -0.11807973 0.11081048 0.04290666
000040 26 f9 ad 3d 43 b7 13 3e 68 f6 3c 3d 4d cd 81 3d
       0.08494787 0.14425378 0.04613343 0.06337986
000050 66 33 12 3d 68 78 c5 3d 13 7d f8 3d f7 b3 25 3d
       0.03569355 0.09642106 0.12133231 0.04045483
000060 ca 80 66 3d 66 f3 64 bd ad 67 32 3e c1 af 74 bd
       0.056275167 -0.055896185 0.17422362 -0.059737924
000070 57 4e e0 3d ab b4 1f 3d 04 55 d9 bd 6a 7c 28 bd
       0.10952442 0.038990658 -0.106119186 -0.041134275

network_body.observation_encoder.processors.0.dense.0.weight f4 [30, 512]
000000 ef 77 b3 bd e3 2a fd bc e9 43 07 be c2 c5 8e 3d
       -0.0876311 -0.030904239 -0.132095 0.06971313
000010 c7 bc 79 3e 3d f1 4a 3d 4f dd db 3d e0 cc 83 bd
       0.24388419 0.04954647 0.10735571 -0.06435561
000020 2e 21 f9 3b f2 d2 cb 3c 87 b6 8b bd c2 9c 98 3d
       0.0076028323 0.02488086 -0.06821924 0.07451774
000030 30 be 0b 3e 05 a1 bd bc 75 d3 5d bd 83 d8 3b bc
       0.1364677 -0.02314807 -0.05415674 -0.011465195
000040 73 23 1e be f5 4b c3 bd a4 c6 6c bd 27 0e 5b 3c
       -0.1544321 -0.09535972 -0.057806626 0.013370073
000050 2b 5d a5 bd 58 8e 60 bd 40 21 bc bc fe da 18 be
       -0.08074411 -0.05482325 -0.022965074 -0.14927289
000060 ef 4d d8 3c 44 a3 af bc 50 8f d5 3d 7e 42 4c 3d
       0.02640435 -0.021440156 0.10427725 0.0498681
000070 3e 71 69 bd 8b ff 00 3d 70 39 1a bd a1 dd f1 bc
       -0.05699276 0.031493705 -0.037652433 -0.029524626
000080 a8 3d 34 be 83 e9 a0 3a f6 95 c4 bc 23 80 57 bd
       -0.17601645 0.0012276623 -0.023997288 -0.052612435
000090 29 43 9c 3d a3 35 9f 3d f0 a8 00 bd 18 cf fe bd
       0.07629997 0.07773902 -0.03141111 -0.12441844
0000a0 49 9c 96 3d f5 11 97 bd 04 4d c3 bd 2f 22 8b 3d
       0.07354028 -0.07376472 -0.09536174 0.067936294
0000b0 b5 af fe 3b c5 ab 99 3c aa 16 07 bd 21 22 b7 bd
       0.0077724108 0.018758664 -0.0329806 -0.089420564
0000c0 3c ca 5d 3d 8b 50 0f be 4f 1e e5 bd 28 57 8e 3b
       0.054147944 -0.13995568 -0.111874215 0.004343886
0000d0 75 29 ae 3d 96 cc 21 3e 00 61 9c bc 0c ec 41 3d
       0.08504001 0.158007 -0.019089222 0.047344252
0000e0 46 b1 c7 3e 49 39 7d 3e 55 37 85 3d 19 49 85 bd
       0.39002436 0.24728884 0.06504694 -0.06508083
0000f0 fd 75 b0 3d 69 0c 10 bd 8c d9 f1 bd 78 6c f5 bd
       0.086162545 -0.035168085 -0.11809072 -0.119835794
000100 43 0e 0b 3d 2f bc 42 bd ea 05 b0 bd 03 b3 8a be
       0.033949148 -0.047542747 -0.08594878 -0.270897
000110 0c e5 77 bd 85 76 eb 3c 84 7b 6e bd eb 48 b0 bd
       -0.06052117 0.028743038 -0.058223262 -0.08607658
000120 10 1a 41 be 82 bd ae bd b1 af 8a bd d3 05 90 bd
       -0.18857598 -0.085322395 -0.06771792 -0.07032361
000130 6b bd 49 3d b5 b5 ae bd b6 29 d1 3c 43 e5 f2 bc
       0.04925291 -0.085307516 0.025532585 -0.029650336
000140 03 f2 d3 bd d2 f9 87 bd 70 8b 30 be be 96 2b be
       -0.103488944 -0.06639446 -0.17240691 -0.16756722
000150 bb 07 06 3d 97 fc 26 3e a5 39 3a bd 25 04 fd bc
       0.032722216 0.16307293 -0.04546513 -0.030885765
000160 52 0f 42 3e ee 12 4d 3e 66 62 85 3c 78 c4 cb 3d
       0.18951157 0.20026752 0.016282272 0.09949583
000170 c4 06 aa 3d 83 84 20 3d 05 e6 62 3b b4 0e cc bd
       0.08302072 0.039188873 0.0034621966 -0.09963742
000180 40 d5 e8 bd 2c d3 00 be c9 0d e0 bc 79 90 96 be
       -0.11368799 -0.12580556 -0.027350323 -0.294071
000190 c7 66 e6 3d 00 b4 56 bd 17 3a 03 bb 2b e1 a6 bd
       0.11250072 -0.052417755 -0.0020023638 -0.08148416
0001a0 6b d2 76 3d 6d 88 ee 3b 06 a1 28 bd f5 b9 0b be
       0.060259264 0.007279447 -0.04116919 -0.13645156
0001b0 db e5 eb bb 4a b1 b7 bb 5a 7f 51 be 66 1e ac bd
       -0.0071990318 -0.0056058513 -0.20458737 -0.084042355
0001c0 3d b1 2b bc 3d 32 fc bc 2d db 2c bd d0 e9 f5 bd
       -0.010479269 -0.030785674 -0.04220121 -0.12007487
0001d0 b8 15 10 bb 52 19 09 be 6d d7 fc bd cf df 90 bc
       -0.0021985602 -0.13388565 -0.12345777 -0.017684845
0001e0 09 e0 26 3e 63 dc df 3d 28 ad e3 3d 13 a7 e6 b7
       0.162964 0.10930707 0.11117011 -2.7495937e-05
0001f0 24 ea ee 3d 76 68 bb bd f3 c3 5d be eb 8b e2 bc
       0.116657525 -0.09150784 -0.2165678 -0.027654609
000200 f4 51 a5 3d 6a 1d ae 3d 47 02 ab 3c 93 5b 00 3d
       0.08072272 0.08501704 0.02087511 0.031337332
000210 65 7e e1 bd b1 dd 68 bd 79 ac bc 3c ac 97 46 3d
       -0.11010436 -0.056852046 0.02303146 0.04848449
000220 bd 62 94 3c 43 d2 ea 3d 17 33 f0 bd 14 0f 2c be
       0.018113488 0.114658855 -0.117284946 -0.16802627
000230 f8 c7 c0 3d 56 04 08 3d 73 fa c3 bd fb 54 49 be
       0.09413141 0.03320726 -0.09569254 -0.19661324
000240 5a 49 eb bc 9a 19 5a bd ca f9 80 be a9 b3 96 bd
       -0.0287215 -0.05324707 -0.25190574 -0.07358486
000250 c2 dc df 3b 75 91 84 bd 4b ba 5a bd 55 ac 43 bd
       0.0068317363 -0.06473056 -0.05340032 -0.04777177
000260 69 7f 02 3e 35 6b 25 bb b6 37 93 bd 1a bc 01 bb
       0.12743916 -0.0025240902 -0.071883604 -0.0019795955
000270 fe 56 4e 3e 11 c6 b4 3d ef 1d fe 3c 8f 29 3a bd
       0.20150372 0.08826841 0.031020133 -0.04544979
000280 2d 0d 05 bc 32 27 3c bd d5 ff 85 bd 4f 80 c8 3d
       -0.008120817 -0.045935817 -0.06542937 0.09790098
000290 dc 2c 25 3d 65 63 7b 3d 77 0a 81 3d 5c a9 20 bc
       0.040325984 0.061374087 0.06300824 -0.009806003
0002a0 74 e2 5c 3e 11 35 38 3d 11 f5 0a 3d 2d 50 27 bd
       0.2157076 0.044972483 0.03392512 -0.040847946
0002b0 1b fa f3 3c 3d 21 c2 3d a5 43 1a bd 22 31 8a bd
       0.029782346 0.09478996 -0.037662167 -0.067476526
0002c0 81 c2 4e be cc 65 5b 3c cb a0 bf bd 55 ef 75 bd
       -0.20191385 0.0133909695 -0.09356841 -0.060042698
0002d0 25 d0 12 be 9f 99 ef 3c 01 1e 46 bd 76 c7 76 be
       -0.14337213 0.029248057 -0.048368458 -0.24099526
0002e0 97 02 0e bd d0 45 76 3c 3d 7f d7 bd 5a e3 de bd
       -0.03467044 0.015031293 -0.10522316 -0.108832076
0002f0 f1 76 d1 3d 08 77 88 bd f8 dc db bc 89 59 1a be
       0.102277644 -0.066633284 -0.026838765 -0.15073217
000300 fe ad 6a bd 9f 45 89 bd a3 1e 83 bd 3e 03 6d bd
       -0.057294838 -0.06702732 -0.06402328 -0.05786442
000310 cd 36 97 bd ba 30 98 3d 89 ad 28 be fe 2d e4 3b
       -0.07383499 0.07431169 -0.16472448 0.0069634905
000320 02 26 6b 3d 98 99 5f 3d 9c ba 39 be ae e7 48 bd
       0.057409294 0.054589838 -0.18137592 -0.049049072
000330 f6 1b 3d 3e 37 96 70 3d fb bb 3c bd 03 84 a8 3d
       0.18467698 0.058737006 -0.04607771 0.08228304
000340 7e 43 52 3d f9 21 06 bd 4c f1 95 bd 92 b1 ca 3d
       0.051333897 -0.032747243 -0.07321414 0.0989715
000350 05 4c 88 3d 94 b8 13 3b ec ad d8 3b c7 ff 90 bb
       0.066551246 0.0022540437 0.00661253 -0.0044250223
000360 5f 06 40 bd f7 b9 b9 3d cd ae b4 bc 3f fe 9b bd
       -0.046881076 0.09068673 -0.022056008 -0.07616853
000370 b4 75 16 bd 9f 48 03 bd 7f ab fb bd 49 2f 5b bd
       -0.036733344 -0.03205168 -0.1228857 -0.05351189
000380 52 a5 9a 3d 58 d6 02 3d aa 9c 40 bb e4 7c ff 3c
       0.075510636 0.031942695 -0.0029390254 0.031187482
000390 4f d0 37 3e 15 58 a4 3d 51 09 fc 3d 0f 25 88 bd
       0.17950557 0.08024613 0.123064645 -0.06647693
0003a0 27 3f ae 3d 99 43 dc 3d ca a3 98 3a 95 08 e8 3d
       0.08508139 0.10755081 0.0011645493 0.11329762
0003b0 6d c3 92 3e 71 e4 ff 3d 6d b9 40 3d 63 33 fc bd
       0.28664723 0.124947436 0.047051836 -0.12314489
0003c0 7d 24 1c 3e 22 20 ac 3d 47 71 7a bc f0 91 73 bd
       0.15248294 0.08404566 -0.0152857965 -0.05946535
0003d0 94 df b1 3d 21 67 06 3d 98 13 ba 3c cf b8 59 3d
       0.08685222 0.032813195 0.022714421 0.053154763
0003e0 87 b6 1e 3e 0f 52 10 3d 34 16 ab bd dd 95 95 bd
       0.15499316 0.035234507 -0.08353844 -0.07303975
0003f0 56 fd ad 3d e0 9d 83 3d 24 bd 9e ba 86 1e a8 bd
       0.084955856 0.06426597 -0.0012110812 -0.08208947

network_body.observation_encoder.processors.0.dense.0.bias f4 [30]
000000 66 ef da 3b 69 6e 2b bd 7c da b5 3c bb 99 bd bd
       0.0066813705 -0.041853342 0.022198908 -0.092578374
000010 26 df f9 bd bf 57 b5 bd bb 11 05 be 3d af 26 3d
       -0.12200765 -0.08854627 -0.12995045 0.040694464
000020 f4 d4 37 3d 34 26 98 bd d4 df 3a be 7f d7 a3 be
       0.044880822 -0.07429162 -0.18249446 -0.32000348
000030 6b 9b c8 bd fe 55 3f be 0f dc 0c bd 5e af 0a be
       -0.097952686 -0.18685147 -0.03438955 -0.1354346
000040 c7 d6 3d bd c4 71 84 3d 9f e2 15 be 66 67 09 be
       -0.046347406 0.064670116 -0.1463723 -0.1341835
000050 9d 03 36 3d 87 c0 03 bd 94 9d 46 be 9a 3b 32 bd
       0.04443704 -0.03216603 -0.19396049 -0.04351387
000060 c1 ff c7 bd 29 a2 f5 bd 2c 43 f6 bc b5 aa da bd
       -0.09765578 -0.1199382 -0.030061327 -0.10677091
000070 fe d5 45 be fe b5 28 be
       -0.19319913 -0.16475675

network_body._body_endoder.seq_layers.0.weight f4 [30, 33]
000000 4b d0 4f 3c fc 7f 20 bd fe b9 cb bc c5 bb 9e bd
       0.012683938 -0.039184555 -0.024868961 -0.07750658
000010 97 fe e6 bd 14 28 b4 bd ab e0 8f be f1 fb 27 bd
       -0.11279028 -0.08796707 -0.28101096 -0.041011754
000020 55 ea f4 bc 52 79 2f ba 85 ae db 3d f8 3f 97 bc
       -0.029896894 -0.00066937984 0.10726646 -0.01846312
000030 0d af 9b 3d ce 0a 11 bd c6 b4 40 bc 61 b5 9b be
       0.07601748 -0.035410695 -0.01176185 -0.3041182
000040 f0 51 52 bd 94 48 b1 bc c1 10 9a 3d 87 bf 30 bd
       -0.051347673 -0.021641053 0.07522727 -0.043151405
000050 e4 52 c3 3d 9b 65 c7 bb 7c 8f a6 bd 79 22 12 be
       0.095372945 -0.0060851104 -0.08132836 -0.14270963
000060 a1 dd 1b be 3f 0d 91 3e 98 c5 9f bd 59 b3 9a be
       -0.15221263 0.28330418 -0.0780136 -0.30214956
000070 80 f2 0b 3e d4 1b 5e be 23 9d c4 bd 56 35 c1 bf
       0.13666725 -0.21690303 -0.09600284 -1.5094402
000080 84 2b a8 bc 4a 83 c7 3e 2d 90 68 be b1 b0 01 bf
       -0.020528562 0.38967353 -0.22711249 -0.50660235
000090 d9 39 23 bc 9e a3 3f 3e 6e ca ed 3d 97 64 2a bd
       -0.009962522 0.18714759 0.11610876 -0.041599836
0000a0 55 d5 9f be 3d e9 93 bc 34 10 7b bd 97 40 12 3e
       -0.31217447 -0.018055553 -0.06129475 0.14282452
0000b0 59 0a 03 3e 21 20 98 3e c8 3f fc 3d 8a ff 8c be
       0.12796916 0.29712012 0.12316853 -0.2753871
0000c0 31 a9 80 3e 6b d1 79 3e 70 ff 0d be b5 0d a4 bb
       0.25129083 0.24396293 -0.13866973 -0.005006517
0000d0 4e eb f3 3e c9 f1 88 3e 99 db 2b 3e e4 78 e0 3e
       0.4764046 0.26746967 0.16782989 0.43842232
0000e0 05 b0 07 be a7 1a 82 3b 37 0b fd 3d 54 4a 4b bd
       -0.1325074 0.0039704624 0.12355655 -0.04963143
0000f0 43 39 ab bc ed e5 66 3c f5 16 5f 3c 36 15 09 3e
       -0.020901328 0.0140929045 0.013616313 0.13386998
000100 5e d6 3c 3f 67 7e ab 3e 08 dd 3c be ef 25 a0 3d
       0.737646 0.33494875 -0.18443692 0.07819735
000110 54 ea df 3d 7a f6 92 bd 23 a0 37 be 0d d6 df 3c
       0.109333664 -0.07175918 -0.17932181 0.027323747
000120 46 de a0 be 25 5f 4c 3c 1d d9 8c 3d a3 94 ae 3d
       -0.3141958 0.012473856 0.068773486 0.08524444
000130 e1 67 b1 bd e3 33 e0 bd 1e 7a 0b be cc 6a 99 be
       -0.086623915 -0.109473966 -0.13620803 -0.29964292
000140 12 63 01 3e f1 2d 0d be 24 8e 96 bd 50 ff e1 3d
       0.12635449 -0.13787057 -0.0735133 0.11035025
000150 ae 27 b0 bd 6f e9 70 be 64 ad 14 be 89 99 aa be
       -0.08601318 -0.23526548 -0.14519268 -0.33320263
000160 39 fc 99 bd 0d ed 83 be e3 4f 05 3e 38 97 5d be
       -0.07518811 -0.25766793 0.13018756 -0.21639717
000170 bd ac 2e be 32 57 95 3c 6f c4 6d bd bc 62 d7 3d
       -0.17058082 0.018230055 -0.05804866 0.10516879
000180 61 7d 95 3d 53 f9 aa 3f b2 7d 48 bc 5b 1b c5 bd
       0.07299305 1.3357338 -0.012236999 -0.09624358
000190 85 6c 36 be 74 1d 90 bd e3 db cd 3c 2b 0c e6 bd
       -0.17814834 -0.07036868 0.025129264 -0.112327896
0001a0 28 ca 4e be 8a c0 2b be d8 75 2c 3d 0b 20 9d 3e
       -0.20194304 -0.16772667 0.042104572 0.3068851
0001b0 2c d5 43 be 6c 03 0f 3e a4 44 aa be 56 7e 49 be
       -0.19124287 0.13966149 -0.33255494 -0.196771
0001c0 37 77 48 be 16 70 8b bc 62 a7 8c 3d d5 4f c3 be
       -0.19576727 -0.01702122 0.06867863 -0.38146845
0001d0 f4 df d3 3c d1 6f 04 be cc 52 26 be e0 dd 1b be
       0.025863625 -0.1293328 -0.16242522 -0.15221357
0001e0 59 8d 4e 3d 30 46 b8 3d a6 ae 29 3e 4a e4 33 be
       0.05042777 0.08997762 0.1657053 -0.17567554
0001f0 20 c6 95 bb 2d aa 61 bd 11 6b 7e bd 71 54 7f bd
       -0.0045707375 -0.055093933 -0.062113825 -0.06233639
000200 15 0a 06 be 38 ea 34 3e 67 67 69 bf 1e 94 3d bf
       -0.13089783 0.17667472 -0.91173404 -0.74054134
000210 6e 12 05 be 83 87 8a be c0 58 cd 3c 47 96 e0 bd
       -0.12995312 -0.27056512 0.025066733 -0.10966163
000220 75 fd 13 3e 89 8d 15 3e 38 62 a3 be a0 14 f7 3d
       0.14452155 0.14604773 -0.31910872 0.12064481
000230 e8 17 1b bd 46 cf bd bc 1f c6 3b bd f8 4e 8a 3d
       -0.037864596 -0.023170125 -0.04584324 0.06753343
000240 34 4e 47 3e eb 99 97 be 6f fa 0b 3d 8e 19 32 be
       0.19463426 -0.29609618 0.03417438 -0.17392561
000250 b4 34 28 be 43 aa 9f 3d 3a e1 0f 3d b2 d1 99 3e
       -0.16426355 0.07796147 0.035126902 0.30042797
000260 96 66 24 3e 30 cf 82 be 4c 07 07 3d 4f 38 80 3e
       0.16054758 -0.25548697 0.032965943 0.2504296
000270 c7 b0 95 3d 23 ba 52 bd c1 48 ad 3e 02 50 81 bd
       0.07309108 -0.051447045 0.3384457 -0.063140884
000280 d2 33 6e bd ca 2f 9f 3c 28 0b 1e be a0 49 a9 bf
       -0.05815489 0.019431967 -0.15433943 -1.3225594
000290 87 62 9d be bc 9e 25 be 9a aa a0 3d b0 0f 9d be
       -0.30739233 -0.16173834 0.0784504 -0.3067603
0002a0 0a a8 43 3b d2 bd ca bd 69 8a c6 be bc d8 c2 be
       0.0029854798 -0.098994866 -0.38777474 -0.3805598
0002b0 69 f5 ac be dd ab 56 be b0 99 bd bd 76 a7 c8 bd
       -0.33780983 -0.20963998 -0.09257829 -0.09797566
0002c0 85 54 59 3e 60 4f 71 bd af 32 e6 3d 38 be 35 bc
       0.21223648 -0.05891359 0.11240136 -0.011092715
0002d0 bf 26 6a be 9e 9d fd be 8b 04 70 bc 0e 4e ea 3d
       -0.22866343 -0.49534315 -0.014649521 0.11440669
0002e0 8c b5 ad be bb 8e 64 bd 05 cf 1b 3e 5a 4a 84 bd
       -0.33927572 -0.05580018 0.1521569 -0.06459494
0002f0 80 3e 2a be b9 7e cd bd c2 a1 24 be 92 f3 bf 3d
       -0.16625404 -0.10033936 -0.1607733 0.09372629
000300 4e cd 27 be 2a 13 0b 3e b5 02 64 3e de 92 7b 3f
       -0.16386911 0.1358153 0.22266658 0.98270977
000310 40 9a 75 3e 19 7d 54 bf 40 2a 18 bd 2a 89 4e be
       0.23984623 -0.83003384 -0.037149668 -0.20169511
000320 94 28 5f 3d 9a fd a9 bd a0 33 bd 3c db 79 aa bd
       0.054482058 -0.08300324 0.023095906 -0.08324023
000330 70 da c8 3c d9 e8 43 be 3f d6 ef 3e 92 4c b3 3d
       0.024518222 -0.19131793 0.46843144 0.08754839
000340 20 dd 09 3d b9 b0 f1 3d 45 91 3e bd 07 86 30 be
       0.033658147 0.11801285 -0.04652526 -0.17238627
000350 da d4 0d bd 99 8b 20 3e ad 93 b6 3e 2c ce e1 3c
       -0.03462682 0.15678252 0.35659543 0.02756413
000360 b2 6a cb 3d 41 ac 6b 3d ad 78 ca be 45 d6 09 3e
       0.0993246 0.05753732 -0.39545193 0.13460644
000370 6d 50 b1 bd e0 19 8d be ac 0b 2c 3e 70 28 c5 be
       -0.08657918 -0.27558804 0.16801327 -0.38507414
000380 09 07 e3 be ef 4e d6 bd 0c 51 69 be a2 c2 d1 3d
       -0.44341305 -0.10464274 -0.22784823 0.102422014
000390 f2 cc 6a be 92 5c 95 3f 4f 83 01 3e c4 a8 30 be
       -0.22929743 1.1668875 0.12647747 -0.17251879
0003a0 03 99 a0 3d 6b f7 c5 bc e5 36 16 be 27 7b fa bc
       0.07841685 -0.02416583 -0.14669378 -0.030576302
0003b0 a0 ab 36 3d b4 0c 47 be 87 e8 94 be 9c 70 4a 3d
       0.044597268 -0.1943844 -0.29083654 0.0494238
0003c0 06 eb 60 be e4 30 9f be 2d 2a 4e be 79 59 55 3e
       -0.21964654 -0.31091988 -0.20133276 0.20834912
0003d0 f2 b1 06 be 84 a8 0a 3d 24 82 ac 3d 8f 92 b3 3e
       -0.13153818 0.033852115 0.0842326 0.35072753
0003e0 e7 9e ac 3d c7 fc 49 be 20 74 93 bd d9 97 2b 3e
       0.08428746 -0.19725333 -0.071998835 0.16757144
0003f0 5a e3 1d 3d 5f 46 a9 3d 47 3d 8f bd df ad 03 3d
       0.038546897 0.08265375 -0.069941096 0.03214824

network_body._body_endoder.seq_layers.0.bias f4 [30]
000000 0d 5b 5b 3d ed c9 d8 bd 0f 5f 7b 3e ab 98 49 3e
       0.05355363 -0.10585389 0.2454798 0.19687144
000010 c7 2e 1e 3e 58 0a 78 3d ca ce 5d 3e db 58 29 3e
       0.15447532 0.06055674 0.21660915 0.16537802
000020 1f a9 8e be 81 75 e8 3d 13 4b bc be 54 de db bd
       -0.27863404 0.11350537 -0.36776027 -0.10735765
000030 7e 31 53 3e c6 38 0d 3e 23 f6 73 3d d6 cd 56 3e
       0.20624349 0.13791189 0.059560906 0.20976958
000040 8e 87 0c 3d 7e f7 a4 be d6 5f 53 3c d0 9d 04 3e
       0.034308963 -0.32220072 0.012901267 0.12950826
000050 c8 5a 1b 3e c7 1f 16 3e d2 c1 60 be 85 bd 84 3e
       0.15171349 0.1466056 -0.21948937 0.25925842
000060 d2 3d 9b 3e b0 a9 28 3e e0 88 39 3e 55 54 01 3d
       0.30320603 0.1647098 0.1811862 0.031574566
000070 81 86 02 3e bc c3 4c 3e
       0.12746622 0.19996542

action_model._continuous_distribution.log_sigma f4 [1, 2]
000000 86 30 cd be cc 78 e6 be
       -0.40076083 -0.45014036

action_model._continuous_distribution.mu.weight f4 [2, 30]
000000 4b 8b 51 3d 49 4e 48 be d5 04 2d 3e 8a 84 94 3e
       0.05115823 -0.19561113 0.16896375 0.2900737
000010 f1 d0 1e 3e 81 00 be 3e 9a ae be 3e be 33 a4 bd
       0.15509392 0.3710976 0.37242585 -0.080176815
000020 e5 80 06 bf 09 f0 7d 3d e7 ea 1d bf 7b aa ca bc
       -0.5254043 0.061996493 -0.6168656 -0.024739495
000030 fb 1e ab 3d 4a 99 b4 3c 1f 37 e7 bd 18 d9 6a bd
       0.083555184 0.02204575 -0.112898104 -0.057335943
000040 68 29 90 bc a1 ca 33 bf 78 47 87 bc 25 d2 bd bd
       -0.017597869 -0.7023106 -0.016513571 -0.092685975
000050 76 27 89 3e ca 23 68 3e 8e c2 51 be 88 1d 88 3e
       0.2678792 0.22669902 -0.20484373 0.2658503
000060 5b d0 da 3d 72 f2 e0 3d 7b 82 81 3e a2 8e c2 3c
       0.10684272 0.10983743 0.2529486 0.023749653
000070 ff 31 11 3d 72 36 80 bd 96 bd 2e bf bf 7c 30 3e
       0.03544807 -0.062603846 -0.68258035 0.17235087
000080 2b a0 0e 3f 4e 65 a6 be 45 f6 da be 6d a5 04 3e
       0.55713147 -0.32499164 -0.42766014 0.1295373
000090 7a 3e d3 3e 8b 30 1a 3f 67 37 2c 3d 0d 1f dc 3e
       0.41258603 0.6023032 0.042045023 0.4299244
0000a0 97 82 dc be 1f 81 b6 3e 09 da 14 bf 5b 3c 0c 3f
       -0.43068382 0.35645387 -0.58145195 0.54779595
0000b0 ac 62 e8 3e 0b f7 f9 3e fa ab 10 bf bc 6f 27 be
       0.4538778 0.4882129 -0.56512415 -0.16351217
0000c0 fd 8a bd 3e cb 3c c3 3e d2 41 6a bf 77 36 ee be
       0.37020102 0.3813232 -0.91506684 -0.46525928
0000d0 aa da df be ae 35 b0 be 4f 27 00 3f dd df 03 bf
       -0.43721515 -0.34415954 0.5005998 -0.51513463
0000e0 b3 06 13 bf 7e 4b f7 be 8d a8 c4 3e 9b be 1f 3e
       -0.574321 -0.48299783 0.38409844 0.15600054

action_model._continuous_distribution.mu.bias f4 [2]
000000 47 de a6 3e b2 7e 31 3e
       0.3259146 0.17333487
