Assets/ML-Agents/Training Files/results/9roads_cameraSensor_ppo_vehiclesAndChekpointsMasked_brakeX2_1layer_64_256/VehicleAgent/VehicleAgent-20999973.pt (torch, 838483 bytes, 72 tensors)

network_body.observation_encoder.processors.0.conv_layers.0.weight f4 [16, 9, 8, 8]
000000 24 49 88 3c 89 6b 12 3c ed 85 9a bc 3e 22 b5 3b
       0.016636439 0.008936771 -0.018862689 0.0055277636
000010 d6 dc 56 bc 41 15 1d bd 7f 82 f1 bc 80 0b 29 3b
       -0.013114175 -0.038350347 -0.02948117 0.0025794208
000020 3b 6f df 3c 3a 3a 2e bd fc b6 c6 3c 34 ae 01 bc
       0.027274719 -0.042535998 0.024257176 -0.007915068
000030 4b 01 16 bd 39 87 a8 3c 9e ed 59 3c 78 96 08 3d
       -0.036622327 0.020572292 0.013301281 0.033346623
000040 5d 56 86 bc 6e 35 92 bb 2c ed c3 3b 13 4f a9 bc
       -0.016398603 -0.0044619357 0.005979201 -0.020667588
000050 30 7d 4a 3c c5 7f 96 3d 80 11 8d 3d ed 64 90 3d
       0.012358949 0.07348589 0.068881035 0.070505
000060 41 66 4e ba 58 78 fb bc 44 a3 96 3b 3f 8e ac bb
       -0.00078735134 -0.030697033 0.0045970995 -0.0052659805
000070 d1 71 5f ba a8 89 1f 3b bd 91 f7 3b 0d f7 a5 3d
       -0.0008523735 0.0024343524 0.007555215 0.08103762
000080 5d b2 07 3d 72 2e 4f 3d 15 1e 4f 3d 5c ce 57 3d
       0.033129085 0.050581403 0.050565798 0.052687034
000090 14 b2 57 3d bc 47 12 3d cd 45 6f 3c e3 87 1e 3d
       0.052660063 0.035712942 0.014604044 0.03870381
0000a0 fb 1e e9 3b 75 0a 75 3d 3c 66 10 3c 9e c7 92 3d
       0.007114289 0.059824426 0.008813437 0.0716698
0000b0 28 cb 0b 3c ec cf 7e 3c d7 2d 1f 3d 32 14 17 3d
       0.008532323 0.015552502 0.038862076 0.036884494
0000c0 0c 16 84 3d c3 90 c4 3c d7 c2 6b 3d c3 4d 81 3c
       0.064495176 0.023994809 0.05755886 0.01578415
0000d0 45 4b 38 3d 8d ed 02 3d 44 31 e3 bc 21 fb aa bc
       0.044993658 0.031964827 -0.027733453 -0.0208717
0000e0 72 07 13 3d 9c 61 92 bb 8e 02 70 3b 1c de 71 3b
       0.035895772 -0.0044672024 0.0036622616 0.003690607
0000f0 a8 56 66 3c 6e 23 46 3d 40 9d 09 3d 70 2f 1b bc
       0.014058746 0.048373632 0.03359723 -0.009471759
000100 c1 fd 11 bd 14 60 4e ba b4 65 a1 3c 46 be 70 bd
       -0.03564239 -0.0007872593 0.019701816 -0.05877521
000110 b5 7a 0f bd 82 4c 94 3c c4 01 d8 bc e9 f9 0b bd
       -0.035029132 0.018102888 -0.02636803 -0.03417388
000120 71 e3 83 3c dd 9f c0 3c 92 31 3a bc 57 b3 8f bc
       0.016099663 0.023513729 -0.011364358 -0.01754157
000130 cb e0 c0 3c 78 c3 54 3d 14 6a 12 3d d8 72 ee bb
       0.02354469 0.051944226 0.035745695 -0.007276874
000140 27 a7 4d bb 8c c9 11 3d 2c 87 0e 3c 6b a7 c4 3c
       -0.0031380148 0.0355926 0.00869922 0.024005612
000150 fd fb 75 3d 02 f7 51 3d cd 8d bd 3d ee db f3 3d
       0.060054768 0.051260956 0.09255562 0.11907183
000160 7e 3f 9d 3d c6 96 85 3d 4d d9 9e 3d 7c bd 0f 3d
       0.07678126 0.065228984 0.077562906 0.035092816
000170 39 46 3a 3d 4f 2f c4 3d ff ce c8 3d c8 c2 a8 3d
       0.045477126 0.09579336 0.09805106 0.082402766
000180 77 70 9e 3d 67 11 7a 3d c2 f6 9e 3d eb 65 0c 3e
       0.07736295 0.061051752 0.07761909 0.13710754
000190 50 72 85 3d 15 5b 9d 3d 6e 93 03 3e 0f 29 65 3d
       0.06515944 0.07683388 0.12849209 0.05594736
0001a0 90 15 5b 3d cb a3 81 3d 4e 3e fb 3d 68 85 64 3d
       0.05348736 0.06330069 0.12267743 0.05579129
0001b0 52 b7 90 3d bb 0e 9a 3d 1e 11 b6 3d 65 a0 d6 3d
       0.070662156 0.07522341 0.088899836 0.104798116
0001c0 53 9d 6f 3d fa d0 e6 3d 6a b7 ee 3d 8f f8 ec 3d
       0.058499645 0.11270328 0.11656077 0.11570846
0001d0 c2 bc 79 3d ae 1e 4b 3d ff 12 75 3d c6 5e 92 3d
       0.06097103 0.049589805 0.05983257 0.07146983
0001e0 d2 dc a9 3d cc 21 ea 3d 8b e1 ff 3d 4d e4 87 3d
       0.08294071 0.114322275 0.12494191 0.06635342
0001f0 4d be d8 3d 40 fe e2 3d 04 44 78 3d 60 52 8d 3d
       0.10583172 0.110836506 0.06061174 0.069004774
000200 3c 0b bd bd 23 cb d0 bc 1f f0 81 bd 1b 60 f7 bc
       -0.092306584 -0.025487488 -0.063446276 -0.030197194
000210 a6 dc ac bd 47 a2 48 bd f3 cd a2 bd ce b0 45 bd
       -0.08440523 -0.048982885 -0.07949438 -0.048264317
000220 5d c7 59 bd 05 eb bf bc ca 85 a5 bd e2 bb 7e bd
       -0.053168643 -0.023427496 -0.08082159 -0.062190898
000230 64 78 a1 bd db de f0 bc 9c c4 61 bd 64 c3 92 3c
       -0.07884291 -0.02940314 -0.055119142 0.017915435
000240 a7 48 d2 bc eb 25 43 bc 55 69 4f bd 15 e6 90 bc
       -0.025669409 -0.011910896 -0.05063756 -0.017687837
000250 28 c3 53 3d 5a 84 a5 3a bb a8 51 3d ba 19 b4 3d
       0.051699787 0.0012627945 0.051186305 0.087939695
000260 6b e5 07 bd e9 6a ff bc 30 b6 3e bc f1 da ff 3c
       -0.033177774 -0.031178908 -0.011640117 0.03123233
000270 2f a6 a3 3b 1d ce 93 3d a3 06 96 3d 22 9b 4f 3c
       0.004994176 0.07217047 0.073254846 0.012671264
000280 bd 19 2c 3c 0d 1a af 3c a3 4a 1b 3d cd c3 19 3d
       0.010504183 0.021374727 0.037912976 0.037540246
000290 b0 1c b2 3c b9 97 8b 3c 31 db 52 3d e5 36 fb 3c
       0.021742195 0.01704012 0.05147857 0.030665824
0002a0 8d 38 74 3c 09 71 29 3d 7b cc 9a 3d 99 43 ee 3c
       0.014906061 0.041367564 0.07558533 0.029084967
0002b0 a3 65 4e 3d 67 80 a4 3d ef 28 a1 3d 54 4f 65 3c
       0.050389897 0.08032303 0.078691356 0.013995964
0002c0 26 0d 88 3d 6a 13 ae 3d a0 45 b5 3d c0 e9 af 3d
       0.06643133 0.08499797 0.088511705 0.08589506
0002d0 2c c1 9c 3c db 62 84 ba fa d2 84 3d b0 ba 88 3c
       0.01913508 -0.0010100262 0.06485553 0.016690582
0002e0 ab 27 c6 3d f3 38 88 3d 63 fc 7a 3d 28 24 b4 3d
       0.09675535 0.06651487 0.06127585 0.08795959
0002f0 37 77 93 3d d9 ee 93 3c 13 db 6d 3d f4 3a 6f 3d
       0.07200473 0.018058227 0.058070254 0.05840583
000300 b6 b4 11 bd 9f 8c 4f bd 94 9b 90 bd 2c 51 23 bd
       -0.03557273 -0.050671216 -0.07060924 -0.039872333
000310 be b6 19 bd b2 31 9c bd c2 98 48 bd c6 14 e9 bc
       -0.037527792 -0.07626666 -0.048973806 -0.028452288
000320 54 09 85 bd 01 5a 1f bd b8 34 1b bd 2b cf 3a bd
       -0.0649592 -0.038904194 -0.037892073 -0.045607727
000330 9a c5 2e bd 13 3f 4e bd 06 01 45 bd 04 7f 56 bd
       -0.042668916 -0.05035312 -0.04809668 -0.052367225
000340 c1 33 84 bd 57 d5 40 bd 4f 3e 60 bd be e9 89 3b
       -0.06455184 -0.047078457 -0.054746922 0.0042087724
000350 e0 e5 88 bd 05 dc 8e bd 8a 09 a4 bc 93 bc e0 3b
       -0.0668447 -0.06975559 -0.02002408 0.0068584173
000360 4f 86 b0 bd fa a0 cf bd b6 15 a3 bd 80 69 db bd
       -0.08619367 -0.10138126 -0.079631254 -0.10713482
000370 b5 93 a3 bd e8 5d f4 bc 8f 30 b2 bb b8 ad c1 bc
       -0.07987157 -0.029829934 -0.0054379175 -0.023642406
000380 4d ec 7d bd 39 21 a0 bd ee 71 4a bd 2c 83 93 bd
       -0.061992932 -0.07818837 -0.049425058 -0.072027534
000390 0f 12 93 bd 4d 78 1d bd 9e f8 01 bd a5 d5 57 bc
       -0.07181179 -0.038444806 -0.03173124 -0.013173495
0003a0 55 fc 35 bd 63 26 27 bd a2 ff 1b bd 04 34 1c bd
       -0.044430096 -0.040808093 -0.038085587 -0.038135543
0003b0 cd 19 54 bd a7 1f 2f 3d 1a 47 bd ba 96 51 1a 3d
       -0.051782418 0.042754795 -0.0014440746 0.037675463
0003c0 37 dc 98 bd 4b cd 75 bd a0 ac 5b bd 0d 55 6f 3b
       -0.07463878 -0.060010236 -0.053631425 0.00365192
0003d0 6d 69 54 3d 8d 17 05 3d 5c ac f4 3c 3b 96 8b bc
       0.051858354 0.032493163 0.029867344 -0.017039409
0003e0 3c f8 34 bd 0d b5 91 bc 6e d0 1d bd 9a 93 94 bc
       -0.044182047 -0.017786527 -0.038528852 -0.018136788
0003f0 41 f8 13 3c fc 22 1b bc 8e 83 28 3d b1 b9 f2 3c
       0.009031356 -0.00946879 0.041141085 0.02962956

network_body.observation_encoder.processors.0.conv_layers.0.bias f4 [16]
000000 4d 01 58 bd a9 e4 89 bd b9 2d 91 3d 3d 16 9d bc
       -0.052735616 -0.067330666 0.07088799 -0.019175643
000010 15 bb 6e bd a2 c5 05 3e c4 9c 6a be fc dd 06 be
       -0.058283884 0.13063672 -0.22911364 -0.13170618
000020 cf e1 3d 3b 93 37 6a bd 39 e3 a0 3d d2 5b 82 3c
       0.0028973704 -0.057181906 0.07855839 0.015912924
000030 45 83 2b 3d 36 31 97 3d b9 ac 63 be ff 01 06 be
       0.041873235 0.07382433 -0.22233857 -0.13086699

network_body.observation_encoder.processors.0.conv_layers.2.weight f4 [32, 16, 4, 4]
000000 06 9d eb bd 0a 38 82 bd 14 e7 a1 bd eb 28 28 bd
       -0.11504559 -0.06358345 -0.07905403 -0.041054647
000010 40 34 16 be 3f e6 5a be a6 cf 25 be 37 9c 07 be
       -0.1466837 -0.21376894 -0.16192493 -0.13243185
000020 03 28 85 bc a4 3f 2e bd 45 9e e4 bc 18 9e 28 3d
       -0.01625443 -0.04254116 -0.0279075 0.041166395
000030 68 80 08 be 20 b1 eb bc 6f 0a 56 bd ad f0 7e bd
       -0.13330233 -0.028770983 -0.052256044 -0.062241245
000040 0a 01 dd 3d 4b 7b 29 bd ae 26 bb 3c 78 15 00 3d
       0.10791214 -0.041377347 0.022845592 0.031270474
000050 36 34 25 bc 54 d8 3a bc 5d b7 94 3d 8e 0a f4 bc
       -0.010083249 -0.011404116 0.07261536 -0.02979019
000060 58 86 82 3d 83 12 8e 3d fe ce db 3d 44 57 fc 3d
       0.0637328 0.069371246 0.1073284 0.12321332
000070 1f 3d 90 3d bb 9e be 3d fd 61 86 3d 02 a3 1f 3d
       0.07042908 0.09307619 0.065616585 0.038973816
000080 8a d0 1b 3d c0 08 e3 3c c6 6f 88 3c 12 68 39 3d
       0.038040675 0.027714133 0.01665486 0.045265265
000090 7f a4 4f 3c b7 f6 c5 bc d0 25 43 bd ec 0f d6 3c
       0.012673496 -0.024165494 -0.047643483 0.026130639
0000a0 22 a7 a0 3d 43 d2 0d 3d b3 aa 4e 3d 36 aa b4 bc
       0.07844378 0.03462435 0.05045576 -0.02205382
0000b0 b2 e3 d2 3d b7 4b f9 3d e9 02 e2 3d c4 e5 2a 3d
       0.10297336 0.121726446 0.11035711 0.041723028
0000c0 5b 71 32 3d 9f ca b7 3d 8c 55 22 3d c3 0d 66 3d
       0.043565135 0.08974194 0.039632365 0.056165468
0000d0 15 6a 18 3c 19 49 d1 3c 29 c4 93 3d 3f 17 e3 bc
       0.009302636 0.025547551 0.07215149 -0.027721046
0000e0 ee f1 71 3d 16 ba 86 3c 16 ce 54 3b 72 b4 67 bd
       0.059068613 0.016446155 0.003247147 -0.05656857
0000f0 b2 c9 89 3d 48 c7 82 3d 45 3e 3e bc be 71 b3 3c
       0.067279235 0.06385666 -0.011611526 0.021904822
000100 77 ef 03 be 1f 2d e3 bc ed a8 82 bc 29 64 19 3d
       -0.12884317 -0.027731476 -0.01594969 0.037449036
000110 57 ed be 3c 15 27 83 3d 6e cc 3c bc 7f 3c b1 bc
       0.023306532 0.06403939 -0.011523349 -0.021635292
000120 01 2d 84 bd ec d5 9c bd 19 d9 01 bc 33 ea 61 bd
       -0.06453896 -0.0765799 -0.007925295 -0.05515499
000130 ce 55 80 3d d8 20 ad 3a d1 7b 62 3d 23 bc 1f 3c
       0.06266366 0.0013208641 0.05529386 0.009749445
000140 ca ba 1c 3e 74 4c 2e 3d 32 05 0e 3e 8a 51 cc 3d
       0.1530563 0.04255338 0.1386917 0.0997649
000150 06 c5 19 3d 45 af b8 3d 15 21 7f 3d 6b 74 7e 3d
       0.03754141 0.09017805 0.06228741 0.062122744
000160 84 d3 7b 3c 47 21 be 3d 77 c4 29 3e 33 e0 e3 3d
       0.0153702535 0.09283691 0.16578852 0.11126747
000170 b6 7c 34 bd 9e 06 41 bd 37 68 6d 3d f8 0e 3b 3d
       -0.044064246 -0.04712545 0.057960715 0.045668572
000180 1f 42 76 3d 95 9b d2 bc dd 2b 2d bc 79 ef 43 bd
       0.06012165 -0.025708953 -0.01056954 -0.0478358
000190 28 06 1f be bc 0e d0 bd 1c 66 d8 bd 03 53 ef bd
       -0.15529692 -0.1015906 -0.10566351 -0.11685755
0001a0 7f 7c 86 3d 4f 30 01 3b d7 11 d8 bc e1 1e 94 3c
       0.065667145 0.0019712632 -0.026375694 0.01808113
0001b0 b4 50 81 3d e6 dc 13 bd 1d ed 2f bc ed 12 a5 bc
       0.06314221 -0.036099337 -0.010737685 -0.020150626
0001c0 52 88 54 bd 16 40 30 3c cb 27 8b 3d a1 86 a3 3d
       -0.051887818 0.010757467 0.06794699 0.07984663
0001d0 d3 95 b3 3c 17 64 05 3e 8f ea 80 3b 83 15 ed 3d
       0.021922028 0.13026462 0.0039342116 0.11576369
0001e0 5e 83 71 3d 06 73 9a 3d bc 2c b6 3d 20 8c f9 3d
       0.058963172 0.0754147 0.08895251 0.1218493
0001f0 8f 22 d7 3d 30 cf 08 3e c2 a3 b2 3d 93 1d 10 3e
       0.105046384 0.13360286 0.087226406 0.14073782
000200 44 61 95 bc f8 a3 98 bd 6f ea 99 bd 62 5d 87 bd
       -0.018234856 -0.074531496 -0.07515418 -0.06609608
000210 6c 7b e7 ba d1 56 7c bd bd d9 ce 3a 11 57 c9 3c
       -0.0017660684 -0.061606232 0.0015781444 0.02457765
000220 5d 62 ca 3c ff 58 36 bd 02 fa f6 bc c8 d8 9f 3a
       0.024705106 -0.044518467 -0.03014851 0.0012195343
000230 0f 2a 62 3d be 43 81 3d 47 f4 99 3c f7 69 09 bd
       0.05521589 0.06311749 0.018793238 -0.03354832
000240 b2 11 c2 bd ce 3b fd bc ef 74 89 37 59 ac b6 bc
       -0.09476031 -0.030912306 1.6386124e-05 -0.022298979
000250 2e c4 41 bb fb 9f 0e bd 30 a9 ea 3b 68 cb 12 bc
       -0.0029566395 -0.034820538 0.007161282 -0.008959629
000260 47 f9 43 bc 7a a8 4c 3d 54 1e 35 3d 02 b7 e0 bc
       -0.011961288 0.04996536 0.044218376 -0.027431015
000270 0b 12 b1 bc 2f 28 4c bd 90 0a c6 bc 43 46 26 bd
       -0.021615049 -0.04984301 -0.024174958 -0.04059435
000280 73 f1 00 3e 76 27 23 3e 9e d0 2d 3e 9e bc 72 3d
       0.12592106 0.15933022 0.16974112 0.05926191
000290 7c 21 e3 3d 74 9b de 3c 3a 5c 70 bd 86 61 bd bd
       0.11090371 0.027173735 -0.058681704 -0.09247117
0002a0 67 03 d3 bd f9 8e 97 bd 03 25 4d bd 85 de 07 be
       -0.10303383 -0.07400317 -0.050084125 -0.13268478
0002b0 ed e5 33 bc 01 e3 03 bd 75 e8 76 bd 4b 3d ac bd
       -0.010980112 -0.03219891 -0.060280282 -0.08410128
0002c0 ea 0d 5b bd ec b0 98 bd 55 34 33 bd f2 bb 09 bd
       -0.053480066 -0.0745562 -0.04375108 -0.033626504
0002d0 a5 4f 0a be 57 45 c9 bd 80 e1 8f bd 11 b3 4a 3c
       -0.13506944 -0.09827679 -0.070254326 0.012371794
0002e0 e6 c5 2b 3d 40 39 0f 3c 51 17 a5 3d 08 45 1f 3a
       0.041936778 0.008741677 0.08061088 0.0006075655
0002f0 75 3b 14 3e ec 2c 81 3d 57 c4 81 3d 4d 9c 26 3d
       0.14475806 0.06307396 0.06336277 0.040676404
000300 c4 b6 d0 bd a7 6f 0b bd 2a 40 9a 3c 5d 32 3b bd
       -0.1019111 -0.034042027 0.018829424 -0.045702327
000310 1d e6 59 3d 60 d7 8c bd 33 f6 6e 3c 2b f0 40 3b
       0.05319797 -0.06877017 0.014585066 0.0029440026
000320 e0 e6 26 bd e1 ec dc bc 68 8c 7d 3c 94 86 fe 3c
       -0.040747523 -0.026968421 0.01547537 0.031070031
000330 33 87 fd bc b6 16 e2 3c a3 f1 93 bd ed 48 d0 3c
       -0.030948257 0.02759872 -0.07223823 0.025425399
000340 d1 dc d5 bd a0 b7 bb bd 12 f3 90 bd c9 82 ba bd
       -0.10442508 -0.09165883 -0.07077612 -0.091069765
000350 ba 73 0a bc ea 97 38 3d aa e1 97 3b 2e ab a3 3d
       -0.008450443 0.04506675 0.0046350555 0.07991634
000360 2f 05 8b 3d d8 c3 db 3d 89 7b a2 3d 27 b7 a0 3d
       0.06788098 0.107307136 0.07933719 0.078474335
000370 bf 0e d5 3c d9 a7 9f 3d 03 e8 0d bd 5f af 01 3d
       0.026008008 0.07795686 -0.03464509 0.031661388
000380 cf 20 40 3e 61 8e 72 3e a2 b2 4b 3e 0c 2b 02 3e
       0.18762515 0.23687126 0.19892362 0.12711734
000390 93 f9 4f 3e b0 ce 9b 3e b8 37 78 3e f9 f3 6a 3e
       0.20310049 0.30431128 0.24240005 0.2294463
0003a0 1d d0 5b 3e 8f 18 87 3e 93 4b 96 3e 89 8c 8c 3e
       0.21466108 0.26385924 0.29354534 0.2745097
0003b0 fe 72 64 3e 36 44 6a 3e d1 08 58 3e f1 9a a1 3e
       0.22309491 0.22877583 0.21097113 0.31563523
0003c0 ef 4d da bd 74 0d d5 bd a9 fe c4 3c c1 6b 8f 3c
       -0.10659396 -0.104029566 0.024047213 0.017507436
0003d0 bf 3f 35 bc f0 24 14 3d 9f 9f e0 3c 8a 26 c4 3c
       -0.011062562 0.03616804 0.027419863 0.023944158
0003e0 84 1d 31 3d 03 ed 32 3d 86 2e f9 3c 33 c3 c2 3d
       0.04324104 0.043683063 0.030417692 0.095098875
0003f0 ff 3c 41 3e bc b3 36 3e 20 91 59 3d 16 42 f2 3d
       0.18870924 0.17842 0.053116918 0.11829011

network_body.observation_encoder.processors.0.conv_layers.2.bias f4 [32]
000000 2b b5 4b bc 88 9b a5 3c 18 58 3d bc fd 27 8e 3d
       -0.0124333305 0.020215765 -0.011556648 0.06941221
000010 ce c3 3f bd 4b c9 f4 3b b3 23 4a bc 92 3f 9e bd
       -0.046817593 0.007470285 -0.012337613 -0.07726969
000020 e8 70 13 bd 37 9e 0a be 95 16 1a 3d c4 74 e7 3d
       -0.035996348 -0.13536917 0.037619192 0.11301568
000030 df fe 3c 3d a1 8e e8 bd fe 10 f1 3d b9 69 09 3d
       0.0461415 -0.11355329 0.11770819 0.03354809
000040 62 ab c2 3d ae 3c 22 3e 8c a2 4b 3d e2 aa 67 3d
       0.09505345 0.1584346 0.049715564 0.05655945
000050 fc e1 43 3d ae 77 b3 3d b8 82 05 3e 02 8a 27 3d
       0.047822937 0.087630615 0.13038146 0.0409031
000060 ba de 5d 3d bf 58 4f bd b9 f7 31 3e 55 5e 76 bd
       0.054167487 -0.050621744 0.17379655 -0.060148556
000070 6d 90 d9 3d f9 a5 4b 3d 4d 31 be bd 64 8c 09 bd
       0.1062325 0.04971883 -0.09286747 -0.033581153

network_body.observation_encoder.processors.0.dense.0.weight f4 [30, 512]
000000 b3 c6 a5 bd 77 9d b6 bc 7c fe ff bd a4 e0 9b 3d
       -0.080945395 -0.022291882 -0.12499711 0.07611206
000010 4f 6d 7d 3e 7a 6d 44 3d cd 7e d4 3d b8 81 8c bd
       0.24748729 0.047955967 0.10375748 -0.068606794
000020 4d ab 04 3c e3 38 d3 3c 5d 84 89 bd c8 d7 9a 3d
       0.008097482 0.025783962 -0.067146994 0.07560688
000030 ce 9d 03 3e 47 83 d2 bc fd f6 67 bd e9 8b 84 bc
       0.12853166 -0.025697364 -0.05663203 -0.016179996
000040 d9 ac 16 be cf 13 b9 bd a5 23 72 bd 82 73 c7 3c
       -0.14714374 -0.09036981 -0.059116025 0.02434707
000050 0b a6 9d bd 32 2e 5c bd c2 15 f9 bc 7f 07 26 be
       -0.07697686 -0.053754993 -0.030405883 -0.16213797
000060 c5 91 16 3d 53 3b 52 bc 1e 09 e7 3d 2a b6 6a 3d
       0.03676011 -0.012831527 0.11281036 0.05730263
000070 3b 32 82 bd a0 d9 f6 3c fb ff 2d bd 4c fb 09 bd
       -0.06357237 0.030133069 -0.04248045 -0.03368692
000080 41 82 2f be 9b c3 3f 3b aa b9 a9 bc 99 97 71 bd
       -0.17139532 0.0029260877 -0.020718414 -0.058982465
000090 cb 50 91 3d 9e 30 90 3d f4 a3 0c bd 0b 8f f7 bd
       0.07095488 0.07040523 -0.034336045 -0.1208783
0000a0 c8 39 9a 3d a4 95 94 bd ee 04 c2 bd 7f a1 83 3d
       0.07530552 -0.07255104 -0.094735965 0.06427287
0000b0 96 10 34 bb cb a3 7c 3c 58 57 0a bd 78 95 c8 bd
       -0.0027475706 0.015419911 -0.033774704 -0.09794134
0000c0 08 04 66 3d 97 73 0c be 67 9e ec bd 6e f1 9d 3b
       0.05615619 -0.13715969 -0.1155365 0.0048200404
0000d0 62 c3 ba 3d 30 8c 22 3e 7e b3 b1 bc f0 bc 2b 3d
       0.091192976 0.1587379 -0.021692034 0.04192823
0000e0 13 3e c7 3e 47 37 7c 3e b5 e9 87 3d 46 3b 7c bd
       0.38914546 0.24630462 0.06636373 -0.061579965
0000f0 32 9c a4 3d e0 f9 1d bd 88 5a f9 bd 55 c6 fd bd
       0.080376044 -0.038568377 -0.121754706 -0.123913445
000100 2f fa e9 3c 9f 4f 5d bd 37 87 b5 bd 7a ca 91 be
       0.02856168 -0.05403101 -0.08863681 -0.2847479
000110 d6 fb 77 bd 03 8f f0 3c 15 82 7e bd f7 f1 ba bd
       -0.060542904 0.029365068 -0.062135775 -0.091281824
000120 19 68 47 be 55 83 b8 bd bf 2c 90 bd 67 38 9b bd
       -0.19473304 -0.090094246 -0.07039785 -0.07579117
000130 2e d0 10 3d 71 b5 c6 bd 1c 8b a0 3c 2a 57 09 bd
       0.035354786 -0.09702576 0.019597583 -0.03353039
000140 d0 48 d6 bd 9e a8 8c bd 9d 9d 34 be 4b c8 30 be
       -0.10463107 -0.06868099 -0.1763825 -0.17263906
000150 53 e2 00 3d 63 2f 26 3e 3e 7e 44 bd 0d 97 10 bd
       0.03146584 0.16229014 -0.047971956 -0.035300303
000160 39 24 3d 3e 3f 2b 4a 3e b8 bd 64 3c dd 7e c5 3d
       0.18470849 0.1974306 0.013961248 0.09643338
000170 f1 ef 9d 3d 4e 23 14 3d 63 b0 cf 3a d0 2b d1 bd
       0.07711781 0.03616648 0.0015845414 -0.10213435
000180 7b 18 f3 bd 57 8b 06 be b0 b2 0a bd ee 6d 9a be
       -0.11869904 -0.13139091 -0.033861816 -0.30161995
000190 fd 22 d8 3d 96 a1 72 bd 1d a4 1e bc 41 5f ba bd
       0.105535485 -0.05923613 -0.009682682 -0.091001995
0001a0 71 9a 62 3d 55 6e 45 3b 4c ca 3c bd 91 84 12 be
       0.055323068 0.0030125577 -0.046091363 -0.14308383
0001b0 fe 85 98 bc ff b3 69 bc 58 b6 57 be ee f7 b7 bd
       -0.01861858 -0.014264106 -0.21065652 -0.08982836
0001c0 07 1d 5b bc 12 5b 12 bd 8a a8 47 bd ce 3d 02 be
       -0.01337362 -0.035731383 -0.048744716 -0.12718889
0001d0 2b cc 78 bb 1d 3e 0d be cb 84 05 be ad 6a db bc
       -0.003796349 -0.13793226 -0.13038938 -0.026784265
0001e0 7c 63 27 3e b9 6e e4 3d 07 7f e5 3d 83 93 91 bb
       0.16346544 0.11153931 0.11205869 -0.0044426336
0001f0 14 fe e0 3d b0 82 c6 bd 4c 64 5e be 96 43 ee bc
       0.109859616 -0.096928954 -0.21717948 -0.029084962
000200 f1 05 a5 3d 8e ce ac 3d 4e 71 9a 3c bc f3 e4 3c
       0.08057774 0.08437835 0.018852856 0.027948253
000210 e8 c1 ed bd c2 7b 81 bd 37 ac 8a 3c 7a 20 31 3d
       -0.1160925 -0.06322433 0.016927822 0.043243863
000220 23 d9 b3 3c c1 e2 f2 3d c3 ec eb bd 50 81 2e be
       0.021954125 0.11859656 -0.11519768 -0.17041516
000230 cd 9c b2 3d c7 cf 01 3d ff 6a b9 bd 10 a0 45 be
       0.087213136 0.031692293 -0.09053611 -0.1929934
000240 43 13 f6 bc 9f e0 64 bd 93 0f 83 be 0e ef a1 bd
       -0.030038482 -0.055878278 -0.2559782 -0.07906924
000250 c1 38 9a 3b fb c5 89 bd 98 c3 68 bd 3f d0 56 bd
       0.0047064726 -0.06727215 -0.056827158 -0.052444693
000260 50 20 fd 3d 73 82 9b bb 53 e7 96 bd f0 9f ae bb
       0.12359679 -0.0047457754 -0.0736834 -0.0053291246
000270 ce 9e 47 3e 1c 95 ad 3d de b7 f3 3c 55 3d 43 bd
       0.19494173 0.08475706 0.02975076 -0.047665913
000280 73 3a 15 bc 3a c9 44 bd 5a 41 8d bd fd a5 be 3d
       -0.009108174 -0.048043467 -0.068972304 0.093090035
000290 e5 bf 19 3d 26 b5 6f 3d bb ad 73 3d 7b 44 6c bc
       0.03753652 0.058522366 0.059491854 -0.014420624
0002a0 eb a7 58 3e 90 35 2e 3d 1d 36 02 3d e2 a8 35 bd
       0.21157806 0.04253155 0.031789888 -0.044350512
0002b0 32 9f c0 3c 87 72 bb 3d 47 3f 20 bd 0e f2 8e bd
       0.02351341 0.09152704 -0.039122846 -0.06979762
0002c0 39 23 51 be 04 3c 10 3c 42 fc cc bd c6 55 8c bd
       -0.20423593 0.008803371 -0.10009052 -0.068522975
0002d0 bc 2f 16 be a2 c3 d4 3c 18 1f 56 bd 7c 51 7c be
       -0.14666647 0.025972191 -0.052275747 -0.24640459
0002e0 64 54 1e bd 4d 5a 50 3c 10 c0 da bd 26 0e e7 bd
       -0.0386547 0.012716842 -0.10681164 -0.112819955
0002f0 39 47 be 3d ea c7 94 bd b9 3f f1 bc 61 03 1d be
       0.092909284 -0.07264693 -0.02944933 -0.1533332
000300 28 79 71 bd 3f 25 8f bd bf f0 8b bd d1 f8 81 bd
       -0.058953434 -0.06989526 -0.06833028 -0.06346286
000310 ea 32 9c bd 6c 2c 93 3d 50 53 2c be 0e da 00 3b
       -0.076268986 0.07186207 -0.16828656 0.001966122
000320 15 2b 59 3d 82 57 55 3d b6 f5 3b be 8d 5a 59 bd
       0.0530196 0.052085407 -0.1835545 -0.05306487
000330 4e e7 34 3e 83 23 5d 3d ae fa 45 bd 51 3d a3 3d
       0.1766636 0.053988945 -0.04833477 0.079706796
000340 7f a3 ad 3d 1b d4 16 bb 7e 02 66 bd 5c 5f e8 3d
       0.0847845 -0.0023014608 -0.05615472 0.11346313
000350 3e 97 97 3d 42 45 07 3c 75 c4 6b 3c 30 05 6c 3c
       0.07401894 0.008256258 0.014390101 0.014405534
000360 80 09 b6 bc 2f 4a f6 3d 28 1e 71 bc 34 40 92 bd
       -0.022221327 0.12025868 -0.0147166625 -0.07141152
000370 f8 86 43 bd f6 8b eb bc 25 a8 1d be 2e f3 9c bd
       -0.047736138 -0.028753262 -0.15396173 -0.0766357
000380 da 02 95 3d 2d 3d e9 3c a6 b8 f7 bb 59 8b d1 3c
       0.072759345 0.028471554 -0.0075598536 0.025579141
000390 44 cd 39 3e a0 ed a8 3d 9b a5 f8 3d a7 39 8f bd
       0.18144709 0.08248448 0.12140962 -0.06993418
0003a0 31 fa aa 3d 21 6f df 3d 46 3e 43 3b 21 24 e8 3d
       0.083485015 0.10909868 0.0029791757 0.11335016
0003b0 03 06 90 3e e5 09 fd 3d 6c e5 46 3d 98 65 fa bd
       0.28129587 0.12355403 0.048558637 -0.12226409
0003c0 cf 43 1c 3e 01 70 aa 3d 46 fb 8f bc cc 4d 81 bd
       0.15260242 0.08322144 -0.017575871 -0.06313667
0003d0 78 ae ae 3d 56 66 ff 3c 71 d9 a6 3c 4d b6 4d 3d
       0.08529371 0.031176727 0.020367356 0.050222684
0003e0 70 1a 1c 3e ab a0 0b 3d a0 07 af bd ad b6 9c bd
       0.1524446 0.03408877 -0.08546376 -0.0765203
0003f0 1c 23 a1 3d 35 88 7c 3d 58 ae 66 bb 35 a7 ac bd
       0.07868025 0.061653335 -0.0035199132 -0.0843033

network_body.observation_encoder.processors.0.dense.0.bias f4 [30]
000000 25 e5 0b 3c 57 a8 74 bd f3 34 6e 3c 1a b9 da bd
       0.008538519 -0.059730854 0.014538991 -0.106798366
000010 f0 e4 da bd 1f e3 d1 bd 25 66 00 be 93 a1 12 3d
       -0.106881976 -0.10248398 -0.12538965 0.03579862
000020 37 75 38 3d 19 d8 a2 bd a8 df 25 be 18 b9 a3 be
       0.04503366 -0.079513736 -0.161986 -0.31977153
000030 82 4d b9 bd 02 f0 46 be 6c 74 17 bd 96 02 0c be
       -0.090479866 -0.19427493 -0.036976263 -0.13672861
000040 f1 05 16 bd 8c ae 8d 3d ed 53 19 be 62 90 06 be
       -0.03662676 0.06918058 -0.14973421 -0.13141015
000050 a8 84 34 3d 31 ea 4e bd d7 ee 44 be 08 ed 27 bd
       0.044071823 -0.05051631 -0.19231735 -0.040997535
000060 7c 8d de bd bf 4b 02 be 1d 44 ec bc e5 5e ef bd
       -0.1086683 -0.12724207 -0.028841073 -0.116880216
000070 bf 8f 4d be b1 6a 33 be
       -0.20074366 -0.17521168

network_body.processors.0.conv_layers.0.weight f4 [16, 9, 8, 8]
000000 24 49 88 3c 89 6b 12 3c ed 85 9a bc 3e 22 b5 3b
       0.016636439 0.008936771 -0.018862689 0.0055277636
000010 d6 dc 56 bc 41 15 1d bd 7f 82 f1 bc 80 0b 29 3b
       -0.013114175 -0.038350347 -0.02948117 0.0025794208
000020 3b 6f df 3c 3a 3a 2e bd fc b6 c6 3c 34 ae 01 bc
       0.027274719 -0.042535998 0.024257176 -0.007915068
000030 4b 01 16 bd 39 87 a8 3c 9e ed 59 3c 78 96 08 3d
       -0.036622327 0.020572292 0.013301281 0.033346623
000040 5d 56 86 bc 6e 35 92 bb 2c ed c3 3b 13 4f a9 bc
       -0.016398603 -0.0044619357 0.005979201 -0.020667588
000050 30 7d 4a 3c c5 7f 96 3d 80 11 8d 3d ed 64 90 3d
       0.012358949 0.07348589 0.068881035 0.070505
000060 41 66 4e ba 58 78 fb bc 44 a3 96 3b 3f 8e ac bb
       -0.00078735134 -0.030697033 0.0045970995 -0.0052659805
000070 d1 71 5f ba a8 89 1f 3b bd 91 f7 3b 0d f7 a5 3d
       -0.0008523735 0.0024343524 0.007555215 0.08103762
000080 5d b2 07 3d 72 2e 4f 3d 15 1e 4f 3d 5c ce 57 3d
       0.033129085 0.050581403 0.050565798 0.052687034
000090 14 b2 57 3d bc 47 12 3d cd 45 6f 3c e3 87 1e 3d
       0.052660063 0.035712942 0.014604044 0.03870381
0000a0 fb 1e e9 3b 75 0a 75 3d 3c 66 10 3c 9e c7 92 3d
       0.007114289 0.059824426 0.008813437 0.0716698
0000b0 28 cb 0b 3c ec cf 7e 3c d7 2d 1f 3d 32 14 17 3d
       0.008532323 0.015552502 0.038862076 0.036884494
0000c0 0c 16 84 3d c3 90 c4 3c d7 c2 6b 3d c3 4d 81 3c
       0.064495176 0.023994809 0.05755886 0.01578415
0000d0 45 4b 38 3d 8d ed 02 3d 44 31 e3 bc 21 fb aa bc
       0.044993658 0.031964827 -0.027733453 -0.0208717
0000e0 72 07 13 3d 9c 61 92 bb 8e 02 70 3b 1c de 71 3b
       0.035895772 -0.0044672024 0.0036622616 0.003690607
0000f0 a8 56 66 3c 6e 23 46 3d 40 9d 09 3d 70 2f 1b bc
       0.014058746 0.048373632 0.03359723 -0.009471759
000100 c1 fd 11 bd 14 60 4e ba b4 65 a1 3c 46 be 70 bd
       -0.03564239 -0.0007872593 0.019701816 -0.05877521
000110 b5 7a 0f bd 82 4c 94 3c c4 01 d8 bc e9 f9 0b bd
       -0.035029132 0.018102888 -0.02636803 -0.03417388
000120 71 e3 83 3c dd 9f c0 3c 92 31 3a bc 57 b3 8f bc
       0.016099663 0.023513729 -0.011364358 -0.01754157
000130 cb e0 c0 3c 78 c3 54 3d 14 6a 12 3d d8 72 ee bb
       0.02354469 0.051944226 0.035745695 -0.007276874
000140 27 a7 4d bb 8c c9 11 3d 2c 87 0e 3c 6b a7 c4 3c
       -0.0031380148 0.0355926 0.00869922 0.024005612
000150 fd fb 75 3d 02 f7 51 3d cd 8d bd 3d ee db f3 3d
       0.060054768 0.051260956 0.09255562 0.11907183
000160 7e 3f 9d 3d c6 96 85 3d 4d d9 9e 3d 7c bd 0f 3d
       0.07678126 0.065228984 0.077562906 0.035092816
000170 39 46 3a 3d 4f 2f c4 3d ff ce c8 3d c8 c2 a8 3d
       0.045477126 0.09579336 0.09805106 0.082402766
000180 77 70 9e 3d 67 11 7a 3d c2 f6 9e 3d eb 65 0c 3e
       0.07736295 0.061051752 0.07761909 0.13710754
000190 50 72 85 3d 15 5b 9d 3d 6e 93 03 3e 0f 29 65 3d
       0.06515944 0.07683388 0.12849209 0.05594736
0001a0 90 15 5b 3d cb a3 81 3d 4e 3e fb 3d 68 85 64 3d
       0.05348736 0.06330069 0.12267743 0.05579129
0001b0 52 b7 90 3d bb 0e 9a 3d 1e 11 b6 3d 65 a0 d6 3d
       0.070662156 0.07522341 0.088899836 0.104798116
0001c0 53 9d 6f 3d fa d0 e6 3d 6a b7 ee 3d 8f f8 ec 3d
       0.058499645 0.11270328 0.11656077 0.11570846
0001d0 c2 bc 79 3d ae 1e 4b 3d ff 12 75 3d c6 5e 92 3d
       0.06097103 0.049589805 0.05983257 0.07146983
0001e0 d2 dc a9 3d cc 21 ea 3d 8b e1 ff 3d 4d e4 87 3d
       0.08294071 0.114322275 0.12494191 0.06635342
0001f0 4d be d8 3d 40 fe e2 3d 04 44 78 3d 60 52 8d 3d
       0.10583172 0.110836506 0.06061174 0.069004774
000200 3c 0b bd bd 23 cb d0 bc 1f f0 81 bd 1b 60 f7 bc
       -0.092306584 -0.025487488 -0.063446276 -0.030197194
000210 a6 dc ac bd 47 a2 48 bd f3 cd a2 bd ce b0 45 bd
       -0.08440523 -0.048982885 -0.07949438 -0.048264317
000220 5d c7 59 bd 05 eb bf bc ca 85 a5 bd e2 bb 7e bd
       -0.053168643 -0.023427496 -0.08082159 -0.062190898
000230 64 78 a1 bd db de f0 bc 9c c4 61 bd 64 c3 92 3c
       -0.07884291 -0.02940314 -0.055119142 0.017915435
000240 a7 48 d2 bc eb 25 43 bc 55 69 4f bd 15 e6 90 bc
       -0.025669409 -0.011910896 -0.05063756 -0.017687837
000250 28 c3 53 3d 5a 84 a5 3a bb a8 51 3d ba 19 b4 3d
       0.051699787 0.0012627945 0.051186305 0.087939695
000260 6b e5 07 bd e9 6a ff bc 30 b6 3e bc f1 da ff 3c
       -0.033177774 -0.031178908 -0.011640117 0.03123233
000270 2f a6 a3 3b 1d ce 93 3d a3 06 96 3d 22 9b 4f 3c
       0.004994176 0.07217047 0.073254846 0.012671264
000280 bd 19 2c 3c 0d 1a af 3c a3 4a 1b 3d cd c3 19 3d
       0.010504183 0.021374727 0.037912976 0.037540246
000290 b0 1c b2 3c b9 97 8b 3c 31 db 52 3d e5 36 fb 3c
       0.021742195 0.01704012 0.05147857 0.030665824
0002a0 8d 38 74 3c 09 71 29 3d 7b cc 9a 3d 99 43 ee 3c
       0.014906061 0.041367564 0.07558533 0.029084967
0002b0 a3 65 4e 3d 67 80 a4 3d ef 28 a1 3d 54 4f 65 3c
       0.050389897 0.08032303 0.078691356 0.013995964
0002c0 26 0d 88 3d 6a 13 ae 3d a0 45 b5 3d c0 e9 af 3d
       0.06643133 0.08499797 0.088511705 0.08589506
0002d0 2c c1 9c 3c db 62 84 ba fa d2 84 3d b0 ba 88 3c
       0.01913508 -0.0010100262 0.06485553 0.016690582
0002e0 ab 27 c6 3d f3 38 88 3d 63 fc 7a 3d 28 24 b4 3d
       0.09675535 0.06651487 0.06127585 0.08795959
0002f0 37 77 93 3d d9 ee 93 3c 13 db 6d 3d f4 3a 6f 3d
       0.07200473 0.018058227 0.058070254 0.05840583
000300 b6 b4 11 bd 9f 8c 4f bd 94 9b 90 bd 2c 51 23 bd
       -0.03557273 -0.050671216 -0.07060924 -0.039872333
000310 be b6 19 bd b2 31 9c bd c2 98 48 bd c6 14 e9 bc
       -0.037527792 -0.07626666 -0.048973806 -0.028452288
000320 54 09 85 bd 01 5a 1f bd b8 34 1b bd 2b cf 3a bd
       -0.0649592 -0.038904194 -0.037892073 -0.045607727
000330 9a c5 2e bd 13 3f 4e bd 06 01 45 bd 04 7f 56 bd
       -0.042668916 -0.05035312 -0.04809668 -0.052367225
000340 c1 33 84 bd 57 d5 40 bd 4f 3e 60 bd be e9 89 3b
       -0.06455184 -0.047078457 -0.054746922 0.0042087724
000350 e0 e5 88 bd 05 dc 8e bd 8a 09 a4 bc 93 bc e0 3b
       -0.0668447 -0.06975559 -0.02002408 0.0068584173
000360 4f 86 b0 bd fa a0 cf bd b6 15 a3 bd 80 69 db bd
       -0.08619367 -0.10138126 -0.079631254 -0.10713482
000370 b5 93 a3 bd e8 5d f4 bc 8f 30 b2 bb b8 ad c1 bc
       -0.07987157 -0.029829934 -0.0054379175 -0.023642406
000380 4d ec 7d bd 39 21 a0 bd ee 71 4a bd 2c 83 93 bd
       -0.061992932 -0.07818837 -0.049425058 -0.072027534
000390 0f 12 93 bd 4d 78 1d bd 9e f8 01 bd a5 d5 57 bc
       -0.07181179 -0.038444806 -0.03173124 -0.013173495
0003a0 55 fc 35 bd 63 26 27 bd a2 ff 1b bd 04 34 1c bd
       -0.044430096 -0.040808093 -0.038085587 -0.038135543
0003b0 cd 19 54 bd a7 1f 2f 3d 1a 47 bd ba 96 51 1a 3d
       -0.051782418 0.042754795 -0.0014440746 0.037675463
0003c0 37 dc 98 bd 4b cd 75 bd a0 ac 5b bd 0d 55 6f 3b
       -0.07463878 -0.060010236 -0.053631425 0.00365192
0003d0 6d 69 54 3d 8d 17 05 3d 5c ac f4 3c 3b 96 8b bc
       0.051858354 0.032493163 0.029867344 -0.017039409
0003e0 3c f8 34 bd 0d b5 91 bc 6e d0 1d bd 9a 93 94 bc
       -0.044182047 -0.017786527 -0.038528852 -0.018136788
0003f0 41 f8 13 3c fc 22 1b bc 8e 83 28 3d b1 b9 f2 3c
       0.009031356 -0.00946879 0.041141085 0.02962956

network_body.processors.0.conv_layers.0.bias f4 [16]
000000 4d 01 58 bd a9 e4 89 bd b9 2d 91 3d 3d 16 9d bc
       -0.052735616 -0.067330666 0.07088799 -0.019175643
000010 15 bb 6e bd a2 c5 05 3e c4 9c 6a be fc dd 06 be
       -0.058283884 0.13063672 -0.22911364 -0.13170618
000020 cf e1 3d 3b 93 37 6a bd 39 e3 a0 3d d2 5b 82 3c
       0.0028973704 -0.057181906 0.07855839 0.015912924
000030 45 83 2b 3d 36 31 97 3d b9 ac 63 be ff 01 06 be
       0.041873235 0.07382433 -0.22233857 -0.13086699

network_body.processors.0.conv_layers.2.weight f4 [32, 16, 4, 4]
000000 06 9d eb bd 0a 38 82 bd 14 e7 a1 bd eb 28 28 bd
       -0.11504559 -0.06358345 -0.07905403 -0.041054647
000010 40 34 16 be 3f e6 5a be a6 cf 25 be 37 9c 07 be
       -0.1466837 -0.21376894 -0.16192493 -0.13243185
000020 03 28 85 bc a4 3f 2e bd 45 9e e4 bc 18 9e 28 3d
       -0.01625443 -0.04254116 -0.0279075 0.041166395
000030 68 80 08 be 20 b1 eb bc 6f 0a 56 bd ad f0 7e bd
       -0.13330233 -0.028770983 -0.052256044 -0.062241245
000040 0a 01 dd 3d 4b 7b 29 bd ae 26 bb 3c 78 15 00 3d
       0.10791214 -0.041377347 0.022845592 0.031270474
000050 36 34 25 bc 54 d8 3a bc 5d b7 94 3d 8e 0a f4 bc
       -0.010083249 -0.011404116 0.07261536 -0.02979019
000060 58 86 82 3d 83 12 8e 3d fe ce db 3d 44 57 fc 3d
       0.0637328 0.069371246 0.1073284 0.12321332
000070 1f 3d 90 3d bb 9e be 3d fd 61 86 3d 02 a3 1f 3d
       0.07042908 0.09307619 0.065616585 0.038973816
000080 8a d0 1b 3d c0 08 e3 3c c6 6f 88 3c 12 68 39 3d
       0.038040675 0.027714133 0.01665486 0.045265265
000090 7f a4 4f 3c b7 f6 c5 bc d0 25 43 bd ec 0f d6 3c
       0.012673496 -0.024165494 -0.047643483 0.026130639
0000a0 22 a7 a0 3d 43 d2 0d 3d b3 aa 4e 3d 36 aa b4 bc
       0.07844378 0.03462435 0.05045576 -0.02205382
0000b0 b2 e3 d2 3d b7 4b f9 3d e9 02 e2 3d c4 e5 2a 3d
       0.10297336 0.121726446 0.11035711 0.041723028
0000c0 5b 71 32 3d 9f ca b7 3d 8c 55 22 3d c3 0d 66 3d
       0.043565135 0.08974194 0.039632365 0.056165468
0000d0 15 6a 18 3c 19 49 d1 3c 29 c4 93 3d 3f 17 e3 bc
       0.009302636 0.025547551 0.07215149 -0.027721046
0000e0 ee f1 71 3d 16 ba 86 3c 16 ce 54 3b 72 b4 67 bd
       0.059068613 0.016446155 0.003247147 -0.05656857
0000f0 b2 c9 89 3d 48 c7 82 3d 45 3e 3e bc be 71 b3 3c
       0.067279235 0.06385666 -0.011611526 0.021904822
000100 77 ef 03 be 1f 2d e3 bc ed a8 82 bc 29 64 19 3d
       -0.12884317 -0.027731476 -0.01594969 0.037449036
000110 57 ed be 3c 15 27 83 3d 6e cc 3c bc 7f 3c b1 bc
       0.023306532 0.06403939 -0.011523349 -0.021635292
000120 01 2d 84 bd ec d5 9c bd 19 d9 01 bc 33 ea 61 bd
       -0.06453896 -0.0765799 -0.007925295 -0.05515499
000130 ce 55 80 3d d8 20 ad 3a d1 7b 62 3d 23 bc 1f 3c
       0.06266366 0.0013208641 0.05529386 0.009749445
000140 ca ba 1c 3e 74 4c 2e 3d 32 05 0e 3e 8a 51 cc 3d
       0.1530563 0.04255338 0.1386917 0.0997649
000150 06 c5 19 3d 45 af b8 3d 15 21 7f 3d 6b 74 7e 3d
       0.03754141 0.09017805 0.06228741 0.062122744
000160 84 d3 7b 3c 47 21 be 3d 77 c4 29 3e 33 e0 e3 3d
       0.0153702535 0.09283691 0.16578852 0.11126747
000170 b6 7c 34 bd 9e 06 41 bd 37 68 6d 3d f8 0e 3b 3d
       -0.044064246 -0.04712545 0.057960715 0.045668572
000180 1f 42 76 3d 95 9b d2 bc dd 2b 2d bc 79 ef 43 bd
       0.06012165 -0.025708953 -0.01056954 -0.0478358
000190 28 06 1f be bc 0e d0 bd 1c 66 d8 bd 03 53 ef bd
       -0.15529692 -0.1015906 -0.10566351 -0.11685755
0001a0 7f 7c 86 3d 4f 30 01 3b d7 11 d8 bc e1 1e 94 3c
       0.065667145 0.0019712632 -0.026375694 0.01808113
0001b0 b4 50 81 3d e6 dc 13 bd 1d ed 2f bc ed 12 a5 bc
       0.06314221 -0.036099337 -0.010737685 -0.020150626
0001c0 52 88 54 bd 16 40 30 3c cb 27 8b 3d a1 86 a3 3d
       -0.051887818 0.010757467 0.06794699 0.07984663
0001d0 d3 95 b3 3c 17 64 05 3e 8f ea 80 3b 83 15 ed 3d
       0.021922028 0.13026462 0.0039342116 0.11576369
0001e0 5e 83 71 3d 06 73 9a 3d bc 2c b6 3d 20 8c f9 3d
       0.058963172 0.0754147 0.08895251 0.1218493
0001f0 8f 22 d7 3d 30 cf 08 3e c2 a3 b2 3d 93 1d 10 3e
       0.105046384 0.13360286 0.087226406 0.14073782
000200 44 61 95 bc f8 a3 98 bd 6f ea 99 bd 62 5d 87 bd
       -0.018234856 -0.074531496 -0.07515418 -0.06609608
000210 6c 7b e7 ba d1 56 7c bd bd d9 ce 3a 11 57 c9 3c
       -0.0017660684 -0.061606232 0.0015781444 0.02457765
000220 5d 62 ca 3c ff 58 36 bd 02 fa f6 bc c8 d8 9f 3a
       0.024705106 -0.044518467 -0.03014851 0.0012195343
000230 0f 2a 62 3d be 43 81 3d 47 f4 99 3c f7 69 09 bd
       0.05521589 0.06311749 0.018793238 -0.03354832
000240 b2 11 c2 bd ce 3b fd bc ef 74 89 37 59 ac b6 bc
       -0.09476031 -0.030912306 1.6386124e-05 -0.022298979
000250 2e c4 41 bb fb 9f 0e bd 30 a9 ea 3b 68 cb 12 bc
       -0.0029566395 -0.034820538 0.007161282 -0.008959629
000260 47 f9 43 bc 7a a8 4c 3d 54 1e 35 3d 02 b7 e0 bc
       -0.011961288 0.04996536 0.044218376 -0.027431015
000270 0b 12 b1 bc 2f 28 4c bd 90 0a c6 bc 43 46 26 bd
       -0.021615049 -0.04984301 -0.024174958 -0.04059435
000280 73 f1 00 3e 76 27 23 3e 9e d0 2d 3e 9e bc 72 3d
       0.12592106 0.15933022 0.16974112 0.05926191
000290 7c 21 e3 3d 74 9b de 3c 3a 5c 70 bd 86 61 bd bd
       0.11090371 0.027173735 -0.058681704 -0.09247117
0002a0 67 03 d3 bd f9 8e 97 bd 03 25 4d bd 85 de 07 be
       -0.10303383 -0.07400317 -0.050084125 -0.13268478
0002b0 ed e5 33 bc 01 e3 03 bd 75 e8 76 bd 4b 3d ac bd
       -0.010980112 -0.03219891 -0.060280282 -0.08410128
0002c0 ea 0d 5b bd ec b0 98 bd 55 34 33 bd f2 bb 09 bd
       -0.053480066 -0.0745562 -0.04375108 -0.033626504
0002d0 a5 4f 0a be 57 45 c9 bd 80 e1 8f bd 11 b3 4a 3c
       -0.13506944 -0.09827679 -0.070254326 0.012371794
0002e0 e6 c5 2b 3d 40 39 0f 3c 51 17 a5 3d 08 45 1f 3a
       0.041936778 0.008741677 0.08061088 0.0006075655
0002f0 75 3b 14 3e ec 2c 81 3d 57 c4 81 3d 4d 9c 26 3d
       0.14475806 0.06307396 0.06336277 0.040676404
000300 c4 b6 d0 bd a7 6f 0b bd 2a 40 9a 3c 5d 32 3b bd
       -0.1019111 -0.034042027 0.018829424 -0.045702327
000310 1d e6 59 3d 60 d7 8c bd 33 f6 6e 3c 2b f0 40 3b
       0.05319797 -0.06877017 0.014585066 0.0029440026
000320 e0 e6 26 bd e1 ec dc bc 68 8c 7d 3c 94 86 fe 3c
       -0.040747523 -0.026968421 0.01547537 0.031070031
000330 33 87 fd bc b6 16 e2 3c a3 f1 93 bd ed 48 d0 3c
       -0.030948257 0.02759872 -0.07223823 0.025425399
000340 d1 dc d5 bd a0 b7 bb bd 12 f3 90 bd c9 82 ba bd
       -0.10442508 -0.09165883 -0.07077612 -0.091069765
000350 ba 73 0a bc ea 97 38 3d aa e1 97 3b 2e ab a3 3d
       -0.008450443 0.04506675 0.0046350555 0.07991634
000360 2f 05 8b 3d d8 c3 db 3d 89 7b a2 3d 27 b7 a0 3d
       0.06788098 0.107307136 0.07933719 0.078474335
000370 bf 0e d5 3c d9 a7 9f 3d 03 e8 0d bd 5f af 01 3d
       0.026008008 0.07795686 -0.03464509 0.031661388
000380 cf 20 40 3e 61 8e 72 3e a2 b2 4b 3e 0c 2b 02 3e
       0.18762515 0.23687126 0.19892362 0.12711734
000390 93 f9 4f 3e b0 ce 9b 3e b8 37 78 3e f9 f3 6a 3e
       0.20310049 0.30431128 0.24240005 0.2294463
0003a0 1d d0 5b 3e 8f 18 87 3e 93 4b 96 3e 89 8c 8c 3e
       0.21466108 0.26385924 0.29354534 0.2745097
0003b0 fe 72 64 3e 36 44 6a 3e d1 08 58 3e f1 9a a1 3e
       0.22309491 0.22877583 0.21097113 0.31563523
0003c0 ef 4d da bd 74 0d d5 bd a9 fe c4 3c c1 6b 8f 3c
       -0.10659396 -0.104029566 0.024047213 0.017507436
0003d0 bf 3f 35 bc f0 24 14 3d 9f 9f e0 3c 8a 26 c4 3c
       -0.011062562 0.03616804 0.027419863 0.023944158
0003e0 84 1d 31 3d 03 ed 32 3d 86 2e f9 3c 33 c3 c2 3d
       0.04324104 0.043683063 0.030417692 0.095098875
0003f0 ff 3c 41 3e bc b3 36 3e 20 91 59 3d 16 42 f2 3d
       0.18870924 0.17842 0.053116918 0.11829011

network_body.processors.0.conv_layers.2.bias f4 [32]
000000 2b b5 4b bc 88 9b a5 3c 18 58 3d bc fd 27 8e 3d
       -0.0124333305 0.020215765 -0.011556648 0.06941221
000010 ce c3 3f bd 4b c9 f4 3b b3 23 4a bc 92 3f 9e bd
       -0.046817593 0.007470285 -0.012337613 -0.07726969
000020 e8 70 13 bd 37 9e 0a be 95 16 1a 3d c4 74 e7 3d
       -0.035996348 -0.13536917 0.037619192 0.11301568
000030 df fe 3c 3d a1 8e e8 bd fe 10 f1 3d b9 69 09 3d
       0.0461415 -0.11355329 0.11770819 0.03354809
000040 62 ab c2 3d ae 3c 22 3e 8c a2 4b 3d e2 aa 67 3d
       0.09505345 0.1584346 0.049715564 0.05655945
000050 fc e1 43 3d ae 77 b3 3d b8 82 05 3e 02 8a 27 3d
       0.047822937 0.087630615 0.13038146 0.0409031
000060 ba de 5d 3d bf 58 4f bd b9 f7 31 3e 55 5e 76 bd
       0.054167487 -0.050621744 0.17379655 -0.060148556
000070 6d 90 d9 3d f9 a5 4b 3d 4d 31 be bd 64 8c 09 bd
       0.1062325 0.04971883 -0.09286747 -0.033581153

network_body.processors.0.dense.0.weight f4 [30, 512]
000000 b3 c6 a5 bd 77 9d b6 bc 7c fe ff bd a4 e0 9b 3d
       -0.080945395 -0.022291882 -0.12499711 0.07611206
000010 4f 6d 7d 3e 7a 6d 44 3d cd 7e d4 3d b8 81 8c bd
       0.24748729 0.047955967 0.10375748 -0.068606794
000020 4d ab 04 3c e3 38 d3 3c 5d 84 89 bd c8 d7 9a 3d
       0.008097482 0.025783962 -0.067146994 0.07560688
000030 ce 9d 03 3e 47 83 d2 bc fd f6 67 bd e9 8b 84 bc
       0.12853166 -0.025697364 -0.05663203 -0.016179996
000040 d9 ac 16 be cf 13 b9 bd a5 23 72 bd 82 73 c7 3c
       -0.14714374 -0.09036981 -0.059116025 0.02434707
000050 0b a6 9d bd 32 2e 5c bd c2 15 f9 bc 7f 07 26 be
       -0.07697686 -0.053754993 -0.030405883 -0.16213797
000060 c5 91 16 3d 53 3b 52 bc 1e 09 e7 3d 2a b6 6a 3d
       0.03676011 -0.012831527 0.11281036 0.05730263
000070 3b 32 82 bd a0 d9 f6 3c fb ff 2d bd 4c fb 09 bd
       -0.06357237 0.030133069 -0.04248045 -0.03368692
000080 41 82 2f be 9b c3 3f 3b aa b9 a9 bc 99 97 71 bd
       -0.17139532 0.0029260877 -0.020718414 -0.058982465
000090 cb 50 91 3d 9e 30 90 3d f4 a3 0c bd 0b 8f f7 bd
       0.07095488 0.07040523 -0.034336045 -0.1208783
0000a0 c8 39 9a 3d a4 95 94 bd ee 04 c2 bd 7f a1 83 3d
       0.07530552 -0.07255104 -0.094735965 0.06427287
0000b0 96 10 34 bb cb a3 7c 3c 58 57 0a bd 78 95 c8 bd
       -0.0027475706 0.015419911 -0.033774704 -0.09794134
0000c0 08 04 66 3d 97 73 0c be 67 9e ec bd 6e f1 9d 3b
       0.05615619 -0.13715969 -0.1155365 0.0048200404
0000d0 62 c3 ba 3d 30 8c 22 3e 7e b3 b1 bc f0 bc 2b 3d
       0.091192976 0.1587379 -0.021692034 0.04192823
0000e0 13 3e c7 3e 47 37 7c 3e b5 e9 87 3d 46 3b 7c bd
       0.38914546 0.24630462 0.06636373 -0.061579965
0000f0 32 9c a4 3d e0 f9 1d bd 88 5a f9 bd 55 c6 fd bd
       0.080376044 -0.038568377 -0.121754706 -0.123913445
000100 2f fa e9 3c 9f 4f 5d bd 37 87 b5 bd 7a ca 91 be
       0.02856168 -0.05403101 -0.08863681 -0.2847479
000110 d6 fb 77 bd 03 8f f0 3c 15 82 7e bd f7 f1 ba bd
       -0.060542904 0.029365068 -0.062135775 -0.091281824
000120 19 68 47 be 55 83 b8 bd bf 2c 90 bd 67 38 9b bd
       -0.19473304 -0.090094246 -0.07039785 -0.07579117
000130 2e d0 10 3d 71 b5 c6 bd 1c 8b a0 3c 2a 57 09 bd
       0.035354786 -0.09702576 0.019597583 -0.03353039
000140 d0 48 d6 bd 9e a8 8c bd 9d 9d 34 be 4b c8 30 be
       -0.10463107 -0.06868099 -0.1763825 -0.17263906
000150 53 e2 00 3d 63 2f 26 3e 3e 7e 44 bd 0d 97 10 bd
       0.03146584 0.16229014 -0.047971956 -0.035300303
000160 39 24 3d 3e 3f 2b 4a 3e b8 bd 64 3c dd 7e c5 3d
       0.18470849 0.1974306 0.013961248 0.09643338
000170 f1 ef 9d 3d 4e 23 14 3d 63 b0 cf 3a d0 2b d1 bd
       0.07711781 0.03616648 0.0015845414 -0.10213435
000180 7b 18 f3 bd 57 8b 06 be b0 b2 0a bd ee 6d 9a be
       -0.11869904 -0.13139091 -0.033861816 -0.30161995
000190 fd 22 d8 3d 96 a1 72 bd 1d a4 1e bc 41 5f ba bd
       0.105535485 -0.05923613 -0.009682682 -0.091001995
0001a0 71 9a 62 3d 55 6e 45 3b 4c ca 3c bd 91 84 12 be
       0.055323068 0.0030125577 -0.046091363 -0.14308383
0001b0 fe 85 98 bc ff b3 69 bc 58 b6 57 be ee f7 b7 bd
       -0.01861858 -0.014264106 -0.21065652 -0.08982836
0001c0 07 1d 5b bc 12 5b 12 bd 8a a8 47 bd ce 3d 02 be
       -0.01337362 -0.035731383 -0.048744716 -0.12718889
0001d0 2b cc 78 bb 1d 3e 0d be cb 84 05 be ad 6a db bc
       -0.003796349 -0.13793226 -0.13038938 -0.026784265
0001e0 7c 63 27 3e b9 6e e4 3d 07 7f e5 3d 83 93 91 bb
       0.16346544 0.11153931 0.11205869 -0.0044426336
0001f0 14 fe e0 3d b0 82 c6 bd 4c 64 5e be 96 43 ee bc
       0.109859616 -0.096928954 -0.21717948 -0.029084962
000200 f1 05 a5 3d 8e ce ac 3d 4e 71 9a 3c bc f3 e4 3c
       0.08057774 0.08437835 0.018852856 0.027948253
000210 e8 c1 ed bd c2 7b 81 bd 37 ac 8a 3c 7a 20 31 3d
       -0.1160925 -0.06322433 0.016927822 0.043243863
000220 23 d9 b3 3c c1 e2 f2 3d c3 ec eb bd 50 81 2e be
       0.021954125 0.11859656 -0.11519768 -0.17041516
000230 cd 9c b2 3d c7 cf 01 3d ff 6a b9 bd 10 a0 45 be
       0.087213136 0.031692293 -0.09053611 -0.1929934
000240 43 13 f6 bc 9f e0 64 bd 93 0f 83 be 0e ef a1 bd
       -0.030038482 -0.055878278 -0.2559782 -0.07906924
000250 c1 38 9a 3b fb c5 89 bd 98 c3 68 bd 3f d0 56 bd
       0.0047064726 -0.06727215 -0.056827158 -0.052444693
000260 50 20 fd 3d 73 82 9b bb 53 e7 96 bd f0 9f ae bb
       0.12359679 -0.0047457754 -0.0736834 -0.0053291246
000270 ce 9e 47 3e 1c 95 ad 3d de b7 f3 3c 55 3d 43 bd
       0.19494173 0.08475706 0.02975076 -0.047665913
000280 73 3a 15 bc 3a c9 44 bd 5a 41 8d bd fd a5 be 3d
       -0.009108174 -0.048043467 -0.068972304 0.093090035
000290 e5 bf 19 3d 26 b5 6f 3d bb ad 73 3d 7b 44 6c bc
       0.03753652 0.058522366 0.059491854 -0.014420624
0002a0 eb a7 58 3e 90 35 2e 3d 1d 36 02 3d e2 a8 35 bd
       0.21157806 0.04253155 0.031789888 -0.044350512
0002b0 32 9f c0 3c 87 72 bb 3d 47 3f 20 bd 0e f2 8e bd
       0.02351341 0.09152704 -0.039122846 -0.06979762
0002c0 39 23 51 be 04 3c 10 3c 42 fc cc bd c6 55 8c bd
       -0.20423593 0.008803371 -0.10009052 -0.068522975
0002d0 bc 2f 16 be a2 c3 d4 3c 18 1f 56 bd 7c 51 7c be
       -0.14666647 0.025972191 -0.052275747 -0.24640459
0002e0 64 54 1e bd 4d 5a 50 3c 10 c0 da bd 26 0e e7 bd
       -0.0386547 0.012716842 -0.10681164 -0.112819955
0002f0 39 47 be 3d ea c7 94 bd b9 3f f1 bc 61 03 1d be
       0.092909284 -0.07264693 -0.02944933 -0.1533332
000300 28 79 71 bd 3f 25 8f bd bf f0 8b bd d1 f8 81 bd
       -0.058953434 -0.06989526 -0.06833028 -0.06346286
000310 ea 32 9c bd 6c 2c 93 3d 50 53 2c be 0e da 00 3b
       -0.076268986 0.07186207 -0.16828656 0.001966122
000320 15 2b 59 3d 82 57 55 3d b6 f5 3b be 8d 5a 59 bd
       0.0530196 0.052085407 -0.1835545 -0.05306487
000330 4e e7 34 3e 83 23 5d 3d ae fa 45 bd 51 3d a3 3d
       0.1766636 0.053988945 -0.04833477 0.079706796
000340 7f a3 ad 3d 1b d4 16 bb 7e 02 66 bd 5c 5f e8 3d
       0.0847845 -0.0023014608 -0.05615472 0.11346313
000350 3e 97 97 3d 42 45 07 3c 75 c4 6b 3c 30 05 6c 3c
       0.07401894 0.008256258 0.014390101 0.014405534
000360 80 09 b6 bc 2f 4a f6 3d 28 1e 71 bc 34 40 92 bd
       -0.022221327 0.12025868 -0.0147166625 -0.07141152
000370 f8 86 43 bd f6 8b eb bc 25 a8 1d be 2e f3 9c bd
       -0.047736138 -0.028753262 -0.15396173 -0.0766357
000380 da 02 95 3d 2d 3d e9 3c a6 b8 f7 bb 59 8b d1 3c
       0.072759345 0.028471554 -0.0075598536 0.025579141
000390 44 cd 39 3e a0 ed a8 3d 9b a5 f8 3d a7 39 8f bd
       0.18144709 0.08248448 0.12140962 -0.06993418
0003a0 31 fa aa 3d 21 6f df 3d 46 3e 43 3b 21 24 e8 3d
       0.083485015 0.10909868 0.0029791757 0.11335016
0003b0 03 06 90 3e e5 09 fd 3d 6c e5 46 3d 98 65 fa bd
       0.28129587 0.12355403 0.048558637 -0.12226409
0003c0 cf 43 1c 3e 01 70 aa 3d 46 fb 8f bc cc 4d 81 bd
       0.15260242 0.08322144 -0.017575871 -0.06313667
0003d0 78 ae ae 3d 56 66 ff 3c 71 d9 a6 3c 4d b6 4d 3d
       0.08529371 0.031176727 0.020367356 0.050222684
0003e0 70 1a 1c 3e ab a0 0b 3d a0 07 af bd ad b6 9c bd
       0.1524446 0.03408877 -0.08546376 -0.0765203
0003f0 1c 23 a1 3d 35 88 7c 3d 58 ae 66 bb 35 a7 ac bd
       0.07868025 0.061653335 -0.0035199132 -0.0843033

network_body.processors.0.dense.0.bias f4 [30]
000000 25 e5 0b 3c 57 a8 74 bd f3 34 6e 3c 1a b9 da bd
       0.008538519 -0.059730854 0.014538991 -0.106798366
000010 f0 e4 da bd 1f e3 d1 bd 25 66 00 be 93 a1 12 3d
       -0.106881976 -0.10248398 -0.12538965 0.03579862
000020 37 75 38 3d 19 d8 a2 bd a8 df 25 be 18 b9 a3 be
       0.04503366 -0.079513736 -0.161986 -0.31977153
000030 82 4d b9 bd 02 f0 46 be 6c 74 17 bd 96 02 0c be
       -0.090479866 -0.19427493 -0.036976263 -0.13672861
000040 f1 05 16 bd 8c ae 8d 3d ed 53 19 be 62 90 06 be
       -0.03662676 0.06918058 -0.14973421 -0.13141015
000050 a8 84 34 3d 31 ea 4e bd d7 ee 44 be 08 ed 27 bd
       0.044071823 -0.05051631 -0.19231735 -0.040997535
000060 7c 8d de bd bf 4b 02 be 1d 44 ec bc e5 5e ef bd
       -0.1086683 -0.12724207 -0.028841073 -0.116880216
000070 bf 8f 4d be b1 6a 33 be
       -0.20074366 -0.17521168
