Assets/ML-Agents/Training Files/results/9roads_imitation__monzaDemo_allRwds_moreSteps/VehicleAgent/VehicleAgent-1499888.onnx (onnx, 156328 bytes, 9 tensors)

network_body._body_endoder.seq_layers.0.weight f4 [128, 38]
000000 10 d1 b2 bd f1 80 28 3e 57 85 8a 3d 00 90 47 3e
       -0.08731282 0.16455437 0.06763714 0.19488525
000010 b1 06 80 3c 99 4d 99 3e 16 28 3e 3e f5 71 49 3e
       0.01562819 0.29942015 0.18569979 0.19672377
000020 38 bc 15 3d 72 1d 3c 3e 40 a3 a1 3d 5e 05 52 bd
       0.036556453 0.18370607 0.078924656 -0.05127465
000030 0e 64 3e bd 05 a8 00 be c7 97 40 be 38 1e 67 bd
       -0.04648214 -0.12564094 -0.18807898 -0.056425303
000040 ba e8 c8 be 5a 38 8f 3d 18 f2 30 be 8d 20 9c bc
       -0.39240056 0.0699317 -0.17279851 -0.01905849
000050 21 76 5e bd 28 00 9c 3e e5 df 3f be 8c c0 8f 3d
       -0.054311875 0.3046887 -0.18737753 0.07019147
000060 c7 79 98 3d 1f 9b 50 3e 56 56 95 bd 8f 51 13 3d
       0.07445102 0.20371674 -0.07291858 0.035966452
000070 3c 33 cb bc 60 00 19 ba 98 51 8c 3d 8b 88 04 be
       -0.024804704 -0.00058365427 0.068515 -0.12942712
000080 41 b6 91 bc 17 f9 a0 3e f4 c8 d4 3d 46 d7 1c bd
       -0.0177871 0.3144004 0.10389891 -0.03829124
000090 32 83 ce be 3c b4 1f bf d6 d5 d7 bd d8 07 b9 be
       -0.4033447 -0.6238439 -0.10538833 -0.36138797
0000a0 eb 97 62 3e d6 f2 1d be 9c b1 06 be e6 6c 10 be
       0.22128265 -0.15424666 -0.1315369 -0.14104041
0000b0 b8 80 da 3c 2d c0 34 3e 9b 3e c5 bd 32 77 f9 3b
       0.026672706 0.17651434 -0.09631082 0.007613086
0000c0 b9 ce 15 3e 47 59 87 be 9f 9e 35 3d 24 d0 c3 3c
       0.1462964 -0.264353 0.044340726 0.02390296
0000d0 14 82 be 3d b1 62 52 be 24 25 d2 3d 64 c7 13 3e
       0.09302154 -0.2054546 0.1026099 0.1443153
0000e0 a2 56 1c 3e 5e 4a a3 be 22 c3 3d 3e 82 50 fa bd
       0.15267423 -0.31892675 0.18531469 -0.12222387
0000f0 53 63 aa 3d 9f 9a 72 bd 39 f8 71 be 98 d2 92 bc
       0.08319726 -0.05922949 -0.23629846 -0.017922685
000100 e7 aa c6 3c dd 8a 26 be 44 70 fa 3c 09 f4 4e 3e
       0.024251414 -0.1626391 0.03057111 0.2021028
000110 66 5d 62 bd 22 ac e6 3b ef 9e 07 bf 71 c8 ab 3e
       -0.055264853 0.007039563 -0.5297689 0.33551362
000120 d2 7f 30 3e 79 29 80 be e7 94 b9 3d 2d f7 39 bd
       0.1723626 -0.2503164 0.09061604 -0.04540174
000130 69 de fe bc 42 29 16 3e 80 b8 d6 3d cc 6a aa be
       -0.031111913 0.14664176 0.10484409 -0.33284605
000140 5d 7c 9f 3d e0 37 88 be 39 f8 12 3e cb 4e f8 bc
       0.07787392 -0.2660513 0.14352502 -0.030311009
000150 87 de 40 3d 62 07 c2 3e dc 1b cb bd 82 f3 b4 bd
       0.04708722 0.37896258 -0.09917423 -0.08835508
000160 44 bc 1e 3e 5c 25 5f 3e 4c 5a af 3c 2a 96 03 3d
       0.15501505 0.21791595 0.021405362 0.03212563
000170 5f 92 36 3e bb b8 53 be 5c 98 e5 bd 8d ef 6e be
       0.17829274 -0.20675938 -0.11210701 -0.23333569
000180 f4 14 0d 3e bd c4 0e be 63 65 7d be 54 13 16 bd
       0.13777524 -0.13942237 -0.24745707 -0.036639526
000190 8a 86 8e bd 25 c9 ca 3d fe c7 ff bd 92 7e 83 bd
       -0.06959255 0.099016465 -0.12489317 -0.06420626
0001a0 8e 7a 0c 3e a2 ed 44 bd 1a 8a fc 3d 3f a0 7f 3e
       0.13718626 -0.048078187 0.12331028 0.24963473
0001b0 98 b7 e5 3c ae 33 eb bd d2 db 35 3d ea b2 ba bb
       0.028041646 -0.114844665 0.04439909 -0.0056975977
0001c0 e5 6b 39 bd b9 28 89 3d c3 bf 90 3d 21 4f 80 3e
       -0.045268912 0.0669722 0.07067826 0.2506037
0001d0 b9 cb fc bd 55 f8 3d be d1 68 43 3d db 08 bc 3d
       -0.123435445 -0.18551762 0.047707383 0.091813765
0001e0 74 28 68 3d 46 dd 03 bc bc e7 78 bd 4b 0f 29 be
       0.056679204 -0.008048361 -0.060767874 -0.1650974
0001f0 ac 0c c5 3d 5e ab 9a 3e de 1e f9 bd b1 21 a8 3d
       0.096215576 0.30208868 -0.121640906 0.08209551
000200 10 2d 74 bc 93 70 12 be df fe 83 be 3c 1c 8a 3e
       -0.014903322 -0.14300756 -0.2578039 0.26974666
000210 bf 9e a0 bd 60 cf 87 bd c2 ca 5b 3d ca ca c4 bd
       -0.078427784 -0.066313505 0.05366016 -0.096089914
000220 f9 ea a0 be 17 46 52 3d fd a0 80 bc 6d b2 bc bd
       -0.3142927 0.051336374 -0.015701765 -0.092137195
000230 c1 5d 88 bc 01 23 22 3e f8 21 88 3e 46 72 20 3d
       -0.016646268 0.15833665 0.26588416 0.03917148
000240 c5 0e e7 3d 14 56 a9 3d 9a b4 5e bd 3f 48 35 be
       0.11282114 0.08268371 -0.054371454 -0.17703341
000250 76 1a a4 3e 6f 62 3e bd 67 46 b2 3b 0b 3a f0 bb
       0.32051438 -0.046480592 0.0054405215 -0.007331138
000260 7e f1 3a be 3c a6 01 bd 6b 6c 13 be c3 17 cd 3d
       -0.18256184 -0.031652674 -0.14396827 0.10014298
000270 3b ed 7c bc 97 d2 29 3e 77 e0 07 be 72 4c 02 be
       -0.0154374195 0.1658424 -0.1326922 -0.12724474
000280 3a d2 79 3e 15 d0 92 bd 52 0e 27 3e ee 62 42 be
       0.24396601 -0.07168595 0.16314057 -0.18983051
000290 26 e5 a2 3d ec 4e d7 bc 04 4e 85 3e 81 d1 59 bc
       0.07953863 -0.02628275 0.26036084 -0.0132945785
0002a0 8a 9b 83 3d c8 b8 04 be 21 78 eb 3d ec cf fb bc
       0.06426151 -0.12961113 0.11497522 -0.030738793
0002b0 52 60 79 bc 0c 1e a7 3e 6d 52 96 bc c5 40 10 3e
       -0.015220718 0.3264011 -0.01834985 0.14087208
0002c0 7e 82 42 bd a9 b0 04 be 44 00 17 3e 8b a1 6d 3e
       -0.04748773 -0.12958016 0.14746195 0.23206155
0002d0 83 f6 ab 3b ad 31 20 bd 60 1d a8 3e d1 21 a3 be
       0.0052478923 -0.039109875 0.3283491 -0.31861737
0002e0 c0 1d eb 3e 3a b3 70 3d 3b d2 b6 3d 9c bc 70 be
       0.45921135 0.058764674 0.08926817 -0.23509449
0002f0 02 bf 9c be b5 00 4e 3e 7c d6 3f 3c e0 4b 77 3d
       -0.30614477 0.20117457 0.011708852 0.060375094
000300 0b d5 87 bc 6b 84 6b 3d d8 f6 9b bd 72 dd dd 3e
       -0.016581079 0.05749933 -0.07615441 0.43333012
000310 fb fb f1 bd d8 d1 21 3b c7 2f db bd 50 b4 82 3e
       -0.118156396 0.0024691727 -0.10702472 0.25528193
000320 74 83 da bd fc 04 ab 3d 7f 44 36 3e f8 ce 0c bd
       -0.10669604 0.0835056 0.17799567 -0.03437707
000330 ce 29 3e 3e 49 17 a6 3e a8 5b 0c 3e c8 a4 4e 3d
       0.18570635 0.3243964 0.13706839 0.050450116
000340 c4 80 e9 3d 43 c5 72 3b 44 d9 43 be d2 0a 0c 3d
       0.11401513 0.0037043847 -0.19125849 0.034190007
000350 59 78 8b 3e cf 08 60 3e 8d 80 5c be bb 6c de be
       0.27240255 0.2187836 -0.21533413 -0.4344233
000360 b9 59 ac bd 88 20 07 3e 7a fb 78 ba 19 27 51 3e
       -0.08415551 0.13196003 -0.0009497922 0.20425071
000370 61 59 f4 3d 9e 2d 88 bd 29 63 19 bd e1 1a b1 bd
       0.1193111 -0.06649326 -0.037448082 -0.08647705
000380 09 a3 31 be c8 e4 88 be de 03 10 3d 07 2f 5e 3d
       -0.17347349 -0.26737046 0.035159938 0.054244068
000390 99 ae 8c 3e a1 73 81 bd 0d d3 8a be 31 06 9d 3d
       0.27476957 -0.063208826 -0.27114144 0.076671965
0003a0 7d d0 9c bd 22 e9 89 bd 88 36 92 bd 33 f7 1d 3e
       -0.076569535 -0.0673392 -0.07139307 0.1542633
0003b0 fe 6e e3 bd ab 0d 3d be c3 8e 8a 3e 53 cb af 3d
       -0.111051545 -0.18462245 0.27062044 0.08583703
0003c0 33 af ca 3d d0 10 77 3e 0c 6a 2b 3d 97 7c 0c bd
       0.09896698 0.24127507 0.04184918 -0.034298506
0003d0 1d 47 e9 bd cd fb 64 3e 40 d8 80 be 15 2b f3 be
       -0.11390517 0.2236168 -0.25164986 -0.47493806
0003e0 af f9 94 bd 8a fc ed bd dc 6a 73 3e 04 ed 66 be
       -0.07274186 -0.11620434 0.23771232 -0.22551352
0003f0 8a b6 f9 3d 52 ed 4a bd 38 ef 99 3d 53 8a 0e be
       0.1219302 -0.049542733 0.075163305 -0.13919954

network_body._body_endoder.seq_layers.0.bias f4 [128]
000000 33 d1 40 bc b3 54 4d 3c 41 00 d7 bb 89 ae 6e bd
       -0.011768627 0.012532401 -0.0065613096 -0.05827192
000010 4e 8f 90 3b ff 3f cb bc 65 90 de 3c e3 ef 5f 3d
       0.0044116145 -0.02481079 0.027168462 0.054672133
000020 d3 2f 5e bc 95 56 bf bc bc 64 5c bd aa 6e 28 bd
       -0.013561207 -0.023356715 -0.053807005 -0.041121162
000030 aa 95 33 bc e5 c4 21 3a 2f 93 95 3c 86 93 bb 3b
       -0.010960976 0.0006171002 0.01825866 0.0057243733
000040 3e 54 d5 bb 43 54 14 bb 03 90 71 ba 3d 24 91 3a
       -0.0065102866 -0.0022633232 -0.000921488 0.0011073422
000050 2f cc 13 bd e7 c7 e5 3c 98 e0 fe b6 98 b9 ec 3b
       -0.036083397 0.028049422 -7.595936e-06 0.007224273
000060 21 e2 03 bd 7d a0 a2 3c 08 77 7f 3d bf bb 8b 3c
       -0.032198075 0.019851917 0.062369376 0.017057298
000070 2b 9d 74 3c 72 9a 83 3c 21 8d 40 bc f4 e1 8c 3c
       0.01493005 0.016064856 -0.011752398 0.017197587
000080 c0 8a c2 3c 4d 1e 0f bd d6 c6 a0 3d 15 56 14 3d
       0.023747802 -0.034941006 0.07850425 0.036214907
000090 37 6e 32 bb 2c dc 52 bc 67 83 14 bd 08 9e d5 bc
       -0.0027226338 -0.012869876 -0.036258128 -0.026076332
0000a0 84 8f 85 bc 4a ec 1f bc 06 e8 18 3d 1a b8 e3 bb
       -0.016303785 -0.009760926 0.03733065 -0.006949437
0000b0 43 de 81 3a 0b a5 2e 3d 62 7e 51 bd 19 b7 36 3b
       0.0009908158 0.042637866 -0.05114592 0.002788013
0000c0 f1 02 43 3d 58 bc 17 bd a8 ff b4 bb 8f 0a 91 bb
       0.047610227 -0.037044853 -0.0055236407 -0.0044263075
0000d0 7b a5 5a 3c 82 33 64 bb 2d ac c6 bc 5b c3 e4 bc
       0.013345118 -0.003482074 -0.024252022 -0.027925184
0000e0 40 34 20 bd 17 02 b8 bc 98 eb fa 3c 5f d4 b7 bc
       -0.03911233 -0.022461934 0.030629918 -0.022440134
0000f0 ee 18 c3 3c 29 84 25 bb 98 20 1b bb 86 27 9f bc
       0.023815598 -0.0025255776 -0.002367055 -0.019428026
000100 92 20 e7 3c 27 c9 d3 bc 5a 38 99 3c c3 32 03 bd
       0.028213773 -0.025852753 0.018703628 -0.032030832
000110 d8 f7 18 3d ee bd 6a 3c ee c0 cd ba 7f 6e 24 bd
       0.037345737 0.014327509 -0.0015697756 -0.04014444
000120 37 91 7c bc 30 d7 c2 bc a7 cb 31 bd 7f 31 35 bd
       -0.015415481 -0.02378425 -0.04340711 -0.044236656
000130 63 27 fa bc c7 da 98 3b c4 b7 ae bc ab a5 e3 3b
       -0.03053636 0.004664752 -0.02132786 0.0069472394
000140 2e 51 b1 3c 3c d8 57 bd 12 09 06 3d 64 86 92 38
       0.021645155 -0.05269645 0.032723494 6.986855e-05
000150 c8 fb 95 bc 8d 9d f7 bc 62 2f b9 bc 59 2f 90 bc
       -0.018308535 -0.030226493 -0.022605602 -0.017600702
000160 28 b3 71 3c 92 72 93 3b 49 72 2f 3c 78 b0 3e bd
       0.014752187 0.004499742 0.0107084 -0.046555012
000170 a4 68 d5 bb 33 22 9f bc 26 3a b4 bc 6a f3 05 3d
       -0.0065127183 -0.019425487 -0.022000384 0.03270284
000180 e7 b3 1d 3d cb a8 4c 3d c7 36 f6 3b 1b b6 83 bb
       0.038501646 0.04996566 0.007513854 -0.0040195114
000190 c5 7f 99 3c a3 28 26 3b f2 c7 9d bc e5 d5 81 bd
       0.018737683 0.0025353811 -0.01926038 -0.06339625
0001a0 6f c0 00 3c 60 4b 2b 39 6d f2 c4 3a 61 a3 1c 3c
       0.00785838 0.0001633591 0.0015025862 0.009560437
0001b0 d3 95 c6 3c 7b 8a 88 3b d7 a6 02 3d d3 aa 71 3b
       0.024241364 0.004166899 0.031897392 0.00368755
0001c0 e6 99 31 3d 43 fd 6b 3c 96 b0 90 bd a2 95 85 3c
       0.04335966 0.014403644 -0.07064931 0.016306702
0001d0 7f c7 07 3d 8a af 66 bb 7b b4 3f 3c c8 89 2e bc
       0.03314924 -0.0035199844 0.011700745 -0.010652967
0001e0 05 93 1c bc 05 61 46 3c ca df a7 bc cb 4a 5a bd
       -0.009556537 0.012108092 -0.020492453 -0.053293984
0001f0 dd 94 8c 3b 25 37 23 bd 60 24 1d bc 39 4f 52 bc
       0.004290207 -0.03984751 -0.009591192 -0.012836271

network_body._body_endoder.seq_layers.2.weight f4 [128, 128]
000000 80 23 3a 3e c1 95 0a 3e 30 19 5c bd 4a 10 b2 3d
       0.18177605 0.13533689 -0.05373496 0.08694513
000010 3b 59 06 be cf 5c 99 bd 46 68 a0 3d 02 15 02 be
       -0.13119976 -0.07488405 0.078323886 -0.12703326
000020 84 6e 11 3d a2 42 e9 3c 54 89 07 bc 1f 77 cc bd
       0.035505787 0.028474156 -0.008272488 -0.09983658
000030 35 cf 3a 3d 15 2d 9a bd b2 d1 23 bb f4 22 5d be
       0.045607764 -0.0752813 -0.0024996814 -0.21595365
000040 82 cc e5 3d d7 1b b5 3c 53 f8 8b 3c 97 a1 cd 3c
       0.112206474 0.022108002 0.017086184 0.025101466
000050 d5 cd 22 3d 8f 5c fb 3d 81 78 7d 3d a7 ca 83 3d
       0.039747078 0.122735135 0.0618825 0.06435137
000060 d6 61 89 bd 5d 9a 93 bd d7 69 5d 3d 5f ec b9 bd
       -0.06708114 -0.07207177 0.054056015 -0.09078287
000070 3e fc 52 3d d9 20 c6 39 ec 2e a7 3d 92 f2 45 3d
       0.05151009 0.00037789976 0.081632465 0.048327036
000080 27 c0 b2 bc ed 2a 27 3c d2 ea 04 3d 7d 2e e9 3d
       -0.021820141 0.010203105 0.032450505 0.1138582
000090 93 f9 56 be b6 d0 be 3a 17 8e a8 bc 0e a8 fb 3d
       -0.20993643 0.001455805 -0.020575566 0.12287913
0000a0 8c 2a 50 3e 4b 9c ed 3d 83 7a b5 bd 0f 28 94 3d
       0.2032873 0.11602076 -0.08861258 0.07234203
0000b0 1f 1c a0 3d 2c a0 b0 3c 48 90 08 3e 54 c8 fc bc
       0.07817864 0.02156075 0.13336289 -0.030857243
0000c0 3d a6 67 bb 03 34 6e bd 07 ca 3e 3d 4f a8 ae 3c
       -0.0035346888 -0.05815507 0.046579387 0.02132049
0000d0 3b 9b ba 3d d4 ec cb 3d 0f 73 f9 bd b4 6c 4d 3d
       0.09111639 0.09957281 -0.12180149 0.050152496
0000e0 8e 32 92 3d b9 b5 28 bd a8 3d 1d bc a2 62 84 be
       0.07138549 -0.04118893 -0.0095972195 -0.258565
0000f0 01 f8 85 3c 6a a3 85 3e 2c d4 ac bd ea 6a 31 3e
       0.016353609 0.26101238 -0.08438906 0.1732594
000100 95 b9 af be 08 ea 6b ba 83 6f 48 3e a8 de 1f 3d
       -0.34321275 -0.0008999412 0.19573788 0.0390307
000110 26 a2 20 3d bd 2e c3 bd f8 66 73 bd f2 d0 11 be
       0.039217137 -0.09530399 -0.05942437 -0.14239863
000120 2e 62 ae 3d 96 c2 ac 3d 04 30 91 3d 8f bf c6 bc
       0.0851482 0.08435552 0.070892364 -0.024261264
000130 b4 68 d4 3c ec 3c b3 3d 55 de 21 bd b0 5b ef 3d
       0.025928833 0.08751854 -0.039518673 0.1168741
000140 e1 a9 c2 bd 80 be db bd c0 0d 5d 3d fc 11 8c bd
       -0.09505058 -0.10729694 0.05396819 -0.06839368
000150 6e fa 23 bd 09 5d 71 bb 08 de 91 3d 39 94 49 3e
       -0.04003375 -0.0036829135 0.07122427 0.19685449
000160 56 03 f9 3d 08 7e b6 3c de a2 0c be db 01 a7 bd
       0.121588394 0.022276893 -0.13734004 -0.08154651
000170 46 dd 3e bd 36 ff c1 bd ad 93 e2 bd dd d8 23 3b
       -0.04659774 -0.09472506 -0.11063323 0.0025001087
000180 f0 16 4c bc 24 16 96 bd ee b9 8d bd e6 ea 34 bd
       -0.012456641 -0.07328442 -0.06920229 -0.04416933
000190 28 1d 87 bd 58 98 8f 3d 3f 4f 3e 3e 98 c4 e8 3d
       -0.06597358 0.07011479 0.18584917 0.11365622
0001a0 60 fc 17 3e 58 3b 51 3e 93 0e 88 3b 2f 73 12 bd
       0.14842367 0.20432794 0.004152128 -0.03575438
0001b0 9d 73 b3 3d 22 b9 49 bd d4 88 55 3d a5 7d a6 bd
       0.08762286 -0.049248822 0.052132443 -0.081294335
0001c0 2f 1d e5 3d 00 52 63 bd 98 a1 a0 bd e6 a0 ca bd
       0.11187207 -0.055498123 -0.078433216 -0.0989397
0001d0 10 d2 2d bd 21 ca a2 3b 8b 60 8b bd 7e b2 83 3c
       -0.04243666 0.0049679433 -0.068055235 0.016076323
0001e0 db 4b 84 3d e6 3d 25 be 79 16 d6 3c 45 72 71 3d
       0.06459781 -0.16136894 0.026133763 0.058946867
0001f0 bf a8 6a bd f7 10 8a bb 87 a3 b3 3d d0 93 0e bd
       -0.057289835 -0.004213448 0.08771425 -0.034808934
000200 e4 68 cc 3c 4c 58 5c bd 76 e2 02 bc 05 b6 f1 bc
       0.02495236 -0.053795144 -0.007988563 -0.029505739
000210 8f 47 07 3e e6 f4 11 be 1f 21 2f 3e b4 4b 52 3d
       0.13210891 -0.14253578 0.17102478 0.051341727
000220 95 63 9c bb 2e 36 bb 3d 54 10 8a 3c 16 e6 08 3d
       -0.0047726133 0.09141193 0.016853489 0.033422552
000230 8d db dd bd 02 da 77 bd 1a 00 9d 3c 65 a6 34 bd
       -0.108328916 -0.060510643 0.019165087 -0.044104
000240 1a be cc 3d f8 17 8d 3d d0 3c f3 3c 64 38 7b 3e
       0.099971965 0.06889337 0.029692084 0.2453323
000250 e4 be 87 bd b7 e7 e4 bd 33 62 b7 3d f9 2f 1f be
       -0.06628206 -0.111770086 0.08954277 -0.15545644
000260 de be 58 3d 74 49 b8 bd e2 d9 30 bc 3f 2c 06 be
       0.0529164 -0.08998385 -0.010794135 -0.13102816
000270 d9 57 51 be 02 3d a8 3d da bb ee 3b cf af 88 bd
       -0.20443667 0.08214761 0.0072855772 -0.06674158
000280 e6 24 ae bd e4 03 c7 bc 71 c6 06 be dd 12 e7 bd
       -0.085031316 -0.024293847 -0.13161637 -0.11282895
000290 bb b5 06 be 7b b1 0a 3e b7 be 23 3d 50 ab e4 3d
       -0.13155262 0.13544266 0.0399768 0.11165488
0002a0 05 9b 24 3e 0c 97 3f bd b5 45 0b be 4f 42 2b bd
       0.1607476 -0.04677491 -0.1360081 -0.041811284
0002b0 58 fd 4d 3e 44 4c b6 bd 70 68 69 bd 06 a6 32 3d
       0.20116174 -0.08901265 -0.056984365 0.043615364
0002c0 a3 6d 0d bc a5 b0 d3 bd b6 d7 fb bd 89 1a 3a bd
       -0.008632096 -0.10336427 -0.12297003 -0.045435462
0002d0 07 2d 70 bd ec b6 93 3c 62 f7 98 bc 73 15 b3 3b
       -0.05863669 0.01803156 -0.018672649 0.0054652034
0002e0 f6 71 c3 bd ce 02 3a 3e c0 0b 0a bc 43 09 3b 3e
       -0.09543221 0.18165132 -0.008425653 0.18265252
0002f0 7f f5 ac bd 5f c3 52 bc eb 75 ed bd 13 eb 25 be
       -0.08445262 -0.012863963 -0.11594757 -0.16202955
000300 64 88 14 bd 1f d6 6d 3d 27 04 d1 3d d0 d9 f8 bc
       -0.036262885 0.05806553 0.1020587 -0.030377299
000310 da e7 05 be 0b 4f f5 3d 75 fd df 3d 4b eb d7 bb
       -0.13076726 0.11977967 0.10937015 -0.0065893284
000320 7d fd ff bd 44 2f 65 3d 8f 66 38 3e 26 c9 7d bd
       -0.12499521 0.05595328 0.18007873 -0.06195941
000330 b3 dd 3b 3e d3 14 c5 bd 7a ce 17 3e 8e d2 f1 bd
       0.1834629 -0.096231125 0.14824858 -0.11807738
000340 28 71 bc 3c 3b 31 d7 3d e1 d3 bb 3d 6e e0 9e bd
       0.023003176 0.10507437 0.09171272 -0.0775765
000350 3d 21 41 3c ad 0a b8 3d df 1a 8a 3c a6 0c b2 3d
       0.01178771 0.08986411 0.016858516 0.08693819
000360 62 d0 b8 bc f5 e2 d3 bd 9a 0c f6 3a 21 b4 8e 3d
       -0.022560302 -0.10346023 0.0018772066 0.069679506
000370 cd bc 34 be 8d bf dc bd 7e 64 cf 3d f2 ed 37 3d
       -0.17650147 -0.10778723 0.10126589 0.044904657
000380 fe 77 fd 3d 67 b1 f5 bd ec c7 fb 3d 8d ef 44 3d
       0.12376402 -0.119967274 0.122939914 0.048080016
000390 17 92 07 be 60 6c 4b 3d 1a 19 2a bd 78 3d f5 38
       -0.13239323 0.0496639 -0.041527845 0.0001169396
0003a0 a8 60 37 be eb 3f 21 be 5b 5c e6 3c d0 97 7f bd
       -0.17907965 -0.15747039 0.02812021 -0.06240064
0003b0 03 9b 08 be 72 bb 9e bd 13 1a 2e 3e e9 c2 74 3d
       -0.13340382 -0.07750596 0.17002134 0.059756193
0003c0 47 95 cb 3d a5 55 51 3d 4e f4 a1 3b 8d 7b 09 3e
       0.09940582 0.051107068 0.0049424535 0.13426037
0003d0 d3 16 2e 3b 78 44 cb bd 6d 45 bb 3b 92 dc 05 bd
       0.0026563897 -0.09925169 0.0057150633 -0.032681055
0003e0 40 5c 93 bd e1 6a e8 3d 08 3b ce 3d d3 60 97 3d
       -0.0719533 0.113485105 0.10069853 0.07391515
0003f0 55 c0 11 bb a0 1d 9b 3d ca 4e 29 be 3d 13 ed bb
       -0.0022239883 0.0757401 -0.16533962 -0.0072349594

network_body._body_endoder.seq_layers.2.bias f4 [128]
000000 85 07 03 3b a2 cd eb bc 95 3e 1f 3d f3 d2 a7 3c
       0.0019993496 -0.028784577 0.038878042 0.02048633
000010 b4 4a 55 bb c2 b9 61 bc ef a0 98 b9 68 bf 24 3b
       -0.0032545747 -0.013777198 -0.00029111604 0.00251385
000020 d6 51 85 3c d8 d7 48 3c 7e 49 82 bb 0c 13 51 bb
       0.016274374 0.012258492 -0.003976046 -0.0031902222
000030 48 d6 82 bb f8 c6 a9 bc 16 43 96 3b 08 64 b6 3a
       -0.0039928295 -0.020724759 0.004585634 0.001391531
000040 cb 03 74 3c 06 e5 ff bc f3 b2 0c 3c 1a 29 3a bc
       0.014893482 -0.031237137 0.008587587 -0.011362338
000050 1c 1e 13 bd aa 63 73 bc 2f c2 8c 3c c3 03 41 3c
       -0.035917386 -0.014855305 0.017182438 0.011780682
000060 7a cb 8f bc fb b2 56 bc 41 3d 9c 3c 92 fd 85 bc
       -0.01755308 -0.013104196 0.019072177 -0.016356263
000070 20 9a ce bc e0 e3 ef bc 55 85 22 bc ed b3 71 bc
       -0.025219977 -0.029283464 -0.009919484 -0.01475237
000080 69 0e f9 bc f5 8c 34 bb b6 53 3e 3b bb 2b 4d 3a
       -0.03040238 -0.0027549837 0.0029041595 0.0007826646
000090 3a 80 90 3c 85 01 60 bc 71 bd 36 bc 2e d1 d3 3b
       0.017639268 -0.013672237 -0.011153565 0.006464145
0000a0 a9 03 0e bc c3 fe 09 3b b4 16 e1 3c b6 d1 86 ba
       -0.008667865 0.002105639 0.027476646 -0.0010285887
0000b0 3d 5f 2b 3c 8f c2 07 bc de 0c c2 bb 9c 39 00 3d
       0.010459718 -0.0082861325 -0.005921944 0.03130494
0000c0 2b 80 00 bd 28 b7 87 3c 32 fb 36 3c 45 d6 88 bc
       -0.03137223 0.016566828 0.011168288 -0.016703734
0000d0 46 cf d3 ba d6 dc bc bc b4 c2 a1 3c 5d 0e 8c ba
       -0.0016159795 -0.023054522 0.019746162 -0.0010685433
0000e0 6d 3d 14 3c 24 d5 7e ba a3 bf 12 bc c3 15 83 3c
       0.009047848 -0.00097210915 -0.008956823 0.016001588
0000f0 47 3c c5 3c 56 03 50 3b d7 13 87 bc cb 3b 27 3d
       0.024076594 0.003174027 -0.016488953 0.040828507
000100 9f 35 f1 3b 1c c1 6f b9 86 3a 23 3c 66 57 b7 bc
       0.0073611285 -0.00022864755 0.009962684 -0.022380542
000110 5c 6b c5 bc 42 d6 07 bd 72 d7 59 3c e5 d5 9b ba
       -0.024099045 -0.033163317 0.013295995 -0.0011889307
000120 8d c6 a8 3c 5b 1c 61 3b 28 fd 9e 3c 6b 13 25 bc
       0.020602489 0.0034349177 0.019407824 -0.01007543
000130 4c 4a 70 3b 6b 91 9b bc fc c2 97 3b 9d d9 81 bc
       0.0036665378 -0.01899024 0.0046313982 -0.015850836
000140 8f 52 14 3c cf 83 87 bc df 3a 14 3c e3 1b 5b bb
       0.009052887 -0.016542343 0.009047239 -0.003343337
000150 0c 46 31 bc e5 a8 a2 bb c5 35 8d 3b b1 0d 27 3c
       -0.010819923 -0.0049639815 0.0043093883 0.010196135
000160 62 c5 a1 bb 2e 85 ba 3a b4 13 83 bc 45 0d 7c bc
       -0.00493686 0.0014230364 -0.016000606 -0.015384023
000170 26 fa dc 3c 75 32 dd bb b3 51 14 ba 5b 59 a0 3c
       0.026974749 -0.0067503997 -0.0005657926 0.019573858
000180 c8 f8 04 3d 9e d2 53 bc e8 0a d2 3b 7d 49 14 3d
       0.03246382 -0.012928633 0.0064099915 0.036202896
000190 77 4b 96 bb 6b b3 eb bc 88 55 c7 3a bc bb a3 ba
       -0.004586633 -0.028772077 0.0015207985 -0.0012491862
0001a0 b7 30 8d bc a4 8b 64 3b f1 08 8b bc 4d 57 8f 3b
       -0.017235143 0.0034873271 -0.016972037 0.0043744207
0001b0 05 3c ee 3c e7 fb a0 bc 03 df ce 3b f7 3f 32 3c
       0.029081354 -0.019651366 0.006313206 0.010879508
0001c0 42 c9 c3 bc 2d e7 1d bc 67 08 8e bc d8 f8 c1 3b
       -0.023899678 -0.009637636 -0.01733799 0.005919557
0001d0 ad 98 ba 3c 90 07 14 3c a7 a5 a2 bc fe 25 4c ba
       0.02277788 0.009035006 -0.01985438 -0.00077876437
0001e0 51 36 e4 bc 6e 70 8b 3c 74 62 11 bd 8d 2a a4 3c
       -0.027857931 0.017021384 -0.035494283 0.020039821
0001f0 55 1e aa 3c 05 ac 29 3c 17 56 97 3b 8c 57 1f 3c
       0.020766417 0.010355954 0.004618417 0.009725463

network_body._body_endoder.seq_layers.4.weight f4 [128, 128]
000000 16 31 14 3e d0 7d 02 be f2 66 5b 3c 83 cb ec bd
       0.1447185 -0.12743306 0.013391243 -0.11562254
000010 d0 38 bb 3d f3 5e d1 3d b4 3e 5d 3d e8 b3 dc 3d
       0.091416955 0.10223188 0.054014876 0.10776502
000020 58 3f 93 bd b0 d1 86 bd c2 21 96 3e 05 26 b1 3c
       -0.07189816 -0.065829635 0.2932263 0.021624574
000030 5f d2 93 3c 6b 14 a2 bb 53 df 1d 3b b8 d6 de bd
       0.018044649 -0.0049462817 0.002408941 -0.10880798
000040 2f 69 6f bd 2f 62 c2 3d a1 ba 84 3b 66 a4 0c be
       -0.05844992 0.09491383 0.004050568 -0.13734588
000050 d1 06 83 3d b8 08 20 bd 30 0b 85 bd 0f 40 48 bb
       0.063977845 -0.039070815 -0.064962745 -0.003055576
000060 65 4c 14 3e 63 d2 c0 3b fd 66 42 be 99 0c 5c bd
       0.14482267 0.005884455 -0.189846 -0.05372295
000070 32 35 c4 bd da 03 34 3c a3 85 79 3b ff fb 0c 3b
       -0.09580459 0.010987246 0.0038074038 0.0021512506
000080 b8 60 94 bc c0 8b 31 3e 8c 1b 35 be e4 67 37 3d
       -0.018112525 0.17338467 -0.1768629 0.044776812
000090 8b 58 8c be 64 46 24 3d a5 b3 63 3c fc 52 05 3e
       -0.27411303 0.040106192 0.013897811 0.13019937
0000a0 34 94 e1 3d 49 03 b6 3d de da e1 bd 02 a8 b7 3d
       0.11014596 0.08887345 -0.11028074 0.08967592
0000b0 18 09 26 bd 73 ac 09 bd b5 ae f8 bd f0 91 ae 3c
       -0.040536016 -0.033611726 -0.12142698 0.021309823
0000c0 6e 91 a9 3d d1 92 cd bd ea de f0 bd d9 77 d1 bd
       0.08279692 -0.10037769 -0.117612675 -0.10227937
0000d0 85 fc 1f 3d 22 9b cc 3c b5 b0 3f bc c1 e4 03 3d
       0.03905918 0.024976317 -0.011699845 0.03220058
0000e0 8e 2e 4b bc 31 60 19 3d 6b a4 08 bd 73 ed 23 3b
       -0.012401236 0.03744525 -0.033359926 0.0025013357
0000f0 87 8d f4 3b b1 1e 13 bd e7 2e d6 3b 7b 10 bb bd
       0.0074631604 -0.03591794 0.006536353 -0.09134003
000100 4d f9 92 3c 67 00 e5 bc b6 a0 8a 3c 13 a1 57 3d
       0.017941142 -0.027954293 0.016922336 0.052643847
000110 03 0b 53 bd 61 8e 67 3d 76 b0 73 bd a4 14 93 bc
       -0.051524173 0.056532267 -0.05949446 -0.017954178
000120 04 7c 3a 3b d7 ae 01 be d3 4e 9f ba d7 7d b1 3d
       0.0028455267 -0.12664352 -0.0012154229 0.0866658
000130 9b f8 ab bd 74 78 6a bd f1 f9 98 bd b9 e0 87 3d
       -0.08397027 -0.05724378 -0.074695475 0.06634659
000140 43 be fd bd a5 7f ac bc 85 7c d0 bc ad 4e 70 bd
       -0.12389805 -0.02105696 -0.02545 -0.05866878
000150 7a 8e 45 3d 37 65 cf 3d f4 8e 32 bd 1b d7 9c bc
       0.04823158 0.10126727 -0.043593362 -0.019145539
000160 f9 04 dc ba 66 ac 00 bd 63 06 55 bd 77 16 a0 bb
       -0.001678615 -0.031414412 -0.052008044 -0.0048854905
000170 b0 8c 83 3d 61 b9 64 bb 8c ec b7 3c 9e e0 76 3c
       0.064233184 -0.0034900534 0.022451662 0.015068201
000180 c0 66 90 bc 0e 8b 52 3d e7 cf 09 3e 78 cc 48 3d
       -0.01762712 0.051402144 0.13458215 0.04902312
000190 dd d2 82 3d e7 d7 00 bd c8 9f d0 bd d4 26 c1 bc
       0.06387875 -0.0314559 -0.10186726 -0.023578085
0001a0 05 7c 0b 3e 47 d3 1d 3d b5 48 21 3e 05 ae ea 3c
       0.13621528 0.038531568 0.15750392 0.028647432
0001b0 f0 88 90 bd 33 10 f6 3c 50 ea 9f bd 0a 2c dd bd
       -0.07057369 0.030037021 -0.078083634 -0.107994154
0001c0 d2 fb e7 3d 9e 6f 14 3e 88 82 2a bd aa ae 35 bd
       0.11327328 0.14495704 -0.04162839 -0.044356026
0001d0 fd e4 d6 bd b0 8b 1a be 58 f4 2f bd 22 d1 25 bc
       -0.10492895 -0.15092349 -0.042957634 -0.010120662
0001e0 b9 d4 d1 bc d5 c6 cc bc 16 62 ab bc 70 b0 4a bb
       -0.02561413 -0.024997154 -0.020920794 -0.003092792
0001f0 90 78 e3 bd f2 8e da bd d9 ba b8 bd 02 d8 5c bd
       -0.1110698 -0.10671796 -0.09020013 -0.05391694
000200 98 42 80 3d 06 45 88 3d f7 29 43 3d 2f 8f 8a bd
       0.06262702 0.0665379 0.047647443 -0.06765591
000210 2e 52 00 bd c3 b3 e2 bb 94 ff b1 bc fc b1 6c 3d
       -0.031328373 -0.006918402 -0.021728314 0.057786927
000220 48 c3 9d 3d 83 94 9e bd 41 25 db 3c ce ea b3 3c
       0.077032626 -0.0774317 0.026751162 0.02196255
000230 e2 46 df 3c 0f 96 6a 3d cf 1a 32 3d c9 90 78 bd
       0.02725548 0.057272013 0.043482598 -0.060684953
000240 c0 21 96 3d 52 04 5b be e3 f1 00 3e 49 cb d1 bc
       0.07330656 -0.21388367 0.12592272 -0.02560963
000250 d7 18 2d 3e 4f a6 8a ba 1e 32 97 bd e7 84 9c 3d
       0.16904007 -0.0010578128 -0.07382606 0.076425366
000260 c3 6f b0 3d 16 d1 a6 bd 65 25 be 3c 0d b8 5d 3d
       0.08615067 -0.08145349 0.02321119 0.054130603
000270 f8 f0 72 3d ee c0 91 bd 1b 76 d2 3d 97 09 70 3d
       0.059311837 -0.071168765 0.10276433 0.058602896
000280 06 1e c9 3d 5e a6 1a 3d 5e c1 1d be 99 63 99 bd
       0.0982018 0.037756316 -0.15405795 -0.074897
000290 df d7 34 3d b1 95 d9 bc e5 33 3b be 4c ee 01 3d
       0.044151183 -0.026560636 -0.18281515 0.0317214
0002a0 bb 33 12 bd 0a 2d 82 bd e4 05 11 3e ba 62 40 b9
       -0.035693865 -0.06356247 0.14162403 -0.00018347325
0002b0 e8 dd 9d bd b3 59 04 be 44 b2 12 3e 74 25 07 3d
       -0.07708341 -0.12924843 0.14325815 0.032994702
0002c0 25 ea fc 3d 1d f8 5a bc 45 9e e2 3d 4f d4 a3 3d
       0.12349347 -0.013364819 0.11065344 0.07999479
0002d0 0c b2 95 bc cd 01 92 bd 06 c2 06 3d fb c2 54 be
       -0.018273376 -0.0712925 0.03289988 -0.20777504
0002e0 f0 c1 00 be 54 85 0b bc f0 e7 8c 3d d9 7e 95 3c
       -0.12573981 -0.008515675 0.06880176 0.018248962
0002f0 53 0e d2 3c a2 c7 da bd ad 79 9d bd e0 2a b0 3c
       0.025641596 -0.10682608 -0.076892234 0.02150482
000300 65 bf cf 3d 33 88 a8 bd 5b ad 8f 3b 2b 36 22 3e
       0.101439275 -0.08229103 0.0043846793 0.15840976
000310 07 85 d4 3b 5d 4d 0d bd 7f 6b 53 3b e8 d7 ad bd
       0.0064855847 -0.034497607 0.0032260118 -0.084884465
000320 1a 49 94 bd 07 c9 f6 3c 24 22 53 3e 46 7b 2b 3d
       -0.072405055 0.030125154 0.20618492 0.04186561
000330 d3 a7 e1 3d 78 05 2c bb 57 3d 7d 3c 59 e5 c7 bd
       0.11018338 -0.0026248377 0.015456519 -0.097605415
000340 0c 72 31 bd 62 4e 88 3c db 00 20 be da db 2c be
       -0.043321654 0.016638938 -0.15625326 -0.16880742
000350 78 52 af bd 4d 7b e6 3c ae 8e 1c be 1b 07 90 bd
       -0.085606515 0.028134966 -0.15288803 -0.07032605
000360 39 d7 96 3d 9b 86 76 3d 73 02 b1 bc a7 d7 86 3d
       0.07365269 0.060186964 -0.021607613 0.06584101
000370 47 1e 3e 3d c4 43 30 bc 93 7f 46 be bf 43 04 3e
       0.046415593 -0.010758344 -0.19384603 0.12916468
000380 9b ef fd 3b 0c 78 81 3d 76 60 8c 3c a2 1a c2 3c
       0.0077495105 0.06321725 0.01713584 0.02369434
000390 28 aa 3d be cd 8f 01 bd f0 69 bb bd a7 91 46 be
       -0.1852194 -0.03163128 -0.09151065 -0.193915
0003a0 f2 10 31 be 75 54 fb 3c 9c 4d 8a bd 8d 49 97 3d
       -0.1729162 0.03067992 -0.06753084 0.073870756
0003b0 07 7c 3f 3d 09 8b cc 3d d7 e5 70 bd 84 f1 80 3c
       0.04674914 0.09987456 -0.058812942 0.015740164
0003c0 0e e0 f3 bd 9a 56 19 3d 86 87 8a 3b ee 35 10 bc
       -0.119079694 0.037436105 0.0042275814 -0.00880192
0003d0 4d 1c 2a 3c 8c ab 61 bd 97 f3 78 bd 90 d6 6a bd
       0.010382724 -0.05509524 -0.06077918 -0.05733353
0003e0 02 0a e9 bd f1 ac 16 be 49 d3 9e 3d a9 4d 96 3d
       -0.11378862 -0.1471441 0.07755143 0.07339031
0003f0 d9 17 ff ba 90 db 70 bc a3 2a 5e 3d 10 b7 ba 3d
       -0.0019462063 -0.014700785 0.05423988 0.09116948

network_body._body_endoder.seq_layers.4.bias f4 [128]
000000 42 c9 76 bc 6a 6b 18 3b de 4c 46 3a 94 22 a0 bb
       -0.015062632 0.0023257383 0.00075645547 -0.0048869345
000010 c8 04 93 3b 83 89 a1 bb ca 70 c8 3b a3 61 2a 3c
       0.004486654 -0.0049297228 0.006116961 0.010399255
000020 c9 bf 4f bc 27 bb 98 bb 41 74 8a bc 96 19 b8 3a
       -0.0126800025 -0.004660982 -0.016901137 0.0014045711
000030 23 f9 47 bb 53 84 62 3c 6c 3a c6 bb 2c 8c 3f bb
       -0.0030513487 0.013825494 -0.006049445 -0.0029227836
000040 dc 51 65 bb aa ed ac bb 5d 78 f8 bb 64 e5 26 bc
       -0.003499142 -0.005277355 -0.007582708 -0.010186527
000050 2a e1 04 3b 62 92 38 bb 37 6a 77 bc f9 60 5c bb
       0.002027581 -0.0028163423 -0.015101007 -0.0033627136
000060 17 81 0e bc 50 fd 90 bc f7 07 a4 bb 1a ae 47 3c
       -0.00869777 -0.017698914 -0.0050058323 0.012187505
000070 ba d0 01 3c 25 0e c2 bc 50 f4 6a 3c 7c 32 90 3c
       0.007923299 -0.023688385 0.014340475 0.017602198
000080 58 74 07 3c 9b a4 35 bc 8f e3 f7 bb 16 ab e6 ba
       0.008267485 -0.011086608 -0.007564969 -0.0017598595
000090 4d de 48 bc 70 1d 8b 3c 03 9d 0f 3b 71 a8 75 bc
       -0.012260032 0.01698181 0.0021913655 -0.014993773
0000a0 18 3a ae bb bf 91 4c 3c 92 ac 9b bc 41 fc 05 bc
       -0.005316984 0.01248592 -0.019003186 -0.008177818
0000b0 35 07 ef 3b 90 f0 25 3c ce e4 8a bc 94 5e 6c bc
       0.0072945603 0.010128155 -0.016954806 -0.014426846
0000c0 e9 dd 03 bb e1 44 9c 3c 2c 6b 0a 3b 3a 20 51 bc
       -0.0020121282 0.019075813 0.0021121008 -0.012764031
0000d0 04 f8 cb 3a d9 5a f5 bb 58 6c 78 bc e8 62 3c bc
       0.0015561585 -0.0074876365 -0.01516255 -0.01149819
0000e0 42 8f 84 bb fd df c1 3b e5 df 12 bb ff c2 a6 bc
       -0.004045398 0.005916594 -0.0022411284 -0.020356653
0000f0 14 89 80 bc a1 5f a6 3b 35 02 c3 bc ce 67 d9 3a
       -0.015690364 0.005077318 -0.023804763 0.0016586722
000100 7d a4 04 3c e2 cd 99 bb cf 32 17 bd bb 7d fc bb
       0.008095858 -0.0046937326 -0.03691369 -0.007705418
000110 45 ea 2a bc 39 45 ba bc f5 93 bc bc 81 e0 e4 ba
       -0.010431831 -0.022738086 -0.02301977 -0.0017461927
000120 32 69 c2 3b 1e 82 49 bb 03 23 8a 3a 9a b1 07 3c
       0.0059329504 -0.0030747722 0.0010538999 0.00828209
000130 9c d5 33 bc 89 eb 56 bc 0b 8d e2 3b 59 83 70 ba
       -0.010976221 -0.013117679 0.0069137863 -0.0009174846
000140 dc 8d 6a bc 98 77 24 b9 3d d4 93 bc 9f fb ba 3b
       -0.0143160485 -0.00015684811 -0.018045539 0.005706265
000150 c1 7b a8 bc f3 68 35 bc 44 2e 11 3b 23 27 04 3c
       -0.020566823 -0.011072385 0.002215282 0.008065972
000160 46 6d a4 3b 17 23 ce bb 43 f6 99 bc 8b e8 82 3c
       0.005017909 -0.006290804 -0.018794185 0.015980026
000170 13 13 ee bb cf c1 a4 bc bb ab 70 3c 72 e1 bb 3c
       -0.0072654574 -0.020111946 0.014689381 0.02293465
000180 d7 29 c0 bc 45 7b 50 3c cd d7 b5 bb 0e 37 2d bc
       -0.02345745 0.012724702 -0.005549407 -0.010572208
000190 d1 aa 72 3b da 66 83 3b 21 00 91 bb 8d cc 00 bc
       0.0037028084 0.0040100636 -0.004425064 -0.007861269
0001a0 44 ac 8d bc f9 2c 6b 3b f8 d5 98 3c ca 3a bd ba
       -0.017294057 0.003588496 0.018656716 -0.0014437076
0001b0 1c c1 d6 39 ba 1b ec 3b 82 4d 89 3c 4c 22 7b 3a
       0.00040961138 0.0072054537 0.016760591 0.0009580001
0001c0 fe c6 02 3c ad 6b 15 3a 2b 0b 33 3a 27 7b b7 bb
       0.007982014 0.0005699944 0.0006829972 -0.0055993977
0001d0 0b cf 94 bc 84 bb d0 bc 8a 09 63 bc 5d 2f 39 ba
       -0.018165132 -0.02548004 -0.013857255 -0.00070642476
0001e0 7d 36 c1 bc 5b 62 03 bc a9 a8 14 3c 06 ac 9b bc
       -0.023585552 -0.008019055 0.009073415 -0.019002926
0001f0 f1 13 a6 3a 6e f9 97 3b 87 a8 b3 bb 24 f9 24 3c
       0.0012670738 0.0046378886 -0.0054827365 0.010069165

action_model._continuous_distribution.log_sigma f4 [1, 2]
000000 17 b2 05 3d 8b 7b 26 3a
       0.032640543 0.0006350807

action_model._continuous_distribution.mu.weight f4 [2, 128]
000000 bc c4 14 3d 9a 92 fc 39 04 2f 80 3d c3 82 83 3d
       0.036320433 0.00048174412 0.062589675 0.06421425
000010 bb 21 b6 3b d3 d7 24 3d f5 63 1d bd a2 4a 20 bd
       0.00555822 0.04024489 -0.038425405 -0.039133675
000020 bf 99 0a 3c fd 75 51 bd c7 7d c6 3a 04 01 0d bd
       0.0084595075 -0.051137913 0.0015143686 -0.034424797
000030 ac e2 cd 3c 5f 98 3e 3a eb 55 28 bd 00 88 e4 bc
       0.0251325 0.000727063 -0.041097563 -0.027896881
000040 e4 df 22 bc 90 87 5b 3d 32 20 33 bd 86 05 85 3d
       -0.009941075 0.05359608 -0.043731876 0.06495194
000050 46 f7 66 bd 5e d9 c9 3c 7e fb 4d 3d 28 78 8d 3d
       -0.056388162 0.024639782 0.05028867 0.069076836
000060 23 db 92 3b b3 d1 2d 3d d6 88 87 3b 49 75 d3 3a
       0.0044816895 0.042436313 0.004136185 0.0016132976
000070 6c 14 10 3d 1d f7 a5 3c ee 1b 3d 3c 38 0e 81 bb
       0.035175726 0.020259434 0.0115423035 -0.0039384626
000080 94 0f 49 3c 90 41 87 3c ae 24 52 3c f8 31 af bb
       0.0122717805 0.016510755 0.012826128 -0.005346533
000090 d0 6b bb bb 13 bf 97 bd 79 60 b5 ba c1 72 03 bd
       -0.0057196394 -0.074094914 -0.0013837955 -0.03209186
0000a0 47 21 2f bb 4f a1 81 3d d9 28 29 bc 03 e0 39 bb
       -0.0026722716 0.06329595 -0.01032468 -0.002836228
0000b0 ba 02 38 3d 32 38 6e 3a 96 79 bf 3a a4 11 9e bc
       0.044924475 0.0009087353 0.0014608379 -0.019295521
0000c0 d9 1c 8d 3c 13 d9 a4 bc cb ed f1 bc be 07 8b 3b
       0.01722567 -0.02012304 -0.029532334 0.0042428663
0000d0 dc 65 2d bd 29 ee 21 3c 4a ff 8d 3c 89 ea 09 ba
       -0.04233347 0.009883442 0.017333645 -0.0005261084
0000e0 c0 d9 a9 bd 6e 79 e2 3b b3 13 f7 ba 46 10 b6 3c
       -0.08293486 0.006911448 -0.0018850475 0.022224557
0000f0 ef f4 32 3d f0 3f c7 bb b3 19 92 bb 1b 47 22 bd
       0.043690618 -0.00608062 -0.00445863 -0.039618593
000100 8e b3 13 3d c0 e6 85 bb fc bf 0d 3d 81 a5 92 3c
       0.03605991 -0.0040863454 0.03460692 0.017901184
000110 b7 73 1e 3d 87 4b 49 bb 82 17 c2 3c ec 95 bb bc
       0.038684573 -0.0030715184 0.02369285 -0.022898637
000120 0e 80 54 bd 12 5b 83 3d 8f 25 6f bd a8 8b 1c 3d
       -0.051879935 0.06413855 -0.058385428 0.038219124
000130 3c 4e c2 bc 4a dc 2d bd 1c f6 62 bc 20 16 cb bc
       -0.023718946 -0.042446412 -0.013852622 -0.024790823
000140 90 67 8b 3b 65 eb b8 3a 5e 6f c6 3c ab 73 81 bd
       0.004254289 0.0014108239 0.024223026 -0.0632089
000150 42 bb ef 39 f2 67 8c bb f6 2a 53 bc 9b 90 76 3b
       0.0004572515 -0.004284852 -0.012888661 0.0037622813
000160 44 51 69 3d 04 95 c6 39 fe 92 3f 3b 91 6f b7 bd
       0.056962267 0.00037876528 0.0029231901 -0.089568265
000170 7d 40 2a 3b b7 8b b7 ba e0 bc 27 3d 3b 65 ac bd
       0.002597838 -0.001400343 0.04095161 -0.08417746
000180 9c fa d2 3c 5e cc a3 3c 98 b6 ca bc 14 c5 eb ba
       0.025754265 0.01999491 -0.02474527 -0.0017987811
000190 fb 8e d8 bc 13 8b 3c 3b a1 e4 55 bc ad db 60 3d
       -0.026435366 0.0028769418 -0.013054998 0.054897
0001a0 bd e2 f5 bc fe 64 0a 3d 8f 17 e0 3c 3e c3 80 bc
       -0.030015344 0.03378772 0.027354984 -0.015718099
0001b0 0a a9 63 3d 09 77 33 bd 66 0b f1 3c 64 c5 88 3d
       0.05558113 -0.043814693 0.02942438 0.06678274
0001c0 c6 e2 ba bc 34 60 7c bc f0 ba 2d 3d a2 ee 0e 3b
       -0.022813212 -0.015403796 0.042414606 0.0021809717
0001d0 ec b7 e4 3b e4 9c db bb 86 26 63 bc 0d 46 88 bd
       0.006979933 -0.0067020524 -0.013864165 -0.06653986
0001e0 31 1b 88 3b 76 e8 2a bd 83 0d cc 3c 3d 0c f3 3c
       0.004153632 -0.0417256 0.024908787 0.029668922
0001f0 2f 5f d1 39 82 57 1b bd 8b af a2 39 2d 51 c1 3b
       0.00039934504 -0.03792525 0.00031029838 0.0058995695
000200 a8 9f 3a bd c6 46 94 3b 14 87 0d 3d 0e e2 e4 3b
       -0.045562416 0.0045250384 0.03455265 0.0069849556
000210 8d 0f 5a bb 54 b1 ec 3c 38 a2 0e 3c ce 38 63 3d
       -0.003327343 0.02889315 0.008705668 0.055474095
000220 12 67 84 bd c1 86 0d bd 4d a2 99 3b 9a e2 2c bd
       -0.064649716 -0.03455234 0.004688537 -0.04220829
000230 be d6 aa 3c 34 92 36 3b 13 59 b5 bb 50 00 13 bc
       0.02085435 0.002785814 -0.0055343 -0.0089722425
000240 05 c6 a7 bd e2 65 0d 3d f5 7f c8 bb aa de 83 bd
       -0.08192066 0.03452099 -0.0061187693 -0.06438954
000250 90 77 18 3d 8d 92 da bb 0d f9 43 3c 97 8d f8 ba
       0.0372234 -0.0066703022 0.011961234 -0.0018963095
000260 12 a8 8e bd 82 c9 b1 3b fa 1c 92 bd 48 64 6e 3b
       -0.069656506 0.005425633 -0.07134433 0.003637569
000270 53 6a 5e 3d 8e 47 96 ba b4 16 0c 3d ef 23 dc 39
       0.054300617 -0.0011465417 0.03420134 0.00041988443
000280 fa 2a 39 3d 3f db a3 3c f8 77 82 3c b3 9c 7d bb
       0.045207 0.020002006 0.015926346 -0.0038698136
000290 b7 00 57 bd c8 cd 50 3d b9 65 16 3a bc 21 e2 bb
       -0.052490916 0.0509775 0.0005737204 -0.006900994
0002a0 7e 1a 2c bb fa d7 43 ba be f3 54 bd aa d4 a3 b9
       -0.0026260908 -0.00074708427 -0.051990263 -0.0003124823
0002b0 3e 70 fe 3b 68 61 2b bb 25 69 78 bb 21 93 2c bc
       0.007764845 -0.0026150588 -0.0037904468 -0.010533125
0002c0 c0 8f b7 3c f4 35 84 3d d2 ca 91 bd df 63 3d 3b
       0.022407413 0.06455603 -0.07118763 0.002889864
0002d0 96 b3 a3 bd af ed 94 bd fe f2 04 bd a4 a2 ca b9
       -0.07993238 -0.07271897 -0.032458298 -0.0003864962
0002e0 7f 00 d0 bc 60 24 8f ba f4 28 db 3b 07 47 c3 bc
       -0.025390862 -0.0010920875 0.0066882316 -0.02383758
0002f0 51 13 0e bb 7d 90 bd 3c e5 23 07 bd 07 5a 86 bd
       -0.0021678994 0.023140186 -0.032993216 -0.0656014
000300 f6 ac 23 3d df 26 46 3b b2 9a 1b bc fe 56 cd bc
       0.03995987 0.0030235571 -0.009497331 -0.025065895
000310 8b f8 90 bd f2 64 fe ba d0 91 94 3c ac 3c a6 bd
       -0.07078656 -0.0019408746 0.018135935 -0.08117041
000320 a3 7b fc 3c 81 b5 c1 bc 7a 0d b0 3c 19 4b f5 3c
       0.030820673 -0.023646118 0.021490801 0.029943036
000330 9c ac 2e ba ae a2 c5 bc 5b f5 83 bd bf 0e 4c 3c
       -0.0006663294 -0.024125423 -0.06443282 0.012454688
000340 a0 1c 0a ba a8 b5 b6 3c d0 2e ac bb bb c3 23 3d
       -0.00052685477 0.022303417 -0.005254604 0.039981585
000350 11 2f b9 bc 3b bc 43 bd dc aa f8 3c 80 cf 41 3c
       -0.02260545 -0.047786932 0.03035491 0.011829257
000360 e8 ee 07 3d 5f 9d 93 3b 24 87 5c ba 52 ff 1b 3d
       0.033186823 0.004504844 -0.00084124715 0.03808529
000370 27 70 e3 bc 65 8d 0b 3b 3d f4 77 3d 06 7e 85 3d
       -0.02776344 0.0021293995 0.06053566 0.06518178
000380 f5 22 41 bd 69 14 f5 3c 65 71 59 3b a8 95 e2 ba
       -0.04715248 0.029916959 0.003317916 -0.0017287033
000390 40 93 b9 bd 9d 21 7d 3a 5d ee cf bb 6a f5 ae 3c
       -0.09061289 0.0009656193 -0.006345554 0.021357257
0003a0 46 7f 05 bd 02 68 83 3d 9b 49 82 3d 65 be d2 bc
       -0.03259208 0.06416322 0.063616954 -0.025725553
0003b0 03 88 36 3d ab f1 52 3d 11 9b 97 3d c9 ff e5 3c
       0.044563305 0.051500004 0.074026234 0.02807607
0003c0 b5 59 94 bd 14 cc 70 3b 62 8a c2 3c 21 4a 55 bd
       -0.07243673 0.0036742734 0.023747627 -0.052072648
0003d0 ee 3b 16 bd 7f 8e d9 bb 0f 41 da bc 9c f6 c9 3c
       -0.036678247 -0.0066393013 -0.02664235 0.024653725
0003e0 63 16 e6 3b c4 47 05 bd 59 de 21 3d 36 42 01 bd
       0.0070217117 -0.032539144 0.039518688 -0.031557284
0003f0 fd 72 67 3a fa 81 37 bd 39 b3 c3 3b 52 27 70 3d
       0.0008829085 -0.04480169 0.0059722927 0.05863125

action_model._continuous_distribution.mu.bias f4 [2]
000000 0d 9e a9 bb 73 41 44 3c
       -0.005176312 0.011978495
