Assets/ML-Agents/Training Files/results/9roads_imitation__monzaDemo_allRwds_moreSteps/VehicleAgent/VehicleAgent-2999858.onnx (onnx, 156328 bytes, 9 tensors)

network_body._body_endoder.seq_layers.0.weight f4 [128, 38]
0	0xbd89b10e	-0.067232236
1	0x3e2880f1	0.16455437
2	0x3df1499d	0.11781619
3	0x3e3307bf	0.17483424
4	0xbb3b8377	-0.0028612295
5	0x3e9f0f67	0.3106644
6	0x3e3e2816	0.18569979
7	0x3e550889	0.20804037
8	0x3ccc96d0	0.024974257
9	0x3e237551	0.15962721
10	0x3dd3e76a	0.10346873
11	0xbd52055e	-0.05127465
12	0x3c971ae8	0.018445447
13	0xbda7c7ba	-0.08192392
14	0xbe33af6a	-0.17547384
15	0xbc121b3e	-0.008917628
16	0xbec8e8ba	-0.39240056
17	0x3d02fa71	0.03197712
18	0xbe38fa27	-0.18064176
19	0xbd56a4b8	-0.05240318
20	0xbd9d82b2	-0.07690944
21	0x3e9c0028	0.3046887
22	0xbe1d8fb0	-0.15386844
23	0x3dc40fb5	0.095733084
24	0x3da35b95	0.07976452
25	0x3e72bfed	0.23706026
26	0xbd955656	-0.07291858
27	0xbbcfd13d	-0.006342082
28	0xbd4e6ad9	-0.050394867
29	0xbcdd6b4e	-0.027028706
30	0x3e005dbb	0.12535755
31	0xbe04888b	-0.12942712
32	0xbd0a881e	-0.033821218
33	0x3ea085e5	0.31352153
34	0x3dcaafab	0.09896787
35	0xbd4f339a	-0.05058632
36	0xbebc4fc5	-0.3677961
37	0xbf1e08b2	-0.6173202
38	0xbdf5e9a5	-0.12007455
39	0xbeb907d8	-0.36138797
40	0x3e757102	0.2396889
41	0xbe64ea10	-0.22354913
42	0xbe30d786	-0.17269716
43	0xbe0e60c6	-0.13904104
44	0x3cda80b8	0.026672706
45	0x3e5750e9	0.21026959
46	0xbd84fa44	-0.06493047
47	0xbcaac799	-0.020847129
48	0x3e4d6954	0.2005971
49	0xbe875947	-0.264353
50	0x3d3cb396	0.046069704
51	0x3cf43f5a	0.029815365
52	0x3dcd3a38	0.1002087
53	0xbe3340be	-0.17505166
54	0x3dd22524	0.1026099
55	0x3e2889dd	0.1645884
56	0x3e27ef70	0.16399932
57	0xbeabfa5c	-0.33589447
58	0x3e4c24ab	0.19935863
59	0xbdfa5082	-0.12222387
60	0x3d805969	0.06267054
61	0xbd4cf268	-0.050035864
62	0xbe6c6a47	-0.23087417
63	0x3c843127	0.016136719
64	0x3cc6aae7	0.024251414
65	0xbe0a78b8	-0.13522613
66	0x3d08b9e7	0.033380415
67	0x3e35d02b	0.17755191
68	0x3b6ad2ea	0.003583128
69	0x3be6ac22	0.007039563
70	0xbf1ea627	-0.6197228
71	0x3ea17a9e	0.31538862
72	0x3e1c4d91	0.15263964
73	0xbe8d69a4	-0.2761966
74	0x3e004757	0.12527214
75	0xbd4ecf3b	-0.0504906
76	0xbd56dd4a	-0.05245713
77	0x3e162942	0.14664176
78	0x3e26f823	0.16305594
79	0xbea72d3f	-0.32651708
80	0x3d6502f6	0.055911027
81	0xbe9e5ce8	-0.30930257
82	0x3e12f839	0.14352502
83	0x3c41b934	0.011823941
84	0x3cb70354	0.022340454
85	0x3ec5c075	0.38623396
86	0xbdf6c15c	-0.12048599
87	0xbdb4f382	-0.08835508
88	0x3e36b3c2	0.1784201
89	0x3e73dae9	0.23813976
90	0xba478f66	-0.00076126156
91	0x3c8e4228	0.01736553
92	0x3e36925f	0.17829274
93	0xbe412d87	-0.18865024
94	0xbdcf8b81	-0.1013403
95	0xbe65eb51	-0.22453047
96	0x3e1ecdc5	0.15508182
97	0xbe0ec4bd	-0.13942237
98	0xbe6c31e3	-0.23065905
99	0xbd88db8c	-0.066825
100	0xbdf763b1	-0.120795615
101	0x3dd57f69	0.10424692
102	0xbdffc7fe	-0.12489317
103	0xbd956a99	-0.072957225
104	0x3e0217db	0.12704413
105	0xbd0120c9	-0.031525407
106	0x3d99933f	0.07498788
107	0x3e7fa03f	0.24963473
108	0x3d4f5047	0.050613668
109	0xbe2f13e5	-0.17097433
110	0xbca72af5	-0.020406226
111	0xbd4146ca	-0.04718665
112	0xbcfdba5c	-0.030972652
113	0x3db59ab5	0.08867399
114	0x3d5c9f5f	0.053862926
115	0x3e804f21	0.2506037
116	0xbdddc7bf	-0.10829114
117	0xbe7a8994	-0.24466544
118	0x3b40a329	0.0029394126
119	0x3dfc1221	0.12308145
120	0x3d682874	0.056679204
121	0x3c8884a4	0.01666481
122	0x3d3d6ce2	0.046246417
123	0xbe2dc07c	-0.16967958
124	0x3dcf05da	0.10108538
125	0x3e9aab5e	0.30208868
126	0xbda56a9e	-0.08076976
127	0x3d4896b5	0.04897185
128	0xbcd7db81	-0.026349785
129	0xbe1d3f84	-0.1535626
130	0xbe83fedf	-0.2578039
131	0x3e730dce	0.23735735
132	0xbcfbd0b6	-0.03073917
133	0xbd8d42b2	-0.06897487
134	0x3d4ef2f2	0.05052466
135	0xbdc4caca	-0.096089914
136	0xbe902e3d	-0.28160277
137	0x3da8476e	0.08216749
138	0xbbbbb9f7	-0.005728956
139	0xbe086731	-0.13320614
140	0xbc885dc1	-0.016646268
141	0x3e189974	0.14902288
142	0x3e9901fa	0.2988432
143	0x3cd7825f	0.026307283
144	0x3dd3d4a6	0.10343294
145	0x3da95614	0.08268371
146	0xbd08fed9	-0.033446167
147	0xbe2a1db1	-0.16612889
148	0x3e9ec6c5	0.31011024
149	0xbde880fd	-0.113527276
150	0xbd14adc5	-0.036298532
151	0xbc513dca	-0.012771079
152	0xbe35a1ca	-0.17737499
153	0xbd01a63c	-0.031652674
154	0xbe3c3ac3	-0.18381791
155	0x3db74eb5	0.08950559
156	0xba1c7aaf	-0.0005969209
157	0x3e5240ed	0.2053258
158	0xbe07e077	-0.1326922
159	0xbe288f44	-0.16460901
160	0x3e7d51fa	0.24738303
161	0xbd672671	-0.056433145
162	0x3e1b4a7d	0.15165134
163	0xbe4262ee	-0.18983051
164	0x3d651741	0.05593038
165	0xbd3ec0b3	-0.04657049
166	0x3e8165e8	0.2527306
167	0xbd5cf4eb	-0.05394451
168	0x3d839b8a	0.06426151
169	0xbe107f88	-0.1411115
170	0x3e044e5c	0.12920517
171	0xbc867692	-0.01641396
172	0xba8acc65	-0.0010589479
173	0x3ea71e0c	0.3264011
174	0xbcf6439d	-0.030061537
175	0x3e1dbf66	0.15405044
176	0xbd196f42	-0.03745962
177	0xbe4183fc	-0.18898004
178	0x3e170044	0.14746195
179	0x3e5ef773	0.21774082
180	0x3d110c4d	0.03541212
181	0xbc9c1e10	-0.019057304
182	0x3e9679ee	0.293899
183	0xbea321d1	-0.31861737
184	0x3f00179c	0.50036025
185	0x3dbb502f	0.09146153
186	0x3de5ce1e	0.11220954
187	0xbe6f92b2	-0.23395804
188	0xbeb463fb	-0.3523253
189	0x3e602e82	0.21892741
190	0x3c825891	0.015911372
191	0x3d774be0	0.060375094
192	0x3b9b6746	0.0047425358
193	0x3db6973c	0.089155644
194	0xbce9e06e	-0.0285494
195	0x3ec7b809	0.39007595
196	0xbdf1fbfb	-0.118156396
197	0xbca8221f	-0.020524083
198	0xbe0963fd	-0.13417049
199	0x3e8b72f1	0.2723613
200	0xbdd3304c	-0.10311946
201	0x3dab04fc	0.0835056
202	0x3e52cd79	0.20586194
203	0xbcbe7446	-0.023248803
204	0x3e340fbe	0.1758413
205	0x3e938c0a	0.2881778
206	0x3e0c5ba8	0.13706839
207	0x3c9c6b20	0.01909405
208	0x3dd05da5	0.10174111
209	0x3c344575	0.011002888
210	0xbe4586f3	-0.1928976
211	0x3d0c0ad2	0.034190007
212	0x3e9e3355	0.30898538
213	0x3e4ed154	0.2019704
214	0xbe733d06	-0.23753747
215	0xbee69e21	-0.45042518
216	0xbdac59b9	-0.08415551
217	0x3dfc0d41	0.123072155
218	0xbca791b1	-0.020455213
219	0x3e66a5a6	0.22524127
220	0x3d99f7a8	0.0751794
221	0xbd882d9e	-0.06649326
222	0x3b8553d4	0.004068831
223	0xbd8e9407	-0.06961828
224	0xbe41c126	-0.18921337
225	0xbe7a8d45	-0.24467953
226	0xbafd53fc	-0.0019327397
227	0x3d2a529e	0.041582696
228	0x3e7c5b1a	0.24644127
229	0xbd8173a1	-0.063208826
230	0xbe985ef7	-0.29759952
231	0x3de1c523	0.11023929
232	0xbbe0f95d	-0.006865664
233	0xbd81fb45	-0.06346754
234	0xbd923688	-0.07139307
235	0x3e059e8f	0.13048767
236	0xbe4c698c	-0.19962138
237	0xbe4820e5	-0.19543798
238	0x3e7f9e7f	0.24962805
239	0x3dafcb53	0.08583703
240	0x3dae42bc	0.08508822
241	0x3e58d386	0.2117444
242	0x3d8bc3f9	0.06824488
243	0xbda67755	-0.081282295
244	0xbde9471d	-0.11390517
245	0x3e64ee93	0.22356634
246	0xbeadd526	-0.33951682
247	0xbf01bd54	-0.50679517
248	0xbda690d1	-0.0813309
249	0xbdedfc8a	-0.11620434
250	0x3e8480ba	0.2587946
251	0xbe7929b6	-0.24332318
252	0x3e11897c	0.14212602
253	0xbdc171c6	-0.09445529
254	0x3d99ef38	0.075163305
255	0xbe4f2cac	-0.20231885

network_body._body_endoder.seq_layers.0.bias f4 [128]
0	0xbcd7769f	-0.02630168
1	0x3bbe5881	0.0058088903
2	0x3c589230	0.013218448
3	0xbd91c7d4	-0.07118192
4	0x3bd1a5f4	0.006397957
5	0xbcddaf3b	-0.027061095
6	0x3d120056	0.03564485
7	0x3d7d20f0	0.06179899
8	0xbba82c77	-0.0051322537
9	0xbd20e6b1	-0.039282504
10	0xbd5ab11c	-0.05339156
11	0xbd3efa4e	-0.046625428
12	0xbbd689d8	-0.006547194
13	0xbbbac567	-0.0056998017
14	0x3ca344a8	0.019930199
15	0x3b9cd340	0.004785925
16	0xbc66bcd9	-0.014083111
17	0x3be1f430	0.0068955645
18	0xbbcd3332	-0.0062622065
19	0xbcbb090a	-0.022831459
20	0xbd94c903	-0.072649024
21	0x3ce8cf5b	0.028419187
22	0xbc4bdc6d	-0.01244269
23	0x3c363961	0.011122079
24	0xbcf867b5	-0.030322889
25	0x3cac858b	0.021059772
26	0x3d7cc157	0.06170782
27	0x3cc3901d	0.02387243
28	0x3cde26df	0.027118145
29	0x3cd7a2f6	0.026322823
30	0xbc37b052	-0.011211472
31	0x3bfa5071	0.007638984
32	0x3cc5e4f7	0.02415703
33	0xbd3fb657	-0.046804752
34	0x3da5b98e	0.080920324
35	0x3d55840b	0.05212788
36	0x3b97a395	0.004627655
37	0x3c2d099a	0.010561371
38	0xbd414a6b	-0.04719011
39	0xbcb3fb2d	-0.021970356
40	0xbc2fa50b	-0.010720502
41	0xbca7aa5b	-0.020466974
42	0x3d38d1ba	0.045121886
43	0xbc8a5c9d	-0.016889865
44	0xbbd4757d	-0.0064837323
45	0x3d70d4be	0.058796637
46	0xbd5f5499	-0.054524038
47	0x3bc9d217	0.006159078
48	0x3d2a3343	0.041552793
49	0xbd05f627	-0.032705452
50	0xbb879392	-0.004137465
51	0xbbfd7ef5	-0.0077360817
52	0x3c9be6d0	0.019030958
53	0xbc900b24	-0.017583437
54	0xbca7fe44	-0.020506985
55	0xbd12657b	-0.03574131
56	0xbd063f0a	-0.032774962
57	0xbc26d488	-0.010182507
58	0x3d150430	0.036380947
59	0xbd2721ad	-0.0408036
60	0x3c9382eb	0.018006762
61	0xbc58fcb8	-0.013243847
62	0x3c3f067a	0.011659259
63	0xbcb1e39f	-0.021714984
64	0x3d0a45e5	0.033758063
65	0xbcb4d428	-0.02207382
66	0x3c5a45ac	0.013322275
67	0xbd1cb384	-0.038257137
68	0x3d542894	0.05179651
69	0x3cd17787	0.02556969
70	0xbc3898b4	-0.011266876
71	0xbd43e805	-0.047828693
72	0xbcd305ca	-0.025759596
73	0xbc619837	-0.013769201
74	0xbd53b5c9	-0.051687036
75	0xbd379201	-0.044816975
76	0xbd3661ae	-0.04452675
77	0x3b9ea630	0.0048415884
78	0xbc17585d	-0.009237376
79	0x3b8f2aaa	0.0043690996
80	0x3d0917c6	0.033469938
81	0xbd3b776e	-0.045768194
82	0x3d0a47a5	0.03375973
83	0xbac0b086	-0.0014701046
84	0xbc846e12	-0.016165767
85	0xbc996124	-0.018723078
86	0xbc9ede42	-0.01939309
87	0xbc85ef1e	-0.016349372
88	0x3cda923d	0.02668106
89	0xbb2e0b53	-0.0026557043
90	0x3c0001f4	0.007812966
91	0xbd4a1e81	-0.049345497
92	0x3b67c8e7	0.003536755
93	0xbbc4d1f0	-0.006006472
94	0xbcb7e4ee	-0.02244803
95	0x3d1b6849	0.03794125
96	0x3d305522	0.04304994
97	0x3d71c1e3	0.059022795
98	0x3c72622b	0.014793913
99	0xbbd3c2c2	-0.006462426
100	0x3cc6e35a	0.024278332
101	0x3bc92a10	0.0061390474
102	0xbcc1d73a	-0.023662198
103	0xbd56302b	-0.05229203
104	0x3b823d56	0.003974597
105	0x3ba01fd6	0.0048866076
106	0xbbb2d61c	-0.0054576527
107	0x3cb735b7	0.02236448
108	0x3d4bc1ed	0.04974549
109	0x3c8666cb	0.016406437
110	0x3d3c5a4e	0.04598456
111	0x3b1742ca	0.002308058
112	0x3d119376	0.03554102
113	0x3c839eec	0.01606699
114	0xbd9f9f9a	-0.077941135
115	0x3c14bf58	0.009078823
116	0x3d0cde61	0.034391765
117	0x3ba9b0d0	0.0051785484
118	0x3c7202d6	0.014771184
119	0xbc901dfb	-0.01759242
120	0xbc52feef	-0.012878164
121	0x3c0f3805	0.008741383
122	0xbce57f4f	-0.028014807
123	0xbd7ceab2	-0.06174726
124	0x3c1c3212	0.009533422
125	0xbd3dbd57	-0.046323147
126	0xbc9a7fbb	-0.018859735
127	0xbcd58de1	-0.02606863

network_body._body_endoder.seq_layers.2.weight f4 [128, 128]
0	0x3e27560f	0.16341422
1	0x3e2333fa	0.15937796
2	0xbd36596f	-0.044518884
3	0x3d9ea70b	0.07746705
4	0xbe0e2304	-0.13880545
5	0xbd772e08	-0.060346633
6	0x3d1747ab	0.036933582
7	0xbe028508	-0.1274606
8	0x3cbdb61c	0.023158126
9	0xbafeb4ed	-0.0019432582
10	0xbd2072f1	-0.039172117
11	0xbe00f175	-0.12592109
12	0x3d84151d	0.064493395
13	0xbd8e2514	-0.06940666
14	0x3add7452	0.0016895628
15	0xbe6d481f	-0.23172043
16	0x3e083cce	0.13304445
17	0xbd0e1e35	-0.034696776
18	0x3c90f2ec	0.01769396
19	0xbb2a29cc	-0.0025964854
20	0x3c53af3b	0.012920196
21	0x3e28f229	0.16498627
22	0x3d611bf4	0.0549583
23	0x3d2cc50e	0.042180113
24	0xbd71bde0	-0.05901897
25	0xbd4f4ffb	-0.050613385
26	0x3da3f4e7	0.08005696
27	0xbd9444d0	-0.072396874
28	0x3d651051	0.055923764
29	0x3bd646ef	0.0065392177
30	0x3d886b3f	0.066610806
31	0x3dba4abf	0.09096288
32	0xbd3c1a2c	-0.045923397
33	0x3c1b10c2	0.009464445
34	0x3c67bfc5	0.0141448425
35	0x3e011d14	0.12608749
36	0xbe8c01e9	-0.27345207
37	0xbae87fc7	-0.0017738276
38	0xbcf47ea2	-0.02984554
39	0x3de88575	0.1135358
40	0x3e4187ac	0.18899411
41	0x3de807bc	0.113296
42	0xbdb69d1a	-0.089166835
43	0x3d82df10	0.06390202
44	0x3df605ae	0.12012802
45	0x3cfe5324	0.031045504
46	0x3e018014	0.12646514
47	0xbcce22a9	-0.025163012
48	0xb8db2893	-0.00010450291
49	0xbd51d710	-0.05123049
50	0x3d883160	0.066500425
51	0xbb39ecaa	-0.0028369823
52	0x3da9e732	0.0829605
53	0x3dbc3c0b	0.0919114
54	0xbe02f90e	-0.1279032
55	0x3db179e8	0.0866583
56	0x3dca3adc	0.09874508
57	0xbbf3ec63	-0.007443951
58	0xbd0c0632	-0.034185596
59	0xbe9520a0	-0.29126453
60	0x3c6ecf3e	0.014575778
61	0x3e84ddf0	0.25950575
62	0xbdbdf156	-0.09274547
63	0x3e666721	0.22500278
64	0xbebca8d6	-0.36847562
65	0x3c7f5775	0.015584816
66	0x3e644e08	0.22295392
67	0x3d91f383	0.07126524
68	0xbb827f8b	-0.0039824895
69	0xbdb43b3f	-0.08800363
70	0xbd8081e1	-0.062747724
71	0xbe0ba045	-0.13635357
72	0x3da09eee	0.078428134
73	0x3d8528fd	0.065019585
74	0x3d955d72	0.07293214
75	0xbd30de31	-0.04318065
76	0xbcccdb52	-0.025006924
77	0x3dc07d33	0.0939888
78	0xbd95a456	-0.07306735
79	0x3e1693a0	0.14704752
80	0xbd53d71b	-0.051718812
81	0xbdf9c029	-0.12194855
82	0x3d07d30c	0.033160254
83	0xbdb1f0c8	-0.086885035
84	0xbd8b48b4	-0.068009764
85	0xbcc545ac	-0.024081074
86	0x3d90c259	0.07068319
87	0x3e5d3a05	0.21604164
88	0x3e0945b2	0.13405493
89	0x3c205fb5	0.009788443
90	0xbe0361fa	-0.12830344
91	0xbd9ff360	-0.07810092
92	0xbd99d414	-0.07511154
93	0xbddb7528	-0.10715705
94	0xbdef20ef	-0.116762035
95	0x3d46a278	0.048494786
96	0xbc6c4347	-0.014420337
97	0xbd63a759	-0.055579517
98	0xbd5552d0	-0.05208093
99	0xbd98a468	-0.07453233
100	0xbd61e411	-0.05514914
101	0x3d9f197e	0.07768534
102	0x3e426115	0.18982346
103	0x3e11660b	0.14199083
104	0x3e2346ff	0.15945052
105	0x3e5f5581	0.21809961
106	0x3cb9a6f6	0.022662621
107	0xbce4fbdf	-0.027952133
108	0x3d914285	0.07092766
109	0xbd181b7d	-0.03713559
110	0x3d9e4dfe	0.077297196
111	0xbda122fe	-0.07868002
112	0x3dd4ae0f	0.103847615
113	0xbd8c8576	-0.06861393
114	0xbdb5a1e5	-0.088687696
115	0xbddcb6fe	-0.107770905
116	0x3c746c11	0.014918343
117	0x3d0429af	0.032266315
118	0xbd933900	-0.07188606
119	0x3cf9368e	0.030421522
120	0x3d958a08	0.07301718
121	0xbe042e96	-0.12908396
122	0x3cc60846	0.024173867
123	0x3d5dad02	0.05412007
124	0xbd0d2f60	-0.03446901
125	0xbce4180b	-0.027843496
126	0x3d8c81b1	0.06860674
127	0x3b2e3eff	0.0026587842
128	0x3d3795d2	0.044820614
129	0xbd0c4a28	-0.03425041
130	0xbd7cdf2c	-0.06173627
131	0x3c835cc8	0.016035452
132	0x3e3db4f1	0.18526055
133	0xbe18a766	-0.14907607
134	0x3e343fd9	0.17602481
135	0x3d612d9c	0.054975137
136	0x3c6d8302	0.014496567
137	0x3dee465c	0.11634514
138	0x3d5cabc0	0.05387473
139	0x3db2a454	0.08722749
140	0xbdf04bad	-0.11733184
141	0xbd93e839	-0.07222027
142	0x3cdf73e4	0.02727694
143	0xbc56db9c	-0.013113882
144	0x3d7079e9	0.058710013
145	0x3d8ebdf5	0.06969825
146	0x3d92b981	0.07164288
147	0x3e8c03fc	0.2734679
148	0xbd21caaf	-0.039499935
149	0xbe1ab9ec	-0.15109986
150	0x3db64509	0.08899886
151	0xbe585141	-0.21124746
152	0x3dc5b5c4	0.0965381
153	0xbe0c2d4f	-0.13689159
154	0x3bc4fe89	0.0060117883
155	0xbe109a49	-0.14121355
156	0xbe536435	-0.20643695
157	0x3c0966e8	0.008386351
158	0x3be159a2	0.00687714
159	0xbe00cc00	-0.1257782
160	0xbe01aa80	-0.12662697
161	0xbd7e5e9c	-0.062101945
162	0xbde40f82	-0.111357704
163	0xbdeed715	-0.116621174
164	0xbdd5080b	-0.10401925
165	0x3e0abbc7	0.13548194
166	0x3c34ab6a	0.011027196
167	0x3dd83e87	0.10558801
168	0x3e3d70b6	0.18500027
169	0xbd26b3df	-0.040698882
170	0xbe3b08e2	-0.18265107
171	0xbbf01697	-0.0073269117
172	0x3e4c9d75	0.1998194
173	0xbdeb44e6	-0.11487751
174	0xbd85a5d4	-0.0652577
175	0x3db1dc9f	0.08684658
176	0xbb3c4965	-0.002873027
177	0xbe1b4a8d	-0.15165158
178	0xbe27431c	-0.16334194
179	0xbb1a21c8	-0.002351867
180	0xbd0f8b46	-0.03504493
181	0x3d18622d	0.037203003
182	0xbd1175f8	-0.035512894
183	0xbb28f30b	-0.002577963
184	0xbdbbdf10	-0.09173405
185	0x3e687e86	0.22704515
186	0xbd076466	-0.03305473
187	0x3e75e6f8	0.24013889
188	0xbd6f4f0c	-0.058424994
189	0xbb8e741e	-0.0043473383
190	0xbe11db4c	-0.14243811
191	0xbe368f23	-0.1782804
192	0xbc8c1bd2	-0.01710311
193	0x3d89bfbd	0.06726024
194	0x3d84004c	0.06445369
195	0xbc21eb39	-0.009882742
196	0xbe21df99	-0.15807952
197	0x3e12ce76	0.14336571
198	0x3db6d056	0.08926456
199	0x3d40b07d	0.047043312
200	0xbe3d8aae	-0.18509933
201	0x3dbf5606	0.093425795
202	0x3e61c399	0.22047271
203	0xbdd5a371	-0.104315646
204	0x3e50d565	0.20393904
205	0xbe0544d9	-0.13014545
206	0x3e31cdee	0.17363712
207	0xbe11272f	-0.14175104
208	0x3b96c95b	0.00460164
209	0x3e3567e3	0.17715411
210	0x3d6b7b21	0.05749047
211	0xbd893a3b	-0.0670056
212	0x3d494641	0.049139265
213	0x3dcf2af5	0.10115615
214	0x3ca76d97	0.020437999
215	0x3de1d4f2	0.11026944
216	0xbd526452	-0.051365204
217	0xbdeb9034	-0.11502114
218	0xbcc969e2	-0.024586622
219	0x3de10d06	0.10988812
220	0xbe5afa2a	-0.21384493
221	0xbdcfaa71	-0.10139931
222	0x3e0c0669	0.1367432
223	0x3d2fd3e4	0.042926684
224	0x3dba0ca5	0.09084443
225	0xbdbbdb3d	-0.09172676
226	0x3e40bbb3	0.18821602
227	0x3da9ee48	0.08297402
228	0xbddf81e1	-0.10913444
229	0x3d320cf6	0.04346939
230	0xbd845a44	-0.06462529
231	0xbc874197	-0.016510768
232	0xbe225988	-0.15854466
233	0xbe64d361	-0.2234626
234	0xba8f104e	-0.0010914893
235	0xbdac360c	-0.08408746
236	0xbe34e3cf	-0.17665027
237	0xbd544a97	-0.051828947
238	0x3e2c6384	0.16834837
239	0x3daa498b	0.083148085
240	0x3d5aa708	0.05338195
241	0x3df807b3	0.121108435
242	0xbc5a4725	-0.013322626
243	0x3de3dd30	0.111261725
244	0xbca47a08	-0.02007772
245	0xbe1ca636	-0.1529778
246	0x3c3b93eb	0.011448841
247	0xbd717879	-0.058952782
248	0xbd4f277d	-0.05057477
249	0x3e11ade8	0.14226496
250	0x3dab84a5	0.08374909
251	0x3dc63079	0.09677214
252	0xbc222bba	-0.009898121
253	0x3d846fd3	0.06466641
254	0xbe607e2c	-0.21923131
255	0x3c9fe64a	0.01951899

network_body._body_endoder.seq_layers.2.bias f4 [128]
0	0xbc592d94	-0.013255496
1	0xbd29dfac	-0.041473076
2	0x3d32336a	0.043506064
3	0x3ca6b9c0	0.020352244
4	0xbbb2c70e	-0.005455858
5	0xbcbc72d6	-0.023003977
6	0xbb6e92c6	-0.0036403402
7	0xbb64e493	-0.003492628
8	0x3cbd09cf	0.023075966
9	0x3be3ccbe	0.0069518974
10	0xbbe52021	-0.0069923555
11	0xbc6fdae7	-0.014639593
12	0xbc6c326b	-0.014416317
13	0xbceea1fb	-0.029129973
14	0x3b615fd0	0.0034389384
15	0x3c2d41e6	0.010574793
16	0x3bde7c67	0.0067897323
17	0xbce57ac1	-0.028012635
18	0x3bc6d7e0	0.006068215
19	0xbcc23eb4	-0.02371154
20	0xbd20c2d3	-0.0392483
21	0xbc0d5a9c	-0.00862756
22	0x3cc88fbd	0.024482602
23	0x3b6342b6	0.0034677214
24	0xbca6ba7d	-0.020352596
25	0xbcb6fb6b	-0.022336682
26	0x3c6ced78	0.014460914
27	0xbd19949d	-0.037495244
28	0xbd30963c	-0.043112025
29	0xbcf3374d	-0.029689455
30	0xbc95fcb4	-0.018308975
31	0xbccff0e3	-0.025383418
32	0xbd56bee9	-0.05242816
33	0xbc71fc26	-0.0147695895
34	0x3c16a1fd	0.009193894
35	0xbc3b602f	-0.011436506
36	0x3c770a50	0.015078142
37	0xbce41466	-0.027841758
38	0xbcba8a9d	-0.022771174
39	0xbabd92aa	-0.0014463265
40	0xbc9a0881	-0.018802883
41	0xbbed6dad	-0.0072457404
42	0x3d036287	0.032076385
43	0xbbfa9404	-0.0076470394
44	0x3b045dcb	0.0020197507
45	0xbc1f39a6	-0.009718334
46	0xbbf129c9	-0.0073597175
47	0x3d30d498	0.043171495
48	0xbd0831b5	-0.03325053
49	0x3c41aa66	0.011820411
50	0x3b8775d6	0.00413392
51	0xbc99210d	-0.018692518
52	0xbc758872	-0.014986144
53	0xbcab9606	-0.02094556
54	0x3ca3d8cf	0.020000843
55	0xbc69d9e9	-0.014273145
56	0x3bd456c5	0.0064800703
57	0xbc7259c8	-0.014791913
58	0xbc6ab764	-0.01432595
59	0x3c7a8f6f	0.015292986
60	0x3cb34cca	0.021887202
61	0x3c3cb798	0.011518382
62	0xbccd3d01	-0.025053503
63	0x3d21ba1c	0.03948413
64	0xbbbef483	-0.005827488
65	0xbb4d6abd	-0.0031344139
66	0x3c8b6336	0.01701508
67	0xbd06717d	-0.032823075
68	0xbcc372a6	-0.02385838
69	0xbcee4613	-0.029086148
70	0x3d13e621	0.03610814
71	0x398e7df0	0.0002717818
72	0x3c9a61c2	0.018845443
73	0x3ba2bd90	0.0049664453
74	0x3ca096d2	0.019603167
75	0xbcc5fcad	-0.024168337
76	0xbbae77f5	-0.0053243586
77	0xbcbd6e28	-0.023123816
78	0xbb9c1e32	-0.0047643417
79	0xbcc7bb25	-0.02438123
80	0x3baea828	0.0053301044
81	0xbcc60a5a	-0.024174858
82	0x3c120401	0.008912087
83	0xbcc5c51c	-0.02414184
84	0xbc605524	-0.013692174
85	0xbc8a5598	-0.016886517
86	0x3c1bc50a	0.009507427
87	0x3c49e791	0.012323276
88	0xbc8ca94f	-0.017170576
89	0xbb185bea	-0.0023248144
90	0xbcc536e5	-0.024074027
91	0xbcaad401	-0.020853044
92	0x3cb1ed3a	0.021719564
93	0xbc8829b9	-0.016621457
94	0xba9b67ec	-0.0011856533
95	0x3cf20152	0.029541645
96	0x3d1ec5d2	0.038762875
97	0xbcbba1d4	-0.022904314
98	0x3be804f3	0.007080668
99	0x3d1cf979	0.038323853
100	0x3b6acdc8	0.0035828222
101	0xbd369eb6	-0.044584952
102	0xbc6134ee	-0.01374553
103	0xbc22be7a	-0.009933108
104	0xbcc82eaa	-0.024436314
105	0xbba881be	-0.0051424196
106	0xbcbab8dd	-0.022793228
107	0x3b6a7089	0.0035772643
108	0x3cfb1537	0.030649764
109	0xbd0d55a0	-0.034505486
110	0x3bfdfbd3	0.007750967
111	0x3c84cf42	0.01621211
112	0xbcd1eb1d	-0.025624806
113	0xbcccbfdb	-0.024993828
114	0xbcfac43c	-0.03061115
115	0x394bfde4	0.0001945417
116	0x3c5f0d1e	0.013613967
117	0x3c8a7f69	0.016906457
118	0xbcd786ab	-0.026309332
119	0x3b086034	0.0020809295
120	0xbd193bef	-0.037410673
121	0x3c91fa4f	0.017819552
122	0xbd3b5f27	-0.04574504
123	0x3c9355b1	0.017985197
124	0x3cf2938f	0.029611377
125	0x3b5c2d95	0.0033596505
126	0x3c039978	0.008032195
127	0x3c8594e3	0.016306346

network_body._body_endoder.seq_layers.4.weight f4 [128, 128]
0	0x3e16987d	0.14706607
1	0xbe0fcbcc	-0.14042586
2	0x3cbc8a5a	0.02301519
3	0xbde94730	-0.11390531
4	0x3dfed041	0.12442065
5	0x3dfc0c99	0.1230709
6	0x3d3e3d1f	0.04644501
7	0x3dc82555	0.097727455
8	0xbda43e60	-0.080197096
9	0xbd979b61	-0.07402683
10	0x3e9da8a9	0.3079274
11	0xbc05093c	-0.008119877
12	0x3be5a63c	0.007008342
13	0x3c752674	0.014962781
14	0x3c0f2835	0.008737613
15	0xbe02ed5c	-0.12785858
16	0xbd9af92f	-0.07567059
17	0x3e079854	0.13241702
18	0xbbc59ee8	-0.006030906
19	0xbe1c5176	-0.1526545
20	0x3d7c3d81	0.061582092
21	0xbd53abaf	-0.051677402
22	0xbd8dc3fe	-0.06922148
23	0x3bfa0752	0.007630267
24	0x3e1ddb94	0.15415794
25	0x3cb7c1c4	0.022431262
26	0xbe3a2c71	-0.18181016
27	0xbd81c9b3	-0.06337299
28	0xbddc8a80	-0.10768604
29	0xbaa6c563	-0.0012723621
30	0xbcd1ca90	-0.025609285
31	0x3c2241d1	0.009903387
32	0xbabd6a78	-0.0014451286
33	0x3e0b1dc3	0.13585572
34	0xbe42cd65	-0.19023664
35	0x3d2ab478	0.041676015
36	0xbe8fe939	-0.28107622
37	0x3d6da842	0.05802179
38	0x3c3ec826	0.011644399
39	0x3e0a63e9	0.13514675
40	0x3df0d14e	0.11758672
41	0x3daece05	0.08535389
42	0xbe00fb07	-0.1259576
43	0x3dc54449	0.09632165
44	0xbca21f5b	-0.019790342
45	0xbd70f0f5	-0.058823545
46	0xbe1c915d	-0.15289827
47	0x3c1dce68	0.009631731
48	0x3dc26e1f	0.0949366
49	0xbe01e251	-0.12683989
50	0xbdeafa3e	-0.11473511
51	0xbdc1b119	-0.09457607
52	0x3d21e87c	0.039528355
53	0x3c75c74f	0.015001132
54	0xbc593202	-0.013256552
55	0x3d09c902	0.03363896
56	0xbcd38ec0	-0.025824904
57	0x3d600266	0.054689787
58	0xbd6865dd	-0.05673777
59	0x3c5e9d4c	0.013587307
60	0xbcbcd7ac	-0.02305206
61	0xbd50916f	-0.050919946
62	0x3cc95ad3	0.024579441
63	0xbdd4f820	-0.103988886
64	0xbada3fa7	-0.001665105
65	0xbd02b065	-0.031906504
66	0x3cb266b2	0.021777485
67	0x3d814c43	0.06313374
68	0xbdc43d65	-0.095820226
69	0x3da0f3b4	0.07858983
70	0xbd3fe79b	-0.046851736
71	0xbc6c370e	-0.014417423
72	0x39f19f09	0.00046085592
73	0xbe09cf4c	-0.13457984
74	0xba21c52c	-0.00061710435
75	0x3da1b235	0.078953184
76	0xbdb6dafa	-0.08928485
77	0xbdaaa603	-0.083324455
78	0xbd45e204	-0.04831125
79	0x3c68d310	0.0142104775
80	0xbe11fec3	-0.1425734
81	0xbd0a2799	-0.03372917
82	0xbce9e473	-0.028551316
83	0xbd34df15	-0.04415806
84	0x3d784ee0	0.060622096
85	0x3dc0d23f	0.09415101
86	0xbd5873ad	-0.052844692
87	0xbcf6cb81	-0.030126335
88	0xbcf10982	-0.029423479
89	0xbd4099c8	-0.047021657
90	0xbd8607be	-0.065444455
91	0xbc9ae0d2	-0.01890603
92	0x3db73f4f	0.08947622
93	0xbbe08e13	-0.006852874
94	0x3cd1a00e	0.025589015
95	0x3b3bc30a	0.0028650188
96	0xbcf660d9	-0.030075477
97	0x3d9bd286	0.076085135
98	0x3e2078c5	0.1567107
99	0x3d2ce06a	0.042206205
100	0x3d1d3053	0.038376164
101	0xbd14a2cc	-0.036288068
102	0xbe00bea8	-0.1257273
103	0xbd0c4e9b	-0.03425465
104	0x3e1b7573	0.15181522
105	0x3d1b4416	0.03790673
106	0x3e2635ce	0.16231462
107	0x3d3301b1	0.043702785
108	0xbd481b34	-0.048854068
109	0x3d2ff07d	0.042953957
110	0xbdaf2809	-0.08552558
111	0xbdeccca6	-0.11562471
112	0x3e06954b	0.13142888
113	0x3e32d3f2	0.17463663
114	0xbd952005	-0.07281498
115	0xbd40120a	-0.046892203
116	0xbe0c946f	-0.13728498
117	0xbe443925	-0.19162424
118	0xbd502d70	-0.050824583
119	0xbd6420dd	-0.055695403
120	0xbd015309	-0.03157333
121	0xbc9ec0e4	-0.019379087
122	0x3cb4f858	0.022091076
123	0x3b817149	0.003950272
124	0xbe066ff2	-0.13128641
125	0xbe01a8df	-0.12662075
126	0xbdce76ec	-0.10081276
127	0xbd70bd47	-0.05877426
128	0x3d835024	0.0641177
129	0x3d7b4543	0.06134535
130	0x3d3dafd2	0.046310253
131	0xbd30cad0	-0.043162167
132	0xbc8750f5	-0.016518096
133	0xba398873	-0.00070775225
134	0xbd0013d7	-0.03126892
135	0x3d91b787	0.07115083
136	0x3d80f3da	0.06296511
137	0xbd88cbb1	-0.06679476
138	0x3d1c0d63	0.038098704
139	0x3cd8d60d	0.026469255
140	0x3d0935ce	0.033498578
141	0x3d795f85	0.06088211
142	0x3c85dd71	0.016340943
143	0xbd89124a	-0.066929415
144	0x3d8015ae	0.06254135
145	0xbe613b6b	-0.21995322
146	0x3dffb624	0.124859124
147	0xbc940035	-0.018066505
148	0x3e31c623	0.1736074
149	0xbbdcb698	-0.006735634
150	0xbd8450be	-0.06460713
151	0x3d8f31b3	0.06991901
152	0x3de260b9	0.11053605
153	0xbd736a08	-0.05942729
154	0x3cdc02a9	0.026856737
155	0x3d1570a4	0.036484376
156	0x3d74fff4	0.05981441
157	0xbd66dbbd	-0.056361903
158	0x3de290b7	0.110627584
159	0x3d814f18	0.06313914
160	0x3d0b0e6c	0.0339493
161	0x3d40ecb5	0.04710074
162	0xbe0af455	-0.13569768
163	0xbda1c19a	-0.07898255
164	0x3cd37df2	0.025816891
165	0xbcebb188	-0.028771177
166	0xbe365e85	-0.17809494
167	0x3d218974	0.039437726
168	0xbce94df5	-0.028479556
169	0xbd47357d	-0.048634995
170	0x3e17f51f	0.148396
171	0xbb0794d8	-0.0020688083
172	0xbd7d2772	-0.061805196
173	0xbdb1ff00	-0.086912155
174	0x3e0e51ba	0.13898364
175	0x3d41a1c0	0.047273397
176	0x3e0a610d	0.13513584
177	0xbc720f34	-0.0147741325
178	0x3de05b63	0.10954931
179	0x3d83905d	0.064240195
180	0xbbff0654	-0.007782737
181	0xbd840d82	-0.06447889
182	0xb9c393b2	-0.0003730334
183	0xbe550a8f	-0.20804809
184	0xbdf73ce8	-0.12072164
185	0xbcc6d284	-0.024270304
186	0x3d8f1781	0.06986905
187	0x3ccf301b	0.025291493
188	0xbb7273d3	-0.0036995306
189	0xbdca85ea	-0.09888823
190	0xbd632055	-0.055450756
191	0xbc82f1a6	-0.015984368
192	0x3db768d9	0.08955545
193	0xbdb21c57	-0.08696812
194	0x3c5e9333	0.0135849
195	0x3e49bbe6	0.19700584
196	0xbb3a7ee3	-0.0028456978
197	0xbbd8dea2	-0.006618337
198	0xbc35170e	-0.01105286
199	0xbd9398c4	-0.07206872
200	0xbd6e2425	-0.05813994
201	0x3d1f44ec	0.03888409
202	0x3e5dccec	0.21660203
203	0x3d14e6b6	0.036352836
204	0x3dcbb27d	0.09946153
205	0x3bab12df	0.0052207555
206	0x3ca31e47	0.019911898
207	0xbdcfb217	-0.1014139
208	0xbcde3bdc	-0.027128153
209	0x3c7df95d	0.015501347
210	0xbe141d82	-0.14464381
211	0xbe2f4bd2	-0.17118767
212	0xbd8c0741	-0.06837321
213	0x3d15e819	0.0365983
214	0xbe17fa91	-0.14841677
215	0xbdb8fad1	-0.090322144
216	0x3d7eb0fa	0.062180497
217	0x3d18b0ea	0.037278093
218	0xbd1bd50f	-0.038044985
219	0x3d54781c	0.051872358
220	0x3c3d6a60	0.011561006
221	0xbc4c3297	-0.012463233
222	0xbe43bda6	-0.19115314
223	0x3e01fe38	0.12694633
224	0x3c73420d	0.014847291
225	0x3d904bc3	0.070457004
226	0x3c5b7d62	0.013396593
227	0x3cdb0ddf	0.026740013
228	0xbe4b680f	-0.19863914
229	0xbd419b38	-0.04726717
230	0xbda166df	-0.07880949
231	0xbe48fe0f	-0.19628166
232	0xbe2efe5a	-0.17089215
233	0x3ce69610	0.028147727
234	0xbd4e234f	-0.05032664
235	0x3d9800b3	0.07422008
236	0x3d1c9e56	0.03823694
237	0x3dcb5378	0.0992803
238	0xbd3d1637	-0.046163764
239	0x3ca1b67a	0.019740332
240	0xbde12df7	-0.10995095
241	0x3d3723eb	0.04471199
242	0x3abd4516	0.0014440145
243	0x3ba9ef55	0.0051860013
244	0x3bbd4b38	0.005776789
245	0xbd5e9b0e	-0.05434709
246	0xbd99a9e5	-0.07503108
247	0xbd249fdd	-0.04019152
248	0xbdeccae9	-0.115621395
249	0xbe06da5c	-0.13169235
250	0x3d4c9cf9	0.04995439
251	0x3d4b22ee	0.04959386
252	0x3bac4cde	0.0052581867
253	0x3a825c22	0.0009945671
254	0x3d8cf6f9	0.06883044
255	0x3da764f7	0.081735544

network_body._body_endoder.seq_layers.4.bias f4 [128]
0	0xbc9d2921	-0.01918465
1	0x3c8b5d0f	0.017012147
2	0x3c66852a	0.014069835
3	0xb9d3f5ed	-0.00040428285
4	0x3bda6d81	0.006665886
5	0xbb0a4353	-0.0021097257
6	0xbc41af7c	-0.011821624
7	0x390fdb34	0.00013719202
8	0xbcab2a5b	-0.02089422
9	0xbca8528f	-0.02054718
10	0xbd05edb1	-0.032697383
11	0xbc8362d5	-0.016038338
12	0xbc183788	-0.009290583
13	0xbb87f8c2	-0.0041495273
14	0xbcad86e3	-0.021182483
15	0xbc4258dc	-0.011862006
16	0xbc1738b0	-0.009229824
17	0x3b0924d8	0.0020926502
18	0xbccebc2e	-0.025236215
19	0xbc31974d	-0.010839296
20	0xbbb3eb03	-0.005490662
21	0xbc69a9f3	-0.01426171
22	0xbc4cb656	-0.012494644
23	0x3a71d7b3	0.0009225562
24	0xbc91586e	-0.017742362
25	0xbc9c9268	-0.01911278
26	0xbc7154e3	-0.014729711
27	0x3cc476f4	0.023982503
28	0x3c7477cb	0.014921139
29	0xbcf6f01d	-0.030143792
30	0x3c68f44f	0.014218404
31	0x3c17f782	0.009275319
32	0x3bacea39	0.005276945
33	0xbcc76afc	-0.024343006
34	0xbc2bf672	-0.010495769
35	0xbc994f0f	-0.018714456
36	0xbccc12d1	-0.024911316
37	0x3c9ba6aa	0.01900037
38	0x3ccac6dc	0.024753027
39	0xbce00767	-0.02734728
40	0xbc24393d	-0.010023412
41	0x3c9f8b93	0.019475734
42	0xbd0cc2f0	-0.034365594
43	0x3a0629d3	0.00051179266
44	0x3b316bb9	0.0027072264
45	0xbb9db98d	-0.004813379
46	0xbd1ca31c	-0.03824149
47	0xbc89d74c	-0.016826294
48	0x3adc7547	0.0016819619
49	0x3c518392	0.012787716
50	0xbb6334b8	-0.0034668874
51	0xbb83d0cb	-0.004022693
52	0xbb29d167	-0.0025912167
53	0xbc682a42	-0.014170231
54	0xbcbe55a5	-0.023234198
55	0xbc50f562	-0.012753816
56	0xbc1050ac	-0.008808296
57	0x3bcfd1fa	0.00634217
58	0x3bfe9e13	0.0077703088
59	0xbcd52434	-0.02601824
60	0xbca30abb	-0.019902578
61	0xbce8f9aa	-0.028439362
62	0xbd09942f	-0.033588585
63	0xbc0f41bd	-0.008743701
64	0x3c4a6e62	0.012355419
65	0x3b3b4615	0.0028575708
66	0xbd3868b1	-0.045021717
67	0xbc7e7082	-0.015529754
68	0xbc49772e	-0.012296481
69	0xbcbf4fa8	-0.023353413
70	0xbcb1ce97	-0.021704955
71	0xbc25a042	-0.010109009
72	0xbb727dac	-0.0037001176
73	0x3a443c5f	0.00074858026
74	0xbb9b28a3	-0.004735069
75	0x3beaceb2	0.0071657533
76	0x3c0faee6	0.008769726
77	0xbcdfe37a	-0.027330149
78	0xbba5227c	-0.0050395112
79	0x3c8557cb	0.016277215
80	0xbd3ec4b4	-0.04657431
81	0xbcc66660	-0.024218738
82	0xbce39328	-0.02778013
83	0x3b64c964	0.0034910077
84	0x3bfb4d40	0.007669121
85	0xbcd626db	-0.026141575
86	0xbb02f7a8	-0.001998404
87	0xba94c68b	-0.0011350674
88	0x3c956cf0	0.018240422
89	0xbb2232d7	-0.0024749541
90	0xbcd3c1eb	-0.025849303
91	0x3cbe4a8b	0.023228904
92	0xbc84ac18	-0.016195342
93	0xbca3c043	-0.019989138
94	0x3cd84d51	0.026404055
95	0x3ca5b380	0.020227194
96	0xbd00653d	-0.03134655
97	0x3c18d302	0.009327652
98	0x3b76b23a	0.0037642852
99	0xbc11b3d6	-0.008892974
100	0x3ae2781e	0.0017278229
101	0xbcbdfa27	-0.023190571
102	0x3c8ea6a9	0.017413454
103	0xbb3817b4	-0.00280903
104	0xbd06d0d5	-0.032914
105	0x3c632c89	0.0138655985
106	0x3cbcc999	0.023045348
107	0xbc9b6a88	-0.018971696
108	0x3c1e4507	0.009660012
109	0x3ab211da	0.0013585642
110	0x3cf0c0d4	0.029388823
111	0x3c7f02b3	0.015564608
112	0x3a54c5fc	0.000811666
113	0x3cfc2190	0.030777723
114	0x3bd8a036	0.0066108955
115	0xbc940922	-0.018070761
116	0xbcef98d2	-0.029247675
117	0xbcfcc213	-0.03085426
118	0xbcff9f24	-0.031203814
119	0x3b045e0e	0.0020197663
120	0xbc4db6de	-0.012555806
121	0xbcc78d88	-0.02435948
122	0x3b9949fb	0.0046780086
123	0xbce65fe8	-0.028121904
124	0x3b216750	0.002462823
125	0xbc3e5a71	-0.011618243
126	0xbcea9a2e	-0.028637972
127	0x3c17a32b	0.009255211

action_model._continuous_distribution.log_sigma f4 [1, 2]
0	0xbd7e2e41	-0.06205583
1	0xbd940e4f	-0.07229292

action_model._continuous_distribution.mu.weight f4 [2, 128]
0	0x3d424563	0.047429454
1	0xbb148f33	-0.0022668361
2	0x3da89288	0.082310736
3	0x3d93673f	0.07197427
4	0x3b02398c	0.0019870726
5	0x3d481554	0.048848465
6	0xbd1217e4	-0.035667315
7	0xbd5d6450	-0.054050744
8	0x3c6904dc	0.01422235
9	0xbd7e72e8	-0.062121302
10	0x3b11f8ac	0.0022273464
11	0xbd24ca5b	-0.040232044
12	0x3cb8007b	0.022461167
13	0x3a0df561	0.00054152875
14	0xbd5138ac	-0.051079437
15	0xbc1904f5	-0.009339561
16	0xbc39abe7	-0.011332489
17	0x3d6a4f01	0.05720425
18	0xbd365901	-0.044518474
19	0x3da727e5	0.08161906
20	0xbd6f695c	-0.058450088
21	0x3cb1024b	0.021607539
22	0x3d77a131	0.06045646
23	0x3dac9bbc	0.084281415
24	0xbb8acb74	-0.0042356793
25	0x3d36bb5a	0.044612266
26	0x3b0c8ff7	0.0021448114
27	0x3b1196cb	0.0022215124
28	0x3d22d0cf	0.039749917
29	0x3c88fbe5	0.016721675
30	0x3ba19fcf	0.0049323807
31	0xbb05082a	-0.0020299056
32	0x3c3ad14d	0.01140244
33	0x3a527522	0.00080283184
34	0xbb03732f	-0.0020057668
35	0x3a2bcfb8	0.0006554085
36	0xbbb17a3d	-0.0054161833
37	0xbdbbf381	-0.09177304
38	0x3b7f1de5	0.003892773
39	0xbd0bb7ff	-0.03411102
40	0xbba1528f	-0.004923172
41	0x3db03d1c	0.08605406
42	0xbbbd173d	-0.0057705925
43	0xbb450faa	-0.003006915
44	0x3d4e8136	0.050416194
45	0x3a982304	0.0011607115
46	0x3aedf59b	0.0018154861
47	0x3807d238	3.238229e-05
48	0x370519f0	7.933457e-06
49	0xbd0988dc	-0.033577785
50	0xbd47870a	-0.048712768
51	0x3ac562f1	0.0015059394
52	0xbd95f7fe	-0.073226914
53	0x3ba9fe46	0.0051877825
54	0x3c7d9735	0.015477945
55	0xba5fe21f	-0.00085404696
56	0xbdd51de0	-0.10406089
57	0xbb494007	-0.003070833
58	0x3aec8a8a	0.0018046659
59	0x3bde2177	0.0067788917
60	0x3d10eef4	0.035384133
61	0xbb2ce43c	-0.0026381155
62	0xbc126c2a	-0.008936921
63	0xbd84fd31	-0.06493605
64	0x3d413791	0.047172133
65	0x392d0192	0.0001649915
66	0x3d0f7ac4	0.035029188
67	0x3c8d28ab	0.017231306
68	0x3d4876d5	0.048941452
69	0xba12fc7d	-0.00056070817
70	0x3c002c3c	0.007823046
71	0xbd282e98	-0.04106006
72	0xbd6b01b1	-0.05737466
73	0x3db0ff13	0.086424015
74	0xbd85af3b	-0.06527563
75	0x3d2ba033	0.041900825
76	0xbae762d8	-0.0017653359
77	0xbd5645f5	-0.05231281
78	0xbccb3814	-0.024807014
79	0xbb07c327	-0.0020715685
80	0x3b1b1f58	0.0023669805
81	0x3b6cb423	0.0036118112
82	0x3a962e8b	0.0011457963
83	0xbdbbfaec	-0.09178719
84	0xbab35017	-0.0013680485
85	0xbb8bfe92	-0.0042722905
86	0xba894314	-0.0010472261
87	0xba443bf0	-0.0007485738
88	0x3d957853	0.07298341
89	0xbab9900d	-0.001415731
90	0xbafb9340	-0.0019193664
91	0xbddfbfc8	-0.10925251
92	0xbb0126cc	-0.0019706963
93	0xbafdde06	-0.0019368536
94	0x3d574cff	0.052563664
95	0xbdd7ab95	-0.105307736
96	0x3ce6c084	0.02816797
97	0x3c23dbd3	0.010001141
98	0x3b2d1364	0.0026409263
99	0xbaa99427	-0.001293783
100	0xbd1d5ac7	-0.03841665
101	0xba36852b	-0.00069625926
102	0x3a9014c0	0.0010992512
103	0x3d755148	0.05989197
104	0xbd399988	-0.045312434
105	0x3d5cc44c	0.05389814
106	0x3d15abc5	0.036540765
107	0xbc936a06	-0.017994892
108	0x3d85e312	0.06537451
109	0xbd8952d1	-0.06705249
110	0x3ced331d	0.028955037
111	0x3db7dbe1	0.089774854
112	0xbd524ab9	-0.051340792
113	0x3b009e87	0.001962574
114	0x3d7596d3	0.05995829
115	0xbb851f0e	-0.00406254
116	0x3c1b1fb4	0.009468008
117	0xba9327b1	-0.0011227039
118	0xbc3e95a2	-0.011632355
119	0xbdb65605	-0.08903126
120	0xba4735d2	-0.00075992674
121	0xbd5531d7	-0.052049484
122	0x3caf57a3	0.021404093
123	0x3d228fb5	0.03968783
124	0xbac5bdb7	-0.0015086447
125	0xbd546226	-0.051851414
126	0xbb020d68	-0.0019844417
127	0x3c302925	0.010751997
128	0xbd556c8f	-0.052105483
129	0x3bdc8455	0.0067296424
130	0x3d348b43	0.044078123
131	0x3c4817ee	0.0122127365
132	0xb73387e0	-1.0700867e-05
133	0x3d07aa94	0.03312166
134	0xba513bf7	-0.0007981653
135	0x3d559566	0.05214443
136	0xbd8b212a	-0.06793435
137	0xbcf6ed41	-0.030142428
138	0xbac587ea	-0.0015070413
139	0xbd074bac	-0.03303115
140	0x3c77bced	0.015120727
141	0xbb7d2b83	-0.0038630671
142	0xbc0b4ac5	-0.008501713
143	0xbacd4377	-0.0015660365
144	0xbdab6bd5	-0.08370177
145	0x3d39ae11	0.04533202
146	0xbb4a3397	-0.0030853504
147	0xbd9a030a	-0.07520111
148	0x3d07980c	0.033103988
149	0xbb0763d7	-0.0020658874
150	0x3c577b71	0.013151989
151	0xb942f902	-0.00018594044
152	0xbd81535c	-0.06314728
153	0x3bb1e970	0.0054294392
154	0xbd8aa79b	-0.067702495
155	0x3b488c86	0.0030601337
156	0x3d926478	0.07148069
157	0xbbb504aa	-0.0055242376
158	0x3c476804	0.012170795
159	0xbae56d13	-0.001750382
160	0x3d45fc0b	0.04833607
161	0x3b7f8ebb	0.0038994986
162	0xba9d7da2	-0.0012015591
163	0xbb11923e	-0.0022212411
164	0xbd3e2c67	-0.046429064
165	0x3d5a7c69	0.053341303
166	0x3b3eb423	0.002909907
167	0xbc088db7	-0.008334569
168	0xba19f856	-0.0005873492
169	0x3bc4a4a8	0.006001074
170	0xbd37c886	-0.04486897
171	0x3b1347eb	0.0022473286
172	0x3bb50d82	0.005525292
173	0xbb8be02f	-0.004268668
174	0x3bc48566	0.0059973476
175	0xbb959b88	-0.00456566
176	0x3adc672f	0.0016815419
177	0x3d948c5c	0.07253334
178	0xbd8c5c44	-0.06853536
179	0x3b8003d4	0.0039067063
180	0xbda02cc6	-0.0782104
181	0xbd9edb82	-0.077567115
182	0xbc9a7cab	-0.018858274
183	0xba73be46	-0.00092980673
184	0xbcb8b5ca	-0.022547621
185	0x3aa040ce	0.0012226345
186	0x3bb60a0d	0.0055553974
187	0xbb13946f	-0.0022518893
188	0xbbabb582	-0.0052401433
189	0x3acb2991	0.0015500059
190	0xbc8fdd49	-0.017561572
191	0xbd72b5f2	-0.059255548
192	0x3d545f46	0.051848672
193	0xb9cc475b	-0.00038963076
194	0xbc9c15c7	-0.019053353
195	0xbc7cc5a0	-0.015427977
196	0xbda66a6b	-0.08125766
197	0x3af53550	0.0018707905
198	0x3af9e234	0.0019064606
199	0xbd98574e	-0.07438527
200	0x3c333b78	0.010939471
201	0xbce5635b	-0.028001478
202	0x3ca036d5	0.019557396
203	0x3ce3aa40	0.027791142
204	0xbb0e52c4	-0.0021716813
205	0xbcc2a743	-0.023761397
206	0xbd737f1f	-0.059447404
207	0xba3c22d7	-0.00071768224
208	0xbbaf769f	-0.005354717
209	0x3adc9b9d	0.0016831044
210	0x3b2cc982	0.0026365225
211	0x3d2fe5bd	0.042943705
212	0xba967bb2	-0.0011480956
213	0xbd00e84a	-0.031471528
214	0x3aac41ea	0.0013142203
215	0x3ab242e4	0.0013600257
216	0x3d4dd13c	0.05024837
217	0xba03151b	-0.00050003984
218	0xba22498d	-0.00061907695
219	0x3d25d1b3	0.040483188
220	0x3b9e8ef4	0.0048388187
221	0xba4529f2	-0.0007521204
222	0x3da67390	0.081275105
223	0x3d9222fc	0.07135579
224	0xbd144d1b	-0.036206346
225	0x3c169f25	0.009193216
226	0xbb6b2b4f	-0.0035883968
227	0xba01748b	-0.0004938326
228	0xbdb97d63	-0.09057119
229	0x3b562857	0.0032677853
230	0xbb3fc68d	-0.0029262633
231	0x3d13f9c6	0.036126874
232	0xbcfebfbe	-0.03109729
233	0x3da7b290	0.08188355
234	0x3da25bf0	0.07927692
235	0xbc526143	-0.012840572
236	0x3d7543cf	0.05987912
237	0x3d787518	0.060658544
238	0x3dcd09f4	0.10011664
239	0x3d237f0d	0.039916087
240	0xbd92b2c2	-0.071630016
241	0x3b0baebe	0.0021313871
242	0x3cfd9197	0.030953212
243	0xbd3632bf	-0.04448199
244	0xbcc500d5	-0.024048248
245	0xbbddfee9	-0.0067747724
246	0xbc670941	-0.014101327
247	0x3ce681a2	0.028137986
248	0x3bbbc8a2	0.0057307044
249	0xbcf84506	-0.03030635
250	0x3d005b90	0.03133732
251	0xbce82274	-0.028336741
252	0x3a2f6261	0.000669038
253	0xbd2289b0	-0.03968209
254	0x3bd26d60	0.00642173
255	0x3d793b1e	0.060847394

action_model._continuous_distribution.mu.bias f4 [2]
0	0x3b94cde0	0.004541144
1	0x3c99acd5	0.01875917
