Assets/ML-Agents/Training Files/results/9roads_imitation_2layers_MonzaNewChkptReachRwd/VehicleAgent/VehicleAgent-9999794.pt (torch, 628151 bytes, 49 tensors)

network_body._body_endoder.seq_layers.0.weight f4 [128, 38]
-0.2514757 -0.046618536 0.15935433 -0.4359258 0.09128124 -0.013212631 -0.16672081 -0.26071924
0.21739751 0.05688754 -0.097956575 0.062309843 -0.010831534 0.20510738 -0.3059179 -0.43085036
0.035003565 -0.08810259 0.1449053 0.14117901 -0.09763327 -0.015225058 0.1736575 0.07032768
0.012962991 0.23177624 -0.113619 0.11902079 -0.110463195 -0.18950331 -0.039933577 -0.06664059
-0.1546006 0.015693838 -0.04790266 -0.04133361 -0.20238438 -0.105357446 -0.36221075 0.029603103
0.15170066 -0.15002336 -0.06765014 0.15885329 0.09308908 0.40653014 -0.015613748 0.43974194
-0.083505176 -0.08780836 0.15728919 0.10075235 -0.17337032 -0.32851046 -0.17907925 -0.05963696
0.306847 -0.095068194 0.09593981 0.03343016 0.047194645 0.0455223 -0.013635813 0.1317958
0.19596599 -0.070263505 0.089129336 0.026027676 -0.06860794 0.15107746 0.29405388 -0.05521027
-0.3832057 -0.17203246 -0.1725527 0.28204036 0.34053403 -0.41406497 -0.40832123 -0.076020226
-0.42926744 0.109016374 0.08632921 -0.03849288 -0.42702678 -0.32469782 0.12915514 0.007938096
-0.04834554 0.19326182 -0.2958591 0.1884031 0.39132434 0.027069375 0.10994932 0.19029342
-0.41655412 0.07935456 -0.24692729 0.04620486 0.37751538 0.29454234 -0.25432628 -0.042025283
0.14023517 0.28788474 -0.0835822 -0.07180435 -0.20780933 0.3434047 -0.12842515 0.15326153
-0.12506211 0.008110437 0.0379056 0.06952172 0.16356255 -0.28684124 0.22018026 0.17669383
-0.029637204 -0.040058076 0.09550245 -0.07543083 0.010818252 0.10425646 0.22941783 0.16483574
0.024241028 0.11341595 -0.069976404 -0.069610454 0.03913213 0.25619006 -0.22649015 -0.022069955
-0.072831936 0.050553914 -0.28938502 -0.22233857 -0.16120516 0.12750372 -0.19431713 0.21231355
-0.09951581 -0.08125605 0.13421194 0.1469155 -0.43856862 0.016629005 -0.10632786 -0.0021549729
-0.533398 -0.076618984 -0.02724839 0.25156575 -0.17213942 0.12282756 0.16307119 -0.69079804
0.13376369 -0.031553987 0.15018566 0.052660186 0.029515581 0.075766176 -0.13956311 -0.11020093
-0.039646085 -0.061504364 0.5473781 0.09359256 -0.12827577 -0.047268115 0.10860491 -0.14854798
0.29333678 0.13692166 0.020427672 -0.08824161 -0.049840588 -0.089810066 -0.29379076 -0.25764972
-0.28668982 0.16197954 0.1610745 0.05157415 -0.26479325 -0.060652003 0.1908445 0.20300104
0.37255338 0.19613974 -0.12198739 -0.025943324 -0.08511513 0.09270843 -0.085732944 0.0295223
-0.2528661 -0.18237759 -0.07770299 0.19813496 0.02001552 0.19882615 -0.087498344 -0.1034453
-0.2629498 -0.014172597 -0.12381019 0.22249971 -0.09897958 -0.36778513 0.033731572 0.08841323
-0.14309128 0.10139952 0.045605473 0.016205467 -0.0830958 -0.038365554 -0.41566753 0.0504313
0.13498391 -0.015245202 -0.1252292 0.012614656 -0.18969451 0.012800732 0.34178844 0.097426005
0.029106066 0.22175364 0.03185386 0.08510016 0.00014208618 0.16200641 0.009822647 0.15300375
0.06202411 0.04578659 -0.36571497 -0.00034224533 -0.0026583753 -0.24075025 0.011176523 -0.041882463
0.038978856 0.11502854 0.22291975 0.060441658 -0.17686476 -0.12729514 -0.16425289 -0.15027787
00000000: 6cc1 80be 14f3 3ebd c82d 233e ab31 dfbe
00000010: a9f1 ba3d cb79 58bc dcb8 2abe fe7c 85be
00000020: 749d 5e3e e902 693d 759d c8bd 9b38 7f3d
00000030: bf76 31bc ab07 523e 45a1 9cbe 6b98 dcbe
00000040: e65f 0f3d 216f b4bd 0e62 143e 3b91 103e
00000050: f4f3 c7bd 8672 79bc 46d3 313e f507 903d
00000060: ba62 543c c056 6d3e 14b1 e8bd 2cc1 f33d
00000070: 873a e2bd 280d 42be 6491 23bd dd7a 88bd
00000080: 9f4f 1ebe 5d90 803c 9435 44bd 6e4d 29bd
00000090: da3d 4fbe a5c5 d7bd b073 b9be 3582 f23c
000000a0: 6b57 1b3e b99f 19be 288c 8abd 70aa 223e
000000b0: 7da5 be3d b824 d03e ced0 7fbc db25 e13e
000000c0: c304 abbd dfd4 b3bd 6b10 213e 4057 ce3d
000000d0: fd87 31be 8632 a8be 8d60 37be e345 74bd
000000e0: 0d1b 9d3e 1db3 c2bd 177c c43d 10ee 083d
000000f0: 2c4f 413d 9775 3a3d bf68 5fbc 7af5 063e
00000100: 4fab 483e 50e6 8fbd 7189 b63d fe37 d53c
00000110: 5282 8cbd 0db4 1a3e 3b8e 963e 2a24 62bd
00000120: 8a33 c4be 4729 30be a8b1 30be 9867 903e
00000130: 7a5a ae3e 5300 d4be 7b0f d1be 7eb0 9bbd
00000140: f1c8 dbbe fa43 df3d 5ecd b03d b6aa 1dbd
00000150: 41a3 dabe cb3e a6be 3f41 043e ca0e 023c
00000160: f905 46bd 6de6 453e d87a 97be beec 403e
00000170: aa5b c83e 98c0 dd3c 1c2d e13d 47dc 423e
00000180: 9546 d5be a584 a23d 82da 7cbe 4f41 3d3d
00000190: b249 c13e 41ce 963e 0e37 82be b422 2cbd
000001a0: cf99 0f3e a165 933e 252d abbd 290e 93bd
000001b0: f8cb 54be bed2 af3e e281 03be 97f0 1c3e
000001c0: 4810 00be a3e1 043c e742 1b3d 6761 8e3d
000001d0: f17c 273e dbdc 92be ef76 613e 3aef 343e
000001e0: b9c9 f2bc f013 24bd ca96 c33d 7b7b 9abd
000001f0: 0a3f 313c 6984 d53d 82ec 6a3e b3ca 283e
00000200: 1f95 c63c 9f46 e83d ca4f 8fbd ed8f 8ebd
00000210: 0349 203d 582b 833e 09ed 67be 0dcc b4bc
00000220: e928 95bd 9f11 4f3d 462a 94be b9ac 63be
00000230: f712 25be 5690 023e 12fb 46be b968 593e
00000240: f2ce cbbd 9269 a6bd db6e 093e 0471 163e
00000250: 118c e0be 8d39 883c 6cc2 d9bd 723a 0dbb
00000260: c58c 08bf 6aea 9cbd 0438 dfbc 3acd 803e
00000270: 5145 30be 048d fb3d 22fc 263e 24d8 30bf
00000280: 59f9 083e c13e 01bd 45ca 193e 35b2 573d
00000290: a9ca f13c 4c2b 9b3d a2e9 0ebe 06b1 e1bd
000002a0: ef63 22bd 00ec 7bbd f920 0c3f 75ad bf3d
000002b0: b95a 03be 369c 41bd 406c de3d f61c 18be
000002c0: 3d30 963e 3135 0c3e ef57 a73c 04b8 b4bd
000002d0: a525 4cbd 57ee b7bd be6b 96be aaea 83be
000002e0: 02c9 92be f7dd 253e b7f0 243e 6a3f 533d
000002f0: fb92 87be 3c6e 78bd be6c 433e 81df 4f3e
00000300: 51bf be3e dbd8 483e 86d4 f9bd 1887 d4bc
00000310: d750 aebd ebdd bd3d c194 afbd c0d8 f13c
00000320: aa77 81be 31c1 3abe bf22 9fbd e4e3 4a3e
00000330: 96f7 a33c 1599 4b3e 5532 b3bd 21db d3bd
00000340: 5ba1 86be 2e34 68bc 3290 fdbd f7d6 633e
00000350: ceb5 cabd 554e bcbe 1e2a 0a3d ff11 b53d
00000360: 8586 12be 8daa cf3d cecc 3a3d 54c1 843c
00000370: 212e aabd 3325 1dbd 60d2 d4be 0d91 4e3d
00000380: 3939 0a3e 03c7 79bc 153c 00be b4ad 4e3c
00000390: 473f 42be 29ba 513c e5fe ae3e 4987 c73d
000003a0: d86f ee3c 6313 633e 3179 023d fe48 ae3d
000003b0: f8fc 1439 02e5 253e 2bef 203c 04ad 1c3e
000003c0: fe0c 7e3d b88a 3b3d fe3e bbbe 646f b3b9
000003d0: 2338 2ebb 3c87 76be bc1d 373c f28c 2bbd
000003e0: 4ba8 1f3d 1594 eb3d 1345 643e ac91 773d
000003f0: 091c 35be a859 02be e931 28be 71e2 19be

network_body._body_endoder.seq_layers.0.bias f4 [128]
0.0026569422 0.030048905 -0.024369273 0.039974097 -0.11567238 -0.058747455 -0.023167763 0.0077152033
-0.04116173 0.14509098 0.028314719 0.07643778 -0.0543856 -0.07466468 -0.0070923697 0.12369498
-0.053934187 0.03692304 -0.13966899 0.16342673 0.049616344 0.15250601 -0.04539297 0.04298216
0.04734944 -0.0053785257 0.10058887 -0.023679568 0.008887116 -0.1296275 0.06730528 -0.06515209
0.14293927 0.015175725 0.110406615 -0.14367874 -0.10950405 -0.0018092182 -0.09253555 -0.047530472
0.074736655 -0.12516457 0.13098684 0.106156826 0.073109284 0.05106635 0.14052653 -0.14397682
-0.107774794 0.1361333 -0.13604824 -0.035063624 -0.04778331 0.083702736 0.050837375 -0.04687917
0.09291478 0.05121656 0.065160185 -0.08649153 -0.12431442 -0.029979572 -0.066075906 0.04964842
-0.0736033 0.053137854 0.03625688 -0.024776824 0.107634515 -0.05370953 -0.012081509 -0.06304309
0.09984843 -0.14661375 -0.028408596 -0.08698795 0.0562141 0.10513577 0.090651065 -0.048765965
-0.12162116 0.14371832 -0.004052535 -0.08952456 -0.018546214 -0.084265776 -0.055744264 -0.07335569
-0.17236029 -0.035256572 -0.055565666 -0.015250937 -0.09089723 -0.06555404 -0.07747677 -0.050808728
0.00052197184 -0.12950876 0.01645475 -0.070023075 0.08915058 -0.06820666 -0.055508487 -0.1224951
-0.20769495 0.08084892 -0.087448 -0.024044191 -0.11294561 0.09921423 0.03999582 0.01725662
-0.115739405 0.0038332643 -0.014610697 -0.010544038 0.05851499 -0.12601186 0.011306459 -0.12727003
0.014875243 -0.12393694 -0.111822225 -0.08868058 0.1500569 0.07661719 0.17826146 0.076017864
00000000: 1820 2e3b 1f29 f63c 12a2 c7bc e1bb 233d
00000010: a4e5 ecbd 2ca1 70bd 52ca bdbc d1cf fc3b
00000020: 3499 28bd bb92 143e 45f4 e73c 698b 9c3d
00000030: 6fc3 5ebd cce9 98bd 1c67 e8bb cb53 fd3d
00000040: 18ea 5cbd 9d3c 173d 6305 0fbe 5659 273e
00000050: 823a 4b3d 892a 1c3e fbed 39bd 100e 303d
00000060: 7df1 413d 583e b0bb 8a01 ce3d a7fb c1bc
00000070: 449b 113c 12bd 04be 5ad7 893d 756e 85bd
00000080: ac5e 123e 9ba3 783c dd1c e23d 8520 13be
00000090: a943 e0bd 4a23 edba 4783 bdbd 50af 42bd
000000a0: 880f 993d 242b 00be 6a21 063e c068 d93d
000000b0: 52ba 953d f32a 513d 30e6 0f3e a96e 13be
000000c0: 08b9 dcbd 8766 0b3e 3b50 0bbe e09e 0fbd
000000d0: 6fb8 43bd 576c ab3d da3a 503d 5f04 40bd
000000e0: 1b4a be3d 75c8 513d b472 853d 7922 b1bd
000000f0: 8f98 febd b897 f5bc ce52 87bd 245c 4b3d
00000100: 54bd 96bd 14a7 593d 1882 143d c4f8 cabc
00000110: 7c6f dc3d 86fe 5bbd 86f1 45bc bc1c 81bd
00000120: 557d cc3d ea21 16be 25b9 e8bc bd26 b2bd
00000130: c240 663d 6c51 d73d 44a7 b93d d2be 47bd
00000140: 8414 f9bd e52a 133e 21cb 84bb a758 b7bd
00000150: 3bee 97bc 8993 acbd 1954 64bd 823b 96bd
00000160: 377f 30be 3269 10bd d398 63bd 11df 79bc
00000170: 5428 babd 3241 86bd 24ac 9ebd d01c 50bd
00000180: f0d4 083a f29d 04be 1dcc 863c 4268 8fbd
00000190: 9494 b63d efaf 8bbd de5c 63bd b6de fabd
000001a0: fcad 54be 1e94 a53d f017 b3bd 53f8 c4bc
000001b0: 0750 e7bd d530 cb3d a8d2 233d c15d 8d3c
000001c0: c808 edbd 8137 7b3b b461 6fbc e7c0 2cbc
000001d0: 6aad 6f3d 4109 01be ba3e 393c 1353 02be
000001e0: 4bb7 733c a7d2 fdbd 0d03 e5bd 2a9e b5bd
000001f0: 84a8 193e 79e9 9c3d 2c8a 363e 41af 9b3d

network_body._body_endoder.seq_layers.2.weight f4 [128, 128]
0.094689555 -0.16453378 -0.20560208 0.08572275 0.17619084 0.10929328 -0.19291803 0.09362202
0.07936874 -0.14543274 0.024529532 -0.26792648 0.23352383 0.20429562 0.021651229 -0.030917225
0.08147275 0.3616904 0.116926625 -0.2607593 0.16774487 -0.23336725 0.14865638 -0.14821883
-0.23530594 0.06644636 -0.029318701 -0.11621906 -0.037895504 0.076263174 -0.013904763 -0.029136935
-0.049714044 -0.10989328 -0.075311996 0.047020596 0.007553941 0.141444 0.19036822 -0.21043576
-0.25295576 -0.17558607 -0.21209885 0.0657641 -0.11849706 -0.24132963 -0.23433483 -0.028713508
0.04213019 -0.35938865 0.15726613 -0.04492179 -0.2802815 -0.06069661 0.1100533 -0.066976674
0.0039436417 -0.13124134 0.03200909 0.0051474217 0.03818109 -0.10803099 -0.057273235 -0.08850074
0.08406826 -0.232797 -0.18226427 -0.11786247 -0.12988582 0.14209777 0.00501687 0.1728865
-0.30556393 -0.008664801 -0.022334818 -0.011686349 -0.06824756 -0.33878708 -0.22042976 0.08892575
0.06009208 -0.21317546 -0.11359638 0.1843564 0.05071463 0.006338021 0.09787004 -0.14951529
0.106746584 0.1894645 0.014758281 -0.16191652 0.10935192 0.15781383 0.090090506 0.011425889
-0.038391486 -0.0556482 0.16032903 -0.029294044 -0.22038485 0.09180574 0.0363705 0.0958719
0.09387945 -0.067095846 -0.0021167637 -0.18019113 0.0010884632 -0.15662883 -0.07405498 0.15055467
0.030554611 -0.21443929 0.1309845 -0.14929095 0.2230624 -0.01240468 0.04871879 -0.07719329
0.059422832 0.1149201 -0.0064387494 -0.0050738966 -0.12618916 0.17039073 -0.13675712 -0.0013295629
0.13601434 -0.08338349 -0.13603106 -0.0063098078 0.062469453 0.121187374 -0.037046783 -0.0919238
-0.10596777 0.020197107 -0.06116658 0.03487835 -0.061182793 0.023984682 -0.006091311 -0.064476974
-0.045151368 0.065225646 0.12341113 -0.050760563 -0.1932921 0.20428498 -0.0076369867 -0.008405163
0.08924322 -0.09409651 -0.030294735 0.23586363 -0.0713382 0.17665982 -0.148424 -0.016364936
0.1390547 0.07083866 -0.10675427 -0.059354145 -0.1078132 -0.0397472 -0.069367446 0.019330071
0.08242079 0.1429735 0.047718238 0.089790836 0.04159198 0.042389594 -0.1854064 -0.05013263
0.16056015 -0.029933149 0.01892399 0.089637734 0.0072198184 -0.008368703 0.14418773 -0.1470662
0.0018899719 -0.039485414 0.045633055 0.08502104 -0.024951706 0.13004668 0.12027851 0.066384874
-0.014102036 0.062218808 0.08272321 0.066386156 0.047865696 0.0010150445 -0.011964239 0.13681431
-0.073738374 0.0543388 0.09030011 -0.0036170231 0.030711824 -0.040213745 0.13319239 -0.09151178
-0.23087022 -0.018691624 0.08313062 0.109892406 -0.0023769783 0.023549927 0.041105732 -0.19550435
0.00050148106 -0.036940135 0.011198041 -0.05539574 0.03143367 -0.0047706836 0.033661384 0.10098189
-0.015980985 0.06519406 -0.016274529 0.044285435 0.18020093 -0.17964596 0.045262076 0.21011537
0.0013143817 -0.11223293 0.05082004 0.014709462 -0.08013584 0.00491129 0.16460617 -0.06610919
0.17062998 -0.030497555 -0.016084269 -0.2345557 0.03431855 0.021420263 0.17902783 -0.0797021
0.046435997 -0.07977705 -0.0110195605 -0.022264112 0.0416954 -0.066543706 0.06601265 -0.15783696
00000000: 99ec c13d 8b7b 28be 5a89 52be 698f af3d
00000010: 5f6b 343e 28d5 df3d 4e8c 45be e7bc bf3d
00000020: 148c a23d 52ec 14be 28f2 c83c a92d 89be
00000030: df20 6f3e df32 513e eb5d b13c 1f46 fdbc
00000040: 2fdb a63d 7c2f b93e 3a77 ef3d 3e82 85be
00000050: 50c5 2b3e d3f7 6ebe 6139 183e adc6 17be
00000060: 0af4 70be 0715 883d c62d f0bc 4204 eebd
00000070: 5138 1bbd de2f 9c3d ced0 63bc 95b0 eebc
00000080: f4a0 4bbd ba0f e1bd 2d3d 9abd ab98 403d
00000090: 0d87 f73b b2d6 103e e3ef 423e 797c 57be
000000a0: 6b83 81be d6cc 33be 7130 59be 54af 863d
000000b0: 96ae f2bd 1d1f 77be 78f5 6fbe 9738 ebbc
000000c0: b590 2c3d ca01 b8be 5f0a 213e e9ff 37bd
000000d0: 0f81 8fbe 029d 78bd a063 e13d 112b 89bd
000000e0: aa39 813b 2164 06be f71b 033d b4ab a83b
000000f0: c663 1c3d 5a3f ddbd 5797 6abd e03f b5bd
00000100: fb2b ac3d 5662 6ebe 7ca3 3abe e161 f1bd
00000110: ca00 05be 1482 113e 8e64 a43b 2909 313e
00000120: e072 9cbe cff6 0dbc 82f7 b6bc 1a78 3fbc
00000130: 60c5 8bbd 8075 adbe 57b8 61be b41e b63d
00000140: 1d23 763d ab4a 5abe 38a5 e8bd edc7 3c3e
00000150: 25ba 4f3d 2caf cf3b 1670 c83d 891a 19be
00000160: f49d da3d fb02 423e b8cc 713c 72cd 25be
00000170: e6f3 df3d f399 213e 5f81 b83d a733 3b3c
00000180: 6440 1dbd 5eef 63bd 4b2d 243e 10fa efbc
00000190: 91ac 61be a604 bc3d 3cf9 143d 7d58 c43d
000001a0: de43 c03d 8c69 89bd 67b9 0abb 0684 38be
000001b0: c4aa 8e3a 4f63 20be 23aa 97bd 012b 1a3e
000001c0: aa4d fa3c f995 5bbe cd20 063e badf 18be
000001d0: 786a 643e 003d 4bbc 5b8d 473d 8417 9ebd
000001e0: 5b65 733d 3b5b eb3d 25fc d2bb ee42 a6bb
000001f0: bb37 01be e87a 2e3e 0f0a 0cbe ba44 aeba
00000200: 5847 0b3e f7c4 aabd ba4b 0bbe 81c2 cebb
00000210: f8df 7f3d 1631 f83d 5ebe 17bd 8c42 bcbd
00000220: a105 d9bd 6774 a53c cf89 7abd 9adc 0e3d
00000230: cf9a 7abd 867b c43c 9f99 c7bb 810c 84bd
00000240: a4f0 38bd 0695 853d f9be fc3d 4fea 4fbd
00000250: 5dee 45be 1530 513e b03f fabb cfb5 09bc
00000260: 26c5 b63d acb5 c0bd aa2c f8bc 3c86 713e
00000270: c319 92bd 50e6 343e 76fc 17be c20f 86bc
00000280: 5b64 0e3e dc13 913d fca1 dabd 551d 73bd
00000290: 2bcd dcbd f6cd 22bd 8510 8ebd 195a 9e3c
000002a0: 3bcc a83d a567 123e 3374 433d 42e4 b73d
000002b0: 5a5c 2a3d b6a0 2d3d 2ddb 3dbe df57 4dbd
000002c0: e169 243e 5d36 f5bc 7c06 9b3c fd93 b73d
000002d0: 3a94 ec3b e21c 09bc f3a5 133e 8698 16be
000002e0: efb8 f73a 75bb 21bd bae9 3a3d 831f ae3d
000002f0: 8567 ccbc f52a 053e 9454 f63d cbf4 873d
00000300: 3a0c 67bc 26d9 7e3d c96a a93d 77f5 873d
00000310: d20e 443d 3e0b 853a a805 44bc 0d19 0c3e
00000320: 2504 97bd 5d92 5e3d 44ef b83d 940b 6dbb
00000330: 5d97 fb3c 2bb7 24bd 9663 083e 876a bbbd
00000340: 3e69 6cbe 2d1f 99bc 6340 aa3d 450f e13d
00000350: 14c7 1bbb c7eb c03c 7c5e 283d 4b32 48be
00000360: d375 033a 8a4e 17bd fd77 373c a5e6 62bd
00000370: 98c0 003d 6553 9cbb 85e0 093d 98cf ce3d
00000380: 8eea 82bc 7784 853d 2952 85bc a564 353d
00000390: 9886 383e 1cf5 37be ba64 393d 7c28 573e
000003a0: 5547 ac3a 61da e5bd ad28 503d f5ff 703c
000003b0: 421e a4bd e3ee a03b 858e 283e 4164 87bd
000003c0: a0b9 2e3e 02d6 f9bc 28c3 83bc 5f2f 70be
000003d0: 9c91 0c3d 8c79 af3c 1253 373e db3a a3bd
000003e0: ac33 3e3d 2662 a3bd 638b 34bc 3a63 b6bc
000003f0: ccc8 2a3d 1148 88bd a431 873d 03a0 21be

network_body._body_endoder.seq_layers.2.bias f4 [128]
-0.12169747 0.016580021 -0.0016683724 -0.13829198 -0.16969582 0.07701878 -0.09944454 -0.12970066
0.0753142 0.0070306454 -0.122439876 -0.04934911 0.11120681 -0.13869865 0.016018277 -0.035520893
0.03819635 0.055302147 0.008187336 -0.11236433 0.035162386 0.066455215 -0.13216266 0.007177156
0.0040837554 -0.12474604 0.031758163 0.0199876 -0.15408753 0.104126975 -0.009785166 -0.13453506
-0.15690537 0.06583685 -0.012494237 0.1555506 0.077028014 -0.0056970725 -0.15773326 -0.012727587
0.008457603 -0.05312296 0.092228726 -0.07493505 -0.030287853 0.08776688 -0.06772874 0.10410079
-0.14440984 0.07702491 0.032038357 -0.09304289 -0.13873027 -0.003510981 -0.057411764 -0.03290723
0.14135134 0.056995 -0.1771443 -0.03111054 0.028242381 0.046852052 0.0093271155 0.050953194
-0.12962405 0.08725387 -0.15692516 0.124130495 -0.11508985 0.044850484 -0.09235647 -0.018199593
0.06535408 0.004747043 -0.1218907 0.04095384 0.03702913 0.054138478 0.065385185 -0.14468287
-0.11773531 -0.01986254 -0.05758345 -0.12370396 0.022818146 -0.11389733 0.01402246 0.11463278
0.105765015 -0.14351459 0.016242241 0.048942372 -0.01187621 -0.08716939 -0.012221475 -0.12618797
0.049816024 -0.04155845 -0.05524948 -0.00556592 -0.14602765 -0.14421749 0.024971455 -0.0009180822
0.08975781 -0.13056852 -0.075095184 -0.08603232 -0.15061542 -0.08563552 -0.1515823 -0.005154961
0.07181828 -0.12901276 -0.020838307 0.043810483 0.026947057 -0.028679585 0.11815355 0.0032013024
-0.14438719 0.006138104 -0.01735206 -0.065376066 -0.047766544 0.054113127 -0.008571816 -0.03733088
00000000: 863c f9bd d3d2 873c 4aad daba 6a9c 0dbe
00000010: bec4 2dbe 06bc 9d3d 94a9 cbbd 40d0 04be
00000020: 553e 9a3d 5461 e63b c2c1 fabd 4b22 4abd
00000030: 65c0 e33d 0507 0ebe c338 833c 5b7e 11bd
00000040: c773 1c3d 8184 623d 2d24 063c 451f e6bd
00000050: 6f06 103d ac19 883d a655 07be 592e eb3b
00000060: 06d1 853b da7a ffbd d914 023d 09bd a33c
00000070: 1fc9 1dbe 8640 d53d f651 20bc 8fc3 09be
00000080: cdab 20be 78d5 863d a1b4 4cbc a848 1f3e
00000090: ddc0 9d3d 82ae babb d484 21be 5e87 50bc
000000a0: c291 0a3c 7697 59bd 6ae2 bc3d 8c77 99bd
000000b0: 3b1e f8bc 1fbf b33d 5eb5 8abd cc32 d53d
000000c0: 2ce0 13be 3cbf 9d3d a73a 033d 458d bebd
000000d0: 4f0f 0ebe 7d18 66bb 9928 6bbd bbc9 06bd
000000e0: 68be 103e 9773 693d 5165 35be 88db febc
000000f0: 915c e73c f0e7 3f3d c2d0 183c 4cb4 503d
00000100: 2bbc 04be 28b2 b23d fdb0 20be 2138 fe3d
00000110: 3ab4 ebbd 24b5 373d 6425 bdbd 5017 95bc
00000120: 5cd8 853d 158d 9b3b d5a1 f9bd 37bf 273d
00000130: dbab 173d 4fc0 5d3d abe8 853d bf27 14be
00000140: 361f f1bd c4b6 a2bc a0dc 6bbd 8058 fdbd
00000150: 1fed ba3c 0143 e9bd 76be 653c 97c4 ea3d
00000160: 549b d83d 7df5 12be 730e 853c cc77 483d
00000170: 6f94 42bc dd85 b2bd 953c 48bc 6b37 01be
00000180: e30b 4c3d 3139 2abd 474d 62bd 5262 b6bb
00000190: 4688 15be c0ad 13be f090 cc3c 74ab 70ba
000001a0: f1d2 b73d c1b3 05be 81cb 99bd b731 b0bd
000001b0: ee3a 1abe ad61 afbd 6438 1bbe f2ea a8bb
000001c0: 7615 933d ec1b 04be 19b5 aabc 9f72 333d
000001d0: 13c0 dc3c 73f1 eabc 7dfa f13d f1cc 513b
000001e0: 3cda 13be 2622 c93b e825 8ebc e3e3 85bd
000001f0: daa6 43bd baa5 5d3d cd70 0cbc 44e8 18bd

action_model._continuous_distribution.log_sigma f4 [1, 2]
-0.549576 -0.3380373
00000000: 03b1 0cbf 3a13 adbe

action_model._continuous_distribution.mu.weight f4 [2, 128]
-0.1476068 0.0043127006 -0.23449829 -0.0025493181 -0.053067613 -0.036214236 -0.1839495 -0.019369788
-0.25076613 -0.08604983 -0.009381976 -0.13591868 0.0944355 -0.045141082 -0.0017001944 -0.068581745
-0.0014898974 -0.108971305 -0.12380568 0.013306642 0.073024064 -0.110007636 -0.06274204 -0.001537158
0.0013863364 -0.079617076 -0.0020958576 -0.0018034932 -0.016547695 0.11793304 -0.0637328 0.0014086188
-0.0015765945 0.017452834 -0.07039496 0.090486184 -0.0036124012 -0.00032967824 -0.038218338 0.0010085832
-0.20878288 0.019358905 -0.11279367 -0.11586253 0.0012992293 0.14496195 0.062119495 0.046717413
-0.032250404 -0.21054405 -0.0029085814 0.049070306 -0.039183475 -0.0037480174 -0.102431364 -0.0035664467
0.06352818 -0.0042886664 -0.0032299203 0.1326138 0.13019374 0.0023395477 0.13678086 0.0032256304
-0.0051186187 0.0036883606 -0.009695937 0.107464135 -0.14015308 0.0016122352 0.094108336 -0.19306472
0.11923077 0.1912528 0.03666132 0.15841939 -0.08639047 0.085865684 0.14779258 -0.090196334
0.07939949 0.0027610601 0.13010223 -0.053221565 -0.001288456 -0.040019974 -0.16157645 -0.0219595
-0.046857215 0.009815655 -0.14154974 0.032456547 -0.013028747 0.064397015 -0.005211179 -0.05447022
-0.009617877 -0.004693441 0.11160625 -0.0039008593 0.004263671 -0.058044218 0.08407019 0.0006844413
0.087413855 -0.13523713 -0.123984024 0.0027421415 0.026025131 0.038793433 -0.005732705 0.1627199
0.09740386 -0.19156113 0.18283463 -0.00050125225 -0.0043786173 -0.00318292 0.08195635 -0.0028535486
-0.004889677 0.042359233 0.00252799 -0.07634007 0.15480943 -0.0015051588 -0.008215228 -0.15407747
-0.12440969 -0.002554866 0.020171322 -0.15154791 -0.12467453 0.051727246 -0.050378375 -0.10729935
0.042289384 0.044487394 -0.021434514 -0.019450516 0.05849729 -0.08571847 0.0015142502 -0.0027364972
-0.0009271766 0.07185953 0.0072128605 -0.13077047 0.030102912 0.081042066 -0.13926157 -0.0012738538
0.0038027824 -0.13764082 0.002274181 0.0015225493 -0.13020045 0.075372264 0.02494636 -0.1541646
-0.053633437 0.0062113144 -0.00091039983 0.14555265 0.02859771 -0.0025797104 -0.13196324 -0.0058631185
0.051451214 -0.04838564 0.08484357 -0.04294878 -0.0012800896 0.13067187 -0.02306205 0.030534964
-0.12876463 0.062400058 0.0005512576 -0.10105463 -0.17703673 0.0018564856 -0.026888378 0.0022020957
0.09399617 0.00013489692 -0.08261232 -0.05410091 0.038778584 0.00823691 0.011923403 0.04913246
-0.16653803 0.060019583 -0.13343269 0.085770644 -0.14389619 0.00242388 -0.06873428 0.0047747795
0.024017835 -0.05276205 -0.1259545 0.024998045 0.037519332 0.0268087 0.05294217 -0.1186523
-0.11766922 0.0044984985 -0.0626743 -0.19844647 0.0072815986 -0.027550107 0.027256066 0.074051104
0.10442248 -0.11744058 0.033736978 0.005136548 0.0013401072 -0.083647825 0.001734108 -0.08507542
0.0076518035 0.0009479626 -0.13533972 -0.004275501 -0.086414754 -0.10884644 0.022699755 0.0033325977
0.04978517 -0.115886845 -0.041993055 -0.0012241298 -0.13794635 -0.027073702 -0.10064277 -0.021548225
0.0741056 -0.12541983 -0.033395357 -0.0019494677 0.0010026298 -0.0015625424 0.087673135 0.0016390544
-0.044230405 0.008402672 -0.004458947 -0.050421003 -0.06997188 0.0037308445 0.0015077032 -0.02538623
00000000: 3d26 17be 8e51 8d3b 5220 70be 7612 27bb
00000010: 6d5d 59bd 6155 14bd 425d 3cbe 64ad 9ebc
00000020: 6b64 80be e53a b0bd dcb6 19bc 442e 0bbe
00000030: 6667 c13d dbe5 38bd 0fd9 deba 9674 8cbd
00000040: a948 c3ba 592c dfbd d58d fdbd 1a04 5a3c
00000050: a48d 953d af4b e1bd e67e 80bd 777a c9ba
00000060: bbb5 b53a 470e a3bd a85a 09bb 3163 ecba
00000070: 088f 87bc e186 f13d 5886 82bd 67a1 b83a
00000080: bca5 ceba 3ff9 8e3c 3c2b 90bd d250 b93d
00000090: 09be 6cbb aad8 acb9 d58a 1cbd 7032 843a
000000a0: 2ecb 55be 9196 9e3c 5e00 e7bd 5649 edbd
000000b0: e74a aa3a e870 143e 0371 7e3d c25a 3f3d
000000c0: 0019 04bd dc98 57be e69d 3ebb f2fd 483d
000000d0: da7e 20bd 4ca1 75bb 89c7 d1bd 0cbb 69bb
000000e0: 101b 823d f187 8cbb 12ad 53bb e9cb 073e
000000f0: 8251 053e 1953 193b 4810 0c3e 1965 533b
00000100: 16ba a7bb 6cb8 713b b5db 1ebc 2816 dc3d
00000110: 4a84 0fbe a351 d33a dfbb c03d c2b2 45be
00000120: 432f f43d c6d7 433e 2e2a 163d b138 223e
00000130: 7ded b0bd 59da af3d f056 173e dbb8 b8bd
00000140: 339c a23d e7f2 343b 8539 053e dbfe 59bd
00000150: 69e1 a8ba fceb 23bd 4c74 25be 69e4 b3bc
00000160: 5aed 3fbd d7d1 203c 6af2 10be 28f1 043d
00000170: 8776 55bc 95e2 833d 8ac2 aabb 2a1c 5fbd
00000180: 4d94 1dbc 70cb 99bb d191 e43d 8fa5 7fbb
00000190: 44b6 8b3b c6bf 6dbd fe2c ac3d 146c 333a
000001a0: 0906 b33d 9a7b 0abe 56eb fdbd 80b5 333b
000001b0: a832 d53c dde5 1e3d 6ad9 bbbb 0ca0 263e
000001c0: ad7b c73d 9a28 44be 0039 3b3e 7866 03ba
000001d0: 817a 8fbb 8998 50bb bbd8 a73d 9a02 3bbb
000001e0: 9539 a0bb e080 2d3d a2ac 253b 2f58 9cbd
000001f0: 5d86 1e3e c048 c5ba 2a99 06bc 7cc6 1dbe
00000200: 82ca febd 8a6f 27bb 543e a53c 602f 1bbe
00000210: 5c55 ffbd f3df 533d 8e59 4ebd c3bf dbbd
00000220: a237 2d3d 6a38 363d 6f97 afbc b056 9fbc
00000230: db9a 6f3d 2a8d afbd ce79 c63a ce56 33bb
00000240: c50d 73ba 172b 933d dc59 ec3b b2e8 05be
00000250: 629a f63c 62f9 a53d 969a 0ebe 71f7 a6ba
00000260: 1a38 793b b7f1 0cbe 6d0a 153b 4790 c73a
00000270: 4453 05be c65c 9a3d 4f5c cc3c 53dd 1dbe
00000280: bcae 5bbd 4888 cb3b e6a7 6eba c10b 153e
00000290: bf45 ea3c 5c10 29bb 5f21 07be 671f c0bb
000002a0: 82be 523d 0530 46bd 77c2 ad3d 0feb 2fbd
000002b0: aec8 a7ba d9ce 053e a0ec bcbc 7624 fa3c
000002c0: e0da 03be 3497 7f3d 4582 103a bbf5 cebd
000002d0: 1e49 35be 5255 f33a 0445 dcbc 0951 103b
000002e0: 1081 c03d 1e73 0d39 a630 a9bd ea98 5dbd
000002f0: 4bd6 1e3d 1bf4 063c 605a 433c 1e3f 493d
00000300: f288 2abe 18d7 753d 94a2 08be 85a8 af3d
00000310: 8659 13be f5d9 1e3b 8fc4 8cbd c175 9c3b
00000320: 0dc1 c43c 051d 58bd 37fa 00be b3c8 cc3c
00000330: dfad 193d eb9d db3c e4d9 583d faff f2bd
00000340: 8ffc f0bd 2468 933b 625b 80bd 8d35 4bbe
00000350: 7a9a ee3b c3b0 e1bc 1d48 df3c 1ba8 973d
00000360: 74db d53d b084 f0bd c92f 0a3d 7d50 a83b
00000370: 89a6 af3a 8d4f abbd 024b e33a 063c aebd
00000380: fbbb fa3b b180 783a 7f96 0abe 8019 8cbb
00000390: 38fa b0bd e2ea debd d6f4 b93c b667 5a3b
000003a0: 89eb 4b3d 1556 edbd e900 2cbd fb72 a0ba
000003b0: cf41 0dbe abc9 ddbc cc1d cebd e785 b0bc
000003c0: adc4 973d 0e6e 00be 92c9 08bd 4885 ffba
000003d0: ac6a 833a 39ce ccba f98d b33d 8ad5 d63a
000003e0: f12a 35bd 5cab 093c 5c1c 92bb 4186 4ebd
000003f0: 6b4d 8fbd 2f81 743b 209e c53a c8f6 cfbc

action_model._continuous_distribution.mu.bias f4 [2]
0.034535978 0.18092255
00000000: 9975 0d3d c343 393e

exp_avg f4 [128, 38]
6.073115e-05 0.0 8.217913e-05 1.4602771e-05 7.000915e-05 5.9932703e-05 0.0 0.00010741385
5.778059e-05 -4.1836765e-06 2.475523e-05 0.0 9.788956e-05 8.423614e-05 0.00011802162 -4.6722726e-06
0.0 0.00020185084 -5.5674536e-05 1.7257402e-05 4.8253398e-05 0.0 2.9866831e-05 0.0001125295
0.000100017794 -9.822835e-06 0.0 0.00027169194 9.843119e-05 5.072849e-06 0.00010529818 0.0
0.0002246248 0.00021810124 0.000168055 0.00030063433 -1.849291e-05 -0.00029299932 0.0005118454 0.0
-0.0009812406 0.0004077999 0.0003780136 0.0006067406 0.0 -0.00015731307 0.00025092633 0.00034079075
0.0005424528 0.0 4.6167173e-05 -0.0005670259 -0.00012575313 8.139148e-06 0.0 0.0008213846
0.0026350538 0.0027458887 0.000491702 0.0 0.0006695516 -0.0008967409 -0.00030856696 -0.00011925488
0.0 0.00088240654 0.0011854114 0.0012670269 0.0007696013 0.0 0.0011643246 0.00012393002
0.00051183667 6.115546e-05 -1.1844131e-05 -0.0006898646 -0.00052701245 0.0 0.000463502 1.17267855e-05
0.0003600251 -0.00016722002 0.0 0.00032187905 6.0469094e-05 0.00021823857 -0.0008939596 0.0
-0.0003103566 0.00061171106 0.0007220909 0.00043311558 0.0 0.00053385843 -0.00026887772 -0.00039710087
-0.0005970853 0.0 -0.0010047384 0.00039654534 7.660742e-05 0.00040331762 0.0 0.00031032297
-0.00025014678 4.9610317e-05 -0.00070714444 0.0 0.0005089899 0.0009063277 0.00033065572 -9.683421e-05
-6.905076e-05 6.201607e-05 0.0001089718 0.0 -0.00036715643 0.00041146984 0.0009249988 0.0004972685
0.0 0.00030845654 -6.0150778e-05 0.00033155724 3.5411584e-05 0.0 -0.0007557513 0.00037540428
0.000884577 -0.00010709028 0.0 0.0010849576 0.001654033 0.0020733706 -2.9785583e-06 0.0
-0.0011811244 -0.0003878474 0.00010981667 -1.8123326e-05 0.0 0.0013533089 0.0003388599 0.0013590702
0.00037119302 0.0 0.0018891406 0.00085675874 0.0012018098 -0.00063761394 0.0001356148 -0.0008025425
-2.7513886e-06 0.0 0.00066451996 -0.00028689284 -0.00012804076 -0.00020820637 0.0 8.0270554e-05
0.0003905131 0.00013382535 -0.000104007864 0.0 0.0007398386 7.194956e-05 4.806446e-05 -1.28110905e-05
0.0 0.00014046456 -0.0011498871 -0.0010485057 -4.6009504e-06 0.0 0.00064182444 0.00083559344
0.00059576455 4.470181e-05 0.0 0.00014970754 0.0002008336 -0.0007170645 2.2862907e-05 0.0
-0.00030526158 0.00059801014 0.0002934389 0.0019258977 -0.00013636083 -0.00033656208 -2.0552125e-05 0.0
-0.000111588306 -0.00012677809 -0.00023772032 -4.221244e-05 0.0 -0.00020544713 6.78627e-05 0.000136857
1.9019595e-05 0.0 -1.879131e-05 -0.0002872994 -0.00041239324 -6.9426446e-06 0.0 -0.00044179006
-0.00016642411 -0.00014063745 1.5730122e-05 0.0 2.2515738e-05 -0.0002054541 -0.0004144645 3.904142e-05
0.0 -0.00054121355 -2.7417795e-05 2.0364678e-05 -8.2821614e-05 0.0 -6.407504e-05 -0.0007155503
-0.0006009412 -0.00027439132 1.3955741e-06 0.0003449111 0.00017910328 0.0 -0.0006601043 0.00031051756
0.00042911398 0.0004680946 0.0 -6.417552e-05 -6.882052e-06 -1.5503116e-05 0.00013033202 0.0
-0.0008452656 0.00013480241 0.0005093083 -7.15953e-05 0.0 0.00011954947 5.74835e-05 0.00041049352
0.00013553789 0.0 -0.0013700961 -0.00014378004 -6.6014094e-05 6.048011e-05 0.0 0.00038957054
00000000: 93b9 7e38 0000 0000 9657 ac38 6dfe 7437
00000010: e0d1 9238 4060 7b38 0000 0000 5f43 e138
00000020: 7059 7238 8261 8cb6 74a9 cf37 0000 0000
00000030: 0f4a cd38 efa7 b038 6082 f738 84c6 9cb6
00000040: 0000 0000 eca7 5339 1484 69b8 fdc3 9037
00000050: b163 4a38 0000 0000 888a fa37 d1fd eb38
00000060: a5c0 d138 c1cc 24b7 0000 0000 e071 8e39
00000070: d86c ce38 7137 aa36 88d3 dc38 0000 0000
00000080: 4389 6b39 1bb2 6439 ec37 3039 759e 9d39
00000090: 3921 9bb7 b49d 99b9 5d2d 063a 0000 0000
000000a0: f99c 80ba facd d539 2030 c639 ac0d 1f3a
000000b0: 0000 0000 68f4 24b9 c38e 8339 29ac b239
000000c0: 6433 0e3a 0000 0000 a0a3 4138 77a4 14ba
000000d0: 99dc 03b9 608d 0837 0000 0000 3052 573a
000000e0: deb0 2c3b 5ef4 333b 90e5 003a 0000 0000
000000f0: d984 2f3a 4313 6bba 28c7 a1b9 7a18 fab8
00000100: 0000 0000 4d51 673a ce5f 9b3a 5e12 a63a
00000110: 12bf 493a 0000 0000 409c 983a 36f3 0139
00000120: c72c 063a 9640 8038 28b6 46b7 08d8 34ba
00000130: 3527 0aba 0000 0000 2f02 f339 29be 4437
00000140: c0c1 bc39 c857 2fb9 0000 0000 e0c1 a839
00000150: 32a0 7d38 f8d6 6439 9d58 6aba 0000 0000
00000160: 5cb7 a2b9 3c5b 203a b34a 3d3a ca13 e339
00000170: 0000 0000 a2f2 0b3a 28f8 8cb9 fa31 d0b9
00000180: b785 1cba 0000 0000 6db1 83ba 6ae7 cf39
00000190: 4ca8 a038 6074 d339 0000 0000 d8b2 a239
000001a0: 2226 83b9 ac14 5038 a95f 39ba 0000 0000
000001b0: bc6d 053a 9f96 6d3a dc5b ad39 7813 cbb8
000001c0: 58cf 90b8 a00e 8238 ca87 e438 0000 0000
000001d0: e77e c0b9 8cba d739 9e7b 723a 205b 023a
000001e0: 0000 0000 56b8 a139 684a 7cb8 dcd4 ad39
000001f0: e686 1438 0000 0000 9c1d 46ba e9d1 c439
00000200: f5e2 673a a895 e0b8 0000 0000 2335 8e3a
00000210: 23cc d83a 63e1 073b 3ee3 47b6 0000 0000
00000220: f5cf 9aba ff57 cbb9 604d e638 8c07 98b7
00000230: 0000 0000 8361 b13a 02a9 b139 d422 b23a
00000240: af9c c239 0000 0000 0a9d f73a 1b98 603a
00000250: 0c86 9d3a 8c25 27ba d233 0e39 b761 52ba
00000260: 7fa4 38b6 0000 0000 2e33 2e3a 1b6a 96b9
00000270: ae42 06b9 f951 5ab9 0000 0000 ed56 a838
00000280: c8bd cc39 7853 0c39 cc1e dab8 0000 0000
00000290: baf1 413a a0e3 9638 d298 4938 37ef 56b7
000002a0: 0000 0000 ab49 1339 cfb7 96ba 036e 89ba
000002b0: dd61 9ab6 0000 0000 1c40 283a ba0b 5b3a
000002c0: 152d 1c3a 347e 3b38 0000 0000 d0fa 1c39
000002d0: dc96 5239 62f9 3bba b8c9 bf37 0000 0000
000002e0: 840b a0b9 c8c3 1c3a b4d8 9939 676e fc3a
000002f0: 15fc 0eb9 9974 b0b9 5a67 acb7 0000 0000
00000300: 8404 eab8 bcef 04b9 9044 79b9 430d 31b8
00000310: 0000 0000 4b6d 57b9 8251 8e38 4581 0f39
00000320: 458c 9f37 0000 0000 08a2 9db7 aca0 96b9
00000330: 7c36 d8b9 ddf4 e8b6 0000 0000 0fa0 e7b9
00000340: 2282 2eb9 1478 13b9 2ef4 8337 0000 0000
00000350: 2ee0 bc37 2a6f 57b9 7c4c d9b9 68c0 2338
00000360: 0000 0000 3ae0 0dba 44ff e5b7 d0d4 aa37
00000370: 84b0 adb8 0000 0000 0660 86b8 c593 3bba
00000380: 7b88 1dba 2edc 8fb9 904f bb35 2fd5 b439
00000390: accd 3b39 0000 0000 da0a 2dba f6cc a239
000003a0: b4fa e039 986a f539 0000 0000 f895 86b8
000003b0: 60ec e6b6 b00c 82b7 bca9 0839 0000 0000
000003c0: d094 5dba bf59 0d39 1a83 053a 6f25 96b8
000003d0: 0000 0000 a2b6 fa38 701a 7138 8237 d739
000003e0: 2d1f 0e39 0000 0000 cc94 b3ba a9c3 16b9
000003f0: 0c71 8ab8 06ac 7d38 0000 0000 463f cc39

exp_avg_sq f4 [128, 38]
2.635048e-08 0.0 1.4061428e-07 3.5244454e-08 2.1335312e-07 2.323767e-08 0.0 1.0499607e-07
3.704847e-07 5.417551e-07 2.8622603e-08 0.0 1.3956816e-07 5.83642e-08 1.5960754e-07 7.426232e-09
0.0 1.2506129e-07 6.7260896e-07 8.022136e-07 4.1020783e-08 0.0 1.9751813e-07 6.631369e-08
1.6265884e-07 2.0477238e-08 0.0 1.7560998e-07 7.5164286e-07 8.544152e-07 7.159619e-08 0.0
2.1691524e-07 6.3734696e-08 1.4955936e-07 6.563145e-07 6.341988e-08 4.830575e-07 8.01405e-07 0.0
6.164049e-06 2.7828974e-06 9.540246e-06 9.2588766e-07 0.0 7.1010895e-06 1.2274872e-05 2.1591653e-05
8.6286605e-07 0.0 5.9410204e-06 2.9268074e-06 7.628802e-06 6.342459e-07 0.0 6.15767e-06
2.4194194e-05 2.9969966e-05 1.2683784e-06 0.0 8.840757e-06 4.8526613e-06 8.931471e-06 1.1015628e-06
0.0 6.5368936e-06 2.6972708e-05 3.1852327e-05 1.594196e-06 0.0 1.0832436e-05 5.34492e-06
8.946398e-06 2.9575674e-05 3.0358779e-06 2.4866049e-05 3.2318653e-06 0.0 9.838983e-07 5.732534e-07
5.4324287e-06 3.3087738e-06 0.0 4.8828088e-06 1.7486105e-06 6.854797e-06 2.6299988e-06 0.0
1.260718e-06 4.624679e-06 1.0640847e-05 3.4529014e-06 0.0 6.7460337e-06 8.014002e-06 1.2381998e-05
1.3942343e-06 0.0 1.9466206e-06 1.4667072e-05 2.0592948e-05 3.7985865e-06 0.0 8.342281e-06
1.0314247e-05 1.4311254e-05 8.451277e-07 0.0 3.0080753e-06 1.979365e-05 2.3938102e-05 2.9302902e-05
3.5015198e-06 2.066567e-05 1.0960814e-06 0.0 7.5868234e-06 2.542958e-06 1.1419276e-05 1.2568439e-06
0.0 7.840559e-06 9.0940175e-06 1.6933489e-05 1.0534209e-06 0.0 8.160429e-06 3.4317495e-06
1.1567807e-05 1.2305328e-06 0.0 9.3644985e-06 1.3090181e-05 2.0591451e-05 1.0654977e-06 0.0
1.0351513e-05 4.917993e-06 1.228255e-05 1.485488e-06 0.0 1.30809885e-05 1.2413059e-05 1.9880463e-05
1.2372107e-06 0.0 1.595804e-05 6.5464224e-06 1.3306479e-05 3.0269646e-05 3.2607606e-06 2.6330765e-05
1.867899e-07 0.0 1.5926025e-06 1.0930102e-06 3.8067276e-06 3.2871546e-07 0.0 3.0208088e-07
5.006445e-06 8.429171e-06 2.4690777e-07 0.0 2.8847255e-06 1.0803977e-06 3.0063577e-06 2.660887e-07
0.0 1.0361712e-06 1.0409945e-05 1.2841934e-05 2.6266406e-07 0.0 3.8756916e-06 1.5968117e-06
3.5557987e-06 4.552451e-07 0.0 2.1452781e-06 1.03606535e-05 1.31274965e-05 4.7555326e-07 0.0
3.52469e-06 2.2912845e-06 3.7380512e-06 1.266004e-05 1.1574048e-06 9.942618e-06 7.393264e-08 0.0
9.990603e-07 7.758286e-08 4.5909644e-07 8.133075e-08 0.0 1.1723353e-06 1.5158464e-07 5.533414e-07
5.5579672e-08 0.0 3.7951705e-07 3.6664147e-07 6.414131e-07 8.969696e-08 0.0 1.1511021e-06
3.0787396e-07 6.7564594e-07 6.338455e-08 0.0 3.3725632e-07 3.4923323e-07 5.9760026e-07 7.2762816e-08
0.0 1.210774e-06 5.2713904e-07 8.4883914e-07 7.502686e-08 0.0 3.082502e-07 4.1902723e-07
6.1368564e-07 1.2510155e-06 1.019162e-07 1.0091849e-06 2.6798634e-07 0.0 6.839774e-06 1.7558131e-06
6.6543707e-06 4.492071e-07 0.0 4.163088e-06 5.939096e-06 1.0313543e-05 3.2179193e-07 0.0
8.108229e-06 7.9357324e-07 4.9328755e-06 5.8683014e-07 0.0 2.6395749e-06 6.748443e-06 1.0191101e-05
4.1213352e-07 0.0 1.1472847e-05 1.3983201e-06 5.759981e-06 1.1798126e-06 0.0 3.6381336e-06
00000000: 5159 e232 0000 0000 c2fb 1634 b05f 1733
00000010: 0f16 6534 2d9c c732 0000 0000 337a e133
00000020: 08e7 c634 216d 1135 c5dd f532 0000 0000
00000030: 34dc 1534 1eac 7a33 9660 2b34 d429 ff31
00000040: 0000 0000 9648 0634 568d 3435 b357 5735
00000050: d42e 3033 0000 0000 5f15 5434 5668 8e33
00000060: 52a7 2e34 ece5 af32 0000 0000 4e8f 3c34
00000070: 81c4 4935 f75a 6535 6cc0 9933 0000 0000
00000080: 35e9 6834 85de 8833 9096 2034 972d 3035
00000090: 7331 8833 75ab 0135 2220 5735 0000 0000
000000a0: c7d4 ce36 d0c1 3a36 0b0f 2037 848a 7835
000000b0: 0000 0000 e545 ee36 2cf0 4d37 b91f b537
000000c0: b49f 6735 0000 0000 fa58 c736 2b6a 4436
000000d0: e9fa ff36 0c41 2a35 0000 0000 fc9d ce36
000000e0: a3f4 ca37 0368 fb37 263d aa35 0000 0000
000000f0: c352 1437 0bd4 a236 60d8 1537 69d9 9335
00000100: 0000 0000 7d57 db36 7343 e237 2d99 0538
00000110: 28f8 d535 0000 0000 f5bc 3537 8358 b336
00000120: 7d18 1637 4719 f837 fcbb 4b36 6f97 d037
00000130: 06e3 5836 0000 0000 7d0e 8435 ace1 1935
00000140: 3548 b636 4d0c 5e36 0000 0000 02d7 a336
00000150: cdb1 ea35 4202 e636 097f 3036 0000 0000
00000160: f135 a935 b12d 9b36 1786 3237 65b8 6736
00000170: 0000 0000 fd5b e236 e073 0637 47bc 4f37
00000180: 8721 bb35 0000 0000 b0a2 0236 9812 7637
00000190: 05bf ac37 38eb 7e36 0000 0000 d3f5 0b37
000001a0: 5b0b 2d37 5e1a 7037 bcdc 6235 0000 0000
000001b0: 57de 4936 8a0a a637 afce c837 81cf f537
000001c0: a7fb 6a36 305b ad37 121d 9335 0000 0000
000001d0: 5192 fe36 b0a7 2a36 6b95 3f37 d4b0 a835
000001e0: 0000 0000 f28a 0337 8292 1837 640c 8e37
000001f0: 4463 8d35 0000 0000 c7e8 0837 024d 6636
00000200: 5a13 4237 c928 a535 0000 0000 371c 1d37
00000210: e69d 5b37 cebb ac37 3902 8f35 0000 0000
00000220: 69ab 2d37 3d05 a536 2711 4e37 fb60 c735
00000230: 0000 0000 6b76 5b37 af41 5037 f8c4 a637
00000240: 3c0e a635 0000 0000 a1dd 8537 57a9 db36
00000250: e43e 5f37 92eb fd37 71d3 5a36 e3e0 dc37
00000260: 6b90 4834 0000 0000 68c1 d535 8bb3 9235
00000270: 1577 7f36 4f7a b034 0000 0000 ae2d a234
00000280: 09fd a736 046b 0d37 bf8e 8434 0000 0000
00000290: 3597 4136 2f02 9135 d5c0 4936 f4da 8e34
000002a0: 0000 0000 9212 8b35 60a6 2e37 b073 5737
000002b0: 4604 8d34 0000 0000 f00b 8236 0852 d635
000002c0: 28a0 6e36 6968 f434 0000 0000 99f7 0f36
000002d0: abd2 2d37 2b3e 5c37 8b4f ff34 0000 0000
000002e0: b789 6c36 f8c3 1936 3bdb 7a36 7566 5437
000002f0: 2058 9b35 38cf 2637 e6c4 9e33 0000 0000
00000300: 7317 8635 a19b a633 bc79 f634 0da8 ae33
00000310: 0000 0000 2259 9d35 45c3 2234 5589 1435
00000320: 7fb6 6e33 0000 0000 6dc0 cb34 d2d6 c434
00000330: 932d 2c35 6d9f c033 0000 0000 917f 9a35
00000340: e049 a534 095e 3535 061e 8833 0000 0000
00000350: 2810 b534 407e bb34 c76a 2035 c841 9c33
00000360: 0000 0000 e181 a235 b880 0d35 c8db 6335
00000370: 741e a133 0000 0000 967d a534 aaf6 e034
00000380: 28bc 2435 91e8 a735 06dd da33 5473 8735
00000390: c3df 8f34 0000 0000 3681 e536 47a9 eb35
000003a0: 9c48 df36 8e2a f134 0000 0000 a7b0 8b36
000003b0: 7248 c736 5408 2d37 bfc2 ac34 0000 0000
000003c0: 9408 0837 f005 5535 1485 a536 a986 1d35
000003d0: 0000 0000 8d23 3136 af70 e236 72fa 2a37
000003e0: 3343 dd34 0000 0000 817b 4037 eaad bb35
000003f0: dc45 c136 0d5a 9e35 0000 0000 a926 7436

exp_avg f4 [128]
9.172782e-06 0.0011865983 -7.4481475e-05 0.0019547092 -0.00044333757 -0.00019493507 0.00057023123 -0.00012962073
0.00013452944 0.0015243724 -0.00048507866 0.00042233127 -1.0324118e-05 -0.00025822542 0.00028904155 0.0002769932
0.0002766935 -0.002018097 -0.00080138084 0.0019477655 0.00011219119 0.002833627 -0.00065301935 -0.00010034157
-0.0005019712 -0.0003907831 0.0012453255 0.00024798655 0.00046849693 -7.941042e-05 -0.0028671306 -1.5045269e-05
-0.0006506394 -0.00035872014 -0.00023899315 -0.00031385254 3.8320082e-05 -0.00015987473 -0.00062907 0.0007556581
-0.0011468332 0.0018775909 0.002246481 -0.0016222475 -0.0005091019 -0.0004970593 -0.00036640977 1.0176351e-05
-0.00033428165 0.0022292107 -0.00031135755 -0.0005213454 0.00088378805 -0.0018895764 -0.0009049224 0.0020749683
0.0011214463 0.0014071135 0.00010823831 9.14252e-05 -0.00095543417 0.002852158 -0.00042291277 -5.507414e-05
-0.00036158692 0.00037297118 0.00030362583 -0.00025770202 0.00071987306 0.00017461524 0.0007166716 0.00062326516
0.002103908 -0.0002999565 0.0023912364 -0.00016220963 0.0002688447 0.0033135284 0.00013053938 0.0004242343
-0.00043240184 -0.0005305022 0.00011443221 0.0005009113 0.0010313033 0.00059621455 -0.00042556168 0.0006898218
-0.0007475534 -0.002551727 -0.00027585254 0.0015353502 -0.002008337 -0.0001318705 -0.00023818876 1.454234e-05
0.00057561725 0.0007524615 -0.00060540903 0.00060871843 -0.0005284459 -0.0026693402 -0.00045119695 -0.00017172817
-9.839573e-05 -0.00019970784 4.8497022e-05 0.0008420357 0.0020798568 0.0012125697 -6.834464e-05 -0.00020926318
4.7378635e-05 0.0014545453 -0.00038534703 0.003239014 -0.0003839254 -0.00025791928 -0.00029669655 0.00027645665
-0.0002329433 8.502985e-05 0.0015087352 -0.00048068337 0.0014590512 0.0005437165 -0.0011302807 0.00041184638
00000000: cce4 1937 a287 9b3a f032 9cb8 941a 003b
00000010: c36f e8b9 7c67 4cb9 927b 153a cdea 07b9
00000020: 7910 0d39 73cd c73a 2852 feb9 586c dd39
00000030: c035 2db7 6e62 87b9 808a 9739 6639 9139
00000040: 2c11 9139 0d42 04bb c213 52ba 2a4c ff3a
00000050: 3048 eb38 5fb4 393b 632f 2bba 786e d2b8
00000060: b896 03ba 05e2 ccb9 313a a33a 3104 8239
00000070: 98a0 f539 2589 a6b8 78e6 3bbb f06a 7cb7
00000080: ac8f 2aba 9a12 bcb9 3c9a 7ab9 938c a4b9
00000090: e0b9 2038 0ca4 27b9 2ce8 24ba 5b17 463a
000000a0: 5651 96ba 7f19 f63a b239 133b 98a1 d4ba
000000b0: 4075 05ba 164d 02ba b01a c0b9 18bb 2a37
000000c0: 8642 afb9 f317 123b b43d a3b9 e6aa 08ba
000000d0: 03ae 673a aaab f7ba 5038 6dba 31fc 073b
000000e0: 7efd 923a e56e b83a 00fe e238 88bb bf38
000000f0: 1a76 7aba 45eb 3a3b 64ba ddb9 68ff 66b8
00000100: 6093 bdb9 588b c339 f82f 9f39 2e1c 87b9
00000110: ddb5 3c3a ec18 3739 04df 3b3a 9e62 233a
00000120: b8e1 093b 7b43 9db9 4ab6 1c3b d116 2ab9
00000130: baf3 8c39 c827 593b 66e1 0839 c46b de39
00000140: feb3 e2b9 6611 0bba 53fb ef38 974f 033a
00000150: cc2c 873a 484b 1c3a ec1d dfb9 28d5 343a
00000160: 76f7 43ba e03a 27bb 4da0 90b9 ce3d c93a
00000170: 4e9e 03bb b846 0ab9 4fc2 79b9 e0fa 7337
00000180: 05e5 163a d640 453a 50b4 1eba 6792 1f3a
00000190: 6787 0aba 19f0 2ebb a18e ecb9 ee11 34b9
000001a0: ce59 ceb8 aa68 51b9 4869 4b38 0fbc 5c3a
000001b0: 354e 083b 16ef 9e3a 4054 8fb8 a86d 5bb9
000001c0: 6cb8 4638 71a6 be3a 6708 cab9 a345 543b
000001d0: 9849 c9b9 5739 87b9 f08d 9bb9 62f1 9039
000001e0: 3e42 74b9 0e52 b238 c1c0 c53a 3b04 fcb9
000001f0: a23d bf3a 3288 0e3a ed25 94ba 16ed d739

exp_avg_sq f4 [128]
1.2518736e-06 5.4683827e-05 5.434201e-05 6.1845145e-05 2.3126058e-05 2.4271458e-06 3.1480802e-05 5.9137865e-06
1.935842e-05 0.00013625482 0.00014810736 2.927942e-05 6.112183e-05 2.5611926e-05 5.2819145e-05 3.9585935e-05
1.8123566e-06 0.00016331804 3.9409344e-05 2.1812733e-05 0.00020781637 6.658511e-05 1.0259067e-05 3.4857356e-05
0.00011337627 2.2962122e-06 0.00017428951 1.5551526e-05 9.522501e-06 1.473088e-05 0.0003048845 6.3184043e-06
4.4683613e-05 9.7543925e-05 4.5369805e-05 2.6629463e-05 3.1653282e-05 1.2584358e-05 4.757304e-05 3.3877273e-05
2.041262e-05 1.889898e-05 0.00018224899 0.00038624398 0.00018382205 1.9736393e-05 2.0708796e-06 7.723364e-06
7.617465e-07 0.00020424194 3.1726388e-05 1.6616912e-05 1.7631295e-05 2.290479e-05 0.00018161902 0.00011314738
0.0001228132 0.00052798295 0.00010278209 3.3819084e-05 2.583841e-05 2.1217691e-05 1.5199463e-05 2.8963992e-05
4.8336016e-05 0.0005691112 8.712718e-05 8.263559e-06 9.282921e-06 1.6421756e-05 5.032371e-05 4.958799e-05
6.8417045e-05 1.693069e-05 2.9050765e-05 1.3897404e-05 9.782624e-07 0.00015922071 5.7210646e-06 1.5386277e-05
2.2227121e-05 7.299666e-05 8.5971915e-06 4.9688653e-05 0.00012302064 1.0120901e-05 0.000104728686 3.9593113e-05
6.118944e-06 0.00021505391 3.4078428e-05 2.3100652e-05 0.00024566622 5.3240503e-05 2.1822034e-06 1.731604e-05
1.4755155e-05 6.323522e-05 0.00031026942 5.9495105e-06 3.281932e-05 0.00024212291 8.632971e-06 1.9359913e-05
3.216583e-06 1.4857644e-05 1.8400195e-05 0.00021496501 2.5570289e-05 6.8911526e-05 4.144107e-05 0.00023224951
1.5728408e-05 3.969615e-05 5.026734e-05 5.3689822e-05 0.000269755 9.232426e-06 0.0001869594 1.42340305e-05
5.1932684e-06 1.1237206e-05 4.195886e-05 1.2034137e-05 9.3509785e-05 4.523536e-06 5.771568e-05 5.7380406e-05
00000000: 0d06 a835 505c 6538 4aed 6338 dcb2 8138
00000010: d5fe c137 0ce2 2236 410a 0438 0a6f c636
00000020: e463 a237 a0df 0e39 444d 1b39 139d f537
00000030: 882e 8038 31d9 d637 208a 5d38 1309 2638
00000040: 1940 f335 5a40 2b39 764b 2538 7dfa b637
00000050: 48e9 5939 9ca3 8b38 5b1e 2c37 cd33 1238
00000060: 6cc4 ed38 a018 1a36 7cc1 3639 a674 8237
00000070: d5c2 1f37 a624 7737 e8d8 9f39 ae02 d436
00000080: aa6a 3b38 7f90 cc38 754b 3e38 5662 df37
00000090: 74c3 0438 6821 5337 2a89 4738 7217 0e38
000000a0: c53b ab37 4089 9e37 171a 3f39 ca80 ca39
000000b0: 5bc0 4039 958f a537 71f9 0a36 9993 0137
000000c0: d27a 4c35 c729 5639 f311 0538 8c64 8b37
000000d0: ebe6 9337 a923 c037 fc70 3e39 8949 ed38
000000e0: 6bc7 0039 5668 0a3a b78c d738 f7d8 0d38
000000f0: 90bf d837 a5fc b137 3201 7f37 b3f7 f237
00000100: 67bc 4a38 6830 153a 0cb8 b638 b7a3 0a37
00000110: d8bd 1b37 74c1 8937 ac12 5338 b3fc 4f38
00000120: 1f7b 8f38 6106 8e37 0bb2 f337 e528 6937
00000130: d74c 8335 7cf4 2639 92f7 bf36 c711 8137
00000140: 6174 ba37 c915 9938 a83c 1037 c968 5038
00000150: 1aff 0039 f0cc 2937 c9a1 db38 c810 2638
00000160: 5451 cd36 1880 6139 6fef 0e38 46c8 c137
00000170: c3cc 8039 8e4e 5f38 f871 1236 ea41 9137
00000180: e88c 7737 269d 8438 a8ab a239 e8a1 c736
00000190: 7aa7 0938 60e2 7d39 54d6 1037 1967 a237
000001a0: 7adc 5736 1845 7937 1e5a 9a37 3b68 6139
000001b0: c77f d637 9884 9038 03d1 2d38 0188 7339
000001c0: 80f0 8337 6b7f 2638 25d6 5238 0231 6138
000001d0: e76d 8d39 f8e4 1a37 880a 4439 b2ce 6e37
000001e0: d641 ae36 6f87 3c37 fcfc 2f38 3ae6 4937
000001f0: af1a c438 e1c8 9736 bd13 7238 beab 7038
