Assets/ML-Agents/Training Files/results/9roads_imitation_2layers_MonzaNewChkptReachRwd/VehicleAgent/VehicleAgent-10499770.pt (torch, 628151 bytes, 49 tensors)

network_body._body_endoder.seq_layers.0.weight f4 [128, 38]
0	0xbe78f082	-0.24310496
1	0xbd3ef314	-0.046618536
2	0x3e26b55e	0.16280124
3	0xbedaa01a	-0.42700273
4	0x3dc8311e	0.09774993
5	0xbc2a9422	-0.010411294
6	0xbe2ab8dc	-0.16672081
7	0xbe80c315	-0.25148836
8	0x3e68ad66	0.22722396
9	0x3d823e63	0.063595556
10	0xbddcc07e	-0.107789025
11	0x3d7f389b	0.062309843
12	0xbc199714	-0.009374399
13	0x3e54465f	0.2072997
14	0xbea073c3	-0.3133832
15	0xbedd903a	-0.432741
16	0x3d0f5fe6	0.035003565
17	0xbd9efe81	-0.077633865
18	0x3e0ea3fc	0.13929743
19	0x3e0bbf92	0.13647297
20	0xbdd12986	-0.10212998
21	0xbc797286	-0.015225058
22	0x3e2df649	0.16988482
23	0x3da566a9	0.080762215
24	0x3be92d36	0.0071159853
25	0x3e4720f7	0.19446169
26	0xbde8b114	-0.113619
27	0x3debdaf0	0.115163684
28	0xbde0d7a0	-0.10978627
29	0xbe40c1af	-0.18823884
30	0xbd32385c	-0.04351078
31	0xbd887add	-0.06664059
32	0xbe147f35	-0.1450165
33	0x3caefba3	0.021360224
34	0xbd6cf55e	-0.057851188
35	0xbd7ae6c2	-0.061255224
36	0xbe57b765	-0.21066053
37	0xbdc24cd9	-0.09487314
38	0xbeb22cdd	-0.34799853
39	0x3cf28235	0.029603103
40	0x3e1f7492	0.15571812
41	0xbe117d91	-0.14208056
42	0xbd80368a	-0.062604025
43	0x3e28b8a3	0.16476683
44	0x3dbea57d	0.09308908
45	0x3ed37fec	0.41308534
46	0xbc62fe6c	-0.013854604
47	0x3ee381c6	0.44434947
48	0xbdb78f62	-0.08962895
49	0xbdb3d4df	-0.08780836
50	0x3e263a1b	0.16233103
51	0x3dc333ec	0.09531388
52	0xbe341ab2	-0.17588308
53	0xbea3337f	-0.31875226
54	0xbe37608d	-0.17907925
55	0xbd577b4e	-0.052607827
56	0x3e9d3dd8	0.30711246
57	0xbdbabdea	-0.091182545
58	0x3dc68941	0.09694148
59	0x3d08ee10	0.03343016
60	0x3d1af1d0	0.037828267
61	0x3d2b39da	0.04180322
62	0xbca4d328	-0.020120218
63	0x3dfea086	0.12432961
64	0x3e48ab4f	0.19596599
65	0xbd8bca31	-0.06825674
66	0x3db76f60	0.0895679
67	0x3cc8111a	0.024422217
68	0xbd8cf582	-0.068827644
69	0x3e1ab40d	0.15107746
70	0x3e9b94a4	0.3038684
71	0xbd7ff37d	-0.062488068
72	0xbec9d977	-0.39423725
73	0xbe3150a2	-0.17315915
74	0xbe314e8c	-0.1731512
75	0x3e938440	0.28811836
76	0x3eac7535	0.33683172
77	0xbed40053	-0.41406497
78	0xbed256b8	-0.41081786
79	0xbd918b9a	-0.07106705
80	0xbedc06f3	-0.42974052
81	0x3dd4a9ac	0.10383925
82	0x3db0cd5e	0.08632921
83	0xbd1f3605	-0.038869876
84	0xbede85be	-0.43461412
85	0xbea4b9c4	-0.32172978
86	0x3de5d8b0	0.112229705
87	0x3c020eca	0.007938096
88	0xbd05d448	-0.03267315
89	0x3e408233	0.18799667
90	0xbe9a02e6	-0.30080336
91	0x3e429cd0	0.19005132
92	0x3ec85baa	0.39132434
93	0x3cdee8a3	0.02721054
94	0x3df7e890	0.12104905
95	0x3e4ca9a7	0.19986592
96	0xbede9227	-0.4347088
97	0x3da284a5	0.07935456
98	0xbe7c448d	-0.24635525
99	0x3d48c622	0.04901708
100	0x3ec053dd	0.37563983
101	0x3e98ea05	0.29866043
102	0xbe82370e	-0.25432628
103	0xbd07cd2b	-0.033154648
104	0x3e1341ed	0.14380617
105	0x3e95bbb1	0.2924476
106	0xbda316cd	-0.07963333
107	0xbd930e29	-0.07180435
108	0xbe547638	-0.20748222
109	0x3ead26f2	0.33818775
110	0xbe077c5b	-0.13231032
111	0x3e1308a8	0.14358771
112	0xbdec55c2	-0.115397945
113	0x3af143dd	0.0018407066
114	0x3d55e098	0.052216142
115	0x3d8e6167	0.06952172
116	0x3e2a5d80	0.1663723
117	0xbe945e09	-0.28977993
118	0x3e61797b	0.22018997
119	0x3e323021	0.17401172
120	0xbcf2c9b9	-0.029637204
121	0xbd0c3f4d	-0.034240056
122	0x3dbe8d9e	0.09304355
123	0xbd8f7690	-0.07005036
124	0x3b98b72c	0.0046605077
125	0x3dd58469	0.10425646
126	0x3e732859	0.2374586
127	0x3e281985	0.16415985
128	0x3ccb3276	0.024804335
129	0x3e042e91	0.12908389
130	0xbd8f4fca	-0.069976404
131	0xbd7c7aee	-0.061640672
132	0x3d0f0372	0.034915395
133	0x3e8411f8	0.2579496
134	0xbe650a19	-0.22367133
135	0xbcb4cc0d	-0.022069955
136	0xbd947aa2	-0.07249953
137	0x3d6c92f9	0.05775735
138	0xbe93260a	-0.2873996
139	0xbe5f5f00	-0.21813583
140	0xbe2512f7	-0.16120516
141	0x3e029bf4	0.12754804
142	0xbe487656	-0.19576392
143	0x3e5a8d43	0.2134295
144	0xbdc15bac	-0.09441313
145	0xbda66992	-0.08125605
146	0x3e0f19bd	0.13974662
147	0x3e1e680b	0.15469377
148	0xbee0a67f	-0.43877026
149	0x3c3d259c	0.011544611
150	0xbdd6d07e	-0.104889855
151	0x3b843801	0.0040349965
152	0xbf070dba	-0.5275532
153	0xbd9cea6a	-0.076618984
154	0xbcefef1a	-0.029288817
155	0x3e7f18ee	0.24911854
156	0xbe2f71e9	-0.17133297
157	0x3e009d47	0.12559997
158	0x3e26fc22	0.16307119
159	0xbf2faa3c	-0.6861913
160	0x3e0df391	0.13862444
161	0xbd0a7516	-0.033803068
162	0x3e1bca57	0.15213905
163	0x3d57b235	0.052660186
164	0x3cb5aa52	0.022175942
165	0x3d9bc6f8	0.0760631
166	0xbe152ddd	-0.14568277
167	0xbe03680f	-0.12832664
168	0xbd2263ef	-0.039646085
169	0xbd635578	-0.05550143
170	0x3f0a775f	0.54088396
171	0x3dad44a9	0.084603615
172	0xbe061a3c	-0.13095945
173	0xbd419c36	-0.047268115
174	0x3dd4d419	0.10392017
175	0xbe0ec6d1	-0.1394303
176	0x3e958ad9	0.29207495
177	0x3de437a8	0.11143428
178	0x3ca757ef	0.020427672
179	0xbdba398b	-0.09093007
180	0xbd661fa9	-0.056182537
181	0xbdc0e601	-0.0941887
182	0xbe992143	-0.2990819
183	0xbe83eaaa	-0.25764972
184	0xbe95fa61	-0.29292586
185	0x3e25b372	0.16181734
186	0x3e237076	0.15960869
187	0x3d2a834a	0.041629113
188	0xbe8a9537	-0.27066967
189	0xbd6a9110	-0.05726725
190	0x3e3d869c	0.1850838
191	0x3e4fdf81	0.20300104
192	0x3ebfcb21	0.37459663
193	0x3e535514	0.20637923
194	0xbdf6b573	-0.120463274
195	0xbcb96324	-0.022630282
196	0xbdae50d7	-0.08511513
197	0x3dbf8375	0.09351245
198	0xbda2633a	-0.07929082
199	0x3d034d86	0.032056354
200	0xbe8532f2	-0.2601543
201	0xbe3ac131	-0.18237759
202	0xbda5e132	-0.08099593
203	0x3e588a9f	0.2114663
204	0x3ce991e2	0.028511945
205	0x3e44968b	0.19198053
206	0xbdb33255	-0.087498344
207	0xbdd7cf3f	-0.10537576
208	0xbe8230b0	-0.2542777
209	0xbc382aac	-0.0112406425
210	0xbe049a53	-0.12949495
211	0x3e63d6f7	0.22249971
212	0xbdc79889	-0.09745891
213	0xbebc4e15	-0.36778322
214	0x3d117186	0.035508655
215	0x3dce5f19	0.10076732
216	0xbe128685	-0.14309128
217	0x3dd84fd6	0.105621025
218	0x3d47b7ca	0.04875926
219	0x3cb4b61d	0.022059495
220	0xbd88f5bf	-0.06687497
221	0xbd1d2533	-0.038365554
222	0xbede65c3	-0.43437013
223	0x3d14d362	0.036334403
224	0x3e0e689b	0.13907091
225	0xbc65b74a	-0.01402075
226	0xbe005f1b	-0.1253628
227	0x3c33efa8	0.0109824315
228	0xbe37cd95	-0.17949517
229	0x3c51ba29	0.012800732
230	0x3eb46578	0.35233665
231	0x3dc616d4	0.09672323
232	0x3ce48309	0.027894514
233	0x3e600170	0.21875548
234	0x3d027931	0.03185386
235	0x3da79bb5	0.08183996
236	0x3b09dee4	0.0021037394
237	0x3e29673b	0.16543286
238	0x3ba4d818	0.005030643
239	0x3e1cad04	0.15300375
240	0x3d8b22d5	0.06793753
241	0x3d3b760a	0.045766868
242	0xbebecff0	-0.3726802
243	0x3c99c7cb	0.018772027
244	0xbb2e3823	-0.0026583753
245	0xbe6f558a	-0.23372474
246	0x3bf8201c	0.007572187
247	0xbd27ba17	-0.040948953
248	0x3d4b0dec	0.049573824
249	0x3deb9415	0.11502854
250	0x3e6812cc	0.2266342
251	0x3d564c79	0.052319024
252	0xbe3b6fd4	-0.18304378
253	0xbe026ae7	-0.12736093
254	0xbe2831e9	-0.16425289
255	0xbe1ec99f	-0.155066

network_body._body_endoder.seq_layers.0.bias f4 [128]
0	0x3908bac4	0.00013039546
1	0x3cfd3c31	0.03091249
2	0xbcc873ba	-0.024469245
3	0x3d2cc373	0.042178582
4	0xbdf32f1e	-0.11874221
5	0xbd6ee147	-0.05832031
6	0xbcbc1521	-0.022959294
7	0x3bc8ca90	0.006127663
8	0xbd30a33e	-0.04312443
9	0x3e15d064	0.14630276
10	0x3cf3d3ae	0.029764023
11	0x3da4d1d6	0.080478355
12	0xbd56adf7	-0.052412
13	0xbd97ec41	-0.07418109
14	0xbba2e2a1	-0.004970864
15	0x3dfe407c	0.12414643
16	0xbd63e211	-0.055635516
17	0x3d1ede0d	0.038785983
18	0xbe0f82e6	-0.14014778
19	0x3e28f581	0.16499902
20	0x3d504283	0.05084468
21	0x3e1e1cbb	0.15440647
22	0xbd3886c7	-0.04505041
23	0x3d3251e6	0.043535136
24	0x3d4de235	0.050264556
25	0xbb4857b2	-0.0030569849
26	0x3dcf27ea	0.10115035
27	0xbc970bad	-0.018438185
28	0x3c19c852	0.009386139
29	0xbe060015	-0.13085969
30	0x3d87bea8	0.06628162
31	0xbd8a67aa	-0.067580536
32	0x3e1567fc	0.14590448
33	0x3c7a4ca1	0.015277059
34	0x3de17ee3	0.1101053
35	0xbe143f47	-0.14477263
36	0xbdde8247	-0.10864692
37	0xbb5088c8	-0.003181981
38	0xbdc22fc2	-0.09481765
39	0xbd3fde62	-0.04684294
40	0x3d9c0248	0.076176226
41	0xbdfdf657	-0.12400501
42	0x3e07f856	0.13278326
43	0x3ddbdcf7	0.10735505
44	0x3d9a5bba	0.07537027
45	0x3d4e7457	0.05040392
46	0x3e0f2c7c	0.13981813
47	0xbe1346e8	-0.14382517
48	0xbdcb4cc6	-0.09926753
49	0x3e0cc5db	0.13747351
50	0xbe0e807a	-0.13916197
51	0xbd0bfb9d	-0.034175504
52	0xbd32e8ab	-0.04367892
53	0x3db0a73c	0.086256474
54	0x3d58a571	0.052892152
55	0xbd42abd2	-0.047527142
56	0x3dbd3e81	0.09240437
57	0x3d51f9e5	0.05126371
58	0x3d86aa23	0.0657542
59	0xbdb322e3	-0.087468885
60	0xbe02a983	-0.12759976
61	0xbcd9d495	-0.026590625
62	0xbd8fd070	-0.07022178
63	0x3d5328f4	0.051552728
64	0xbd94ae6b	-0.0725983
65	0x3d602160	0.05471933
66	0x3d1b08b2	0.03785009
67	0xbcbc5022	-0.022987429
68	0x3dd9dc1d	0.106376864
69	0xbd6a7051	-0.05723602
70	0xbc458608	-0.012055881
71	0xbd7ed35d	-0.06221329
72	0x3dd0ff9a	0.10205002
73	0xbe149dbb	-0.14513294
74	0xbcde7547	-0.027155532
75	0xbdbc5dea	-0.091976
76	0x3d67592f	0.056481536
77	0x3dd71c68	0.10503465
78	0x3dbde5cb	0.09272345
79	0xbd421ced	-0.047390867
80	0xbdfea7df	-0.124343626
81	0x3e12dceb	0.14342086
82	0xbb90f3d5	-0.0044235983
83	0xbdbb7a0c	-0.09154138
84	0xbc9c70e2	-0.019096795
85	0xbda718ee	-0.08159052
86	0xbd627578	-0.05528781
87	0xbd9067ff	-0.07051086
88	0xbe31f9f5	-0.17380507
89	0xbd1938ae	-0.03740757
90	0xbd626e27	-0.05528083
91	0xbc879b9a	-0.016553689
92	0xbdbdec68	-0.092736065
93	0xbd88395c	-0.066515654
94	0xbd9fe625	-0.078075685
95	0xbd5083f9	-0.05090711
96	0x3b1f90b4	0.0024347724
97	0xbe03df08	-0.12878048
98	0x3c80f34b	0.015741011
99	0xbd90ba06	-0.07066731
100	0x3dbabbbb	0.09117838
101	0xbd8e658d	-0.06952963
102	0xbd5bd968	-0.05367413
103	0xbe016427	-0.12635861
104	0xbe58bdae	-0.21166107
105	0x3da63475	0.08115474
106	0xbdb458d2	-0.08806004
107	0xbcc94df0	-0.024573296
108	0xbddc9a81	-0.10771657
109	0x3dd23d12	0.102655545
110	0x3d24e79f	0.040259954
111	0x3c935f6e	0.01798984
112	0xbdf0a044	-0.11749318
113	0x3b98c804	0.0046625156
114	0xbc60275f	-0.013681262
115	0xbc05e3c9	-0.008171984
116	0x3d70ad80	0.058759212
117	0xbe032d89	-0.12810339
118	0x3c2de1fc	0.010612961
119	0xbe03d3ff	-0.12873839
120	0x3c837060	0.016044796
121	0xbe00988d	-0.12558194
122	0xbdea2543	-0.11432888
123	0xbdb48eaa	-0.088162735
124	0x3e1bb4dd	0.15205713
125	0x3d9d9440	0.07694292
126	0x3e3b4bfa	0.18290702
127	0x3d9ac7bf	0.0755763

network_body._body_endoder.seq_layers.2.weight f4 [128, 128]
0	0x3dc2725b	0.09494468
1	0xbe2bd0d9	-0.16778888
2	0xbe5e12be	-0.21686837
3	0x3da1eb38	0.079061925
4	0x3e30e2c6	0.17274007
5	0x3df76861	0.120804556
6	0xbe4a789a	-0.19772568
7	0x3dc1baff	0.09459495
8	0x3d9b68a5	0.07588319
9	0xbe154ac9	-0.1457931
10	0x3d0769d7	0.03305992
11	0xbe905b26	-0.2819454
12	0x3e77b81c	0.24191326
13	0x3e51b903	0.20480733
14	0x3c6519e4	0.013983224
15	0xbd11960f	-0.035543498
16	0x3dbb1b1a	0.091360286
17	0x3eb64b03	0.35604104
18	0x3deb4f04	0.114896804
19	0xbe8ac5cb	-0.2710403
20	0x3e331ebe	0.17492196
21	0xbe6fc258	-0.2341398
22	0x3e1b5234	0.15168077
23	0xbe0d7ad9	-0.13816394
24	0xbe7472fe	-0.23871991
25	0x3d9ad702	0.07560541
26	0xbcdecc76	-0.027197104
27	0xbdef2692	-0.116772786
28	0xbd526e5a	-0.05137477
29	0x3d97eb08	0.074178755
30	0xbca795eb	-0.020457229
31	0xbce5b0cc	-0.028038405
32	0xbd4be663	-0.04978026
33	0xbdf91db4	-0.121638685
34	0xbda2ccea	-0.079492405
35	0x3d5fce12	0.054639883
36	0x3cbf0621	0.023318352
37	0x3e0a6be8	0.13517725
38	0x3e3b9680	0.1831913
39	0xbe63b7b0	-0.2223804
40	0xbe826cf0	-0.25473738
41	0xbe40f914	-0.18845016
42	0xbe65953a	-0.22420207
43	0x3d87c551	0.06629432
44	0xbdea9538	-0.114542425
45	0xbe7359f4	-0.23764783
46	0xbe7a8cbb	-0.24467747
47	0xbd0347df	-0.032050963
48	0x3cf59444	0.029977925
49	0xbebb1ee7	-0.36547014
50	0x3e122477	0.14271723
51	0xbd5cbb5b	-0.053889614
52	0xbe910761	-0.28325942
53	0xbd8d0fa5	-0.068877496
54	0x3dcf2127	0.10113745
55	0xbd8ea743	-0.069654964
56	0x3bd9ece2	0.006650553
57	0xbe0976c5	-0.13424213
58	0x3ccc339d	0.024926955
59	0x3b7c8ba2	0.0038535376
60	0x3d0e1f9b	0.03469811
61	0xbde32da0	-0.11092687
62	0xbd783745	-0.060599584
63	0xbdaaf5a6	-0.08347635
64	0x3d873230	0.066013694
65	0xbe62660f	-0.22109245
66	0xbe4a6ed2	-0.19768837
67	0xbde7a3c3	-0.11310532
68	0xbe050cfc	-0.12993234
69	0x3e10f1d6	0.14154753
70	0x3b82aead	0.003988108
71	0x3e337325	0.17524393
72	0xbe9bfa61	-0.3046446
73	0xbbd05418	-0.006357681
74	0xbd1009b6	-0.03516551
75	0xbc77e69c	-0.015130665
76	0xbd78b936	-0.060723506
77	0xbeb00f86	-0.34386843
78	0xbe56238f	-0.20912002
79	0x3db28949	0.08717591
80	0x3d69d8aa	0.057091393
81	0xbe5c59c3	-0.21518616
82	0xbded2721	-0.11579729
83	0x3e322e03	0.17400365
84	0x3d796670	0.060888708
85	0x39ce700b	0.0003937486
86	0x3dda519e	0.106600985
87	0xbe16e465	-0.14735563
88	0x3dd5e5b7	0.10444205
89	0x3e31ce45	0.17363842
90	0x3bc32d3e	0.005956321
91	0xbe2e67db	-0.17031805
92	0x3dd815be	0.10551022
93	0x3e1b1d77	0.15147959
94	0x3db69546	0.089151904
95	0x3ca7eed4	0.020499624
96	0xbd3b540b	-0.045734446
97	0xbd7af849	-0.06127194
98	0x3e2e8ccc	0.17045897
99	0xbd130dc3	-0.035901796
100	0xbe673488	-0.22578633
101	0x3dbe030a	0.092779234
102	0x3d28a5f1	0.04117388
103	0x3dbbc5d5	0.09168593
104	0x3dcc778b	0.099837385
105	0xbd61fd80	-0.055173397
106	0xbb45c58b	-0.003017756
107	0xbe2acb07	-0.16679011
108	0xbb6d0c8a	-0.0036170804
109	0xbe1c4bf9	-0.15263356
110	0xbd9add80	-0.07561779
111	0x3e1961b1	0.14978673
112	0x3cd4dafd	0.025983328
113	0xbe6794ee	-0.22615406
114	0x3e0c65a9	0.13710655
115	0xbe314b83	-0.17313962
116	0x3e62151e	0.22078368
117	0xbc447400	-0.011990547
118	0x3d50aa9b	0.050943952
119	0xbda92ce6	-0.08260517
120	0x3d95d282	0.07315542
121	0x3e046e0b	0.12932603
122	0x3c0bf9ec	0.008543473
123	0xbc14478f	-0.009050264
124	0xbe0078e0	-0.1254611
125	0x3e353c5e	0.1769881
126	0xbe107565	-0.14107282
127	0x3c49fe8c	0.012328755
128	0x3e0bc9ef	0.1365125
129	0xbdb5eb24	-0.0888274
130	0xbe09fff5	-0.13476546
131	0x3b065bcf	0.00205015
132	0x3d8c2847	0.0684362
133	0x3dfe8ed9	0.1242959
134	0xbd2ba24f	-0.041902836
135	0xbdc5f539	-0.09665913
136	0xbdd325e0	-0.103099585
137	0x3cadeab4	0.02123008
138	0xbd76604b	-0.060150426
139	0x3d0d6425	0.034519333
140	0xbd5df4fc	-0.054188713
141	0x3c9568b3	0.018238401
142	0xbbf2a5d6	-0.007405023
143	0xbd6f832a	-0.058474697
144	0xbd316532	-0.043309398
145	0x3d649a86	0.055811428
146	0x3de176e8	0.11009008
147	0xbd2a06d2	-0.04151041
148	0xbe46b75d	-0.19405885
149	0x3e5268ea	0.20547834
150	0x3a3bac4a	0.0007159157
151	0xbc65f386	-0.014035111
152	0x3dc00ec5	0.09377817
153	0xbdc1d225	-0.0946391
154	0xbca8ab5c	-0.020589523
155	0x3e72ded5	0.23717816
156	0xbd902baa	-0.07039578
157	0x3e326007	0.17419444
158	0xbe136d21	-0.14397098
159	0xbcac384e	-0.021022942
160	0x3e15dbbc	0.14634603
161	0x3dabafa9	0.08383114
162	0xbde169e3	-0.110065244
163	0xbd673288	-0.056444675
164	0xbddaba95	-0.10680119
165	0xbd29eada	-0.041483738
166	0xbd963c9b	-0.07335778
167	0x3cfccf2f	0.030860512
168	0x3db05965	0.08610801
169	0x3e1c130b	0.1524164
170	0x3d855283	0.065098785
171	0x3dce46db	0.10072108
172	0x3d39d01f	0.045364495
173	0x3d1c95db	0.03822885
174	0xbe393224	-0.18085533
175	0xbd43e055	-0.04782136
176	0x3e2cafc5	0.16863926
177	0xbcfe8894	-0.031070985
178	0x3ca9eb8a	0.020742197
179	0x3da019ee	0.07817446
180	0x3c5b1bc3	0.013373318
181	0xbc8d045f	-0.017213998
182	0x3e16067f	0.14650916
183	0xbe12276e	-0.14272854
184	0xb9b624da	-0.00034741202
185	0xbd1944dc	-0.037419185
186	0x3d2e818c	0.042604014
187	0x3dad3c82	0.084588066
188	0xbcf8521e	-0.030312594
189	0x3e079058	0.13238657
190	0x3dde09b7	0.10841697
191	0x3d93535d	0.07193635
192	0xbc285aad	-0.010275525
193	0x3d746756	0.05966886
194	0x3da71dd3	0.081599854
195	0x3d52b5cb	0.051442903
196	0x3d646988	0.055764705
197	0xbb60fbf8	-0.0034329873
198	0xbc9b94c5	-0.018991837
199	0x3e0d091d	0.13773008
200	0xbd5dea79	-0.05417869
201	0x3d2f1c40	0.04275155
202	0x3da359d9	0.079761215
203	0xbc889837	-0.016674144
204	0x3d172f24	0.03691019
205	0xbd0c7ba4	-0.0342976
206	0x3e00abad	0.12565489
207	0xbdba74c7	-0.09104305
208	0xbe6ea9af	-0.23306917
209	0x3bef0166	0.007293868
210	0x3db6fabf	0.08934545
211	0x3ddece32	0.108791724
212	0x3bc577c2	0.006026239
213	0x3d0b700f	0.034042414
214	0x3d2f54bf	0.04280543
215	0xbe43ffde	-0.19140574
216	0x3ad6abdd	0.0016378124
217	0xbd1dab4e	-0.038493447
218	0x3c60222c	0.013680022
219	0xbd37a32d	-0.04483335
220	0x3d1f64b3	0.038914394
221	0xbc4b7cda	-0.012419904
222	0x3cfad421	0.03061873
223	0x3dcc779b	0.099837504
224	0xbca862c9	-0.020554917
225	0x3d7fe24a	0.062471665
226	0xbc69d430	-0.014271781
227	0x3d148700	0.03626156
228	0x3e3fc91e	0.18729064
229	0xbe2f6817	-0.17129551
230	0x3d34786d	0.04406016
231	0x3e626eba	0.22112551
232	0xbb206769	-0.00244757
233	0xbdc9ca1a	-0.09853001
234	0x3d3fd800	0.046836853
235	0x3bc04efa	0.0058687897
236	0xbdc4484a	-0.095841005
237	0xbabbed68	-0.001433772
238	0x3e3bcfb8	0.18340957
239	0xbd8b5ebe	-0.0680518
240	0x3e251050	0.16119504
241	0xbd05c3a9	-0.0326573
242	0xbba75e76	-0.005107696
243	0xbe6bb9b1	-0.23020054
244	0x3d3339b3	0.0437562
245	0x3c9267ad	0.017871702
246	0x3e392b4f	0.18082927
247	0xbdbd94c0	-0.092568874
248	0x3d58f8f4	0.052971795
249	0xbd9686e2	-0.073499456
250	0xbc8762ae	-0.016526546
251	0xbcc25267	-0.023720933
252	0x3d3e49a0	0.046456933
253	0xbd75b07e	-0.05998277
254	0x3d878c8b	0.06618603
255	0xbe1d6511	-0.15370585

network_body._body_endoder.seq_layers.2.bias f4 [128]
0	0xbdfc5b81	-0.123221405
1	0x3c9b872e	0.018985357
2	0xbb205d0a	-0.0024469518
3	0xbe0f9b35	-0.1402405
4	0xbe2e0f29	-0.1699797
5	0x3d9c7bb9	0.07640786
6	0xbdcc25c7	-0.09968143
7	0xbe08e3fb	-0.13368218
8	0x3d99e790	0.0751487
9	0x3c02078c	0.00793637
10	0xbdfea527	-0.12433844
11	0xbd53b9e6	-0.05169096
12	0x3de3c7bc	0.11122081
13	0xbe11bcc9	-0.14232172
14	0x3c6cb402	0.014447214
15	0xbd1b08cc	-0.037850186
16	0x3d1fcafe	0.039011948
17	0x3d5f1f76	0.054473363
18	0x3bdd7c3f	0.006759196
19	0xbded6045	-0.115906276
20	0x3d0bb61e	0.034109227
21	0x3d86890a	0.06569107
22	0xbe0980c7	-0.13428031
23	0x3bf859d0	0.007579066
24	0x3b9d6c30	0.0048041567
25	0xbe020d5a	-0.12700406
26	0x3d2f1b91	0.0427509
27	0x3cf409ce	0.029789831
28	0xbe2269fa	-0.1586074
29	0x3dd5031f	0.10400986
30	0xbc311ffd	-0.010810849
31	0xbe0c5e48	-0.1370784
32	0xbe24746f	-0.16060041
33	0x3d765203	0.060136806
34	0xbc7cb295	-0.015423437
35	0x3e21e4d0	0.15809941
36	0x3d935259	0.07193441
37	0xbbd735e7	-0.006567705
38	0xbe253ff0	-0.16137671
39	0xbc460369	-0.012085774
40	0x3c331cf2	0.010932194
41	0xbd5d6889	-0.05405477
42	0x3dbf2b5e	0.093344435
43	0xbda0fc4b	-0.07860621
44	0xbcdb46bc	-0.026767127
45	0x3db52cd0	0.08846438
46	0xbd8b623e	-0.068058476
47	0x3dd1bf96	0.1024162
48	0xbe16d513	-0.14729719
49	0x3d9f51d2	0.07779278
50	0x3d0db087	0.034592178
51	0xbdc1fbe0	-0.094718695
52	0xbe10de4b	-0.14147298
53	0xbc10145f	-0.008793919
54	0xbd77954d	-0.06044512
55	0xbcf114a4	-0.029428788
56	0x3e1016cc	0.14071196
57	0x3d5963f7	0.05307385
58	0xbe36426b	-0.17798774
59	0xbcfd2587	-0.030901683
60	0x3cef5c8d	0.029218936
61	0x3d49d180	0.04927206
62	0x3c0b7657	0.008512101
63	0x3d4d91da	0.050187923
64	0xbe096ce1	-0.1342044
65	0x3db29075	0.08718959
66	0xbe24cb49	-0.16093172
67	0x3dff8c84	0.12477973
68	0xbded1149	-0.115755625
69	0x3d51f1c1	0.051255945
70	0xbdbf96cc	-0.09354934
71	0xbc954ed1	-0.01822606
72	0x3d85b751	0.065291055
73	0x3bade13f	0.0053063924
74	0xbe00899d	-0.12552495
75	0x3d28c87b	0.041206818
76	0x3d156444	0.036472574
77	0x3d5bd641	0.053671125
78	0x3d892f61	0.0669849
79	0xbe1795de	-0.14803264
80	0xbdf57097	-0.119843654
81	0xbc80837d	-0.015687698
82	0xbd723257	-0.05913004
83	0xbe0240fb	-0.127201
84	0x3cc59a48	0.024121419
85	0xbdf05989	-0.117358275
86	0x3c62dd46	0.013846701
87	0x3de82830	0.1133579
88	0x3dd7c596	0.105357334
89	0xbe13af6e	-0.1442239
90	0x3c7cb6a0	0.015424401
91	0x3d3b42fb	0.045718174
92	0xbc577177	-0.013149611
93	0xbdb32392	-0.08747019
94	0xbc290b2c	-0.010317605
95	0xbe0426b4	-0.12905389
96	0x3d2c7bfb	0.042110424
97	0xbd17b82f	-0.037040886
98	0xbd6c80f1	-0.057740156
99	0xbc1cb560	-0.009564728
100	0xbe195342	-0.14973167
101	0xbe1675a9	-0.14693321
102	0x3cc6f7ec	0.02428814
103	0x3961e26e	0.00021542024
104	0x3db6fde7	0.08935147
105	0xbe06943b	-0.13142483
106	0xbd9f105d	-0.07766793
107	0xbd9f0bd8	-0.07765931
108	0xbe1a7bda	-0.15086308
109	0xbdad6b58	-0.0846774
110	0xbe1d57d5	-0.15365537
111	0xbb97fda4	-0.0046383906
112	0x3d9356b1	0.071942694
113	0xbe022779	-0.1271037
114	0xbcb16da4	-0.021658726
115	0x3d35e65c	0.04440914
116	0x3cc8216a	0.024429996
117	0xbced25d3	-0.0289487
118	0x3df1ad23	0.11800601
119	0x3874a6dd	5.8329537e-05
120	0xbe168126	-0.14697704
121	0x3b56a118	0.0032749828
122	0xbca5f95e	-0.02026051
123	0xbd8dd4f1	-0.06925381
124	0xbd4ba641	-0.0497191
125	0x3d4e337f	0.05034208
126	0xbbe554ec	-0.006998649
127	0xbd1d3474	-0.0383801

action_model._continuous_distribution.log_sigma f4 [1, 2]
0	0xbf14612e	-0.57960784
1	0xbebb7213	-0.3661047

action_model._continuous_distribution.mu.weight f4 [2, 128]
0	0xbe16a542	-0.14711478
1	0xb917c5c8	-0.00014474161
2	0xbe72b46e	-0.23701641
3	0xbb2dd820	-0.0026526526
4	0xbd63de9a	-0.05563221
5	0xbd2aba54	-0.041681603
6	0xbe3d6aa4	-0.18497711
7	0xbca7b311	-0.020471128
8	0xbe81cc7b	-0.2535132
9	0xbdb26d3a	-0.087122396
10	0xbc2baa28	-0.01047758
11	0xbe081de0	-0.13292646
12	0x3dc12099	0.09430046
13	0xbd4230e5	-0.04740991
14	0xbb74545d	-0.003728173
15	0xbd8ad0b8	-0.06778091
16	0x3aee04d0	0.0018159393
17	0xbde15c17	-0.11003893
18	0xbdf9d23d	-0.12198303
19	0x3c74a4d8	0.01493188
20	0x3d8fb6d6	0.07017295
21	0xbde3d6a1	-0.111249216
22	0xbd803aea	-0.06261237
23	0x3a6a559e	0.00089391496
24	0xba79db41	-0.00095312676
25	0xbd9e4682	-0.07728292
26	0xbb8731ba	-0.004125801
27	0xbb6d6efe	-0.0036229487
28	0xbc863ca0	-0.01638633
29	0x3def4ebb	0.116849385
30	0xbd819636	-0.063274786
31	0x3b42c799	0.002972102
32	0xba80ada6	-0.0009817376
33	0x3be06cb4	0.006848896
34	0xbd8ca58a	-0.068675116
35	0x3db7d00c	0.08975229
36	0xbba16a3b	-0.0049259937
37	0xbb30675a	-0.002691707
38	0xbd1dc83a	-0.03852103
39	0xbb3e2520	-0.0029013827
40	0xbe5bd83e	-0.21469209
41	0x3c7b42cc	0.01533575
42	0xbde8d379	-0.1136846
43	0xbdebf79f	-0.11521839
44	0xbb8fc0de	-0.004387005
45	0x3e1368cc	0.14395446
46	0x3d705e8b	0.058683913
47	0x3d30e81b	0.043190103
48	0xbd05f0b3	-0.03270025
49	0xbe59e350	-0.21278119
50	0x3ab6cec3	0.0013947118
51	0x3d4c36ac	0.049856827
52	0xbd2343ca	-0.03985957
53	0x3a2c5934	0.00065745716
54	0xbdcee842	-0.101028934
55	0x3b96dc97	0.004603933
56	0x3d7679ef	0.06017488
57	0xb886e753	-6.4327054e-05
58	0xbb806329	-0.003918071
59	0x3e06f775	0.13180335
60	0x3e049ca9	0.12950386
61	0x3b8c22f2	0.0042766267
62	0x3e0adf98	0.13561857
63	0x3ac865cb	0.0015289126
64	0xbba13725	-0.004919904
65	0xba9dccdb	-0.0012039201
66	0xbbd7eedf	-0.006589755
67	0x3dd8bb77	0.10582631
68	0xbe0ea99a	-0.13931885
69	0xb99f2a7a	-0.0003035849
70	0x3da96834	0.08271828
71	0xbe496774	-0.1966837
72	0x3df05c63	0.11736371
73	0x3e4422f1	0.19153954
74	0x3cffc9bd	0.031224126
75	0x3e22cfee	0.15899631
76	0xbdb0f0b5	-0.08639661
77	0x3dae50ee	0.0851153
78	0x3e188e7c	0.14898103
79	0xbdb3520b	-0.08755883
80	0x3d9dc4d1	0.077035554
81	0x3abb8bbb	0.0014308611
82	0x3e076e87	0.13225757
83	0xbd51f651	-0.051260296
84	0x3b3e58c6	0.0029044612
85	0xbd223c44	-0.039608255
86	0xbe2a8670	-0.16652846
87	0xbcb5c628	-0.022189215
88	0xbd412380	-0.047152996
89	0x3c098c95	0.008395334
90	0xbe126c18	-0.14299047
91	0x3cdde69e	0.027087506
92	0xbc0d3af1	-0.00862001
93	0x3d803462	0.06259991
94	0x3b20d5fb	0.0024541605
95	0xbd689f45	-0.056792516
96	0xbb968bbb	-0.004594294
97	0x3b3568e9	0.002768094
98	0x3dec9fd4	0.11553922
99	0xbb3fa4c4	-0.0029242495
100	0x3ba3f8c1	0.005004019
101	0xbd7002ef	-0.058596548
102	0x3da75f91	0.08172525
103	0x39ec8c40	0.00045117922
104	0x3dab3fee	0.08361803
105	0xbe0d08db	-0.1377291
106	0xbdfe924d	-0.124302484
107	0x3a95324a	0.0011382785
108	0x3ce38789	0.02777459
109	0x3d073d70	0.033017576
110	0xbba37f36	-0.00498953
111	0x3e27db5f	0.16392277
112	0x3dc4907c	0.09597871
113	0xbe42282e	-0.1896064
114	0x3e3bbce2	0.18333772
115	0xbb9082e5	-0.004410135
116	0xbb86909a	-0.0041065933
117	0x3a002150	0.00048877764
118	0x3da30505	0.07959942
119	0x3be6847c	0.0070348363
120	0xbb14f5cc	-0.0022729514
121	0x3d27cd5f	0.04096734
122	0xba8e94db	-0.0010878103
123	0xbd992cc8	-0.074792445
124	0x3e21ea86	0.1581212
125	0xba9bc5b8	-0.0011884486
126	0xba2bc232	-0.00065520697
127	0xbe20b9ac	-0.15695828
128	0xbe0069f5	-0.1254042
129	0x3ae3e9ba	0.0017388382
130	0x3cad6fdc	0.021171503
131	0xbe17ffdd	-0.14843698
132	0xbdfc2a61	-0.12312771
133	0x3d54b8e6	0.051934145
134	0xbd47d323	-0.04878534
135	0xbdda3d13	-0.1065618
136	0x3d33c35c	0.04388748
137	0x3d3dfbc9	0.0463827
138	0xbca25024	-0.019813605
139	0xbc854ce7	-0.016272021
140	0x3d65e5cc	0.056127355
141	0xbdaab4b1	-0.083352454
142	0x3b8acb50	0.0042356625
143	0xbb0fb9cd	-0.0021930814
144	0xba5b3c44	-0.0008363167
145	0x3d975c22	0.0739062
146	0x3c144a9e	0.009050993
147	0xbe040e63	-0.12896113
148	0x3cea47d0	0.028598696
149	0x3dabf803	0.08396914
150	0xbe0edc38	-0.13951194
151	0x3aab1dcc	0.0013055145
152	0x3bb8d4b7	0.005640592
153	0xbe0c3171	-0.13690735
154	0x3b405999	0.002935028
155	0x3a6641f6	0.00087836327
156	0xbe037d46	-0.12840757
157	0x3d9a605c	0.0753791
158	0x3d0131f0	0.031541765
159	0xbe19ade0	-0.15007734
160	0xbd4b6a27	-0.04966178
161	0x3adf3f35	0.0017032387
162	0x3ba228d0	0.004948713
163	0x3e158ff4	0.14605695
164	0x3cd0963a	0.025462259
165	0x3ac2b026	0.0014853522
166	0xbe03c53e	-0.1286821
167	0xbba88c4a	-0.005143677
168	0x3d61364c	0.054983422
169	0xbd54a18e	-0.051911883
170	0x3db40df8	0.08791727
171	0xbd25bee1	-0.04046524
172	0xbadbdc0e	-0.0016773955
173	0x3e0621c5	0.1309882
174	0xbceb7c26	-0.028745722
175	0x3ce3c383	0.027803188
176	0xbe01c45d	-0.12672563
177	0x3d857da0	0.06518102
178	0x3b8a8548	0.004227314
179	0xbdd0c841	-0.101944454
180	0xbe335253	-0.17511873
181	0x3bb6e69d	0.0055816905
182	0xbcda7a5f	-0.02666968
183	0xb954a169	-0.00020278025
184	0x3dbf73bc	0.093482465
185	0x3b057763	0.002036535
186	0xbdaac90e	-0.083391294
187	0xbd712d79	-0.058881257
188	0x3d218066	0.03942909
189	0x3b15cdee	0.002285834
190	0x3c0212e2	0.007939072
191	0x3d42dd08	0.047574073
192	0xbe29669a	-0.16543046
193	0x3d7f2a9a	0.062296487
194	0xbe052bb3	-0.13004951
195	0x3daff964	0.08592489
196	0xbe104abe	-0.14091012
197	0xba923840	-0.001115568
198	0xbd955075	-0.072907366
199	0x3c0abbda	0.008467639
200	0x3cc4388e	0.023952749
201	0xbd638333	-0.055545043
202	0xbe03d631	-0.12874676
203	0x3cc39470	0.023874491
204	0x3d3d0c9c	0.046154603
205	0x3cd7e0ff	0.026352404
206	0x3d50ab3a	0.050944544
207	0xbdf17e30	-0.117916465
208	0xbdee1699	-0.11625404
209	0x37bc1e30	2.2425404e-05
210	0xbd8332aa	-0.06406148
211	0xbe4cbe82	-0.19994548
212	0x3ac1bf6c	0.001478178
213	0xbccf495e	-0.025303539
214	0x3cfb1f16	0.030654471
215	0x3d97f183	0.074191116
216	0x3dd8d750	0.105879426
217	0xbdf50f1f	-0.11965775
218	0x3d18c322	0.03729547
219	0xbb43ca2b	-0.002987514
220	0x3bd47fc1	0.006484956
221	0xbdb439d9	-0.08800096
222	0xbb0fcff3	-0.0021944016
223	0xbdaa0703	-0.08302119
224	0x3bc7e96c	0.006100824
225	0xbb610b00	-0.0034338832
226	0xbe0a8a63	-0.13529353
227	0xbaf60fe1	-0.0018773043
228	0xbdad27e0	-0.08454871
229	0xbddd3708	-0.10801512
230	0x3cabb8d9	0.020962166
231	0x3ad8e067	0.0016546369
232	0x3d49b620	0.049245954
233	0xbded5def	-0.11590182
234	0xbd24a4e3	-0.04019631
235	0xbaeb1c23	-0.0017937463
236	0xbe0f0d9a	-0.13970032
237	0xbd0e797e	-0.034783833
238	0xbdcd1baa	-0.10015042
239	0xbcbb615b	-0.022873571
240	0x3d9649de	0.07338308
241	0xbdfa2dfd	-0.12215803
242	0xbd187e8d	-0.037230063
243	0x3991d935	0.00027818387
244	0x3b99998b	0.004687493
245	0x3bdc871e	0.0067299744
246	0x3db16e21	0.086635835
247	0xbbf01b04	-0.0073274393
248	0xbd2bc810	-0.04193884
249	0x3c19b878	0.00938236
250	0xbbd8a3ea	-0.006611337
251	0xbd520faf	-0.05128449
252	0xbd938dc4	-0.07204774
253	0x3b903333	0.0044006347
254	0xbb6a79d3	-0.003577818
255	0xbcc6d925	-0.024273464

action_model._continuous_distribution.mu.bias f4 [2]
0	0x3d1373fd	0.035999287
1	0x3e3b5b17	0.18296467

exp_avg f4 [128, 38]
0	0xb804d8dc	-3.167322e-05
1	0x00000000	0.0
2	0x381c2624	3.722882e-05
3	0xb6597d88	-3.2408589e-06
4	0x39712964	0.0002299897
5	0xb86746d0	-5.514064e-05
6	0x00000000	0.0
7	0xb8eecdba	-0.00011387044
8	0x398eb81c	0.00027221523
9	0x3982c088	0.0002493898
10	0xb763adfc	-1.3570763e-05
11	0x00000000	0.0
12	0x374257dc	1.1583757e-05
13	0x38bb39ff	8.9276575e-05
14	0x399e9b28	0.0003025171
15	0xb7346a7b	-1.0753628e-05
16	0x00000000	0.0
17	0xb8ad2122	-8.255454e-05
18	0x398ac04b	0.0002646468
19	0x398151aa	0.00024665642
20	0xb803c8ba	-3.1419775e-05
21	0x00000000	0.0
22	0x39747b60	0.00023315614
23	0x3816cc0d	3.5952824e-05
24	0x39a9fa39	0.00032420622
25	0x38bdbe94	9.04772e-05
26	0x00000000	0.0
27	0xb84f70fe	-4.9457878e-05
28	0x389fc850	7.619022e-05
29	0x397a8f25	0.00023895183
30	0x38b0cc85	8.430429e-05
31	0x00000000	0.0
32	0x396530e9	0.00021857362
33	0x37853057	1.5877346e-05
34	0x399dc57c	0.0003009251
35	0x3a3039e0	0.0006722491
36	0x3882b3b7	6.2323576e-05
37	0xb89952e2	-7.311047e-05
38	0x3a15ecb3	0.000571917
39	0x00000000	0.0
40	0x3a03a064	0.00050211535
41	0xb9e403ec	-0.0004349047
42	0xba016ce7	-0.0004937187
43	0x39b46c6e	0.00034413062
44	0x00000000	0.0
45	0x3991b6e7	0.00027792828
46	0xbb1f72af	-0.0024329831
47	0xbb0cac42	-0.0021464978
48	0x3a43d305	0.0007470104
49	0x00000000	0.0
50	0x380f3100	3.413949e-05
51	0x3a2940d1	0.0006456497
52	0x3a105646	0.000550602
53	0xb9834d0b	-0.0002504367
54	0x00000000	0.0
55	0x39daf586	0.0004176313
56	0x39969fda	0.00028729328
57	0x39825262	0.00024856912
58	0x3a2b3936	0.00065316574
59	0x00000000	0.0
60	0xb90b4f18	-0.00013285538
61	0x3a83b6c7	0.0010048979
62	0x3a2408c3	0.0006257409
63	0xb9bd02b8	-0.00036050915
64	0x00000000	0.0
65	0x39a86795	0.00032120632
66	0xb9eb91a3	-0.000449312
67	0xb91c8f2f	-0.0001493066
68	0x3a450a18	0.00075164577
69	0x00000000	0.0
70	0x3958b71e	0.00020667582
71	0x39db9a86	0.00041886064
72	0x39fa8f93	0.00047790687
73	0xb926114e	-0.0001583744
74	0xb85421dc	-5.0576273e-05
75	0x3ade5802	0.0016963484
76	0xb93f4c54	-0.00018243614
77	0x00000000	0.0
78	0xb9319f2f	-0.00016939336
79	0x38b51a14	8.63561e-05
80	0xb818e7fc	-3.6455676e-05
81	0x38c7c1fd	9.5251926e-05
82	0x00000000	0.0
83	0xbaa3d969	-0.0012500706
84	0xb9ad78da	-0.00033087173
85	0xba2ddea2	-0.0006632601
86	0xb9b42eeb	-0.00034367232
87	0x00000000	0.0
88	0x39c128ed	0.0003684232
89	0xba5cb364	-0.0008419065
90	0xba2d26b0	-0.0006605191
91	0x38db575e	0.00010459007
92	0x00000000	0.0
93	0xbacb15c5	-0.0015494159
94	0xba4fc187	-0.0007925261
95	0xbaacf9a5	-0.0013196958
96	0xb80148e0	-3.0823867e-05
97	0x00000000	0.0
98	0x39c2462e	0.0003705485
99	0xba86880f	-0.0010263937
100	0xba2c4794	-0.0006571945
101	0x3a3d786c	0.0007227722
102	0x00000000	0.0
103	0xba104060	-0.00055027567
104	0xb97a9c57	-0.00023900099
105	0xba8f3645	-0.0010926208
106	0x3955eea0	0.00020402158
107	0x00000000	0.0
108	0x3a5a9160	0.00083377026
109	0xba8a12fc	-0.0010534222
110	0xb9b15d07	-0.00033829382
111	0x3a89b445	0.0010505995
112	0xb9d70eff	-0.0004101917
113	0x384fdbae	4.955724e-05
114	0x39bf5701	0.00036495182
115	0x00000000	0.0
116	0xb9ecd90f	-0.0004517515
117	0xb836fcac	-4.36275e-05
118	0xb9919feb	-0.00027775703
119	0x3954a12e	0.0002027794
120	0x00000000	0.0
121	0xbaa9d4da	-0.0012957111
122	0xbb1b4c2b	-0.0023696523
123	0xbb2dba20	-0.0026508644
124	0x3a11634f	0.0005546109
125	0x00000000	0.0
126	0x3a13aa1a	0.0005632952
127	0xb98723e2	-0.0002577594
128	0x385db37e	5.285767e-05
129	0xb97de0af	-0.00024211661
130	0x00000000	0.0
131	0xba9a0fcf	-0.0011753979
132	0xb938b39c	-0.00017614517
133	0xba8b4a56	-0.0010627012
134	0x3a13b935	0.0005635203
135	0x00000000	0.0
136	0x39a5480a	0.00031524926
137	0x3a347c32	0.00068849616
138	0x3a0066ce	0.00048981316
139	0x37218e00	9.62941e-06
140	0x00000000	0.0
141	0xb99c1fe2	-0.00029778393
142	0x39310467	0.00016881675
143	0xba85d942	-0.0010211843
144	0x3a1d2869	0.0005995096
145	0x00000000	0.0
146	0x3a77bc31	0.0009450345
147	0x38efc898	0.000114337716
148	0x3a275ed8	0.0006384677
149	0x3aeff594	0.0018307441
150	0xb9f65266	-0.00046982168
151	0x3b134110	0.00224692
152	0xb8b25167	-8.502864e-05
153	0x00000000	0.0
154	0x38d8fe9a	0.00010347106
155	0x393766ee	0.00017490584
156	0x3a2e802f	0.0006656674
157	0xb8612016	-5.3674063e-05
158	0x00000000	0.0
159	0x38ad7f94	8.273046e-05
160	0x3ae09f36	0.0017137292
161	0x3ae01779	0.0017096839
162	0xb86ab319	-5.5956745e-05
163	0x00000000	0.0
164	0xb993daa2	-0.0002820092
165	0x3a2d6a32	0.00066152506
166	0x3a371620	0.0006984193
167	0x38a47ece	7.8437486e-05
168	0x00000000	0.0
169	0x3896c2c0	7.1888324e-05
170	0x3a7fd060	0.00097585283
171	0x3aa434e6	0.0012527972
172	0xb90a1027	-0.00013166723
173	0x00000000	0.0
174	0x3a4d6bd2	0.0007836196
175	0xb9cdf805	-0.00039285436
176	0x3a0a4d34	0.00052757864
177	0x3a21e428	0.00061756605
178	0x00000000	0.0
179	0xb970af94	-0.00022953592
180	0xb99aa61a	-0.00029496924
181	0x3a1d2a1e	0.00059953507
182	0x390e8be4	0.00013594289
183	0x00000000	0.0
184	0x3910d29a	0.00013811365
185	0x38d1010d	9.966092e-05
186	0x39eb9a52	0.0004493767
187	0x39b05478	0.0003363227
188	0x39960d7c	0.00028620276
189	0xba9d3671	-0.0011994374
190	0xb7505c7a	-1.24192975e-05
191	0x00000000	0.0
192	0xb952cbeb	-0.00020103126
193	0x38bd5775	9.0285124e-05
194	0x39023df6	0.00012420848
195	0x388142f2	6.163669e-05
196	0x00000000	0.0
197	0x3915aa0f	0.00014273099
198	0x39af4983	0.00033433372
199	0x39dd4020	0.00042200182
200	0xb86f97a6	-5.7123274e-05
201	0x00000000	0.0
202	0xb9109b51	-0.0001379077
203	0xb91cae66	-0.00014942288
204	0xb91ef2c0	-0.00015158486
205	0x3911d323	0.00013906932
206	0x00000000	0.0
207	0x3931f2d3	0.00016970494
208	0x384ecc6a	4.9304603e-05
209	0x39550441	0.00020314848
210	0xb83e05e4	-4.5305016e-05
211	0x00000000	0.0
212	0x3930233d	0.00016797795
213	0xb9b87c04	-0.00035187614
214	0xb9199d9a	-0.00014649928
215	0x39464db6	0.00018911701
216	0x00000000	0.0
217	0xb96a298a	-0.00022331454
218	0xb6f49bb8	-7.2898947e-06
219	0x38bef57e	9.1056325e-05
220	0xb9067ec1	-0.00012826455
221	0x00000000	0.0
222	0x38e1b14e	0.000107618616
223	0xb945dcd1	-0.00018869645
224	0xb9158d29	-0.00014262334
225	0x38ea2ee2	0.00011166722
226	0x389c41c6	7.450911e-05
227	0xb9d4520a	-0.00040496915
228	0x38d5cdb0	0.00010194944
229	0x00000000	0.0
230	0xba2fa8ae	-0.00067008554
231	0x394c7009	0.00019496692
232	0x39eb75a2	0.00044910336
233	0xb787db48	-1.6195365e-05
234	0x00000000	0.0
235	0xbac5b727	-0.0015084491
236	0xbab6fa3c	-0.0013960074
237	0xbaf1f98a	-0.0018461209
238	0x398ca1ec	0.00026823522
239	0x00000000	0.0
240	0x388a7e52	6.603882e-05
241	0xb9cc26da	-0.0003893886
242	0x3a02dd6e	0.0004992102
243	0xb973989a	-0.00023231134
244	0x00000000	0.0
245	0xbab1d1f5	-0.00135666
246	0xba0b30f2	-0.00053097226
247	0xbac5c247	-0.0015087806
248	0x39880322	0.00025942276
249	0x00000000	0.0
250	0x3a4ea20e	0.00078824244
251	0x397aaa1e	0.00023905232
252	0x3a96555c	0.0011469531
253	0x39572ac6	0.00020519932
254	0x00000000	0.0
255	0x384c2652	4.867308e-05

exp_avg_sq f4 [128, 38]
0	0x32fb4a8d	2.9254148e-08
1	0x00000000	0.0
2	0x34153547	1.3896089e-07
3	0x3338fc54	4.307033e-08
4	0x34742dbf	2.2740913e-07
5	0x32b6d0e5	2.1282583e-08
6	0x00000000	0.0
7	0x33c68807	9.244837e-08
8	0x35005707	4.781036e-07
9	0x3530eb6b	6.590769e-07
10	0x330153da	3.0111416e-08
11	0x00000000	0.0
12	0x3425b8e4	1.5434085e-07
13	0x3368076f	5.402347e-08
14	0x342ffa48	1.6389197e-07
15	0x31e2b9e3	6.5985986e-09
16	0x00000000	0.0
17	0x34169be0	1.4026546e-07
18	0x354740cb	7.4227563e-07
19	0x3578c745	9.2677175e-07
20	0x331b29b7	3.612669e-08
21	0x00000000	0.0
22	0x346f2e0b	2.227536e-07
23	0x33c57e6b	9.196523e-08
24	0x3445e953	1.8431938e-07
25	0x32a73139	1.9463743e-08
26	0x00000000	0.0
27	0x343483da	1.6811774e-07
28	0x355bd2c5	8.189057e-07
29	0x35830f26	9.764669e-07
30	0x33a5b157	7.715669e-08
31	0x00000000	0.0
32	0x34566013	1.9965255e-07
33	0x33cbdc0d	9.492951e-08
34	0x343d2219	1.7614401e-07
35	0x3541d497	7.220746e-07
36	0x33a88666	7.8475566e-08
37	0x35189a46	5.684891e-07
38	0x35536429	7.874938e-07
39	0x00000000	0.0
40	0x36ccbd03	6.1016776e-06
41	0x364f266b	3.0867766e-06
42	0x372d4c1e	1.0329326e-05
43	0x354d7dcd	7.6551515e-07
44	0x00000000	0.0
45	0x36f1214d	7.1862364e-06
46	0x375a73cd	1.30207745e-05
47	0x37c11a6b	2.3019695e-05
48	0x355f779e	8.324804e-07
49	0x00000000	0.0
50	0x36f91128	7.4227755e-06
51	0x365b9fda	3.272659e-06
52	0x3715c491	8.926859e-06
53	0x35156f98	5.5669216e-07
54	0x00000000	0.0
55	0x36d74e87	6.416641e-06
56	0x37dd1a56	2.6357517e-05
57	0x380da25d	3.3768232e-05
58	0x35a032da	1.1935729e-06
59	0x00000000	0.0
60	0x372e4d62	1.0389225e-05
61	0x36a44ca9	4.8965053e-06
62	0x37272555	9.962668e-06
63	0x358caaf9	1.0480572e-06
64	0x00000000	0.0
65	0x36e5c056	6.8471227e-06
66	0x37fc5594	3.0080591e-05
67	0x3818a980	3.6397483e-05
68	0x35c49d8f	1.4648994e-06
69	0x00000000	0.0
70	0x3755fc0e	1.2754475e-05
71	0x369eefa1	4.7366634e-06
72	0x37217d21	9.625482e-06
73	0x3805747b	3.1818152e-05
74	0x3669ea37	3.4856037e-06
75	0x37c03020	2.2910594e-05
76	0x3663a407	3.3921112e-06
77	0x00000000	0.0
78	0x358e559e	1.0604742e-06
79	0x35436396	7.278808e-07
80	0x36c6dbfc	5.9264694e-06
81	0x365e7a48	3.3151755e-06
82	0x00000000	0.0
83	0x36b604fa	5.424602e-06
84	0x35f1c091	1.8011943e-06
85	0x370274af	7.775771e-06
86	0x3637fc47	2.741597e-06
87	0x00000000	0.0
88	0x35c886af	1.4940359e-06
89	0x368fbaf4	4.2834963e-06
90	0x37382aca	1.0977217e-05
91	0x364f8420	3.092231e-06
92	0x00000000	0.0
93	0x37136658	8.7857115e-06
94	0x371e0d57	9.42064e-06
95	0x3775cf55	1.4651411e-05
96	0x35ac98ec	1.2859505e-06
97	0x00000000	0.0
98	0x362462c8	2.4495403e-06
99	0x377175ff	1.43921925e-05
100	0x37bcb581	2.2495866e-05
101	0x3668cf00	3.4691184e-06
102	0x00000000	0.0
103	0x371c2a5d	9.308188e-06
104	0x374400e6	1.168272e-05
105	0x3787d01b	1.619016e-05
106	0x3573cc35	9.0821715e-07
107	0x00000000	0.0
108	0x367ee478	3.7981936e-06
109	0x37a4cc49	1.9645451e-05
110	0x37d86997	2.5798376e-05
111	0x380d30d4	3.3662494e-05
112	0x3692c6a8	4.3742657e-06
113	0x37b74237	2.1846134e-05
114	0x35a9387f	1.2607924e-06
115	0x00000000	0.0
116	0x36ea6204	6.985154e-06
117	0x36153d44	2.2238391e-06
118	0x3732cbb3	1.0657054e-05
119	0x35aeebef	1.3032676e-06
120	0x00000000	0.0
121	0x37066bfd	8.012165e-06
122	0x37153f08	8.895768e-06
123	0x37958951	1.7826127e-05
124	0x359b3d90	1.1566317e-06
125	0x00000000	0.0
126	0x37136c22	8.787059e-06
127	0x3660bf28	3.3489869e-06
128	0x373d0cb0	1.1268232e-05
129	0x35af1ced	1.3046935e-06
130	0x00000000	0.0
131	0x371e6e29	9.4431825e-06
132	0x376643ec	1.3724883e-05
133	0x37b2ed54	2.1329768e-05
134	0x3581fe0f	9.68519e-07
135	0x00000000	0.0
136	0x3743604e	1.1645328e-05
137	0x36b2054a	5.305429e-06
138	0x3758d927	1.2925163e-05
139	0x35bb3336	1.394749e-06
140	0x00000000	0.0
141	0x3753abe3	1.26166005e-05
142	0x37633b55	1.3544069e-05
143	0x37b4a21f	2.1533166e-05
144	0x35a25cc5	1.209694e-06
145	0x00000000	0.0
146	0x3795d9ee	1.7863666e-05
147	0x36eb00e7	7.003651e-06
148	0x3773d033	1.4532404e-05
149	0x38073fb4	3.2245836e-05
150	0x366c2ca8	3.5192734e-06
151	0x37c134fa	2.3032062e-05
152	0x3436de82	1.7031019e-07
153	0x00000000	0.0
154	0x35e7a83b	1.7259803e-06
155	0x35b0f25e	1.318356e-06
156	0x36988a57	4.546058e-06
157	0x34a7486f	3.1158876e-07
158	0x00000000	0.0
159	0x34a85121	3.1351468e-07
160	0x36b94a5d	5.5220867e-06
161	0x372a000c	1.01328005e-05
162	0x34922dd4	2.7227964e-07
163	0x00000000	0.0
164	0x367d06db	3.7703928e-06
165	0x35af3116	1.3052802e-06
166	0x3678b560	3.7060454e-06
167	0x348eb18d	2.6578746e-07
168	0x00000000	0.0
169	0x35b0878b	1.315247e-06
170	0x37467a92	1.1830258e-05
171	0x377f6374	1.522234e-05
172	0x3481e31d	2.419337e-07
173	0x00000000	0.0
174	0x36a12037	4.801924e-06
175	0x360c0696	2.086546e-06
176	0x369988bf	4.5756747e-06
177	0x3506a4fb	5.015897e-07
178	0x00000000	0.0
179	0x361973a5	2.286609e-06
180	0x374589a6	1.1774164e-05
181	0x37805fe9	1.530345e-05
182	0x350896ac	5.0883204e-07
183	0x00000000	0.0
184	0x369476d9	4.4245794e-06
185	0x363adf4c	2.7846136e-06
186	0x369d4261	4.686692e-06
187	0x37789385	1.4816299e-05
188	0x35bd462c	1.410202e-06
189	0x37288948	1.0045544e-05
190	0x33f0eb76	1.1218701e-07
191	0x00000000	0.0
192	0x3591fa7a	1.087624e-06
193	0x33e4485c	1.06302394e-07
194	0x35131d54	5.4804445e-07
195	0x33e06bab	1.04503975e-07
196	0x00000000	0.0
197	0x35af73a7	1.3072175e-06
198	0x344d5e5c	1.912644e-07
199	0x353e4ef3	7.08954e-07
200	0x33a72752	7.783696e-08
201	0x00000000	0.0
202	0x350033f1	4.77593e-07
203	0x34e14a93	4.1963776e-07
204	0x355055b7	7.761077e-07
205	0x33fca58d	1.1764778e-07
206	0x00000000	0.0
207	0x35ae7536	1.2998123e-06
208	0x34e479f3	4.255704e-07
209	0x35741dd5	9.0940495e-07
210	0x33b38962	8.360327e-08
211	0x00000000	0.0
212	0x34dc46fa	4.1029836e-07
213	0x34e463e5	4.2540992e-07
214	0x3547a4b1	7.4372934e-07
215	0x33bc1fac	8.760193e-08
216	0x00000000	0.0
217	0x35b78b83	1.3675166e-06
218	0x354d550d	7.6492216e-07
219	0x359c3643	1.1638698e-06
220	0x33e019fd	1.043554e-07
221	0x00000000	0.0
222	0x34b7d873	3.4243894e-07
223	0x351e99ef	5.908359e-07
224	0x356bda29	8.7861787e-07
225	0x35d21878	1.5653341e-06
226	0x3425c872	1.5439744e-07
227	0x35a7e1d7	1.2508198e-06
228	0x34bb7608	3.4917343e-07
229	0x00000000	0.0
230	0x36e8b494	6.935161e-06
231	0x35bf9b5e	1.4275827e-06
232	0x36d5a9a1	6.367642e-06
233	0x351e8ba4	5.906279e-07
234	0x00000000	0.0
235	0x369c4ed4	4.658339e-06
236	0x36c1edad	5.7795173e-06
237	0x37395e3b	1.1048799e-05
238	0x34d9354b	4.0458175e-07
239	0x00000000	0.0
240	0x371b578d	9.259104e-06
241	0x35605772	8.357375e-07
242	0x36a0cac3	4.791976e-06
243	0x35367324	6.7967835e-07
244	0x00000000	0.0
245	0x363c7489	2.8082015e-06
246	0x36f7af75	7.3815995e-06
247	0x3737cc60	1.0955235e-05
248	0x34f00281	4.4705305e-07
249	0x00000000	0.0
250	0x3764251d	1.35985e-05
251	0x35d8ff4e	1.6167558e-06
252	0x36d19cae	6.2469253e-06
253	0x35a4c20b	1.2275426e-06
254	0x00000000	0.0
255	0x36665e8a	3.43277e-06

exp_avg f4 [128]
0	0x3a299aac	0.0006469886
1	0x3925faa8	0.00015829003
2	0xba8db9fe	-0.0010812876
3	0xb973ddca	-0.00023256909
4	0x3aa2c8d7	0.0012419474
5	0x3904a40a	0.0001264961
6	0x3a01e8af	0.0004955632
7	0x39cbba90	0.00038858177
8	0x396ac297	0.0002238847
9	0xba56474a	-0.0008174075
10	0xba5fb91f	-0.000853436
11	0xb9677f4e	-0.00022077301
12	0xbafc3b08	-0.0019243667
13	0x39c0d98c	0.0003678318
14	0x393e4911	0.00018147031
15	0xba76a7b2	-0.0009409144
16	0x39c9b691	0.0003847373
17	0xbadfdb7e	-0.0017078964
18	0x39b8bfb5	0.00035238048
19	0x385190c8	4.996432e-05
20	0xbadb8344	-0.0016747494
21	0x3a11dba2	0.0005564039
22	0xb90b4b1c	-0.00013284053
23	0xb8ad31ee	-8.258583e-05
24	0xba7666b2	-0.0009399458
25	0x3a80226f	0.0009775887
26	0xbb0728f3	-0.0020623773
27	0xb9c18344	-0.0003690963
28	0xb9a7ba79	-0.00031991655
29	0xb99069dc	-0.00027544692
30	0x3aaa54ff	0.0012995302
31	0xb9b4ddfd	-0.0003449767
32	0xbb08d1dd	-0.0020877041
33	0xba84e361	-0.0010138565
34	0xba17d65d	-0.00057921355
35	0xb922a5aa	-0.00015511239
36	0xb9515614	-0.0001996386
37	0xba2ed943	-0.0006669948
38	0x39d90f4c	0.00041400862
39	0xb9ad1f39	-0.00033020394
40	0xba28a0a8	-0.0006432631
41	0x37953b00	1.7789658e-05
42	0xba6f8dc7	-0.0009138253
43	0xbb14bc37	-0.0022695193
44	0x3adcf503	0.0016857687
45	0xb99f3a2a	-0.0003037018
46	0x38b10b0d	8.442076e-05
47	0x3a77d0b6	0.00094534026
48	0xb8adc67f	-8.2862556e-05
49	0xba7e3c05	-0.00096982747
50	0x3b14d8c0	0.00227122
51	0xb9cfbe5d	-0.00039623948
52	0xb85899c4	-5.164162e-05
53	0xba3610b7	-0.000694524
54	0xbb82a18b	-0.0039865426
55	0x39ca2cd5	0.00038561845
56	0xbac421a6	-0.0014963641
57	0xbba18b3f	-0.0049299295
58	0xbaf0430e	-0.0018330531
59	0x3a99204b	0.0011682598
60	0x3632f680	2.6667549e-06
61	0x3a81d331	0.0009904859
62	0x399ec4f9	0.00030282864
63	0xbb027712	-0.0019907397
64	0x39ba5aa7	0.00035544226
65	0xba878d8d	-0.0010341868
66	0xb8cc6b60	-9.747478e-05
67	0x3a179ded	0.00057837256
68	0x39ed2173	0.00045229084
69	0x3a6ce8ee	0.0009037395
70	0xba1dd6ef	-0.00060211023
71	0x3abc2f0a	0.001435728
72	0x3a4ba7f9	0.00077688653
73	0x3aa15b53	0.0012310542
74	0xb98ab21c	-0.00026454113
75	0xb9a170c5	-0.00030792333
76	0xb931a375	-0.00016940928
77	0xb9e10b80	-0.00042923912
78	0xb9fbb346	-0.0004800802
79	0x3a07db8a	0.0005182555
80	0x3a38feef	0.0007057031
81	0x3a807c95	0.0009802753
82	0x382101e4	3.8387152e-05
83	0x3a42772c	0.00074182707
84	0xbadbda6d	-0.001677347
85	0xb89cde06	-7.480015e-05
86	0xbadf9452	-0.0017057753
87	0x39f0d507	0.00045935085
88	0x3a12c292	0.0005598451
89	0xb9d0ce30	-0.00039826473
90	0xb995a93c	-0.00028545584
91	0x383b75f0	4.4694112e-05
92	0x39f76872	0.0004718933
93	0x3a330313	0.0006828766
94	0xb8b55ffe	-8.6486325e-05
95	0xba273a80	-0.00063792616
96	0x399424da	0.00028256216
97	0x39f1832c	0.00046064833
98	0x3b2776ab	0.002555291
99	0x3989aa0e	0.00026257377
100	0xb97f26e2	-0.0002433318
101	0x3aaa475d	0.0012991239
102	0xba0cc46c	-0.00053698453
103	0x3a81527b	0.00098665
104	0x391604c0	0.00014306884
105	0xba95e88d	-0.0011437103
106	0x3a153cd5	0.00056929636
107	0xbb4d514f	-0.0031328981
108	0x3aa74878	0.0012762686
109	0x3ae1ffa9	0.001724233
110	0xb98d71d1	-0.00026978416
111	0x3ab3047a	0.001365795
112	0x3991864d	0.00027756617
113	0xba753d03	-0.00093551
114	0xb9703a35	-0.00022909867
115	0x3aa6b23a	0.001271791
116	0x3aafc2d3	0.0013409503
117	0xb9961e23	-0.00028632683
118	0x3aa73a6e	0.0012758502
119	0xb9b4f499	-0.00034514515
120	0x39ebad3a	0.00044951757
121	0x3a77c3e9	0.0009451495
122	0xba4e3206	-0.00078657304
123	0xb9689584	-0.00022180943
124	0xba2a8884	-0.0006505328
125	0x39b4a14a	0.00034452445
126	0xbb8897d2	-0.004168489
127	0xba36c8a9	-0.000697265

exp_avg_sq f4 [128]
0	0x35be5384	1.4180409e-06
1	0x3882ae0a	6.2313e-05
2	0x38800eb1	6.106252e-05
3	0x38853714	6.352193e-05
4	0x37e586c2	2.7361679e-05
5	0x365a043f	3.2487003e-06
6	0x380db787	3.3787943e-05
7	0x36f0de50	7.178438e-06
8	0x37bd7386	2.258435e-05
9	0x3914f75c	0.00014206528
10	0x393078d0	0.00016829674
11	0x3800dd26	3.072354e-05
12	0x3890a20f	6.896641e-05
13	0x3807df2a	3.2394346e-05
14	0x3868733d	5.5420434e-05
15	0x381cd4d1	3.73915e-05
16	0x35bb8305	1.3970717e-06
17	0x39457902	0.00018832463
18	0x3830fef6	4.219912e-05
19	0x37c78fb9	2.3789575e-05
20	0x396b70b5	0.00022453333
21	0x389a67fe	7.362662e-05
22	0x3760a153	1.3389002e-05
23	0x3821ce26	3.8577382e-05
24	0x38f6bd52	0.00011765458
25	0x3647606a	2.9709431e-06
26	0x39490e9f	0.000191743
27	0x378b1e69	1.6584252e-05
28	0x372ac1c1	1.01779015e-05
29	0x3792dade	1.7506474e-05
30	0x399fb848	0.00030464143
31	0x36d9ca94	6.490687e-06
32	0x384bd977	4.86015e-05
33	0x38e13720	0.00010739104
34	0x3832c8c3	4.262548e-05
35	0x37ee61c7	2.8417342e-05
36	0x38171a23	3.6025547e-05
37	0x3762599e	1.3491515e-05
38	0x384a9ac7	4.83047e-05
39	0x3822e884	3.8840357e-05
40	0x37b2f696	2.1334079e-05
41	0x37bc556a	2.245112e-05
42	0x3946d740	0.00018962938
43	0x39d590f2	0.0004073452
44	0x395b33ea	0.00020904807
45	0x37bef985	2.2765957e-05
46	0x360ce085	2.0992313e-06
47	0x3716937e	8.975037e-06
48	0x35a6bbff	1.2422678e-06
49	0x3977a3ff	0.00023616849
50	0x37fa148f	2.9811896e-05
51	0x37936ec2	1.7575341e-05
52	0x37bb25c1	2.2309718e-05
53	0x37c6624c	2.3649212e-05
54	0x39511823	0.00019940785
55	0x38ebd58f	0.000112454516
56	0x38fb3377	0.00011978199
57	0x3a11cc69	0.00055617705
58	0x38ef7d78	0.000114197785
59	0x380db6e2	3.3787343e-05
60	0x37fbd26a	3.0019513e-05
61	0x37e307ba	2.7064107e-05
62	0x377d2b8b	1.5090113e-05
63	0x38046b81	3.1571373e-05
64	0x385dd78c	5.289125e-05
65	0x3a2126f8	0.00061474694
66	0x38ca0fa4	9.635024e-05
67	0x37291a75	1.0079345e-05
68	0x3746aabb	1.1841471e-05
69	0x378cfd43	1.6807235e-05
70	0x385a5df7	5.2062762e-05
71	0x3866ff28	5.5073906e-05
72	0x38a910af	8.0616555e-05
73	0x37adecfd	2.0733563e-05
74	0x37fb3d09	2.9949953e-05
75	0x3764bfcd	1.3634516e-05
76	0x35ba1d57	1.3866619e-06
77	0x392f49ef	0.00016716843
78	0x36d58167	6.362959e-06
79	0x3791d370	1.7383805e-05
80	0x37d72eda	2.5651814e-05
81	0x38a548fc	7.8814075e-05
82	0x371cbaef	9.341848e-06
83	0x386d2af9	5.6545225e-05
84	0x3907b2f7	0.00012941273
85	0x37560ad1	1.2757912e-05
86	0x38fe410d	0.000121237805
87	0x3831bad4	4.2374086e-05
88	0x36e63b7b	6.8614586e-06
89	0x397bad45	0.00024001773
90	0x3818054d	3.624456e-05
91	0x37bf6978	2.2818087e-05
92	0x39835326	0.00025048218
93	0x386e9c18	5.6888995e-05
94	0x36001b09	1.9089223e-06
95	0x378e3b58	1.6955353e-05
96	0x37794ec9	1.48599e-05
97	0x38863efb	6.401349e-05
98	0x39a21a80	0.00030918792
99	0x36de5694	6.6261946e-06
100	0x38117d9f	3.4687688e-05
101	0x3988beaa	0.00026081997
102	0x373b0e9e	1.1149472e-05
103	0x37b235c0	2.1244283e-05
104	0x36719cf3	3.6003155e-06
105	0x3783d0b0	1.5713595e-05
106	0x37ade4e1	2.0729787e-05
107	0x3970bf39	0.0002295942
108	0x37efb569	2.8575496e-05
109	0x389e0f06	7.5368254e-05
110	0x384f419d	4.9413753e-05
111	0x398ca2a8	0.0002682407
112	0x378140af	1.5408119e-05
113	0x38405cd3	4.5862816e-05
114	0x385feac8	5.3386e-05
115	0x38869dc8	6.419007e-05
116	0x398d3b2a	0.00026937696
117	0x3725da26	9.885558e-06
118	0x39407d85	0.00018357307
119	0x378223bf	1.5513853e-05
120	0x36c5611b	5.882362e-06
121	0x3753e224	1.26292325e-05
122	0x383396be	4.2817315e-05
123	0x3767a387	1.3806747e-05
124	0x38d13846	9.976378e-05
125	0x36ae2dd3	5.1909387e-06
126	0x3893bd5e	7.0447786e-05
127	0x386fd0f0	5.717663e-05
