Assets/ML-Agents/Training Files/results/9roads_imitation_2layers_MonzaNewChkptReachRwd/VehicleAgent/VehicleAgent-9499649.onnx (onnx, 89849 bytes, 7 tensors)

network_body._body_endoder.seq_layers.0.weight f4 [128, 38]
0	0xbe811c66	-0.2521698
1	0xbd3ef314	-0.046618536
2	0x3e223adb	0.15842764
3	0xbee207b0	-0.4414649
4	0x3daf6a00	0.0856514
5	0x3a7f7329	0.0009744638
6	0xbe2ab8dc	-0.16672081
7	0xbe7e251d	-0.24818845
8	0x3e5e0c1c	0.21684307
9	0x3d63d854	0.05562623
10	0xbddad55a	-0.10685225
11	0x3d7f389b	0.062309843
12	0xbcd6bb90	-0.026212484
13	0x3e4c7878	0.1996783
14	0xbe9e2f59	-0.30895498
15	0xbed86a36	-0.42268533
16	0x3d0f5fe6	0.035003565
17	0xbdb4502f	-0.08804356
18	0x3e08ca5a	0.13358441
19	0x3e063f11	0.13109995
20	0xbdb42dae	-0.08797775
21	0xbc797286	-0.015225058
22	0x3e2226b1	0.15835072
23	0x3d6c666c	0.057714865
24	0x3b6419c0	0.0034805387
25	0x3e620879	0.22073545
26	0xbde8b114	-0.113619
27	0x3df3b153	0.11899056
28	0xbdd4bbc8	-0.10387379
29	0xbe4401c8	-0.19141304
30	0xbd44fe1d	-0.048093904
31	0xbd887add	-0.06664059
32	0xbe26f5ba	-0.16304675
33	0x3b6628cd	0.0035119534
34	0xbd6a0003	-0.057128917
35	0xbd35ef54	-0.044417694
36	0xbe4659b0	-0.1937015
37	0xbdd2b394	-0.10288158
38	0xbeba6fe6	-0.36413497
39	0x3cf28235	0.029603103
40	0x3e24cc6b	0.16093604
41	0xbe1fd4f9	-0.15608586
42	0xbd9237b3	-0.0713953
43	0x3e1d9bed	0.15391512
44	0x3dbea57d	0.09308908
45	0x3ed41dd3	0.41429004
46	0xbcd553dc	-0.026040964
47	0x3eddac6d	0.43295613
48	0xbdb3c953	-0.08778634
49	0xbdb3d4df	-0.08780836
50	0x3e1b54e0	0.15169096
51	0x3dbc2b52	0.0918795
52	0xbe35dbd9	-0.17759646
53	0xbeaaaf20	-0.33336735
54	0xbe37608d	-0.17907925
55	0xbd3462c9	-0.04403952
56	0x3e99a278	0.30006766
57	0xbdc71a8a	-0.09721859
58	0x3de839d5	0.113391556
59	0x3d08ee10	0.03343016
60	0x3d2508dc	0.040291652
61	0x3d35c617	0.044378366
62	0xbc7cf1c2	-0.015438499
63	0x3dfa529d	0.122227885
64	0x3e48ab4f	0.19596599
65	0xbd77a2d1	-0.06045801
66	0x3db61056	0.088898346
67	0x3cbd1b83	0.023084408
68	0xbd62d61d	-0.055379976
69	0x3e1ab40d	0.15107746
70	0x3e9128c3	0.2835141
71	0xbd6b4247	-0.057436254
72	0xbec637e5	-0.3871452
73	0xbe32d46e	-0.17463848
74	0xbe2eb27e	-0.17060277
75	0x3e936be7	0.2879326
76	0x3ea70b34	0.32625735
77	0xbed40053	-0.41406497
78	0xbed16aac	-0.40901697
79	0xbd99a766	-0.07502632
80	0xbed62024	-0.41821396
81	0x3dcf272a	0.10114892
82	0x3db0cd5e	0.08632921
83	0xbd44ff2b	-0.04809491
84	0xbed5e6d8	-0.41777682
85	0xbea32252	-0.31862122
86	0x3e057f70	0.13036895
87	0x3c020eca	0.007938096
88	0xbd6c58ed	-0.057701994
89	0x3e4fb6b1	0.20284535
90	0xbe9338ad	-0.28754178
91	0x3e39cf1a	0.18145409
92	0x3ec85baa	0.39132434
93	0x3c8c1515	0.017099896
94	0x3df0bce3	0.11754777
95	0x3e495126	0.19659862
96	0xbed948ec	-0.42438447
97	0x3da284a5	0.07935456
98	0xbe7e18ce	-0.2481415
99	0x3d40fd7f	0.047116753
100	0x3ec3548e	0.38150448
101	0x3e924f4c	0.28576124
102	0xbe82370e	-0.25432628
103	0xbd42f879	-0.047600243
104	0x3e111cdf	0.1417117
105	0x3e94e19f	0.29078385
106	0xbdb0cb07	-0.086324744
107	0xbd930e29	-0.07180435
108	0xbe48d200	-0.19611359
109	0x3eb0902e	0.34485
110	0xbe04ce55	-0.12969334
111	0x3e17a016	0.14807162
112	0xbe08d85a	-0.13363782
113	0x3c384c42	0.01124865
114	0x3d055ab6	0.03255721
115	0x3d8e6167	0.06952172
116	0x3e2f8fc3	0.17144684
117	0xbe98ae8a	-0.29820663
118	0x3e5a841f	0.21339463
119	0x3e3e5a47	0.18589126
120	0xbcf2c9b9	-0.029637204
121	0xbcf71a3d	-0.030163879
122	0x3db2f391	0.08737863
123	0xbda4280c	-0.08015451
124	0x3c908662	0.017642204
125	0x3dd58469	0.10425646
126	0x3e67534c	0.22590369
127	0x3e1eaeaa	0.15496317
128	0x3cc5958d	0.024119163
129	0x3deb9671	0.11503304
130	0xbd8f4fca	-0.069976404
131	0xbd83aeb8	-0.06429809
132	0x3d141f82	0.03616286
133	0x3e80fc99	0.25192717
134	0xbe5a33a8	-0.21308768
135	0xbcb4cc0d	-0.022069955
136	0xbd9da524	-0.07697514
137	0x3d33c249	0.043886457
138	0xbe92a81c	-0.28643882
139	0xbe626584	-0.22109038
140	0xbe2512f7	-0.16120516
141	0x3e002f4e	0.12518045
142	0xbe46cb97	-0.19413601
143	0x3e57aecb	0.21062772
144	0xbdcbd640	-0.09952974
145	0xbda66992	-0.08125605
146	0x3e058935	0.13040622
147	0x3e142284	0.14466292
148	0xbee1e7db	-0.44122204
149	0x3c8c047e	0.017091986
150	0xbde59d14	-0.11211601
151	0xbc1f7c9f	-0.009734302
152	0xbf06d842	-0.52673733
153	0xbd9cea6a	-0.076618984
154	0xbcb4b631	-0.022059532
155	0x3e7839c1	0.24240781
156	0xbe357d89	-0.17723669
157	0x3e0d084c	0.13772696
158	0x3e26fc22	0.16307119
159	0xbf2812aa	-0.6565348
160	0x3e0408c9	0.12893976
161	0xbd2014c2	-0.039082296
162	0x3e1b2605	0.15151222
163	0x3d57b235	0.052660186
164	0x3cb183b9	0.021669256
165	0x3da2c599	0.07947845
166	0xbe1642ec	-0.14673966
167	0xbdca20e6	-0.09869556
168	0xbd2263ef	-0.039646085
169	0xbd81bc99	-0.063348
170	0x3f0a2b55	0.5397237
171	0x3daac1a1	0.08337713
172	0xbe00ee0d	-0.12590809
173	0xbd419c36	-0.047268115
174	0x3dcc5e7c	0.09978959
175	0xbe148d3f	-0.14507006
176	0x3e913a04	0.28364575
177	0x3e0f6d74	0.14006597
178	0x3ca757ef	0.020427672
179	0xbdae48fe	-0.08510016
180	0xbd593eb0	-0.0530383
181	0xbdc55860	-0.09635997
182	0xbe933c05	-0.2875673
183	0xbe83eaaa	-0.25764972
184	0xbe97f628	-0.2967999
185	0x3e184938	0.1487168
186	0x3e197a1a	0.14987984
187	0x3d4aafc6	0.049484037
188	0xbe82cd0c	-0.25547063
189	0xbd4d8e6d	-0.050184656
190	0x3e3ab249	0.18232073
191	0x3e4fdf81	0.20300104
192	0x3eb9cc3f	0.3628864
193	0x3e4170df	0.18890713
194	0xbdfeeda4	-0.1244767
195	0xbd348c39	-0.04407904
196	0xbdae50d7	-0.08511513
197	0x3db4e4a9	0.08832676
198	0xbda0b00d	-0.07846079
199	0x3d10bbbd	0.03533529
200	0xbe82d8ff	-0.2555618
201	0xbe3ac131	-0.18237759
202	0xbd985efc	-0.07439992
203	0x3e51fbf9	0.20506276
204	0x3ca504c3	0.020143872
205	0x3e506f69	0.20355
206	0xbdb33255	-0.087498344
207	0xbde3b170	-0.11117828
208	0xbe7aa32c	-0.24476308
209	0xbb932482	-0.004490436
210	0xbe0f90ce	-0.14020082
211	0x3e63d6f7	0.22249971
212	0xbdb24304	-0.087041885
213	0xbec0393d	-0.3754367
214	0x3cfc3cfe	0.030790802
215	0x3db65c77	0.08904355
216	0xbe128685	-0.14309128
217	0x3db84704	0.0899792
218	0x3d2ac787	0.04169419
219	0x3c1b24c0	0.009469211
220	0xbdb3144d	-0.087441064
221	0xbd1d2533	-0.038365554
222	0xbed5a41d	-0.4172677
223	0x3d78ffc0	0.060790777
224	0x3e0c6cec	0.13713425
225	0xbc964e27	-0.018347813
226	0xbe02ea37	-0.12784658
227	0x3c711c08	0.014716156
228	0xbe4505d9	-0.19240512
229	0x3c51ba29	0.012800732
230	0x3eaecea5	0.34142032
231	0x3dbba2f0	0.09161937
232	0x3ccc5149	0.024941104
233	0x3e691f18	0.22765768
234	0x3d027931	0.03185386
235	0x3dd11fc0	0.10211134
236	0x3b9e4d36	0.0048309816
237	0x3e2b22c2	0.16712478
238	0x3cd75add	0.026288444
239	0x3e1cad04	0.15300375
240	0x3d6c9f69	0.057769213
241	0x3d22aa5e	0.039713256
242	0xbeb51cc5	-0.35373512
243	0x3c0b9c3c	0.008521136
244	0xbb2e3823	-0.0026583753
245	0xbe6bcff7	-0.23028551
246	0x3c5b3aae	0.01338069
247	0xbd1ca2cc	-0.038241193
248	0x3d62ca7a	0.055368878
249	0x3deb9415	0.11502854
250	0x3e5d95a4	0.21639115
251	0x3d6f5ddc	0.05843912
252	0xbe2ad4b2	-0.166827
253	0xbdf9930e	-0.121862516
254	0xbe2831e9	-0.16425289
255	0xbe11e5a9	-0.14247765

network_body._body_endoder.seq_layers.0.bias f4 [128]
0	0xbb69417d	-0.0035592013
1	0x3cf9c7c4	0.030490763
2	0xbcc20f67	-0.023688985
3	0x3d1f01b7	0.038819995
4	0xbdf11b71	-0.11772812
5	0xbd849df2	-0.06475438
6	0xbcbd342a	-0.023096163
7	0x3bda06e4	0.0066536535
8	0xbd297b77	-0.04137751
9	0x3e143483	0.14473157
10	0x3ceb97fb	0.028758993
11	0x3da133cc	0.078712076
12	0xbd5958a7	-0.05306306
13	0xbd9cf936	-0.07664721
14	0xbc005ce1	-0.007834644
15	0x3dfc90ae	0.12332283
16	0xbd5ce018	-0.05392465
17	0x3d204125	0.039124627
18	0xbe0e688b	-0.13907067
19	0x3e28d6fb	0.16488259
20	0x3d4eb01c	0.05046092
21	0x3e1ceb0b	0.15324037
22	0xbd31b863	-0.043388736
23	0x3d2d5916	0.042321287
24	0x3d3e9cd2	0.046536274
25	0xbb8eeace	-0.004361487
26	0x3dcb19d8	0.09917039
27	0xbcdbe348	-0.026841775
28	0x3c12f474	0.008969415
29	0xbe0272c0	-0.12739086
30	0x3d8b2737	0.06794589
31	0xbd85a1f2	-0.06525029
32	0x3e12c97e	0.14334676
33	0x3c656857	0.014001927
34	0x3de12b4d	0.10994587
35	0xbe0e9a19	-0.13925971
36	0xbde57278	-0.11203474
37	0xbae2ebc0	-0.0017312691
38	0xbdbe1bc3	-0.09282639
39	0xbd45a13e	-0.048249476
40	0x3d983f51	0.07433952
41	0xbe0367d2	-0.12832573
42	0x3e056c00	0.1302948
43	0x3dda6e82	0.10665609
44	0x3d955541	0.072916515
45	0x3d3e7dd6	0.046506725
46	0x3e118e34	0.14214402
47	0xbe141df5	-0.14464553
48	0xbde76fc1	-0.11300612
49	0x3e0cad99	0.13738097
50	0xbe065e0e	-0.13121817
51	0xbd185d4b	-0.037198346
52	0xbd4285ec	-0.047491
53	0x3dac1dc4	0.08404115
54	0x3d595f87	0.053069618
55	0xbd3e33ae	-0.046436004
56	0x3dbd5ec4	0.09246591
57	0x3d4beaae	0.049784355
58	0x3d85fcb1	0.06542338
59	0xbdac34a7	-0.0840848
60	0xbdfa4f66	-0.12222175
61	0xbcf2b38e	-0.029626634
62	0xbd8beba3	-0.068320535
63	0x3d4ff620	0.050771832
64	0xbd9aa8d2	-0.07551731
65	0x3d5c2c84	0.05375339
66	0x3d15047b	0.036381226
67	0xbcd0b77b	-0.025478115
68	0x3ddceeb6	0.10787718
69	0xbd595855	-0.053062756
70	0xbc4634a8	-0.012097515
71	0xbd740148	-0.059571534
72	0x3dc72abb	0.09724947
73	0xbe137bed	-0.14402743
74	0xbcdd2efa	-0.02699994
75	0xbdb24631	-0.08704794
76	0x3d5ff413	0.054676127
77	0x3dd75fa0	0.10516286
78	0x3db989db	0.09059497
79	0xbd4af042	-0.049545534
80	0xbdf88168	-0.12134057
81	0x3e12ce7a	0.14336577
82	0xbbd6e18a	-0.006557648
83	0xbdb8e263	-0.09027555
84	0xbca40a5f	-0.020024477
85	0xbdafcccf	-0.08583986
86	0xbd60b713	-0.054862093
87	0xbd9ca854	-0.076492935
88	0xbe2df585	-0.1698819
89	0xbd12f056	-0.035873733
90	0xbd5e7017	-0.054306116
91	0xbc68a05d	-0.01419839
92	0xbdb8ed5c	-0.09029648
93	0xbd81542b	-0.06314882
94	0xbd9c949f	-0.07645535
95	0xbd507345	-0.05089118
96	0xba8811b0	-0.0010381248
97	0xbe042d38	-0.12907875
98	0x3c8ed40e	0.0174351
99	0xbd91c19f	-0.071170084
100	0x3db6de0b	0.0892907
101	0xbd8a3d7b	-0.06750008
102	0xbd68f660	-0.056875587
103	0xbdf476a1	-0.11936689
104	0xbe5754df	-0.2102847
105	0x3da5b145	0.08090452
106	0xbdaf2124	-0.08551243
107	0xbcc2a2c5	-0.023759255
108	0xbddbf66c	-0.107403606
109	0x3dcedeb0	0.10101068
110	0x3d1ce6fd	0.038306225
111	0x3c8a0164	0.016846366
112	0xbded06c1	-0.11573554
113	0x3bb49c7d	0.005511819
114	0xbc5a4972	-0.013323175
115	0xbc6cc459	-0.01445111
116	0x3d73091e	0.059334867
117	0xbe043343	-0.1291018
118	0x3c443ed3	0.011977869
119	0xbe027dfc	-0.12743372
120	0x3c387616	0.011258623
121	0xbdff8fca	-0.124785975
122	0xbde83d4e	-0.11339818
123	0xbdb9784f	-0.0905615
124	0x3e1a265a	0.15053692
125	0x3d9b3049	0.07577569
126	0x3e37a2b2	0.17933157
127	0x3d9a4cbb	0.075341664

network_body._body_endoder.seq_layers.2.weight f4 [128, 128]
0	0x3daf76df	0.08567595
1	0xbe29ca31	-0.16581036
2	0xbe568001	-0.20947267
3	0x3dacb88b	0.08433636
4	0x3e2287da	0.15872136
5	0x3de0ba55	0.1097304
6	0xbe47292b	-0.19449298
7	0x3dc54b86	0.096335456
8	0x3db0f4ab	0.08640417
9	0xbe13bdb7	-0.14427839
10	0x3c910a3a	0.017705072
11	0xbe90fb4e	-0.2831673
12	0x3e737192	0.23773792
13	0x3e4c4c13	0.19950895
14	0x3c12e059	0.008964621
15	0xbd137b4f	-0.036006268
16	0x3dcd6c2a	0.10030396
17	0x3ebbaf8e	0.36657375
18	0x3df50048	0.11962944
19	0xbe874ad5	-0.2642428
20	0x3e2c127d	0.16803928
21	0xbe80b8a5	-0.25140873
22	0x3e1f57e2	0.15560868
23	0xbe12c31a	-0.14332238
24	0xbe67206d	-0.22570963
25	0x3d85810b	0.065187536
26	0xbd12cb6f	-0.03583854
27	0xbde18c85	-0.1101313
28	0xbd059053	-0.03260834
29	0x3d9a305b	0.07528754
30	0xbc842fa3	-0.016135996
31	0xbd075ca2	-0.033047326
32	0xbd6b017a	-0.057374455
33	0xbdc8c0b0	-0.09802377
34	0xbd9a6ed6	-0.075406715
35	0x3d207025	0.03916945
36	0x3b87345e	0.0041261157
37	0x3e165be7	0.14683495
38	0x3e4ca90b	0.1998636
39	0xbe5501e5	-0.20801504
40	0xbe843234	-0.25819552
41	0xbe2ffd8e	-0.17186567
42	0xbe5fb472	-0.21846178
43	0x3d825db2	0.06365527
44	0xbdfff5e0	-0.12498069
45	0xbe7cfd10	-0.2470591
46	0xbe58dde2	-0.21178392
47	0xbcd47f82	-0.025939707
48	0x3d087c67	0.033321764
49	0xbec2072d	-0.378961
50	0x3e18ce96	0.14922556
51	0xbd243364	-0.040088072
52	0xbe88ad8b	-0.26694903
53	0xbd55c87f	-0.05219316
54	0x3dd618e1	0.10453964
55	0xbda1ae89	-0.07894618
56	0x3c5b3458	0.013379179
57	0xbdebc586	-0.11512284
58	0x3cd7b2b4	0.02633033
59	0x3c20b108	0.009807833
60	0x3d4dcbf0	0.050243318
61	0xbdd92dae	-0.10604416
62	0xbd543119	-0.051804636
63	0xbdcdec09	-0.10054786
64	0x3dab9518	0.08378047
65	0xbe6eb573	-0.23311405
66	0xbe4388a1	-0.19095089
67	0xbdfbafc8	-0.12289387
68	0xbdf98ff7	-0.12185662
69	0x3e0e8870	0.13919234
70	0x3be1dc6e	0.0068927323
71	0x3e33d4cb	0.17561643
72	0xbe9ec784	-0.31011593
73	0xbc75e333	-0.015007782
74	0xbcd5de45	-0.026106963
75	0xbcbbb291	-0.022912296
76	0xbd748df2	-0.059705682
77	0xbeb26693	-0.34843883
78	0xbe630f49	-0.221738
79	0x3daf48b2	0.085587874
80	0x3d84e1f3	0.06488409
81	0xbe65e389	-0.22450079
82	0xbdde792d	-0.10862956
83	0x3e4803bc	0.19532675
84	0x3d50e48a	0.0509992
85	0x3bc79fe9	0.006092061
86	0x3dd5fda2	0.10448767
87	0xbe0df38c	-0.13862437
88	0x3dda593e	0.10661553
89	0x3e348b07	0.1763116
90	0x3caa547b	0.020792237
91	0xbe221a8a	-0.15830436
92	0x3dd1880e	0.102310285
93	0x3e250e2f	0.16118692
94	0x3dcfd45a	0.10147925
95	0x3c5a138e	0.013310326
96	0xbd5a6f5d	-0.05332886
97	0xbd4f6bc6	-0.05063989
98	0x3e2a0a07	0.16605388
99	0xbd21e763	-0.03952731
100	0xbe6c87c1	-0.23098661
101	0x3da5af9a	0.08090134
102	0x3cfa5e60	0.03056258
103	0x3db17754	0.08665338
104	0x3db4c9c1	0.08827544
105	0xbd88232c	-0.066473335
106	0x3c1704ad	0.009217423
107	0xbe307e55	-0.17235692
108	0x3afa3b8a	0.001909123
109	0xbe144f32	-0.14483336
110	0xbd82a893	-0.06379809
111	0x3e10ab01	0.14127733
112	0x3d1f6875	0.038917977
113	0xbe5f37c5	-0.21798618
114	0x3e05ce46	0.13066968
115	0xbe12ee6e	-0.14348766
116	0x3e6bc245	0.23023327
117	0xbc332347	-0.010933704
118	0x3d6095e7	0.054830458
119	0xbdaa1c05	-0.083061256
120	0x3d7aad1a	0.06120024
121	0x3df5f8bb	0.12010332
122	0xbc89d7bd	-0.016826505
123	0x3c1b2a72	0.009470569
124	0xbe0efe58	-0.13964212
125	0x3e279bcf	0.1636803
126	0xbe1adea2	-0.1512399
127	0x39805b65	0.00024482157
128	0x3e08fe24	0.13378197
129	0xbdb52bfc	-0.0884628
130	0xbe178d22	-0.14799932
131	0xbc0665f4	-0.008203018
132	0x3d57aa58	0.052652687
133	0x3dfd1e4d	0.12359295
134	0xbd13cc4a	-0.036083497
135	0xbdc6eb73	-0.09712877
136	0xbde2e48d	-0.11078749
137	0x3c9fb047	0.019493235
138	0xbd93c0ac	-0.072144836
139	0x3d01deb6	0.031706534
140	0xbd8c288c	-0.06843671
141	0x3ceaf943	0.02868331
142	0xbc37a416	-0.011208555
143	0xbd5f4921	-0.0545131
144	0xbd3914bd	-0.045185793
145	0x3d56efea	0.052474894
146	0x3deb778c	0.11497411
147	0xbd2ef12c	-0.04271047
148	0xbe484093	-0.19555883
149	0x3e54ba5b	0.20774214
150	0xbc2f7a28	-0.010710277
151	0xbbaca937	-0.0052691954
152	0x3db50b0f	0.0884
153	0xbdb27467	-0.08713608
154	0xbcc2dea4	-0.023787804
155	0x3e66ad0e	0.22526953
156	0xbda4761e	-0.080303416
157	0x3e38619a	0.18005982
158	0xbe17d1d8	-0.14826143
159	0xbcce37d7	-0.02517311
160	0x3e0d5ee1	0.13805725
161	0x3d9408fc	0.07228276
162	0xbddeb020	-0.10873437
163	0xbd87520d	-0.06607447
164	0xbde02def	-0.10946261
165	0xbd297535	-0.041371543
166	0xbd9d5aa2	-0.076833025
167	0x3c87c0f0	0.016571492
168	0x3dacbd81	0.084345825
169	0x3e0bcfa0	0.13653421
170	0x3d3846c4	0.044989362
171	0x3db3e4eb	0.08783897
172	0x3d32f623	0.043691766
173	0x3d24afaf	0.040206607
174	0xbe41c8b2	-0.18924215
175	0xbd78431b	-0.06061087
176	0x3e202ec4	0.1564284
177	0xbcc1b93f	-0.023647903
178	0x3c9197cd	0.01777258
179	0x3db925cf	0.090404145
180	0xbb757829	-0.0037455654
181	0xbbe9cfd8	-0.0071353726
182	0x3e120ddf	0.14263104
183	0xbe1acbef	-0.15116857
184	0x3afd239c	0.0019312981
185	0xbd32b95d	-0.043633807
186	0x3d58e494	0.052952364
187	0x3d9c590a	0.0763417
188	0xbd0c9d34	-0.034329608
189	0x3e069f95	0.13146813
190	0x3ded4c52	0.115868226
191	0x3d714db6	0.058912
192	0xbc3fb4f4	-0.011700857
193	0x3d7cfa2d	0.061762024
194	0x3da4e13a	0.08050771
195	0x3d873db1	0.066035636
196	0x3d334c76	0.04377409
197	0xbab7537e	-0.0013986675
198	0xbbd0af56	-0.006368558
199	0x3e031cb7	0.12803923
200	0xbd8a2472	-0.06745233
201	0x3d4a31ad	0.04936378
202	0x3db51730	0.08842313
203	0xbb2ab59b	-0.0026048187
204	0x3d344499	0.044010732
205	0xbd021146	-0.031754754
206	0x3e0de82b	0.13858096
207	0xbdc23640	-0.094830036
208	0xbe6801c5	-0.22656925
209	0xba24a5b8	-0.00062807975
210	0x3da6301e	0.081146464
211	0x3de6a277	0.112614565
212	0xbbe29d60	-0.006915733
213	0x3ce35663	0.027751153
214	0x3d433748	0.047660142
215	0xbe46b4eb	-0.19404952
216	0xbb4c9a0b	-0.0031219746
217	0xbd2d84e4	-0.042363063
218	0x3bd85b20	0.00660266
219	0xbd6a26ec	-0.057166025
220	0x3d2b4006	0.041809104
221	0xbc593435	-0.013257076
222	0x3d195e16	0.037443243
223	0x3dcfa848	0.10139519
224	0xbcc96ac9	-0.024587052
225	0x3d65a5ed	0.056066442
226	0xbc8c37e5	-0.017116496
227	0x3d04896c	0.03235762
228	0x3e382a34	0.17984849
229	0xbe2e7018	-0.17034948
230	0x3d68f6d3	0.056876015
231	0x3e53caf1	0.20682885
232	0xbb107eae	-0.0022048163
233	0xbdd50de1	-0.10403038
234	0x3d3c5a50	0.045984566
235	0x3c5aee27	0.013362444
236	0xbdb1aed3	-0.08675923
237	0x3c287c93	0.010283607
238	0x3e291410	0.1651156
239	0xbdaa4c85	-0.08315376
240	0x3e2871f6	0.16449723
241	0xbcdda188	-0.027054563
242	0xbca6d065	-0.020363042
243	0xbe73c621	-0.23806049
244	0x3d17fdad	0.03710716
245	0x3c5cfccf	0.013488009
246	0x3e3f0c84	0.18657118
247	0xbdacb860	-0.08433604
248	0x3d2aaf80	0.041671276
249	0xbd90abfb	-0.07064053
250	0xbc9c0117	-0.019043488
251	0xbcdc8f45	-0.026923785
252	0x3d378cc1	0.044811968
253	0xbd6a5603	-0.057210933
254	0x3d989060	0.07449412
255	0xbe2418bd	-0.16025062

network_body._body_endoder.seq_layers.2.bias f4 [128]
0	0xbdf6c35d	-0.12048981
1	0x3cceeff3	0.025260901
2	0xbb103dcd	-0.0022009492
3	0xbe0d71ca	-0.13812938
4	0xbe2b6389	-0.16737188
5	0x3d9ff652	0.07810654
6	0xbdcdd0c1	-0.10049582
7	0xbe01789c	-0.12643665
8	0x3d9887ea	0.074477986
9	0x3c2be34e	0.010491205
10	0xbdf69774	-0.12040606
11	0xbd4f520e	-0.050615363
12	0x3de14635	0.10999719
13	0xbe0c477f	-0.13699149
14	0x3c8d3e88	0.017241731
15	0xbd0a2ed8	-0.03373608
16	0x3d1b2ae8	0.037882715
17	0x3d6b9e0b	0.05752377
18	0x3c1a2ba2	0.009409817
19	0xbde8b737	-0.113630705
20	0x3d109c54	0.035305336
21	0x3d8ca926	0.068682
22	0xbe0493af	-0.12946962
23	0x3bb1ba77	0.0054238397
24	0xba382e38	-0.000702593
25	0xbdf98e6d	-0.12185369
26	0x3ccc25c0	0.024920344
27	0x3c1a5530	0.009419724
28	0xbe1b8d87	-0.15190707
29	0x3dd3d5e5	0.103435315
30	0xbbcf088b	-0.006318157
31	0xbe0ac29f	-0.13550805
32	0xbe1f3a1a	-0.15549508
33	0x3d8c8af8	0.06862444
34	0xbc1885c9	-0.009309241
35	0x3e1ddda0	0.15416574
36	0x3da674b7	0.0812773
37	0xbbfa1872	-0.0076323086
38	0xbe1f5900	-0.15561295
39	0xbb0eb340	-0.0021774322
40	0x3c34f614	0.011044998
41	0xbd464e90	-0.048414767
42	0x3dc0ac5a	0.094078735
43	0xbd972e5b	-0.073818885
44	0xbd294f3b	-0.041335326
45	0x3daee071	0.085389026
46	0xbd898c49	-0.067162104
47	0x3dd6d64b	0.10490092
48	0xbe128cfb	-0.14311592
49	0x3d9d6a01	0.07686234
50	0x3ccc8a2a	0.024968226
51	0xbdb8b029	-0.09017975
52	0xbe0ef7ca	-0.13961712
53	0xbbbfeb77	-0.005856927
54	0xbd664c9c	-0.056225404
55	0xbd02b374	-0.03190942
56	0x3e1124fe	0.14174268
57	0x3d5f74f1	0.054554883
58	0xbe34bb56	-0.17649588
59	0xbd05a976	-0.032632314
60	0x3cdac65e	0.026705917
61	0x3d43e2da	0.047823764
62	0x3c040e71	0.008060084
63	0x3d550bbe	0.05201315
64	0xbe052071	-0.13000657
65	0x3db4c791	0.08827127
66	0xbe1e5356	-0.15461478
67	0x3dfe28a4	0.12410095
68	0xbde89129	-0.11355812
69	0x3d568577	0.052373376
70	0xbdb966e7	-0.0905283
71	0xbc8f4e55	-0.017493406
72	0x3d82e87a	0.06391998
73	0x3b63684e	0.0034699622
74	0xbdfe5e8d	-0.12420378
75	0x3d1d54bd	0.03841089
76	0x3d2852af	0.04109448
77	0x3d5bae1a	0.053632833
78	0x3d8230be	0.06356953
79	0xbe103687	-0.140833
80	0xbdf471a9	-0.119357415
81	0xbc2f30eb	-0.010692815
82	0xbd6ba1ba	-0.05752728
83	0xbe004cc2	-0.12529281
84	0x3c9858cb	0.018597027
85	0xbde3d7e4	-0.11125162
86	0x3c880403	0.016603475
87	0x3deabb8c	0.11461553
88	0x3dd76e2d	0.10519061
89	0xbe1275e4	-0.14302784
90	0x3c8beb88	0.017080083
91	0x3d4c06bd	0.049811114
92	0xbc44c0f7	-0.012008897
93	0xbdae85e0	-0.085216284
94	0xbc354669	-0.01106415
95	0xbdfaf3f4	-0.122535616
96	0x3d6766e8	0.056494623
97	0xbd3288ce	-0.0435875
98	0xbd688091	-0.056763235
99	0xbb8849d5	-0.004159192
100	0xbe130b8e	-0.14359877
101	0xbe0f3102	-0.13983539
102	0x3cc65bc6	0.024213683
103	0xbb100cf5	-0.002198038
104	0x3db72588	0.089427054
105	0xbe027549	-0.12740053
106	0xbd966c23	-0.07344844
107	0xbdaefd37	-0.08544391
108	0xbe1b4ce1	-0.15166046
109	0xbdac0a27	-0.08400374
110	0xbe1a8ae0	-0.15092039
111	0xbbd3591d	-0.006449832
112	0x3d93646b	0.071968876
113	0xbe03d96d	-0.1287591
114	0xbcbcbaca	-0.023038287
115	0x3d346e30	0.044050395
116	0x3d1cc26d	0.038271356
117	0xbd00450e	-0.031315856
118	0x3df33b21	0.11876512
119	0x3bc467f7	0.005993839
120	0xbe10e77e	-0.14150807
121	0x3bee0f3c	0.0072649997
122	0xbc520dc0	-0.012820661
123	0xbd8374ea	-0.06418784
124	0xbd4642b6	-0.048403464
125	0x3d648365	0.05578937
126	0xbb4b3e95	-0.0031012644
127	0xbd153288	-0.036425143

action_model._continuous_distribution.log_sigma f4 [1, 2]
0	0xbf037e27	-0.5136437
1	0xbea1b2e7	-0.31581804

action_model._continuous_distribution.mu.weight f4 [2, 128]
0	0xbe1aa77c	-0.15102953
1	0xbb5f0c3c	-0.0034034392
2	0xbe6ec5ea	-0.23317686
3	0xbc01593b	-0.007894809
4	0xbd5450b2	-0.05183477
5	0xbd183bf6	-0.03716656
6	0xbe3b4670	-0.18288589
7	0xbca07768	-0.019588187
8	0xbe7deb85	-0.24796875
9	0xbdb16145	-0.08661131
10	0xbc25f104	-0.010128263
11	0xbe0a8adb	-0.13529532
12	0x3dc00bf5	0.093772806
13	0xbd4a7db5	-0.04943629
14	0xbb85c332	-0.004082107
15	0xbd8e44be	-0.06946705
16	0xbae77aa8	-0.0017660456
17	0xbddb2765	-0.10700873
18	0xbdfb5c34	-0.12273446
19	0x3c499418	0.012303375
20	0x3d97b8b7	0.074082784
21	0xbddea7d7	-0.10871857
22	0xbd8e130c	-0.06937227
23	0x3b0109d0	0.0019689687
24	0x39a542fa	0.00031521154
25	0xbdb1dff8	-0.08685297
26	0xbbc73b3e	-0.0060800603
27	0xbb9591dd	-0.0045645074
28	0xbca8beec	-0.020598851
29	0x3df1c312	0.11804785
30	0xbd869966	-0.06572227
31	0xbb4cfed9	-0.003127983
32	0xbacf241a	-0.0015803606
33	0x3c7e3d1d	0.0155175
34	0xbd9614a1	-0.073281534
35	0x3dbadff3	0.09124746
36	0xba1cc20e	-0.0005979844
37	0x3baec1f9	0.005333182
38	0xbd1e6342	-0.03866888
39	0xba6757ee	-0.0008825053
40	0xbe52b54b	-0.2057697
41	0x3c95e10f	0.018295793
42	0xbde80926	-0.1132987
43	0xbdf05e71	-0.11736763
44	0xbb62051a	-0.0034487904
45	0x3e15c68b	0.1462652
46	0x3d817785	0.06321625
47	0x3d490a40	0.04908204
48	0xbd1f610e	-0.038910918
49	0xbe561e5a	-0.20910016
50	0x3b42d858	0.0029731002
51	0x3d58c75b	0.052924495
52	0xbd392e41	-0.045210127
53	0x3a831781	0.0010001512
54	0xbdd235c3	-0.102641605
55	0xbaee2522	-0.0018169025
56	0x3d8364d6	0.06415717
57	0x3b98a9af	0.0046588997
58	0xbbaadf93	-0.0052146404
59	0x3e02ceb1	0.12774159
60	0x3e04811b	0.12939875
61	0xba1a7811	-0.0005892525
62	0x3e0b3602	0.13594821
63	0x3c13e8ef	0.009027704
64	0xbbdc609b	-0.0067253835
65	0x3bcc6e83	0.00623876
66	0xbbdfae55	-0.006826202
67	0x3dd96425	0.10614804
68	0xbe0f891a	-0.14017144
69	0x3965a72d	0.0002190142
70	0x3da809f7	0.08205026
71	0xbe414563	-0.18874125
72	0x3def2e11	0.11678708
73	0x3e431b4c	0.19053382
74	0x3d2581dd	0.04040705
75	0x3e21209b	0.15735094
76	0xbdb4442d	-0.08802066
77	0x3db26a09	0.08711631
78	0x3e164fc8	0.14678872
79	0xbdbe2f62	-0.09286381
80	0x3da81936	0.082079336
81	0x3ae297b8	0.0017287647
82	0x3e063a64	0.13108212
83	0xbd609c50	-0.05483657
84	0x3b1c129a	0.0023814798
85	0xbd29d3da	-0.041461803
86	0xbe24629f	-0.16053246
87	0xbcaeb413	-0.0213261
88	0xbd2df346	-0.04246833
89	0x3bf6fa90	0.0075371936
90	0xbe105ccf	-0.14097904
91	0x3d004a2e	0.031320743
92	0xbc449cee	-0.012000306
93	0x3d718b98	0.058971018
94	0xbb990f26	-0.0046709953
95	0xbd60da8c	-0.054895923
96	0xbc040900	-0.008058786
97	0xb8a6bf4a	-7.951127e-05
98	0x3de35b22	0.111013666
99	0x3b6b23a8	0.0035879407
100	0x3ab1582a	0.0013530303
101	0xbd7a1c8e	-0.061062388
102	0x3da7e4a1	0.081979044
103	0x3b5bdd48	0.0033548642
104	0x3db1a3b9	0.08673806
105	0xbe114ce8	-0.14189494
106	0xbe00f137	-0.12592016
107	0xba37f8c0	-0.00070179626
108	0x3ccbc695	0.024874965
109	0x3d0a0e48	0.033705026
110	0xbc0102ce	-0.007874204
111	0x3e245525	0.16048105
112	0x3dcaf870	0.09910667
113	0xbe3ef3ef	-0.18647741
114	0x3e387d96	0.18016657
115	0x3b184611	0.0023235122
116	0xbb46dc8b	-0.0030343856
117	0xbb165752	-0.002294023
118	0x3da81eb2	0.0820898
119	0xba94b2de	-0.001134481
120	0xbbeaf657	-0.0071704793
121	0x3d2b25cb	0.04178409
122	0xb9160f8c	-0.00014310906
123	0xbda45b65	-0.080252446
124	0x3e1fd48f	0.15608428
125	0x3a4073eb	0.0007341492
126	0xbb14ddb4	-0.0022715153
127	0xbe1d57b9	-0.15365495
128	0xbdfc4dd9	-0.12319536
129	0x3afc9747	0.0019271158
130	0x3c926c39	0.01787387
131	0xbe1dae58	-0.15398538
132	0xbe023b90	-0.12718034
133	0x3d77cc19	0.060497377
134	0xbd42504d	-0.047439862
135	0xbddea599	-0.10871429
136	0x3d35ef40	0.04441762
137	0x3d476ac4	0.048685804
138	0xbcc745f8	-0.024325356
139	0xbc81690c	-0.01579716
140	0x3d74bfb7	0.059753146
141	0xbdae07df	-0.08497595
142	0x3aa93408	0.0012909183
143	0xb8a97719	-8.080732e-05
144	0x3b042eee	0.0020169574
145	0x3d94059b	0.07227632
146	0x3c8718d0	0.016491324
147	0xbe0183ee	-0.12647983
148	0x3d036f94	0.03208883
149	0x3db5cd58	0.08877057
150	0xbe0c84ca	-0.1372253
151	0xba112376	-0.0005536595
152	0x3a583514	0.00082476554
153	0xbe0db54a	-0.13838688
154	0x3b90cb14	0.00441874
155	0x39275e6f	0.0001596154
156	0xbe02c258	-0.12769449
157	0x3d9c8731	0.07642973
158	0x3d125b80	0.035731792
159	0xbe209a2e	-0.15683815
160	0xbd58d4b7	-0.052937236
161	0x3b4cccee	0.0031250077
162	0x3be315d1	0.006930091
163	0x3e13c284	0.1442967
164	0x3d1d34ea	0.03838054
165	0x3b7e5087	0.0038805322
166	0xbe077a48	-0.1323024
167	0xbad8b1db	-0.0016532497
168	0x3d7575b5	0.059926707
169	0xbd3e586b	-0.04647104
170	0x3db9f7cc	0.09080467
171	0xbd11286f	-0.03543895
172	0x395ef508	0.00021262851
173	0x3e00c712	0.1257594
174	0xbcd0b4ee	-0.025476899
175	0x3d059d89	0.03262094
176	0xbe019faf	-0.1265857
177	0x3d7f441f	0.062320825
178	0xbaad6566	-0.0013229072
179	0xbdbd6701	-0.09248162
180	0xbe32d534	-0.17464143
181	0x3af45f8e	0.00186442
182	0xbcce2b53	-0.025167143
183	0x3ae030bd	0.0017104369
184	0x3dccde24	0.100033075
185	0xbb568e13	-0.0032738491
186	0xbda47594	-0.08030239
187	0xbd5ded4d	-0.054181386
188	0x3d28b5ac	0.04118888
189	0xbbe3e60c	-0.006954914
190	0x3c3b0519	0.01141479
191	0x3d4b26a2	0.04959739
192	0xbe2a3544	-0.16621882
193	0x3d82691d	0.06367705
194	0xbe0893ee	-0.1333768
195	0x3db25528	0.087076485
196	0xbe0fcc0f	-0.14042686
197	0xbba9108f	-0.0051594446
198	0xbd9e65c8	-0.07734257
199	0x3c267355	0.010159333
200	0x3cd26090	0.02568081
201	0xbd45dd46	-0.048306726
202	0xbdffb218	-0.124851406
203	0x3cda3dfb	0.026640883
204	0x3d540257	0.051760044
205	0x3ce0887c	0.02740883
206	0x3d5afe6b	0.053465288
207	0xbdf4f9cb	-0.11961707
208	0xbde121b0	-0.109927535
209	0x3b13245a	0.0022452087
210	0xbd56433b	-0.05231021
211	0xbe4681a6	-0.19385394
212	0xba7ca8ce	-0.0009638191
213	0xbcdb8d96	-0.026800912
214	0x3d062b92	0.032756396
215	0x3d97ed59	0.07418317
216	0x3dde622e	0.1085857
217	0xbde49357	-0.11160915
218	0x3d25b018	0.04045114
219	0x3bf2be35	0.0074079284
220	0x3c190634	0.009339858
221	0xbda61d74	-0.081110865
222	0xbb1dd6f4	-0.002408442
223	0xbdadfbe0	-0.08495307
224	0x3c8c7a85	0.017148266
225	0xbb344e5b	-0.0027512524
226	0xbdfe48d1	-0.124162324
227	0xbb37bf3a	-0.0028037564
228	0xbdaf6525	-0.08564214
229	0xbde490c6	-0.11160426
230	0x3cc39f00	0.023879528
231	0x3bda5d9d	0.0066639916
232	0x3d5a423f	0.053285833
233	0xbdec07b7	-0.11524909
234	0xbd26dbee	-0.040737085
235	0xbac31deb	-0.0014886236
236	0xbe08512e	-0.13312218
237	0xbd0bc3b6	-0.03412219
238	0xbdc8a97f	-0.09797954
239	0xbcb3bf24	-0.021941729
240	0x3da0021d	0.07812903
241	0xbdfa9e6b	-0.12237247
242	0xbcdae3db	-0.026719978
243	0xb9a7793c	-0.0003194305
244	0xbb21cc55	-0.0024688442
245	0xba8f0c5e	-0.001091372
246	0x3dbd3304	0.09238246
247	0xbbd3686e	-0.006451658
248	0xbd3cfe07	-0.046140697
249	0x3c4ddec3	0.012565318
250	0xbb2b55a2	-0.002614357
251	0xbd34b487	-0.044117477
252	0xbd6d1c3a	-0.057888247
253	0xb88fd15f	-6.85777e-05
254	0xbac5e108	-0.0015096972
255	0xbcc8df7b	-0.024520626

action_model._continuous_distribution.mu.bias f4 [2]
0	0x3d0b10af	0.033951458
1	0x3e36f1c3	0.17865662
