Assets/ML-Agents/Training Files/results/9roads_imitation_6epoch-2048buffer/VehicleAgent_6epoch-2048buffer.onnx (onnx, 89849 bytes, 7 tensors)

network_body._body_endoder.seq_layers.0.weight f4 [128, 38]
0.2921184 -0.18328524 -0.23727794 0.11683803 -0.19166009 0.10475136 0.10030378 -0.060010776
0.49005377 -0.0834045 0.12606032 0.25848493 -0.16816464 0.3937926 -0.014114841 0.3095665
-0.053767376 0.038632855 0.06841151 -0.086784095 0.09521502 0.18254514 -0.011179662 0.19561705
0.1468929 0.20551269 0.117657065 -0.107554056 -0.07061875 -0.029450677 -0.06336662 0.15780213
-0.026214123 0.25648803 0.09043278 0.0014991821 0.036617022 -0.046359457 0.27686197 -0.111988306
-0.011161571 -0.039126955 -0.27673092 0.32312 -0.319087 0.22689384 -0.0108742835 -0.061684616
0.18528208 -0.029726753 -0.2281871 -0.18708394 -0.25649697 0.11156221 0.09877346 0.15588015
-0.38976258 -0.1898144 0.083217 -0.060279343 -0.27552003 0.28184548 -0.17449732 0.0046230196
0.035113137 0.24040967 0.15094408 -0.12143631 0.025579503 0.34591538 -0.630455 -0.019642765
-0.3102081 -0.38011587 0.0825214 -0.1604389 0.12636411 0.2234416 0.16023117 0.37998527
-0.46035588 -0.1688307 0.2493573 -0.017222308 0.26575273 0.1647728 0.37170452 0.09019913
-0.035348028 0.018808687 -0.27835706 -0.11332932 0.112311654 0.026286751 -0.09531815 -0.028534228
0.060496558 -0.14963739 -0.11373237 0.11246627 0.2711073 0.32162347 -0.033242904 -0.43690783
-0.17531772 -0.007208282 0.44507796 -0.33403066 0.022027507 0.08456622 0.2976806 -0.25861275
-0.20012732 -0.22919206 -0.341296 -0.04093159 0.11696913 0.23096275 0.1441679 0.017696537
0.13547657 -0.0030283367 0.09914709 0.036859218 -0.19833525 0.008542399 0.50265324 -0.11471047
-0.4475956 -0.04694835 0.11174683 -0.14038391 -0.033079587 0.024810696 -0.09386022 -0.09811069
0.09131172 0.20171395 -0.120873146 -0.37529537 0.09280283 0.1317879 -0.21124642 0.12464532
0.21915358 -0.18286936 0.058724258 0.14446737 -0.25094935 -0.08501847 -0.1610689 0.066143796
-0.056803856 0.02500025 -0.015625745 0.049438685 -0.06762158 -0.24400213 -0.11024378 0.09291058
0.20113093 -0.042153817 -0.08937326 0.4259266 -0.24542093 -0.3310971 0.17726083 -0.08308288
0.45173034 -0.041885816 0.19058083 0.23669633 0.0584868 -0.24001503 -0.21056053 -0.12743218
0.15668944 0.17612895 0.23583755 -0.30626905 -0.15104835 -0.3984067 -0.5072777 0.15239485
0.069132484 -0.12741262 0.12557079 0.16109921 -0.032759726 0.20152289 0.3354669 0.3500143
0.17310973 0.5201879 0.03883918 -0.19028209 0.16909638 -0.2840661 0.35415572 0.17228226
0.23617317 0.17975695 -0.2961815 -0.22512718 -0.03799925 -0.18916312 0.17945448 0.056879956
0.030307207 0.30445734 0.08611318 0.24652654 -0.05457088 -0.62264127 -0.052101046 -0.19827063
0.15842818 -0.11007086 0.10715575 -0.5881933 0.270247 -0.2533075 0.12080512 0.13101159
0.47425145 0.2951309 -0.01183827 0.20975766 0.1301609 -0.09591583 -0.39757496 0.067178726
-0.03402433 0.39248842 -0.28656974 -0.090780966 -0.0068139196 -0.2296812 0.07581923 0.06454604
0.18760137 -0.08442295 0.05732451 -0.27016065 0.4206031 0.00978221 0.43430728 0.04607176
0.13428904 0.051215917 0.0949792 -0.1794012 0.26819935 -0.2234152 -0.28631195 -0.0024336434
00000000: 8b90 953e 20af 3bbe fdf8 72be c748 ef3d
00000010: 8b42 44be e287 d63d 116c cd3d dccd 75bd
00000020: 54e8 fa3e facf aabd f515 013e 2358 843e
00000030: 5a33 2cbe 2f9f c93e ef41 67bc 807f 9e3e
00000040: 2e3b 5cbd 7c3d 1e3d 551b 8c3d dcbb b1bd
00000050: 1800 c33d 1ded 3a3e e72a 37bc d64f 483e
00000060: 186b 163e eb71 523e 30f6 f03d 4d45 dcbd
00000070: 90a0 90bd 8c42 f1bc 5cc6 81bd e296 213e
00000080: 00bf d6bc 6652 833e d234 b93d 3480 c43a
00000090: bbfb 153d 6ae3 3dbd dac0 8d3e 205a e5bd
000000a0: 06df 36bc 9643 20bd adaf 8dbe fc6f a53e
000000b0: 5f5f a3be dc56 683e 0d2a 32bc 02a9 7cbd
000000c0: 96ba 3d3e 8585 f3bc e1a9 69be ef92 3fbe
000000d0: 9253 83be ba7a e43d bd49 ca3d 0c9f 1f3e
000000e0: f68e c7be b55e 42be ad6d aa3d 79e7 76bd
000000f0: f610 8dbe 0d4e 903e 6daf 32be b37c 973b
00000100: cbd2 0f3d f42d 763e 1691 1a3e 9ab3 f8bd
00000110: 1b8c d13c d21b b13e 8065 21bf dde9 a0bc
00000120: 99d3 9ebe 8c9e c2be fb00 a93d 184a 24be
00000130: 9865 013e e0cd 643e a413 243e 6e8d c23e
00000140: c4b3 ebbe f4e1 2cbe 8557 7f3e cc15 8dbc
00000150: be10 883e 33ba 283e 0e50 be3e 52ba b83d
00000160: 18c9 10bd ad14 9a3c d184 8ebe 3419 e8bd
00000170: a703 e63d 5057 d73c 2a36 c3bd 9dc0 e9bc
00000180: 3dcb 773d 8b3a 19be 84ec e8bd b754 e63d
00000190: 93ce 8a3e d5ab a43e b629 08bd 62b2 dfbe
000001a0: 7d86 33be 7433 ecbb 42e1 e33e 1106 abbe
000001b0: 0873 b43c 0e31 ad3d 9769 983e e468 84be
000001c0: 2dee 4cbe 53b1 6abe 59be aebe e2a7 27bd
000001d0: 838d ef3d 8081 6c3e c0a0 133e 54f8 903c
000001e0: 5fba 0a3e 0f77 46bb a10d cb3d b1f9 163d
000001f0: 6518 4bbe 6bf5 0b3c e2ad 003f 53ed eabd
00000200: 402b e5be ea4c 40bd 86db e43d cdc0 0fbe
00000210: 767e 07bd cd3f cb3c c939 c0bd 42ee c8bd
00000220: a401 bb3d 1a8e 4e3e 578c f7bd b726 c0be
00000230: 690f be3d 68f3 063e fb50 58be 0c46 ff3d
00000240: cc69 603e 1b42 3bbe d988 703d 41ef 133e
00000250: 6f7c 80be 2a1e aebd 3fef 24be 6676 873d
00000260: 29ab 68bd 53cd cc3c 9001 80bc 3880 4a3d
00000270: 2f7d 8abd b2db 79be 7ec7 e1bd e747 be3d
00000280: 44f5 4d3e 7ba9 2cbd 5409 b7bd 0d13 da3e
00000290: a04f 7bbe 8f85 a9be dd83 353e 5b27 aabd
000002a0: 3349 e73e 7690 2bbd 9f27 433e 8660 723e
000002b0: db8f 6f3d 80c6 75be 2e9d 57be 957d 02be
000002c0: 3273 203e 265b 343e 667f 713e 4ccf 9cbe
000002d0: 6bac 1abe f7fb cbbe f4dc 01bf 650d 1c3e
000002e0: 5595 8d3d 7478 02be a195 003e 31f7 243e
000002f0: 102f 06bd 045c 4e3e 51c2 ab3e 1335 b33e
00000300: ad43 313e 092b 053f d515 1f3d 4fd9 42be
00000310: 9a27 2d3e 1d71 91be e653 b53e c36a 303e
00000320: 61d7 713e 3512 383e 1aa5 97be bd87 66be
00000330: 1aa5 1bbd fab3 41be eac2 373e f5fa 683d
00000340: d246 f83c d5e1 9b3e 1b5c b03d 7471 7c3e
00000350: b785 5fbd 6b65 1fbf e867 55bd 7507 4bbe
00000360: ff3a 223e d56c e1bd 7974 db3d d693 16bf
00000370: d15d 8a3e 85b1 81be ad68 f73d e727 063e
00000380: 16d1 f23e 661b 973e 4ef5 41bc b6ca 563e
00000390: e648 053e 856f c4bd f28e cbbe 0095 893d
000003a0: 195d 0bbd 3ef4 c83e 45b9 92be 5feb b9bd
000003b0: 4d47 dfbb 8c31 6bbe 1d47 9b3d b730 843d
000003c0: 931a 403e f1e5 acbd 1bcd 6a3d 7f52 8abe
000003d0: 4a59 d73e 9045 203c 865d de3e beb5 3c3d
000003e0: 1183 093e c8c7 513d 7484 c23d f3b4 37be
000003f0: 6d51 893e f4c6 64be 7b97 92be c37d 1fbb

network_body._body_endoder.seq_layers.0.bias f4 [128]
-0.13516624 0.036633074 -0.045085385 0.07711192 0.011553021 -0.076404124 -0.040043876 0.07010284
-0.13400608 -0.048256285 -0.068157524 -0.055186424 0.05021572 0.03914725 -0.040348053 -0.01645692
0.15941328 -0.03146346 0.030304074 0.0024736244 -0.07151089 0.029193254 -0.10224334 -0.077656336
-0.10113486 -0.041673172 -0.0011538767 -0.014962522 0.0777018 0.02199976 0.023883302 -0.015779633
0.009894362 -0.02926284 0.05394207 -0.0398569 0.10349513 -0.04635256 -0.02245709 0.037540056
-0.054671552 -0.0011629302 0.10769241 0.11908307 -0.05984256 0.013132672 -0.022145677 -0.026463363
0.06597516 0.016821926 0.10216555 0.012632194 0.0048035947 -0.05474089 0.071865074 0.067614175
-0.11201888 0.015374053 -0.1150215 0.087421246 0.020730417 0.020690408 -0.036210623 0.08785574
0.061923604 -0.088517845 0.07775587 -0.04498558 0.10653585 0.12184729 -0.057013206 0.086734295
0.047698025 0.0018930241 0.050690062 -0.09157497 0.06819949 0.036334764 -0.011682712 0.019106355
-0.014258958 -0.022908026 0.020047348 -0.09743393 0.04047719 -0.08465333 -0.068589084 -0.030714968
-0.026185932 0.034034878 0.026044525 0.01932842 -0.06439711 -0.07956488 -0.05780505 -0.020981964
0.03881802 -0.022542372 0.109489076 -0.029220209 0.039566573 0.1132253 -0.029794388 0.12554994
-0.057177596 -0.026158897 -0.1193048 0.101861954 -0.01771283 -0.036356557 -0.071402684 0.12557217
-0.026397532 0.047608044 0.023484828 -0.0055447984 0.06573423 0.028251663 -0.04628877 0.06560297
-0.06022659 -0.0033363965 -0.11267437 -0.09873437 0.051318686 0.03573727 0.10601918 -0.03807123
00000000: 0569 0abe 900c 163d 74ab 38bd dbec 9d3d
00000010: e248 3d3c c479 9cbd 0c05 24bd 1492 8f3d
00000020: e438 09be 62a8 45bd 2c96 8bbd 290b 62bd
00000030: 00af 4d3d de58 203d 0044 25bd aad0 86bc
00000040: 3c3d 233e d4df 00bd 4040 f83c 881c 223b
00000050: 4d74 92bd b126 ef3c f564 d1bd 490a 9fbd
00000060: cb1f cfbd 7db1 2abd ad3d 97ba 5e25 75bc
00000070: 1f22 9f3d d738 b43c eaa6 c33c 4a44 81bc
00000080: f61b 223c a0b8 efbc 5cf2 5c3d fd40 23bd
00000090: 41f5 d33d 2fdc 3dbd eef7 b7bc 9ac3 193d
000000a0: 47ef 5fbd 766d 98ba d78d dc3d d3e1 f33d
000000b0: 791d 75bd 6b2a 573c da6a b5bc b2c9 d8bc
000000c0: fc1d 873d 23ce 893c 2c3c d13d 43f7 4e3c
000000d0: 7967 9d3b fc37 60bd ff2d 933d 4d79 8a3d
000000e0: 286a e5bd 74e3 7b3c 6490 ebbd e909 b33d
000000f0: d6d2 a93c ee7e a93c 9751 14bd b6ed b33d
00000100: 9ba3 7d3d d848 b5bd 783e 9f3d cd42 38bd
00000110: 782f da3d 128b f93d ae86 69bd c0a1 b13d
00000120: 015f 433d 591f f83a 62a0 4f3d a88b bbbd
00000130: 2dac 8b3d c3d3 143d d868 3fbc ee84 9c3c
00000140: 689e 69bc 9da9 bbbc 563a a43c 718b c7bd
00000150: 69cb 253d ba5e adbd 6f78 8cbd f59d fbbc
00000160: e183 d6bc 2868 0b3d 545b d53c a256 9e3c
00000170: a2e2 83bd e9f2 a2bd fdc4 6cbd 5ee2 abbc
00000180: a5ff 1e3d c8aa b8bc cf3b e03d 385f efbc
00000190: 8f10 223d abe2 e73d 5c13 f4bc 2a90 003e
000001a0: 0e33 6abd 2f4b d6bc 1356 f4bd 009d d03d
000001b0: 7f1a 91bc 9dea 14bd 923b 92bd fe95 003e
000001c0: a33f d8bc a700 433d 4163 c03c 24b1 b5bb
000001d0: ab9f 863d 0870 e73c 4b99 3dbd da5a 863d
000001e0: 28b0 76bd 72a7 5abb d2c1 e6bd 3f35 cabd
000001f0: 8b33 523d 3e61 123d 9520 d93d 94f0 1bbd

network_body._body_endoder.seq_layers.2.weight f4 [128, 128]
-0.066542886 0.12244497 -0.075702 -0.11533245 0.0025165593 0.10389017 0.105117925 -0.030509112
-0.00559044 0.030162586 -0.064684525 0.043544304 0.034742296 0.019693937 -0.022231443 0.079220295
0.10257525 0.1077497 0.053216055 -0.14334919 -0.05246258 0.08080345 -0.13865532 -0.122296005
0.042581275 -0.0152800055 0.024036147 0.018233195 -0.17999603 0.057516664 -0.0032692472 0.06354155
-0.054689284 -0.06760153 0.010837232 -0.060066782 -0.00029367703 -0.070087776 -0.005150382 -0.013564532
0.003661045 0.032295536 -0.15023358 -0.0400103 -0.19303909 0.04901358 0.032081585 0.07670023
0.08424833 0.082783595 -0.015026754 0.08255726 -0.11881671 0.01719513 0.08438837 -0.07896053
-0.04991489 0.1576429 0.066364184 -0.12332003 0.02082461 0.016094917 0.024561398 -0.09302269
-0.035042275 0.0722788 -0.015554915 -0.18677372 0.055984043 0.20666483 0.15434802 -0.07735578
0.15741162 -0.02712564 0.080177836 0.1381853 -0.23630534 0.025284009 0.07397802 -0.05700604
-0.08967899 0.048705034 -0.069604956 -0.1522921 -0.02830045 0.032510854 0.20378043 -0.024970539
-0.007832592 0.037834868 0.037322678 -0.027654193 -0.07199166 0.16666633 0.061230175 0.010675433
-0.00081882847 -0.13902596 -0.14087899 0.09804127 -0.026818441 -0.03483778 0.14643422 -0.13243465
0.011384896 -0.17132528 -0.02327629 -0.028739015 0.074840985 0.09398108 -0.12377587 -0.031313647
-0.10755573 0.11539369 0.0057193097 -0.14109042 -0.24801585 -0.073838316 0.08191243 0.14695266
-0.031159725 -0.062972166 -0.06996868 -0.07189075 -0.094955906 -0.061768956 0.17084622 0.0976922
0.034253884 -0.14378764 -0.14705944 0.042794086 0.0042840783 0.00040919334 -0.13140346 -0.012443162
-0.25064576 0.07249692 0.022741362 -0.20201632 0.1147473 0.06235111 0.12344011 0.14085078
-0.19332182 0.008374901 -0.11630564 0.13417473 0.06768592 0.09175657 0.036663044 -0.14793114
0.011537322 -0.12469162 -0.07705517 0.06376618 0.06630119 0.029480658 0.020825673 0.03511532
0.10603553 -0.231304 -0.018263893 0.07642463 0.016831571 0.03193547 -0.04538061 0.10243437
0.08702135 -0.017688906 -0.120716326 -0.10374751 0.10443121 0.31343907 0.25835514 -0.08545755
0.21227881 -0.0059110043 0.14125846 -0.05833397 -0.067030795 -0.005860497 -0.062053334 -0.046843164
-0.0050464133 -0.005829388 0.079828344 -0.05825094 0.051308803 0.110812575 0.098832004 -0.028740551
-0.24310009 -0.139392 -0.14123079 0.08415101 0.08180721 -0.08558941 0.15973319 0.15091453
0.013460479 -0.011526858 0.18203142 0.05007459 -0.12772094 0.12790652 -0.08544881 -0.21193178
0.0775287 -0.15203242 -0.124973506 -0.035823524 -0.010054701 0.13470787 -0.0766706 0.051472656
0.15452902 0.107775435 -0.09215391 -0.23420972 -0.09151278 -0.1658677 0.028090453 -0.14624296
0.014098391 -0.06822628 -0.11382272 0.0054297955 -0.0737291 -0.09533726 -0.07894296 0.1666179
-0.03693987 0.120863326 -0.21630822 -0.052013133 0.100254044 -0.12571749 0.14677623 0.041722532
-0.09227565 -0.11993161 0.095599614 -0.0007178264 0.13532509 0.048124265 -0.053915843 -0.23125137
-0.06808524 -0.05530105 -0.047999524 0.08856508 0.09397445 -0.088587515 -0.10895721 -0.108743
00000000: a347 88bd 6ec4 fa3d a609 9bbd 6b33 ecbd
00000010: dcec 243b 5fc4 d43d 1148 d73d 3fee f9bc
00000020: 0230 b7bb 8717 f73c 5279 84bd 835b 323d
00000030: f04d 0e3d 2e55 a13c b71e b6bc 403e a23d
00000040: f912 d23d e0ab dc3d 14f9 593d 21ca 12be
00000050: 01e3 56bd 477c a53d a9fb 0dbe 5476 fabd
00000060: b469 2e3d fd58 7abc 74e7 c43c c85d 953c
00000070: e150 38be 9896 6b3d de40 56bb 1222 823d
00000080: df01 60bd ac72 8abd a58e 313c 9608 76bd
00000090: aaf8 99b9 2e8a 8fbd 89c4 a8bb c53d 5ebc
000000a0: 25ee 6f3b 5348 043d d5d6 19be d7e1 23bd
000000b0: 0aac 45be 77c2 483d fb67 033d 0315 9d3d
000000c0: 638a ac3d 728a a93d c632 76bc c813 a93d
000000d0: 2d56 f3bd cddc 8c3c cfd3 ac3d 0fb6 a1bd
000000e0: 8e73 4cbd 246d 213e f2e9 873d 368f fcbd
000000f0: 5f98 aa3c 7dd9 833c fc34 c93c ae82 bebd
00000100: 7d88 0fbd e806 943d 0bda 7ebc 9c41 3fbe
00000110: 864f 653d f29f 533e 680d 1e3e b56c 9ebd
00000120: 8330 213e 9736 debc 4734 a43d 7380 0d3e
00000130: 07fa 71be 6920 cf3c ca81 973d 2a7f 69bd
00000140: 9ea9 b7bd ee7e 473d 0b8d 8ebd 76f2 1bbe
00000150: 58d6 e7bc 1a2a 053d d1ab 503e 048f ccbc
00000160: 4654 00bc bcf8 1a3d aadf 183d 0c8b e2bc
00000170: 5d70 93bd 94aa 2a3e 7ecc 7a3d 03e8 2e3c
00000180: a6a6 56ba d25c 0ebe 9542 10be ddc9 c83d
00000190: 59b2 dbbc 0fb2 0ebd daf2 153e f39c 07be
000001a0: b787 3a3c e56f 2fbe ebad bebc 156e ebbc
000001b0: 3b46 993d 2779 c03d 347e fdbd bd42 00bd
000001c0: 2e46 dcbd 8753 ec3d 0c69 bb3b 027a 10be
000001d0: def7 7dbe 8b38 97bd b4c1 a73d c27a 163e
000001e0: ae42 ffbc 8df7 80bd bd4b 8fbd 753b 93bd
000001f0: 3e78 c2bd 7201 7dbd 50f2 2e3e d912 c83d
00000200: cd4d 0c3d 113d 13be c096 16be da48 2f3d
00000210: 7461 8c3b 0089 d639 a18e 06be 67de 4bbc
00000220: a454 80be 4479 943d 184c ba3c 5edd 4ebe
00000230: a200 eb3d e163 7f3d 2bce fc3d 303b 103e
00000240: 28f6 45be e136 093c a731 eebd 1a65 093e
00000250: ea9e 8a3d deea bb3d fd2b 163d 437b 17be
00000260: 0907 3d3c 525e ffbd 1acf 9dbd d897 823d
00000270: ebc8 873d 6c81 f13c 9a9a aa3c 15d5 0f3d
00000280: 2829 d93d f5da 6cbe 299e 95bc 8484 9c3d
00000290: 5de2 893c c4ce 023d 05e1 39bd 1cc9 d13d
000002a0: 4038 b23d 53e8 90bc 1f3a f7bd 9379 d4bd
000002b0: 08e0 d53d 167b a03e 2047 843e 5e04 afbd
000002c0: 9e5f 593e 19b1 c1bb 0fa6 103e 9aef 6ebd
000002d0: 7147 89bd 6909 c0bb a32b 7ebd 9ede 3fbd
000002e0: 625c a5bb 7304 bfbb 0b7d a33d 8a98 6ebd
000002f0: 2e29 523d b4f1 e23d 6f68 ca3d 4e71 ebbc
00000300: 3bef 78be c7bc 0ebe ce9e 10be 5d57 ac3d
00000310: 8a8a a73d 8049 afbd 1991 233e 5789 1a3e
00000320: 5789 5c3c 26db 3cbc 7266 3a3e 031b 4d3d
00000330: 47c9 02be edf9 023e c9ff aebd a504 59be
00000340: 5ec7 9e3d 63ae 1bbe 1cf2 ffbd b0bb 12bd
00000350: 79bc 24bc dcf0 093e 7a05 9dbd fed4 523d
00000360: db3c 1e3e 5eb9 dc3d 30bb bcbd acd4 6fbe
00000370: 0d6b bbbd 39d9 29be f31d e63c b7c0 15be
00000380: f0fc 663c 38ba 8bbd e31b e9bd 6dec b13b
00000390: 48ff 96bd 2e40 c3bd d9ac a1bd e29d 2a3e
000003a0: 434e 17bd 3187 f73d e77f 5dbe b90b 55bd
000003b0: fe51 cd3d 16bc 00be 824c 163e 3fe5 2a3d
000003c0: 04fb bcbd b49e f5bd bbc9 c33d 842c 3cba
000003d0: a992 0a3e f31d 453d dcd6 5cbd 29cd 6cbe
000003e0: 4670 8bbd 5b83 62bd 269b 44bd 9c61 b53d
000003f0: ad75 c03d 5f6d b5bd f524 dfbd a6b4 debd

network_body._body_endoder.seq_layers.2.bias f4 [128]
-0.019128075 -0.05309264 -0.00760378 0.011406306 -0.0072652576 0.016460601 -0.017923685 -0.057975154
-0.018443746 0.060956586 -3.9092025e-05 -0.014230327 -0.071518965 0.02024017 -0.01705563 -0.032706913
-0.021229066 -0.06290601 0.059882045 -0.042337853 0.0015919801 -0.02778384 -0.097824074 -0.022323286
-0.041866854 -0.005571485 -0.013594393 -0.003204913 0.0046224794 0.05182843 -0.025425252 0.02096479
-0.060299538 -0.02777032 -0.021689259 -0.13725834 -0.018969009 -0.120359674 -0.08523539 0.051995054
0.084593646 0.0063022044 0.07015716 -0.13932583 -0.030922519 0.039913747 -0.024107844 0.03650695
-0.081065156 0.020281887 0.10227597 -0.06159848 -0.120547436 -0.073974416 -0.030340923 -0.076303646
0.019362615 -0.048232038 -0.08700886 0.0117680775 -0.0016759117 -0.07959309 0.039850373 -0.012664107
-0.102708384 0.0060725007 0.084816165 -0.100262396 -0.07048876 0.0011037139 -0.051392224 0.07644361
-0.0708189 -0.018523132 -0.050169595 0.033641864 0.01590601 0.0410217 -0.05162506 -0.020867106
-0.046887703 -0.11035385 0.00021956177 -0.03265418 0.020309227 -0.11029299 -0.12589987 -0.0064163185
-0.039408617 -0.09453443 0.06766683 -0.06983083 -0.059432186 -0.10081816 -0.13379401 -0.05396194
0.042030446 0.024916954 -0.006457263 -0.040251125 0.00251439 0.039252095 -0.05033391 -0.080308884
-0.017935872 -0.039812658 -0.082967885 0.120760985 -0.02088255 -0.0503107 -0.12352528 -0.006245018
0.015697446 -0.019679174 -0.015243033 -0.040671065 -0.07992114 -0.076057054 0.029977012 -0.04742742
-0.040667433 0.004855878 -0.09997923 -0.05652194 0.019539392 -0.07407386 -0.028052885 0.02624833
00000000: 7bb2 9cbc ab77 59bd 2129 f9bb 84e1 3a3c
00000010: 6611 eebb 62d8 863c b1d4 92bc 5b77 6dbd
00000020: 5717 97bc 9dad 793d bef6 23b8 5126 69bc
00000030: 8978 92bd b7ce a53c 40b8 8bbc aff7 05bd
00000040: 94e8 adbc ded4 80bd e046 753d 756a 2dbd
00000050: fda9 d03a f09a e3bc fd57 c8bd 53df b6bc
00000060: 947c 2bbd 0191 b6bb 04bb 5ebc 8509 52bb
00000070: 2b78 973b 0c4a 543d 9e48 d0bc 5abe ab3c
00000080: a6fc 76bd 957e e3bc acad b1bc 738d 0cbe
00000090: e564 9bbc 227f f6bd e48f aebd c4f8 543d
000000a0: 6f3f ad3d b982 ce3b 8fae 8f3d 6eab 0ebe
000000b0: 3951 fdbc 997c 233d d07d c5bc 5088 153d
000000c0: 7d05 a6bd 3326 a63c 1076 d13d b04e 7cbd
000000d0: 93e1 f6bd e67f 97bd 878d f8bc 1645 9cbd
000000e0: 599e 9e3c f58e 45bd b431 b2bd e5ce 403c
000000f0: 44aa dbba b401 a3bd 253a 233d 1d7d 4fbc
00000100: c658 d2bd d4fb c63b 19b4 ad3d 5f56 cdbd
00000110: 695c 90bd 7eaa 903a a780 52bd 788e 9c3d
00000120: 8009 91bd d3bd 97bc a27e 4dbd 0dcc 093d
00000130: 524d 823c 5f06 283d cd74 53bd 7ef1 aabc
00000140: 520d 40bd 3301 e2bd 2a3a 6639 64c0 05bd
00000150: 895f a63c 4be1 e1bd e5eb 00be fb3f d2bb
00000160: ee6a 21bd 449b c1bd e894 8a3d 7703 8fbd
00000170: 2a6f 73bd c079 cebd 4c01 09be 3207 5dbd
00000180: 1e28 2c3d a41e cc3c 7397 d3bb 5dde 24bd
00000190: 77c8 243b cec6 203d ee2a 4ebd fc78 a4bd
000001a0: 40ee 92bc 9912 23bd 11eb a9bd 8951 f73d
000001b0: e211 abbc 9812 4ebd d2fa fcbd 02a3 ccbb
000001c0: ee97 803c 3836 a1bc eabd 79bc b496 26bd
000001d0: b2ad a3bd cdc3 9bbd 5a92 f53c 4143 42bd
000001e0: e592 26bd 0f1e 9f3b e9c1 ccbd 8d83 67bd
000001f0: 1311 a03c 09b4 97bd 2acf e5bc bd06 d73c

action_model._continuous_distribution.log_sigma f4 [1, 2]
-0.5758042 -0.32202277
00000000: e767 13bf 2be0 a4be

action_model._continuous_distribution.mu.weight f4 [2, 128]
-0.0020666874 -0.004792198 0.13463959 -0.008930753 0.0031958693 0.10925121 -0.20918131 -0.1782736
-0.010295293 -0.10462084 -0.0012936766 -0.007651494 0.060430497 -0.15341935 -0.024362503 0.009451122
0.00588492 0.002486882 0.15910983 0.16091356 0.00089900166 -0.0033833066 -0.040580016 -0.0055375006
0.0023679715 0.09729535 0.009522755 -0.00013758749 -0.00047234131 0.08653267 0.0052890144 0.006458504
0.064263806 0.058126632 -0.013977661 -0.17934144 -0.0035221707 -0.025506204 0.04413873 -0.16417135
0.23082598 0.0048837806 0.10437026 -0.029791038 0.0037740702 -0.00015010005 0.0009812876 0.0062480313
0.017518792 0.057084903 0.13558033 0.07173375 -0.009856347 -0.08114973 -0.0003898316 0.0077254293
-0.15586734 0.010632315 0.049829513 0.06543385 -0.0023867365 0.10418845 -0.078564905 -0.18859002
-0.018787075 0.0024013969 -0.1990289 0.02361514 -0.19451264 0.0024925952 -0.00091491005 0.026588382
0.07027377 -0.0023007535 -0.0034557984 -0.03307037 -0.21752462 -0.19840226 -0.0016617274 -0.0084468825
-0.030471135 -0.079372466 -1.1607161e-05 -0.00085656403 -0.1416228 0.022654582 -0.013369287 -0.24100839
0.069412634 -0.082559876 -0.16277495 0.0031781695 0.1191565 -0.11443059 -0.042401955 -0.06918546
-0.057431195 0.022614958 -0.0063496083 0.0018861816 -0.0010700383 -0.10725572 0.085725024 -0.118295014
0.0023476016 -0.0056552966 0.12246083 -0.0020881759 -0.00023572728 -0.0051366678 -0.05148271 -0.0002395683
0.24282213 0.026675278 0.0018374529 0.17611064 -0.10691148 -0.03339255 -0.005415521 0.007668596
0.0044684988 0.10360439 0.007942936 0.007993477 -0.0012917469 0.114335746 -0.010306391 0.16641591
-0.0029972545 -0.0008112332 -0.071550794 -0.009083773 -0.013234625 -0.05979436 -0.012724524 0.039640293
0.01145287 0.058927946 -0.009689183 -0.006589568 -0.06392321 0.029700218 0.002262164 -0.02425803
-0.0019902196 -0.0148163205 0.0708371 -0.06815337 0.015907777 0.012056897 -0.16277738 -0.012654182
0.002991872 -0.06125858 0.010224384 0.002763961 -0.0043690763 0.11681373 -0.017931463 0.0018069214
-0.20544878 0.0394145 0.00414572 -0.13821839 -8.855594e-05 -0.1382535 -0.053785667 0.048191298
0.14545184 -0.003660738 0.2433677 -0.12054635 -0.00035326357 0.0053977906 0.009822501 0.041352335
-0.053972952 0.10386493 0.13140917 -0.020386666 -0.08019101 -0.056559205 -0.003465237 -0.019933509
0.044607196 -0.0053427895 -0.042543758 0.04477188 0.0071479026 -0.05963133 0.06617473 -0.00861888
-0.10374759 0.0018140927 0.15147632 -0.14081766 0.030205512 -0.003472155 0.00035888056 0.062488478
-0.090713054 -0.005154096 -0.0015939086 0.07652297 0.0066963667 0.0833413 0.0020590415 0.0004931078
-0.0072787264 -0.11730978 -0.0032298823 -0.0012661769 0.04994989 -0.084164724 -0.055527594 -0.052560665
-0.035324022 -0.07900589 0.07516259 0.0014140542 -0.06009011 -0.1253496 -0.12503299 -0.014951779
0.051182833 0.051779695 -0.006641738 -0.00096657895 0.015217553 0.056392055 -0.07664815 -0.063175194
0.010036142 -0.00019447677 -0.07753157 0.1407836 -0.0017719087 0.0020763846 -0.090412475 -0.01028382
0.035915293 0.017505363 -0.013474651 -0.013047126 -0.0464532 -0.06433307 0.009140774 0.024723392
-0.0026558924 0.012069423 -0.007868618 0.0018982684 0.0062781065 -0.07977001 0.025456222 0.13349006
00000000: 4371 07bb df07 9dbb f6de 093e 4b52 12bc
00000010: ca71 513b 19bf df3d a033 56be 5b8d 36be
00000020: 97ad 28bc 7343 d6bd 9590 a9ba 62b9 fabb
00000030: f885 773d f619 1dbe df93 c7bc e1d8 1a3c
00000040: 49d6 c03b f5fa 223b b0ed 223e 86c6 243e
00000050: fbaa 6b3a 77ba 5dbb 3b37 26bd ec73 b5bb
00000060: f82f 1b3b c942 c73d 5405 1c3c 5c45 10b9
00000070: 94a4 f7b9 0a38 b13d 784f ad3b dca1 d33b
00000080: be9c 833d 3116 6e3d 8f02 65bc 48a5 37be
00000090: 38d4 66bb 63f2 d0bc d0ca 343d 891c 28be
000000a0: a55d 6c3e 1f08 a03b 13c0 d53d 560c f4bc
000000b0: 6456 773b 2d64 1db9 8c9e 803a 49bc cc3b
000000c0: 9283 8f3c dcd1 693d 92d5 0a3e 25e9 923d
000000d0: 847c 21bc d431 a6bd 5062 ccb9 9925 fd3b
000000e0: b09b 1fbe 2933 2e3c 081a 4c3d 2f02 863d
000000f0: cb6a 1cbb c160 d53d a3e6 a0bd be1d 41be
00000100: 5ae7 99bc c160 1d3b 3bce 4bbe 8a74 c13c
00000110: 522e 47be cf5a 233b 93d6 6fba e1cf d93c
00000120: b2eb 8f3d 3dc8 16bb ad7a 62bb cc74 07bd
00000130: c6be 5ebe f629 4bbe 52ce d9ba cb64 0abc
00000140: 9a9e f9bc 088e a2bd 60bc 42b7 0a8b 60ba
00000150: 9105 11be 1a96 b93c db0a 5bbc e7ca 76be
00000160: 3628 8e3d 2715 a9bd 7aae 26be d648 503b
00000170: 5308 f43d 965a eabd acad 2dbd 1bb1 8dbd
00000180: f93c 6bbd 0143 b93c 6010 d0bb c139 f73a
00000190: 8740 8cba e3a8 dbbd 9a90 af3d a844 f2bd
000001a0: 38da 193b 1150 b9bb becc fa3d c7d9 08bb
000001b0: 8f2d 77b9 7e51 a8bb 89df 52bd a034 7bb9
000001c0: 5da6 783e 1d86 da3c b0d6 f03a 5956 343e
000001d0: 68f4 dabd a0c6 08bd af74 b1bb d948 fb3b
000001e0: 7c6c 923b 8a2e d43d 1723 023c 13f7 023c
000001f0: d54f a9ba dc28 ea3d 23dc 28bc ef68 2a3e
00000200: 966d 44bb f0a8 54ba 3989 92bd 1bd4 14bc
00000210: 0ad6 58bc eeea 74bd 867a 50bc dc5d 223d
00000220: d2a4 3b3c 6e5e 713d 61bf 1ebc 4eed d7bb
00000230: 2cea 82bd df4d f33c d040 143b c7b8 c6bc
00000240: 586e 02bb 27c0 72bc 0b13 913d fe93 8bbd
00000250: 0751 823c 4b8a 453c 1daf 26be 7c53 4fbc
00000260: 4813 443b 47ea 7abd 2d84 273c 9223 353b
00000270: 782a 8fbb 093c ef3d 01e5 92bc 39d6 ec3a
00000280: 2a61 52be 1971 213d d2d8 873b 1f89 0dbe
00000290: 1cb7 b9b8 5392 0dbe 5c4e 5cbd 3d64 453d
000002a0: 54f1 143e fee8 6fbb 6235 793e 01e1 f6bd
000002b0: 3c36 b9b9 f3df b03b 8eee 203c 1161 293d
000002c0: be12 5dbd 23b7 d43d 2090 063e f001 a7bc
000002d0: 2f3b a4bd a0aa 67bd 0819 63bb 994b a3bc
000002e0: 09b6 363d 9112 afbb 5d42 2ebd b862 373d
000002f0: f438 ea3b fb3f 74bd 9e86 873d 3436 0dbc
00000300: 9e79 d4bd dac6 ed3a 9c1c 1b3e 8132 10be
00000310: 8d71 f73c 188d 63bb 2228 bc39 ebf3 7f3d
00000320: c4c7 b9bd b1e3 a8bb b3ea d0ba 13b8 9c3d
00000330: 326d db3b d8ae aa3d fcf0 063b e743 013a
00000340: 6282 eebb 1c40 f0bd 6fac 53bb d9f5 a5ba
00000350: 4198 4c3d 8e5e acbd e770 63bd da49 57bd
00000360: ecaf 10bd d7cd a1bd d8ee 993d c957 b93a
00000370: 0c21 76bd a55b 00be a608 00be 4ef8 74bc
00000380: 17a5 513d f216 543d f0a2 d9bb 0462 7dba
00000390: 0b53 793c 5bfb 663d b5f9 9cbd ff61 81bd
000003a0: a16e 243c 76ec 4bb9 dfc8 9ebd 9329 103e
000003b0: 643f e8ba f413 083b 2d2a b9bd 787d 28bc
000003c0: ea1b 133d 6867 8f3c c8c4 5cbc 9dc3 55bc
000003d0: b645 3ebd 0ec1 83bd 2fc3 153c b688 ca3c
000003e0: 7b0e 2ebb d4be 453c 60eb 00bc 51cf f83a
000003f0: 93b8 cd3b 765e a3bd 9189 d03c 9eb1 083e

action_model._continuous_distribution.mu.bias f4 [2]
-0.0070976173 0.12806818
00000000: 2193 e8bb 4e24 033e
