Assets/ML-Agents/Training Files/results/9roads_rayPerceptionSensor_ppo_offRoadEndsEpisode_1layer/VehicleAgent/checkpoint.pt (torch, 40063 bytes, 24 tensors)

network_body._body_endoder.seq_layers.0.weight f4 [30, 38]
000000 9d b0 7c be 4d 5a 21 3e b4 bf d6 3e 6e d9 4f 3e
       -0.24676748 0.15757103 0.41943133 0.20297787
000010 9b 59 af 3e 6a 02 82 bf 8b 03 f0 3e be 30 43 bf
       0.3424805 -1.0156987 0.46877703 -0.7624625
000020 66 7c 87 be 86 01 fb 3e 35 a9 b9 be 80 f6 93 be
       -0.26462096 0.490246 -0.36261907 -0.28899002
000030 c4 10 44 3f 4b 1f de 3e fd 30 62 be 53 0e 4e bd
       0.7658808 0.4338325 -0.22089 -0.05030663
000040 4c b6 20 be 74 ea 91 bf b9 7a b2 be c8 42 cb 3e
       -0.1569454 -1.1399674 -0.34859255 0.39699388
000050 0e fb 4c 3e 95 a2 6f bd 52 46 ff 3e 55 56 bc 3e
       0.20017645 -0.05850466 0.49858338 0.36784616
000060 40 9c 09 bf 18 c0 b9 be ed 66 54 be 94 dd 5c bf
       -0.53754044 -0.36279368 -0.20742388 -0.862756
000070 a8 42 f4 bc ef e2 17 3f 8e 31 00 3f be ec dc be
       -0.02981694 0.5933065 0.50075614 -0.4314937
000080 84 ed 1d 3d 6a 95 ad 3c c8 3e 2e bf db c1 b0 3d
       0.03855659 0.02118941 -0.68064547 0.08630725
000090 2e b1 07 be d5 52 d7 3e a4 6a a4 3d 28 f9 32 bf
       -0.13251182 0.42055383 0.080281526 -0.6991143
0000a0 dd b2 f1 bc 97 0a 03 bf aa 33 3f bf 52 a0 8a 3e
       -0.029504234 -0.51188034 -0.7468821 0.2707544
0000b0 a4 c4 e5 be e9 57 d5 be ce cc 19 3e b9 6c b0 3d
       -0.44876587 -0.41668633 0.15019533 0.08614487
0000c0 dc c2 5d 3e 6b 41 08 bf da 44 19 3f a6 73 00 3f
       0.21656364 -0.5322482 0.59870684 0.50176466
0000d0 72 9c 0a 3e 8d 65 01 3f c0 30 05 bf 63 79 5f bf
       0.13536242 0.5054558 -0.5202751 -0.87294596
0000e0 d5 5a 0a be 89 26 fb be 00 b5 85 be f8 e6 35 3e
       -0.13511212 -0.49052837 -0.26114655 0.17763889
0000f0 1e 10 f5 3e c1 ba 44 3f 0d c6 bc 3e 9f 8a 2b 3f
       0.4786386 0.76847464 0.3686985 0.67008394
000100 58 c3 28 3e ab 1a 5e bf ea 06 92 3d 32 35 96 bd
       0.16480768 -0.8675944 0.07130225 -0.07334365
000110 7e 8b 12 bf 62 5c ae 3e d3 ca be 3e 6e 62 ac 3e
       -0.572441 0.34054857 0.37264118 0.33668846
000120 df bc 14 3d 3b 49 50 3e 30 6f 54 be 8a 25 81 bd
       0.036312934 0.20340435 -0.2074554 -0.06305988
000130 e0 ce 1f bf f6 f1 2c be 00 cd ab 3e 92 3a a8 3e
       -0.6242504 -0.16889176 0.3355484 0.32857186
000140 a1 76 ef 3e e1 b1 27 bf b7 5e d4 bd af 74 c0 3e
       0.46770194 -0.65505797 -0.10369628 0.37589023
000150 22 79 28 3e 7f 5f 64 3e 0a 97 21 bf 92 d2 54 bf
       0.16452459 0.22302054 -0.6312109 -0.83133805
000160 24 79 48 3f 6f 27 c0 be d7 b2 58 3d ad cb 94 3e
       0.78309846 -0.37530085 0.05290493 0.29061642
000170 2e c3 27 be d1 44 27 be 17 d1 d0 3d 9a 6c 62 3e
       -0.16383049 -0.16334845 0.10196131 0.2211174
000180 12 bd 92 be af 96 a3 be 6c 52 fa 3d 47 27 45 3e
       -0.28659874 -0.319509 0.12222752 0.19253264
000190 27 6a 5d be 9a 3d 4a be d7 2d 0b 3e 76 5e 0b 3d
       -0.21622525 -0.19750062 0.13591705 0.03402563
0001a0 41 95 aa be 34 b7 94 be 5d 1f 84 bd b0 54 f8 3d
       -0.33316997 -0.29046023 -0.064512946 0.12125528
0001b0 85 3d 9f bd d7 84 c5 3c 10 fa 26 be 5d b7 d3 be
       -0.07775406 0.024111195 -0.16306329 -0.41350833
0001c0 cd 31 35 bf b7 66 d0 be b0 3c 03 be 71 7e f3 3c
       -0.70779115 -0.40703365 -0.12816119 0.029723378
0001d0 8c 2e 20 bf 99 3e 8f be cd a9 8b bd 9c 45 e8 bd
       -0.62571025 -0.27977446 -0.06819496 -0.11341402
0001e0 ec bc 6a be 36 6b 69 bf 1f 56 82 bf 82 4d 17 3e
       -0.2292363 -0.91179216 -1.0182532 0.1477566
0001f0 1a ea e4 bd fb d3 e1 bd c3 3a b6 be 6f 62 06 3f
       -0.11177464 -0.1102676 -0.35591707 0.5249395
000200 15 ed 39 bf 09 56 8a 3d 3d 04 d8 be c6 c4 74 bf
       -0.72627383 0.06754691 -0.42190734 -0.9561275
000210 52 7d 0a bf 8c b7 9c 3d 09 70 32 bf 39 60 c0 3e
       -0.54097474 0.07652196 -0.697022 0.37573412
000220 9f 9d 12 3c c4 d3 0f 3f 7e 34 96 be 0c 71 9c be
       0.008948713 0.56182504 -0.29336923 -0.30554998
000230 15 9d 1d bd 16 50 0d bf 9d 3f 23 be e5 f7 8f 3e
       -0.038479883 -0.55200326 -0.15942235 0.28118816
000240 40 9b 99 be 24 cf a1 3d f0 bc d4 3d 15 13 23 3e
       -0.3000126 0.07900837 0.103875995 0.15925248
000250 ff b3 c7 be 38 93 c5 3d 06 4e a6 3e f6 14 03 3f
       -0.39004514 0.096472204 0.32481402 0.5120386
000260 49 61 92 be c2 23 c7 bd 6e 16 43 3d 5e ca 54 3e
       -0.28589848 -0.09723617 0.047628812 0.20780322
000270 ff f6 10 bf 11 1a 87 be cb ac 04 bf 24 94 4e 3e
       -0.56626886 -0.26387075 -0.5182616 0.20173699
000280 db bb 84 3f 5c 25 20 be 29 bb c2 3e ed 74 07 bf
       1.0369829 -0.15639251 0.38033417 -0.5291279
000290 f7 fb 2b bf 00 00 85 3e 23 6b 62 be 75 e4 93 be
       -0.6718134 0.25976562 -0.22111182 -0.28885236
0002a0 b6 b7 94 be be ff 69 3e 56 bd e7 3e 8a 42 c1 3d
       -0.2904641 0.22851464 0.4526164 0.094365194
0002b0 33 da f8 3d 68 5d 9f be ff f6 71 bf f5 11 1e bf
       0.12150993 -0.3112595 -0.9451751 -0.6174615
0002c0 31 3f 93 be 0a 34 c2 be d3 9f 0d 3e 84 ea c4 3e
       -0.2875915 -0.37930328 0.138305 0.3846017
0002d0 23 2b 35 3e 44 ef cf 3e 27 83 f3 3d 67 ec b2 be
       0.17692237 0.40612233 0.1189025 -0.34945986
0002e0 aa ee 26 bf 3a 12 e0 be d6 2d 88 be 73 f9 a2 3d
       -0.6520792 -0.43763906 -0.2659747 0.07957735
0002f0 e2 fc 13 3d 44 12 71 3c 5c af c3 3e 8d de c7 3c
       0.03612984 0.0147138275 0.38219726 0.024398113
000300 f6 45 26 3e 11 b7 02 bf 18 66 4d be f4 c5 42 3e
       0.16237625 -0.5106059 -0.20058477 0.19020826
000310 8b e9 43 be 08 44 aa be 82 33 80 be 7b 71 f6 3b
       -0.19132058 -0.3325503 -0.25039297 0.007520852
000320 34 7f d0 3d df 5c d2 be 51 bc 6f 3f f2 a7 d2 3e
       0.10180512 -0.4108648 0.93646723 0.41143757
000330 82 ed 7e bd 17 1f b9 3e 1a 16 3d be fa bf 49 bf
       -0.062238224 0.36156532 -0.18465462 -0.7880856
000340 bf 1b da be ac ec 95 3e bb 15 96 be 80 1d c1 bd
       -0.42599294 0.2928213 -0.29313454 -0.09429455
000350 63 7c 05 3f c0 83 22 3f da 01 05 be a1 de 02 3f
       0.52142924 0.63482285 -0.12988988 0.51120955
000360 56 82 39 be 4c 71 62 bf 69 17 88 3e 5b 34 86 be
       -0.18116125 -0.8845413 0.2658036 -0.2621182
000370 4b 6a 8f bd e9 e2 a0 3e cf 8a 1d 3f 48 d7 1e be
       -0.07002696 0.3142312 0.6153993 -0.15511811
000380 f4 32 cc be 64 14 60 3e fd 70 b2 be 47 5a 80 bd
       -0.39882624 0.21882778 -0.34851828 -0.06267219
000390 d0 f3 31 bf 47 f1 5e 3e c8 a3 a6 bf a7 c4 ff be
       -0.69512653 0.21771728 -1.3018732 -0.4995472
0003a0 a6 37 54 3d af ed cb be 51 1b 9c bd 2f e2 5e bf
       0.051810883 -0.39829776 -0.07622398 -0.8706388
0003b0 6b 43 35 bf 53 61 36 3e 56 ca 14 bf 19 c1 e1 3d
       -0.70805997 0.17810564 -0.5812124 0.110231586
0003c0 15 96 be be a1 98 ba 3d 66 69 45 be 7a 76 a9 be
       -0.37223879 0.09111143 -0.19278488 -0.33098203
0003d0 28 6a b1 bd f9 fc cd be 4a 3b cd be 63 2e 42 3e
       -0.08662826 -0.40232065 -0.40084296 0.18963008
0003e0 a6 07 6c bf 44 52 9b 3d 7c 6a 41 3e 60 f4 ce bd
       -0.9219917 0.0758405 0.18888277 -0.101052046
0003f0 39 6e 82 bd 9c 35 31 bf 74 b8 3d bd 76 34 6c 3e
       -0.063686796 -0.69222426 -0.046318486 0.23066887

network_body._body_endoder.seq_layers.0.bias f4 [30]
000000 9a b5 ef 3d fb 60 00 3e 1a 24 36 be 97 62 25 3e
       0.117045596 0.12536995 -0.17787209 0.1615089
000010 a0 3a f5 bd 44 28 6d 3d ac e6 09 3e 3c 91 d6 3d
       -0.119740725 0.05789973 0.134669 0.1047692
000020 54 1f c5 3d b4 d9 c4 bc 8b 22 dc 3e c3 70 20 bd
       0.09625116 -0.02402959 0.42995104 -0.039170038
000030 c8 0e 4f be dc 8f 7f 3e e0 8c 12 3c d9 2f 69 bd
       -0.20220482 0.24957222 0.00894472 -0.056930397
000040 84 6e bd bd 30 e9 2e 3e ce c8 87 bb 9c 4d c1 3e
       -0.09249595 0.17081141 -0.004143811 0.37754524
000050 49 1d 71 3e 98 6c b9 bc 29 23 b2 bd d4 90 32 bd
       0.23546328 -0.02263479 -0.086981125 -0.04359515
000060 0c 1d cc 3d b1 d2 f2 bd 2c 7d 55 bd 49 ef 95 3d
       0.09966478 -0.118565924 -0.052121326 0.07321031
000070 ae 5a 5d 3e 0c a1 9c 3e
       0.21616623 0.3059162

action_model._continuous_distribution.log_sigma f4 [1, 2]
000000 c9 c7 02 c0 b4 f3 1b c0
       -2.043444 -2.4367495

action_model._continuous_distribution.mu.weight f4 [2, 30]
000000 c2 18 09 3f a3 d6 1f 3f b6 97 c5 bc 49 91 ea 3e
       0.535534 0.62436885 -0.024120193 0.4581397
000010 ac 81 0c be 74 db c1 3e 04 40 61 3e b9 83 86 be
       -0.13721341 0.37862742 0.21997076 -0.2627237
000020 56 02 02 bf cf e5 8a 3e 83 28 8c 3e 3d 36 7e 3d
       -0.50784814 0.27128455 0.27374658 0.062063444
000030 95 65 f8 bd 92 73 08 bf eb 2d 54 be 33 c4 0b 3f
       -0.1212875 -0.53301346 -0.20720641 0.5459625
000040 fb ff 4d be cc f4 52 be 1a bb 42 be d8 14 69 3f
       -0.2011718 -0.20601195 -0.19016686 0.9104743
000050 c6 8a 09 bf 7e a9 86 be 86 f3 11 3e e8 97 03 3b
       -0.53727376 -0.26301187 0.14253053 0.0020079557
000060 bf 2f 03 3f 48 cd 63 3d 96 0b b0 3e c1 b3 d8 3e
       0.5124473 0.055615693 0.3438384 0.4232464
000070 53 40 84 3e 8f 50 d4 3e 0d ff 45 be f3 fd 49 be
       0.25830325 0.4146771 -0.19335575 -0.1972578
000080 20 17 87 be 7c 2d b5 3c d0 ee 9a bd 0e d3 7d be
       -0.2638483 0.022116415 -0.07565081 -0.24787542
000090 4c 9e 11 3e aa d3 d4 3d 0d b4 87 bc e9 2c 10 be
       0.14220542 0.10391934 -0.016565347 -0.14079632
0000a0 77 50 12 3f 4a e5 96 bc 30 23 83 be 78 03 25 3e
       0.5715403 -0.01841988 -0.25612783 0.16114604
0000b0 7d 2a dc 3d 9c 07 84 be e3 1a b2 be 62 d9 e6 3d
       0.107502915 -0.25787055 -0.34786138 0.11271931
0000c0 eb a2 b2 3d 64 53 44 3e 00 8c ab 3d b6 d0 ab be
       0.087224804 0.19172436 0.08376312 -0.3355767
0000d0 d4 b1 00 bf b6 c1 3a 3b d0 2d 1d be 33 a8 b4 be
       -0.50271344 0.0028496808 -0.15349507 -0.35284576
0000e0 77 d2 c6 bc 97 de e7 3d cc ff ac 3e 19 59 93 3e
       -0.02427028 0.113217525 0.33788908 0.28778914

action_model._continuous_distribution.mu.bias f4 [2]
000000 46 98 62 bd cd 9a b7 3e
       -0.055321 0.3586029

exp_avg f4 [30, 38]
000000 c7 03 9c b9 5e 47 dd 3b 7a 64 05 3b ab 41 5c 34
       -0.00029757453 0.0067528924 0.0020354078 2.0512987e-07
000010 e5 ff ad bb b0 7a 9c b9 41 d5 9c 3b 80 d9 8b 3b
       -0.005310046 -0.00029846048 0.004786164 0.0042678714
000020 fb 32 8a bb 99 9b 83 bb d1 ae 99 b9 46 6f 70 bb
       -0.004217503 -0.0040163514 -0.00029312682 -0.0036687418
000030 4e 4a c6 3b 24 90 93 b9 9b 83 2c 3a 35 44 9c b9
       0.0060513383 -0.00028145418 0.000658089 -0.00029805457
000040 06 03 e2 bb 65 0f 9d 3a 01 2c 9a bc 83 e8 a8 bc
       -0.006897333 0.0011982737 -0.01881981 -0.020618683
000050 72 5b c9 b7 a3 a1 d0 3b 0a 5f 2c 3b c9 13 98 ba
       -2.400365e-05 0.006366925 0.0026301765 -0.0011602576
000060 fc 15 a3 39 7e cc 19 3a 7c 5f e4 bb a0 a5 d3 b8
       0.00031106162 0.00058669585 -0.0069693904 -0.00010092114
000070 72 5e a3 bc 61 84 b4 bc 7b 2b a5 ba 3f eb c8 3b
       -0.019942496 -0.02203578 -0.0012601459 0.006131559
000080 23 b9 fa 3a 08 c9 c6 ba 13 8b 92 ba 85 26 14 bd
       0.0019128661 -0.0015166113 -0.0011180363 -0.036169548
000090 83 8a 0d bc d1 0d 5a bb 8d 02 3e 3b 02 99 1e 3b
       -0.008638981 -0.0033272395 0.002899322 0.0024200086
0000a0 8a 11 1e 3c 83 3e 38 b5 9e 30 1a bb 09 b6 3d 3b
       0.009647736 -6.863631e-07 -0.0023527513 0.0028947613
0000b0 24 98 4a bb 90 d4 ec 3b f9 75 43 3b f2 aa 49 3a
       -0.0030913437 0.007227488 0.0029824956 0.00076930143
0000c0 49 ed 40 3b e1 94 d6 ba 2c f4 f5 3b 52 42 6f 39
       0.0029438308 -0.0016371274 0.007505914 0.00022817522
0000d0 7a 68 06 3b 89 62 3c 3b 73 92 1e 3b 0d 73 d0 ba
       0.002050905 0.0028745255 0.0024196177 -0.0015903428
0000e0 b8 8e a3 3a 2a 02 20 bb 0b 46 85 ba 1b cd 1d 3c
       0.0012478447 -0.0024415352 -0.0010167969 0.0096314205
0000f0 22 f9 90 bb c6 12 a4 ba 48 f4 e3 ba d0 1a 51 3b
       -0.00442423 -0.0012517802 -0.0017391527 0.003190685
000100 14 95 1c ba 34 a3 e8 b9 a2 c7 db ba 7a 9d 7a bb
       -0.0005973142 -0.00044372084 -0.0016767869 -0.0038240836
000110 20 db dd b9 ba cb 18 3c 48 32 97 bb 38 a6 5f bb
       -0.00042315666 0.009325916 -0.0046141483 -0.0034126174
000120 86 f4 8c bb 61 d1 54 bc bc 85 c0 bb 6a c0 2d ba
       -0.0043016104 -0.012989373 -0.0058753174 -0.0006628098
000130 e2 25 af 38 45 2b 0c bb 1a 6a 4e bc cc 57 70 b4
       8.3517065e-05 -0.0021388095 -0.012598539 -2.2383682e-07
000140 0c 74 1b bc be 0c af 38 cc 26 14 bb 20 e4 46 bc
       -0.009488117 8.347024e-05 -0.0022606133 -0.01213935
000150 b7 b5 09 ba 1f 78 0e bc 56 da c5 38 fb eb 83 bb
       -0.0005253213 -0.008695631 9.43436e-05 -0.004025934
000160 0d e3 07 bc 4c 61 a9 38 62 d5 f7 bb 16 49 b1 38
       -0.008293879 8.076671e-05 -0.007563279 8.453631e-05
000170 32 4b 48 bc 5c d2 b0 bb 04 53 ea ba 82 d8 08 bc
       -0.012224959 -0.0053961705 -0.0017877524 -0.008352401
000180 50 c7 e9 39 56 6a 6e bc 14 70 df ba 98 dd 78 3a
       0.00044589723 -0.01455172 -0.0017046952 0.0009493469
000190 16 1d c5 bb fb ce 21 bb 25 68 2f bc e6 76 97 bb
       -0.00601543 -0.002469002 -0.010705982 -0.004622328
0001a0 e6 ac 9f ba d0 a3 14 bc 26 a9 8b 39 1a 5e 5d bc
       -0.0012182265 -0.009072259 0.0002663817 -0.013511205
0001b0 65 48 11 bb 7c 91 3e ba eb d5 fa bb e2 a8 ee bb
       -0.0022168395 -0.00072696037 -0.0076548955 -0.007283316
0001c0 14 05 e5 bb 5c 23 ce 3b 4b 89 34 3a d9 d0 8c 3c
       -0.0069891308 0.0062908363 0.00068869133 0.01718943
0001d0 6c 5f 82 bb f7 69 e7 b5 df 45 89 ba 16 f3 33 3a
       -0.0039786603 -1.7241681e-06 -0.0010473094 0.0006864531
0001e0 be b6 65 3c 46 cf 04 bb c5 30 94 ba 5f 81 ee 3a
       0.01402062 -0.0020265146 -0.0011306038 0.0018196515
0001f0 22 76 39 3a 2d c3 d2 3b 90 e3 9d ba 29 5c 45 b8
       0.0007074793 0.006431958 -0.0012045968 -4.705429e-05
000200 b1 6a 63 3b 7f 8d 33 3a a6 a2 fc bb 0d a3 b8 3a
       0.0034701044 0.00068493927 -0.007709819 0.0014086679
000210 85 3f 16 bc d5 3d 2f bc a8 0b 13 3a f4 ae d4 3b
       -0.009170418 -0.010695894 0.0005609342 0.0064905826
000220 a6 1a d5 38 a5 a4 3d 3a 9d 7a 46 3b a7 87 bc ba
       0.00010161595 0.0007234312 0.0030285486 -0.0014383689
000230 fc 9a 92 bb d9 2e a3 3a 93 2f 2a bc 63 02 43 bc
       -0.004474042 0.0012449875 -0.010387319 -0.0119024245
000240 74 6d 84 38 92 04 36 3c 41 cf 5a 39 0d 01 7d ba
       6.314638e-05 0.011109488 0.00020867308 -0.00096513407
000250 11 f8 e2 3a 49 fc 9b bc 9b 4f 6f bb 95 a6 15 3c
       0.0017316361 -0.019041197 -0.0036515954 0.0091339545
000260 13 6c 01 b9 8c 68 e0 3a b5 43 36 ba 7b c8 fb b4
       -0.0001234266 0.0017121001 -0.0006952838 -4.6898262e-07
000270 68 cc 30 3a 56 85 01 b9 90 89 1c 38 f1 47 0a 3a
       0.0006744326 -0.0001235207 3.7321413e-05 0.00052750023
000280 30 51 41 b8 10 e1 1b 3a 62 7b d1 b8 a4 72 47 3b
       -4.6090398e-05 0.00059463177 -9.9888784e-05 0.0030433321
000290 9e f6 d3 b9 23 4d 16 b7 f5 69 50 3a 02 79 ff b8
       -0.000404288 -8.9586565e-06 0.0007950359 -0.00012181887
0002a0 67 da 03 b9 ed af 1d bb 26 3c e1 3a b8 b5 f4 39
       -0.00012574495 -0.0024061159 0.0017184063 0.00046674698
0002b0 76 53 46 b9 55 41 9e 3a 0e cd 21 39 1d 4b 8c 38
       -0.00018913843 0.0012073914 0.00015430545 6.689711e-05
0002c0 02 aa 1d 38 b4 12 1c b9 81 2a 1d 3a 0a 9f 71 bb
       3.759005e-05 -0.00014884287 0.0005995408 -0.0036868476
0002d0 ec 7b da 3a 52 6a 89 b9 00 f5 ed 38 70 12 84 b7
       0.0016669012 -0.0002620989 0.000113466755 -1.5744212e-05
0002e0 44 8d 2b 39 58 9f 06 ba 79 0b 2d ba 99 3f c7 3b
       0.00016360456 -0.00051354384 -0.0006601136 0.0060805795
0002f0 d8 1e 66 b8 66 7a fe ba ce 6f 67 3b c0 2f ab 3b
       -5.4865e-05 -0.001941514 0.0035314444 0.005224198
000300 5a 9e d0 3a 02 e4 5a b5 59 c5 57 bb d2 4b 67 3b
       0.0015916333 -8.1543124e-07 -0.0032924025 0.0035292995
000310 a0 a3 1a 3b 47 38 07 3b 80 64 2d b7 24 b5 56 ba
       0.0023596063 0.002063291 -1.0335003e-05 -0.0008190444
000320 00 ed 69 3b 10 ed a3 38 5a 63 37 3b 69 cb 1a b9
       0.0035694242 7.816602e-05 0.0027982802 -0.0001476236
000330 0e b0 56 3a f5 13 66 3b 86 0e d8 ba 3f ef f0 ba
       0.00081896863 0.003510711 -0.001648382 -0.0018381848
000340 77 c0 86 bb 10 85 e3 bb b1 1e 2e ba a0 41 a6 3b
       -0.004112299 -0.0069433525 -0.00066421466 0.005073741
000350 f2 54 8c ba bc 18 ae ba 0a 9f 90 ba 3e 49 97 3a
       -0.0010706468 -0.0013282518 -0.0011033725 0.0011542214
000360 ec 5f 14 bb 55 c7 e9 b9 ec 23 84 bb dd 31 e4 bb
       -0.0022640182 -0.00044589737 -0.0040326025 -0.006963952
000370 38 3f 15 ba 89 16 96 3b ca 3c bf ba 27 d3 89 b9
       -0.0005693319 0.004580323 -0.001459026 -0.00026287997
000380 93 c2 e6 ba fe 3c 3c bc c0 15 b5 bb c0 28 e1 38
       -0.0017605595 -0.011489151 -0.0055262744 0.00010736426
000390 09 05 cc b8 24 02 a8 3b a2 d8 39 bb 22 12 a2 b3
       -9.728416e-05 0.0051272083 -0.0028357883 -7.547011e-08
0003a0 7b 5b b5 39 55 82 cc b8 99 0b 03 3c 8d 6c c4 ba
       0.00034591169 -9.751754e-05 0.007998371 -0.0014985964
0003b0 fc 13 4b ba 0b 8b ff 3a 91 46 d1 b8 4c 72 65 bb
       -0.00077468134 0.0019496394 -9.9790406e-05 -0.0035010753
0003c0 e6 cd b3 ba 9f a0 5e b9 35 7c a2 3a e1 11 cb b8
       -0.0013717979 -0.00021231406 0.0012396636 -9.6831245e-05
0003d0 30 d7 a6 bb d8 71 79 3a 4a 38 e9 bb 91 cd 0e bc
       -0.0050915703 0.000951556 -0.007117306 -0.008716003
0003e0 40 5d 88 b9 ad 2e 8b ba 78 56 47 3b 7b fc bd 3a
       -0.00026009418 -0.0010618769 0.003041653 0.0014494801
0003f0 70 e0 20 3b c0 32 3e b8 55 4a 8d bb 47 5a 85 3b
       0.0024547838 -4.5346795e-05 -0.0043118396 0.0040696

exp_avg_sq f4 [30, 38]
000000 4c 1d a2 37 b5 6a c7 3b 33 83 9f 3b 59 cf ec 39
       1.9325547e-05 0.0060857185 0.004867935 0.00045167914
000010 b4 ed 45 3b 8e 8f 1b 38 ee 36 c8 3b 85 ec 9b 3a
       0.0030201497 3.7088575e-05 0.0061100638 0.001189605
000020 2a 7d 0a 3b 5d d3 a0 3b 0d 58 a2 37 22 0d 93 3b
       0.0021131733 0.004908009 1.9352907e-05 0.0044876495
000030 bc b7 df 3b 67 81 ea 39 74 10 0b 3b 28 43 30 38
       0.0068273228 0.0004472837 0.0021219524 4.2024214e-05
000040 2c c3 b8 3b 34 29 33 39 4b 98 6d 3b 23 b8 c2 3b
       0.0056385007 0.0001708612 0.0036254104 0.005942361
000050 98 fd 00 39 3d 78 a8 3b f7 41 eb 3b ee 8d 9e 3a
       0.00012301502 0.0051412866 0.0071794945 0.0012096742
000060 64 6d 1c 3b 3c 34 e2 38 c1 e3 b2 3b 97 19 c1 39
       0.0023868913 0.00010786249 0.0054592793 0.00036830895
000070 f0 6c d6 3b 02 57 fe 3b c1 4f 02 3a ba 00 ad 3b
       0.006543748 0.007761837 0.00049709907 0.0052796276
000080 2f 58 e9 3b 60 d3 ac 3a af 07 22 3b 0f ac 0c 3c
       0.007121108 0.0013185553 0.0024723818 0.008585944
000090 dd b5 e8 3a 43 54 1d 3c f6 dc 2f 3a 7e 9b cd 3a
       0.0017754395 0.009602609 0.0006708646 0.0015686599
0000a0 89 60 95 3b 69 09 21 39 18 d3 ec 3a fa 3c 38 3a
       0.004558627 0.00015357662 0.0018068282 0.0007028129
0000b0 43 a2 1b 3b 90 3f 97 3a 63 a3 b4 3a 22 d1 2d 3b
       0.0023747839 0.0011539329 0.0013781603 0.0026522358
0000c0 e7 17 34 3a d1 fd ea 3a 3a fc d5 3b f7 54 6d 3a
       0.0006870017 0.0017928426 0.006530312 0.0009053493
0000d0 8a 4d 23 3b 17 e4 3a 3a b9 26 97 3b bc 11 9c 39
       0.0024918043 0.0007129325 0.0046127704 0.00029767852
0000e0 dd dd 9b 3a cf ae 1f 3b 68 5c 09 3a 5b 4b 8f 3b
       0.0011891682 0.0024365669 0.0005239905 0.0043729967
0000f0 0a a9 f1 3b 8b bb 71 3b f4 9e a7 3b 61 00 27 3a
       0.0073748874 0.0036885466 0.0051153842 0.0006370601
000100 4b 84 df 3b 45 a5 61 39 37 01 47 3b 74 98 81 3b
       0.0068211905 0.0002151924 0.0030365714 0.0039549414
000110 32 cb c8 38 96 3d bf 3b eb 44 03 3c 41 5d 95 3b
       9.574591e-05 0.005836199 0.008012037 0.004558236
000120 93 93 cd 3b 7c 10 12 3c 05 d1 0f 3b e7 11 17 3c
       0.0062736957 0.008915063 0.0021944654 0.009220577
000130 5f 51 18 36 32 76 9f 39 fc e3 0c 3b 6f b9 0d 39
       2.269713e-06 0.00030414906 0.0021498194 0.00013515887
000140 ef 58 2d 3a 01 d3 b0 37 0f e3 aa 39 04 00 bc 3a
       0.00066126784 2.1079091e-05 0.000325941 0.0014343266
000150 ec 62 a8 39 b0 a9 3a 3a 35 81 01 37 d4 eb 9c 38
       0.0003211716 0.00071206223 7.7190825e-06 7.482586e-05
000160 02 9c 06 3b a9 11 bd 38 d5 e5 f7 39 93 51 68 37
       0.0020539765 9.015512e-05 0.0004728275 1.3847271e-05
000170 15 85 15 3a b6 6a 8f 3a 78 ae f9 38 c5 6a df 39
       0.00057037297 0.0010941837 0.000119057426 0.00042613424
000180 fd fa 04 38 8b 03 4f 39 ba 20 f7 3a 44 17 9a 39
       3.1705003e-05 0.00019742378 0.0018854358 0.00029390503
000190 e1 74 1b 3a ff a9 4b 37 c8 ca 4f 3a 26 bd 63 3a
       0.0005930197 1.2139323e-05 0.000792664 0.0008687548
0001a0 4b ee 64 39 e1 b9 01 3a f3 96 cf 38 05 0b e9 39
       0.00021832545 0.00049486576 9.898646e-05 0.00044449433
0001b0 8d 39 c6 3a c5 8a fb 39 be 42 49 3a b5 de 81 3a
       0.0015123353 0.00047977842 0.0007677487 0.0009908291
0001c0 63 98 5b 39 e0 86 16 3b cc cf 4b 37 8b e8 c7 3a
       0.00020942236 0.0022968575 1.2148124e-05 0.0015251798
0001d0 95 09 0d 39 0a 7d fc 37 70 fd 0a 3a 3a b8 58 37
       0.00013450377 3.0098967e-05 0.00053020474 1.2917497e-05
0001e0 c1 e7 76 3a d2 3e 66 38 2c d9 82 38 6b fb 2f 3a
       0.00094186893 5.489478e-05 6.2393345e-05 0.00067131844
0001f0 37 32 76 37 0d 86 20 3b d1 92 bd 39 ac 0b ae 38
       1.4674434e-05 0.0024493963 0.00036158276 8.2991406e-05
000200 d3 1f 00 3a 3e 93 af 37 bf 25 9f 3a 8f b5 79 38
       0.00048875547 2.093019e-05 0.0012141987 5.9535316e-05
000210 2b 11 84 3a 97 f5 d0 3a 89 fb c8 36 e4 8c 85 3b
       0.0010075917 0.0015942332 5.989747e-06 0.0040756334
000220 6c 3a 07 3a 41 ef e4 39 ef 75 54 3a 2b c7 d1 38
       0.0005158547 0.00043665807 0.00081047317 0.000100029945
000230 bb 2f e2 3a 65 61 bb 39 8c e0 0c 3b b8 1a 2b 3b
       0.0017256656 0.00035739984 0.0021496145 0.0026108455
000240 a8 3a f1 37 da b5 91 3b 3b 77 4e 3a 71 f0 31 3a
       2.8756753e-05 0.004446727 0.0007876043 0.0006787843
000250 18 49 90 3a 94 18 3a 3b d4 48 6e 3a ca ba 58 3b
       0.0011008112 0.0028395997 0.0009089832 0.003307032
000260 48 44 c6 36 23 c0 a9 38 87 44 7f 38 b3 fb 46 37
       5.908809e-06 8.094336e-05 6.086056e-05 1.1860323e-05
000270 1a 18 56 38 a6 3c ac 36 1a f1 8d 37 9a cd 01 39
       5.1044022e-05 5.13306e-06 1.6920781e-05 0.00012378991
000280 55 7e 0b 39 fc 10 2c 39 b8 4e f9 36 2c 82 ae 38
       0.00013303135 0.00016409525 7.4299423e-06 8.321213e-05
000290 63 b4 38 37 2f 83 59 37 1d 92 0c 38 71 d1 2d 36
       1.1009254e-05 1.29647515e-05 3.351468e-05 2.590092e-06
0002a0 13 79 ce 37 5a 60 25 39 c0 ec 60 39 ed 3b 84 39
       2.4613493e-05 0.0001577152 0.00021450501 0.0002522165
0002b0 e6 a9 0f 37 05 0b 32 39 5c 4d c1 36 ec b1 de 36
       8.563022e-06 0.00016979508 5.760854e-06 6.6368284e-06
0002c0 11 48 d0 37 e1 b3 b9 35 50 ff 48 38 b1 85 5d 39
       2.482909e-05 1.3835926e-06 4.7921494e-05 0.00021126006
0002d0 16 6c 69 39 10 8d 90 39 7a d2 4d 37 ef 4e 62 39
       0.00022260877 0.0002757092 1.2267958e-05 0.00021582445
0002e0 80 b8 fd 36 5a 65 c1 37 46 01 35 38 8f 2b 76 39
       7.561466e-06 2.3054588e-05 4.315495e-05 0.00023476615
0002f0 e8 f4 84 38 d5 67 80 39 7f d3 b0 39 34 61 09 3b
       6.339868e-05 0.00024491423 0.00033726913 0.0020962479
000300 7e 93 6c 3b 1e 79 08 39 8c ea a5 3a 3e 44 c5 39
       0.0036098654 0.0001301509 0.0012658401 0.00037625612
000310 8a 81 a1 3a 1f a7 86 3a 33 59 5a 3a 6e 72 03 3b
       0.0012321931 0.0010273195 0.0008329332 0.002005722
000320 df 5b aa 39 86 41 a1 3a ab 6c ba 3b 83 c4 3c 39
       0.00032493376 0.0012302853 0.0056892238 0.00018002283
000330 da 55 85 3a cc b8 bc 39 4f 4e bb 3a b9 78 a1 39
       0.001017268 0.0003599584 0.0014290306 0.00030798258
000340 3b 4e 7c 3a c8 53 05 3b 45 05 97 39 91 4b 01 3b
       0.00096246944 0.0020344127 0.0002880489 0.001972888
000350 d7 d3 c9 3b fb b1 eb 39 f7 c8 a2 3a ea a1 b6 39
       0.0061592865 0.000449553 0.0012419511 0.0003483438
000360 76 e2 cd 3a 2c eb 1b 39 0a 8d 25 3b 04 bf 46 3b
       0.0015707749 0.0001486956 0.0025261068 0.0030326257
000370 66 15 d8 38 a9 74 2a 3b 41 6b cd 3b b1 43 c4 39
       0.000103036684 0.0026009476 0.006268889 0.00037434467
000380 bb 3a ad 3a 1c 00 95 3b 89 4a 67 3a f3 23 b6 3b
       0.0013216356 0.004547132 0.0008823057 0.0055584847
000390 37 1f 05 36 60 dc e6 3a 71 0e c6 37 03 79 74 37
       1.9836714e-06 0.0017613284 2.3610164e-05 1.4571709e-05
0003a0 bf 8d 04 3a 41 ac db 35 5d 9a db 3a 36 96 fc 38
       0.0005056522 1.6366904e-06 0.0016754378 0.00012044275
0003b0 da b9 da 38 67 57 24 3a c6 91 a8 35 b3 a6 04 3b
       0.000104296676 0.00062691275 1.2559401e-06 0.0020240962
0003c0 b6 7b a9 39 17 cd a5 38 ed a9 0d 3a 44 63 00 36
       0.00032326364 7.906014e-05 0.0005404044 1.9131267e-06
0003d0 9f 0c f1 3a b6 26 e7 39 19 57 1a 3a e3 c8 98 3a
       0.0018390602 0.00044088595 0.00058876124 0.0011656549
0003e0 db ca 16 36 c3 a3 1d 3b 96 5d 35 3a c3 cd ee 39
       2.246982e-06 0.0024053908 0.00069185474 0.00045548202
0003f0 a2 aa 75 3a 8a 40 b2 37 95 5f fd 3a 56 88 88 3a
       0.00093714346 2.1249307e-05 0.0019330854 0.0010416608

exp_avg f4 [30]
000000 b8 cb 09 bd 42 43 a1 bc 61 35 a7 bc 28 92 38 bc
       -0.033641547 -0.019685391 -0.020411195 -0.011265315
000010 fc a6 ad 3a a6 7b 85 bc 95 64 fd 3a d7 8c 8a 3c
       0.0013248618 -0.016294312 0.0019332344 0.01691286
000020 2b b7 6a bc 53 21 41 bc 93 83 6c 3d bb 46 2c bb
       -0.014325897 -0.01178773 0.057742666 -0.0026287276
000030 f2 ba 99 bc a1 fa c8 bb 2a ab c0 3b 0d 39 92 bc
       -0.0187659 -0.006133393 0.0058797793 -0.01784947
000040 1f 97 ba bc 03 6e 8a 3c 50 6a 11 3c 7c a8 c4 bc
       -0.022777138 0.01689816 0.0088754445 -0.02400612
000050 50 fc a6 3c 3a a5 02 bd 26 ad ee bc da 9a ec 38
       0.020383984 -0.031895854 -0.029135298 0.000112822
000060 0b 92 a3 bc 4f 52 85 bc 89 e0 45 bb a5 b9 4b bc
       -0.0199671 -0.0162746 -0.0030193648 -0.012434398
000070 88 c1 b8 3c 48 2e 93 b9
       0.02255322 -0.00028072507

exp_avg_sq f4 [30]
000000 2a 81 a3 3c 34 7d a3 3c 86 96 69 3b 15 f9 ea 3b
       0.019959051 0.019957162 0.0035642697 0.007170806
000010 d5 3d 0d 3a e4 d5 2f 3c 8d df c0 3b f2 d2 80 3b
       0.0005387937 0.010732148 0.0058860243 0.0039313966
000020 e0 90 c6 3c 10 ea 91 3b bf 2e fe 3d 6c 01 0f 39
       0.024239004 0.0044529513 0.1241126 0.00013638072
000030 7b ce 48 3b 1c 51 f9 3c 3d 02 51 3b 1e 68 de 3b
       0.003064065 0.030434184 0.0031892203 0.006787314
000040 5c 7f 79 3b c4 15 d5 3b 07 d2 a2 3a 45 43 55 3d
       0.0038070297 0.006502839 0.0012422212 0.052066106
000050 64 fe df 3c 11 1c e9 3b 50 39 a2 3c 89 27 98 36
       0.027342983 0.0071139415 0.01980272 4.5345555e-06
000060 c8 74 58 3c 72 ad 9a 3b fc 5c ae 3b 6f c7 68 3b
       0.013211437 0.0047203833 0.005321143 0.0035519262
000070 c1 17 05 3d 68 5b 27 3d
       0.032493357 0.040858656

exp_avg f4 [1, 2]
000000 6e de f6 bc 72 0a de bc
       -0.03013536 -0.02710459

exp_avg_sq f4 [1, 2]
000000 42 0d 9f 3b a9 0f aa 3b
       0.0048538754 0.005189855

exp_avg f4 [2, 30]
000000 9a 65 15 bd e2 3b 02 bc 6f e9 ed 3c bf 41 0a bc
       -0.036473848 -0.0079488475 0.029041974 -0.008438527
000010 02 a5 2d bc 8e b3 cc 3a 56 fb 2e bb 14 92 bc ba
       -0.010598423 0.0015617476 -0.00267001 -0.0014386796
000020 15 70 0d 3d 76 f7 22 bc df 73 2f 3c ae c6 34 bc
       0.034530718 -0.009946695 0.010708778 -0.011033697
000030 d8 49 2d 3c 31 41 94 3d 1a 86 a1 3c d5 9a 2c bc
       0.010576688 0.07238997 0.019717265 -0.010534962
000040 93 9e af 3c e0 63 e3 b9 8b 6c 3c bc c6 02 09 bd
       0.021437919 -0.00043371227 -0.011500488 -0.03344991
000050 93 b1 b8 bc 96 9e e5 3c b7 79 ac 3c dc 48 e5 ba
       -0.022545611 0.028029721 0.021054132 -0.0017493027
000060 bd b2 9f bc 81 b3 13 3c c0 43 35 3b 2b f2 78 bc
       -0.019494409 0.009014965 0.002765879 -0.015194456
000070 16 04 0e bc 6f 73 16 bc aa 24 4e bc e9 bd 3f bd
       -0.008667966 -0.009182795 -0.012581984 -0.04681197
000080 aa e4 25 bc ef c5 a7 bc 19 28 ac bc 22 08 1a bd
       -0.010125319 -0.020480124 -0.021015214 -0.037605412
000090 3f ce 80 3c f6 b4 f4 3c 92 88 2f 3e 22 75 f6 bc
       0.015723346 0.029871445 0.17141941 -0.03008515
0000a0 7a cb 23 3d db 9e bf bc 16 f6 23 bd da c7 03 3e
       0.039988972 -0.023391178 -0.040029608 0.12869206
0000b0 54 7e 98 bb 07 2a 81 bd 3c 72 e6 bc 05 bd 63 3d
       -0.0046537314 -0.06306844 -0.028130643 0.055600185
0000c0 9c 2b 73 bc f4 2e 15 3b 52 b7 10 3e 18 50 9c bc
       -0.01484194 0.0022763582 0.14132431 -0.01908116
0000d0 5b 7c 36 bc ba 0c f8 ba f7 f5 c2 bc fd d8 ef bc
       -0.011138047 -0.0018924691 -0.023798926 -0.029278273
0000e0 da 8d 0b 3b f1 5b 9b bc 1c f7 02 3c b2 4b 3a bb
       0.0021294267 -0.01896474 0.007993486 -0.0028426466

exp_avg_sq f4 [2, 30]
000000 d8 1c 97 3d 18 0b dd 3c 63 39 ab 3c 7f ed 23 3c
       0.073785484 0.026982829 0.020901388 0.010005354
000010 dd 5e 39 3c 63 e8 36 3d 2e f2 4a 3c 04 23 9c 3c
       0.011314121 0.044655215 0.012386842 0.019059666
000020 f1 45 ce 3d 8b 98 d6 3c 8c 10 ab 3e d3 7c 44 3b
       0.10071934 0.026195785 0.33411062 0.0029981628
000030 b0 ad 8e 3c 7a 65 d5 3d a9 b8 67 3c 29 2f 3d 3c
       0.017416805 0.10419746 0.0141431475 0.011546888
000040 e2 d0 3b 3c 29 00 7b 3d 0a fd e7 3b e8 23 05 3d
       0.011463376 0.06127945 0.007079725 0.032504946
000050 b7 cd f1 3d b1 f9 95 3c 15 e3 23 3d 8e f2 b9 39
       0.11806815 0.018307539 0.040011484 0.00035466667
000060 3d 25 b8 3c 9d 5e 8a 3c 26 7c 30 3c 08 75 11 3c
       0.022478694 0.016890818 0.010771787 0.008878
000070 68 dc 94 3d ec 6a ca 3d 50 18 22 3e 48 9a 8d 3d
       0.07268602 0.09883675 0.15829587 0.069141924
000080 24 72 3f 3d 71 dd df 3c f9 c3 bb 3c b2 52 e2 3d
       0.046739712 0.027327271 0.022920595 0.11050929
000090 8c 96 10 3d 94 b1 39 3d a5 d6 6b 3e b7 b3 80 3d
       0.035299823 0.045335367 0.23031099 0.06284278
0000a0 86 95 48 3f 60 b6 f8 3b 0e 5b 1d 3d 55 b4 6a 3e
       0.78353155 0.0075901 0.038416915 0.22920354
0000b0 5a 26 f4 3c 05 f6 d4 3c 08 78 cc 3c 5b 8d 06 3e
       0.029803444 0.025996218 0.02495958 0.1313986
0000c0 36 61 8a 3c 19 d9 bb 3d ff a2 82 3e 67 45 33 3d
       0.016892057 0.091722675 0.2551498 0.04376736
0000d0 fe 8c bc 3d 5b 3e 46 3a 33 fc 55 3d 7b 43 1f 3d
       0.092065796 0.0007562392 0.05224247 0.038882714
0000e0 22 dc d4 3c ae 50 a2 3c c8 9e 42 3e 5d 35 83 3e
       0.025983874 0.019813862 0.19005883 0.2562665

exp_avg f4 [2]
000000 1c 15 6f ba e7 52 4c 3e
       -0.0009120272 0.199535

exp_avg_sq f4 [2]
000000 60 d1 2c 3e 41 f0 c1 3e
       0.16876745 0.37878612

exp_avg f4 [30, 38]
000000 3c dd c0 34 fe 72 ac 36 2d ef 2f 36 df 5f 37 30
       3.5923756e-07 5.1393863e-06 2.621625e-06 6.6711253e-10
000010 c3 f2 85 36 e2 7f c0 34 98 62 b0 35 da fc 61 36
       3.99197e-06 3.5855834e-07 1.3141716e-06 3.3674792e-06
000020 3d 9f 09 34 98 c1 68 36 7e 46 bd 34 38 9a db 36
       1.281705e-07 3.468338e-06 3.5255283e-07 6.544662e-06
000030 dd f3 2a 36 c5 99 9a 33 94 f8 1b 36 d2 82 ae 34
       2.5473921e-06 7.199154e-08 2.3241491e-06 3.250521e-07
000040 28 6d b1 b6 37 5b 2e 36 f7 2a c7 35 e4 43 18 36
       -5.2877185e-06 2.5981115e-06 1.483916e-06 2.2689283e-06
000050 7c 1f 69 b3 03 1b 65 36 55 64 80 35 55 65 18 b6
       -5.4278175e-08 3.4139382e-06 9.565944e-07 -2.2708748e-06
000060 3d c2 8b b5 fe a9 1c b6 60 3a 54 b6 f4 fe 90 35
       -1.0412838e-06 -2.334476e-06 -3.162444e-06 1.0803037e-06
000070 ae 7d f6 35 98 2a 06 36 d9 48 c1 33 cc f9 1e 36
       1.8365006e-06 1.9992349e-06 9.000514e-08 2.3689236e-06
000080 56 f2 75 35 50 d0 12 b6 0a 26 a1 b5 26 91 ac 36
       9.162226e-07 -2.187695e-06 -1.2006506e-06 5.142897e-06
000090 dc 1b 02 35 9d e8 2c b6 b7 f3 07 35 34 81 1f 37
       4.8469315e-07 -2.5765396e-06 5.064607e-07 9.507221e-06
0000a0 b3 46 e0 b6 43 57 f2 ae a8 96 25 37 a2 a4 06 35
       -6.6839507e-06 -1.1020387e-10 9.869844e-06 5.015846e-07
0000b0 72 fd 3f 36 52 66 29 b7 9f 33 96 36 c0 18 f5 36
       2.8608742e-06 -1.0097008e-05 4.476358e-06 7.3044503e-06
0000c0 d8 bd 0e 35 0e 7e 57 37 c7 35 fc b6 a0 2b b3 b3
       5.317538e-07 1.2844348e-05 -7.5164457e-06 -8.3432724e-08
0000d0 5a 03 24 b5 f0 57 18 35 39 b0 a5 b7 86 f5 b0 b6
       -6.109964e-07 5.675238e-07 -1.9751593e-05 -5.2737914e-06
0000e0 87 bc 31 37 7c b1 8d 36 52 0e cf b5 28 09 88 b6
       1.0593917e-05 4.2227894e-06 -1.542687e-06 -4.0541818e-06
0000f0 25 e4 64 b6 d7 48 36 b6 64 2d f3 b6 b9 a3 d0 36
       -3.4107445e-06 -2.7162512e-06 -7.2472485e-06 6.217943e-06
000100 b1 0f 12 b8 8d 0c 0a b6 6e 39 89 36 f6 c4 1e b6
       -3.4823726e-05 -2.0570908e-06 4.089604e-06 -2.365848e-06
000110 5f fe 39 b5 2d d2 02 b7 53 62 99 b6 e7 94 a4 b5
       -6.928803e-07 -7.797539e-06 -4.5712018e-06 -1.2262288e-06
000120 c3 cd f2 b6 e2 f6 e5 37 56 5b 3c 37 5c 80 6d 36
       -7.236116e-06 2.7413891e-05 1.1226939e-05 3.5390467e-06
000130 42 01 53 35 68 77 d1 35 bf 21 76 36 dc ab 01 30
       7.8605456e-07 1.5606465e-06 3.66765e-06 4.7174153e-10
000140 b9 4d f7 36 20 bf 53 35 a5 9c 87 37 aa d3 a6 36
       7.3702217e-06 7.888175e-07 1.6166197e-05 4.9718265e-06
000150 b1 5b 85 35 1a a6 55 37 22 38 51 35 b6 ae 12 37
       9.935958e-07 1.2734463e-05 7.794025e-07 8.742956e-06
000160 89 63 46 36 8b 89 36 b4 88 6d 77 37 90 c0 48 35
       2.9562236e-06 -1.7000109e-07 1.47478495e-05 7.478602e-07
000170 d1 5e 1d 38 85 97 43 36 ae 05 4b 36 85 fa 85 37
       3.752002e-05 2.914546e-06 3.0252663e-06 1.5971493e-05
000180 60 82 de 34 64 93 0c 38 80 e0 23 36 40 10 1f 37
       4.1445583e-07 3.351587e-05 2.441957e-06 9.480922e-06
000190 5c 2e cb 37 43 1b 98 b5 d6 6c 50 38 61 20 37 36
       2.4221074e-05 -1.1332817e-06 4.9692426e-05 2.7287972e-06
0001a0 bc e0 3e 36 20 c8 85 37 b0 04 87 35 48 b0 0f 38
       2.844302e-06 1.5948026e-05 1.0059648e-06 3.425803e-05
0001b0 ec ba 08 37 c8 b1 04 37 6c 5e d4 37 b5 17 5e 37
       8.149753e-06 7.909206e-06 2.5316338e-05 1.3237751e-05
0001c0 1e 2b 2d 37 4b da 22 37 94 c8 10 b4 05 51 d8 37
       1.0321643e-05 9.706778e-06 -1.3484015e-07 2.5786934e-05
0001d0 8a 1a c3 37 8d 5d 8f 31 1f a6 dc 37 9c 4a 17 b4
       2.325817e-05 4.1724832e-09 2.63034e-05 -1.4090114e-07
0001e0 04 00 15 37 de 6e 0a 38 1a 78 7c 36 66 a1 d3 37
       8.881096e-06 3.3005017e-05 3.7620835e-06 2.5228317e-05
0001f0 50 26 f6 b3 72 8a f4 37 f4 f2 94 37 df 5a 64 35
       -1.1462237e-07 2.9151535e-05 1.7756109e-05 8.5068854e-07
000200 c2 de db 37 08 07 38 b4 d5 5e 17 37 88 b3 9f 37
       2.6210564e-05 -1.7138893e-07 9.022381e-06 1.9037878e-05
000210 65 8b 94 36 de da 8e 37 55 46 35 b6 d8 ba 14 38
       4.4269714e-06 1.7029637e-05 -2.701204e-06 3.545996e-05
000220 0a 98 6d 35 ec ce 60 b6 95 19 69 37 82 30 b6 b4
       8.8510626e-07 -3.3499045e-06 1.38938385e-05 -3.3935436e-07
000230 0f 6f 30 37 be 09 7e 37 3f 10 aa 36 20 c9 99 37
       1.0516275e-05 1.5141848e-05 5.068286e-06 1.8332677e-05
000240 46 48 13 34 0b 34 00 38 0e 93 af b5 05 af 9f 36
       1.3716735e-07 3.0566047e-05 -1.3081315e-06 4.758944e-06
000250 1c b5 8d 37 51 a1 44 38 18 4c 42 37 5a 98 3b b7
       1.6892845e-05 4.688028e-05 1.1581018e-05 -1.1181541e-05
000260 7a de 32 35 04 15 dd 36 83 9f cb 36 46 4a 8e 2f
       6.6633913e-07 6.58876e-06 6.068441e-06 2.5882424e-10
000270 0f 05 e2 36 e0 b9 32 35 c4 59 b4 35 f9 8a f7 36
       6.7359138e-06 6.658065e-07 1.343717e-06 7.377352e-06
000280 00 00 1b af 2b f6 c5 36 9c df 32 35 cd 4e 1b 37
       -1.4097168e-10 5.8997152e-06 6.663556e-07 9.257067e-06
000290 76 33 b7 36 20 79 ea 33 79 58 84 36 20 d0 27 35
       5.459816e-06 1.09185066e-07 3.944206e-06 6.251521e-07
0002a0 5d 16 c2 b6 76 af 6f 36 36 44 ec 35 0c 70 6c 36
       -5.784254e-06 3.5715907e-06 1.7603222e-06 3.523196e-06
0002b0 18 1b 46 33 eb 84 b5 36 9a 4d 05 36 c4 ff 7c b6
       4.612511e-08 5.409694e-06 1.9863714e-06 -3.7699801e-06
0002c0 bb 77 af b5 43 20 67 b6 21 43 0d b6 77 dd 77 35
       -1.3073362e-06 -3.4440461e-06 -2.1049711e-06 9.2336944e-07
0002d0 9a f1 26 36 26 c5 69 36 6b 5e 19 34 82 62 82 36
       2.4876558e-06 3.483446e-06 1.4283584e-07 3.8857697e-06
0002e0 e2 d3 01 36 b6 b0 79 b6 e6 8d d6 b5 e8 ae d0 36
       1.934583e-06 -3.720675e-06 -1.598554e-06 6.219245e-06
0002f0 26 f5 9c 35 f8 43 db b6 96 b4 5a 36 09 3d aa 36
       1.1694253e-06 -6.534621e-06 3.2589646e-06 5.0735002e-06
000300 bd 7b 73 35 de a3 55 30 d6 c1 36 37 a4 ef 5a 36
       9.0704617e-07 7.772182e-10 1.0893176e-05 3.262402e-06
000310 f8 af d2 37 1f aa 8f b6 bc 3b 93 b6 4f 4f 0d 37
       2.5115893e-05 -4.281537e-06 -4.3878954e-06 8.42272e-06
000320 41 de 56 36 06 c6 ef 35 d1 c6 6c 36 35 d3 4c 33
       3.2017854e-06 1.786452e-06 3.5282467e-06 4.7689543e-08
000330 d8 b5 f0 36 ab 6f 57 36 f2 bb c6 37 64 4e 56 36
       7.1737268e-06 3.2102496e-06 2.3690958e-05 3.1934114e-06
000340 bb 8f 5e b7 fc 75 d0 b5 43 aa 25 36 7b cb 03 37
       -1.3265696e-05 -1.5531546e-06 2.4686021e-06 7.855585e-06
000350 b0 cb 72 b3 4e b6 c7 36 94 ad 2d 37 2f 98 2f b6
       -5.653027e-08 5.951885e-06 1.0352018e-05 -2.6165615e-06
000360 f0 0c 7a 37 d6 24 93 37 b5 f4 4b b7 47 ab 7e 35
       1.4904173e-05 1.7540919e-05 -1.2156718e-05 9.4871615e-07
000370 8c d5 b4 35 83 2d 0d 37 4a 42 9d 35 62 16 1b 37
       1.3473195e-06 8.414851e-06 1.1716704e-06 9.243931e-06
000380 39 b2 60 37 20 7d 86 b6 79 41 40 37 52 06 7e 37
       1.3392936e-05 -4.0080777e-06 1.1459336e-05 1.5141051e-05
000390 42 7e 95 34 1e 76 57 b7 34 b5 a6 b7 99 4c 06 b1
       2.7845277e-07 -1.28425e-05 -1.9873121e-05 -1.9543107e-09
0003a0 ec d1 b5 b7 3a 54 95 34 94 32 b8 35 9d d2 8b b7
       -2.1674634e-05 2.7814696e-07 1.3723788e-06 -1.6668166e-05
0003b0 cc d3 91 35 ca a9 6a b7 30 09 90 34 13 5a b3 b7
       1.0864983e-06 -1.3987019e-05 2.6828775e-07 -2.1380407e-05
0003c0 eb 32 97 b7 99 dc 40 b4 90 d7 15 b7 9e 94 81 34
       -1.8024313e-05 -1.7961646e-07 -8.931282e-06 2.4136256e-07
0003d0 6d 82 9e 37 5b f9 b9 35 71 6c 06 b7 06 f4 7a b6
       1.8895802e-05 1.3856146e-06 -8.012271e-06 -3.7394943e-06
0003e0 3c a1 93 32 75 d1 aa b7 79 15 a5 35 4e f0 2b 36
       1.7186373e-08 -2.0363115e-05 1.2299707e-06 2.5620861e-06
0003f0 84 07 52 36 12 52 1a 37 a4 dd b8 37 2d b6 55 36
       3.1296813e-06 9.198224e-06 2.2037719e-05 3.1845514e-06

exp_avg_sq f4 [30, 38]
000000 68 92 66 2c f4 13 1a 2f 68 5e 76 2e cc 08 32 2d
       3.2766238e-12 1.4013307e-10 5.6017774e-11 1.0120082e-11
000010 89 bb c3 2e 9f df 5a 2c 6a 30 1c 2f 61 e1 95 2e
       8.900886e-11 3.1103798e-12 1.4205317e-10 6.815771e-11
000020 6a e6 8b 2d 99 9d b2 2e 2e 3a 8a 2c 25 10 3c 2f
       1.5904795e-11 8.122498e-11 3.928655e-12 1.7104236e-10
000030 c3 82 46 2e 67 50 90 2d d6 f7 de 2e 9e 45 49 2c
       4.5136127e-11 1.640661e-11 1.0139416e-10 2.8602463e-12
000040 86 80 35 2f 0f 1d b3 2e f2 fd 7a 2e b2 1d 04 2f
       1.6507515e-10 8.1451394e-11 5.7068968e-11 1.201588e-10
000050 9c ba 55 2c 43 45 4f 2f ba ed 7e 2e c1 76 cf 2e
       3.037271e-12 1.8851147e-10 5.7964057e-11 9.434365e-11
000060 65 0f 42 2f e9 74 3b 2c 16 12 5f 2f 1d 56 fc 2e
       1.7649666e-10 2.6639196e-12 2.0288157e-10 1.147493e-10
000070 e5 09 c7 2e 02 8c 29 2f 3a 25 af 2c 4b 38 5b 2f
       9.05123e-11 1.5420201e-10 4.977932e-12 1.9937933e-10
000080 35 69 8d 2e 96 00 23 2f 2a 80 71 2f db a5 9a 2f
       6.430626e-11 1.4824972e-10 2.1964355e-10 2.8130284e-10
000090 9c f0 a8 2e 60 9b 65 2f f4 f0 b1 2e 13 c9 f7 30
       7.682496e-11 2.0882629e-10 8.09183e-11 1.8028764e-09
0000a0 14 45 69 2f 77 64 9b 2d 38 34 b1 30 1e fb 93 2e
       2.1215768e-10 1.7666075e-11 1.2893286e-09 6.7293934e-11
0000b0 d0 41 05 31 1a cf 9a 2f 52 23 22 30 bb 98 be 30
       1.9391457e-09 2.815959e-10 5.898545e-10 1.3867728e-09
0000c0 1f a5 b4 2e 63 ff 4b 31 fb 3c 8f 2f 31 fe 5f 2e
       8.214784e-11 2.9685558e-09 2.6054878e-10 5.0930097e-11
0000d0 dc 20 b9 30 63 70 86 2e cf b1 20 31 44 58 b5 2f
       1.3469861e-09 6.1135784e-11 2.3384137e-09 3.2986425e-10
0000e0 b3 6b 09 31 27 e5 35 31 38 52 97 2e f5 10 ab 31
       1.9997344e-09 2.6469225e-09 6.88129e-11 4.978683e-09
0000f0 ad 22 45 30 09 22 fd 30 e2 6b 23 31 7a cf 08 2e
       7.171746e-10 1.8417846e-09 2.3780946e-09 3.1107096e-11
000100 c3 99 4e 31 7e 34 c8 2f 37 26 31 31 a1 20 51 31
       3.0064349e-09 3.6417086e-10 2.5778613e-09 3.043205e-09
000110 c7 3c 64 2e 32 02 b2 31 cc ef a2 30 b7 3e 13 31
       5.189518e-11 5.1807314e-09 1.1855206e-09 2.1426965e-09
000120 a6 94 37 31 1d db e9 31 4b 24 ad 30 a4 40 6b 31
       2.6714502e-09 6.806103e-09 1.2597722e-09 3.4233745e-09
000130 b4 46 33 2d 0d da 0a 31 fc fc c7 2e 91 e8 b7 2c
       1.0190671e-11 2.020559e-09 9.094411e-11 5.226993e-12
000140 5a cb 9e 30 5e e9 48 2d ef c2 ae 31 c1 0d 71 2e
       1.1553809e-09 1.1420502e-11 5.086228e-09 5.480927e-11
000150 50 b2 f7 2d 2f eb 49 30 96 1a 13 2d 90 4c db 30
       2.8159836e-11 7.345759e-10 8.361886e-12 1.5956108e-09
000160 b8 99 1b 2f b1 a4 c2 2f ee c2 0f 31 88 59 01 2d
       1.415178e-10 3.5405415e-10 2.0920043e-09 7.352681e-12
000170 6b 77 1b 32 7b 3e 0e 2f 01 cf a5 2e 7d c4 30 30
       9.04934e-09 1.2937022e-10 7.5401026e-11 6.4307654e-10
000180 cd fe c3 2c 89 b0 05 31 54 31 f0 2f f0 12 7d 31
       5.570522e-12 1.9454396e-09 4.3690795e-10 3.682711e-09
000190 6e ab b7 31 e1 4e 20 2c 95 a8 43 32 f6 ee e5 2e
       5.3454903e-09 2.2781154e-12 1.1388825e-08 1.0456162e-10
0001a0 a7 9c b0 2f 39 77 63 30 c7 49 83 2e b7 95 25 31
       3.2125522e-10 8.2751545e-10 5.970296e-11 2.4095763e-09
0001b0 c0 a3 24 30 dd 4f ab 31 70 b8 dc 31 20 fb c7 31
       5.9895555e-10 4.9858344e-09 6.423811e-09 5.820212e-09
0001c0 ef d1 03 31 f3 5c ae 31 03 ea 20 2f fb 7b 40 31
       1.9182342e-09 5.0746336e-09 1.4635053e-10 2.8010152e-09
0001d0 d8 b2 bd 31 00 e7 48 30 62 e5 8d 31 94 15 09 2f
       5.520956e-09 7.3087847e-10 4.129718e-09 1.2467744e-10
0001e0 c2 64 06 31 8d 3d ae 31 d2 8b c7 30 ab 26 88 31
       1.955684e-09 5.071064e-09 1.4518895e-09 3.962517e-09
0001f0 54 aa 0e 2f 7a 14 3c 31 cb d6 a0 31 06 9a d7 30
       1.2975337e-10 2.736924e-09 4.681032e-09 1.5687085e-09
000200 13 aa 94 31 de f2 14 2f d0 d6 09 31 70 1a a7 31
       4.326702e-09 1.3546805e-10 2.005823e-09 4.8633453e-09
000210 26 99 6a 30 2d 89 46 31 b3 38 08 2f 42 b0 2b 31
       8.534634e-10 2.8890768e-09 1.2389272e-10 2.4983966e-09
000220 eb 61 90 31 8d 10 1c 31 d6 20 9a 31 9a ea 11 2f
       4.2020836e-09 2.2710396e-09 4.485723e-09 1.327102e-10
000230 2c a6 0c 31 94 6a ac 31 11 0a 0b 31 90 ef 74 31
       2.046714e-09 5.0179754e-09 2.0232884e-09 3.5642849e-09
000240 b7 e5 4e 2f b8 31 3c 31 18 cb 87 31 b8 24 4c 31
       1.8817202e-10 2.7385862e-09 3.952106e-09 2.970678e-09
000250 15 f8 a5 31 87 2d a6 31 2f d9 71 30 07 38 21 32
       4.8303357e-09 4.8364117e-09 8.7983926e-10 9.3841726e-09
000260 d2 ea ee 2b 4e 1f a6 2e c7 61 28 2e c2 d0 47 2c
       1.6976093e-12 7.554367e-11 3.828562e-11 2.8395485e-12
000270 f7 6b 52 2e c5 c2 e5 2b 2d 61 b6 2e 15 7a 23 2e
       4.7844364e-11 1.6325488e-12 8.293664e-11 3.717034e-11
000280 67 b4 42 2d 56 79 56 2e 6f 84 d3 2b 2a 18 a4 2e
       1.1067681e-11 4.8765735e-11 1.5029209e-12 7.462149e-11
000290 3c 7b 16 2e 5e be 33 2d f0 6a 61 2e d6 6c cf 2b
       3.4215505e-11 1.0217242e-11 5.1254057e-11 1.4738443e-12
0002a0 48 81 d6 2e 7e b6 36 2e 89 ee 33 2e 50 1e a2 2e
       9.754558e-11 4.1544095e-11 4.091175e-11 7.372292e-11
0002b0 e3 f8 a4 2b 8a 33 e3 2e 6e 83 17 2e 0b 56 27 2e
       1.1721981e-12 1.033192e-10 3.4450158e-11 3.8047825e-11
0002c0 bb 3c a7 2e 16 fe 0a 2c 4f 45 ec 2e 65 13 61 2e
       7.605069e-11 1.9752026e-12 1.0744349e-10 5.1176303e-11
0002d0 d8 38 6f 2e 41 fb bd 2e 4a 59 c5 2b 4c 64 da 2e
       5.4392796e-11 8.6393566e-11 1.4022475e-12 9.9313086e-11
0002e0 b7 26 2a 2e 0d b6 90 2e b4 18 e0 2e 3d d2 23 2f
       3.868791e-11 6.5807006e-11 1.0190729e-10 1.4899455e-10
0002f0 b5 1e 36 2e 30 24 f5 2e 54 8a 2e 2e ae 10 3a 31
       4.1409282e-11 1.1147738e-10 3.968588e-11 2.7076044e-09
000300 71 79 e7 30 fb 9b 1c 2e 73 d6 d3 30 e2 14 33 2e
       1.6841978e-09 3.5608832e-11 1.5413221e-09 4.0718436e-11
000310 b3 cd 9a 31 09 33 96 31 33 0d 00 30 c6 59 e2 30
       4.505375e-09 4.3713766e-09 4.6584886e-10 1.6469179e-09
000320 d7 71 2f 2e 52 80 0d 31 46 65 d6 2e 4f c5 4e 2e
       3.9891503e-11 2.0591142e-09 9.749583e-11 4.7014222e-11
000330 7e 8c f9 30 65 04 36 2e 7e e0 d9 31 c8 d5 cc 31
       1.8157065e-09 4.1385912e-11 6.341053e-09 5.9614855e-09
000340 25 b7 35 31 c8 db 65 31 a5 c9 40 2e cc 2c 90 31
       2.6443072e-09 3.3448817e-09 4.3834842e-11 4.1960444e-09
000350 8f 50 61 2f ef d6 cd 30 f5 26 87 31 8e 3d af 2e
       2.0492251e-10 1.4976801e-09 3.933446e-09 7.969013e-11
000360 9a 9e d0 31 ca 42 de 31 4c f4 32 31 95 b8 62 31
       6.0716276e-09 6.4686434e-09 2.6041276e-09 3.2992251e-09
000370 7d a8 13 2f 64 64 ab 31 65 d3 d8 2f 2d 72 f8 31
       1.3429431e-10 4.988168e-09 3.9440376e-10 7.2307302e-09
000380 f5 da 15 32 a8 ea 72 31 43 46 1f 31 57 d1 68 32
       8.7227265e-09 3.5349021e-09 2.3177484e-09 1.3551776e-08
000390 f1 4d 89 2c d6 07 15 31 c9 96 89 2f 59 cd 4c 2e
       3.9024274e-12 2.1686808e-09 2.5027294e-10 4.6566615e-11
0003a0 9b 1f 88 30 8b 8f 40 2b 0b 78 2a 31 05 a3 10 2f
       9.904285e-10 6.841131e-13 2.4806492e-09 1.315464e-10
0003b0 58 32 4b 30 be 1d d5 30 6a 87 8c 2c d7 24 3c 31
       7.392251e-10 1.5506243e-09 3.9940733e-12 2.7378542e-09
0003c0 1c 85 de 2f 6f 82 04 2f 45 76 74 30 20 59 27 2b
       4.0476145e-10 1.205167e-10 8.8934754e-10 5.9454004e-13
0003d0 46 3f 34 31 c7 b7 9c 2e f4 ee c3 30 fb d8 fc 30
       2.6229414e-09 7.126704e-11 1.4256032e-09 1.8397083e-09
0003e0 20 41 f6 2c 66 6c 2f 31 53 ad 02 30 cb fc 67 30
       6.998971e-12 2.552747e-09 4.7540033e-10 8.439655e-10
0003f0 df 67 a5 30 42 75 e4 2d f9 07 3b 31 74 88 33 2e
       1.2034852e-09 2.5972672e-11 2.7216613e-09 4.0821083e-11

exp_avg f4 [30]
000000 4b 84 79 36 45 08 d5 37 fd 9e 21 38 ed e0 4a 38
       3.7180896e-06 2.539543e-05 3.853346e-05 4.837003e-05
000010 c0 6d e1 36 3c ac fb 37 98 54 ca b7 0a d3 0f b8
       6.718299e-06 3.0001735e-05 -2.4119669e-05 -3.4290402e-05
000020 e9 21 2f 37 f5 92 87 37 59 5e c4 37 64 c4 37 b8
       1.0438708e-05 1.6161686e-05 2.3408955e-05 -4.3813503e-05
000030 1e 6d 61 36 39 ac ac b6 f4 56 c0 37 0e 4b 77 b8
       3.3591127e-06 -5.146049e-06 2.2928674e-05 -5.895929e-05
000040 34 9c 43 37 57 24 06 36 6c ce 4b 37 da 57 b1 b6
       1.1659275e-05 1.9988709e-06 1.2147804e-05 -5.2852383e-06
000050 bd d3 90 b6 24 47 2d 37 b4 b5 e1 b7 f8 fd fd 36
       -4.316184e-06 1.0328167e-05 -2.6906702e-05 7.5695534e-06
000060 cb d8 76 37 47 5f 4b b7 1f b8 90 37 8b f4 9f 37
       1.4713219e-05 -1.2121926e-05 1.7251876e-05 1.9068151e-05
000070 ae ab 32 b7 67 e8 8a 37
       -1.0649599e-05 1.6559103e-05

exp_avg_sq f4 [30]
000000 36 fa 4e 30 a1 f7 46 32 c5 72 61 32 ec 35 94 32
       7.5297935e-10 1.1581421e-08 1.3122819e-08 1.7253988e-08
000010 a9 b8 e0 2f 6d de 99 32 53 95 f7 31 bd 42 a1 32
       4.0876572e-10 1.7912692e-08 7.2056223e-09 1.8773216e-08
000020 e1 a4 95 31 26 d4 3f 33 b5 b4 36 32 cf 78 8c 32
       4.3552153e-09 4.46636e-08 1.0634882e-08 1.6353082e-08
000030 9e 14 9e 31 da 41 45 31 08 e1 0b 32 ae a4 3e 33
       4.600749e-09 2.8704705e-09 8.142031e-09 4.4387598e-08
000040 25 2e 43 30 64 40 cd 2f 73 62 80 30 13 4b 08 30
       7.100616e-10 3.7335035e-10 9.341207e-10 4.95832e-10
000050 11 b3 d3 2f 62 6b f6 31 cb 38 0a 34 30 77 a6 31
       3.850791e-10 7.1717503e-09 1.2872913e-07 4.844786e-09
000060 48 11 4c 32 75 7d 12 31 19 12 80 31 ef aa 87 32
       1.1878292e-08 2.131711e-09 3.7273478e-09 1.57938e-08
000070 12 95 eb 32 d9 07 45 32
       2.742539e-08 1.14686936e-08

exp_avg f4 [1, 30]
000000 ec 70 88 39 67 7b 32 39 d1 04 48 3a dd 53 09 38
       0.00026024075 0.00017021374 0.0007630112 3.274145e-05
000010 e5 2d 6c 39 3b 05 aa 39 1e e9 35 39 16 a2 94 39
       0.00022523811 0.00032428824 0.00017348348 0.00028349523
000020 45 6e f1 39 4d 3c 34 3a dd 35 c1 39 85 0f 17 b9
       0.0004604926 0.00068754406 0.0003685196 -0.00014406264
000030 df b7 17 39 2d 4a 16 ba 09 0a 46 3a 43 e1 c1 b9
       0.0001446898 -0.0005733099 0.0007554596 -0.00036979662
000040 1c 70 d6 b7 37 8c 92 39 2c 8d 6d b7 de e1 54 39
       -2.5562993e-05 0.00027951758 -1.415917e-05 0.00020302038
000050 31 04 5a 39 64 9a 03 3a 79 7c 06 3a 62 fe 5a 39
       0.00020791662 0.00050202594 0.0005130242 0.00020884865
000060 ac d6 03 39 c0 21 be 38 a0 e3 2a 39 1c e3 17 b8
       0.00012573105 9.0661924e-05 0.0001629726 -3.6212718e-05
000070 05 7b 1e 39 92 df 13 39
       0.00015113883 0.00014102299

exp_avg_sq f4 [1, 30]
000000 b4 3a 3e 34 13 f5 43 36 70 75 32 36 d4 c1 91 36
       1.7716485e-07 2.9199916e-06 2.6592425e-06 4.3439013e-06
000010 06 92 5b 34 74 b1 23 36 35 f0 ac 35 54 45 09 36
       2.0449087e-07 2.4392184e-06 1.2884908e-06 2.0454945e-06
000020 15 53 1c 36 c2 e5 aa 35 33 99 41 36 19 ad bc 35
       2.3294172e-06 1.2732855e-06 2.8848415e-06 1.405747e-06
000030 a8 29 ec 35 b9 29 8a 36 03 1f b5 35 54 69 d6 35
       1.7595494e-06 4.1175776e-06 1.3494576e-06 1.5974897e-06
000040 d5 90 4c 34 30 85 1b 34 4c 8b 36 34 74 8c 2c 34
       1.905167e-07 1.4483953e-07 1.7000747e-07 1.6069845e-07
000050 d8 7b 0d 34 7c 07 b8 35 4a 1d ec 35 35 72 84 36
       1.3176702e-07 1.3711247e-06 1.7591894e-06 3.947202e-06
000060 f6 7c 24 36 4f 9e 2f 35 c5 12 14 36 5c 29 73 36
       2.4510641e-06 6.542295e-07 2.2064644e-06 3.6233896e-06
000070 4d 66 fa 35 a1 52 04 36
       1.8656225e-06 1.971763e-06
