Assets/ML-Agents/Training Files/results/9roads_rayPerceptionSensor_ppo_offRoadEndsEpisode_1layer/VehicleAgent/VehicleAgent-31499994.onnx (onnx, 7291 bytes, 5 tensors)

network_body._body_endoder.seq_layers.0.weight f4 [30, 38]
-0.27811462 0.15377535 0.4107026 0.21278648 0.33722374 -1.0236529 0.46858498 -0.7611962
-0.2484643 0.496944 -0.4228326 -0.29886794 0.7635382 0.374062 -0.23286715 -0.061200507
-0.16394788 -1.189553 -0.32752186 0.40179956 0.17556193 -0.04553865 0.5092246 0.35756776
-0.5293212 -0.33781072 -0.21262302 -0.88250846 -0.037211936 0.5803195 0.4931723 -0.4217012
0.061989482 0.020468948 -0.6744185 0.08350665 -0.13195242 0.40583622 0.07239777 -0.67087024
-0.026790462 -0.50677174 -0.7499684 0.24839664 -0.44281405 -0.39499342 0.1616341 0.093457125
0.23067556 -0.56496406 0.59703636 0.49800587 0.14055075 0.49214104 -0.51986074 -0.863367
-0.10747349 -0.4845275 -0.2606997 0.18815511 0.47816437 0.7655584 0.37129226 0.6674479
0.17870307 -0.8627354 0.06356647 -0.084887475 -0.5696653 0.34290016 0.38127267 0.33938724
0.028235264 0.19182259 -0.20492944 -0.06564916 -0.5940003 -0.19678536 0.3537401 0.3278849
0.4606702 -0.68660873 -0.12811023 0.36905256 0.1512734 0.19265983 -0.66708755 -0.8206218
0.7659599 -0.38619676 0.026382167 0.28655866 -0.16621846 -0.16631572 0.10179845 0.22184294
-0.3455828 -0.285823 0.117027566 0.21471679 -0.21290672 -0.24304995 0.13606407 0.05670427
-0.33498436 -0.2923245 -0.01904876 0.118269876 -0.07482333 0.034275923 -0.18242857 -0.4075103
-0.70490044 -0.41515625 -0.12762856 0.009901957 -0.6350725 -0.25783905 -0.054563005 -0.1195345
-0.21578301 -0.91196525 -0.9265643 0.1754134 -0.124135576 -0.10375281 -0.40916777 0.5266748
-0.72825694 0.08489191 -0.40719074 -0.9949491 -0.5316255 0.086857595 -0.72096306 0.38552448
-0.027353324 0.57235044 -0.28186888 -0.302551 -0.045579977 -0.55606556 -0.17099789 0.2688596
-0.30246642 0.07796156 0.10391 0.17777714 -0.37773842 0.11284347 0.3402564 0.49669054
-0.29136372 -0.09179265 0.070430115 0.21313444 -0.5541274 -0.2722465 -0.52095455 0.20294572
1.0403035 -0.17689683 0.3794287 -0.5173522 -0.68948853 0.2600838 -0.19479193 -0.27186924
-0.30061322 0.24353686 0.42410856 0.063368455 0.1095498 -0.3366415 -0.9943854 -0.6189872
-0.2668712 -0.3157077 0.14828026 0.39047658 0.14348331 0.36692324 0.12157607 -0.34644824
-0.6744089 -0.42576355 -0.25246188 0.058101002 0.06436585 0.012686387 0.37304527 0.03500296
0.17438444 -0.4829647 -0.19958588 0.17174643 -0.17576396 -0.3309674 -0.22832552 0.011602478
0.1133439 -0.40326282 0.9246036 0.38218266 -0.06545644 0.35541448 -0.1812705 -0.8225969
-0.39637452 0.30016354 -0.290535 -0.07879581 0.51779234 0.6529919 -0.12987417 0.5134629
-0.17996284 -0.85928625 0.25658393 -0.27433163 -0.08593103 0.3118122 0.6215341 -0.13097796
-0.41221914 0.23614396 -0.35577306 -0.07298805 -0.6841506 0.21684821 -1.276731 -0.4804104
0.06525098 -0.40075248 -0.060505513 -0.8335176 -0.67202675 0.19179223 -0.55539805 0.11287451
-0.38917467 0.13461792 -0.19207403 -0.29080394 -0.0653289 -0.39589792 -0.40753838 0.19726224
-0.91162455 0.08594103 0.16766137 -0.07861555 -0.041225947 -0.6556073 -0.052970607 0.23858702
00000000: 0a65 8ebe 4977 1d3e 9c47 d23e b3e4 593e
00000010: 97a8 ac3e 0f07 83bf 5fea ef3e c1dd 42bf
00000020: 6d6d 7ebe 726f fe3e 847d d8be 3805 99be
00000030: 3d77 433f 0e85 bf3e ba74 6ebe 62ad 7abd
00000040: f4e1 27be 4643 98bf f2b0 a7be acb8 cd3e
00000050: 82c6 333e bc86 3abd 8b5c 023f 1f13 b73e
00000060: 9881 07bf 87f5 acbe d9b9 59be 13ec 61bf
00000070: 8b6b 18bd d28f 143f 1481 fc3e 38e9 d7be
00000080: afe8 7d3d 7fae a73c b1a6 2cbf 8905 ab3d
00000090: 891e 07be c4c9 cf3e 4845 943d 27be 2bbf
000000a0: ac77 dbbc cbbb 01bf eefd 3fbf b05b 7e3e
000000b0: 86b8 e2be 943c cabe 6983 253e 7366 bf3d
000000c0: 3736 6c3e 7ca1 10bf 60d7 183f a0fa fe3e
000000d0: 89ec 0f3e e9f9 fb3e 9815 05bf 9f05 5dbf
000000e0: 101b dcbd fd13 f8be 6e7a 85be bcab 403e
000000f0: f6d1 f43e a3fb 433f 051a be3e dedd 2a3f
00000100: f0fd 363e 3adc 5cbf 232f 823d 7cd9 adbd
00000110: 96d5 11bf 9c90 af3e 2c36 c33e 2ac4 ad3e
00000120: a44d e73c 246d 443e 06d9 51be 1173 86bd
00000130: 6710 18bf 1a82 49be 6c1d b53e 88e0 a73e
00000140: f7dc eb3e 97c5 2fbf 542f 03be 75f4 bc3e
00000150: 6ae7 1a3e 9e48 453e 40c6 2abf 4514 52bf
00000160: f315 443f 95bb c5be 6a1f d83c d1b7 923e
00000170: 2c35 2abe ab4e 2abe b57b d03d cc2a 633e
00000180: 3bf0 b0be 6457 92be 26ac ef3d b8de 5b3e
00000190: 3804 5abe 16e2 78be 6154 0b3e bd42 683d
000001a0: 1283 abbe 8fab 95be 250c 9cbc 7a37 f23d
000001b0: f93c 99bd e964 0c3d 8ece 3abe 31a5 d0be
000001c0: 5b74 34bf 5c8f d4be 10b1 02be d13b 223c
000001d0: 1d94 22bf 7b03 84be 757d 5fbd 81ce f4bd
000001e0: 39f6 5cbe 8e76 69bf 5133 6dbf 929f 333e
000001f0: cb3a febd 5a7c d4bd 707e d1be 29d4 063f
00000200: 0c6f 3abf cfdb ad3d 4e7b d0be fcb4 7ebf
00000210: 9c18 08bf 65e2 b13d 0991 38bf 7763 c53e
00000220: 1414 e0bc 8f85 123f 1e51 90be f7e7 9abe
00000230: 12b2 3abd 505a 0ebf 121a 2fbe f7a7 893e
00000240: e1dc 9abe 4faa 9f3d c4ce d43d 360b 363e
00000250: ee66 c1be 7a1a e73d 1636 ae3e 394e fe3e
00000260: a02d 95be c9fd bbbd aa3d 903d ea3f 5a3e
00000270: 4bdb 0dbf e563 8bbe 475d 05bf 01d1 4f3e
00000280: aa28 853f 7124 35be 7b44 c23e 3271 04bf
00000290: 5282 30bf b429 853e 8977 47be 7232 8bbe
000002a0: fae9 99be ba61 793e c224 d93e 52c7 813d
000002b0: a55b e03d 465c acbe 0b90 7ebf f275 1ebf
000002c0: 58a3 88be 71a4 a1be c8d6 173e 8cec c73e
000002d0: 4aed 123e 5ddd bb3e e0fc f83d aa61 b1be
000002e0: 10a6 2cbf aefd d9be af42 81be 51fb 6d3d
000002f0: 3ed2 833d 90da 4f3c caff be3e 445f 0f3d
00000300: d691 323e 2647 f7be 3e60 4cbe 4cde 2f3e
00000310: 78fb 33be 8f74 a9be 2ace 69be 5218 3e3c
00000320: d920 e83d 7778 cebe d2b2 6c3f 72ad c33e
00000330: 070e 86bd e3f8 b53e f99e 39be b695 52bf
00000340: 9af1 cabe 09af 993e 01c1 94be b35f a1bd
00000350: 0a8e 043f 7a2a 273f bcfd 04be 4e72 033f
00000360: 2e48 38be 2ffa 5bbf f85e 833e 3275 8cbe
00000370: 9cfc afbd d9a5 9f3e dc1c 1f3f 161f 06be
00000380: 630e d3be b9cf 713e e327 b6be c27a 95bd
00000390: 7e24 2fbf 750d 5e3e ec6b a3bf 5af8 f5be
000003a0: 4ea2 853d 6e2f cdbe a1d4 77bd 6961 55bf
000003b0: f209 2cbf 2f65 443e 912e 0ebf c02a e73d
000003c0: e741 c7be 48d9 093e 0eaf 44be 41e4 94be
000003d0: 29cb 85bd 22b3 cabe dfa8 d0be 1dff 493e
000003e0: 3a60 69bf da01 b03d 6caf 2b3e 3101 a1bd
000003f0: 8adc 28bd e1d5 27bf b5f7 58bd 2850 743e

network_body._body_endoder.seq_layers.0.bias f4 [30]
0.11260331 0.12390508 -0.17707406 0.16080691 -0.11154536 0.051004518 0.13670208 0.10472344
0.097068444 -0.029809102 0.42359063 -0.038284793 -0.19579172 0.24824758 0.012628001 -0.056806423
-0.089541905 0.1723347 -0.00625519 0.37131822 0.23814458 -0.024167376 -0.09071846 -0.05680301
0.094279066 -0.11053487 -0.054692958 0.069932096 0.20993453 0.30420926
00000000: 909c e63d f2c1 fd3d e752 35be 91aa 243e
00000010: e571 e4bd 1dea 503d a1fb 0b3e 3e79 d63d
00000020: d2cb c63d 3832 f4bc dfe0 d83e 84d0 1cbd
00000030: a07d 48be 9d34 7e3e ade5 4e3c daad 68bd
00000040: bf61 b7bd 8278 303e 56f8 ccbb 6c1d be3e
00000050: 2cdc 733e a9fa c5bc 9aca b9bd 46aa 68bd
00000060: 6215 c13d 1b60 e2bd b905 60bd 8f38 8f3d
00000070: 14f9 563e 51c1 9b3e

action_model._continuous_distribution.log_sigma f4 [1, 2]
-2.0351892 -2.4000964
00000000: 8a40 02c0 2e9b 19c0

action_model._continuous_distribution.mu.weight f4 [2, 30]
0.5215981 0.62650645 -0.037046056 0.46148947 -0.12956953 0.37304297 0.22842132 -0.27056164
-0.50598323 0.26113978 0.27231863 0.065810345 -0.13821197 -0.54266196 -0.21645439 0.5595075
-0.19949758 -0.20510449 -0.20500101 0.9140606 -0.5413061 -0.26153326 0.13592085 0.009613917
0.49823657 0.05433532 0.3292366 0.42492732 0.26035777 0.40594664 -0.19656742 -0.19733134
-0.261429 0.028728683 -0.072868615 -0.24841008 0.13238978 0.111896 -0.0165026 -0.15278105
0.5727166 -0.033618283 -0.24883044 0.15412527 0.10393488 -0.25872937 -0.34059513 0.101539806
0.089036286 0.18978135 0.09108115 -0.3338308 -0.50742424 0.013626091 -0.16221443 -0.36291632
-0.030858427 0.12364468 0.34185603 0.28468812
00000000: 7487 053f ba62 203f 9bbd 17bd 5948 ec3e
00000010: e0ad 04be 7dff be3e 47e7 693e 0e87 8abe
00000020: 1e88 01bf 1db4 853e 596d 8b3e 93c7 863d
00000030: 7087 0dbe e5eb 0abf 38a6 5dbe e23b 0f3f
00000040: 1849 4cbe e906 52be c9eb 51be e0ff 693f
00000050: 0993 0abf b0e7 85be d62e 0b3e b183 1d3c
00000060: dd18 ff3e b68e 5e3d b391 a83e 1390 d93e
00000070: 9d4d 853e 3dd8 cf3e f848 49be 3a11 4abe
00000080: 06da 85be 6a58 eb3c 243c 95bd 365f 7ebe
00000090: 3091 073e bb29 e53d 7630 87bc a372 1cbe
000000a0: 8e9d 123f 53b3 09bd 68cd 7ebe 04d3 1d3e
000000b0: cfdb d43d 2d78 84be 7c62 aebe 1af4 cf3d
000000c0: a858 b63d 0b56 423e c188 ba3d dfeb aabe
000000d0: 8ee6 01bf f83f 5f3c 8a1b 26be 2bd0 b9be
000000e0: d0ca fcbc 6c39 fd3d c107 af3e a4c2 913e

action_model._continuous_distribution.mu.bias f4 [2]
-0.06264882 0.357885
00000000: 064e 80bd b43c b73e
