Assets/ML-Agents/Training Files/results/9roads_rayPerceptionSensor_ppo_offRoadEndsEpisode_1layer/VehicleAgent/VehicleAgent-30499950.pt (torch, 40063 bytes, 24 tensors)

network_body._body_endoder.seq_layers.0.weight f4 [30, 38]
000000 5c 86 87 be 1f c1 14 3e 34 fc db 3e 18 9a 67 3e
       -0.26469696 0.14526795 0.42965853 0.22617376
000010 38 d8 aa 3e 1e 5c 71 bf 78 fc ea 3e 36 02 3c bf
       0.33368087 -0.94281185 0.45895743 -0.73440874
000020 4d b5 8d be 04 1e f3 3e 13 9c e8 be 0e 30 9a be
       -0.27677384 0.47483838 -0.45431575 -0.30114788
000030 24 15 47 3f 02 f3 c6 3e d9 0c 36 be 12 5a 3f bc
       0.77766633 0.38857275 -0.17778338 -0.011679189
000040 fe ad 29 be 20 83 93 bf be 08 9f be de ff cd 3e
       -0.16570279 -1.1524391 -0.31061357 0.40234274
000050 37 0a 17 3e 45 5e 0e bd e2 3e 02 3f 29 9f a8 3e
       0.1474999 -0.03475787 0.508772 0.3293393
000060 e6 c3 03 bf c2 99 c8 be 10 48 4a be 32 4f 58 bf
       -0.5147079 -0.39179808 -0.19754052 -0.8449584
000070 1e 8a 7c bc ae 11 18 3f 5f 2d 02 3f d2 04 d8 be
       -0.015413789 0.5940198 0.5085048 -0.42191178
000080 dc a7 91 3d e9 fc 09 3d a5 ad 24 bf 34 2e 9a 3d
       0.07112095 0.03368846 -0.6432746 0.07528344
000090 ce 49 01 be a4 3c ea 3e f0 dd 3c 3d a0 68 37 bf
       -0.1262581 0.4574939 0.046110094 -0.7164402
0000a0 47 8a ac bc de 6c 01 bf 82 05 44 bf 00 15 85 3e
       -0.02106203 -0.50556743 -0.76570904 0.25992584
0000b0 3b f3 f4 be a9 f1 d4 be fc d5 39 3e c2 01 c4 3d
       -0.4784182 -0.41590622 0.18148035 0.09570648
0000c0 de 4c 44 3e df 95 15 bf ce 12 1b 3f 99 79 f5 3e
       0.19169948 -0.5843181 0.6057557 0.47944334
0000d0 c3 5d 06 3e 8c 19 ff 3e a6 16 02 bf ec ac 6b bf
       0.13121705 0.49824178 -0.5081581 -0.9206073
0000e0 69 50 a8 bd dc 69 f4 be ab ed 5b be 89 64 32 3e
       -0.08218462 -0.47737014 -0.21477382 0.17421164
0000f0 36 65 f2 3e c9 f3 3a 3f 42 92 b2 3e d8 fd 2b 3f
       0.47342843 0.73028237 0.3487721 0.6718421
000100 aa 38 3b 3e 90 99 61 bf 01 54 7a 3d d6 77 b3 bd
       0.18283334 -0.8812494 0.06111527 -0.08763091
000110 ca 29 1a bf 35 3e a2 3e 6b 5f c5 3e 07 a2 b3 3e
       -0.60220015 0.31688085 0.3854936 0.35084555
000120 1a 48 bd 3c fb a3 43 3e 0a 23 5a be c1 a5 2d bd
       0.02310567 0.19105522 -0.21302429 -0.042394403
000130 38 8a 04 bf 88 50 6b be 5e 35 b6 3e 33 62 9a 3e
       -0.51773405 -0.22979939 0.3558759 0.30153045
000140 67 bd eb 3e f2 e6 25 bf 6d 04 1f be 67 da cc 3e
       0.4604294 -0.6480552 -0.15529032 0.40010378
000150 c7 d1 11 3e 9a 64 4b 3e 44 63 20 bf 1e 78 44 bf
       0.1424018 0.19862595 -0.6265147 -0.76745784
000160 31 e2 40 3f 70 08 de be c2 33 3b 3d 55 30 8a 3e
       0.7534514 -0.43365812 0.045703657 0.2699
000170 50 2c 05 be 27 e0 2e be 4b 39 68 3d e7 56 67 3e
       -0.13005185 -0.17077695 0.056695264 0.22591744
000180 59 fb 96 be 3b 85 90 be 61 89 dc 3d ee f5 78 3e
       -0.29488638 -0.28226647 0.107683904 0.24312565
000190 e7 4a 41 be 0c 4c 71 be b7 07 02 3e 75 f6 9e 3d
       -0.18876229 -0.23564166 0.12698255 0.07761852
0001a0 5a 3e b2 be a5 a0 99 be 7b dc 26 bd a3 a9 b1 3d
       -0.34813195 -0.30005375 -0.04073761 0.08674934
0001b0 c2 94 a1 bd 6e 70 86 3d 44 1f 1a be 58 6c e2 be
       -0.078897014 0.06564413 -0.1505099 -0.44223285
0001c0 10 0b 2f bf 13 5a e9 be 07 71 2a be 86 ac 44 3c
       -0.68376255 -0.45576534 -0.16644679 0.012004023
0001d0 24 a5 30 bf 6e 1e 77 be dd 9a 63 bd ed b8 13 be
       -0.69001985 -0.24132702 -0.05556761 -0.14426012
0001e0 59 5f 67 be aa 54 72 bf 1e f0 69 bf 98 82 28 3e
       -0.22594966 -0.9466044 -0.91382015 0.16456068
0001f0 86 e5 1b be b0 d4 d6 bd fe 61 c5 be 69 c2 f8 3e
       -0.15224275 -0.10489786 -0.38551325 0.48585823
000200 76 ba 34 bf d7 05 14 3d 8a 77 d1 be 66 36 7c bf
       -0.70597017 0.03613838 -0.40911514 -0.98520505
000210 ca cb f7 be c8 63 d5 3d a1 1b 3c bf 3b f3 c1 3e
       -0.48397666 0.104194224 -0.7347966 0.37880883
000220 db f4 63 bd 57 6c 0e 3f a2 cb 90 be 32 51 ad be
       -0.055653434 0.55634063 -0.2828036 -0.3385101
000230 c5 02 24 bd b5 6b 09 bf 90 93 33 be 16 38 85 3e
       -0.040041704 -0.5367997 -0.1753676 0.26019353
000240 24 4d a0 be a2 f9 8f 3d 01 71 c7 3d ca ae 5c 3e
       -0.31308854 0.070300356 0.09738351 0.21551052
000250 23 05 b8 be 0a 58 f3 3d a2 fc a9 3e ca 91 f8 3e
       -0.3594142 0.118820265 0.33200556 0.48548728
000260 36 16 74 be 84 2b e7 bd 73 01 06 3d 72 d5 68 3e
       -0.23836598 -0.11287597 0.032716226 0.22737673
000270 c4 0f 14 bf 16 87 55 be ba e4 ff be 3d 22 20 3e
       -0.57836556 -0.20852312 -0.49979192 0.15638061
000280 3d ca 84 3f 4b eb 22 be e9 99 bd 3e 0b d0 06 bf
       1.0374218 -0.1591007 0.37031487 -0.526612
000290 48 20 33 bf 32 e2 4f 3e 88 1f 66 be 91 63 34 be
       -0.6997113 0.2030113 -0.22472966 -0.17616107
0002a0 ec 2b 98 be 24 56 63 3e b1 c0 d1 3e ed 52 93 3d
       -0.2972101 0.22200829 0.40967324 0.07193551
0002b0 15 86 c0 3d 23 ec a5 be c8 6f 7a bf ff 4b 23 bf
       0.09400574 -0.3240672 -0.97826815 -0.63787836
0002c0 e1 3e 8b be fa 51 8b be c3 b8 1a 3e 9e 0b c9 3e
       -0.2719641 -0.2721098 0.15109544 0.39266676
0002d0 52 b1 f4 3d 1c 94 bc 3e dc 4a 14 3e ea eb a8 be
       0.11947884 0.36831748 0.14481682 -0.32992488
0002e0 df 06 37 bf 2a 6f af be 7f 07 3d be 21 73 10 3e
       -0.7149486 -0.342645 -0.18459891 0.14106418
0002f0 ca 79 b8 3d f8 06 57 bd c1 af b8 3e 45 1b de bc
       0.090076044 -0.05249688 0.3607159 -0.027112613
000300 56 d0 38 3e c6 bc f2 be 6c 3e 5d be 8c 83 52 3e
       0.18048224 -0.47409648 -0.21605843 0.20557994
000310 b6 18 40 be b6 82 ac be 71 c0 76 be cb 31 9e bc
       -0.18759426 -0.33693475 -0.24096848 -0.019310853
000320 87 75 90 3d c0 d6 e4 be 75 59 6b 3f a2 d4 cb 3e
       0.070536666 -0.4469509 0.91933376 0.39810663
000330 16 12 48 bd 68 b4 b8 3e e1 14 1c be d4 99 5a bf
       -0.048845373 0.3607514 -0.1524234 -0.85390973
000340 4b 57 c0 be 91 ff 98 3e 8a 13 75 be cd bf b6 bd
       -0.375666 0.29882482 -0.23933235 -0.08923302
000350 82 da fd 3e be d6 1a 3f 37 fe 1b be 0b 5f 00 3f
       0.4958077 0.6048392 -0.15233694 0.50145024
000360 6a 51 1e be 17 c4 5b bf d3 b4 8b 3e 0e b5 8a be
       -0.15460745 -0.85846084 0.27286395 -0.2709126
000370 e0 b0 b8 bd ee b1 8f 3e b2 67 1e 3f 42 3d f3 bd
       -0.09018111 0.28065437 0.61876976 -0.118769184
000380 39 e9 ce be 98 66 5b 3e b8 aa b4 be 4d 1f bd bc
       -0.4041231 0.21425855 -0.35286498 -0.023086214
000390 71 bc 30 bf 23 b0 5b 3e f8 c0 a9 bf dc 04 fe be
       -0.6903754 0.2145391 -1.3262014 -0.49613082
0003a0 23 a8 af 3d 11 79 ae be 31 5a 9c bd 56 47 5d bf
       0.085769914 -0.3407674 -0.0763439 -0.86436975
0003b0 02 cf 23 bf 0f 27 43 3e 42 1c 0d bf e8 67 f2 3d
       -0.63987744 0.19057868 -0.55121243 0.11836225
0003c0 34 ea b9 be 1e d7 90 3d b7 32 3c be 8b 10 8c be
       -0.36311495 0.0707228 -0.18378721 -0.2735637
0003d0 1a e8 4f bd 74 a4 d3 be 01 3e cf be a2 7c 3b 3e
       -0.05075846 -0.41336405 -0.40476993 0.18309262
0003e0 0d e0 61 bf 44 93 bb 3d 6f e0 23 3e c6 eb 8c bd
       -0.882325 0.09158948 0.16003583 -0.06880908
0003f0 bd ae 06 bd 8e 78 37 bf ea 4c 10 bd f2 61 6d 3e
       -0.032881487 -0.71668327 -0.0352296 0.23181894

network_body._body_endoder.seq_layers.0.bias f4 [30]
000000 71 a5 fc 3d 1e d3 f0 3d 6d d8 43 be 2c 19 27 3e
       0.12336243 0.117590174 -0.19125529 0.16318196
000010 e5 ae ec bd 5e 9d 2e 3d 9f d6 12 3e bf d0 d1 3d
       -0.11556796 0.042630546 0.14339684 0.10244893
000020 02 f4 b6 3d d5 b5 c4 bc bf 34 d9 3e 29 38 30 bd
       0.089332595 -0.024012486 0.42423055 -0.04302231
000030 ac 37 59 be b1 cc 7c 3e 5e d1 68 3c d9 47 46 bd
       -0.21212643 0.24687459 0.014210073 -0.048408363
000040 26 b9 f5 bd 07 3b 31 3e a8 77 42 bc a3 54 bf 3e
       -0.11998205 0.17307673 -0.011869349 0.3736926
000050 70 64 69 3e 17 64 42 bd 2b 76 d3 bd 31 75 83 bd
       0.2279222 -0.047458734 -0.10325273 -0.06418837
000060 83 a7 bf 3d bb f5 01 be 45 55 56 bd a7 6b a8 3d
       0.09358122 -0.12691395 -0.052327413 0.08223658
000070 5f c8 57 3e e6 23 9e 3e
       0.2107253 0.30886763

action_model._continuous_distribution.log_sigma f4 [1, 2]
000000 2b 40 05 c0 c9 be 19 c0
       -2.0820415 -2.4022696

action_model._continuous_distribution.mu.weight f4 [2, 30]
000000 bb 1a 05 3f b9 9e 23 3f e7 3d 6a bd f2 9f e2 3e
       0.5199391 0.63914067 -0.05718794 0.44262654
000010 d1 93 12 be db a1 bc 3e 90 61 61 3e 91 f8 6f be
       -0.143142 0.36842236 0.22009873 -0.23434664
000020 0c 2f 01 bf 33 d1 84 3e 67 27 88 3e 34 b3 61 3d
       -0.5046241 0.25940856 0.26592562 0.055102542
000030 12 ce f9 bd f2 b4 08 bf 24 cc 4f be f8 e3 0f 3f
       -0.12197508 -0.534011 -0.20292717 0.5620723
000040 7b e9 51 be c9 28 4d be 2d 48 4d be 1c 61 67 3f
       -0.20499222 -0.2003509 -0.20047064 0.9038255
000050 b8 08 0b bf 8d f8 74 be 3b 2f f7 3d 9c 88 da bb
       -0.5431018 -0.2392294 0.12069555 -0.006669117
000060 8e a6 f8 3e e6 c1 5b 3d f1 fd a4 3e e8 1d d6 3e
       0.4856457 0.053651713 0.32224992 0.41819692
000070 d6 af 80 3e ce 17 cd 3e 8d 55 49 be eb d2 3b be
       0.25134152 0.40057224 -0.19661541 -0.18342178
000080 34 42 89 be 9a 97 b7 3c 53 97 44 bd e0 78 6c be
       -0.2680832 0.022411156 -0.047995877 -0.23092985
000090 40 c8 13 3e c8 87 0c 3e b4 d2 74 bc 07 35 21 be
       0.14431858 0.13723671 -0.014942814 -0.15742885
0000a0 63 dd 13 3f af c7 05 bd f3 4a 72 be 7d ae 26 3e
       0.57759684 -0.032661136 -0.23661403 0.162775
0000b0 63 73 d5 3d ed 5b 84 be c1 b9 a7 be c8 6e d9 3d
       0.10422399 -0.25851384 -0.32758906 0.10616833
0000c0 23 5d d6 3d c3 86 51 3e 01 d2 ba 3d bf b1 aa be
       0.10466983 0.20461564 0.09122086 -0.33338735
0000d0 eb 02 01 bf 01 96 a0 3a 05 78 2c be d7 c9 b1 be
       -0.5039508 0.0012251736 -0.16842659 -0.34724304
0000e0 77 d0 09 bd 37 70 e8 3d 9e 76 ad 3e 17 56 99 3e
       -0.033646073 0.11349528 0.3387956 0.29948494

action_model._continuous_distribution.mu.bias f4 [2]
000000 63 43 7c bd 4d a7 b7 3e
       -0.061587702 0.35869828

exp_avg f4 [30, 38]
000000 30 cf ec 36 e8 5a b2 bc cc 21 39 bc 03 10 85 b5
       7.057468e-06 -0.021771863 -0.011299562 -9.913932e-07
000010 96 4d 7f bc 18 45 b6 39 31 8a 5c bc ae 71 87 b9
       -0.015582463 0.00034765224 -0.013460682 -0.00025833905
000020 4d 86 fc 39 b2 32 e3 bb 40 e0 ec 36 32 0c 64 3a
       0.00048165247 -0.0069335336 7.059454e-06 0.0008699327
000030 86 8d a6 bc d0 3c 85 bc 0f d9 d0 bc be 58 28 ba
       -0.020331156 -0.01626435 -0.025494127 -0.0006421915
000040 c3 18 82 bc b1 1a d9 3a 46 d1 36 3c 65 eb d5 3b
       -0.015880948 0.0016563741 0.011158293 0.0065283054
000050 c1 bc db b8 70 e0 b4 ba cf cf 8b bc b1 3e 3d bc
       -0.00010477892 -0.0013799798 -0.017066864 -0.011550591
000060 c0 66 9a bc fa 53 b8 b8 dc 76 16 bc f1 52 07 ba
       -0.018847823 -8.7894456e-05 -0.009183612 -0.00051622005
000070 b0 29 83 3c 32 5a f1 3b 9e bc 1a 3c 11 91 3a bd
       0.01601109 0.0073654884 0.009444384 -0.045548502
000080 c8 7b e6 3c 5c 24 69 bc 8c 30 4e bc de 18 6d 3c
       0.028135195 -0.01422986 -0.012584817 0.014471261
000090 20 9a 45 bc 8c f8 15 bc a8 33 2b 39 ff 91 3e bc
       -0.012060672 -0.0091534965 0.00016327074 -0.011631488
0000a0 8c c5 b0 bc 58 46 8d b5 12 40 8e bc 44 45 bc ba
       -0.021578573 -1.0525791e-06 -0.017364535 -0.0014363904
0000b0 00 18 88 bb 41 9a 99 b9 20 f8 95 b9 17 53 d7 bb
       -0.0041532516 -0.00029297362 -0.00028604362 -0.0065711844
0000c0 00 1b 2b 39 55 c3 cd 3b be 29 46 bb c7 0e b1 bc
       0.00016317889 0.006279389 -0.0030237283 -0.021613492
0000d0 a6 61 92 bc 48 c3 19 bb fb 2c 20 bc 98 36 15 b9
       -0.017868828 -0.0023462344 -0.009776349 -0.00014230085
0000e0 39 7c 97 3b 69 27 d6 3a c4 aa 26 bb c3 93 0e 3c
       0.004622963 0.001633865 -0.0025431374 0.008702221
0000f0 b0 97 cf ba 7e db 50 bc 77 33 14 bc 74 af 24 b9
       -0.0015838053 -0.0127476435 -0.009045473 -0.0001570562
000100 b5 f7 aa bb ef 9a 89 3a 51 3c 22 3c 73 a3 e5 3b
       -0.0052175173 0.0010498444 0.009902076 0.00700801
000110 74 24 f9 39 db c8 fd bb ae 84 9a 3c 84 95 51 bc
       0.0004752014 -0.007744891 0.018862095 -0.012791995
000120 ac 20 c6 bb d2 b2 15 3c 2a cc e3 bb ba 5c 08 bc
       -0.0060463753 0.009136872 -0.0069518285 -0.008322889
000130 22 ca 6e b8 04 db 30 b9 a0 f2 28 ba 35 d7 ad b5
       -5.6931873e-05 -0.00016866258 -0.00064448453 -1.2952138e-06
000140 02 d1 2c bb 22 13 fb b7 9a 7e b2 3a 54 bd 68 39
       -0.0026369696 -2.9930441e-05 0.0013618052 0.00022195774
000150 18 03 26 b8 1e a5 e4 ba 9e cb 6e b8 11 98 98 3a
       -3.9580365e-05 -0.0017444228 -5.6933255e-05 0.0011641999
000160 f6 03 11 bc 43 a1 85 bb 44 9a 40 bc 1e a5 b2 b8
       -0.008851042 -0.004078062 -0.01175553 -8.518457e-05
000170 da 7e 1c 3b 43 2e a1 39 c6 20 a3 ba 54 ce 2c bb
       0.002387932 0.0003074278 -0.001244568 -0.0026368098
000180 7e 74 6a b8 1b df 4c bb c0 eb 19 38 6c 1a 19 bc
       -5.589844e-05 -0.003126091 3.6697602e-05 -0.009344678
000190 e8 0b 1d bc db 7c 1e b8 d8 d9 e0 bb cc fa c8 3a
       -0.009585358 -3.7786416e-05 -0.0068619065 0.0015333532
0001a0 a6 56 30 ba de 88 fd ba 19 73 81 38 db e8 04 bc
       -0.0006726779 -0.0019343158 6.172638e-05 -0.008112158
0001b0 c0 37 59 3b 4a 4c 0d bc e7 e5 18 bc 3b 2c 21 bc
       0.0033144802 -0.008624146 -0.009332157 -0.0098372055
0001c0 ea 07 86 bb 0e 40 bb bb 72 9e 93 3a 0a bf f6 bb
       -0.004090299 -0.005714423 0.001126243 -0.007530098
0001d0 0c 87 b2 ba 32 ea 6b b5 a6 60 38 bb b3 64 34 39
       -0.0013620569 -8.788512e-07 -0.0028133779 0.00017203651
0001e0 c4 31 40 ba 73 4b 26 b9 03 3a 9f 36 0e 17 8b ba
       -0.00073316344 -0.000158591 4.7453227e-06 -0.0010611729
0001f0 8e 9e 93 3a ea 40 b9 3b 6a a8 1b 3b 88 78 88 39
       0.0011262463 0.0056534903 0.0023751506 0.00026029744
000200 39 e8 bb 3b 78 ab 9b b8 b0 ce 43 bc a7 12 2f 3a
       0.00573447 -7.4229145e-05 -0.011951134 0.00066784996
000210 3d 82 95 b9 80 09 05 b8 6b 75 0d b8 d4 ec 98 3b
       -0.0002851653 -3.171852e-05 -3.3726374e-05 0.004666904
000220 08 4c b9 ba e4 af 3e 3b 8e b4 84 3b 8f e7 e9 38
       -0.0014137039 0.0029096538 0.004049844 0.00011153437
000230 8f 97 41 bb 42 ce 61 3a d0 f4 1e 3c 1d 8d 02 3c
       -0.00295398 0.00086138037 0.009701923 0.007968214
000240 6b 06 3d 3b 5e 96 81 bb 6a fa 1c 3c 63 0c 22 3b
       0.0028842937 -0.0039546927 0.009581188 0.0024726621
000250 57 a7 a1 3b 09 24 b7 3b 5e 57 5a bb c6 4b 3a 3b
       0.0049332785 0.0055890125 -0.0033316235 0.0028426512
000260 2e 88 e8 38 c7 21 a8 ba c0 2c 0e 38 99 bf f8 b4
       0.000110879875 -0.0012827449 3.3897115e-05 -4.6333005e-07
000270 93 ca 4d 39 5e 4b 22 39 40 c8 6e ba db f3 d6 b9
       0.00019625788 0.000154776 -0.0009108819 -0.00040998947
000280 15 a1 43 38 a7 0a b1 38 e2 87 e8 38 90 8a c7 b9
       4.6641642e-05 8.442002e-05 0.00011087932 -0.00038059475
000290 00 aa 9f 39 21 cb ab 39 3c cf 3a 3a db a8 56 39
       0.00030453503 0.00032767004 0.0007126217 0.00020471534
0002a0 c2 a7 a7 3b 77 4a ce 38 8a 4b f9 3a a5 f9 f2 3a
       0.005116434 9.8367156e-05 0.0019019705 0.0018537535
0002b0 ce 29 16 39 91 59 a2 3a 3a d1 c6 b9 6f a9 1b 3a
       0.00014320688 0.0012386312 -0.0003792139 0.00059380283
0002c0 3e 39 60 3a d8 f2 69 38 f8 69 b3 3b 40 8a 8e b9
       0.00085534516 5.5777695e-05 0.005475279 -0.00027187355
0002d0 60 b7 b1 39 84 2c d1 39 90 8e 69 ba 40 ab 4b 3a
       0.00033896696 0.00039896753 -0.0008909488 0.00077693537
0002e0 b7 30 4e ba 30 0b 68 3a 20 36 8c 3a 3b 77 86 3b
       -0.00078655354 0.0008851765 0.0010697283 0.004103569
0002f0 35 a3 3c 3b 8e b2 32 3b b4 ac ba 39 e5 dd 9b bc
       0.0028783802 0.0027267071 0.00035605358 -0.019026706
000300 67 b8 0b bc 4b 54 09 b5 7e 7e 56 bc f2 50 6f b9
       -0.008527852 -5.115914e-07 -0.0130916815 -0.0002282297
000310 f3 46 3a bc 2b 58 08 b9 e5 37 b5 b7 0e 61 05 bc
       -0.011369455 -0.00013002816 -2.160291e-05 -0.008140815
000320 e0 a5 ba 39 c8 b2 cf ba 30 8c 88 bc b1 72 4a bc
       0.0003560027 -0.0015846128 -0.01666841 -0.012356446
000330 19 ec bb bc 0d 34 7d ba 84 24 15 bc 20 a3 25 b8
       -0.022939729 -0.000965894 -0.009102944 -3.9490988e-05
000340 d5 a3 e0 3b 21 69 37 3a a0 7d 88 ba 9e 37 a6 ba
       0.006855468 0.00069965614 -0.0010413416 -0.001268137
000350 00 ff 0a bc 26 0e 76 bc d7 83 97 bc 68 63 6b 36
       -0.008483648 -0.015018022 -0.018495483 3.507559e-06
000360 a7 05 2f bc c6 5c cd b9 64 ee 0a 3c 62 68 37 3a
       -0.0106825 -0.0003916977 0.008479688 0.000699645
000370 17 5e cd 3a 1b c6 e7 bc e2 ca 98 3c 3c 85 7d bc
       0.00156683 -0.028292706 0.01865143 -0.01547366
000380 38 70 63 bc 2c b4 80 3b 85 f0 0b bc ba 1c 17 bc
       -0.0138817355 0.003927728 -0.008541231 -0.009223158
000390 05 01 1b 39 05 2e ed bb 71 89 3d 3a b5 77 f7 34
       0.00014782332 -0.007238152 0.0007230258 4.6094434e-07
0003a0 24 e1 6f 3a 9e d4 a2 38 c0 d8 86 39 43 63 9a 38
       0.0009150675 7.764365e-05 0.00025719963 7.361781e-05
0003b0 dc 74 dc b9 60 03 26 39 68 01 1b 39 76 cd f6 3b
       -0.00042048737 0.00015832251 0.00014782476 0.007531817
0003c0 7c 9b db 3a ed ae 9f 3a b5 99 f3 3b 0a c9 96 38
       0.0016754712 0.0012182869 0.007434095 7.190004e-05
0003d0 8b 49 b4 bc 20 79 33 b8 f9 20 c3 bb 74 1f c7 bb
       -0.022007724 -4.2789732e-05 -0.0059548584 -0.0060767476
0003e0 05 74 32 39 17 41 fb 3b ce 23 ab bb 04 55 42 bb
       0.00017018623 0.0076676714 -0.005222774 -0.0029652724
0003f0 a4 f2 f4 ba cc e6 01 b8 66 d8 00 bc cb 72 56 bb
       -0.0018688035 -3.0970943e-05 -0.007864093 -0.003272223

exp_avg_sq f4 [30, 38]
000000 72 05 ce 37 32 5f c5 3b c0 1f a0 3b 62 5a a5 39
       2.455965e-05 0.006023311 0.0048865974 0.00031538593
000010 ff fd 54 3b 03 dd 3e 38 40 b2 e8 3b 91 41 1c 3a
       0.0032500026 4.5505363e-05 0.007101327 0.0005960698
000020 18 01 c3 3a 04 ad 88 3b 4a f5 92 37 23 65 ab 3b
       0.0014877645 0.0041710157 1.7518778e-05 0.0052305623
000030 d0 5f 05 3c cf f3 36 3a 55 26 32 3b 4e c0 b5 38
       0.008140519 0.00069790793 0.0027183492 8.666572e-05
000040 27 3f cb 3b 65 43 15 39 cc 59 9d 3b ff 6f e5 3b
       0.0062025967 0.00014234854 0.0048019644 0.0070018764
000050 83 4f 17 39 72 03 c1 3b 38 2d 0e 3c 56 70 9c 3a
       0.00014430103 0.0058903033 0.008677773 0.0011935334
000060 98 57 39 3b e8 98 a5 39 df 99 b3 3b a0 fc 95 39
       0.002828097 0.00031585176 0.0054809893 0.00028607715
000070 1b 06 f9 3b e5 71 14 3c 8b 26 ca 39 f9 2b d8 3b
       0.007599605 0.009060358 0.0003855716 0.006597039
000080 96 d6 fb 3b 9c 2f d3 3a c4 e1 41 3b 39 eb 29 3c
       0.0076854927 0.0016112211 0.002958403 0.010371023
000090 ef b2 11 3b ee 65 1e 3c a0 2f 22 3a cc b0 9f 3a
       0.0022231897 0.009667857 0.0006186906 0.0012183427
0000a0 3e d3 94 3b 10 68 da 38 54 00 01 3b ed 50 35 3a
       0.0045417836 0.00010414433 0.0019684033 0.0006916661
0000b0 fb 98 3e 3b 8c 09 42 3a ca 43 50 3a dc 8a 04 3b
       0.0029082883 0.0007401935 0.00079446717 0.0020224368
0000c0 18 5f 15 3a 0c 2a 0b 3b 83 03 ef 3b 37 a0 c8 3a
       0.0005698069 0.0021234779 0.00729412 0.0015306537
0000d0 ec f0 4c 3b 86 7b 42 3a ec 95 83 3b 29 31 94 39
       0.003127153 0.0007418919 0.004015675 0.00028265387
0000e0 e9 74 da 3a ef cb 36 3b 84 cb ef 39 ec 0b 98 3b
       0.0016666922 0.002789255 0.00045737263 0.004640093
0000f0 2d 2c 08 3c c4 10 49 3b d9 67 9c 3b 05 62 43 3a
       0.008311314 0.003068016 0.004773122 0.0007453266
000100 d9 35 e3 3b f1 77 32 39 5c 24 64 3b 57 c6 94 3b
       0.0069339094 0.00017020084 0.003481171 0.0045402455
000110 c6 d2 aa 38 79 41 cd 3b aa 20 0c 3c 83 c0 96 3b
       8.145491e-05 0.0062639085 0.00855271 0.004600586
000120 1d 1b d1 3b 5d 32 26 3c 6d 3e 1f 3b 68 6a 16 3c
       0.006381406 0.0101438435 0.0024298683 0.009180643
000130 95 00 20 36 0a d0 73 39 b0 6d ff 3a ce 47 e9 38
       2.3842197e-06 0.00023251786 0.0019487645 0.000111236805
000140 ba 14 10 3a 77 1c 5c 36 b5 2a ce 39 de 19 b9 3a
       0.00054962526 3.2799123e-06 0.000393232 0.0014122089
000150 77 90 e4 38 9a 43 d8 39 61 ae d2 36 37 e2 95 38
       0.00010898796 0.00041249098 6.278788e-06 7.1470095e-05
000160 ad fb 06 3b dd 67 bd 38 3c ae fe 39 51 7f 03 38
       0.0020596788 9.031568e-05 0.0004857647 3.1351407e-05
000170 41 a3 f8 39 ef f8 9f 3a 26 f9 14 39 c0 3d e8 39
       0.0004742388 0.0012204925 0.00014207195 0.00044296496
000180 f2 84 42 37 8b a4 37 39 ea e8 f5 3a 20 73 8c 39
       1.1594255e-05 0.00017513537 0.001876143 0.00026788656
000190 f0 80 13 3a 41 f0 ac 37 b3 60 43 3a 6f ca 86 3a
       0.0005626818 2.0615875e-05 0.0007453069 0.0010283719
0001a0 8f cf 8e 39 5f db 13 3a a1 4c b1 38 29 1e 05 3a
       0.00027238994 0.0005640294 8.454291e-05 0.00050780416
0001b0 bd ad bb 3a 8e e7 cd 39 77 b9 2c 3a 8d db 7f 3a
       0.0014318746 0.0003927317 0.0006588916 0.00097601936
0001c0 e0 9f 47 39 2c c9 03 3b 10 15 5e 37 3e 51 a5 3a
       0.00019037677 0.0020108921 1.3237135e-05 0.0012612713
0001d0 e0 33 dc 38 9b a1 e8 37 f3 f0 10 3a 8d 83 9b 37
       0.0001050008 2.7731809e-05 0.00055290683 1.8538698e-05
0001e0 1a 09 5b 3a 26 ba 2b 38 42 a1 a7 38 b1 a5 30 3a
       0.0008355543 4.094294e-05 7.993217e-05 0.0006738557
0001f0 aa c5 27 37 9f a7 5f 3b 03 da b8 39 88 b0 1a 39
       9.999998e-06 0.003412701 0.00035257646 0.00014752347
000200 89 2d 15 3a 39 5e c0 37 36 8e b8 3a a3 8e 55 38
       0.0005690684 2.293206e-05 0.0014080468 5.0915998e-05
000210 6a cd d2 3a 59 7e 0b 3b 3c 37 b0 36 0d 70 a7 3b
       0.0016082947 0.0021285026 5.251639e-06 0.005109793
000220 e1 1d 22 3a dd 93 de 39 4c 0a 59 3a 9d 1d 43 38
       0.0006184262 0.00042453306 0.00082794274 4.6519202e-05
000230 18 54 07 3b 8e 6a 76 39 d7 c0 2c 3b 67 19 4f 3b
       0.002064949 0.00023500083 0.0026360059 0.0031600834
000240 45 9e c2 37 e0 77 af 3b b0 fc 7e 3a df d5 5d 3a
       2.3200302e-05 0.0053548664 0.00097269844 0.000846235
000250 88 8c a7 3a a2 6f 84 3b 18 ce a9 3a 0e 1d 60 3b
       0.001278297 0.004041628 0.0012955097 0.0034197005
000260 50 59 13 37 fd 3a 25 38 97 15 29 38 c2 68 e5 36
       8.7826775e-06 3.9394003e-05 4.0312847e-05 6.8369272e-06
000270 f9 78 0d 38 4c cf c0 36 71 67 4d 37 5c 6d ba 38
       3.3729684e-05 5.7461784e-06 1.22430365e-05 8.889541e-05
000280 84 bf 7a 38 7c 32 be 38 24 c1 36 37 f5 3c 6e 38
       5.9783008e-05 9.0693095e-05 1.0893014e-05 5.6800392e-05
000290 57 6f cf 36 37 57 d6 36 8e 40 a6 37 be 07 52 36
       6.1820424e-06 6.38785e-06 1.9818803e-05 3.1296945e-06
0002a0 5c 48 01 38 25 c1 e9 38 82 a4 1e 39 64 4b 3b 39
       3.0823387e-05 0.00011146282 0.00015129338 0.00017861795
0002b0 10 c3 31 37 ff f1 05 39 1a 40 c4 36 47 d1 87 36
       1.0595439e-05 0.00012774019 5.8487176e-06 4.0476766e-06
0002c0 81 6b 97 37 2e bd 04 36 4b d8 8b 38 6a ab 03 39
       1.8050663e-05 1.977965e-06 6.668324e-05 0.0001255699
0002d0 bc 17 28 39 cc f9 45 39 5f 49 41 37 72 dd 20 39
       0.0001603057 0.0001888044 1.15207795e-05 0.00015341284
0002e0 ad 3a fa 36 66 41 ba 37 91 85 1a 38 f3 b9 51 39
       7.4574114e-06 2.2203381e-05 3.6840855e-05 0.00020001065
0002f0 19 a2 6b 38 6e 61 1b 39 39 9f 8f 39 25 20 e1 3a
       5.617933e-05 0.00014818247 0.00027393716 0.0017175718
000300 9e 71 53 3b 24 d2 bc 38 78 a6 9e 3a 7d a0 a9 39
       0.0032263766 9.00368e-05 0.0012104055 0.00032353765
000310 06 64 f9 3a b3 e2 1f 3a 85 c3 bd 39 47 ae b1 3a
       0.0019027002 0.00060991495 0.00036194563 0.0013555967
000320 f6 ec 82 39 c6 07 92 3a e0 eb bf 3b 4c fe 8d 39
       0.00024972082 0.0011141233 0.005856976 0.00027083082
000330 18 5a 99 3a e8 52 b3 39 cc 74 d6 3a 3b 93 71 39
       0.0011699824 0.0003420331 0.0016361712 0.00023038399
000340 78 35 a1 3a 1f c9 11 3b 15 23 56 39 d2 aa dd 3a
       0.001229926 0.0022245122 0.000204217 0.001691187
000350 b3 f2 ca 3b d5 19 d9 39 04 a2 a3 3a 30 ed e0 39
       0.006193483 0.00041408712 0.0012484198 0.00042901328
000360 51 f9 d2 3a 48 5d 13 39 db 5d 31 3b 26 b2 58 3b
       0.0016096031 0.00014053762 0.0027064 0.003306517
000370 ea 2e a3 38 43 de 2e 3b ee 5f bb 3b 0b 25 b3 39
       7.781184e-05 0.0026682771 0.005718223 0.0003416914
000380 0e 28 a4 3a bd 38 94 3b 04 92 6d 3a f7 13 99 3b
       0.0012524144 0.0045233653 0.00090625905 0.0046715694
000390 b4 04 ad 35 83 8d c9 3a 2c 9f bb 37 db 52 80 37
       1.2890873e-06 0.0015377257 2.2366257e-05 1.5297372e-05
0003a0 22 db 00 3a 16 ce a4 35 6e 28 dc 3a 05 52 b6 38
       0.0004915466 1.2278931e-06 0.0016796717 8.6937136e-05
0003b0 ca 96 ca 38 cb 45 17 3a 09 71 dd 35 ff b4 0c 3b
       9.660197e-05 0.0005770593 1.6498681e-06 0.0021470187
0003c0 29 5c d9 39 20 00 c1 38 a8 95 10 3a 3d ea 01 36
       0.0004145813 9.2029804e-05 0.00055154646 1.9358843e-06
0003d0 2a 40 16 3b fa f3 b2 39 0b 20 3e 3a 49 cc a0 3a
       0.0022926428 0.00034132582 0.00072526996 0.0012267913
0003e0 c9 9d 33 37 44 78 24 3b ea ae 49 3a 8c af d1 39
       1.0705969e-05 0.0025096098 0.0007693606 0.0003999438
0003f0 50 98 62 3a 5a 30 9e 37 d4 53 18 3b 70 f9 3e 3a
       0.0008643912 1.8857583e-05 0.0023243325 0.0007285094

exp_avg f4 [30]
000000 c2 4f bd bc ac 59 33 bc a0 1d 19 bc 20 69 dd 3a
       -0.02310932 -0.010946672 -0.009345442 0.0016892292
000010 46 2a 96 3b 1e 15 c0 bc 50 e5 60 bb 7c c8 b6 3a
       0.004582676 -0.02344757 -0.0034316368 0.0013945247
000020 d4 d7 d8 3b 1b a6 74 bc ed cb 7c 3d 4e 00 85 ba
       0.0066175256 -0.014932181 0.061717916 -0.0010147186
000030 88 b6 ce 3a f8 29 f2 3c 53 51 9b 3b c9 5f bb 3b
       0.0015770951 0.029561028 0.004739919 0.0057182056
000040 c1 db 5a 3c be b0 e8 3b 80 e4 ce 3a 00 24 4a bc
       0.0133580575 0.0071011474 0.0015784651 -0.012337685
000050 08 d8 e5 3b 9f 1f 88 3c 93 43 45 bd 1d e2 53 39
       0.0070142783 0.01661664 -0.048160147 0.00020206762
000060 4b 3c 8e bc 1b b5 1d bc 3a 64 10 bc 00 28 7a b8
       -0.017362734 -0.009625698 -0.008812958 -5.9641898e-05
000070 a7 cf d7 3c 4c 41 8c 3c
       0.026344134 0.01712098

exp_avg_sq f4 [30]
000000 b6 34 b9 3c 7a ec b3 3c 80 2c 48 3b c7 d0 14 3c
       0.022608142 0.021963347 0.0030544102 0.0090829795
000010 fc ff d4 39 37 5d 28 3c 5a 1f cc 3b ea 55 99 3b
       0.00040626514 0.01027613 0.0062293233 0.004679431
000020 23 72 bf 3c 94 ba af 3b bd 42 f4 3d 9d fa 49 39
       0.023369854 0.005362818 0.11926792 0.00019262214
000030 e9 cb 03 3b ab c0 04 3d 72 34 4f 3b d3 67 05 3c
       0.0020110554 0.032410305 0.0031616953 0.008142429
000040 57 e9 2f 3b dd 78 db 3b d1 2c c9 3a 40 49 83 3d
       0.0026841962 0.0066977576 0.0015348439 0.06410456
000050 49 ab fb 3c f4 a1 b8 3b b5 b1 91 3c ec 38 86 36
       0.030721324 0.0056345407 0.017784933 4.000138e-06
000060 4d e5 57 3c 1e 1d 8b 3b d4 85 b3 3b 3a 4f b5 3b
       0.013177228 0.0042454144 0.0054786 0.005533126
000070 e2 65 f1 3c 2c ea 2d 3d
       0.029467527 0.04245965

exp_avg f4 [1, 2]
000000 c6 f5 ba 3c 2e aa 88 bc
       0.022822272 -0.01668271

exp_avg_sq f4 [1, 2]
000000 55 25 b6 3b c1 84 9b 3b
       0.0055586495 0.00474605

exp_avg f4 [2, 30]
000000 80 3b 80 39 ae 38 83 3d 28 49 87 ba 6b 1f 29 3c
       0.00024458393 0.06407295 -0.0010321485 0.010322432
000010 5c 51 c4 bb 86 20 f5 3b 44 0a d8 bb 87 33 6e bc
       -0.005991144 0.0074806837 -0.0065930206 -0.014538652
000020 c6 c0 b1 bc 71 c7 89 3c 32 49 10 bd 9a c5 61 bc
       -0.021698367 0.016818734 -0.035226054 -0.013780022
000030 76 e9 ab 3b 94 6a e2 bc 2c 34 f9 3b 98 ea f6 3b
       0.0052463366 -0.027638711 0.0076050963 0.00753529
000040 60 5e 9b bb d0 0e e2 ba ea 85 3d bc c8 85 20 3c
       -0.004741475 -0.0017246846 -0.011567572 0.009797521
000050 a9 68 41 bc f0 77 89 ba f3 91 44 3c d4 7b 18 b9
       -0.011804738 -0.0010488015 0.011997688 -0.00014541979
000060 b5 fa 5e 3c 9e 13 20 3c 0d 5f 11 bc 7c 01 58 3c
       0.013609578 0.009770302 -0.0088727595 0.013183948
000070 ad b3 e0 3c ca b5 d4 bc 54 f7 f4 3c 54 d0 50 3e
       0.027429426 -0.02596559 0.029903091 0.20391971
000080 9a 6c a2 bc 3a dd f9 bc 4c 10 6a bd 4b 62 18 3d
       -0.019827176 -0.030500997 -0.05714445 0.037203114
000090 86 cc 70 bd cf c3 80 bd 1a a1 0e 3d c6 40 54 3d
       -0.0587888 -0.062873475 0.034821607 0.051819585
0000a0 8d fb fd 3d 68 9c 42 bd 80 10 36 bd 0d 92 9d 3d
       0.12401495 -0.047512442 -0.04444933 0.076938726
0000b0 16 e7 8b 3c 7b bd 0f bd ea 13 37 bd 4e 62 45 bc
       0.017077964 -0.035092812 -0.044696726 -0.012047363
0000c0 a5 ad ef bc 66 b9 2c bd 22 39 b6 3c cf 28 37 bd
       -0.029257605 -0.042168997 0.02224404 -0.044716652
0000d0 60 29 0f 3d 3e 32 94 3c 5e 2e 98 3d a2 fe f6 bc
       0.034951568 0.018090364 0.07430719 -0.030150715
0000e0 c0 2c db 3d aa de 11 bd 08 32 33 3d b4 c3 0a 3d
       0.10701895 -0.03561274 0.043748885 0.033878043

exp_avg_sq f4 [2, 30]
000000 5e 01 be 3d 79 0a f3 3c 17 59 ef 3c 92 1b 41 3c
       0.092776045 0.02966808 0.029217286 0.011786358
000010 e2 44 23 3c db 37 4f 3d 10 c7 87 3c 1e 98 97 3c
       0.009965153 0.050590377 0.016574413 0.018505152
000020 3a 04 b7 3d 75 dc 10 3d 65 fa bf 3e 8e 65 54 3b
       0.08936353 0.035366494 0.37495723 0.0032409164
000030 d6 fe 99 3c 14 31 dd 3d fe 61 79 3c fc af 4f 3c
       0.018798273 0.108003765 0.015221117 0.012676235
000040 ba 91 45 3c 57 bf 84 3d 17 eb 06 3c 19 18 3f 3d
       0.01205867 0.06481808 0.008234761 0.04665384
000050 db 95 dd 3d 40 41 c8 3c 2f b2 64 3d 51 ad da 39
       0.10819598 0.024445176 0.05583399 0.0004170933
000060 a3 94 d5 3c 2c 19 a1 3c f0 e2 57 3c 9f 01 2b 3c
       0.026071852 0.019665323 0.013176665 0.010437398
000070 78 42 af 3d b5 0b ec 3d c8 00 4c 3e 46 35 82 3d
       0.085576 0.115256704 0.19922173 0.06357817
000080 d3 d9 4d 3d 17 a1 c5 3c eb c6 91 3c 8d ff e9 3d
       0.05025656 0.024124665 0.017795047 0.114256956
000090 d2 32 06 3d 46 42 1d 3d 4c dc 27 3e 12 59 a4 3d
       0.03276331 0.03839328 0.1639263 0.08024801
0000a0 70 23 33 3f f1 42 c7 3b 14 0f 0d 3d 22 e3 5f 3e
       0.6997595 0.006080978 0.034438208 0.21863988
0000b0 f0 12 f9 3c be 03 c6 3c 30 74 c6 3c 31 90 f2 3d
       0.030404538 0.024171706 0.024225324 0.118439086
0000c0 1d 91 7c 3c 90 de aa 3d c0 c3 49 3e d5 42 34 3d
       0.015415457 0.08343232 0.19703579 0.04400905
0000d0 44 97 c8 3d 83 63 41 3a a5 3e 5a 3d d3 a7 16 3d
       0.09794477 0.0007377194 0.0532824 0.036781143
0000e0 d5 12 e3 3c 4a 8c a8 3c 70 4c 15 3e 68 f1 67 3e
       0.02771894 0.020574708 0.1457994 0.22650683

exp_avg f4 [2]
000000 ec b3 a9 bc d3 7f 04 3e
       -0.020715676 0.12939386

exp_avg_sq f4 [2]
000000 40 19 41 3e 24 a5 b6 3e
       0.18857288 0.35672867

exp_avg f4 [30, 38]
000000 9b 1b a9 b3 82 03 32 36 07 8e b4 b6 8d 38 8d b1
       -7.874697e-08 2.6526109e-06 -5.380952e-06 -4.110069e-09
000010 5e 8c 97 b6 00 88 02 2e 1c 61 72 b5 60 f3 6d 33
       -4.5164916e-06 2.967937e-11 -9.029334e-07 5.540221e-08
000020 fa 8d d3 b3 ac 57 c2 b5 07 19 a9 b3 0a a0 6b b6
       -9.8512785e-08 -1.4479642e-06 -7.874228e-08 -3.5110884e-06
000030 5c 23 1c b3 40 74 14 b6 67 d8 a0 b6 98 fe 77 b2
       -3.635374e-08 -2.2121385e-06 -4.793564e-06 -1.443518e-08
000040 f6 14 97 b6 5e d9 db b4 df fe a7 33 8e e2 cd b5
       -4.502591e-06 -4.0950084e-07 7.822904e-08 -1.5339626e-06
000050 fc a7 3f 32 d0 64 96 b6 00 b7 a1 35 13 82 87 b6
       1.11558585e-08 -4.4820845e-06 1.2048695e-06 -4.038456e-06
000060 09 6a 87 b6 73 12 83 b3 84 1c e1 b6 ea 41 96 b5
       -4.0356576e-06 -6.103519e-08 -6.708842e-06 -1.1195054e-06
000070 af ab a6 b5 f4 eb 34 b6 d7 ca 33 b4 9d c6 8f b6
       -1.241793e-06 -2.6959433e-06 -1.6744467e-07 -4.2848537e-06
000080 60 b9 91 b4 44 94 0a b6 1f 8d 47 b6 2b 32 6c b7
       -2.7143233e-07 -2.0649904e-06 -2.9735454e-06 -1.4078377e-05
000090 2d 35 88 b6 6c 17 bd b6 18 b6 5d 35 38 cc 59 38
       -4.0593063e-06 -5.6353656e-06 8.2593897e-07 5.1927025e-05
0000a0 e5 c2 99 b7 49 26 eb b1 f7 de 21 38 46 26 00 34
       -1.8329776e-05 -6.8437527e-09 3.8593043e-05 1.1934853e-07
0000b0 16 6f 86 38 90 d4 5d 35 4b 87 01 36 3a 07 fa 37
       6.410309e-05 8.2638235e-07 1.9301249e-06 2.9805688e-05
0000c0 f2 b7 5d 35 ca 12 4a 38 0b 1f a3 37 95 d6 fe b5
       8.259659e-07 4.817805e-05 1.944557e-05 -1.8986926e-06
0000d0 5f 15 3a 38 f7 59 1c 35 10 63 af 38 5a b3 bd b5
       4.436576e-05 5.8245445e-07 8.363102e-05 -1.4133796e-06
0000e0 33 13 93 36 c6 b9 04 38 7a d3 4a 33 45 d3 5f 38
       4.3831765e-06 3.1644267e-05 4.7224127e-08 5.3364103e-05
0000f0 cd 9b 42 37 48 7e 3b 37 cb e1 02 38 3c 5d cf 34
       1.1599576e-05 1.1175471e-05 3.12047e-05 3.8624592e-07
000100 be b4 9d 38 5c 06 32 36 9d b6 b5 37 18 1d 44 38
       7.520009e-05 2.6527769e-06 2.1661917e-05 4.6757137e-05
000110 22 ba 85 35 1a 30 a5 38 01 54 00 37 fb 0a 22 37
       9.963444e-07 7.876773e-05 7.648953e-06 9.658509e-06
000120 62 91 00 38 91 ac cf 38 de b6 78 38 7d 11 85 38
       3.0652976e-05 9.902672e-05 5.9298116e-05 6.345192e-05
000130 0e 86 e0 b3 e7 77 d7 b7 2c 30 16 b8 81 11 27 31
       -1.0455197e-07 -2.5685831e-05 -3.580765e-05 2.4311648e-09
000140 df 59 72 b8 fd dd a7 33 27 27 81 b8 7a 6b 5b b4
       -5.7780995e-05 7.816923e-08 -6.158492e-05 -2.0435064e-07
000150 ca 59 a8 34 e6 e0 06 b8 fc 88 e0 b3 16 67 0d b7
       3.135777e-07 -3.2157543e-05 -1.045573e-07 -8.4282565e-06
000160 c2 45 f9 b7 18 4d 29 b8 8c c0 b8 b8 ea 42 61 33
       -2.9715597e-05 -4.036454e-05 -8.809668e-05 5.2447753e-08
000170 fb 3a 10 b9 f8 5f 3c b5 f1 3d d8 b4 c9 65 07 b8
       -0.00013754882 -7.017511e-07 -4.0278204e-07 -3.2281303e-05
000180 d0 fc 27 33 30 6f b7 b6 11 56 00 b6 b1 13 92 b8
       3.911265e-08 -5.466769e-06 -1.9123584e-06 -6.96549e-05
000190 26 eb a1 b8 5d e8 c0 33 52 eb 19 b9 cc ab a7 b6
       -7.720878e-05 8.982963e-08 -0.0001467888 -4.9969876e-06
0001a0 2a 05 c6 b6 74 1b 14 b8 94 a7 2b 34 10 b3 b5 b7
       -5.901461e-06 -3.5311517e-05 1.598658e-07 -2.1660264e-05
0001b0 5b 4f 18 37 16 dc 81 b8 0e 5e 92 b8 e0 98 f8 b8
       9.078382e-06 -6.1921935e-05 -6.9793416e-05 -0.00011854037
0001c0 e2 13 81 b8 b0 66 d2 b8 82 3d 7c 35 72 a6 86 b7
       -6.154903e-05 -0.00010032707 9.396682e-07 -1.6051552e-05
0001d0 71 df 8d 38 56 96 41 33 59 1b 48 38 92 85 0c 34
       6.765023e-05 4.5073044e-08 4.7709185e-05 1.3087109e-07
0001e0 02 c8 a2 37 a7 0e 1b b6 45 fc 21 36 b2 b0 bd 37
       1.940504e-05 -2.3105329e-06 2.413771e-06 2.2612836e-05
0001f0 a2 3c 7c 35 63 b1 33 37 03 a0 9f 37 a1 d7 02 38
       9.396555e-07 1.07105325e-05 1.9028788e-05 3.1195235e-05
000200 3c d9 61 38 b8 45 0c 35 ae 2b 39 38 fc 87 46 35
       5.3846496e-05 5.225552e-07 4.4148117e-05 7.395863e-07
000210 33 ee c0 b5 af 5e a3 37 80 f7 38 32 4e 4a 40 37
       -1.437444e-06 1.9475205e-05 1.0766485e-08 1.1461392e-05
000220 90 4a d7 36 06 49 58 38 50 0c 70 38 48 8a 10 35
       6.4161795e-06 5.156642e-05 5.7231926e-05 5.3845406e-07
000230 40 70 76 38 98 b0 7d 36 23 8d 0f 37 6f a4 c9 37
       5.875551e-05 3.780273e-06 8.556325e-06 2.4037638e-05
000240 ad 69 c6 35 52 c5 92 37 36 54 b0 36 93 48 3e 38
       1.4782905e-06 1.749644e-05 5.255012e-06 4.536712e-05
000250 85 4c 5f 38 be ed 3b 38 bb 0c 00 38 c2 e0 70 38
       5.3238608e-05 4.480569e-05 3.0529434e-05 5.742978e-05
000260 a2 de 80 33 db d2 c7 b5 ec 95 ec 35 b7 d8 41 30
       6.000961e-08 -1.4888022e-06 1.7627003e-06 7.052096e-10
000270 21 aa a7 35 20 31 24 33 73 3b 8c b3 1e 83 82 b4
       1.2491984e-06 3.8228904e-08 -6.530072e-08 -2.4309787e-07
000280 69 e6 a3 33 ba 2b 7e 34 a2 de 80 33 e2 b7 6e 35
       7.63219e-08 2.3671501e-07 6.000961e-08 8.8929494e-07
000290 a8 b1 11 b5 e2 73 02 35 b4 d2 58 35 fc d3 5d 33
       -5.4275233e-07 4.8597406e-07 8.0772884e-07 5.164837e-08
0002a0 0a b0 12 35 47 64 c7 b3 e1 31 dc 33 ce f0 b2 34
       5.464541e-07 -9.2849e-08 1.0253621e-07 3.3330292e-07
0002b0 de f4 09 33 92 af 93 35 80 18 12 b5 45 cb 35 35
       3.2120504e-08 1.1003451e-06 -5.442489e-07 6.772355e-07
0002c0 d0 71 fb 34 aa 96 bc 32 72 2c e9 35 35 57 70 b3
       4.6835203e-07 2.1954595e-08 1.7372788e-06 -5.595867e-08
0002d0 03 85 e7 34 88 b2 30 35 03 f8 28 31 30 4f 66 35
       4.3123882e-07 6.5824906e-07 2.4588196e-09 8.579691e-07
0002e0 57 8a b5 33 fa 58 b2 33 c4 1e 85 34 25 b5 9e 36
       8.453633e-08 8.304956e-08 2.4795565e-07 4.729855e-06
0002f0 65 ba 36 35 de 1e 5e 35 a2 8f a1 b5 19 54 06 b7
       6.8071523e-07 8.274636e-07 -1.2037237e-06 -8.006603e-06
000300 5c df 00 38 82 62 c4 b2 1c 1b b0 37 4c ea a3 34
       3.0725598e-05 -2.28622e-08 2.0993459e-05 3.053159e-07
000310 74 8f b2 36 31 36 48 36 1d 17 8c 35 60 c9 fe 36
       5.3215135e-06 2.9833866e-06 1.043754e-06 7.593233e-06
000320 e1 8f a1 b5 c1 89 09 38 4b de ed b5 84 0e ee 36
       -1.2037309e-06 3.279164e-05 -1.7722572e-06 7.0946426e-06
000330 60 88 9c 37 ec 27 4c 34 cf 2a 32 35 00 37 6a b5
       1.8660154e-05 1.9013504e-07 6.637246e-07 -8.725183e-07
000340 80 6d 30 36 04 09 b3 36 48 23 fb 34 dc a5 b5 37
       2.628978e-06 5.3356653e-06 4.6778064e-07 2.1654116e-05
000350 61 84 bf b6 02 34 ff 37 e3 f6 15 38 8a 60 06 35
       -5.7076545e-06 3.0422587e-05 3.57543e-05 5.005937e-07
000360 75 e8 4c 37 e0 2c 95 35 68 f4 31 b4 aa ed cd 35
       1.2213471e-05 1.1114425e-06 -1.6573324e-07 1.534286e-06
000370 e9 89 db 35 02 b5 37 37 f8 cc 0f 37 d7 b2 3f 38
       1.6356909e-06 1.0949794e-05 8.571187e-06 4.5704506e-05
000380 bf ef 5a 38 a3 63 12 b7 25 b6 30 37 54 81 cf 35
       5.219853e-05 -8.725477e-06 1.0532826e-05 1.5460341e-06
000390 04 1c 80 33 40 bf 5a b7 3d 60 bc 36 99 6e 4d 30
       5.9655605e-08 -1.3038341e-05 5.61404e-06 7.4735734e-10
0003a0 97 0f 33 b7 55 43 13 33 9e 69 94 b7 87 05 c7 b3
       -1.0672861e-05 3.4287343e-08 -1.7692157e-05 -9.267665e-08
0003b0 94 45 e4 b4 71 cc df b6 97 1a 80 33 b9 11 c3 b7
       -4.2518934e-07 -6.669718e-06 5.965301e-08 -2.3254064e-05
0003c0 34 4c 3c b6 5d 01 48 36 0c d6 1b b7 cb 3b 1b 33
       -2.805854e-06 2.9803116e-06 -9.288557e-06 3.614313e-08
0003d0 e0 49 ab b7 af 37 15 35 65 6c 16 36 f2 2e 8c b6
       -2.041919e-05 5.5587856e-07 2.2414836e-06 -4.1777903e-06
0003e0 02 96 07 b2 25 87 b8 b7 f4 d3 5b b6 66 09 4c 36
       -7.892142e-09 -2.199744e-05 -3.2756916e-06 3.040384e-06
0003f0 0d 90 94 b6 7c 7a 97 b4 52 79 b5 b7 fd c7 8c 35
       -4.4275134e-06 -2.821506e-07 -2.1633376e-05 1.0489017e-06

exp_avg_sq f4 [30, 38]
000000 d1 54 5a 2c ac 2e e8 2e 39 1d 3f 2e ec 54 04 2d
       3.1026746e-12 1.0558429e-10 4.3454327e-11 7.522188e-12
000010 61 6e 8d 2e 43 05 37 2c 93 c5 c8 2e e9 8e a4 2e
       6.431545e-11 2.6008785e-12 9.130043e-11 7.4832425e-11
000020 50 40 0a 2d a2 4e 97 2e a6 88 6f 2c 51 3d fb 2e
       7.858672e-12 6.880653e-11 3.4039798e-12 1.14250505e-10
000030 99 33 66 2e 21 c9 f8 2c a1 e6 83 2e 62 87 38 2c
       5.2341773e-11 7.0709137e-12 5.998158e-11 2.6223125e-12
000040 c8 bb de 2e c8 c1 ad 2e 47 a0 3f 2e 23 55 e9 2e
       1.0128748e-10 7.9015516e-11 4.3570727e-11 1.06107366e-10
000050 3f 15 47 2c 1f 65 e9 2e 58 05 a8 2e 99 ef fd 2d
       2.8291395e-12 1.0613576e-10 7.640705e-11 2.8869173e-11
000060 84 8a c4 2e 6b c8 53 2c 5e 77 f4 2e 2b fe af 2e
       8.9376534e-11 3.0096158e-12 1.1117039e-10 8.003228e-11
000070 50 b5 c5 2e 21 ae 1c 2f be 85 26 2c 90 ec 08 2f
       8.9907304e-11 1.424998e-10 2.366426e-12 1.2453172e-10
000080 a5 e5 c4 2e b2 fb a4 2e 53 0f 19 2f f0 47 64 2f
       8.953841e-11 7.5025666e-11 1.3920713e-10 2.0762037e-10
000090 2d d2 8b 2e ea 8f 7f 2f c4 a8 61 2e 2e 2c 19 31
       6.358323e-11 2.3243243e-10 5.130897e-11 2.2289544e-09
0000a0 84 9a e8 2f 8d ec a7 2d 16 a0 ce 30 46 20 29 2e
       4.2310344e-10 1.9090752e-11 1.5033972e-09 3.8454816e-11
0000b0 98 4b 31 31 f2 4a ad 2f 81 0a 5a 30 70 30 03 31
       2.579986e-09 3.1521769e-10 7.9322865e-10 1.9090542e-09
0000c0 5c cf 70 2e 0b e7 92 31 d1 13 14 30 e8 0d 4f 2e
       5.4753854e-11 4.275426e-09 5.3870247e-10 4.7078702e-11
0000d0 ae 4f b8 30 31 a9 73 2e 20 62 6f 31 49 7b c1 2f
       1.3410408e-09 5.5402075e-11 3.4834855e-09 3.5194095e-10
0000e0 9a d9 4e 31 ec 64 86 31 9b d9 28 2e 05 78 9d 31
       3.0100638e-09 3.9113868e-09 3.839205e-11 4.582946e-09
0000f0 49 e3 32 31 0b 3c 53 30 c1 a2 df 30 78 24 79 2e
       2.6031606e-09 7.684668e-10 1.6271643e-09 5.6648436e-11
000100 98 5f 88 31 f3 5c bc 2f 0d 77 7a 31 c8 e2 a5 31
       3.9689887e-09 3.4263045e-10 3.644746e-09 4.827914e-09
000110 ba 25 2b 2e 5d be c0 31 2f be 65 31 6c de bb 30
       3.8914406e-11 5.6095772e-09 3.3431993e-09 1.3669257e-09
000120 8c 51 15 31 1e 26 f1 31 36 44 07 31 5f 97 d9 31
       2.1728708e-09 7.0183566e-09 1.968386e-09 6.33274e-09
000130 29 05 f9 2c 56 7b ea 30 1b b9 8d 2f 07 af e3 2c
       7.0775785e-12 1.7060795e-09 2.5779276e-10 6.47116e-12
000140 3f 4e a6 30 df f9 de 2c ed be a1 31 b8 7d 8e 2e
       1.2100329e-09 6.3373608e-12 4.7074225e-09 6.4797445e-11
000150 de d9 c7 2d d2 19 6f 30 b7 7b 1f 2d ad a4 c8 30
       2.2720433e-11 8.6984386e-10 9.065574e-12 1.4598719e-09
000160 5c 69 ac 2f 39 1a e4 2f b7 c9 0e 31 fb aa fa 2c
       3.136148e-10 4.149159e-10 2.0778381e-09 7.12441e-12
000170 86 15 34 32 9d 91 28 2f 1a c3 b6 2e 02 81 66 30
       1.0482273e-08 1.5331243e-10 8.311059e-11 8.3856844e-10
000180 3e 22 d0 2c bb ba 0b 31 37 b7 30 30 55 97 33 31
       5.915517e-12 2.0333306e-09 6.428879e-10 2.613395e-09
000190 98 5b 94 31 7a f8 68 2c 59 89 5b 32 50 d7 cb 2e
       4.31778e-09 3.3107115e-12 1.2778707e-08 9.2696184e-11
0001a0 13 fa 9e 2f e4 61 8e 30 c3 35 2d 2e ca 82 35 31
       2.891772e-10 1.0359682e-09 3.9383396e-11 2.6413312e-09
0001b0 af 48 8f 30 f5 51 9c 31 3b 2b db 31 42 71 b8 31
       1.0425277e-09 4.549515e-09 6.3786536e-09 5.3679807e-09
0001c0 6f 62 26 31 49 16 ee 31 c1 94 10 2f 36 3d 0c 31
       2.4212132e-09 6.929245e-09 1.3149572e-10 2.0407476e-09
0001d0 7b 9a b4 31 1b 9e 58 30 12 ae 96 31 e1 6a c7 2e
       5.256252e-09 7.8805024e-10 4.385364e-09 9.068458e-11
0001e0 c0 66 c4 30 e5 c5 b9 31 35 86 70 30 47 9f 4b 31
       1.429008e-09 5.4067066e-09 8.750221e-10 2.9630927e-09
0001f0 bf 1b 16 2f c1 77 09 31 e6 35 a7 31 5f f7 b2 30
       1.3652278e-10 2.0004196e-09 4.8664672e-09 1.3021512e-09
000200 36 78 8d 31 83 0d 10 2f e2 fc d0 30 9c 3a b7 31
       4.1173065e-09 1.3101524e-10 1.5205865e-09 5.332664e-09
000210 ab 47 5b 30 64 9f 32 31 b8 66 1e 2f bb 21 e1 30
       7.977358e-10 2.5993012e-09 1.440651e-10 1.6380491e-09
000220 01 e2 9c 31 b2 b0 0c 31 c9 09 95 31 8b 0e 0e 2f
       4.565891e-09 2.047312e-09 4.337583e-09 1.2919991e-10
000230 a1 3f f5 30 ac ae b0 31 e4 ca 18 31 2e 47 7b 31
       1.7844181e-09 5.142132e-09 2.2234241e-09 3.6565768e-09
000240 26 35 5e 2f 8c 14 fb 30 41 b5 82 31 8a 31 47 31
       2.0209664e-10 1.8268493e-09 3.804104e-09 2.898647e-09
000250 4d d7 a6 31 3f 14 87 31 cd 0f b4 30 2e e5 39 32
       4.8557127e-09 3.931319e-09 1.3101215e-09 1.0820527e-08
000260 8c cb 5d 2b 2e 68 94 2e af 3b 20 2e 0d 9f 0c 2c
       7.879745e-13 6.748767e-11 3.6432798e-11 1.9983488e-12
000270 79 11 4a 2e 1d b7 45 2b e5 d2 a4 2e 02 09 18 2e
       4.5945e-11 7.024258e-13 7.495319e-11 3.45688e-11
000280 d9 9e 3c 2d 45 fc 61 2e 89 9a 71 2b 97 f5 c7 2e
       1.0721834e-11 5.1383137e-11 8.583486e-13 9.093098e-11
000290 e7 52 1e 2e 4d f1 27 2d 84 1a 60 2e 28 90 62 2b
       3.5998673e-11 9.5464305e-12 5.0955254e-11 8.0491386e-13
0002a0 da 1f e6 2e 7f bb 39 2e f4 c2 1d 2e 7e 79 af 2e
       1.0464847e-10 4.223066e-11 3.587082e-11 7.97966e-11
0002b0 d0 55 78 2b e8 99 df 2e 46 67 55 2e df 70 fd 2d
       8.822639e-13 1.0168205e-10 4.8522318e-11 2.8812895e-11
0002c0 1b be ac 2e 90 e9 a4 2b 7f 99 07 2f ad 2a 54 2e
       7.855424e-11 1.1717727e-12 1.2332711e-10 4.8241123e-11
0002d0 39 49 85 2e 1f 10 e4 2e 26 d0 b2 2b 81 c5 03 2f
       6.061147e-11 1.0371103e-10 1.2705433e-12 1.1984548e-10
0002e0 90 9c 64 2e 06 7b 6f 2e 25 fd f0 2e 91 91 2a 2f
       5.1980253e-11 5.4451575e-11 1.0958904e-10 1.5513126e-10
0002f0 09 8c 5b 2e a8 66 26 2f 0e 41 fb 2e f7 52 b2 31
       4.991921e-11 1.5134083e-10 1.14257145e-10 5.189914e-09
000300 0b 0e 1f 31 36 22 dc 2e 54 bd 5f 31 3a f9 93 2e
       2.3145528e-09 1.0010519e-10 3.2558392e-09 6.7290576e-11
000310 56 24 e5 31 36 57 29 32 2f 46 0c 30 ef 57 72 31
       6.668908e-09 9.856924e-09 5.103144e-10 3.526562e-09
000320 16 b6 3d 2f 92 d7 4d 31 81 05 62 2f 55 af 5f 2e
       1.725414e-10 2.9953964e-09 2.0556536e-10 5.0860056e-11
000330 a4 8f 73 31 a2 74 85 2e db aa 1b 32 d4 85 30 32
       3.5442804e-09 6.068858e-11 9.0610355e-09 1.0274977e-08
000340 b2 27 8a 31 7e 65 d6 31 67 82 0f 2f 05 32 d8 31
       4.0208414e-09 6.239758e-09 1.3052102e-10 6.292114e-09
000350 62 e4 9f 2f a2 95 01 31 30 ab f0 31 95 1f c7 2e
       2.9084207e-10 1.8857027e-09 7.004381e-09 9.0550824e-11
000360 03 31 1d 32 cf 2e 3a 32 7e 41 82 31 fa 7f c1 31
       9.149747e-09 1.0837268e-08 3.7909436e-09 5.6315885e-09
000370 42 17 88 2f 1e 14 0b 32 3a 99 17 30 86 c8 38 32
       2.4754782e-10 8.095439e-09 5.515123e-10 1.0755803e-08
000380 73 74 85 32 08 d6 c1 31 3c b9 a7 31 28 d8 e6 32
       1.5536193e-08 5.641372e-09 4.8813984e-09 2.687382e-08
000390 22 1c bf 2b 9c f9 bf 30 0a ab 34 30 ad 1b c0 2d
       1.3579175e-12 1.3968022e-09 6.572668e-10 2.1840163e-11
0003a0 7b 24 34 30 1e 53 de 2a 0a 2a f7 30 aa 81 b1 2e
       6.553546e-10 3.9492796e-13 1.7983564e-09 8.072061e-11
0003b0 75 0e 18 30 ae ef a3 30 a0 37 6a 2b 11 4e 0c 31
       5.531782e-10 1.1927932e-09 8.3210695e-13 2.0417057e-09
0003c0 46 b3 6a 30 01 cb 1d 2f 13 ab 20 30 95 3b f3 2a
       8.5383467e-10 1.4351188e-10 5.845077e-10 4.3206815e-13
0003d0 91 52 05 31 6f 50 45 2e 2b a8 b6 30 ea 53 f0 30
       1.940098e-09 4.4864053e-11 1.3290039e-09 1.7486148e-09
0003e0 c8 26 16 2d 91 a0 0b 31 5d dd 8b 30 0c 75 cf 2f
       8.535124e-12 2.0318434e-09 1.0176496e-09 3.7736247e-10
0003f0 1c a1 32 30 c8 a2 88 2d 30 0d 03 31 d0 1a df 2d
       6.4984973e-10 1.55337e-11 1.9070505e-09 2.5364072e-11

exp_avg f4 [30]
000000 66 4e 57 b7 cc 9c 39 39 12 14 36 b9 d7 41 bd 38
       -1.2833252e-05 0.00017701386 -0.0001736435 9.024486e-05
000010 26 cd 32 36 28 5a aa 37 17 91 3d b8 a5 0d bf b8
       2.664348e-06 2.0307561e-05 -4.5196237e-05 -9.110131e-05
000020 eb e0 cb b7 f3 bc 39 b9 88 1f c1 38 83 83 41 b9
       -2.4304221e-05 -0.00017713364 9.20883e-05 -0.00018454906
000030 d3 43 98 b6 ce 75 7a 38 df 40 95 b8 09 88 c7 b8
       -4.537849e-06 5.971436e-05 -7.116957e-05 -9.514398e-05
000040 c2 f5 a3 37 cc a3 f2 b5 18 b1 ce b7 e5 49 e7 37
       1.9545554e-05 -1.8078076e-06 -2.463958e-05 2.7571756e-05
000050 a5 44 6e b7 0a 8f c2 b8 f8 62 2c b9 1b d8 6e 37
       -1.4201888e-05 -9.277284e-05 -0.00016440067 1.4236221e-05
000060 d4 18 e0 38 08 f3 93 b7 e6 fe b8 b5 84 ad 2f b7
       0.00010685777 -1.7636936e-05 -1.3783254e-06 -1.0471213e-05
000070 75 a4 81 b9 2c 7b 1e b8
       -0.00024727327 -3.778485e-05

exp_avg_sq f4 [30]
000000 b4 b9 2d 30 62 17 8c 32 85 3e 84 32 d6 d4 9a 32
       6.3200933e-10 1.6308778e-08 1.5395253e-08 1.8024746e-08
000010 21 0a 04 30 60 12 22 33 a2 60 b7 31 84 a4 17 33
       4.8035714e-10 3.7735276e-08 5.336987e-09 3.5307053e-08
000020 de eb fb 31 93 6b 7f 33 f3 42 65 32 5d ff 99 32
       7.3318764e-09 5.9469652e-08 1.3344777e-08 1.792767e-08
000030 06 01 13 32 56 69 27 31 ae 8b da 31 07 d6 49 33
       8.556759e-09 2.4361575e-09 6.360515e-09 4.6993616e-08
000040 27 05 17 30 9a ce c1 2f 69 42 c7 30 5e 50 92 30
       5.49408e-10 3.5253295e-10 1.449803e-09 1.064574e-09
000050 20 c5 1e 30 36 d3 1e 32 00 bc 33 34 00 81 c8 31
       5.7760197e-10 9.244834e-09 1.6739068e-07 5.8354317e-09
000060 5e 11 80 32 d5 58 21 31 66 2f ac 31 c5 5e d2 32
       1.4909059e-08 2.3479079e-09 5.0112474e-09 2.4490314e-08
000070 cd a0 f8 32 c0 70 8a 32
       2.8944124e-08 1.6116587e-08

exp_avg f4 [1, 30]
000000 b2 6e 95 b9 b4 74 8c 3a 42 81 03 bb 6d 73 e9 39
       -0.0002850197 0.0010715933 -0.0020066057 0.00044527222
000010 c4 11 2a ba a3 95 b3 3a 9e 93 59 3a 5a db 2c 3a
       -0.00064876326 0.0013701211 0.000829989 0.0006593965
000020 fe cb 87 3a 48 d0 a7 39 c0 24 c6 39 66 9f c7 b9
       0.0010360477 0.00032007904 0.00037792884 -0.00038075
000030 58 82 8a 3a a3 62 40 3b 38 3a cc 38 2e 94 7b 3a
       0.001056741 0.0029355667 9.738322e-05 0.00095969706
000040 33 0b 06 b9 ff 6a 80 b9 33 60 8a 39 0c c9 d8 b8
       -0.00012783408 -0.0002449378 0.00026393085 -0.000103371305
000050 e2 bb 8c b8 3f 87 97 3a bb ff 89 3a ac 9c b1 3a
       -6.710716e-05 0.0011560692 0.0010528484 0.001355072
000060 8c a4 52 3a b5 47 ae 39 a5 36 a2 3a 1c d8 cf 3a
       0.00080353837 0.00033241292 0.0012375904 0.0015857252
000070 1b e8 b0 ba 8e 6f b2 3a
       -0.0013496907 0.0013613568

exp_avg_sq f4 [1, 30]
000000 4c 63 66 34 76 6d 5b 36 d8 88 5b 36 81 ac 6e 36
       2.1456543e-07 3.2697258e-06 3.2713197e-06 3.5565174e-06
000010 28 8a 83 34 3d a1 30 36 d8 7e 12 36 7a d4 3f 36
       2.4501173e-07 2.6319897e-06 2.1829528e-06 2.8584896e-06
000020 e8 4b 16 36 00 92 fe 35 b5 be 77 36 54 d3 10 36
       2.2395925e-06 1.8966966e-06 3.6916874e-06 2.1580681e-06
000030 26 2b 16 36 d1 7d 82 36 f8 99 d1 35 95 da 08 36
       2.2376857e-06 3.888949e-06 1.5616524e-06 2.039281e-06
000040 24 4e 99 34 ac 37 5f 34 f0 db 46 34 28 fd 67 34
       2.8555326e-07 2.0788747e-07 1.85202e-07 2.1605649e-07
000050 dd f4 23 34 ef fd de 35 6c 23 3f 36 8d c0 b6 36
       1.5269639e-07 1.6614193e-06 2.8481836e-06 5.4464385e-06
000060 e0 91 3a 36 e2 cf 53 35 67 61 39 36 df ec 8c 36
       2.780107e-06 7.8906135e-07 2.7623844e-06 4.1999006e-06
000070 34 c1 18 36 be f7 ff 35
       2.2762224e-06 1.9071083e-06
