Assets/ML-Agents/Training Files/results/9roads_cameraSensor_ppo_vehiclesAndChekpointsMasked_1layer_64_256/VehicleAgent/VehicleAgent-17999663.pt (torch, 838483 bytes, 72 tensors)

network_body.observation_encoder.processors.0.conv_layers.0.weight f4 [16, 9, 8, 8]
0	0xbc75c6b2	-0.015000986
1	0xbc80da3e	-0.015729066
2	0x3cc21239	0.02369033
3	0x3a9e75c3	0.0012089539
4	0x3c5fbf60	0.013656467
5	0x3d2ba24a	0.041902818
6	0xba59a8b2	-0.00083030306
7	0x3c3ce826	0.011529958
8	0xba7ff317	-0.0009763701
9	0x3d2027ae	0.03910034
10	0x3d28f214	0.04124649
11	0x3c85fb30	0.016355127
12	0x3d91c8b7	0.071183614
13	0x3d458a99	0.04822788
14	0x3d9a1dbd	0.075252034
15	0x3c884b06	0.016637336
16	0x3d671404	0.056415573
17	0x3c8f0a48	0.017460957
18	0x3d8c4ba6	0.06850366
19	0x3da29296	0.07938115
20	0x3d50a9b2	0.050943084
21	0x3d255d6b	0.040372293
22	0x3d460a05	0.0483494
23	0x3d93b112	0.07211508
24	0x3d02d6b5	0.03194304
25	0x3c5e663f	0.013574182
26	0x3cd914d1	0.026499184
27	0x3d901211	0.07034696
28	0x3d921984	0.07133773
29	0x3cca95ad	0.024729574
30	0x3d292dd5	0.041303474
31	0x3dbaad2e	0.09115063
32	0x3c3de5a7	0.011590398
33	0x3d69f1bc	0.0571153
34	0x3d82663c	0.06367156
35	0x3d020abf	0.03174853
36	0x3dacfa22	0.084461465
37	0x3dbcc768	0.09217721
38	0x3d1b177e	0.0378642
39	0x3ce94e54	0.028479733
40	0x3d5cf21f	0.053941842
41	0x3d76f570	0.06029266
42	0x3c877ca5	0.016538927
43	0x3d9b610c	0.075868696
44	0x3d879c1a	0.06621571
45	0x3d946020	0.07244897
46	0x3cb3a879	0.02193092
47	0x3ccf0eb7	0.025275571
48	0xbd0827a1	-0.033240918
49	0x3d61c6da	0.05512128
50	0xbb110f98	-0.0022134539
51	0xbb7eb011	-0.0038862268
52	0x3d45f3a0	0.048328042
53	0x3d9bbe95	0.0760471
54	0x3cd8ae1a	0.026450206
55	0x3d0d403e	0.034485094
56	0x3d3fd942	0.046838053
57	0x3c4efef1	0.012634025
58	0xbb42cb8c	-0.0029723374
59	0x3d0d1786	0.03444626
60	0x3d74239f	0.059604283
61	0x3d669e31	0.056303207
62	0x3d9b0478	0.07569212
63	0x3d3b8ea8	0.045790344
64	0xbc6a32e8	-0.014294364
65	0xbcaf08e3	-0.021366542
66	0x3d24d9bb	0.040246706
67	0xbc6c3594	-0.014417071
68	0x3cd22d78	0.025656447
69	0xbbe28710	-0.0069130734
70	0x3d2abc81	0.041683678
71	0x3d442d43	0.047894727
72	0xbaa56248	-0.0012617791
73	0x3c13b89f	0.009016185
74	0x3ce93894	0.028469361
75	0x3cd9891d	0.026554639
76	0x3ced40c1	0.028961541
77	0x3d5f7dfa	0.0545635
78	0xbc55b049	-0.013042518
79	0x3c002c73	0.0078230975
80	0x3d033023	0.03202833
81	0x3adfbda6	0.001707007
82	0x3d164707	0.03668883
83	0x3d3625f5	0.044469792
84	0x3d949c7c	0.072564095
85	0x3d1b4cd2	0.03791506
86	0x3b27b889	0.002559217
87	0x3c2005c1	0.009766997
88	0x3d3a7d09	0.0455294
89	0x3c232974	0.009958614
90	0x3c8c6ccc	0.017141722
91	0x3d3c8034	0.0460207
92	0x3c86344c	0.016382359
93	0x3d95c66e	0.07313238
94	0x3c7ee095	0.015556474
95	0x3c10a2e4	0.008827899
96	0x3ced5e9f	0.028975783
97	0x3b2b48cc	0.002613592
98	0x3d1f2a6c	0.038858816
99	0x3d390264	0.045168296
100	0x3d41beec	0.047301218
101	0x3d8396e7	0.06425267
102	0x3d1dcf65	0.038527865
103	0x3d26ee3e	0.04075455
104	0x3d1667d7	0.036720123
105	0x3c6908ce	0.014223291
106	0x3a42cd33	0.000743109
107	0x3d3c1619	0.04591951
108	0x3d221694	0.039572313
109	0x3d52a1d1	0.05142385
110	0x3cd1fd3b	0.025633445
111	0x3d1fff4f	0.03906184
112	0x3b1be7fa	0.0023789392
113	0x3bf82574	0.007572824
114	0x3c0a2d3c	0.008433636
115	0x3cd9d91f	0.02659279
116	0xbcde1fc5	-0.027114758
117	0x3cef7fa1	0.029235663
118	0x3cfc37bb	0.030788293
119	0xbc032013	-0.008003253
120	0x3cfc7925	0.030819485
121	0x3d2021fc	0.03909491
122	0x3d18ed17	0.03733548
123	0x3d46818c	0.04846339
124	0x3bd1dc9d	0.006404473
125	0x3c628585	0.013825779
126	0x3bc615d2	0.0060450817
127	0x3cec697b	0.02885889
128	0xbd293e58	-0.04131922
129	0x3c6e4f33	0.01454525
130	0xbbc054f4	-0.005869502
131	0xbb437c7b	-0.0029828835
132	0x3c43d3ee	0.011952383
133	0x3b896629	0.0041930866
134	0x3d185e08	0.03719905
135	0xbcb4ceb2	-0.022071216
136	0x3c78a5ea	0.015176276
137	0x3c3cb592	0.011517899
138	0x3d6cfb8a	0.057857074
139	0x3b4538d8	0.0030093696
140	0x3d0d72e9	0.034533415
141	0x3cdc88fb	0.026920786
142	0x3ab56ce2	0.0013841654
143	0x3c211541	0.0098317275
144	0x3d2bd937	0.0419552
145	0x3b29d7ce	0.0025915983
146	0xbc01b041	-0.007915557
147	0x3d856d00	0.06514931
148	0x3c568931	0.013094232
149	0x3d693dbb	0.056943636
150	0x3bf4b0bd	0.007467358
151	0x3d908601	0.07056809
152	0x3c9aba1a	0.018887568
153	0xbc0c3832	-0.00855832
154	0x3d825c10	0.06365216
155	0x3cd5327b	0.026025048
156	0x3d203f09	0.039122615
157	0x3cee3549	0.029078143
158	0x3d3a10bc	0.045426115
159	0x3d2139e6	0.039361857
160	0x3cbc47a3	0.022983378
161	0x3d3f5e60	0.046720862
162	0x3aa758be	0.0012767536
163	0x3c61ad02	0.013774158
164	0x3ca93df0	0.020659417
165	0x3d897c2e	0.067131385
166	0x3cc423dc	0.02394288
167	0x3c786882	0.015161635
168	0x3cc2a5cd	0.0237607
169	0x3c7d5fd3	0.015464741
170	0x3ca0d18f	0.019631175
171	0x3cb26c3f	0.021780131
172	0x3bcde9e6	0.0062839864
173	0x3c3660c3	0.011131468
174	0x3d64655a	0.05576072
175	0x3c0e39a9	0.008680739
176	0x3bf3753e	0.007429748
177	0xbc5563d4	-0.013024289
178	0x3cb333a5	0.021875212
179	0xbcfcab62	-0.03084344
180	0xbc1ed528	-0.009694375
181	0xbcc46835	-0.023975471
182	0xbcd722f8	-0.026261792
183	0x3ca71693	0.020396506
184	0x3ca24ede	0.019812997
185	0xbc61e8a1	-0.013788373
186	0xbd156e75	-0.036482293
187	0x3cf85bb7	0.03031717
188	0x3cb04e77	0.02152179
189	0x3d1acfca	0.03779582
190	0x3d7cb616	0.06169709
191	0xbb17f0d7	-0.0023184323
192	0x3d1c1b76	0.038112126
193	0x3aa3d9e8	0.0012500854
194	0x3d125a7d	0.035730828
195	0x3d406a39	0.0469763
196	0x3d917372	0.071020976
197	0x3d83d9f9	0.06438059
198	0x3c680b23	0.014162811
199	0x3cf8b0f9	0.030357825
200	0xba6bafe5	-0.0008990749
201	0xbcb78021	-0.022399964
202	0x3bb03b91	0.0053781946
203	0x3d2fb083	0.042892944
204	0x3d82d238	0.06387752
205	0x3d60b2e3	0.0548581
206	0x3cf5ca28	0.030003622
207	0x3d959c23	0.07305171
208	0xbd16bf52	-0.03680355
209	0xbd021d44	-0.03176619
210	0xbd1f078f	-0.038825568
211	0x3d42882e	0.047493152
212	0x3c11b2d5	0.008892735
213	0x3bc27418	0.0059342496
214	0x3d043a24	0.03228201
215	0x3d4930f5	0.049118955
216	0xbce26909	-0.027637975
217	0xbd32c2bb	-0.04364274
218	0xbd606b4d	-0.05478983
219	0xbc47ca00	-0.012194157
220	0x3cd5afdf	0.026084838
221	0x3d6b025c	0.057375297
222	0x3d1a5589	0.03767923
223	0xbca33614	-0.019923247
224	0xbd476134	-0.048676684
225	0x3c86ffa6	0.016479325
226	0x3c4eafb0	0.012615129
227	0xbb9ce30c	-0.0047878083
228	0xbca2f16c	-0.01989051
229	0x3d88c0c6	0.066773936
230	0x3cacb288	0.021081224
231	0x3d1bf111	0.038071696
232	0xbc87fe8a	-0.016600866
233	0xbd376f73	-0.04478402
234	0x3a9dccea	0.0012039219
235	0xbb53303c	-0.0032224795
236	0xbc668011	-0.014068619
237	0x3d180f86	0.03712418
238	0x3cc93ad3	0.024564182
239	0x3d77712c	0.060410663
240	0x37e80e51	2.7663222e-05
241	0x3c03c9f1	0.008043752
242	0xbd11960e	-0.035543494
243	0x3a9ba6ab	0.0011875232
244	0xbc89a49c	-0.016802125
245	0xbc1348fb	-0.008989568
246	0x3b591425	0.003312358
247	0x3ac99417	0.0015379217
248	0xbb828053	-0.0039825826
249	0x3c57d33d	0.013172922
250	0xbbc2ee5b	-0.0059488243
251	0xbcd49c51	-0.025953444
252	0xbd12a897	-0.03580531
253	0xbc19b615	-0.009381791
254	0x3d046444	0.032322183
255	0x3b51415b	0.0031929824

network_body.observation_encoder.processors.0.conv_layers.0.bias f4 [16]
0	0x3d42e8e2	0.047585376
1	0xbba490f8	-0.0050221644
2	0xbd1b38fd	-0.037896145
3	0x3ddb89f7	0.10719674
4	0xbd8191d2	-0.06326641
5	0xb92f4b02	-0.00016717243
6	0x3d9a14a5	0.07523469
7	0x3b04a109	0.0020237586
8	0xbd40da15	-0.04708298
9	0xbce1f525	-0.027582714
10	0xbd625bfe	-0.05526351
11	0xbd8a899b	-0.067645274
12	0xbd3b9fb9	-0.04580662
13	0xbce942f1	-0.028474303
14	0x3cd7e998	0.026356503
15	0x3d841e24	0.06451061

network_body.observation_encoder.processors.0.conv_layers.2.weight f4 [32, 16, 4, 4]
0	0x3ae66941	0.0017578976
1	0xbd40a322	-0.047030576
2	0xbcbaa766	-0.0227849
3	0xbe0cd128	-0.13751662
4	0xbcbb59eb	-0.022870025
5	0xbd1699f0	-0.0367679
6	0xbdd3a9cb	-0.1033512
7	0xbde224b8	-0.1104216
8	0xbc8af403	-0.016962057
9	0xbe097b15	-0.13425858
10	0xbd54abc0	-0.051921606
11	0xbd9e8ae2	-0.077413335
12	0xbdf6ed6b	-0.12057003
13	0xbdcfa7f7	-0.101394586
14	0xbd67b6d3	-0.05657084
15	0xbe2623ef	-0.16224645
16	0xbda98d35	-0.08278886
17	0xbd3aa468	-0.045566946
18	0xbdd983b8	-0.106208265
19	0xbda0bc60	-0.0784843
20	0xbd5f36c6	-0.054495595
21	0x3c3e79cf	0.011625721
22	0x3a6fb65d	0.0009144301
23	0x3b547037	0.0032415518
24	0xbe0f7510	-0.140095
25	0xbe2b6b52	-0.16740158
26	0xbe242b58	-0.1603216
27	0xbd2659cd	-0.040612984
28	0xbe4c0a99	-0.19925918
29	0xbe50a819	-0.20376624
30	0xbe3d5cf8	-0.18492496
31	0xbde8a93b	-0.11360403
32	0x3d31a5f5	0.04337116
33	0x3db82b1d	0.08992598
34	0xbce8fcb2	-0.028440807
35	0xbd7378f3	-0.059441518
36	0x3bab999f	0.005236819
37	0x3ca856a8	0.020549133
38	0x3d670ce2	0.05640877
39	0xbd0117e5	-0.03151693
40	0x3c687c4e	0.014189793
41	0xbdc4e748	-0.09614426
42	0xbe060e58	-0.13091409
43	0xbce28f23	-0.027656144
44	0xbd55c56b	-0.052190226
45	0x3c422add	0.01185104
46	0xbd458a7c	-0.048227772
47	0xbdb053fe	-0.0860977
48	0x3d5ec75f	0.054389354
49	0x3d9fe0d1	0.07806552
50	0x3cd9aa04	0.026570328
51	0xba829723	-0.0009963255
52	0x3dabd18d	0.08389578
53	0x3da12688	0.078686774
54	0x3d46d6f5	0.048544843
55	0xbdd4d713	-0.10392585
56	0x3df90d49	0.12160737
57	0xbd4384c7	-0.04773405
58	0x3cb77501	0.022394659
59	0xbdd455b2	-0.103679076
60	0xbd4ece73	-0.050489854
61	0xbdaad1e2	-0.08340813
62	0xbd49c805	-0.04926302
63	0xbd49c892	-0.049263544
64	0xbcc4ea2f	-0.024037449
65	0xbce16379	-0.027513253
66	0x3cd7ae55	0.026328245
67	0xbd6be376	-0.05758997
68	0xbd90ef8d	-0.07076941
69	0xbd2bacb0	-0.041912735
70	0xbc4e6e5c	-0.012599554
71	0xbd4415fe	-0.047872536
72	0xbdc93cb5	-0.09826032
73	0xbdd41c59	-0.103569694
74	0xbc20cff1	-0.009815202
75	0xbda57de9	-0.08080656
76	0xbd033750	-0.032035172
77	0xbe01df92	-0.12682942
78	0xbd0af6eb	-0.033926886
79	0xbd54c1ed	-0.051942755
80	0x3c217f19	0.009856963
81	0xbd44eec0	-0.048079252
82	0xbd86e580	-0.065867424
83	0xbd6629b0	-0.0561921
84	0xbd28536c	-0.041095182
85	0xbda215ca	-0.07914312
86	0xbd02dba8	-0.03194776
87	0xbd32b360	-0.043628097
88	0xbdf005a1	-0.11719824
89	0xbd90e523	-0.07074954
90	0xbd5e3a81	-0.054255012
91	0xbdbdec08	-0.09273535
92	0xbd314616	-0.04327973
93	0xbbc96977	-0.0061466056
94	0xbc11411b	-0.00886562
95	0xbd1a8603	-0.03772546
96	0x3dba7220	0.09103799
97	0x3bbfe314	0.0058559272
98	0x3d2c4f19	0.04206762
99	0xbd5e3b8f	-0.05425602
100	0xbd06df99	-0.032928083
101	0xbd23eda1	-0.040021542
102	0xbcd78917	-0.026310487
103	0x3d2fb7ef	0.042900022
104	0x3d5c3796	0.05376395
105	0xbcfd4ab5	-0.030919412
106	0xba1569c2	-0.0005699658
107	0x3d5d5719	0.05403814
108	0xbd365892	-0.04451806
109	0xbbb7dd8a	-0.0056111263
110	0x3d235da8	0.03988424
111	0xbbad3b37	-0.0052866
112	0xbb0cbf6a	-0.0021476396
113	0xbd77959d	-0.060445417
114	0xbd9e75b4	-0.07737294
115	0xbd9d78fc	-0.076890916
116	0xbd95e7d1	-0.07319606
117	0xbd1f85fa	-0.03894613
118	0xbd4d3ed6	-0.050108753
119	0xbd76364b	-0.06011037
120	0xbdddbde6	-0.10827236
121	0xbd582fea	-0.05278007
122	0xbde3add4	-0.111171395
123	0xbddde4cc	-0.10834655
124	0xbdd5dfca	-0.10443075
125	0xbd63379b	-0.05547295
126	0xbd0ea524	-0.03482546
127	0xbe0160a3	-0.1263452
128	0x3d0df617	0.034658518
129	0x3ddc35a7	0.10752421
130	0x3d355731	0.044272605
131	0x3db61869	0.088913746
132	0x3d6146b3	0.054999065
133	0x3c845e26	0.016158175
134	0x3dc4b316	0.096044704
135	0x3c4a384d	0.012342525
136	0x3d288352	0.04114086
137	0x3c26b6c8	0.010175414
138	0xba946058	-0.0011320217
139	0x3d0108da	0.031502582
140	0xbc8cf8a5	-0.017208407
141	0xbc45eec1	-0.012080849
142	0x3bdc42ac	0.006721815
143	0x3d88d35d	0.06680939
144	0xbcd9d798	-0.02659206
145	0x3b8a92b5	0.0042289146
146	0xbc419046	-0.011814183
147	0x3cc563b2	0.02409539
148	0x3bc67459	0.00605635
149	0xbd0c4dfe	-0.034254067
150	0xbd829088	-0.063752234
151	0x3cefef67	0.02928896
152	0x3d03aa2b	0.032144707
153	0xbd62b00e	-0.05534368
154	0xbd34c96a	-0.044137396
155	0xbc7d8fc5	-0.015476172
156	0xbd83096f	-0.06398284
157	0x3b83d538	0.0040232204
158	0xbd886e70	-0.06661689
159	0x3bd099b4	0.006365979
160	0xbd5f2fb3	-0.05448885
161	0x3d64005b	0.0556644
162	0x3b8e616a	0.0043451088
163	0xbd83bb85	-0.06432251
164	0x3a0d94a8	0.00054008747
165	0x3d3bb598	0.04582748
166	0x3d8459f6	0.06462471
167	0x3d2c8f62	0.042128928
168	0x3ce19d59	0.02754085
169	0xbd03ecf8	-0.032208413
170	0x3cdabd02	0.026701454
171	0x3cb5de5a	0.022200752
172	0xbd1c2a5f	-0.038126346
173	0x3d0a75a9	0.033803616
174	0x3d3ca857	0.04605898
175	0xbbf3aeab	-0.0074365935
176	0xbda85a1b	-0.08220311
177	0xbdafa22c	-0.08575854
178	0xbdae9884	-0.08525184
179	0xbe10ea23	-0.14151816
180	0xbc510489	-0.012757429
181	0x3d162d9b	0.036664587
182	0x3d308c79	0.043102715
183	0x3ca737a9	0.020412283
184	0x3b91d7a8	0.004450757
185	0xbd53f6d1	-0.051749054
186	0xbdcb619e	-0.099307284
187	0x3bae0357	0.0053104567
188	0xbd3c6b3e	-0.04600071
189	0xbde27232	-0.11056937
190	0xbd3790be	-0.04481577
191	0xbe058c68	-0.13041842
192	0xbd6f0eae	-0.05836361
193	0xbd747627	-0.05968299
194	0xbcfa4674	-0.030551173
195	0x3cf9a3de	0.030473646
196	0xbd76b389	-0.06022981
197	0xbd9db41b	-0.07700368
198	0x3cdfc203	0.027314192
199	0xbd29d422	-0.04146207
200	0xbd13fa7e	-0.03612756
201	0xbd8caec3	-0.06869271
202	0xbd8349bf	-0.0641055
203	0xbdc1e391	-0.09467233
204	0xbe0ecb22	-0.13944677
205	0xbdc99f41	-0.098448284
206	0xbd2c2de6	-0.04203596
207	0xbdf338a5	-0.118760385
208	0xbd3ac482	-0.04559756
209	0x3d83a6d1	0.06428302
210	0x3d8b4922	0.06801058
211	0xbd4162f4	-0.04721351
212	0x3cb3719f	0.021904765
213	0x3c958a02	0.018254284
214	0x3d26419c	0.040589914
215	0xba627945	-0.00086392864
216	0x3d9f72ff	0.07785606
217	0x3d845eea	0.06463416
218	0x3d7072c7	0.05870321
219	0x3c9cdb55	0.019147554
220	0x3d9d01b0	0.076663375
221	0xbd029165	-0.03187694
222	0xbd0a3529	-0.033742104
223	0x3d204cbd	0.039135683
224	0xbc0c0b1e	-0.008547572
225	0xbd963cca	-0.07335813
226	0xbd2c96cf	-0.04213601
227	0x3cec1122	0.028816763
228	0x3cf7d7c1	0.030254247
229	0x3d53fa3d	0.051752318
230	0x3d7ebc39	0.062191222
231	0x3b91e186	0.0044519333
232	0xbcaed614	-0.021342315
233	0xbd9d988f	-0.07695114
234	0xbc058a53	-0.008150655
235	0xbd597416	-0.053089224
236	0xbd65d80e	-0.05611425
237	0xbcf3dec0	-0.029769301
238	0xbd77e9dd	-0.060525764
239	0x3c23b476	0.009991756
240	0xbc97280e	-0.018451717
241	0xbd9ae03a	-0.07562299
242	0xbd8f49c3	-0.06996491
243	0xbdac1774	-0.08402911
244	0xbc7b4b0b	-0.015337716
245	0x3c813d7a	0.015776385
246	0xbdb47a80	-0.088124275
247	0xbdc31fe0	-0.09527564
248	0xbd0df5b8	-0.034658164
249	0xbda4a10c	-0.0803853
250	0xbd1ca88e	-0.038246684
251	0xbd064d43	-0.032788526
252	0xbdd5ef9e	-0.10446094
253	0xbbf22ac9	-0.0073903543
254	0xbdbf4fe5	-0.093414105
255	0xbd345d6b	-0.044034403

network_body.observation_encoder.processors.0.conv_layers.2.bias f4 [32]
0	0xbe161bcf	-0.14659046
1	0x3bd7d61b	0.0065868027
2	0xbd0f5748	-0.034995347
3	0xbcd935aa	-0.026514847
4	0x3cb58557	0.022158308
5	0xbdc8d537	-0.098062925
6	0xbc74a4ae	-0.014931841
7	0x3e07d05f	0.13263081
8	0xbe717034	-0.23577958
9	0x3dff34bc	0.1246123
10	0xbdd1a0d5	-0.102357544
11	0xbd02ad70	-0.031903684
12	0xbc4ef371	-0.012631283
13	0xbdb2b0c7	-0.08725124
14	0x3d6a90a9	0.057266865
15	0x3d9b901c	0.07595846
16	0xbd79179a	-0.060813524
17	0xbdd10674	-0.10206309
18	0x3d4b88d6	0.049691044
19	0xbd886197	-0.06659239
20	0xbe12b8c0	-0.14328289
21	0xbe13efb8	-0.14446914
22	0xbce14571	-0.027498933
23	0xbe03a9b6	-0.12857708
24	0xbe1eb5b1	-0.15498997
25	0xbe82c493	-0.255406
26	0xbdbf079a	-0.09327622
27	0x3cafa0fe	0.021439072
28	0xbd810519	-0.062998004
29	0xbe70cd16	-0.23515734
30	0xbe94baea	-0.29048854
31	0xbe17dfb7	-0.14831434

network_body.observation_encoder.processors.0.dense.0.weight f4 [30, 512]
0	0x3d99ace9	0.07503683
1	0x3c2ddcba	0.010611707
2	0x3c735b3e	0.014853297
3	0x3e369786	0.17831239
4	0xbd2d0ea9	-0.04225031
5	0x3dc5808c	0.09643659
6	0x3dcffc40	0.10155535
7	0x3dbb4cff	0.09145545
8	0x3d1fd5d1	0.03902227
9	0x3dd2c939	0.102922864
10	0x3dd4087e	0.10353182
11	0x3e000986	0.12503633
12	0xbd1ae5af	-0.0378167
13	0x3e31ba51	0.1735623
14	0x3e0cd2f1	0.13752343
15	0x3dc3b137	0.095552854
16	0xbdd381e1	-0.10327507
17	0xbcd70c05	-0.026250849
18	0xbd44f5f0	-0.048086107
19	0xbdfcf38d	-0.12351141
20	0xbe6e4cd7	-0.232715
21	0xbe0ae225	-0.1356283
22	0xbcbc3d0c	-0.022978328
23	0xbe1cb069	-0.1530167
24	0xbe232a2a	-0.15934053
25	0x3b2eca85	0.0026671004
26	0x3b91d85e	0.004450842
27	0x3c2d16a6	0.010564482
28	0xbdf7b9b1	-0.12095965
29	0xbd0f2df7	-0.034955945
30	0x3d39dead	0.045378376
31	0xbd9fcb59	-0.07802457
32	0x3d773a87	0.06035855
33	0x3d91a918	0.0711233
34	0x3cd071eb	0.025444945
35	0xbd6b0985	-0.057382125
36	0x3de0ee05	0.109828986
37	0xbd2d7380	-0.042346478
38	0x3dbca198	0.09210509
39	0xbd0ace30	-0.033888042
40	0x3d1b62e2	0.0379361
41	0xbccd8c67	-0.025091363
42	0x3e4615f8	0.19344318
43	0xbe0d87de	-0.1382136
44	0x3d2e14d8	0.042500347
45	0x3e0a7aa0	0.1352334
46	0x3da3df9a	0.08001633
47	0x3bd0852f	0.006363533
48	0xbd9cfe81	-0.0766573
49	0xbe1ee036	-0.15515217
50	0xbe622338	-0.22083747
51	0xbd969c4e	-0.073540315
52	0xbe12c99f	-0.14334725
53	0xbde9959b	-0.11405488
54	0xbdc1a7f8	-0.094558656
55	0xbd612665	-0.054968257
56	0xbdbd1de1	-0.092342146
57	0xbd996902	-0.07490732
58	0xbd80fa11	-0.062976964
59	0xbe469052	-0.19390991
60	0xbd1f2b6b	-0.038859766
61	0xbe4866e1	-0.19570495
62	0xbdc222d7	-0.094793014
63	0xbde7cfc2	-0.113189235
64	0x3e1cba86	0.15305528
65	0x3df4cc39	0.11953015
66	0x3da8e34c	0.082464784
67	0x3e463f6e	0.19360134
68	0xbc2c2eee	-0.010509236
69	0x3db80fcd	0.08987389
70	0x3e10aebd	0.14129157
71	0xbc1d2616	-0.0095916
72	0xbcca19f2	-0.024670575
73	0x3d7afcd0	0.061276257
74	0x3cc2bf28	0.023772791
75	0xbcdad657	-0.026713533
76	0x3d8ed45b	0.06974097
77	0x3dcd9598	0.10038298
78	0x3cd43d11	0.025908025
79	0xbc87cc10	-0.016576797
80	0x3e2647c4	0.16238314
81	0x3dfe6ae0	0.124227285
82	0x3da53784	0.080672294
83	0x3db62423	0.08893611
84	0x3e1b22cb	0.15149991
85	0x3df53915	0.11973778
86	0x3d504b67	0.05085316
87	0x3d9495a7	0.072551064
88	0xbc5b242e	-0.013375325
89	0x3d24ab93	0.04020269
90	0x3e260aa5	0.16214998
91	0xba5557a3	-0.0008138364
92	0x3d4c9c1a	0.049953558
93	0x3dd23eae	0.102658615
94	0xbcdcf3d3	-0.026971733
95	0xbd23c5b4	-0.039983466
96	0x3d38b783	0.045096885
97	0x3dcee81b	0.10102864
98	0xbdeca414	-0.11554733
99	0x3e10ac07	0.14128123
100	0x3d75162b	0.059835594
101	0x3e53ec5a	0.2069563
102	0x3a824b78	0.0009940704
103	0x3dbe3e61	0.092892416
104	0x3bba49f7	0.005685087
105	0xbd94d659	-0.07267446
106	0x3a8a302b	0.001054292
107	0xbdd8cd3f	-0.105860226
108	0x3d4f67f3	0.050636243
109	0x3c84eba6	0.016225647
110	0xbc815588	-0.015787855
111	0xbd9f8765	-0.07789496
112	0x3de3a586	0.111155555
113	0x3e692865	0.22769316
114	0x3df774b9	0.1208281
115	0x3d3997e0	0.045310855
116	0x3c2c31fe	0.010509966
117	0x3e1d0f93	0.15337972
118	0x3bf4982b	0.007464429
119	0xbe27d952	-0.16391495
120	0xbd4eb0a5	-0.05046143
121	0xbd140366	-0.036136054
122	0xba928052	-0.0011177158
123	0x3d86e3df	0.06586432
124	0x3c8672aa	0.016412098
125	0x3de86299	0.11346931
126	0x3cfa6eb2	0.030570362
127	0x3db7efc4	0.089812785
128	0x3d8b20b6	0.067933485
129	0x3dd914a1	0.10599638
130	0x3e46e9b4	0.19425088
131	0x3e30ba73	0.17258625
132	0x3e09222e	0.13391945
133	0x3d915d1f	0.070978396
134	0x3e22ff01	0.15917589
135	0x3e26a112	0.16272381
136	0x3c08e9f3	0.008356559
137	0x3e0368d8	0.12832963
138	0x3c3545f7	0.011064044
139	0x3d754039	0.0598757
140	0x3da9a2b6	0.08282988
141	0xbd335a33	-0.043787193
142	0xbd4f1698	-0.050558656
143	0x3da1e55a	0.079050735
144	0xbcda9929	-0.02668436
145	0xbd62db73	-0.055385064
146	0xbc451712	-0.012029426
147	0xbcead4ce	-0.028665926
148	0xbca72ee0	-0.020408094
149	0x3c9357ba	0.017986167
150	0xbdb0de88	-0.086361945
151	0xbd800c41	-0.06252337
152	0xbdbecdea	-0.09316619
153	0x3d1974ac	0.037464783
154	0xbc7528bd	-0.014963326
155	0xbda66380	-0.08124447
156	0xbdc84916	-0.09779565
157	0xbd8fc55a	-0.07020064
158	0xbd8fe56e	-0.07026182
159	0xbc706998	-0.014673613
160	0x3dd89f72	0.10577287
161	0x3d8d37eb	0.06895431
162	0x3e393e6b	0.18090217
163	0x3c624f7c	0.013812896
164	0x3e395132	0.1809738
165	0x3dcbcb42	0.09950878
166	0x3dd697aa	0.104781464
167	0x3da21e7b	0.0791597
168	0x3e639c42	0.22227576
169	0x3e44aef2	0.19207361
170	0x3ca84b7d	0.020543808
171	0x3e21984c	0.15780753
172	0x3dfb7528	0.12278205
173	0x3e7f8ede	0.24956843
174	0x3e264961	0.1623893
175	0x3e2b57e6	0.1673275
176	0x3e036a2c	0.1283347
177	0x39dafc31	0.00041768097
178	0x3d298baa	0.04139296
179	0x3df4796b	0.11937221
180	0xbd1e4aa1	-0.03864539
181	0x3d355c11	0.044277254
182	0x3de6d974	0.11271945
183	0x3d921c68	0.07134324
184	0xbc20f844	-0.009824816
185	0x3e06eec8	0.13177025
186	0xbdf19ff9	-0.117980905
187	0x3e1e9908	0.15488064
188	0x3d1b7696	0.03795489
189	0x3e25352a	0.16133562
190	0x3db47587	0.08811479
191	0xbe10ad74	-0.14128667
192	0x3dd4d189	0.10391528
193	0x3dc2d769	0.095137425
194	0x3d29f5e2	0.041494258
195	0x3dccf56e	0.100077495
196	0xbd83747d	-0.06418703
197	0x3c831564	0.01600141
198	0x38fdf186	0.00012108967
199	0x3cae8e8a	0.021308202
200	0x3de9b584	0.114115745
201	0x3e131655	0.14363988
202	0x3cfcc6ba	0.030856479
203	0x3e3658e1	0.17807342
204	0x3c5bb52f	0.013409897
205	0xbcbb08af	-0.02283129
206	0x3e23cafa	0.15995398
207	0x3d836471	0.06415642
208	0x3dcc6ec8	0.09982067
209	0xbdffd65d	-0.124920584
210	0x3b463ede	0.0030249874
211	0xbb9e9015	-0.0048389533
212	0x3d1f0622	0.038824208
213	0xbdb29723	-0.08720233
214	0xbcaf158b	-0.021372577
215	0xbda0f0b6	-0.07858412
216	0x3e3d117f	0.18463705
217	0x3cecd011	0.028907808
218	0x3ac6b04b	0.001515874
219	0xbc5df7e2	-0.013547869
220	0xbcb867e2	-0.022510473
221	0x3c15d2c4	0.009144489
222	0x3d88d93d	0.0668206
223	0xbd25a109	-0.04043678
224	0xbdc7dff6	-0.09759514
225	0xbc8a2eb2	-0.01686797
226	0xbe0d426f	-0.13794874
227	0xbc853d06	-0.01626445
228	0x3d9b00bc	0.075684994
229	0x3d9dcecb	0.07705458
230	0x3dbb7708	0.09153563
231	0xbdc14e9c	-0.09438822
232	0xbd7523ea	-0.059848703
233	0xbbfc7ea9	-0.0077055288
234	0xbd93d69d	-0.072186686
235	0xbddf15fa	-0.108928636
236	0xbd2a1070	-0.041519582
237	0xbd6149fe	-0.055002205
238	0xbd6c63ef	-0.05771249
239	0x3e1fcbe0	0.15605116
240	0x3e4f15fb	0.20223229
241	0x3e89f70f	0.26946303
242	0x3de3d5a1	0.11124731
243	0x3e48cb67	0.19608842
244	0x3e4baf73	0.19891147
245	0x3e64091c	0.222691
246	0x3e686331	0.22694089
247	0x3e2534b1	0.16133381
248	0x3e836cb6	0.25668877
249	0x3e25f5f3	0.16207103
250	0x3e04adb7	0.12956892
251	0x3e449c79	0.19200315
252	0x3d99eb49	0.0751558
253	0x3e56dfe5	0.20983846
254	0x3e3d3285	0.18476303
255	0x3e5f3bdb	0.21800177

network_body.observation_encoder.processors.0.dense.0.bias f4 [30]
0	0xbe74d8f8	-0.23910892
1	0x3d3cd049	0.046097074
2	0xbc61e515	-0.013787528
3	0xbe1c3cf1	-0.15257622
4	0xbd990387	-0.07471376
5	0xbbe754e3	-0.00705968
6	0xbe8326f1	-0.25615647
7	0xbe70a290	-0.23499513
8	0xbc8d0c4d	-0.01721778
9	0xbdd2dba9	-0.10295803
10	0xbd99aae7	-0.075033
11	0xbe7767d4	-0.24160701
12	0xbe55ac19	-0.20866431
13	0x3d748aab	0.059702557
14	0xbbc2e7e6	-0.0059480546
15	0x3d929667	0.07157593
16	0xbd8ce488	-0.068795264
17	0xbd79354b	-0.06084184
18	0xbe17f927	-0.14841138
19	0xbe96d8b9	-0.2946222
20	0xbdd47209	-0.10373313
21	0xbda71589	-0.081584044
22	0xbd8309bd	-0.06398342
23	0xbd3dae76	-0.046308957
24	0xbe19c96c	-0.15018243
25	0xbe529196	-0.20563349
26	0x3ce2bc90	0.027677804
27	0xbe467822	-0.19381765
28	0xbd56e8e2	-0.052468188
29	0xbcc2e08b	-0.023788711

network_body.processors.0.conv_layers.0.weight f4 [16, 9, 8, 8]
0	0xbc75c6b2	-0.015000986
1	0xbc80da3e	-0.015729066
2	0x3cc21239	0.02369033
3	0x3a9e75c3	0.0012089539
4	0x3c5fbf60	0.013656467
5	0x3d2ba24a	0.041902818
6	0xba59a8b2	-0.00083030306
7	0x3c3ce826	0.011529958
8	0xba7ff317	-0.0009763701
9	0x3d2027ae	0.03910034
10	0x3d28f214	0.04124649
11	0x3c85fb30	0.016355127
12	0x3d91c8b7	0.071183614
13	0x3d458a99	0.04822788
14	0x3d9a1dbd	0.075252034
15	0x3c884b06	0.016637336
16	0x3d671404	0.056415573
17	0x3c8f0a48	0.017460957
18	0x3d8c4ba6	0.06850366
19	0x3da29296	0.07938115
20	0x3d50a9b2	0.050943084
21	0x3d255d6b	0.040372293
22	0x3d460a05	0.0483494
23	0x3d93b112	0.07211508
24	0x3d02d6b5	0.03194304
25	0x3c5e663f	0.013574182
26	0x3cd914d1	0.026499184
27	0x3d901211	0.07034696
28	0x3d921984	0.07133773
29	0x3cca95ad	0.024729574
30	0x3d292dd5	0.041303474
31	0x3dbaad2e	0.09115063
32	0x3c3de5a7	0.011590398
33	0x3d69f1bc	0.0571153
34	0x3d82663c	0.06367156
35	0x3d020abf	0.03174853
36	0x3dacfa22	0.084461465
37	0x3dbcc768	0.09217721
38	0x3d1b177e	0.0378642
39	0x3ce94e54	0.028479733
40	0x3d5cf21f	0.053941842
41	0x3d76f570	0.06029266
42	0x3c877ca5	0.016538927
43	0x3d9b610c	0.075868696
44	0x3d879c1a	0.06621571
45	0x3d946020	0.07244897
46	0x3cb3a879	0.02193092
47	0x3ccf0eb7	0.025275571
48	0xbd0827a1	-0.033240918
49	0x3d61c6da	0.05512128
50	0xbb110f98	-0.0022134539
51	0xbb7eb011	-0.0038862268
52	0x3d45f3a0	0.048328042
53	0x3d9bbe95	0.0760471
54	0x3cd8ae1a	0.026450206
55	0x3d0d403e	0.034485094
56	0x3d3fd942	0.046838053
57	0x3c4efef1	0.012634025
58	0xbb42cb8c	-0.0029723374
59	0x3d0d1786	0.03444626
60	0x3d74239f	0.059604283
61	0x3d669e31	0.056303207
62	0x3d9b0478	0.07569212
63	0x3d3b8ea8	0.045790344
64	0xbc6a32e8	-0.014294364
65	0xbcaf08e3	-0.021366542
66	0x3d24d9bb	0.040246706
67	0xbc6c3594	-0.014417071
68	0x3cd22d78	0.025656447
69	0xbbe28710	-0.0069130734
70	0x3d2abc81	0.041683678
71	0x3d442d43	0.047894727
72	0xbaa56248	-0.0012617791
73	0x3c13b89f	0.009016185
74	0x3ce93894	0.028469361
75	0x3cd9891d	0.026554639
76	0x3ced40c1	0.028961541
77	0x3d5f7dfa	0.0545635
78	0xbc55b049	-0.013042518
79	0x3c002c73	0.0078230975
80	0x3d033023	0.03202833
81	0x3adfbda6	0.001707007
82	0x3d164707	0.03668883
83	0x3d3625f5	0.044469792
84	0x3d949c7c	0.072564095
85	0x3d1b4cd2	0.03791506
86	0x3b27b889	0.002559217
87	0x3c2005c1	0.009766997
88	0x3d3a7d09	0.0455294
89	0x3c232974	0.009958614
90	0x3c8c6ccc	0.017141722
91	0x3d3c8034	0.0460207
92	0x3c86344c	0.016382359
93	0x3d95c66e	0.07313238
94	0x3c7ee095	0.015556474
95	0x3c10a2e4	0.008827899
96	0x3ced5e9f	0.028975783
97	0x3b2b48cc	0.002613592
98	0x3d1f2a6c	0.038858816
99	0x3d390264	0.045168296
100	0x3d41beec	0.047301218
101	0x3d8396e7	0.06425267
102	0x3d1dcf65	0.038527865
103	0x3d26ee3e	0.04075455
104	0x3d1667d7	0.036720123
105	0x3c6908ce	0.014223291
106	0x3a42cd33	0.000743109
107	0x3d3c1619	0.04591951
108	0x3d221694	0.039572313
109	0x3d52a1d1	0.05142385
110	0x3cd1fd3b	0.025633445
111	0x3d1fff4f	0.03906184
112	0x3b1be7fa	0.0023789392
113	0x3bf82574	0.007572824
114	0x3c0a2d3c	0.008433636
115	0x3cd9d91f	0.02659279
116	0xbcde1fc5	-0.027114758
117	0x3cef7fa1	0.029235663
118	0x3cfc37bb	0.030788293
119	0xbc032013	-0.008003253
120	0x3cfc7925	0.030819485
121	0x3d2021fc	0.03909491
122	0x3d18ed17	0.03733548
123	0x3d46818c	0.04846339
124	0x3bd1dc9d	0.006404473
125	0x3c628585	0.013825779
126	0x3bc615d2	0.0060450817
127	0x3cec697b	0.02885889
128	0xbd293e58	-0.04131922
129	0x3c6e4f33	0.01454525
130	0xbbc054f4	-0.005869502
131	0xbb437c7b	-0.0029828835
132	0x3c43d3ee	0.011952383
133	0x3b896629	0.0041930866
134	0x3d185e08	0.03719905
135	0xbcb4ceb2	-0.022071216
136	0x3c78a5ea	0.015176276
137	0x3c3cb592	0.011517899
138	0x3d6cfb8a	0.057857074
139	0x3b4538d8	0.0030093696
140	0x3d0d72e9	0.034533415
141	0x3cdc88fb	0.026920786
142	0x3ab56ce2	0.0013841654
143	0x3c211541	0.0098317275
144	0x3d2bd937	0.0419552
145	0x3b29d7ce	0.0025915983
146	0xbc01b041	-0.007915557
147	0x3d856d00	0.06514931
148	0x3c568931	0.013094232
149	0x3d693dbb	0.056943636
150	0x3bf4b0bd	0.007467358
151	0x3d908601	0.07056809
152	0x3c9aba1a	0.018887568
153	0xbc0c3832	-0.00855832
154	0x3d825c10	0.06365216
155	0x3cd5327b	0.026025048
156	0x3d203f09	0.039122615
157	0x3cee3549	0.029078143
158	0x3d3a10bc	0.045426115
159	0x3d2139e6	0.039361857
160	0x3cbc47a3	0.022983378
161	0x3d3f5e60	0.046720862
162	0x3aa758be	0.0012767536
163	0x3c61ad02	0.013774158
164	0x3ca93df0	0.020659417
165	0x3d897c2e	0.067131385
166	0x3cc423dc	0.02394288
167	0x3c786882	0.015161635
168	0x3cc2a5cd	0.0237607
169	0x3c7d5fd3	0.015464741
170	0x3ca0d18f	0.019631175
171	0x3cb26c3f	0.021780131
172	0x3bcde9e6	0.0062839864
173	0x3c3660c3	0.011131468
174	0x3d64655a	0.05576072
175	0x3c0e39a9	0.008680739
176	0x3bf3753e	0.007429748
177	0xbc5563d4	-0.013024289
178	0x3cb333a5	0.021875212
179	0xbcfcab62	-0.03084344
180	0xbc1ed528	-0.009694375
181	0xbcc46835	-0.023975471
182	0xbcd722f8	-0.026261792
183	0x3ca71693	0.020396506
184	0x3ca24ede	0.019812997
185	0xbc61e8a1	-0.013788373
186	0xbd156e75	-0.036482293
187	0x3cf85bb7	0.03031717
188	0x3cb04e77	0.02152179
189	0x3d1acfca	0.03779582
190	0x3d7cb616	0.06169709
191	0xbb17f0d7	-0.0023184323
192	0x3d1c1b76	0.038112126
193	0x3aa3d9e8	0.0012500854
194	0x3d125a7d	0.035730828
195	0x3d406a39	0.0469763
196	0x3d917372	0.071020976
197	0x3d83d9f9	0.06438059
198	0x3c680b23	0.014162811
199	0x3cf8b0f9	0.030357825
200	0xba6bafe5	-0.0008990749
201	0xbcb78021	-0.022399964
202	0x3bb03b91	0.0053781946
203	0x3d2fb083	0.042892944
204	0x3d82d238	0.06387752
205	0x3d60b2e3	0.0548581
206	0x3cf5ca28	0.030003622
207	0x3d959c23	0.07305171
208	0xbd16bf52	-0.03680355
209	0xbd021d44	-0.03176619
210	0xbd1f078f	-0.038825568
211	0x3d42882e	0.047493152
212	0x3c11b2d5	0.008892735
213	0x3bc27418	0.0059342496
214	0x3d043a24	0.03228201
215	0x3d4930f5	0.049118955
216	0xbce26909	-0.027637975
217	0xbd32c2bb	-0.04364274
218	0xbd606b4d	-0.05478983
219	0xbc47ca00	-0.012194157
220	0x3cd5afdf	0.026084838
221	0x3d6b025c	0.057375297
222	0x3d1a5589	0.03767923
223	0xbca33614	-0.019923247
224	0xbd476134	-0.048676684
225	0x3c86ffa6	0.016479325
226	0x3c4eafb0	0.012615129
227	0xbb9ce30c	-0.0047878083
228	0xbca2f16c	-0.01989051
229	0x3d88c0c6	0.066773936
230	0x3cacb288	0.021081224
231	0x3d1bf111	0.038071696
232	0xbc87fe8a	-0.016600866
233	0xbd376f73	-0.04478402
234	0x3a9dccea	0.0012039219
235	0xbb53303c	-0.0032224795
236	0xbc668011	-0.014068619
237	0x3d180f86	0.03712418
238	0x3cc93ad3	0.024564182
239	0x3d77712c	0.060410663
240	0x37e80e51	2.7663222e-05
241	0x3c03c9f1	0.008043752
242	0xbd11960e	-0.035543494
243	0x3a9ba6ab	0.0011875232
244	0xbc89a49c	-0.016802125
245	0xbc1348fb	-0.008989568
246	0x3b591425	0.003312358
247	0x3ac99417	0.0015379217
248	0xbb828053	-0.0039825826
249	0x3c57d33d	0.013172922
250	0xbbc2ee5b	-0.0059488243
251	0xbcd49c51	-0.025953444
252	0xbd12a897	-0.03580531
253	0xbc19b615	-0.009381791
254	0x3d046444	0.032322183
255	0x3b51415b	0.0031929824

network_body.processors.0.conv_layers.0.bias f4 [16]
0	0x3d42e8e2	0.047585376
1	0xbba490f8	-0.0050221644
2	0xbd1b38fd	-0.037896145
3	0x3ddb89f7	0.10719674
4	0xbd8191d2	-0.06326641
5	0xb92f4b02	-0.00016717243
6	0x3d9a14a5	0.07523469
7	0x3b04a109	0.0020237586
8	0xbd40da15	-0.04708298
9	0xbce1f525	-0.027582714
10	0xbd625bfe	-0.05526351
11	0xbd8a899b	-0.067645274
12	0xbd3b9fb9	-0.04580662
13	0xbce942f1	-0.028474303
14	0x3cd7e998	0.026356503
15	0x3d841e24	0.06451061

network_body.processors.0.conv_layers.2.weight f4 [32, 16, 4, 4]
0	0x3ae66941	0.0017578976
1	0xbd40a322	-0.047030576
2	0xbcbaa766	-0.0227849
3	0xbe0cd128	-0.13751662
4	0xbcbb59eb	-0.022870025
5	0xbd1699f0	-0.0367679
6	0xbdd3a9cb	-0.1033512
7	0xbde224b8	-0.1104216
8	0xbc8af403	-0.016962057
9	0xbe097b15	-0.13425858
10	0xbd54abc0	-0.051921606
11	0xbd9e8ae2	-0.077413335
12	0xbdf6ed6b	-0.12057003
13	0xbdcfa7f7	-0.101394586
14	0xbd67b6d3	-0.05657084
15	0xbe2623ef	-0.16224645
16	0xbda98d35	-0.08278886
17	0xbd3aa468	-0.045566946
18	0xbdd983b8	-0.106208265
19	0xbda0bc60	-0.0784843
20	0xbd5f36c6	-0.054495595
21	0x3c3e79cf	0.011625721
22	0x3a6fb65d	0.0009144301
23	0x3b547037	0.0032415518
24	0xbe0f7510	-0.140095
25	0xbe2b6b52	-0.16740158
26	0xbe242b58	-0.1603216
27	0xbd2659cd	-0.040612984
28	0xbe4c0a99	-0.19925918
29	0xbe50a819	-0.20376624
30	0xbe3d5cf8	-0.18492496
31	0xbde8a93b	-0.11360403
32	0x3d31a5f5	0.04337116
33	0x3db82b1d	0.08992598
34	0xbce8fcb2	-0.028440807
35	0xbd7378f3	-0.059441518
36	0x3bab999f	0.005236819
37	0x3ca856a8	0.020549133
38	0x3d670ce2	0.05640877
39	0xbd0117e5	-0.03151693
40	0x3c687c4e	0.014189793
41	0xbdc4e748	-0.09614426
42	0xbe060e58	-0.13091409
43	0xbce28f23	-0.027656144
44	0xbd55c56b	-0.052190226
45	0x3c422add	0.01185104
46	0xbd458a7c	-0.048227772
47	0xbdb053fe	-0.0860977
48	0x3d5ec75f	0.054389354
49	0x3d9fe0d1	0.07806552
50	0x3cd9aa04	0.026570328
51	0xba829723	-0.0009963255
52	0x3dabd18d	0.08389578
53	0x3da12688	0.078686774
54	0x3d46d6f5	0.048544843
55	0xbdd4d713	-0.10392585
56	0x3df90d49	0.12160737
57	0xbd4384c7	-0.04773405
58	0x3cb77501	0.022394659
59	0xbdd455b2	-0.103679076
60	0xbd4ece73	-0.050489854
61	0xbdaad1e2	-0.08340813
62	0xbd49c805	-0.04926302
63	0xbd49c892	-0.049263544
64	0xbcc4ea2f	-0.024037449
65	0xbce16379	-0.027513253
66	0x3cd7ae55	0.026328245
67	0xbd6be376	-0.05758997
68	0xbd90ef8d	-0.07076941
69	0xbd2bacb0	-0.041912735
70	0xbc4e6e5c	-0.012599554
71	0xbd4415fe	-0.047872536
72	0xbdc93cb5	-0.09826032
73	0xbdd41c59	-0.103569694
74	0xbc20cff1	-0.009815202
75	0xbda57de9	-0.08080656
76	0xbd033750	-0.032035172
77	0xbe01df92	-0.12682942
78	0xbd0af6eb	-0.033926886
79	0xbd54c1ed	-0.051942755
80	0x3c217f19	0.009856963
81	0xbd44eec0	-0.048079252
82	0xbd86e580	-0.065867424
83	0xbd6629b0	-0.0561921
84	0xbd28536c	-0.041095182
85	0xbda215ca	-0.07914312
86	0xbd02dba8	-0.03194776
87	0xbd32b360	-0.043628097
88	0xbdf005a1	-0.11719824
89	0xbd90e523	-0.07074954
90	0xbd5e3a81	-0.054255012
91	0xbdbdec08	-0.09273535
92	0xbd314616	-0.04327973
93	0xbbc96977	-0.0061466056
94	0xbc11411b	-0.00886562
95	0xbd1a8603	-0.03772546
96	0x3dba7220	0.09103799
97	0x3bbfe314	0.0058559272
98	0x3d2c4f19	0.04206762
99	0xbd5e3b8f	-0.05425602
100	0xbd06df99	-0.032928083
101	0xbd23eda1	-0.040021542
102	0xbcd78917	-0.026310487
103	0x3d2fb7ef	0.042900022
104	0x3d5c3796	0.05376395
105	0xbcfd4ab5	-0.030919412
106	0xba1569c2	-0.0005699658
107	0x3d5d5719	0.05403814
108	0xbd365892	-0.04451806
109	0xbbb7dd8a	-0.0056111263
110	0x3d235da8	0.03988424
111	0xbbad3b37	-0.0052866
112	0xbb0cbf6a	-0.0021476396
113	0xbd77959d	-0.060445417
114	0xbd9e75b4	-0.07737294
115	0xbd9d78fc	-0.076890916
116	0xbd95e7d1	-0.07319606
117	0xbd1f85fa	-0.03894613
118	0xbd4d3ed6	-0.050108753
119	0xbd76364b	-0.06011037
120	0xbdddbde6	-0.10827236
121	0xbd582fea	-0.05278007
122	0xbde3add4	-0.111171395
123	0xbddde4cc	-0.10834655
124	0xbdd5dfca	-0.10443075
125	0xbd63379b	-0.05547295
126	0xbd0ea524	-0.03482546
127	0xbe0160a3	-0.1263452
128	0x3d0df617	0.034658518
129	0x3ddc35a7	0.10752421
130	0x3d355731	0.044272605
131	0x3db61869	0.088913746
132	0x3d6146b3	0.054999065
133	0x3c845e26	0.016158175
134	0x3dc4b316	0.096044704
135	0x3c4a384d	0.012342525
136	0x3d288352	0.04114086
137	0x3c26b6c8	0.010175414
138	0xba946058	-0.0011320217
139	0x3d0108da	0.031502582
140	0xbc8cf8a5	-0.017208407
141	0xbc45eec1	-0.012080849
142	0x3bdc42ac	0.006721815
143	0x3d88d35d	0.06680939
144	0xbcd9d798	-0.02659206
145	0x3b8a92b5	0.0042289146
146	0xbc419046	-0.011814183
147	0x3cc563b2	0.02409539
148	0x3bc67459	0.00605635
149	0xbd0c4dfe	-0.034254067
150	0xbd829088	-0.063752234
151	0x3cefef67	0.02928896
152	0x3d03aa2b	0.032144707
153	0xbd62b00e	-0.05534368
154	0xbd34c96a	-0.044137396
155	0xbc7d8fc5	-0.015476172
156	0xbd83096f	-0.06398284
157	0x3b83d538	0.0040232204
158	0xbd886e70	-0.06661689
159	0x3bd099b4	0.006365979
160	0xbd5f2fb3	-0.05448885
161	0x3d64005b	0.0556644
162	0x3b8e616a	0.0043451088
163	0xbd83bb85	-0.06432251
164	0x3a0d94a8	0.00054008747
165	0x3d3bb598	0.04582748
166	0x3d8459f6	0.06462471
167	0x3d2c8f62	0.042128928
168	0x3ce19d59	0.02754085
169	0xbd03ecf8	-0.032208413
170	0x3cdabd02	0.026701454
171	0x3cb5de5a	0.022200752
172	0xbd1c2a5f	-0.038126346
173	0x3d0a75a9	0.033803616
174	0x3d3ca857	0.04605898
175	0xbbf3aeab	-0.0074365935
176	0xbda85a1b	-0.08220311
177	0xbdafa22c	-0.08575854
178	0xbdae9884	-0.08525184
179	0xbe10ea23	-0.14151816
180	0xbc510489	-0.012757429
181	0x3d162d9b	0.036664587
182	0x3d308c79	0.043102715
183	0x3ca737a9	0.020412283
184	0x3b91d7a8	0.004450757
185	0xbd53f6d1	-0.051749054
186	0xbdcb619e	-0.099307284
187	0x3bae0357	0.0053104567
188	0xbd3c6b3e	-0.04600071
189	0xbde27232	-0.11056937
190	0xbd3790be	-0.04481577
191	0xbe058c68	-0.13041842
192	0xbd6f0eae	-0.05836361
193	0xbd747627	-0.05968299
194	0xbcfa4674	-0.030551173
195	0x3cf9a3de	0.030473646
196	0xbd76b389	-0.06022981
197	0xbd9db41b	-0.07700368
198	0x3cdfc203	0.027314192
199	0xbd29d422	-0.04146207
200	0xbd13fa7e	-0.03612756
201	0xbd8caec3	-0.06869271
202	0xbd8349bf	-0.0641055
203	0xbdc1e391	-0.09467233
204	0xbe0ecb22	-0.13944677
205	0xbdc99f41	-0.098448284
206	0xbd2c2de6	-0.04203596
207	0xbdf338a5	-0.118760385
208	0xbd3ac482	-0.04559756
209	0x3d83a6d1	0.06428302
210	0x3d8b4922	0.06801058
211	0xbd4162f4	-0.04721351
212	0x3cb3719f	0.021904765
213	0x3c958a02	0.018254284
214	0x3d26419c	0.040589914
215	0xba627945	-0.00086392864
216	0x3d9f72ff	0.07785606
217	0x3d845eea	0.06463416
218	0x3d7072c7	0.05870321
219	0x3c9cdb55	0.019147554
220	0x3d9d01b0	0.076663375
221	0xbd029165	-0.03187694
222	0xbd0a3529	-0.033742104
223	0x3d204cbd	0.039135683
224	0xbc0c0b1e	-0.008547572
225	0xbd963cca	-0.07335813
226	0xbd2c96cf	-0.04213601
227	0x3cec1122	0.028816763
228	0x3cf7d7c1	0.030254247
229	0x3d53fa3d	0.051752318
230	0x3d7ebc39	0.062191222
231	0x3b91e186	0.0044519333
232	0xbcaed614	-0.021342315
233	0xbd9d988f	-0.07695114
234	0xbc058a53	-0.008150655
235	0xbd597416	-0.053089224
236	0xbd65d80e	-0.05611425
237	0xbcf3dec0	-0.029769301
238	0xbd77e9dd	-0.060525764
239	0x3c23b476	0.009991756
240	0xbc97280e	-0.018451717
241	0xbd9ae03a	-0.07562299
242	0xbd8f49c3	-0.06996491
243	0xbdac1774	-0.08402911
244	0xbc7b4b0b	-0.015337716
245	0x3c813d7a	0.015776385
246	0xbdb47a80	-0.088124275
247	0xbdc31fe0	-0.09527564
248	0xbd0df5b8	-0.034658164
249	0xbda4a10c	-0.0803853
250	0xbd1ca88e	-0.038246684
251	0xbd064d43	-0.032788526
252	0xbdd5ef9e	-0.10446094
253	0xbbf22ac9	-0.0073903543
254	0xbdbf4fe5	-0.093414105
255	0xbd345d6b	-0.044034403

network_body.processors.0.conv_layers.2.bias f4 [32]
0	0xbe161bcf	-0.14659046
1	0x3bd7d61b	0.0065868027
2	0xbd0f5748	-0.034995347
3	0xbcd935aa	-0.026514847
4	0x3cb58557	0.022158308
5	0xbdc8d537	-0.098062925
6	0xbc74a4ae	-0.014931841
7	0x3e07d05f	0.13263081
8	0xbe717034	-0.23577958
9	0x3dff34bc	0.1246123
10	0xbdd1a0d5	-0.102357544
11	0xbd02ad70	-0.031903684
12	0xbc4ef371	-0.012631283
13	0xbdb2b0c7	-0.08725124
14	0x3d6a90a9	0.057266865
15	0x3d9b901c	0.07595846
16	0xbd79179a	-0.060813524
17	0xbdd10674	-0.10206309
18	0x3d4b88d6	0.049691044
19	0xbd886197	-0.06659239
20	0xbe12b8c0	-0.14328289
21	0xbe13efb8	-0.14446914
22	0xbce14571	-0.027498933
23	0xbe03a9b6	-0.12857708
24	0xbe1eb5b1	-0.15498997
25	0xbe82c493	-0.255406
26	0xbdbf079a	-0.09327622
27	0x3cafa0fe	0.021439072
28	0xbd810519	-0.062998004
29	0xbe70cd16	-0.23515734
30	0xbe94baea	-0.29048854
31	0xbe17dfb7	-0.14831434

network_body.processors.0.dense.0.weight f4 [30, 512]
0	0x3d99ace9	0.07503683
1	0x3c2ddcba	0.010611707
2	0x3c735b3e	0.014853297
3	0x3e369786	0.17831239
4	0xbd2d0ea9	-0.04225031
5	0x3dc5808c	0.09643659
6	0x3dcffc40	0.10155535
7	0x3dbb4cff	0.09145545
8	0x3d1fd5d1	0.03902227
9	0x3dd2c939	0.102922864
10	0x3dd4087e	0.10353182
11	0x3e000986	0.12503633
12	0xbd1ae5af	-0.0378167
13	0x3e31ba51	0.1735623
14	0x3e0cd2f1	0.13752343
15	0x3dc3b137	0.095552854
16	0xbdd381e1	-0.10327507
17	0xbcd70c05	-0.026250849
18	0xbd44f5f0	-0.048086107
19	0xbdfcf38d	-0.12351141
20	0xbe6e4cd7	-0.232715
21	0xbe0ae225	-0.1356283
22	0xbcbc3d0c	-0.022978328
23	0xbe1cb069	-0.1530167
24	0xbe232a2a	-0.15934053
25	0x3b2eca85	0.0026671004
26	0x3b91d85e	0.004450842
27	0x3c2d16a6	0.010564482
28	0xbdf7b9b1	-0.12095965
29	0xbd0f2df7	-0.034955945
30	0x3d39dead	0.045378376
31	0xbd9fcb59	-0.07802457
32	0x3d773a87	0.06035855
33	0x3d91a918	0.0711233
34	0x3cd071eb	0.025444945
35	0xbd6b0985	-0.057382125
36	0x3de0ee05	0.109828986
37	0xbd2d7380	-0.042346478
38	0x3dbca198	0.09210509
39	0xbd0ace30	-0.033888042
40	0x3d1b62e2	0.0379361
41	0xbccd8c67	-0.025091363
42	0x3e4615f8	0.19344318
43	0xbe0d87de	-0.1382136
44	0x3d2e14d8	0.042500347
45	0x3e0a7aa0	0.1352334
46	0x3da3df9a	0.08001633
47	0x3bd0852f	0.006363533
48	0xbd9cfe81	-0.0766573
49	0xbe1ee036	-0.15515217
50	0xbe622338	-0.22083747
51	0xbd969c4e	-0.073540315
52	0xbe12c99f	-0.14334725
53	0xbde9959b	-0.11405488
54	0xbdc1a7f8	-0.094558656
55	0xbd612665	-0.054968257
56	0xbdbd1de1	-0.092342146
57	0xbd996902	-0.07490732
58	0xbd80fa11	-0.062976964
59	0xbe469052	-0.19390991
60	0xbd1f2b6b	-0.038859766
61	0xbe4866e1	-0.19570495
62	0xbdc222d7	-0.094793014
63	0xbde7cfc2	-0.113189235
64	0x3e1cba86	0.15305528
65	0x3df4cc39	0.11953015
66	0x3da8e34c	0.082464784
67	0x3e463f6e	0.19360134
68	0xbc2c2eee	-0.010509236
69	0x3db80fcd	0.08987389
70	0x3e10aebd	0.14129157
71	0xbc1d2616	-0.0095916
72	0xbcca19f2	-0.024670575
73	0x3d7afcd0	0.061276257
74	0x3cc2bf28	0.023772791
75	0xbcdad657	-0.026713533
76	0x3d8ed45b	0.06974097
77	0x3dcd9598	0.10038298
78	0x3cd43d11	0.025908025
79	0xbc87cc10	-0.016576797
80	0x3e2647c4	0.16238314
81	0x3dfe6ae0	0.124227285
82	0x3da53784	0.080672294
83	0x3db62423	0.08893611
84	0x3e1b22cb	0.15149991
85	0x3df53915	0.11973778
86	0x3d504b67	0.05085316
87	0x3d9495a7	0.072551064
88	0xbc5b242e	-0.013375325
89	0x3d24ab93	0.04020269
90	0x3e260aa5	0.16214998
91	0xba5557a3	-0.0008138364
92	0x3d4c9c1a	0.049953558
93	0x3dd23eae	0.102658615
94	0xbcdcf3d3	-0.026971733
95	0xbd23c5b4	-0.039983466
96	0x3d38b783	0.045096885
97	0x3dcee81b	0.10102864
98	0xbdeca414	-0.11554733
99	0x3e10ac07	0.14128123
100	0x3d75162b	0.059835594
101	0x3e53ec5a	0.2069563
102	0x3a824b78	0.0009940704
103	0x3dbe3e61	0.092892416
104	0x3bba49f7	0.005685087
105	0xbd94d659	-0.07267446
106	0x3a8a302b	0.001054292
107	0xbdd8cd3f	-0.105860226
108	0x3d4f67f3	0.050636243
109	0x3c84eba6	0.016225647
110	0xbc815588	-0.015787855
111	0xbd9f8765	-0.07789496
112	0x3de3a586	0.111155555
113	0x3e692865	0.22769316
114	0x3df774b9	0.1208281
115	0x3d3997e0	0.045310855
116	0x3c2c31fe	0.010509966
117	0x3e1d0f93	0.15337972
118	0x3bf4982b	0.007464429
119	0xbe27d952	-0.16391495
120	0xbd4eb0a5	-0.05046143
121	0xbd140366	-0.036136054
122	0xba928052	-0.0011177158
123	0x3d86e3df	0.06586432
124	0x3c8672aa	0.016412098
125	0x3de86299	0.11346931
126	0x3cfa6eb2	0.030570362
127	0x3db7efc4	0.089812785
128	0x3d8b20b6	0.067933485
129	0x3dd914a1	0.10599638
130	0x3e46e9b4	0.19425088
131	0x3e30ba73	0.17258625
132	0x3e09222e	0.13391945
133	0x3d915d1f	0.070978396
134	0x3e22ff01	0.15917589
135	0x3e26a112	0.16272381
136	0x3c08e9f3	0.008356559
137	0x3e0368d8	0.12832963
138	0x3c3545f7	0.011064044
139	0x3d754039	0.0598757
140	0x3da9a2b6	0.08282988
141	0xbd335a33	-0.043787193
142	0xbd4f1698	-0.050558656
143	0x3da1e55a	0.079050735
144	0xbcda9929	-0.02668436
145	0xbd62db73	-0.055385064
146	0xbc451712	-0.012029426
147	0xbcead4ce	-0.028665926
148	0xbca72ee0	-0.020408094
149	0x3c9357ba	0.017986167
150	0xbdb0de88	-0.086361945
151	0xbd800c41	-0.06252337
152	0xbdbecdea	-0.09316619
153	0x3d1974ac	0.037464783
154	0xbc7528bd	-0.014963326
155	0xbda66380	-0.08124447
156	0xbdc84916	-0.09779565
157	0xbd8fc55a	-0.07020064
158	0xbd8fe56e	-0.07026182
159	0xbc706998	-0.014673613
160	0x3dd89f72	0.10577287
161	0x3d8d37eb	0.06895431
162	0x3e393e6b	0.18090217
163	0x3c624f7c	0.013812896
164	0x3e395132	0.1809738
165	0x3dcbcb42	0.09950878
166	0x3dd697aa	0.104781464
167	0x3da21e7b	0.0791597
168	0x3e639c42	0.22227576
169	0x3e44aef2	0.19207361
170	0x3ca84b7d	0.020543808
171	0x3e21984c	0.15780753
172	0x3dfb7528	0.12278205
173	0x3e7f8ede	0.24956843
174	0x3e264961	0.1623893
175	0x3e2b57e6	0.1673275
176	0x3e036a2c	0.1283347
177	0x39dafc31	0.00041768097
178	0x3d298baa	0.04139296
179	0x3df4796b	0.11937221
180	0xbd1e4aa1	-0.03864539
181	0x3d355c11	0.044277254
182	0x3de6d974	0.11271945
183	0x3d921c68	0.07134324
184	0xbc20f844	-0.009824816
185	0x3e06eec8	0.13177025
186	0xbdf19ff9	-0.117980905
187	0x3e1e9908	0.15488064
188	0x3d1b7696	0.03795489
189	0x3e25352a	0.16133562
190	0x3db47587	0.08811479
191	0xbe10ad74	-0.14128667
192	0x3dd4d189	0.10391528
193	0x3dc2d769	0.095137425
194	0x3d29f5e2	0.041494258
195	0x3dccf56e	0.100077495
196	0xbd83747d	-0.06418703
197	0x3c831564	0.01600141
198	0x38fdf186	0.00012108967
199	0x3cae8e8a	0.021308202
200	0x3de9b584	0.114115745
201	0x3e131655	0.14363988
202	0x3cfcc6ba	0.030856479
203	0x3e3658e1	0.17807342
204	0x3c5bb52f	0.013409897
205	0xbcbb08af	-0.02283129
206	0x3e23cafa	0.15995398
207	0x3d836471	0.06415642
208	0x3dcc6ec8	0.09982067
209	0xbdffd65d	-0.124920584
210	0x3b463ede	0.0030249874
211	0xbb9e9015	-0.0048389533
212	0x3d1f0622	0.038824208
213	0xbdb29723	-0.08720233
214	0xbcaf158b	-0.021372577
215	0xbda0f0b6	-0.07858412
216	0x3e3d117f	0.18463705
217	0x3cecd011	0.028907808
218	0x3ac6b04b	0.001515874
219	0xbc5df7e2	-0.013547869
220	0xbcb867e2	-0.022510473
221	0x3c15d2c4	0.009144489
222	0x3d88d93d	0.0668206
223	0xbd25a109	-0.04043678
224	0xbdc7dff6	-0.09759514
225	0xbc8a2eb2	-0.01686797
226	0xbe0d426f	-0.13794874
227	0xbc853d06	-0.01626445
228	0x3d9b00bc	0.075684994
229	0x3d9dcecb	0.07705458
230	0x3dbb7708	0.09153563
231	0xbdc14e9c	-0.09438822
232	0xbd7523ea	-0.059848703
233	0xbbfc7ea9	-0.0077055288
234	0xbd93d69d	-0.072186686
235	0xbddf15fa	-0.108928636
236	0xbd2a1070	-0.041519582
237	0xbd6149fe	-0.055002205
238	0xbd6c63ef	-0.05771249
239	0x3e1fcbe0	0.15605116
240	0x3e4f15fb	0.20223229
241	0x3e89f70f	0.26946303
242	0x3de3d5a1	0.11124731
243	0x3e48cb67	0.19608842
244	0x3e4baf73	0.19891147
245	0x3e64091c	0.222691
246	0x3e686331	0.22694089
247	0x3e2534b1	0.16133381
248	0x3e836cb6	0.25668877
249	0x3e25f5f3	0.16207103
250	0x3e04adb7	0.12956892
251	0x3e449c79	0.19200315
252	0x3d99eb49	0.0751558
253	0x3e56dfe5	0.20983846
254	0x3e3d3285	0.18476303
255	0x3e5f3bdb	0.21800177

network_body.processors.0.dense.0.bias f4 [30]
0	0xbe74d8f8	-0.23910892
1	0x3d3cd049	0.046097074
2	0xbc61e515	-0.013787528
3	0xbe1c3cf1	-0.15257622
4	0xbd990387	-0.07471376
5	0xbbe754e3	-0.00705968
6	0xbe8326f1	-0.25615647
7	0xbe70a290	-0.23499513
8	0xbc8d0c4d	-0.01721778
9	0xbdd2dba9	-0.10295803
10	0xbd99aae7	-0.075033
11	0xbe7767d4	-0.24160701
12	0xbe55ac19	-0.20866431
13	0x3d748aab	0.059702557
14	0xbbc2e7e6	-0.0059480546
15	0x3d929667	0.07157593
16	0xbd8ce488	-0.068795264
17	0xbd79354b	-0.06084184
18	0xbe17f927	-0.14841138
19	0xbe96d8b9	-0.2946222
20	0xbdd47209	-0.10373313
21	0xbda71589	-0.081584044
22	0xbd8309bd	-0.06398342
23	0xbd3dae76	-0.046308957
24	0xbe19c96c	-0.15018243
25	0xbe529196	-0.20563349
26	0x3ce2bc90	0.027677804
27	0xbe467822	-0.19381765
28	0xbd56e8e2	-0.052468188
29	0xbcc2e08b	-0.023788711
