Assets/ML-Agents/Training Files/results/9roads_cameraSensor_ppo_vehiclesAndChekpointsMasked_1layer_64_256/VehicleAgent/VehicleAgent-16499938.pt (torch, 838483 bytes, 72 tensors)

network_body.observation_encoder.processors.0.conv_layers.0.weight f4 [16, 9, 8, 8]
000000 ef 87 db b8 ec 79 3e 39 71 17 31 3d a4 d8 a4 3c
       -0.000104680534 0.00018165231 0.043235246 0.020122834
000010 84 53 08 3d d5 cc 74 3d b1 ac 9e 3c 47 61 f4 3c
       0.03328277 0.059765656 0.019369455 0.029831542
000020 31 7a 6d 3c 85 b1 64 3d 75 c7 6f 3d 7a 07 ff 3c
       0.014494465 0.05583336 0.058539826 0.031131495
000030 59 7f b4 3d 24 d5 8c 3d e4 46 c4 3d 82 34 03 3d
       0.08813352 0.06876591 0.09583834 0.032032497
000040 e2 31 8f 3d 64 03 e7 3c fd 3d 9c 3d 13 81 b7 3d
       0.06991936 0.028199859 0.07629011 0.08960166
000050 db 76 82 3d 8e 4e 69 3d 87 6e 80 3d 65 7a ad 3d
       0.06370326 0.05695968 0.062710814 0.084706105
000060 af 64 3b 3d 84 25 bd 3c b9 06 05 3d 60 c7 a1 3d
       0.045750316 0.023089178 0.032477114 0.07899356
000070 0f 66 ab 3d b7 2f 1a 3d dd dc 5c 3d 5d 26 d5 3d
       0.083690755 0.03764316 0.05392157 0.10407708
000080 e2 e3 81 3c 2d ec 7a 3d d2 b9 89 3d 02 ae 08 3d
       0.015855733 0.06126039 0.067248955 0.03336907
000090 f7 9e b3 3d 48 6d ca 3d 7a 92 3b 3d 52 ab 10 3d
       0.087705545 0.09884125 0.045793988 0.035319634
0000a0 6d bf 63 3d 49 4c 73 3d 4b db 7b 3c ee c8 9a 3d
       0.05560248 0.059398923 0.015372108 0.075578555
0000b0 65 16 86 3d 5b ce 96 3d 8a cb aa 3c cf 02 dd 3c
       0.0654724 0.07363578 0.020849008 0.026978878
0000c0 80 7a fb bc dd 90 5d 3d 6e 48 af bb 63 07 c5 bb
       -0.030698061 0.05409323 -0.0053492105 -0.0060128435
0000d0 0b b8 41 3d 74 6c 99 3d 3e 2d a9 3c ed e1 15 3d
       0.047294658 0.07491389 0.020651456 0.036592413
0000e0 8a 0d 5c 3d 73 3f 8d 3c 78 aa 1e bb 3b 14 0f 3d
       0.05372385 0.017242169 -0.0024210494 0.034931403
0000f0 8f 56 81 3d 56 a6 79 3d 1a f0 9c 3d 38 76 38 3d
       0.06315338 0.060949646 0.07662983 0.045034617
000100 92 a2 6a bb 70 97 19 bc 5d 93 62 3d e8 4b b1 b9
       -0.0035802466 -0.009374484 0.055316318 -0.00033816625
000110 bd 12 25 3d ed f4 e1 3b f7 bc 6c 3d ad 1d 82 3d
       0.040301073 0.0068956525 0.0577974 0.063533165
000120 f2 d3 47 3c 5a aa c1 3c b8 0d 31 3d b7 fb 1f 3d
       0.012196528 0.0236408 0.043225974 0.039058413
000130 18 74 2c 3d 30 65 8f 3d 4f 44 2e 3b bd 27 a7 3c
       0.042102903 0.07001722 0.0026591008 0.02040469
000140 26 09 37 3d 55 8b 43 3c 54 cb 34 3d 31 48 5a 3d
       0.04468646 0.011935075 0.04413922 0.053291503
000150 86 d7 aa 3d bb 23 52 3d 4c 34 5a 3c 40 b9 9d 3c
       0.08341889 0.051303606 0.013318133 0.019253373
000160 aa 03 68 3d 59 7e 89 3c ab cc a5 3c c7 9a 52 3d
       0.05664412 0.01678388 0.020239195 0.05141714
000170 2a 7f cb 3c 9a 61 a6 3d f5 f8 bc 3c bf 42 88 3c
       0.02484091 0.08124085 0.02306793 0.01663339
000180 b3 87 05 3d 02 b3 a9 3b 61 b9 25 3d bd 98 34 3d
       0.032600116 0.00517881 0.040459994 0.044090975
000190 69 fd 42 3d bc 15 89 3d 0f 05 27 3d 65 f2 29 3d
       0.047604952 0.06693599 0.04077631 0.04149093
0001a0 c1 04 21 3d 13 c0 5c 3c 9d 0f 43 ba 25 18 36 3d
       0.039311174 0.013473528 -0.0007440986 0.04445662
0001b0 0a 48 18 3d 86 fa 4f 3d f9 2a b9 3c e6 28 17 3d
       0.037178077 0.050776027 0.022603499 0.03690424
0001c0 4d 92 08 3c 23 90 1f 3c 59 fb 0c 3c a7 c9 db 3c
       0.008335662 0.009738955 0.008604848 0.026829554
0001d0 52 9e d8 bc 81 80 f2 3c b8 53 d8 3c 19 c2 de bb
       -0.02644268 0.029602291 0.026407108 -0.0067980406
0001e0 94 16 2f 3d d5 0f 41 3d 0a 0d 27 3d 41 be 53 3d
       0.04274614 0.04713424 0.04078392 0.051695112
0001f0 14 6e 51 3c 26 08 aa 3c e2 76 14 3c 54 b7 f9 3c
       0.012782592 0.020755839 0.009061547 0.030482925
000200 55 71 02 bd 48 9d d1 3c 40 30 03 3c 74 8e 20 3c
       -0.031846363 0.025587693 0.008007109 0.0097995885
000210 06 ba cd 3c 55 bc 82 3c 77 64 50 3d 34 32 1c bc
       0.025113117 0.015958944 0.05087706 -0.009533454
000220 ed e6 da 3c cc c7 c6 3c 96 50 91 3d 40 3a 69 3c
       0.026721442 0.024265192 0.07095449 0.014235079
000230 b0 a9 3c 3d 0f 05 26 3d 65 83 78 3c 08 a8 a0 3c
       0.046060264 0.040532168 0.015168046 0.019611374
000240 0a a1 57 3d bd 7f 2f 3c 29 53 1f bb 4e a7 93 3d
       0.052643813 0.0107116075 -0.0024311042 0.07209645
000250 94 f7 b4 3c 95 80 8b 3d f7 47 83 3c 87 f3 9e 3d
       0.02209071 0.068116345 0.016025526 0.07761293
000260 45 95 eb 3c f9 c8 44 bb 89 a8 86 3d 4a e4 f6 3c
       0.0287577 -0.0030027016 0.06575114 0.030138154
000270 b8 3f 3d 3d 4f f8 11 3d 64 76 52 3d 5d 21 39 3d
       0.046203345 0.035637196 0.051382437 0.045197833
000280 c7 2c cd 3c 11 23 45 3d 5d 7e f7 3a 91 e4 3e 3c
       0.025045766 0.048129145 0.0018882264 0.011651174
000290 63 2c a5 3c 9b 68 8c 3d 69 17 cc 3c 06 d8 73 3c
       0.020162767 0.068558894 0.024913507 0.014883047
0002a0 2d 2f c1 3c 04 36 4d 3c 0c bd 85 3c 87 11 99 3c
       0.023582065 0.012525085 0.016325496 0.018685116
0002b0 ed 9d 0d 3b e7 2f 0a 3c 3f 80 51 3d 1b 7f 9d 3b
       0.0021609024 0.008434272 0.051147696 0.004806412
0002c0 6c 0e 1d 3c 1d 04 6e bc 97 13 9b 3c 64 2b 08 bd
       0.009585958 -0.014527348 0.01893024 -0.033244506
0002d0 d4 02 3f bc 97 1a d6 bc 1d 06 07 bd cc 2d 9b 3c
       -0.011658389 -0.026135726 -0.032964814 0.018942736
0002e0 69 bd f0 3c c3 75 ff bb be 80 0e bd 54 6d 03 3d
       0.029387193 -0.0077960207 -0.034790747 0.032086685
0002f0 d1 e1 d7 3c 20 6d 30 3d ab 16 80 3d 0b b1 39 bb
       0.026352795 0.04307282 0.062543236 -0.0028334286
000300 a2 d1 37 3d 66 ab cc 3b 83 f5 20 3d 3a 61 4e 3d
       0.044877656 0.006246018 0.03929664 0.05038569
000310 fc c3 9f 3d 83 0b 95 3d 8b 34 b8 3c d2 1e 0f 3d
       0.07801053 0.07277586 0.022485992 0.034941502
000320 b8 37 04 3c 12 e7 5e bc 59 56 49 3c c3 b7 3e 3d
       0.008069925 -0.013604896 0.012288653 0.046561968
000330 83 15 90 3d 75 9c 82 3d 21 ec 19 3d c1 73 a0 3d
       0.07035353 0.06377498 0.037578706 0.07834578
000340 cf 69 f5 bc b2 a1 cf bc 93 81 02 bd d4 d3 42 3d
       -0.02995768 -0.025345657 -0.031861853 0.047565296
000350 28 4d 2b 3c 36 a5 ff 3b d1 39 1c 3d 11 cb 5a 3d
       0.010455407 0.007801677 0.038141076 0.053416315
000360 f2 57 91 bc f7 70 fe bc 40 5c 35 bd 6a fd fc bb
       -0.01774213 -0.031059725 -0.04427743 -0.007720639
000370 a7 45 ec 3c 8d b9 81 3d 25 34 37 3d 10 72 2d bc
       0.028841807 0.06334219 0.044727463 -0.010586277
000380 e7 72 18 bd ea 4f f2 3c ee 33 d4 3c fc 24 e7 3b
       -0.037218954 0.029579122 0.025903668 0.0070539694
000390 4e e4 80 bc 92 6b 92 3d d6 f0 eb 3c a4 7a 44 3d
       -0.015733864 0.07149424 0.028801363 0.04796852
0003a0 0e e7 a6 bb 69 ef 00 bd c6 06 59 3c 05 14 f8 3b
       -0.005093462 -0.03147832 0.013246244 0.007570746
0003b0 36 29 ce bb db ce 20 3d 99 ee ec 3c 42 20 89 3d
       -0.006291534 0.039259773 0.028922366 0.06695606
0003c0 64 1b 0b 3c 60 25 86 3c 29 c3 e0 bc 24 08 ae 3b
       0.008490417 0.016375244 -0.02743681 0.005311029
0003d0 49 3e 51 bc 95 09 9e bb 57 03 a3 3b 6c 53 c6 3b
       -0.012771198 -0.0048229196 0.0049747634 0.006052425
0003e0 f9 f4 e7 3b 87 27 d7 3c 77 41 a1 3b 1e 1d 9f bc
       0.0070787636 0.026263965 0.004921134 -0.019423064
0003f0 dc 83 03 bd 76 4f 18 3b 13 b0 22 3d 18 11 3f 3c
       -0.032108173 0.0023240722 0.0397187 0.01166179

network_body.observation_encoder.processors.0.conv_layers.0.bias f4 [16]
000000 12 a4 54 3d 27 7a 84 3a 5c 70 3a bd 33 74 b5 3d
       0.051914282 0.0010107205 -0.04551731 0.08860054
000010 3f 2c 97 bd d1 70 58 3a 66 d2 5a 3d f3 eb 17 3b
       -0.07381486 0.0008256557 0.053423308 0.0023181408
000020 cb 50 54 bd 8c f2 be bc 74 23 87 bd 1b 93 ae bd
       -0.051834863 -0.023309015 -0.06598559 -0.08524152
000030 15 ce 41 bd 91 f9 8b bc 47 0e c9 3c c2 4c 63 3d
       -0.047315676 -0.017086776 0.02454294 0.055493124

network_body.observation_encoder.processors.0.conv_layers.2.weight f4 [32, 16, 4, 4]
000000 da 67 02 3c 13 53 05 bd b4 fd 9f bc 23 62 e8 bd
       0.00795933 -0.03254993 -0.019530155 -0.11346843
000010 88 c7 9a ba 3b 4b c4 bc 48 73 8d bd 47 c7 9a bd
       -0.0011808733 -0.023961654 -0.06906754 -0.075575404
000020 01 84 fb bc 3e e7 0b be 27 27 70 bd a1 5d 9c bd
       -0.030702593 -0.1366243 -0.05863109 -0.07635046
000030 1b 06 03 be dc ab dd bd 18 70 84 bd 92 a3 1a be
       -0.12795298 -0.10823795 -0.06466693 -0.1510146
000040 f8 51 b6 bd d0 87 40 bd ae 5f e5 bd ba d9 9b bd
       -0.08902353 -0.04700452 -0.1119989 -0.076098874
000050 51 c6 41 bd 64 ea b3 3c 99 53 96 3c 25 76 c4 3c
       -0.04730827 0.021962352 0.01835041 0.023982117
000060 bb 32 21 be 6a c9 36 be 32 11 2c be c4 47 54 bd
       -0.15742008 -0.17850271 -0.16803434 -0.051826254
000070 79 07 63 be 08 69 5f be f9 01 4f be 74 86 fe bd
       -0.2217082 -0.2181741 -0.20215596 -0.12427989
000080 84 68 4b 3c bf e9 80 3d a8 e1 0a bd d3 1a 53 bd
       0.012415055 0.062945835 -0.03390661 -0.051539253
000090 c8 a1 8e 3c 53 9f b7 3c 37 8d 80 3d 30 eb 9d bc
       0.017411128 0.022414839 0.062769346 -0.019277185
0000a0 d9 6e ab 3b 5e 98 9e bd b2 13 e9 bd 93 f1 3f bc
       0.00523172 -0.077439055 -0.1138071 -0.011715311
0000b0 ba a5 a7 bd 35 a8 88 bc 94 69 ad bd 7e a9 d6 bd
       -0.08185907 -0.01668177 -0.08467403 -0.10481547
0000c0 d2 3f 43 3d 05 4f 9d 3d 60 96 e7 3c 30 af 14 bc
       0.047668286 0.076810874 0.028269947 -0.009074971
0000d0 bf 02 b2 3d 88 de a5 3d 99 d9 63 3d d5 ff c1 bd
       0.0869193 0.08099085 0.05562744 -0.09472624
0000e0 ad 1b ff 3d f2 68 34 bd 8d 7d 04 3d c7 ce ad bd
       0.124564506 -0.044045396 0.032346297 -0.08486705
0000f0 81 88 3e bd 54 24 9a bd dd f3 43 bd 57 61 0c bd
       -0.0465169 -0.0752646 -0.047839988 -0.034272518
000100 83 21 94 bc 57 9f bc bc 6a 2b d7 3c 11 00 71 bd
       -0.018082386 -0.023025198 0.026265819 -0.058837954
000110 30 b4 84 bd b5 2d dc bc 49 3d 33 3c b2 22 02 bd
       -0.064796805 -0.026877264 0.0109399045 -0.03177137
000120 d1 ce cc bd ea 4d da bd 05 26 b2 bc 7a bb d4 bd
       -0.100003846 -0.10659392 -0.021746645 -0.10387321
000130 a0 db 05 bd 53 3d 17 be 03 03 6f bd 66 6c 92 bd
       -0.032680154 -0.14769487 -0.05835248 -0.071495816
000140 66 e4 bf bb ee be 32 bd 66 0f 82 bd a7 b1 bd bd
       -0.0058560846 -0.043639116 -0.06350593 -0.092624
000150 d4 bb 71 bd eb ae a2 bd 63 48 0f bd 2a 02 20 bd
       -0.059017017 -0.07943519 -0.034981143 -0.039064564
000160 d6 e1 be bd e2 1f 98 bd 40 68 69 bd 66 08 de bd
       -0.093204185 -0.07427956 -0.056984186 -0.108414456
000170 0c 5e 42 bd 45 65 1f bd 5d 37 37 bd 63 82 6d bd
       -0.04745297 -0.038914938 -0.044730533 -0.057985675
000180 c6 c3 d0 3d 58 08 ec 3b 46 14 95 3d b9 ce 16 bd
       0.10193591 0.007203143 0.072792575 -0.03681824
000190 9b 1e 8c bc 43 ba 43 bc ca 32 ef 3b 5a f2 3e 3d
       -0.017104438 -0.011946264 0.0072997557 0.046617843
0001a0 ec d4 62 3d ba 37 cc bc ce d9 9b 3b 28 09 57 3d
       0.05537884 -0.024928916 0.004756189 0.052498966
0001b0 d2 0f 3a bd 70 6b 57 bc 8a 12 25 3d 3b cd 76 bc
       -0.045425244 -0.013148174 0.040300883 -0.015063579
0001c0 5c 3c 47 bc 12 3f 95 bd 10 f4 b7 bd 04 d9 a4 bd
       -0.012160387 -0.0728742 -0.08982098 -0.08049205
0001d0 9c 7a be bd 45 2d 31 bd 27 e4 6e bd d7 35 8a bd
       -0.0930073 -0.043256063 -0.05832305 -0.067485504
0001e0 16 a2 ef bd c7 6e 71 bd d8 04 f9 bd 4d 1c 02 be
       -0.11700837 -0.058943536 -0.12159127 -0.12706108
0001f0 5b 66 eb bd d9 92 6c bd 83 c8 14 bd 22 64 17 be
       -0.11494132 -0.057757232 -0.036324035 -0.14784291
000200 a0 d1 fc 3c d2 be d6 3d e9 ec 30 3d be 70 b6 3d
       0.030861676 0.10485615 0.043194685 0.089082226
000210 be 42 44 3d 34 3d 5a 3c 63 62 c4 3d 32 06 4a 3c
       0.047915213 0.013320256 0.09589078 0.012330579
000220 bb ba 0a 3d 71 df cb 3b 40 72 45 bb 77 3d f3 3c
       0.033869486 0.0062217047 -0.0030127913 0.029692395
000230 52 4c bd bc 3a 0a 8a bc 1a 3b e9 3a ac c5 7f 3d
       -0.023107681 -0.01685058 0.0017794103 0.062444374
000240 e3 7a af bc 54 82 ac 3b 48 9b 60 bc 1d 45 ab 3c
       -0.021420902 0.0052645598 -0.013708897 0.02090698
000250 9a 65 00 3b 37 e6 0e bd fb 47 6c bd 7f 08 d8 3c
       0.001959181 -0.03488752 -0.057685833 0.026371239
000260 fa 4f 06 3d 83 da 6b bd 46 8f 3d bd 9e 17 b9 bc
       0.032791115 -0.057581436 -0.046279214 -0.02259427
000270 6e 97 91 bd 35 45 a5 bb fd 58 9a bd f2 5f 25 bb
       -0.07108961 -0.0050436505 -0.075365044 -0.002523419
000280 b6 7b 3b bd a9 d8 24 3d ee fe da 3c 26 82 3d bd
       -0.045772277 0.040245686 0.026732888 -0.046266697
000290 73 d9 f7 3c 9b da 35 3d 51 62 cd 3d 16 db 1e 3d
       0.030255055 0.04439793 0.10028518 0.038783155
0002a0 53 fa 0d 3d ad 04 92 bc e7 48 1a 3d 32 fc 87 3c
       0.034662556 -0.017824495 0.03766718 0.016599748
0002b0 18 0d cf bc b5 21 d6 3c 8e 0b 19 3d b8 b1 50 b9
       -0.025274798 0.02613912 0.037364535 -0.00019902631
0002c0 48 d3 9a bd de 0e b3 bd 7c 1b b3 bd 10 93 0c be
       -0.0755983 -0.0874307 -0.087454766 -0.13727975
0002d0 04 88 84 bc 2e b7 1e 3d e3 d1 45 3d d6 24 e0 3c
       -0.016178139 0.038748913 0.048295867 0.027361315
0002e0 08 2f f4 bc a3 cd 73 bd d8 88 d7 bd 9c 9b a4 3b
       -0.029807582 -0.059522282 -0.10524148 0.005023433
0002f0 48 b0 af bd 08 97 f2 bd 10 68 65 bd 2e 3d 06 be
       -0.08578545 -0.11845213 -0.056007445 -0.13109276
000300 aa fb 8c bd 21 b5 98 bd 87 b3 31 bd 08 35 ac 3c
       -0.068839386 -0.074564226 -0.0433841 0.021021381
000310 2c a2 97 bd d6 65 b3 bd cc 30 90 3c 2f 92 35 bd
       -0.07403979 -0.08759658 0.017601393 -0.044328865
000320 5d 8e 4d bd 32 30 a3 bd 2c b5 9a bd 49 ad d9 bd
       -0.050184596 -0.07968177 -0.07554087 -0.10628755
000330 77 b1 20 be fc 8b e4 bd 70 c4 5f bd f6 8f 06 be
       -0.15692697 -0.111595124 -0.054630697 -0.13140854
000340 89 fa 0e bd 23 ac 93 3d 5b c5 99 3d bc 4a 4a bd
       -0.034906898 0.07210567 0.07508346 -0.04938768
000350 22 58 2f 3c ee 4a 22 3c 8f 4b 20 3d 5d a9 d6 bb
       0.010702165 0.00990556 0.03913456 -0.0065509514
000360 4b 18 69 3d 37 be 36 3d df c5 1c 3d 19 70 17 bc
       0.056907933 0.044614997 0.038274642 -0.009243035
000370 df c2 75 3d e1 0a 63 bd 21 69 62 bd 04 65 c2 3c
       0.060000297 -0.055430297 -0.05527604 0.023729809
000380 bc 0a 84 bc f3 b3 9c bd 4a c2 29 bd 86 de d3 3c
       -0.0161184 -0.0765151 -0.041445054 0.025862943
000390 96 32 8a 3c 4d 46 3a 3d ab 64 76 3d f6 5b db 3b
       0.016869824 0.0454772 0.0601546 0.006694312
0003a0 e3 fb d4 bc 62 f7 a5 bd 4a 42 61 bc ef 1a 6f bd
       -0.025999015 -0.08103825 -0.013748715 -0.058375295
0003b0 40 23 76 bd 6e 30 15 bd a8 5b 8f bd b5 33 0e 3c
       -0.06009221 -0.03642314 -0.06999904 0.00867932
0003c0 7f 0b 29 bd 7c 30 cd bd 90 37 bc bd 64 92 cf bd
       -0.04127073 -0.10019013 -0.09190285 -0.10135344
0003d0 fc 1c 5a bd 48 84 1d bc 58 86 e5 bd 35 97 db bd
       -0.053250298 -0.009614058 -0.11207265 -0.107222
0003e0 b4 61 79 bd 7d 7a cd bd dd d0 43 bd ab 54 3c bd
       -0.060884193 -0.100331284 -0.04780661 -0.045979183
0003f0 da 5e 0a be db fc ff bc df 38 ee bd 4b 65 7e bd
       -0.13512745 -0.0312485 -0.11631941 -0.06210832

network_body.observation_encoder.processors.0.conv_layers.2.bias f4 [32]
000000 bd 80 08 be ab c9 d2 3b fa df ea bc a8 6d 58 bd
       -0.1333036 0.006432732 -0.028671253 -0.05283895
000010 9d ce 85 3c aa bf c0 bd 75 43 e9 bc 3f 47 09 3e
       0.016333872 -0.09411557 -0.028474549 0.13406084
000020 9b 19 79 be ca bb fc 3d 7c a5 df bd cf d2 f4 bc
       -0.24326174 0.123405054 -0.109202355 -0.029885678
000030 cb 39 a3 bc e5 50 bf bd 2f 00 0e 3d d7 c3 8d 3d
       -0.019925019 -0.09341601 0.034668144 0.06922119
000040 33 b6 7e bd ec b3 d4 bd f2 31 18 3d c9 fd 7a bd
       -0.062185477 -0.1038588 0.037157007 -0.061277185
000050 99 01 21 be fc fa eb bd 04 3b 9a bb ed d3 f9 bd
       -0.15723266 -0.11522481 -0.0047067422 -0.12198625
000060 48 ca 17 be d2 78 87 be 4e 3a d1 bd 1d f6 e8 3c
       -0.14823258 -0.26459366 -0.10216199 0.028437668
000070 a9 68 8a bd 57 0a 6a be 26 31 9f be 8e da 21 be
       -0.067582436 -0.22855507 -0.31092185 -0.15806028

network_body.observation_encoder.processors.0.dense.0.weight f4 [30, 512]
000000 25 c1 97 3d 34 fe e0 bc 7e c9 12 3c 9f cc 30 3e
       0.07409886 -0.027464963 0.008959172 0.17265557
000010 fc c9 93 ba df 07 ff 3d 46 53 f9 3d bf fa d7 3d
       -0.0011275406 0.12452673 0.12174086 0.10545873
000020 38 8f 71 3d 3c b1 07 3e 1f 99 d7 3d 50 8e 03 3e
       0.058974475 0.13251203 0.105272524 0.12847257
000030 87 03 d8 bc 88 ba 3a 3e f1 50 11 3e 45 48 de 3d
       -0.02636887 0.18235219 0.14191033 0.10853628
000040 19 97 a4 bd 05 01 66 bb c0 fa 3e bd 67 f2 01 be
       -0.08036632 -0.0035095823 -0.046625853 -0.12690125
000050 97 f2 69 be 93 8a 0c be e5 1a 16 bd 18 2e 2c be
       -0.22846447 -0.13724737 -0.036646742 -0.16814458
000060 a9 21 17 be a0 fd 81 3c a9 cd af 3b 3f 29 b9 3c
       -0.14758934 0.015868008 0.005365093 0.022602675
000070 fc 31 de bd b7 e4 fe bc 40 ca f9 3c 1c ac 92 bd
       -0.108493775 -0.03111492 0.030491948 -0.071617335
000080 7e 80 41 3d 0d dc 6b 3d 99 45 12 3c 04 9d 9b bd
       0.04724168 0.057582904 0.008927726 -0.07598308
000090 0c 81 8b 3d 68 5a 98 bd c8 97 84 3d 43 57 52 bd
       0.06811723 -0.074391186 0.064742625 -0.05135275
0000a0 fe 82 82 3c 0e 51 12 bd 8d 8a 34 3e 68 2a 1f be
       0.015931603 -0.03572183 0.17630978 -0.1554352
0000b0 6b bc 11 3d a6 4f 0b 3e 8a 51 ad 3d 96 e6 10 bb
       0.03558008 0.13604602 0.08462818 -0.0022110096
0000c0 3d c2 81 bd 7c e7 25 be 36 49 7b be f9 05 b2 bd
       -0.06335876 -0.16201586 -0.24539647 -0.086925454
0000d0 8a a3 11 be dd db ed bd 58 d3 c0 bd 5b 99 34 bd
       -0.14222541 -0.11614201 -0.094153106 -0.044091564
0000e0 69 ca d0 bd 00 cf 99 bd 4c cf 83 bd 90 7c 48 be
       -0.10194857 -0.07510185 -0.06436023 -0.19578767
0000f0 1f 38 19 bd e7 14 38 be 2a f4 ac bd 9f 47 f5 bd
       -0.037407037 -0.17976724 -0.08445008 -0.11976551
000100 cf 2d 33 3e fc 03 05 3e 56 d6 b5 3d 1b 0e 4c 3e
       0.17497943 0.12989801 0.08878772 0.19927256
000110 a2 7d 1a 3c 4b 7f d4 3d ea 15 21 3e 44 33 3a 3c
       0.009429367 0.10375842 0.15731016 0.011364762
000120 53 ab f1 bc 56 5d 77 3d 5b fb da 3c fd 8f e3 bc
       -0.029500639 0.060391746 0.026731184 -0.02777862
000130 1d 06 9b 3d 82 c4 e5 3d 01 53 12 3d 36 41 12 bc
       0.075695254 0.112191215 0.03572369 -0.00892668
000140 1b 05 2f 3e 3d 15 e2 3d 57 70 9d 3d 06 8d b8 3d
       0.17091791 0.11039207 0.07687443 0.09011273
000150 32 a2 0c 3e f0 80 da 3d d6 1d 56 3d 0b 76 ab 3d
       0.13733748 0.10669124 0.052274548 0.08372124
000160 11 30 a0 3b 72 d0 53 3d 82 b0 1b 3e 69 28 80 bb
       0.0048885425 0.05171246 0.15204051 -0.0039110673
000170 8f c2 52 3d e7 ac 09 3e 66 50 01 3c 2e 6b 09 3c
       0.051455077 0.13444863 0.007892704 0.00838737
000180 d1 3a 6c 3d eb 04 e6 3d 98 2d cf bd b8 99 1d 3e
       0.05767328 0.11231407 -0.10116118 0.1539067
000190 df 89 8e 3d b8 63 5b 3e 84 a7 45 3c c0 7e da 3d
       0.069598906 0.21424758 0.012063865 0.10668707
0001a0 8d d3 59 3c 3a ce 7f bd ff 27 30 3c fd a9 c8 bd
       0.013295067 -0.062452532 0.010751723 -0.09798048
0001b0 df 1e 81 3d 72 1c e5 3c 2b d5 b7 bb 00 a4 8c bd
       0.06304716 0.027967665 -0.0056101284 -0.06867218
0001c0 2d 64 f1 3d f8 46 6a 3e b9 0d 07 3e 18 4f 5f 3d
       0.11786685 0.22878635 0.13188829 0.05451879
0001d0 4f 51 4b bc 56 8f 0f 3e d6 34 3f 3c 9d 7c 09 be
       -0.012409522 0.14019522 0.011670312 -0.13426442
0001e0 fe 23 9b bd d9 b0 41 bd 61 e0 a7 bb 1d 25 48 3d
       -0.07575224 -0.047287796 -0.0051231836 0.04886352
0001f0 88 eb 57 3d 14 e1 10 3e bc 3c cb 3c cf 88 fa 3d
       0.052714854 0.1414836 0.024809234 0.122331254
000200 46 9c aa 3d d9 f4 05 3e 87 d0 5b 3e d0 f5 3b 3e
       0.08330588 0.13081683 0.21466266 0.18355489
000210 d2 21 00 3e 04 c2 94 3d 55 3f 34 3e 29 82 46 3e
       0.12512901 0.07263568 0.17602284 0.1938559
000220 ce 13 aa 3c 6b 2a 12 3e 04 4a 0c 3d 71 85 b8 3d
       0.020761397 0.14273994 0.034250274 0.09009827
000230 6f 27 ed 3d 64 63 22 bd c7 f9 28 bd ba 44 b4 3d
       0.11579787 -0.039645568 -0.04125383 0.08802171
000240 87 a1 54 bc 90 8f 39 bd 8c 17 c1 3b 54 3a 82 bc
       -0.012977964 -0.045302927 0.0058926996 -0.015896954
000250 19 b8 f8 bc 4a a3 b0 3c 26 83 a3 bd 0c 36 4b bd
       -0.030361222 0.021562237 -0.07983999 -0.04961209
000260 ec e5 b1 bd e1 22 4d 3d 49 09 3c bb 00 b1 94 bd
       -0.08686432 0.05008209 -0.0028692058 -0.072603226
000270 72 08 a7 bd 36 23 71 bd 3b f6 82 bd 84 6c ca bb
       -0.08155908 -0.05887147 -0.06394621 -0.006177487
000280 72 b7 c7 3d b2 74 76 3d c1 8d 3b 3e f1 08 2b 3c
       0.09751786 0.060169883 0.18315794 0.0104391435
000290 e4 b7 2f 3e 93 e4 b5 3d 44 d3 c2 3d 27 db 8b 3d
       0.17159992 0.08881488 0.09512952 0.06828909
0002a0 4c c6 58 3e 39 86 38 3e 76 b4 35 3c 8c 16 14 3e
       0.21169394 0.18019952 0.0110903885 0.14461726
0002b0 79 fd e5 3d af 5d 78 3e 2e 74 20 3e 48 8e 26 3e
       0.11229987 0.24254487 0.15669319 0.16265213
0002c0 fb 91 05 3e 0d 70 51 3c c0 66 92 3d 6e b6 20 3e
       0.13043968 0.012783063 0.07148504 0.15694591
0002d0 d7 9a d5 3a e9 50 99 3d 0c b9 16 3e ad 78 c9 3d
       0.0016296756 0.074861355 0.14719027 0.0983747
0002e0 b4 5c 2b 3b b7 58 24 3e b8 35 c5 bd 6d f7 38 3e
       0.0026147785 0.16049467 -0.09629387 0.18063135
0002f0 19 e2 9b 3d af f3 3a 3e 96 d0 ea 3d fa da 1b be
       0.07611484 0.1825702 0.11465566 -0.15220252
000300 c4 92 d4 3d a4 6c 8d 3d 9a fe 79 3b f8 e0 b2 3d
       0.10379556 0.06905487 0.003814614 0.08734316
000310 12 72 97 bd 08 98 42 3c fb ec fc 3b 0c 4b a4 3c
       -0.07394804 0.011877067 0.00771868 0.020055316
000320 64 56 bb 3d 44 f7 1b 3e b7 a8 0e 3d ea 18 48 3e
       0.09147337 0.15231043 0.034828868 0.19540754
000330 43 08 bc 3a 7f f0 5b bc f1 61 2d 3e f7 27 8f 3d
       0.0014345724 -0.013424038 0.16931893 0.069900446
000340 e7 8d c2 3d 74 3a d3 bd ae b7 fc 3c 19 78 84 3c
       0.09499722 -0.103138834 0.030849304 0.016170548
000350 5a 48 55 3d 24 84 8d bd 49 95 03 b9 eb c2 76 bd
       0.052070953 -0.069099694 -0.00012548747 -0.060244482
000360 bc 46 65 3e ec f4 84 3d 53 4c 31 3d d8 2b fd 3c
       0.22390264 0.06492028 0.04328568 0.030904695
000370 cb 30 1c 3c f1 18 32 3d e8 35 c6 3d a3 b1 7b 3a
       0.0095331175 0.043480817 0.096782506 0.000960136
000380 c2 7f b9 bd bf 20 0b bc d5 1f 01 be 2c b9 7a bc
       -0.09057571 -0.008491694 -0.12609799 -0.0153029375
000390 76 bd 96 3d cc c2 9f 3d 0f c5 df 3d 73 95 7c bd
       0.073603556 0.078008264 0.10926258 -0.061665963
0003a0 99 5a 3b bd 2e 29 80 3c 5b 29 03 bd a0 26 96 bd
       -0.045740698 0.015644636 -0.03202186 -0.07331586
0003b0 38 d1 17 bd 05 32 31 bc 97 67 1b bd ca d8 1b 3e
       -0.03706476 -0.010815148 -0.037940588 0.15219417
0003c0 0c 9c 5c 3e b7 7a 8d 3e 72 87 f2 3d 9d 84 54 3e
       0.21543902 0.27632686 0.118422404 0.20753713
0003d0 89 99 53 3e b9 52 67 3e 2c e2 68 3e 69 9d 28 3e
       0.20664038 0.2259015 0.22742528 0.16466297
0003e0 1e a6 84 3e b2 9c 22 3e b5 a0 04 3e 33 9d 47 3e
       0.25907987 0.15880087 0.1295193 0.1949356
0003f0 fc fb 93 3d 48 b9 60 3e 75 88 46 3e 59 8b 62 3e
       0.072257966 0.21945679 0.19387992 0.2212347

network_body.observation_encoder.processors.0.dense.0.bias f4 [30]
000000 5f 7c 5f be 94 5c c6 3c e5 9f 28 3c 39 a4 37 be
       -0.21824788 0.024214067 0.010292028 -0.1793374
000010 0c 03 7a bd 35 be fe bb 0c 46 80 be c6 df 65 be
       -0.061038062 -0.0077741393 -0.25053442 -0.22448644
000020 9f 3b 0b bd ab c8 b0 bd 3d e0 94 bd 99 43 65 be
       -0.033992406 -0.086320244 -0.072693326 -0.22389068
000030 fc 6b 41 be 43 45 93 3d c8 5b a4 3a 73 50 96 3d
       -0.18888849 0.07190945 0.001253956 0.07339563
000040 88 88 b8 bd c5 61 65 bd 08 b7 0e be 4b 19 99 be
       -0.09010416 -0.056001443 -0.13937008 -0.2990211
000050 4f 40 c5 bd 25 0f a8 bd 7a ef 7a bd bf ca c1 bc
       -0.096314065 -0.082060136 -0.06126354 -0.023656247
000060 8c 18 1a be 37 38 40 be 91 55 e9 3c 7e 10 2c be
       -0.15048426 -0.18771444 0.028483184 -0.16803166
000070 96 97 62 bd 03 c4 05 bd
       -0.055320345 -0.032657634

network_body.processors.0.conv_layers.0.weight f4 [16, 9, 8, 8]
000000 ef 87 db b8 ec 79 3e 39 71 17 31 3d a4 d8 a4 3c
       -0.000104680534 0.00018165231 0.043235246 0.020122834
000010 84 53 08 3d d5 cc 74 3d b1 ac 9e 3c 47 61 f4 3c
       0.03328277 0.059765656 0.019369455 0.029831542
000020 31 7a 6d 3c 85 b1 64 3d 75 c7 6f 3d 7a 07 ff 3c
       0.014494465 0.05583336 0.058539826 0.031131495
000030 59 7f b4 3d 24 d5 8c 3d e4 46 c4 3d 82 34 03 3d
       0.08813352 0.06876591 0.09583834 0.032032497
000040 e2 31 8f 3d 64 03 e7 3c fd 3d 9c 3d 13 81 b7 3d
       0.06991936 0.028199859 0.07629011 0.08960166
000050 db 76 82 3d 8e 4e 69 3d 87 6e 80 3d 65 7a ad 3d
       0.06370326 0.05695968 0.062710814 0.084706105
000060 af 64 3b 3d 84 25 bd 3c b9 06 05 3d 60 c7 a1 3d
       0.045750316 0.023089178 0.032477114 0.07899356
000070 0f 66 ab 3d b7 2f 1a 3d dd dc 5c 3d 5d 26 d5 3d
       0.083690755 0.03764316 0.05392157 0.10407708
000080 e2 e3 81 3c 2d ec 7a 3d d2 b9 89 3d 02 ae 08 3d
       0.015855733 0.06126039 0.067248955 0.03336907
000090 f7 9e b3 3d 48 6d ca 3d 7a 92 3b 3d 52 ab 10 3d
       0.087705545 0.09884125 0.045793988 0.035319634
0000a0 6d bf 63 3d 49 4c 73 3d 4b db 7b 3c ee c8 9a 3d
       0.05560248 0.059398923 0.015372108 0.075578555
0000b0 65 16 86 3d 5b ce 96 3d 8a cb aa 3c cf 02 dd 3c
       0.0654724 0.07363578 0.020849008 0.026978878
0000c0 80 7a fb bc dd 90 5d 3d 6e 48 af bb 63 07 c5 bb
       -0.030698061 0.05409323 -0.0053492105 -0.0060128435
0000d0 0b b8 41 3d 74 6c 99 3d 3e 2d a9 3c ed e1 15 3d
       0.047294658 0.07491389 0.020651456 0.036592413
0000e0 8a 0d 5c 3d 73 3f 8d 3c 78 aa 1e bb 3b 14 0f 3d
       0.05372385 0.017242169 -0.0024210494 0.034931403
0000f0 8f 56 81 3d 56 a6 79 3d 1a f0 9c 3d 38 76 38 3d
       0.06315338 0.060949646 0.07662983 0.045034617
000100 92 a2 6a bb 70 97 19 bc 5d 93 62 3d e8 4b b1 b9
       -0.0035802466 -0.009374484 0.055316318 -0.00033816625
000110 bd 12 25 3d ed f4 e1 3b f7 bc 6c 3d ad 1d 82 3d
       0.040301073 0.0068956525 0.0577974 0.063533165
000120 f2 d3 47 3c 5a aa c1 3c b8 0d 31 3d b7 fb 1f 3d
       0.012196528 0.0236408 0.043225974 0.039058413
000130 18 74 2c 3d 30 65 8f 3d 4f 44 2e 3b bd 27 a7 3c
       0.042102903 0.07001722 0.0026591008 0.02040469
000140 26 09 37 3d 55 8b 43 3c 54 cb 34 3d 31 48 5a 3d
       0.04468646 0.011935075 0.04413922 0.053291503
000150 86 d7 aa 3d bb 23 52 3d 4c 34 5a 3c 40 b9 9d 3c
       0.08341889 0.051303606 0.013318133 0.019253373
000160 aa 03 68 3d 59 7e 89 3c ab cc a5 3c c7 9a 52 3d
       0.05664412 0.01678388 0.020239195 0.05141714
000170 2a 7f cb 3c 9a 61 a6 3d f5 f8 bc 3c bf 42 88 3c
       0.02484091 0.08124085 0.02306793 0.01663339
000180 b3 87 05 3d 02 b3 a9 3b 61 b9 25 3d bd 98 34 3d
       0.032600116 0.00517881 0.040459994 0.044090975
000190 69 fd 42 3d bc 15 89 3d 0f 05 27 3d 65 f2 29 3d
       0.047604952 0.06693599 0.04077631 0.04149093
0001a0 c1 04 21 3d 13 c0 5c 3c 9d 0f 43 ba 25 18 36 3d
       0.039311174 0.013473528 -0.0007440986 0.04445662
0001b0 0a 48 18 3d 86 fa 4f 3d f9 2a b9 3c e6 28 17 3d
       0.037178077 0.050776027 0.022603499 0.03690424
0001c0 4d 92 08 3c 23 90 1f 3c 59 fb 0c 3c a7 c9 db 3c
       0.008335662 0.009738955 0.008604848 0.026829554
0001d0 52 9e d8 bc 81 80 f2 3c b8 53 d8 3c 19 c2 de bb
       -0.02644268 0.029602291 0.026407108 -0.0067980406
0001e0 94 16 2f 3d d5 0f 41 3d 0a 0d 27 3d 41 be 53 3d
       0.04274614 0.04713424 0.04078392 0.051695112
0001f0 14 6e 51 3c 26 08 aa 3c e2 76 14 3c 54 b7 f9 3c
       0.012782592 0.020755839 0.009061547 0.030482925
000200 55 71 02 bd 48 9d d1 3c 40 30 03 3c 74 8e 20 3c
       -0.031846363 0.025587693 0.008007109 0.0097995885
000210 06 ba cd 3c 55 bc 82 3c 77 64 50 3d 34 32 1c bc
       0.025113117 0.015958944 0.05087706 -0.009533454
000220 ed e6 da 3c cc c7 c6 3c 96 50 91 3d 40 3a 69 3c
       0.026721442 0.024265192 0.07095449 0.014235079
000230 b0 a9 3c 3d 0f 05 26 3d 65 83 78 3c 08 a8 a0 3c
       0.046060264 0.040532168 0.015168046 0.019611374
000240 0a a1 57 3d bd 7f 2f 3c 29 53 1f bb 4e a7 93 3d
       0.052643813 0.0107116075 -0.0024311042 0.07209645
000250 94 f7 b4 3c 95 80 8b 3d f7 47 83 3c 87 f3 9e 3d
       0.02209071 0.068116345 0.016025526 0.07761293
000260 45 95 eb 3c f9 c8 44 bb 89 a8 86 3d 4a e4 f6 3c
       0.0287577 -0.0030027016 0.06575114 0.030138154
000270 b8 3f 3d 3d 4f f8 11 3d 64 76 52 3d 5d 21 39 3d
       0.046203345 0.035637196 0.051382437 0.045197833
000280 c7 2c cd 3c 11 23 45 3d 5d 7e f7 3a 91 e4 3e 3c
       0.025045766 0.048129145 0.0018882264 0.011651174
000290 63 2c a5 3c 9b 68 8c 3d 69 17 cc 3c 06 d8 73 3c
       0.020162767 0.068558894 0.024913507 0.014883047
0002a0 2d 2f c1 3c 04 36 4d 3c 0c bd 85 3c 87 11 99 3c
       0.023582065 0.012525085 0.016325496 0.018685116
0002b0 ed 9d 0d 3b e7 2f 0a 3c 3f 80 51 3d 1b 7f 9d 3b
       0.0021609024 0.008434272 0.051147696 0.004806412
0002c0 6c 0e 1d 3c 1d 04 6e bc 97 13 9b 3c 64 2b 08 bd
       0.009585958 -0.014527348 0.01893024 -0.033244506
0002d0 d4 02 3f bc 97 1a d6 bc 1d 06 07 bd cc 2d 9b 3c
       -0.011658389 -0.026135726 -0.032964814 0.018942736
0002e0 69 bd f0 3c c3 75 ff bb be 80 0e bd 54 6d 03 3d
       0.029387193 -0.0077960207 -0.034790747 0.032086685
0002f0 d1 e1 d7 3c 20 6d 30 3d ab 16 80 3d 0b b1 39 bb
       0.026352795 0.04307282 0.062543236 -0.0028334286
000300 a2 d1 37 3d 66 ab cc 3b 83 f5 20 3d 3a 61 4e 3d
       0.044877656 0.006246018 0.03929664 0.05038569
000310 fc c3 9f 3d 83 0b 95 3d 8b 34 b8 3c d2 1e 0f 3d
       0.07801053 0.07277586 0.022485992 0.034941502
000320 b8 37 04 3c 12 e7 5e bc 59 56 49 3c c3 b7 3e 3d
       0.008069925 -0.013604896 0.012288653 0.046561968
000330 83 15 90 3d 75 9c 82 3d 21 ec 19 3d c1 73 a0 3d
       0.07035353 0.06377498 0.037578706 0.07834578
000340 cf 69 f5 bc b2 a1 cf bc 93 81 02 bd d4 d3 42 3d
       -0.02995768 -0.025345657 -0.031861853 0.047565296
000350 28 4d 2b 3c 36 a5 ff 3b d1 39 1c 3d 11 cb 5a 3d
       0.010455407 0.007801677 0.038141076 0.053416315
000360 f2 57 91 bc f7 70 fe bc 40 5c 35 bd 6a fd fc bb
       -0.01774213 -0.031059725 -0.04427743 -0.007720639
000370 a7 45 ec 3c 8d b9 81 3d 25 34 37 3d 10 72 2d bc
       0.028841807 0.06334219 0.044727463 -0.010586277
000380 e7 72 18 bd ea 4f f2 3c ee 33 d4 3c fc 24 e7 3b
       -0.037218954 0.029579122 0.025903668 0.0070539694
000390 4e e4 80 bc 92 6b 92 3d d6 f0 eb 3c a4 7a 44 3d
       -0.015733864 0.07149424 0.028801363 0.04796852
0003a0 0e e7 a6 bb 69 ef 00 bd c6 06 59 3c 05 14 f8 3b
       -0.005093462 -0.03147832 0.013246244 0.007570746
0003b0 36 29 ce bb db ce 20 3d 99 ee ec 3c 42 20 89 3d
       -0.006291534 0.039259773 0.028922366 0.06695606
0003c0 64 1b 0b 3c 60 25 86 3c 29 c3 e0 bc 24 08 ae 3b
       0.008490417 0.016375244 -0.02743681 0.005311029
0003d0 49 3e 51 bc 95 09 9e bb 57 03 a3 3b 6c 53 c6 3b
       -0.012771198 -0.0048229196 0.0049747634 0.006052425
0003e0 f9 f4 e7 3b 87 27 d7 3c 77 41 a1 3b 1e 1d 9f bc
       0.0070787636 0.026263965 0.004921134 -0.019423064
0003f0 dc 83 03 bd 76 4f 18 3b 13 b0 22 3d 18 11 3f 3c
       -0.032108173 0.0023240722 0.0397187 0.01166179

network_body.processors.0.conv_layers.0.bias f4 [16]
000000 12 a4 54 3d 27 7a 84 3a 5c 70 3a bd 33 74 b5 3d
       0.051914282 0.0010107205 -0.04551731 0.08860054
000010 3f 2c 97 bd d1 70 58 3a 66 d2 5a 3d f3 eb 17 3b
       -0.07381486 0.0008256557 0.053423308 0.0023181408
000020 cb 50 54 bd 8c f2 be bc 74 23 87 bd 1b 93 ae bd
       -0.051834863 -0.023309015 -0.06598559 -0.08524152
000030 15 ce 41 bd 91 f9 8b bc 47 0e c9 3c c2 4c 63 3d
       -0.047315676 -0.017086776 0.02454294 0.055493124

network_body.processors.0.conv_layers.2.weight f4 [32, 16, 4, 4]
000000 da 67 02 3c 13 53 05 bd b4 fd 9f bc 23 62 e8 bd
       0.00795933 -0.03254993 -0.019530155 -0.11346843
000010 88 c7 9a ba 3b 4b c4 bc 48 73 8d bd 47 c7 9a bd
       -0.0011808733 -0.023961654 -0.06906754 -0.075575404
000020 01 84 fb bc 3e e7 0b be 27 27 70 bd a1 5d 9c bd
       -0.030702593 -0.1366243 -0.05863109 -0.07635046
000030 1b 06 03 be dc ab dd bd 18 70 84 bd 92 a3 1a be
       -0.12795298 -0.10823795 -0.06466693 -0.1510146
000040 f8 51 b6 bd d0 87 40 bd ae 5f e5 bd ba d9 9b bd
       -0.08902353 -0.04700452 -0.1119989 -0.076098874
000050 51 c6 41 bd 64 ea b3 3c 99 53 96 3c 25 76 c4 3c
       -0.04730827 0.021962352 0.01835041 0.023982117
000060 bb 32 21 be 6a c9 36 be 32 11 2c be c4 47 54 bd
       -0.15742008 -0.17850271 -0.16803434 -0.051826254
000070 79 07 63 be 08 69 5f be f9 01 4f be 74 86 fe bd
       -0.2217082 -0.2181741 -0.20215596 -0.12427989
000080 84 68 4b 3c bf e9 80 3d a8 e1 0a bd d3 1a 53 bd
       0.012415055 0.062945835 -0.03390661 -0.051539253
000090 c8 a1 8e 3c 53 9f b7 3c 37 8d 80 3d 30 eb 9d bc
       0.017411128 0.022414839 0.062769346 -0.019277185
0000a0 d9 6e ab 3b 5e 98 9e bd b2 13 e9 bd 93 f1 3f bc
       0.00523172 -0.077439055 -0.1138071 -0.011715311
0000b0 ba a5 a7 bd 35 a8 88 bc 94 69 ad bd 7e a9 d6 bd
       -0.08185907 -0.01668177 -0.08467403 -0.10481547
0000c0 d2 3f 43 3d 05 4f 9d 3d 60 96 e7 3c 30 af 14 bc
       0.047668286 0.076810874 0.028269947 -0.009074971
0000d0 bf 02 b2 3d 88 de a5 3d 99 d9 63 3d d5 ff c1 bd
       0.0869193 0.08099085 0.05562744 -0.09472624
0000e0 ad 1b ff 3d f2 68 34 bd 8d 7d 04 3d c7 ce ad bd
       0.124564506 -0.044045396 0.032346297 -0.08486705
0000f0 81 88 3e bd 54 24 9a bd dd f3 43 bd 57 61 0c bd
       -0.0465169 -0.0752646 -0.047839988 -0.034272518
000100 83 21 94 bc 57 9f bc bc 6a 2b d7 3c 11 00 71 bd
       -0.018082386 -0.023025198 0.026265819 -0.058837954
000110 30 b4 84 bd b5 2d dc bc 49 3d 33 3c b2 22 02 bd
       -0.064796805 -0.026877264 0.0109399045 -0.03177137
000120 d1 ce cc bd ea 4d da bd 05 26 b2 bc 7a bb d4 bd
       -0.100003846 -0.10659392 -0.021746645 -0.10387321
000130 a0 db 05 bd 53 3d 17 be 03 03 6f bd 66 6c 92 bd
       -0.032680154 -0.14769487 -0.05835248 -0.071495816
000140 66 e4 bf bb ee be 32 bd 66 0f 82 bd a7 b1 bd bd
       -0.0058560846 -0.043639116 -0.06350593 -0.092624
000150 d4 bb 71 bd eb ae a2 bd 63 48 0f bd 2a 02 20 bd
       -0.059017017 -0.07943519 -0.034981143 -0.039064564
000160 d6 e1 be bd e2 1f 98 bd 40 68 69 bd 66 08 de bd
       -0.093204185 -0.07427956 -0.056984186 -0.108414456
000170 0c 5e 42 bd 45 65 1f bd 5d 37 37 bd 63 82 6d bd
       -0.04745297 -0.038914938 -0.044730533 -0.057985675
000180 c6 c3 d0 3d 58 08 ec 3b 46 14 95 3d b9 ce 16 bd
       0.10193591 0.007203143 0.072792575 -0.03681824
000190 9b 1e 8c bc 43 ba 43 bc ca 32 ef 3b 5a f2 3e 3d
       -0.017104438 -0.011946264 0.0072997557 0.046617843
0001a0 ec d4 62 3d ba 37 cc bc ce d9 9b 3b 28 09 57 3d
       0.05537884 -0.024928916 0.004756189 0.052498966
0001b0 d2 0f 3a bd 70 6b 57 bc 8a 12 25 3d 3b cd 76 bc
       -0.045425244 -0.013148174 0.040300883 -0.015063579
0001c0 5c 3c 47 bc 12 3f 95 bd 10 f4 b7 bd 04 d9 a4 bd
       -0.012160387 -0.0728742 -0.08982098 -0.08049205
0001d0 9c 7a be bd 45 2d 31 bd 27 e4 6e bd d7 35 8a bd
       -0.0930073 -0.043256063 -0.05832305 -0.067485504
0001e0 16 a2 ef bd c7 6e 71 bd d8 04 f9 bd 4d 1c 02 be
       -0.11700837 -0.058943536 -0.12159127 -0.12706108
0001f0 5b 66 eb bd d9 92 6c bd 83 c8 14 bd 22 64 17 be
       -0.11494132 -0.057757232 -0.036324035 -0.14784291
000200 a0 d1 fc 3c d2 be d6 3d e9 ec 30 3d be 70 b6 3d
       0.030861676 0.10485615 0.043194685 0.089082226
000210 be 42 44 3d 34 3d 5a 3c 63 62 c4 3d 32 06 4a 3c
       0.047915213 0.013320256 0.09589078 0.012330579
000220 bb ba 0a 3d 71 df cb 3b 40 72 45 bb 77 3d f3 3c
       0.033869486 0.0062217047 -0.0030127913 0.029692395
000230 52 4c bd bc 3a 0a 8a bc 1a 3b e9 3a ac c5 7f 3d
       -0.023107681 -0.01685058 0.0017794103 0.062444374
000240 e3 7a af bc 54 82 ac 3b 48 9b 60 bc 1d 45 ab 3c
       -0.021420902 0.0052645598 -0.013708897 0.02090698
000250 9a 65 00 3b 37 e6 0e bd fb 47 6c bd 7f 08 d8 3c
       0.001959181 -0.03488752 -0.057685833 0.026371239
000260 fa 4f 06 3d 83 da 6b bd 46 8f 3d bd 9e 17 b9 bc
       0.032791115 -0.057581436 -0.046279214 -0.02259427
000270 6e 97 91 bd 35 45 a5 bb fd 58 9a bd f2 5f 25 bb
       -0.07108961 -0.0050436505 -0.075365044 -0.002523419
000280 b6 7b 3b bd a9 d8 24 3d ee fe da 3c 26 82 3d bd
       -0.045772277 0.040245686 0.026732888 -0.046266697
000290 73 d9 f7 3c 9b da 35 3d 51 62 cd 3d 16 db 1e 3d
       0.030255055 0.04439793 0.10028518 0.038783155
0002a0 53 fa 0d 3d ad 04 92 bc e7 48 1a 3d 32 fc 87 3c
       0.034662556 -0.017824495 0.03766718 0.016599748
0002b0 18 0d cf bc b5 21 d6 3c 8e 0b 19 3d b8 b1 50 b9
       -0.025274798 0.02613912 0.037364535 -0.00019902631
0002c0 48 d3 9a bd de 0e b3 bd 7c 1b b3 bd 10 93 0c be
       -0.0755983 -0.0874307 -0.087454766 -0.13727975
0002d0 04 88 84 bc 2e b7 1e 3d e3 d1 45 3d d6 24 e0 3c
       -0.016178139 0.038748913 0.048295867 0.027361315
0002e0 08 2f f4 bc a3 cd 73 bd d8 88 d7 bd 9c 9b a4 3b
       -0.029807582 -0.059522282 -0.10524148 0.005023433
0002f0 48 b0 af bd 08 97 f2 bd 10 68 65 bd 2e 3d 06 be
       -0.08578545 -0.11845213 -0.056007445 -0.13109276
000300 aa fb 8c bd 21 b5 98 bd 87 b3 31 bd 08 35 ac 3c
       -0.068839386 -0.074564226 -0.0433841 0.021021381
000310 2c a2 97 bd d6 65 b3 bd cc 30 90 3c 2f 92 35 bd
       -0.07403979 -0.08759658 0.017601393 -0.044328865
000320 5d 8e 4d bd 32 30 a3 bd 2c b5 9a bd 49 ad d9 bd
       -0.050184596 -0.07968177 -0.07554087 -0.10628755
000330 77 b1 20 be fc 8b e4 bd 70 c4 5f bd f6 8f 06 be
       -0.15692697 -0.111595124 -0.054630697 -0.13140854
000340 89 fa 0e bd 23 ac 93 3d 5b c5 99 3d bc 4a 4a bd
       -0.034906898 0.07210567 0.07508346 -0.04938768
000350 22 58 2f 3c ee 4a 22 3c 8f 4b 20 3d 5d a9 d6 bb
       0.010702165 0.00990556 0.03913456 -0.0065509514
000360 4b 18 69 3d 37 be 36 3d df c5 1c 3d 19 70 17 bc
       0.056907933 0.044614997 0.038274642 -0.009243035
000370 df c2 75 3d e1 0a 63 bd 21 69 62 bd 04 65 c2 3c
       0.060000297 -0.055430297 -0.05527604 0.023729809
000380 bc 0a 84 bc f3 b3 9c bd 4a c2 29 bd 86 de d3 3c
       -0.0161184 -0.0765151 -0.041445054 0.025862943
000390 96 32 8a 3c 4d 46 3a 3d ab 64 76 3d f6 5b db 3b
       0.016869824 0.0454772 0.0601546 0.006694312
0003a0 e3 fb d4 bc 62 f7 a5 bd 4a 42 61 bc ef 1a 6f bd
       -0.025999015 -0.08103825 -0.013748715 -0.058375295
0003b0 40 23 76 bd 6e 30 15 bd a8 5b 8f bd b5 33 0e 3c
       -0.06009221 -0.03642314 -0.06999904 0.00867932
0003c0 7f 0b 29 bd 7c 30 cd bd 90 37 bc bd 64 92 cf bd
       -0.04127073 -0.10019013 -0.09190285 -0.10135344
0003d0 fc 1c 5a bd 48 84 1d bc 58 86 e5 bd 35 97 db bd
       -0.053250298 -0.009614058 -0.11207265 -0.107222
0003e0 b4 61 79 bd 7d 7a cd bd dd d0 43 bd ab 54 3c bd
       -0.060884193 -0.100331284 -0.04780661 -0.045979183
0003f0 da 5e 0a be db fc ff bc df 38 ee bd 4b 65 7e bd
       -0.13512745 -0.0312485 -0.11631941 -0.06210832

network_body.processors.0.conv_layers.2.bias f4 [32]
000000 bd 80 08 be ab c9 d2 3b fa df ea bc a8 6d 58 bd
       -0.1333036 0.006432732 -0.028671253 -0.05283895
000010 9d ce 85 3c aa bf c0 bd 75 43 e9 bc 3f 47 09 3e
       0.016333872 -0.09411557 -0.028474549 0.13406084
000020 9b 19 79 be ca bb fc 3d 7c a5 df bd cf d2 f4 bc
       -0.24326174 0.123405054 -0.109202355 -0.029885678
000030 cb 39 a3 bc e5 50 bf bd 2f 00 0e 3d d7 c3 8d 3d
       -0.019925019 -0.09341601 0.034668144 0.06922119
000040 33 b6 7e bd ec b3 d4 bd f2 31 18 3d c9 fd 7a bd
       -0.062185477 -0.1038588 0.037157007 -0.061277185
000050 99 01 21 be fc fa eb bd 04 3b 9a bb ed d3 f9 bd
       -0.15723266 -0.11522481 -0.0047067422 -0.12198625
000060 48 ca 17 be d2 78 87 be 4e 3a d1 bd 1d f6 e8 3c
       -0.14823258 -0.26459366 -0.10216199 0.028437668
000070 a9 68 8a bd 57 0a 6a be 26 31 9f be 8e da 21 be
       -0.067582436 -0.22855507 -0.31092185 -0.15806028

network_body.processors.0.dense.0.weight f4 [30, 512]
000000 25 c1 97 3d 34 fe e0 bc 7e c9 12 3c 9f cc 30 3e
       0.07409886 -0.027464963 0.008959172 0.17265557
000010 fc c9 93 ba df 07 ff 3d 46 53 f9 3d bf fa d7 3d
       -0.0011275406 0.12452673 0.12174086 0.10545873
000020 38 8f 71 3d 3c b1 07 3e 1f 99 d7 3d 50 8e 03 3e
       0.058974475 0.13251203 0.105272524 0.12847257
000030 87 03 d8 bc 88 ba 3a 3e f1 50 11 3e 45 48 de 3d
       -0.02636887 0.18235219 0.14191033 0.10853628
000040 19 97 a4 bd 05 01 66 bb c0 fa 3e bd 67 f2 01 be
       -0.08036632 -0.0035095823 -0.046625853 -0.12690125
000050 97 f2 69 be 93 8a 0c be e5 1a 16 bd 18 2e 2c be
       -0.22846447 -0.13724737 -0.036646742 -0.16814458
000060 a9 21 17 be a0 fd 81 3c a9 cd af 3b 3f 29 b9 3c
       -0.14758934 0.015868008 0.005365093 0.022602675
000070 fc 31 de bd b7 e4 fe bc 40 ca f9 3c 1c ac 92 bd
       -0.108493775 -0.03111492 0.030491948 -0.071617335
000080 7e 80 41 3d 0d dc 6b 3d 99 45 12 3c 04 9d 9b bd
       0.04724168 0.057582904 0.008927726 -0.07598308
000090 0c 81 8b 3d 68 5a 98 bd c8 97 84 3d 43 57 52 bd
       0.06811723 -0.074391186 0.064742625 -0.05135275
0000a0 fe 82 82 3c 0e 51 12 bd 8d 8a 34 3e 68 2a 1f be
       0.015931603 -0.03572183 0.17630978 -0.1554352
0000b0 6b bc 11 3d a6 4f 0b 3e 8a 51 ad 3d 96 e6 10 bb
       0.03558008 0.13604602 0.08462818 -0.0022110096
0000c0 3d c2 81 bd 7c e7 25 be 36 49 7b be f9 05 b2 bd
       -0.06335876 -0.16201586 -0.24539647 -0.086925454
0000d0 8a a3 11 be dd db ed bd 58 d3 c0 bd 5b 99 34 bd
       -0.14222541 -0.11614201 -0.094153106 -0.044091564
0000e0 69 ca d0 bd 00 cf 99 bd 4c cf 83 bd 90 7c 48 be
       -0.10194857 -0.07510185 -0.06436023 -0.19578767
0000f0 1f 38 19 bd e7 14 38 be 2a f4 ac bd 9f 47 f5 bd
       -0.037407037 -0.17976724 -0.08445008 -0.11976551
000100 cf 2d 33 3e fc 03 05 3e 56 d6 b5 3d 1b 0e 4c 3e
       0.17497943 0.12989801 0.08878772 0.19927256
000110 a2 7d 1a 3c 4b 7f d4 3d ea 15 21 3e 44 33 3a 3c
       0.009429367 0.10375842 0.15731016 0.011364762
000120 53 ab f1 bc 56 5d 77 3d 5b fb da 3c fd 8f e3 bc
       -0.029500639 0.060391746 0.026731184 -0.02777862
000130 1d 06 9b 3d 82 c4 e5 3d 01 53 12 3d 36 41 12 bc
       0.075695254 0.112191215 0.03572369 -0.00892668
000140 1b 05 2f 3e 3d 15 e2 3d 57 70 9d 3d 06 8d b8 3d
       0.17091791 0.11039207 0.07687443 0.09011273
000150 32 a2 0c 3e f0 80 da 3d d6 1d 56 3d 0b 76 ab 3d
       0.13733748 0.10669124 0.052274548 0.08372124
000160 11 30 a0 3b 72 d0 53 3d 82 b0 1b 3e 69 28 80 bb
       0.0048885425 0.05171246 0.15204051 -0.0039110673
000170 8f c2 52 3d e7 ac 09 3e 66 50 01 3c 2e 6b 09 3c
       0.051455077 0.13444863 0.007892704 0.00838737
000180 d1 3a 6c 3d eb 04 e6 3d 98 2d cf bd b8 99 1d 3e
       0.05767328 0.11231407 -0.10116118 0.1539067
000190 df 89 8e 3d b8 63 5b 3e 84 a7 45 3c c0 7e da 3d
       0.069598906 0.21424758 0.012063865 0.10668707
0001a0 8d d3 59 3c 3a ce 7f bd ff 27 30 3c fd a9 c8 bd
       0.013295067 -0.062452532 0.010751723 -0.09798048
0001b0 df 1e 81 3d 72 1c e5 3c 2b d5 b7 bb 00 a4 8c bd
       0.06304716 0.027967665 -0.0056101284 -0.06867218
0001c0 2d 64 f1 3d f8 46 6a 3e b9 0d 07 3e 18 4f 5f 3d
       0.11786685 0.22878635 0.13188829 0.05451879
0001d0 4f 51 4b bc 56 8f 0f 3e d6 34 3f 3c 9d 7c 09 be
       -0.012409522 0.14019522 0.011670312 -0.13426442
0001e0 fe 23 9b bd d9 b0 41 bd 61 e0 a7 bb 1d 25 48 3d
       -0.07575224 -0.047287796 -0.0051231836 0.04886352
0001f0 88 eb 57 3d 14 e1 10 3e bc 3c cb 3c cf 88 fa 3d
       0.052714854 0.1414836 0.024809234 0.122331254
000200 46 9c aa 3d d9 f4 05 3e 87 d0 5b 3e d0 f5 3b 3e
       0.08330588 0.13081683 0.21466266 0.18355489
000210 d2 21 00 3e 04 c2 94 3d 55 3f 34 3e 29 82 46 3e
       0.12512901 0.07263568 0.17602284 0.1938559
000220 ce 13 aa 3c 6b 2a 12 3e 04 4a 0c 3d 71 85 b8 3d
       0.020761397 0.14273994 0.034250274 0.09009827
000230 6f 27 ed 3d 64 63 22 bd c7 f9 28 bd ba 44 b4 3d
       0.11579787 -0.039645568 -0.04125383 0.08802171
000240 87 a1 54 bc 90 8f 39 bd 8c 17 c1 3b 54 3a 82 bc
       -0.012977964 -0.045302927 0.0058926996 -0.015896954
000250 19 b8 f8 bc 4a a3 b0 3c 26 83 a3 bd 0c 36 4b bd
       -0.030361222 0.021562237 -0.07983999 -0.04961209
000260 ec e5 b1 bd e1 22 4d 3d 49 09 3c bb 00 b1 94 bd
       -0.08686432 0.05008209 -0.0028692058 -0.072603226
000270 72 08 a7 bd 36 23 71 bd 3b f6 82 bd 84 6c ca bb
       -0.08155908 -0.05887147 -0.06394621 -0.006177487
000280 72 b7 c7 3d b2 74 76 3d c1 8d 3b 3e f1 08 2b 3c
       0.09751786 0.060169883 0.18315794 0.0104391435
000290 e4 b7 2f 3e 93 e4 b5 3d 44 d3 c2 3d 27 db 8b 3d
       0.17159992 0.08881488 0.09512952 0.06828909
0002a0 4c c6 58 3e 39 86 38 3e 76 b4 35 3c 8c 16 14 3e
       0.21169394 0.18019952 0.0110903885 0.14461726
0002b0 79 fd e5 3d af 5d 78 3e 2e 74 20 3e 48 8e 26 3e
       0.11229987 0.24254487 0.15669319 0.16265213
0002c0 fb 91 05 3e 0d 70 51 3c c0 66 92 3d 6e b6 20 3e
       0.13043968 0.012783063 0.07148504 0.15694591
0002d0 d7 9a d5 3a e9 50 99 3d 0c b9 16 3e ad 78 c9 3d
       0.0016296756 0.074861355 0.14719027 0.0983747
0002e0 b4 5c 2b 3b b7 58 24 3e b8 35 c5 bd 6d f7 38 3e
       0.0026147785 0.16049467 -0.09629387 0.18063135
0002f0 19 e2 9b 3d af f3 3a 3e 96 d0 ea 3d fa da 1b be
       0.07611484 0.1825702 0.11465566 -0.15220252
000300 c4 92 d4 3d a4 6c 8d 3d 9a fe 79 3b f8 e0 b2 3d
       0.10379556 0.06905487 0.003814614 0.08734316
000310 12 72 97 bd 08 98 42 3c fb ec fc 3b 0c 4b a4 3c
       -0.07394804 0.011877067 0.00771868 0.020055316
000320 64 56 bb 3d 44 f7 1b 3e b7 a8 0e 3d ea 18 48 3e
       0.09147337 0.15231043 0.034828868 0.19540754
000330 43 08 bc 3a 7f f0 5b bc f1 61 2d 3e f7 27 8f 3d
       0.0014345724 -0.013424038 0.16931893 0.069900446
000340 e7 8d c2 3d 74 3a d3 bd ae b7 fc 3c 19 78 84 3c
       0.09499722 -0.103138834 0.030849304 0.016170548
000350 5a 48 55 3d 24 84 8d bd 49 95 03 b9 eb c2 76 bd
       0.052070953 -0.069099694 -0.00012548747 -0.060244482
000360 bc 46 65 3e ec f4 84 3d 53 4c 31 3d d8 2b fd 3c
       0.22390264 0.06492028 0.04328568 0.030904695
000370 cb 30 1c 3c f1 18 32 3d e8 35 c6 3d a3 b1 7b 3a
       0.0095331175 0.043480817 0.096782506 0.000960136
000380 c2 7f b9 bd bf 20 0b bc d5 1f 01 be 2c b9 7a bc
       -0.09057571 -0.008491694 -0.12609799 -0.0153029375
000390 76 bd 96 3d cc c2 9f 3d 0f c5 df 3d 73 95 7c bd
       0.073603556 0.078008264 0.10926258 -0.061665963
0003a0 99 5a 3b bd 2e 29 80 3c 5b 29 03 bd a0 26 96 bd
       -0.045740698 0.015644636 -0.03202186 -0.07331586
0003b0 38 d1 17 bd 05 32 31 bc 97 67 1b bd ca d8 1b 3e
       -0.03706476 -0.010815148 -0.037940588 0.15219417
0003c0 0c 9c 5c 3e b7 7a 8d 3e 72 87 f2 3d 9d 84 54 3e
       0.21543902 0.27632686 0.118422404 0.20753713
0003d0 89 99 53 3e b9 52 67 3e 2c e2 68 3e 69 9d 28 3e
       0.20664038 0.2259015 0.22742528 0.16466297
0003e0 1e a6 84 3e b2 9c 22 3e b5 a0 04 3e 33 9d 47 3e
       0.25907987 0.15880087 0.1295193 0.1949356
0003f0 fc fb 93 3d 48 b9 60 3e 75 88 46 3e 59 8b 62 3e
       0.072257966 0.21945679 0.19387992 0.2212347

network_body.processors.0.dense.0.bias f4 [30]
000000 5f 7c 5f be 94 5c c6 3c e5 9f 28 3c 39 a4 37 be
       -0.21824788 0.024214067 0.010292028 -0.1793374
000010 0c 03 7a bd 35 be fe bb 0c 46 80 be c6 df 65 be
       -0.061038062 -0.0077741393 -0.25053442 -0.22448644
000020 9f 3b 0b bd ab c8 b0 bd 3d e0 94 bd 99 43 65 be
       -0.033992406 -0.086320244 -0.072693326 -0.22389068
000030 fc 6b 41 be 43 45 93 3d c8 5b a4 3a 73 50 96 3d
       -0.18888849 0.07190945 0.001253956 0.07339563
000040 88 88 b8 bd c5 61 65 bd 08 b7 0e be 4b 19 99 be
       -0.09010416 -0.056001443 -0.13937008 -0.2990211
000050 4f 40 c5 bd 25 0f a8 bd 7a ef 7a bd bf ca c1 bc
       -0.096314065 -0.082060136 -0.06126354 -0.023656247
000060 8c 18 1a be 37 38 40 be 91 55 e9 3c 7e 10 2c be
       -0.15048426 -0.18771444 0.028483184 -0.16803166
000070 96 97 62 bd 03 c4 05 bd
       -0.055320345 -0.032657634
