Assets/ML-Agents/Training Files/results/9roads_cameraSensor_ppo_vehiclesAndChekpointsMasked_1layer_64_256/VehicleAgent/VehicleAgent-16999647.onnx (onnx, 139655 bytes, 11 tensors)

network_body.observation_encoder.processors.0.conv_layers.0.weight f4 [16, 9, 8, 8]
0.0023605074 0.0024232 0.04197501 0.018503755 0.032652862 0.059830938 0.016027402 0.028526485
0.017023582 0.05690686 0.058648355 0.03225435 0.0879513 0.06684434 0.09561354 0.033903603
0.073053725 0.033819426 0.07984607 0.0934077 0.06795956 0.057416834 0.06461301 0.08664979
0.04836469 0.026209781 0.035734795 0.08312336 0.08821396 0.039962675 0.055962063 0.106116794
0.021199947 0.06684627 0.069631375 0.04138772 0.094721414 0.10383945 0.0501573 0.040064655
0.05986906 0.063528776 0.019129515 0.0812309 0.07347479 0.08072411 0.02957062 0.034633733
-0.028822979 0.05765469 -0.0022483834 -0.0033965374 0.05202695 0.08231192 0.03107248 0.041303363
0.054138426 0.018777229 -0.0017201874 0.035213448 0.061007537 0.061803643 0.080192216 0.05081291
0.0014214633 -0.005234613 0.056345057 0.0002813745 0.04168989 0.0088492185 0.056619015 0.06303891
0.016369969 0.026609669 0.04523926 0.04195877 0.0447842 0.071158 0.004795144 0.02389719
0.048841912 0.018553529 0.049126547 0.059050262 0.08962862 0.055052876 0.018149642 0.02458279
0.0605411 0.021555528 0.025779098 0.057994284 0.031517472 0.086569645 0.028461128 0.021556456
0.03751905 0.01046066 0.043591242 0.052823674 0.055309724 0.07309675 0.047014512 0.049265888
0.042924657 0.017480588 0.0037990492 0.0510186 0.04651647 0.059035942 0.032945216 0.04718944
0.008593329 0.011834781 0.010529773 0.029309927 -0.022124821 0.03654394 0.036132213 -0.001695896
0.040460534 0.04700971 0.040495206 0.051428504 0.00985172 0.021403134 0.012070688 0.035130724
-0.025228629 0.031318262 0.010789897 0.012639435 0.02852859 0.020306157 0.052297026 -0.007100082
0.032319907 0.028712705 0.07441263 0.018461263 0.050222002 0.043428894 0.019136202 0.025321841
0.057790842 0.018127209 0.0036057692 0.078802556 0.029084133 0.07298152 0.022079952 0.08422134
0.03326135 0.002371762 0.071778715 0.037071206 0.053347357 0.041569483 0.0571533 0.050932463
0.031064775 0.05436077 0.006052861 0.021211255 0.028302776 0.07539254 0.031880997 0.022726258
0.02866493 0.017805168 0.021717278 0.02605537 0.011997587 0.01730875 0.061893754 0.015186957
0.011255345 -0.01130264 0.021664152 -0.030309679 -0.006836857 -0.018893676 -0.02298094 0.024410093
0.027344808 -0.007772679 -0.03525746 0.031314697 0.023300862 0.043297086 0.06525118 0.0015566127
0.050245598 0.012076717 0.04644389 0.057863522 0.08415634 0.07689933 0.026422285 0.040551502
0.009131049 -0.01425869 0.0136777675 0.05103552 0.07354427 0.0651264 0.038933802 0.08204009
-0.029099397 -0.024103725 -0.03222741 0.05358002 0.014744794 0.0100701125 0.039092094 0.056033142
-0.018890927 -0.032989804 -0.04559331 -0.0043055825 0.031326506 0.065813154 0.044900093 -0.010647866
-0.039493207 0.025234919 0.021464374 0.0048573357 -0.012871456 0.073943 0.026142068 0.0453971
-0.009574877 -0.036853116 0.007865715 0.002790227 -0.0069077387 0.042023726 0.029553661 0.06536434
0.0044828705 0.013752819 -0.030572696 0.0030874773 -0.012616498 -0.004275903 0.008299041 0.005189079
0.0039070696 0.02236776 0.0003540336 -0.020798245 -0.032347742 -0.0017004687 0.038400203 0.010291273
00000000: beb2 1a3b 8dce 1e3b fded 2b3d 3095 973c
00000010: 02bf 053d 4911 753d e64b 833c 60b0 e93c
00000020: 0a75 8b3c 2b17 693d 4239 703d 231d 043d
00000030: d01f b43d afe5 883d 08d1 c33d 81de 0a3d
00000040: 319d 953d 3d86 0a3d 5686 a33d 894c bf3d
00000050: 622e 8b3d ea2d 6b3d d353 843d 7275 b13d
00000060: 0e1a 463d e5b5 d63c a65e 123d 953c aa3d
00000070: 85a9 b43d e7af 233d 7a38 653d c353 d93d
00000080: 83ab ad3c b2e6 883d e59a 8e3d 2b86 293d
00000090: 4dfd c13d c7a9 d43d be71 4d3d d61a 243d
000000a0: 4239 753d 601b 823d 80b5 9c3c 635c a63d
000000b0: f379 963d af52 a53d 163e f23c 1adc 0d3d
000000c0: 2b1e ecbc 5327 6c3d 9d59 13bb 7198 5ebb
000000d0: 361a 553d 2793 a83d b78b fe3c b72d 293d
000000e0: 41c0 5d3d b4d2 993c e977 e1ba fa3b 103d
000000f0: 0ae3 793d d125 7d3d d13b a43d 3321 503d
00000100: 6550 ba3a 1e87 abbb 13ca 663d 7285 9339
00000110: 05c3 2a3d 50fc 103c 57e9 673d 8b1a 813d
00000120: 501a 863c 85fc d93c cd4c 393d f6dc 2b3d
00000130: a36f 373d 49bb 913d 9520 9d3b 0ac4 c33c
00000140: 750e 483d 92fd 973c eb38 493d b0de 713d
00000150: 368f b73d 207f 613d 8fae 943c d961 c93c
00000160: f2f9 773d 3895 b03c b02e d33c 6a8b 6d3d
00000170: 7718 013d 6d4b b13d 5027 e93c 2a97 b03c
00000180: 93ad 193d 3063 2b3c bb8c 323d a35d 583d
00000190: 738c 623d c0b3 953d 4a92 403d 07cb 493d
000001a0: c4d1 2f3d 7333 8f3c 78f9 783b e1f8 503d
000001b0: 0e88 3e3d accf 713d 90f1 063d b749 413d
000001c0: 09cb 0c3c abe6 413c 1285 2c3c 5f1b f03c
000001d0: 1d3f b5bc 19af 153d 5fff 133d d448 deba
000001e0: f2b9 253d 418d 403d 4dde 253d b2a6 523d
000001f0: 1c69 213c a055 af3c 23c4 453c 3ce5 0f3d
00000200: 45ac cebc 9447 003d 1cc8 303c a215 4f3c
00000210: cab4 e93c 1959 a63c 6835 563d cea7 e8bb
00000220: e161 043d e836 eb3c a665 983d 133c 973c
00000230: 96b5 4d3d 7fe2 313d 86c3 9c3c c06f cf3c
00000240: 17b6 6c3d 837f 943c c54e 6c3b 3c63 a13d
00000250: d941 ee3c 5677 953d 04e1 b43c 3d7c ac3d
00000260: 0e3d 083d 906f 1b3b b800 933d fad7 173d
00000270: c282 5a3d c344 2a3d 9419 6a3d 8f9e 503d
00000280: 8e7b fe3c 66a9 5e3d 1457 c63b 3ac3 ad3c
00000290: 39db e73c 6767 9a3d a695 023d 6b2c ba3c
000002a0: b7d2 ea3c 25dc 913c 6fe8 b13c 1272 d53c
000002b0: 8791 443c 14cb 8d3c 4e84 7d3d b7d2 783c
000002c0: 5768 383c b52e 39bc 0579 b13c 014c f8bc
000002d0: b707 e0bb e9c6 9abc 8642 bcbc adf7 c73c
000002e0: 3802 e03c f5b1 febb 206a 10bd d743 003d
000002f0: 73e1 be3c 4958 313d 69a2 853d 4107 cc3a
00000300: 54ce 4d3d 6cdd 453c f33b 3e3d 4d02 6d3d
00000310: 295a ac3d 657d 9d3d 8c73 d83c 5519 263d
00000320: 659a 153c 489d 69bc b718 603c 9f0a 513d
00000330: 619e 963d fd60 853d 0d79 1f3d a204 a83d
00000340: dc61 eebc 2d75 c5bc e300 04bd b976 5b3d
00000350: 2694 713c 1dfd 243c 081f 203d 0283 653d
00000360: 25c1 9abc 5120 07bd 0dc0 3abd d815 8dbb
00000370: 3950 003d 0cc9 863d 29e9 373d 6374 2ebc
00000380: a1c3 21bd 76b9 ce3c 0ed6 af3c 492a 9f3b
00000390: cde2 52bc 6d6f 973d e427 d63c 4ff2 393d
000003a0: f2df 1cbc 4bf3 16bd 33df 003c 3edc 363b
000003b0: 505a e2bb 1221 2c3d 851a f23c bddd 853d
000003c0: 0be5 923b 8153 613c 9773 fabc 4657 4a3b
000003d0: 6eb5 4ebc e01c 8cbb b3f8 073c 2609 aa3b
000003e0: e006 803b 983c b73c 969d b939 1561 aabc
000003f0: 117f 04bd 43e2 deba 8849 1d3d ba9c 283c

network_body.observation_encoder.processors.0.conv_layers.0.bias f4 [16]
0.057270456 0.0047530974 -0.04092576 0.09135584 -0.07216401 0.0026134276 0.061037764 -0.00077394105
-0.046254486 -0.023163468 -0.060693093 -0.07171619 -0.046282653 -0.019205064 0.030198788 0.0547317
00000000: 6d94 6a3d dfbf 9b3b c5a1 27bd c518 bb3d
00000010: b9ca 93bd 0a46 2b3b bc02 7a3d 4ee2 4aba
00000020: 5875 3dbd 50c1 bdbc 5299 78bd f0df 92bd
00000030: e192 3dbd f053 9dbc 7363 f73c 592e 603d

network_body.observation_encoder.processors.0.conv_layers.2.weight f4 [32, 16, 4, 4]
-0.013445829 -0.058605563 -0.033359 -0.13837497 -0.026854685 -0.040144324 -0.091408595 -0.097030476
-0.01732498 -0.121783696 -0.04957366 -0.07398834 -0.118889675 -0.09406448 -0.059519663 -0.15598403
-0.089204215 -0.039362427 -0.09931021 -0.07267927 -0.046171874 0.02186915 0.012480116 0.014865174
-0.14079547 -0.16616873 -0.15877987 -0.043790933 -0.20802878 -0.20723024 -0.1923372 -0.114633694
0.01649593 0.075511254 -0.022288203 -0.044210386 0.015451649 0.030447079 0.0664234 -0.019876737
0.015668718 -0.068348005 -0.10711685 -0.007825865 -0.068254486 -0.0008674907 -0.07279252 -0.095231116
0.032326587 0.06337595 0.012578421 -0.027572215 0.081761464 0.075786196 0.04951871 -0.09853312
0.1182798 -0.05081454 0.020078458 -0.097884126 -0.049404703 -0.08231304 -0.052247554 -0.0427373
-0.003960399 -0.008870932 0.0364325 -0.047299843 -0.038826905 -0.004950179 0.033891495 -0.015135159
-0.07467276 -0.08608547 -0.0046429345 -0.08495657 -0.011555593 -0.12796475 -0.040653102 -0.052829932
-0.015930902 -0.0580199 -0.076771 -0.08978224 -0.05948608 -0.083568245 -0.0347914 -0.04451202
-0.10385207 -0.064618 -0.058281947 -0.099829584 -0.035396975 -0.012266429 -0.014995908 -0.02648667
0.10950691 0.0041803964 0.07224102 -0.03976157 -0.009412166 -0.006594429 0.00823048 0.045999493
0.06598472 -0.013490261 0.011690983 0.06397875 -0.030604122 0.002431639 0.052268777 -0.0026968408
0.0019349066 -0.057418562 -0.07512006 -0.06845004 -0.0790645 -0.030212814 -0.048098378 -0.06237843
-0.103209764 -0.046014443 -0.108292095 -0.11421713 -0.097021855 -0.0417756 -0.022342455 -0.13542286
0.040608324 0.11483262 0.052505087 0.09724727 0.057486404 0.02253863 0.10455488 0.01973027
0.04483941 0.016409898 0.006803567 0.039113365 -0.011980322 -0.00624486 0.011944534 0.07280788
-0.022523304 0.002444727 -0.0167027 0.016800057 0.0033753407 -0.034750927 -0.059941348 0.02600382
0.034886878 -0.05635212 -0.046944696 -0.022480143 -0.06710113 -0.0010610422 -0.07283417 0.00051093695
-0.041725643 0.029790228 0.0099729225 -0.051975403 0.01277822 0.0323353 0.08940474 0.04115917
0.02194066 -0.019508522 0.03325478 0.012138557 -0.028068632 0.029820543 0.03567356 0.002532884
-0.0845459 -0.08878602 -0.08724878 -0.1367071 -0.01455999 0.0437373 0.052799016 0.033702005
-0.008029096 -0.045439795 -0.0932645 0.013106985 -0.06688863 -0.10334063 -0.045139782 -0.121496685
-0.06249198 -0.06560288 -0.03449336 0.031193752 -0.06342876 -0.07517235 0.031638287 -0.033413365
-0.03237628 -0.06413923 -0.05840055 -0.09095367 -0.13821599 -0.09449439 -0.0377437 -0.11552499
-0.051702745 0.060140677 0.0627419 -0.06375798 0.014067184 0.0097767245 0.03685725 -0.010101493
0.061370954 0.048833817 0.04025027 -0.010352928 0.06203156 -0.05429124 -0.056065425 0.022098102
-0.007239317 -0.06767345 -0.04140683 0.027288204 0.027192358 0.05858638 0.073715255 0.01664916
-0.013894144 -0.069900505 -0.00469312 -0.048640154 -0.048856243 -0.024668513 -0.05894837 0.020476647
-0.014739821 -0.07114008 -0.06642487 -0.07934057 -0.025412051 0.0139704365 -0.09097023 -0.08938521
-0.041637197 -0.083524734 -0.030996462 -0.02371966 -0.10679071 -0.004508045 -0.091035426 -0.03975202
00000000: e54b 5cbc 630c 70bd 72a3 08bd 2bb2 0dbe
00000010: 5bfe dbbc 606e 24bd 6e34 bbbd eab7 c6bd
00000020: 1eed 8dbc bb69 f9bd c00d 4bbd 3387 97bd
00000030: 6e7c f3bd e1a4 c0bd e4ca 73bd 47ba 1fbe
00000040: b3b0 b6bd 7f3a 21bd 2763 cbbd ded8 94bd
00000050: b81e 3dbd ef26 b33c 6779 4c3c 0f8d 733c
00000060: b02c 10be 2328 2abe 3197 22be 1f5e 33bd
00000070: 7f05 55be 2a34 54be 0bf4 44be 12c5 eabd
00000080: 7922 873c a5a5 9a3d c095 b6bc f315 35bd
00000090: ea28 7d3c 276c f93c fe08 883d 8ad4 a2bc
000000a0: af5b 803c 0afa 8bbd 1460 dbbd 0f38 00bc
000000b0: 02c9 8bbd 5168 63ba 3f14 95bd 8808 c3bd
000000c0: e268 043d 40cb 813d b915 4e3c 20df e1bc
000000d0: 8e72 a73d cb35 9b3d 21d4 4a3d bbcb c9bd
000000e0: ae3c f23d e822 50bd 947b a43c 7977 c8bd
000000f0: 965c 4abd bd93 a8bd 8801 56bd 4f0d 2fbd
00000100: 3cc6 81bb 6357 11bc 3f3a 153d 7bbd 41bd
00000110: f608 1fbd 1c35 a2bb cfd1 0a3d 75f9 77bc
00000120: 08ee 98bd 944d b0bd c223 98bb b6fd adbd
00000130: ac53 3dbc 3109 03be de83 26bd 3364 58bd
00000140: 8681 82bc 46a6 6dbd 1d3a 9dbd c0df b7bd
00000150: ada7 73bd d425 abbd 6d81 0ebd 3c52 36bd
00000160: 65b0 d4bd 7156 84bd 0db9 6ebd 7473 ccbd
00000170: 6bfc 10bd 22f9 48bc 66b1 75bc 93fa d8bc
00000180: 2945 e03d b5fb 883b 1af3 933d 07dd 22bd
00000190: 7c35 1abc 1416 d8bb 23d9 063c f769 3c3d
000001a0: ff22 873d 4106 5dbc 898b 3f3c 4a07 833d
000001b0: 7fb5 fabc 225c 1f3b c917 563d 7bbd 30bb
000001c0: b19c fd3a ba2f 6bbd 8cd8 99bd 892f 8cbd
000001d0: 92ec a1bd dd80 f7bc ce02 45bd 8680 7fbd
000001e0: a45f d3bd a479 3cbd 3fc8 ddbd acea e9bd
000001f0: 65b3 c6bd e41c 2bbd 8607 b7bc 4aac 0abe
00000200: ea54 263d 5d2d eb3d 930f 573d 9429 c73d
00000210: dd76 6b3d efa2 b83c de20 d63d 60a1 a13c
00000220: 87a9 373d 0d6e 863c 75f0 de3b 5635 203d
00000230: 1d49 44bc afa1 ccbb 02b3 433c 4c1c 953d
00000240: cb82 b8bc b737 203b 1ad4 88bc 46a0 893c
00000250: d234 5d3b fd56 0ebd 0f85 75bd f705 d53c
00000260: 8be5 0e3d 7bd1 66bd 1549 40bd 4728 b8bc
00000270: 516c 89bd ab12 8bba 152a 95bd 66f0 053a
00000280: 82e8 2abd a30a f43c 7865 233c 29e4 54bd
00000290: bd5b 513c 0572 043d d519 b73d 8596 283d
000002a0: e6bc b33c 56d0 9fbc 2a36 083d cce0 463c
000002b0: 30f0 e5bc 364a f43c 701e 123d befe 253b
000002c0: 6726 adbd 72d5 b5bd 7daf b2bd f2fc 0bbe
000002d0: 068d 6ebc e225 333d c843 583d 1d0b 0a3d
000002e0: 788c 03bc 141f 3abd 7501 bfbd aebe 563c
000002f0: e8fc 88bd 41a4 d3bd 7ee4 38bd 41d3 f8bd
00000300: 97f7 7fbd ce5a 86bd e948 0dbd 0a8a ff3c
00000310: f0e6 81bd f6f3 99bd 2697 013d 74dc 08bd
00000320: fd9c 04bd 6e5b 83bd 6a35 6fbd eb45 babd
00000330: 7e88 0dbe 4686 c1bd 2399 1abd 5e98 ecbd
00000340: 42c6 53bd 1256 763d d37e 803d 8b93 82bd
00000350: 0c7a 663c 8e2e 203c a1f7 163d bc80 25bc
00000360: 1c60 7b3d f805 483d 78dd 243d 549f 29bc
00000370: ce14 7e3d 7e60 5ebd dca4 65bd 1407 b53c
00000380: cb37 edbb 6198 8abd 359a 29bd 838b df3c
00000390: 82c2 de3c 46f8 6f3d 06f8 963d d263 883c
000003a0: 44a4 63bc ff27 8fbd bec8 99bb e63a 47bd
000003b0: 7c1d 48bd 9f15 cabc d973 71bd a4be a73c
000003c0: 4a7f 71bc e4b1 91bd c309 88bd 4f7d a2bd
000003d0: ef2c d0bc 42e4 643c 9a4e babd 980f b7bd
000003e0: c48b 2abd 040f abbd 4bec fdbc bb4f c2bc
000003f0: 16b5 dabd 39b8 93bb c870 babd 04d3 22bd

network_body.observation_encoder.processors.0.conv_layers.2.bias f4 [32]
-0.14535852 -0.00022080596 -0.03391726 -0.050641175 0.01859402 -0.08440383 -0.020860529 0.13264619
-0.23543982 0.11589362 -0.11049009 -0.022222744 -0.018643085 -0.08795092 0.043945715 0.07328043
-0.062158752 -0.09839376 0.06610749 -0.06119953 -0.16056962 -0.1334351 -0.012900729 -0.11908677
-0.15651976 -0.25812578 -0.103282265 0.023152277 -0.07179397 -0.23600306 -0.30255845 -0.16077633
00000000: ddd8 14be 2688 67b9 d3ec 0abd 1f6d 4fbd
00000010: 7c52 983c eadb acbd b3e3 aabc 67d4 073e
00000020: 2317 71be a259 ed3d a148 e2bd 790c b6bc
00000030: 62b9 98bc 9d1f b4bd 6c00 343d 0d14 963d
00000040: 2d9a 7ebd ab82 c9bd 5d63 873d 5cac 7abd
00000050: 5d6c 24be 36a3 08be 945d 53bc c4e3 f3bd
00000060: b746 20be 1029 84be a785 d3bd d8a9 bd3c
00000070: b808 93bd c9aa 71be f1e8 9abe 8da2 24be

network_body.observation_encoder.processors.0.dense.0.weight f4 [30, 512]
0.05324936 -0.045704756 -0.0070653856 0.15795195 -0.04310374 0.09494208 0.10264255 0.08699383
0.04581602 0.123532034 0.07961217 0.09678103 -0.045255646 0.16184184 0.12242447 0.09417508
-0.083627425 -0.0065703006 -0.035182778 -0.11544578 -0.23249449 -0.13061288 -0.025228947 -0.15163817
-0.1594137 0.013658724 0.014548652 0.029913656 -0.08406845 -0.011236106 0.05952574 -0.065146714
0.045351744 0.0548348 0.004362651 -0.08008997 0.054310925 -0.0686357 0.075457685 -0.04125434
0.024298744 -0.030868335 0.18050887 -0.16374281 0.043140177 0.14017516 0.08430787 -0.0072877775
-0.09533464 -0.18731855 -0.2555415 -0.10156045 -0.13421099 -0.10527418 -0.08410551 -0.03546331
-0.08687431 -0.06365501 -0.058777712 -0.1911952 -0.034851454 -0.1882461 -0.0916287 -0.12329424
0.16372173 0.13225736 0.095412016 0.20623466 -0.006814618 0.08482812 0.14151621 -0.0013211815
-0.026148725 0.065367214 0.032256458 -0.018875446 0.072811686 0.105366185 0.03502103 -0.009300693
0.1613716 0.09893055 0.06405554 0.08474396 0.12534098 0.10297375 0.04859985 0.08041279
0.014079077 0.06521684 0.16299658 0.0031902415 0.058833778 0.13193679 -0.00018774897 -0.0017692173
0.059703317 0.118710004 -0.09264358 0.16389763 0.075732335 0.22148734 0.021643905 0.117176436
0.01678399 -0.061402585 0.01255962 -0.09395166 0.057025127 0.023508916 -0.005411622 -0.06479929
0.12842986 0.24576126 0.14815271 0.07020986 -0.009448828 0.13455036 -0.0033344275 -0.1628332
-0.07495519 -0.046276156 -0.0050585372 0.05045718 0.01204991 0.11776672 0.004243349 0.08838418
0.08068989 0.12956665 0.22222984 0.19027343 0.12842116 0.0770996 0.18232831 0.19401686
0.031980358 0.14972967 0.03683985 0.096220806 0.120639905 -0.031231362 -0.029092092 0.101625815
-0.011403063 -0.039984662 0.011923588 -0.008710972 -0.02198302 0.027773617 -0.07355947 -0.040842317
-0.08521765 0.048984233 -0.0041487883 -0.07023172 -0.09024991 -0.06403424 -0.06502632 -0.0037889169
0.10929791 0.073676795 0.18891746 0.02336716 0.17464672 0.09202608 0.096091874 0.0695876
0.22063723 0.1897978 0.019804964 0.15501961 0.12151919 0.2503026 0.16279481 0.16809542
0.13055427 0.0011703495 0.03983748 0.13109963 -0.015854536 0.07602442 0.14798455 0.1009806
0.0029909727 0.1541321 -0.09724892 0.17078216 0.06781562 0.17453957 0.106800586 -0.149898
0.078527436 0.058060605 0.0026742395 0.06935143 -0.06672335 0.01940767 0.015556403 0.030304888
0.11415008 0.16871919 0.045968395 0.20517431 0.019721271 -0.015154634 0.16885291 0.070394546
0.099378236 -0.11594345 0.009480378 -0.0044238274 0.06808688 -0.05698065 0.0126706315 -0.04247022
0.21861985 0.06936997 0.045609977 0.02872132 0.012717975 0.050032616 0.10198296 0.0074302917
-0.10347416 -0.021872133 -0.14145418 -0.029283576 0.08857433 0.09067941 0.11984708 -0.052757975
-0.04185444 0.01562759 -0.042548344 -0.085144125 -0.029639555 -0.007169945 -0.035810705 0.15641893
0.19703732 0.25665456 0.10016352 0.18849471 0.19068053 0.21438672 0.21402662 0.1500669
0.25740737 0.16001436 0.12450025 0.19192962 0.07349591 0.2119899 0.18381034 0.21075147
00000000: 001c 5a3d e934 3bbd c084 e7bb 28be 213e
00000010: 8c8d 30bd fe70 c23d 4236 d23d d229 b23d
00000020: 94a9 3b3d 5dfe fc3d b50b a33d 2235 c63d
00000030: fc5d 39bd deb9 253e aeb9 fa3d ddde c03d
00000040: db44 abbd ad4b d7bb d11b 10bd d66e ecbd
00000050: 0913 6ebe 62bf 05be f0ac cebc 0947 1bbe
00000060: 583d 23be d7c8 5f3c 785d 6e3c 7c0d f53c
00000070: 142c acbd a517 38bc 43d1 733d a46b 85bd
00000080: c0c2 393d 759a 603d 92f4 8e3b 3606 a4bd
00000090: 2275 5e3d e090 8cbd 8f89 9a3d 50fa 28bd
000000a0: 290e c73c 97df fcbc 51d7 383e 32ac 27be
000000b0: c1b3 303d 148a 0f3e 9ba9 ac3d 4fce eebb
000000c0: cf3e c3bd 6fd0 3fbe 56d6 82be edfe cfbd
000000d0: 9b6e 09be fd99 d7bd 823f acbd fa41 11bd
000000e0: 29eb b1bd 8f5d 82bd e6c0 70bd adc8 43be
000000f0: 66c0 0ebd 96c3 40be d4a7 bbbd b181 fcbd
00000100: aba6 273e 796e 073e 6067 c33d 2e2f 533e
00000110: 294d dfbb 5eba ad3d a0e9 103e 7f2b adba
00000120: da35 d6bc 3fdf 853d 591f 043d aea0 9abc
00000130: 4b1e 953d 3aca d73d 3672 0f3d ef61 18bc
00000140: 993e 253e 1a9c ca3d 8d2f 833d 3e8e ad3d
00000150: 6359 003e e7e3 d23d a310 473d 76af a43d
00000160: eeab 663c 6890 853d 93e8 263e 5f13 513b
00000170: b0fb 703d 701a 073e 7bde 44b9 15e5 e7ba
00000180: 778b 743d 3b1e f33d ebbb bdbd c8d4 273e
00000190: 8e19 9b3d 94cd 623e 8f4e b13c 33fa ef3d
000001a0: 947e 893c 4781 7bbd ddc6 4d3c ba69 c0bd
000001b0: 2e93 693d c595 c03c fa53 b1bb 7db5 84bd
000001c0: 1e83 033e d7a8 7b3e 58b5 173e 30ca 8f3d
000001d0: 42cf 1abc 92c7 093e 6986 5abb bfbd 26be
000001e0: 1b82 99bd 118c 3dbd 16c2 a5bb 30ac 4e3d
000001f0: fc6c 453c ae2f f13d cb0b 8b3b c402 b53d
00000200: be40 a53d 1fad 043e 3890 633e 0ad7 423e
00000210: d680 033e 65e6 9d3d 46b4 3a3e 5bac 463e
00000220: d6fd 023d bc52 193e 62e5 163d 6a0f c53d
00000230: 0e12 f73d ead8 ffbc 8a52 eebc 3221 d03d
00000240: ead3 3abc f5c6 23bd 275b 433c 77b8 0ebc
00000250: bc15 b4bc 7f85 e33c 59a6 96bd 464a 27bd
00000260: 9786 aebd b1a3 483d 8ff2 87bb a6d5 8fbd
00000270: f2d4 b8bd 6224 83bd 852c 85bd 7a4f 78bb
00000280: 95d7 df3d dce3 963d 9473 413e 7d6c bf3c
00000290: 97d6 323e 2b78 bc3d d1cb c43d f283 8e3d
000002a0: baee 613e 5b5a 423e 053e a23c 76bd 1e3e
000002b0: 0edf f83d aa27 803e afb3 263e 3521 2c3e
000002c0: 05b0 053e 6a66 993a a02c 233d fb3e 063e
000002d0: 5fe1 81bc b1b2 9b3d 4389 173e ebce ce3d
000002e0: 3204 443b ced4 1d3e 712a c7bd 85e1 2e3e
000002f0: eae2 8a3d 80ba 323e 44ba da3d dc7e 19be
00000300: fed2 a03d f5d0 6d3d 4b42 2f3b 1f08 8e3d
00000310: 40a6 88bd d5fc 9e3c 49e0 7e3c f541 f83c
00000320: 84c7 e93d b9c4 2c3e 5b49 3c3d 3719 523e
00000330: 818e a13c 244b 78bc c7e7 2c3e 042b 903d
00000340: d186 cb3d c273 edbd 9653 1b3c c1f5 90bb
00000350: 2271 8b3d 8b64 69bd 7b98 4f3c 41f5 2dbd
00000360: e2dd 5f3e d811 8e3d 87d1 3a3d f948 eb3c
00000370: 0e5f 503c 00ef 4c3d 71dc d03d ce79 f33b
00000380: 43ea d3bd 302d b3bc 5dd9 10be 1ce4 efbc
00000390: 7566 b53d 20b6 b93d 6372 f53d bf18 58bd
000003a0: 906f 2bbd 6e05 803c 2c47 2ebd 0b60 aebd
000003b0: a7ce f2bc dcf1 eabb 3fae 12bd 492c 203e
000003c0: 27c4 493e 3a68 833e 8822 cd3d c204 413e
000003d0: c241 433e 3188 5b3e cb29 5b3e 23ab 193e
000003e0: e6ca 833e ceda 233e fdf9 fe3d 3389 443e
000003f0: 0685 963d e113 593e c738 3c3e 3ccf 573e

network_body.observation_encoder.processors.0.dense.0.bias f4 [30]
-0.23051597 0.029270375 0.0039273393 -0.16111872 -0.058550023 -0.003627123 -0.26237613 -0.23637892
-0.015951283 -0.09343679 -0.06190114 -0.24498427 -0.18953781 0.06893238 -0.010760914 0.07219285
-0.08237885 -0.053981967 -0.13659865 -0.29323927 -0.09373691 -0.07691591 -0.062800154 -0.029235177
-0.14516069 -0.19766282 0.03785379 -0.18273704 -0.055877954 -0.027000275
00000000: 610c 6cbe 6dc8 ef3c e9b0 803b 4efc 24be
00000010: 26d2 6fbd 07b5 6dbb 2a56 86be 510d 72be
00000020: 44ac 82bc ca5b bfbd 0d8c 7dbd 28dd 7abe
00000030: 3316 42be 6b2c 8d3d 8b4e 30bc d8d9 933d
00000040: 3eb6 a8bd 321c 5dbd 84e0 0bbe 7523 96be
00000050: 23f9 bfbd 1786 9dbd 5e9d 80bd 9c7e efbc
00000060: 01a5 14be 1f68 4abe 930c 1b3d 6b1f 3bbe
00000070: 48e0 64bd ae2f ddbc

network_body._body_endoder.seq_layers.0.weight f4 [30, 33]
-0.12841979 -0.022347564 -0.00408595 -0.25021014 0.17449094 -0.4441183 0.024735188 0.09401193
-0.053419292 -0.18231884 0.29464167 -0.04872056 0.21213996 -0.14549263 -0.12052701 -0.034659464
-0.07350111 0.2309796 0.12933633 0.06858105 0.1493374 0.044343833 0.14543182 0.093707375
0.28603876 0.086914256 0.24156031 -0.008586568 0.18916199 0.04043857 -0.03248203 -1.1739413
-0.59350723 -0.03277876 0.06512904 -0.1945324 -0.09889312 0.030745758 0.09195023 0.38194376
-0.017459476 0.10230238 0.1902476 -0.1623852 0.17212677 -0.18852918 -0.044450715 -0.203921
-0.23244858 0.24000229 -0.04453625 0.26575935 -0.12744004 -0.30901876 0.1553658 -0.18308271
0.15320942 0.081087 0.26108426 -0.1600968 -0.31556696 -0.016265007 0.0470215 -0.10747709
-1.5174997 -0.12012929 0.07150337 0.23412831 -0.13208325 0.06100193 -0.19355713 -0.17651221
-0.13078183 -0.2356222 -0.18130822 -0.17045404 0.0828647 0.07148859 0.18667129 0.16301675
0.18309112 -0.3053031 0.3653739 -0.13909613 -0.21140344 -0.24044907 -0.40326393 -0.2726417
0.5315486 -0.109435946 -0.09720542 -0.2499422 -0.10697732 0.009222234 0.019200832 0.20568363
0.18773797 0.00782703 0.4927007 0.07360435 0.12661855 0.28551352 -0.24448274 -0.08579086
-0.10589853 -0.12615134 0.041715197 0.015097579 -0.25178823 -0.07964617 -0.06893224 -0.24134283
-0.18091874 -0.32165045 0.28072774 -0.13402484 0.059876714 0.26057288 -0.19885793 -0.13638721
0.025806589 -0.18215159 -0.2460976 0.07418741 -0.101633154 0.06009045 -0.12893353 0.21879727
-0.012857815 0.014134413 -1.0973471 -0.20700279 -0.1306089 -0.095307365 -0.1839435 -0.17502241
0.0137953395 -0.4898419 -0.03897869 -0.42009297 0.09370726 0.023372017 -0.2367047 0.06185156
-0.02551331 -0.15417305 -0.17491071 -0.264175 0.31908256 0.15298581 -0.08633164 -0.042606194
-0.26309502 -0.04743283 0.30992317 0.092991345 0.106895976 -0.24276458 0.117918365 -0.08948854
0.22677904 -0.08379038 0.15954185 1.0048013 0.09341847 -0.10486971 0.077840716 0.24530359
0.021413798 0.4524068 -0.2137194 0.055114485 -0.09366051 -0.10693224 0.0129376305 0.21863444
0.25259545 -0.03401598 -0.050465893 -0.05901189 0.1671419 -0.08655628 0.045447525 -0.17006595
-0.3487718 0.18820417 -0.123062536 0.41343132 0.34869993 0.35462156 0.00911174 -0.22459605
-0.12207013 -0.32390732 0.11441795 -0.06313764 -0.89297616 -0.1486695 -0.09657069 0.045605764
0.2203118 -0.5279661 0.14255574 -0.15707496 -0.17128187 -0.114876986 0.0114701 0.09791053
0.21140048 -0.0867232 -0.0012545493 -0.02746694 0.19490603 0.11104083 0.2493764 -0.14495273
-0.06065256 -0.07836275 0.14037558 0.043512173 -0.025055263 -0.23316154 -0.2052721 -0.31999525
-0.37605822 0.12796946 -0.20248517 -0.045765817 0.14093176 1.1342969 -0.068360925 0.4139715
0.06911163 0.11224367 0.046495806 -0.09268069 -0.120796315 0.05402885 0.25605223 0.0017076379
0.48724067 0.23203745 -0.19167179 -0.23101345 0.105309814 -0.08118175 -0.053294692 0.28926802
0.086634375 0.08879851 -0.08862407 0.12008518 -0.007417739 0.115067326 -0.11003627 -0.043695074
00000000: 7a80 03be 3d12 b7bc 6fe3 85bb 8b1b 80be
00000010: c1ad 323e 7963 e3be 73a1 ca3c 5489 c03d
00000020: 30ce 5abd cab1 3abe 46db 963e 368f 47bd
00000030: 383b 593e 05fc 14be ddd6 f6bd 15f7 0dbd
00000040: c087 96bd eb85 6c3e be70 043e 3974 8c3d
00000050: e7eb 183e e1a1 353d 14ec 143e a7e9 bf3d
00000060: ac73 923e 1a00 b23d 965b 773e adae 0cbc
00000070: aeb3 413e eaa2 253d e10b 05bd b543 96bf
00000080: 17f0 17bf 0543 06bd 6062 853d 8033 47be
00000090: 7a88 cabd 87de fb3c 6750 bc3d 228e c33e
000000a0: 2d07 8fbc e983 d13d 44d0 423e 4e48 26be
000000b0: 0042 303e cb0d 41be f411 36bd abd0 50be
000000c0: 0007 6ebe 29c3 753e a56b 36bd 9c11 883e
000000d0: a47f 02be b537 9ebe 3618 1f3e 097a 3bbe
000000e0: eee2 1c3e f110 a63d d6ac 853e 6af0 23be
000000f0: fe91 a1be 313e 85bc 9e99 403d f31c dcbd
00000100: 6e3d c2bf 5806 f6bd 5c70 923d 55bf 6f3e
00000110: d540 07be 29dd 793d d733 46be 9ebf 34be
00000120: aceb 05be f246 71be dda8 39be 818b 2ebe
00000130: f8b4 a93d 9c68 923d c226 3f3e dded 263e
00000140: 3d7c 3b3e b050 9cbe 4a12 bb3e 376f 0ebe
00000150: 257a 58be 4838 76be 9c78 cebe b197 8bbe
00000160: 9213 083f f41f e0bd a313 c7bd d9f0 7fbe
00000170: ed16 dbbd da18 173c 104b 9d3c bb9e 523e
00000180: 623e 403e f13c 003c 4443 fc3e e1bd 963d
00000190: 4ba8 013e d42e 923e af59 7abe 1eb3 afbd
000001a0: 54e1 d8bd d12d 01be 8edd 2a3d d65b 773c
000001b0: 63ea 80be 881d a3bd 592c 8dbd 9322 77be
000001c0: c342 39be 5eaf a4be 8cbb 8f3e cf3d 09be
000001d0: 4941 753d cf69 853e 6aa1 4bbe 17a9 0bbe
000001e0: 5768 d33c f285 3abe 0201 7cbe 92ef 973d
000001f0: 0b25 d0bd 6721 763d 2707 04be 640c 603e
00000200: 96a9 52bc 0694 673c df75 8cbf 8af8 53be
00000210: 57be 05be 8230 c3bd af5b 3cbe 1339 33be
00000220: d905 623c 8fcc fabe 1ea8 1fbd 6d16 d7be
00000230: 98e9 bf3d ac76 bf3c b862 72be 1058 7d3d
00000240: 4a01 d1bc 8adf 1dbe cb1b 33be f241 87be
00000250: ca5e a33e 50a8 1c3e a5ce b0bd d583 2ebd
00000260: 64b4 86be ed48 42bd 40ae 9e3e 3f72 be3d
00000270: 47ec da3d 4797 78be 2f7f f13d c545 b7bd
00000280: c438 683e 4a9a abbd f05e 233e 549d 803f
00000290: 2f52 bf3d eec5 d6bd f46a 9f3d dd30 7b3e
000002a0: fd6b af3c dda1 e73e 42d9 5abe babf 613d
000002b0: 15d1 bfbd 4aff dabd 5bf8 533c b5e1 5f3e
000002c0: 3154 813e 5754 0bbd 53b5 4ebd 74b6 71bd
000002d0: 3f27 2b3e 6b44 b1bd 2f27 3a3d c525 2ebe
000002e0: 3892 b2be 98b8 403e 3608 fcbd 45ad d33e
000002f0: cc88 b23e f590 b53e 6849 153c 82fc 65be
00000300: e8ff f9bd 2ed7 a5be f553 ea3d 4f4e 81bd
00000310: 169a 64bf d13c 18be dbc6 c5bd 1ccd 3a3d
00000320: 6b99 613e c928 07bf 22fa 113e 42d8 20be
00000330: 8464 2fbe a044 ebbd 16ed 3b3c 5185 c83d
00000340: 5e79 583e ef9b b1bd b06f a4ba 5902 e1bc
00000350: 7295 473e 6069 e33d 875c 7f3e 7d6e 14be
00000360: d26e 78bd a67c a0bd 9ebe 0f3e d239 323d
00000370: b240 cdbc e6c1 6ebe d932 52be 6bd6 a3be
00000380: b48a c0be 6d0a 033e 4658 4fbe f074 3bbd
00000390: 6a50 103e a430 913f d000 8cbd 13f4 d33e
000003a0: 668a 8d3d 02e0 e53d 6372 3e3d 60cf bdbd
000003b0: 0f64 f7bd 5b4d 5d3d 4719 833e d2d2 df3a
000003c0: 9c77 f93e 3a9b 6d3e 9c45 44be ca8e 6cbe
000003d0: acac d73d 9e42 a6bd 894b 5abd f01a 943e
000003e0: 5d6d b13d fedb b53d 8980 b5bd 38ef f53d
000003f0: 8110 f3bb 6ba8 eb3d b25a e1bd 9bf9 32bd

network_body._body_endoder.seq_layers.0.bias f4 [30]
-0.008681797 -0.034926306 0.058309294 0.0015603907 0.19520342 0.0078827925 0.21386433 0.0075536
0.07343654 0.03914443 0.19636999 0.03163533 0.06581747 -0.022642208 -0.009158476 -0.07027898
-0.05015383 0.22299044 0.115967855 0.10341952 0.21426441 -0.051965844 0.19261786 0.18459779
0.055681378 0.21133906 0.045283638 0.011865255 0.0005194281 0.0976782
00000000: 193e 0ebc e30e 0fbd bad5 6e3d 0686 cc3a
00000010: 68e3 473e d426 013c 40ff 5a3e 3084 f73b
00000020: e665 963d e955 203d 3715 493e 0c94 013d
00000030: 4fcb 863d 277c b9bc 6f0d 16bc 6dee 8fbd
00000040: 1a6e 4dbd 9b57 643e 8e80 ed3d 9dcd d33d
00000050: 2168 5b3e 23da 54bd 9e3d 453e 3407 3d3e
00000060: 2812 643d 4469 583e 567b 393d 7d66 423c
00000070: 3b2a 083a 820b c83d

action_model._continuous_distribution.log_sigma f4 [1, 2]
-0.41183874 -0.28847006
00000000: 87dc d2be 59b2 93be

action_model._continuous_distribution.mu.weight f4 [2, 30]
0.17907871 0.12215023 -0.30294037 0.1657704 -0.18584731 0.07710511 0.24336699 0.098667964
-0.12310193 0.20683813 0.04567267 0.20007949 -0.20219404 -0.38097507 0.17128128 -0.36868134
-0.105680004 0.17587331 0.19971602 -0.011774215 0.4499323 -0.20072883 0.040326487 -0.27262488
-0.10237939 0.016769037 -0.40217447 0.0748245 -0.21643695 -0.46193478 -0.464862 -0.62545264
0.06413072 -0.4566001 0.49030292 -0.33118233 0.51263255 -0.5209145 0.25120687 -0.5778128
0.47644195 -0.24993555 0.31199017 -0.6593698 -0.47603214 -0.60886604 -0.4789384 0.5450326
0.33624917 0.2820308 0.27734002 -0.60377645 0.512822 0.4875154 0.25282744 0.55918354
0.014743511 -0.6662659 -0.59134096 0.075810626
00000000: 6960 373e e629 fa3d 001b 9bbe b7bf 293e
00000010: c24e 3ebe 49e9 9d3d 3235 793e 6e12 ca3d
00000020: dd1c fcbd 60cd 533e 4413 3b3d a3e1 4c3e
00000030: f40b 4fbe 2a0f c3be 5c64 2f3e cdc3 bcbe
00000040: c26e d8bd 2218 343e 5b82 4c3e a3e8 40bc
00000050: 875d e63e dc8b 4dbe 632d 253d 7d95 8bbe
00000060: 49ac d1bd 385f 893c d0e9 cdbe 963d 993d
00000070: a6a1 5dbe b782 ecbe 6402 eebe aa1d 20bf
00000080: f856 833d 7dc7 e9be fc08 fb3e bb90 a9be
00000090: e33b 033f a75a 05bf 309e 803e 8aeb 13bf
000000a0: 33f0 f33e 1bef 7fbe 2dbd 9f3e 76cc 28bf
000000b0: 7cba f3be a5de 1bbf 6a37 f5be 4287 0b3f
000000c0: da28 ac3e 5766 903e 83ff 8d3e 1891 1abf
000000d0: 4d48 033f 9e9b f93e 9972 813e a726 0f3f
000000e0: c48e 713c 6790 2abf 1f62 17bf 9a42 9b3d

action_model._continuous_distribution.mu.bias f4 [2]
0.029208653 0.1888603
00000000: fc46 ef3c 9864 413e
