Assets/ML-Agents/Training Files/results/9roads_imitation_gail&behavior_MonzaNewChkptReachRwd/VehicleAgent/VehicleAgent-13999976.onnx (onnx, 156328 bytes, 9 tensors)

network_body._body_endoder.seq_layers.0.weight f4 [128, 38]
-0.19311006 0.24039015 -0.1589348 -0.029273327 -0.47371638 0.040624432 0.18746948 -0.086669326
-0.17633976 0.28385237 0.1097754 -0.15396306 0.18538892 -0.015298748 0.12264176 -0.07503749
-0.16029888 0.008176024 0.067274086 -0.053099774 -0.0137074925 -0.34119368 0.03879849 -0.1389038
-0.055727422 0.019415779 -0.14513744 -0.017987236 -0.037174527 0.3098252 -0.08506669 0.1905691
0.13597912 0.43901974 -0.28377336 5.5404693e-05 -0.20480266 -0.033169724 -0.12341039 -0.40923363
-0.23177129 -0.14733589 0.29450402 -0.7964556 -0.18552847 0.37456116 0.013824207 0.02898768
-0.39401877 -0.3820192 -0.016136073 0.058184203 0.20220879 0.053257957 0.3881253 0.15893695
0.33115113 0.109592676 0.11765605 -0.06654418 0.3698625 0.12625389 0.2595176 -0.037909415
0.075795755 -0.10284719 -0.15107338 -0.58391273 -0.26324958 0.21327372 0.38903803 -0.040438026
0.037412275 0.08235151 -0.31817737 -0.08191148 0.07831733 -0.3051653 0.054374915 -0.10292241
0.067056425 0.32997438 -0.08458214 -0.0073178005 -0.10545241 -0.22239776 0.12287261 -0.040657457
0.35956207 -0.09866308 -0.12507439 0.03898035 0.16173263 0.065418206 -0.11847559 0.1952808
0.13895966 0.034113485 0.19638926 0.004558486 -0.110527284 0.1910403 0.26900423 0.23498644
-0.057275683 0.17346436 -0.22150064 -0.008105408 0.18732612 0.18435088 -0.49143705 0.054605164
0.04662744 -0.035198376 -0.36785287 0.11251726 -0.18860596 -0.037751477 -0.02599725 0.029769694
-0.16987461 -0.15106902 0.017630612 -0.08902449 -0.19023497 0.028506542 0.0549179 -0.20530783
-0.06859783 -0.1992816 -0.21980606 -0.20466307 -0.018294675 -0.081864975 0.20897397 -0.040411867
-0.022706963 -0.0070898943 -0.21086986 -0.11585698 0.05634295 0.26697648 0.031182818 0.49357262
0.08946724 -0.15611564 -0.13015178 0.31173292 0.090163745 0.0063028894 0.056660812 0.022397
0.17884956 0.0029195591 0.5169672 0.18602106 -0.07318309 -0.05120256 0.11852475 -0.36985385
-0.08633183 -0.48139378 0.07182767 0.21699415 0.08570104 0.21489677 0.2554569 -0.040794775
-0.032137044 0.015227869 -0.29339284 -0.0072601484 -0.32785624 -0.26551306 -0.30067232 0.13409257
-0.11903277 0.18734224 0.05120702 0.08026789 -0.24201079 -0.0411673 0.24472846 -0.10476463
-0.42057505 0.17581703 0.08139445 0.044808634 0.10815079 -0.3058636 -0.098836675 -0.36572313
0.16481258 0.2919911 -0.39931917 -0.031313226 0.18847655 0.006600869 0.14375244 -0.113465264
-0.035044763 0.0031480864 -0.21106656 -0.439712 -0.035081934 -0.0062761386 0.16311571 -0.11659444
0.24988556 -0.030185616 -0.26711676 0.2373337 -0.014388656 -0.24057645 -0.024315406 -0.103047505
0.39232913 -0.035927586 0.20999485 -0.41328576 0.12867436 0.09054517 0.068571076 0.06397471
0.118502446 0.21663862 0.15877455 0.05071138 -0.25303155 0.1153026 -0.039512973 0.17407483
0.24515024 -0.17408183 -0.03228123 -0.325122 0.03997379 0.20853193 -0.08919299 0.021257984
0.24021576 0.28339052 -0.39735562 -0.06380509 0.11151559 0.0998359 0.052599307 -0.2638262
0.30629206 0.052264027 -0.0077088587 -0.11587347 -0.17248401 -0.0040571853 0.19104736 0.059900858
00000000: a5be 45be d628 763e cebf 22be 9ece efbc
00000010: f48a f2be ce65 263d 00f8 3f3e b07f b1bd
00000020: 6992 34be 1955 913e edd1 e03d 7ea8 1dbe
00000030: 98d6 3d3e 9aa7 7abc 9a2b fb3d 41ad 99bd
00000040: 6425 24be bbf4 053c ffc6 893d 267f 59bd
00000050: 6495 60bc f0b0 aebe 2aeb 1e3d cc3c 0ebe
00000060: 7042 64bd d70d 9f3c e99e 14be f859 93bc
00000070: 5144 18bd 69a1 9e3e 7237 aebd 8c24 433e
00000080: 1c3e 0b3e 32c7 e03e be4a 91be 5662 6838
00000090: cab7 51be fadc 07bd 96be fcbd 1287 d1be
000000a0: 7455 6dbe 38df 16be 3bc9 963e 84e4 4bbf
000000b0: 2dfb 3dbe 7bc6 bf3e ed7e 623c 9277 ed3c
000000c0: d4bc c9be 0598 c3be cc2f 84bc 8f52 6e3d
000000d0: d20f 4f3e 0425 5a3d 5cb8 c63e 5ec0 223e
000000e0: a48c a93e 2072 e03d a8f5 f03d 5148 88bd
000000f0: 9e5e bd3e b348 013e 7edf 843e e746 1bbd
00000100: ce3a 9b3d 8ca1 d2bd fbb2 1abe 4e7b 15bf
00000110: a6c8 86be 6d64 5a3e fe2f c73e 58a2 25bd
00000120: 9d3d 193d e9a7 a83d 25e8 a2be 35c1 a7bd
00000130: d664 a03d a03e 9cbe 3bb8 5e3d fcc8 d2bd
00000140: e154 893d 67f2 a83e 6739 adbd 29ca efbb
00000150: 6ff7 d7bd 3dbc 63be a3a4 fb3d 6f88 26bd
00000160: 8518 b83e de0f cabd 8013 00be dca9 1f3d
00000170: 3d9d 253e fbf9 853d 55a3 f2bd b1f7 473e
00000180: 714b 0e3e 95ba 0b3d 441a 493e 5a5f 953b
00000190: 215c e2bd 12a0 433e ecba 893e 49a0 703e
000001a0: e899 6abd a4a0 313e 10d1 62be 8ccc 04bc
000001b0: 6bd2 3f3e 7ac6 3c3e a39d fbbe aaa9 5f3d
000001c0: 6afc 3e3d 2c2c 10bd 3657 bcbe 736f e63d
000001d0: ec21 41be 4ba1 1abd 2ff8 d4bc 93df f33c
000001e0: 9cf3 2dbe d6b1 1abe 136e 903c 7952 b6bd
000001f0: f5cc 42be 8d86 e93c 98f1 603d 373c 52be
00000200: 057d 8cbd 7a10 4cbe d714 61be 3293 51be
00000210: b7de 95bc d3a8 a7bd 46fd 553e ea86 25bd
00000220: f403 babc 5852 e8bb 45ee 57be 6d46 edbd
00000230: ddc7 663d 24b1 883e 1c73 ff3c 8db5 fc3e
00000240: 9a3a b73d c7dc 1fbe 8246 05be 759b 9f3e
00000250: c5a7 b83d 7888 ce3b 2b15 683d ea79 b73c
00000260: 5724 373e 1356 3f3b f657 043f 4e7c 3e3e
00000270: 04e1 95bd c7b9 51bd 1bbd f23d 7c5d bdbe
00000280: bece b0bd 3f79 f6be 631a 933d b733 5e3e
00000290: 0784 af3d e60d 5c3e 3fcb 823e 6c18 27bd
000002a0: 22a2 03bd 507e 793c 9637 96be 8ae6 edbb
000002b0: c6dc a7be 54f1 87be b9f1 99be 904f 093e
000002c0: 74c7 f3bd a5d6 3f3e 74be 513d 7e63 a43d
000002d0: add1 77be 0b9f 28bd 199a 7a3e d78e d6bd
000002e0: 9d55 d7be 6109 343e 22b2 a63d 4289 373d
000002f0: 297e dd3d 279a 9cbe e26a cabd 1040 bbbe
00000300: a1c4 283e dc7f 953e 9073 ccbe 4c42 00bd
00000310: ffff 403e 1a4c d83b d733 133e 7a60 e8bd
00000320: 198b 0fbd 2050 4e3b d521 58be ee21 e1be
00000330: 13b2 0fbd 11a8 cdbb ce07 273e 11c9 eebd
00000340: 00e2 7f3e d347 f7bc 87c3 88be 9b07 733e
00000350: 66be 6bbc ac59 76be 1a31 c7bc 920a d3bd
00000360: 5ddf c83e ce28 13bd e408 573e 319a d3be
00000370: 36c3 033e bf6f b93d fe6e 8c3d 2c05 833d
00000380: 69b1 f23d 84d6 5d3e cc95 223e bcb6 4f3d
00000390: 5a8d 81be c523 ec3d 5bd8 21bd ac40 323e
000003a0: aa08 7b3e 8242 32be 5339 04bd 6476 a6be
000003b0: 8fbb 233d 6589 553e d0aa b6bd 3925 ae3c
000003c0: 1ffb 753e 9018 913e 3272 cbbe 3eac 82bd
000003d0: 4962 e43d c476 cc3d 5f72 573d 3a14 87be
000003e0: 50d2 9c3e ce12 563d 989a fcbb 124f edbd
000003f0: a69f 30be 23f2 84bb eba1 433e 9a5a 753d

network_body._body_endoder.seq_layers.0.bias f4 [128]
0.0009771395 0.034195364 -0.037905026 -0.03052349 -0.013288539 0.004230852 -0.025116012 0.027579598
0.032121837 0.04523445 0.048447467 -0.03165579 0.042519957 -0.0037744527 -0.0151893385 -0.042266224
0.00597366 -0.06086785 -0.00057322456 0.014260195 -0.0554947 0.062116887 0.040481623 0.010732383
0.06271947 -0.09351526 0.0005174025 -0.039224233 0.005682058 -0.012535498 -0.022005692 -0.024741188
-0.091181636 0.042086042 0.017601248 -0.019903691 0.008650085 0.007940844 -0.05172527 -0.043652732
0.046161182 0.004724199 -0.024469908 0.0028608444 0.005757741 -0.017317846 -0.0054541845 0.00087565626
-0.00038104973 0.0009690209 0.050240047 -0.06898448 -0.0077329674 -0.020401264 0.003572045 0.06983861
0.088996544 0.026694205 -0.11835467 -0.025809579 -0.034515705 0.046008795 0.029291008 0.019604452
0.05946039 0.0016565126 -0.035333026 0.06516633 0.0066646687 0.027249197 -0.06979647 -0.041189432
0.016382411 0.089235306 0.01585528 -0.0040519396 -0.065533504 -0.0022333423 -0.01336702 -0.0063228
-0.029512182 0.0400504 0.06314946 0.023054797 0.017801184 -0.091672935 -0.08293647 -0.04462749
0.023093438 -0.067337915 -0.031651083 -0.03061323 -0.06531329 -0.037822153 0.00016156166 0.004618641
-0.011755629 0.029320225 0.03591077 0.004241449 0.042852584 0.08810194 -0.022226844 0.0010132075
0.0011856052 -0.0490487 -0.009126984 -0.0036033725 -0.004569383 -0.04309067 -0.052681595 0.037110556
0.04047804 0.011071271 -0.04498127 0.027296301 0.007878344 -0.009743431 -0.055505957 -0.013827522
0.05889605 0.0327023 -0.006392753 0.014468762 0.015239825 0.03700048 -0.0028234776 -0.03266664
00000000: 5c13 803a 7010 0c3d 4d42 1bbd 660c fabc
00000010: 2cb8 59bc f5a2 8a3b 18c0 cdbc 9cee e13c
00000020: 3092 033d c247 393d da70 463d 80a9 01bd
00000030: 6829 2e3d cf5c 77bb b4dc 78bc 591f 2dbd
00000040: b1be c33b 9150 79bd 7344 16ba 98a3 693c
00000050: 694e 63bd 476e 7e3d 0fd0 253d e0d6 2f3c
00000060: 1173 803d ee84 bfbd 4ba2 073a 97a9 20bd
00000070: 8f30 ba3b b061 4dbc 4845 b4bc 08ae cabc
00000080: 70bd babd 6a62 2c3d 7e30 903c 110d a3bc
00000090: 16b9 0d3c 501a 023c e0dd 53bd 35cd 32bd
000000a0: 8213 3d3d 74cd 9a3b 1e75 c8bc 017d 3b3b
000000b0: 6fab bc3b 28de 8dbc 04b9 b2bb 4c8c 653a
000000c0: a1c7 c7b9 e405 7e3a 82c8 4d3d bc47 8dbd
000000d0: d564 fdbb 8d20 a7bc f818 6a3b 8c07 8f3d
000000e0: d243 b63d cead da3c ef63 f2bd 9c6e d3bc
000000f0: 5760 0dbd b873 3c3d b2f3 ef3c 8499 a03c
00000100: bd8c 733d 571f d93a 5db9 10bd ed75 853d
00000110: 4b63 da3b b539 df3c 74f1 8ebd 40b6 28bd
00000120: 6834 863c 00c1 b63d efe2 813c 22c6 84bb
00000130: 6e36 86bd 445d 12bb 5801 5bbc 7e2f cfbb
00000140: 88c3 f1bc e30b 243d 8154 813d 6add bc3c
00000150: cad3 913c 05bf bbbd 99da a9bd 51cb 36bd
00000160: 732e bd3c 76e8 89bd 91a4 01bd 99c8 fabc
00000170: f9c2 85bd 67eb 1abd e168 2939 f857 973b
00000180: af9a 40bc f830 f03c 2c17 133d dafb 8a3b
00000190: 3186 2f3d ca6e b43d 1215 b6bc 9acd 843a
000001a0: 4f66 9b3a 4ae7 48bd 5889 15bc 8f26 6cbb
000001b0: c3ba 95bb d87f 30bd a8c8 57bd 3d01 183d
000001c0: 4dcc 253d 4764 353c 483e 38bd 7e9c df3c
000001d0: 2b14 013c e9a2 1fbc 375a 63bd d58c 62bc
000001e0: fc3c 713d d9f2 053d 4d7a d1bb 630e 6d3c
000001f0: 75b0 793c d18d 173d 180a 39bb 74cd 05bd

network_body._body_endoder.seq_layers.2.weight f4 [128, 128]
0.05328825 -0.3698301 0.035246693 0.004196045 0.21922545 0.009209687 -0.06815772 -0.26362118
0.15163067 -0.09254647 -0.21469608 -0.016292054 -0.09854131 0.095692396 0.003196458 0.118158005
0.10999036 -0.12628235 -0.08842563 0.13215807 0.097910985 -0.07264285 -0.11497109 -0.18966687
0.25894982 0.074364744 0.38808256 -0.0029566297 0.13447154 0.05903228 -0.21657966 0.19728358
-0.033544805 0.18829079 0.13528295 -0.16817836 0.08963706 -0.11737885 0.12325996 0.07604721
-0.02687436 -0.13006386 -0.060763415 -0.26072562 0.14234674 -0.068524815 -0.011486434 0.07882803
0.0028451218 -0.22198777 0.27857044 -0.21451351 0.01242214 0.066439524 -0.061313435 0.07010349
0.18674879 0.033265978 -0.24511565 0.2937573 -0.22967461 0.0527476 0.12344271 0.009021112
0.3181834 -0.051196247 0.16458955 0.066259675 0.18555641 -0.10357458 -0.23329693 -0.231243
0.058653835 0.07843411 -0.066005036 0.07053016 -0.037111707 0.09407139 0.22961633 0.1531008
0.124425635 -0.08711143 -0.24367352 -0.2749619 0.01614079 0.012968844 0.07534029 0.04695003
0.06961583 0.12946083 -0.13026504 -0.0070174476 -0.24863167 -0.025490796 -0.11681625 0.060131088
-0.024525426 0.26901177 -0.19646314 0.22887745 -0.15061906 0.123604625 0.35859334 -0.19844988
0.15349974 0.18297014 -0.2987014 0.20671447 -0.0012075275 -0.0842871 -0.05081451 -0.23761116
0.30739048 -0.035049833 -0.06428565 0.025315143 0.012253966 -0.07127224 0.07018304 -0.14145881
-0.057527874 0.031694144 0.012233722 -0.085796766 -0.04438119 0.1355767 0.19323394 0.37125936
0.002554173 0.064604 -0.051180203 0.19669767 -0.0011376513 -0.02149585 0.18569458 0.08808951
-0.11718356 0.14550936 -0.026819278 -0.096703574 0.109032966 -0.03510742 -0.15651365 0.08633595
0.040640578 -0.070887834 0.044009015 -0.05163647 -0.039898746 -0.10727589 0.11586501 -0.012301707
-0.0025803812 0.0030791073 -0.052649707 -0.06893312 0.1560092 -0.09184747 -0.06386937 -0.021196933
0.034571305 -0.0042039896 -0.12924047 -0.09625343 0.032623183 -0.18068701 -0.17722152 -0.03236062
-0.0840901 -0.030380085 0.01632768 0.09680689 0.08364759 0.06438133 0.03132667 -0.0035625994
0.08856898 0.062310964 -0.205213 0.017892456 -0.042692598 -0.09500531 -0.0016959601 -0.06843431
-0.13436198 0.10015472 -0.039058223 -0.13497165 -0.17102897 0.055459045 -0.11789739 0.09400752
-0.15302566 -0.07272293 -0.048999265 -0.06917214 -0.05245748 -0.18704052 0.04809907 0.028217569
-0.028465154 0.009047301 -0.029551465 0.12970522 -0.041791305 0.05358292 -0.18365757 -0.24661744
-0.08340526 0.024885215 0.036368098 0.08071347 0.09331796 -0.0050948774 -0.10584553 0.17218088
0.07028101 -0.0001954447 0.055669755 0.11378627 0.039540526 -0.07882846 -0.08584253 -0.108372614
-0.02250928 -0.014580553 -0.13660908 0.03243074 0.10230511 -0.101378135 -0.1176726 0.010994009
-0.14073688 -0.0013365363 0.043045737 0.031411823 0.054823764 -0.013700388 0.061415885 0.1322767
-0.19657144 -0.024361713 -0.053121272 -0.0037135147 0.027996771 0.06771381 -0.114588104 0.10409068
0.0931427 0.020751556 -0.055124313 0.2406312 0.088501856 0.0952165 -0.020738062 0.025588654
00000000: c844 5a3d 5f5a bdbe d65e 103d fa7e 893b
00000010: a37c 603e 3ae4 163c 4696 8bbd 5bf9 86be
00000020: 1245 1b3e 0189 bdbd 4ad9 5bbe ea76 85bc
00000030: 07d0 c9bd 60fa c33d ab7b 513b d3fc f13d
00000040: a042 e13d 2950 01be 7f18 b5bd 7254 073e
00000050: 8e85 c83d c6c5 94bd f675 ebbd 0838 42be
00000060: 1295 843e 8b4c 983d c2b2 c63e 04c4 41bb
00000070: e8b2 093e d5cb 713d 0fc7 5dbe b504 4a3e
00000080: 4766 09bd 4dcf 403e 9d87 0a3e f336 2cbe
00000090: a393 b73d 5364 f0bd b86f fc3d a4be 9b3d
000000a0: 9e27 dcbc 762f 05be 0fe3 78bd d47d 85be
000000b0: 58c3 113e bd56 8cbd 9931 3cbc 9770 a13d
000000c0: 3975 3a3b c350 63be c9a0 8e3e 6ea9 5bbe
000000d0: 3b86 4b3c 7211 883d cc23 7bbd 6b92 8f3d
000000e0: 133b 3f3e e841 083d 99ff 7abe 5b67 963e
000000f0: d22f 6bbe de0d 583d 88cf fc3d 49cd 133c
00000100: efe8 a23e 28b3 51bd 2a8a 283e 27b3 873d
00000110: 8002 3e3e e91e d4bd 64e5 6ebe f7ca 6cbe
00000120: 013f 703d 10a2 a03d a62d 87bd 1e72 903d
00000130: 7202 18bd 80a8 c03d 8b20 6b3e 75c6 1c3e
00000140: ded2 fe3d 7a67 b2bd 8d85 79be cec7 8cbe
00000150: b139 843c 467b 543c 034c 9a3d ad4e 403d
00000160: bf92 8e3d 6191 043e 3364 05be 9ef2 e5bb
00000170: 4d99 7ebe 13d2 d0bc 5c3d efbd 044c 763d
00000180: 8ce9 c8bc e9bb 893e a22d 49be da5e 6a3e
00000190: e23b 1abe 6c24 fd3d 8c99 b73e 7236 4bbe
000001a0: 092f 1d3e 865c 3b3e 64ef 98be f5ac 533e
000001b0: e645 9eba b79e acbd e022 50bd 5750 73be
000001c0: 4962 9d3e 6a90 0fbd 32a8 83bd b461 cf3c
000001d0: dcc4 483c 2ef7 91bd 20bc 8f3d 94da 10be
000001e0: 59a2 6bbd b8d1 013d f36f 483c 37b6 afbd
000001f0: 0dc9 35bd 9ed4 0a3e 1edf 453e b515 be3e
00000200: ea63 273b 1a4f 843d 55a2 51bd 1d6b 493e
00000210: 3e1d 95ba 1118 b0bc b826 3e3e 4668 b43d
00000220: effd efbd 6800 153e 1ab4 dbbc 860c c6bd
00000230: ad4c df3d cccc 0fbd 1d45 20be e7d0 b03d
00000240: bc76 263d a42d 91bd cc42 343d c380 53bd
00000250: de6c 23bd 76b3 dbbd a24a ed3d 198d 49bc
00000260: 9d1b 29bb d9ca 493b 38a7 57bd cf2c 8dbd
00000270: e0c0 1f3e 871a bcbd f2cd 82bd 31a5 adbc
00000280: a49a 0d3d 9fc1 89bb 9d57 04be 8520 c5bd
00000290: e39f 053d 0406 39be 8f79 35be 928c 04bd
000002a0: 6e37 acbd a8df f8bc a0c1 853c b142 c63d
000002b0: 6d4f ab3d 5cda 833d 6550 003d 807a 69bb
000002c0: a763 b53d c839 7f3d 5b23 52be 3393 923c
000002d0: 6fde 2ebd 2592 c2bd fa4a deba 4a27 8cbd
000002e0: 3096 09be eb1d cd3d 84fb 1fbd 0236 0abe
000002f0: 3822 2fbe 0629 633d 3074 f1bd 0487 c03d
00000300: c2b2 1cbe c2ef 94bd 74b3 48bd 1faa 8dbd
00000310: a8dd 56bd 8d87 3fbe 8803 453d 8828 e73c
00000320: c12f e9bc 213b 143c ea15 f2bc 72d1 043e
00000330: 5c2d 2bbd c479 5b3d bb10 3cbe 4889 7cbe
00000340: 61d0 aabd 14dc cb3c b7f6 143d 1b4d a53d
00000350: 7d1d bf3d eef2 a6bb 8bc5 d8bd 2f50 303e
00000360: 7def 8f3d 4af0 4cb9 f805 643d c708 e93d
00000370: 3ff5 213d d170 a1bd 35ce afbd 76f2 ddbd
00000380: 6265 b8bc 46e3 6ebc 40e3 0bbe 18d6 043d
00000390: 5785 d13d 579f cfbd 55fe f0bd 3720 343c
000003a0: 541d 10be b72e afba ba50 303d afa9 003d
000003b0: e28e 603d 9877 60bc 398f 7b3d 8b73 073e
000003c0: 064a 49be 3792 c7bc b195 59bd 705e 73bb
000003d0: 7c59 e53c 8aad 8a3d 2bad eabd 7f2d d53d
000003e0: 9ac1 be3d 2bff a93c 08ca 61bd 0668 763e
000003f0: 7640 b53d de00 c33d dee2 a9bc 4c9f d13c

network_body._body_endoder.seq_layers.2.bias f4 [128]
0.0066222716 -0.023596987 0.0005261575 -0.036953278 0.004131341 0.018049486 -0.08435978 -0.006543247
0.008478272 -0.052225165 -0.04652992 0.010900258 -0.040061757 -0.011056068 -0.010824588 -0.008486621
-0.010458869 -0.013802786 0.028290624 -0.056693643 0.024664028 -0.00012089945 -0.064701855 -0.0936449
-0.014667267 0.048153166 -0.015677096 -0.031070838 -0.066511706 -0.02196261 0.022035997 -0.030972475
-0.028261736 -0.0670243 -0.03782757 0.0053531537 -0.035545807 -0.088577 -0.03146127 0.010734655
-0.09547018 0.0261199 -0.006925458 0.0145752905 -0.00685088 -0.058891896 -0.083470866 -0.025355933
0.0028381974 -0.057460237 -0.08821022 -0.05387272 -0.044837017 -0.075705834 0.05123952 -0.051171776
-0.056519356 -0.11237169 0.013882462 0.0036836893 0.016483052 -0.006829754 -0.055870604 -0.012249354
-0.0012085901 0.0038056027 -0.012152008 -0.014202166 -0.0125388475 -0.03871784 -0.040002253 -0.038369916
0.011887106 0.0040205442 -0.024972444 -0.024244169 -0.024707519 -0.050748054 -0.054579783 -0.0071093496
-0.010465795 -0.0068854736 0.03757232 -0.044792123 -0.062194068 -0.06046425 -0.017990047 -0.038221065
-0.0066023734 -0.033418033 -0.025407372 -0.02297796 0.030229531 -0.062222384 0.0076702344 0.00843173
-0.018976416 -0.020720972 -0.015928987 0.001043924 0.012090579 -0.023645883 -0.038765572 -0.03975368
0.031891946 0.02324743 -0.05273698 -0.03159102 -0.008941191 -0.04309469 0.024213478 0.01601173
-0.015574165 -0.01215674 -0.027323287 0.011376631 -0.0067859525 0.0020512948 -0.07507083 -0.031459793
0.00071895827 -0.0053357636 -0.030426584 -0.035664484 -0.07003934 -0.055290356 0.004113223 -0.023264742
00000000: a4ff d83b 784e c1bc d5ed 093a 525c 17bd
00000010: 3360 873b 84dc 933c d2c4 acbd bc68 d6bb
00000020: 73e8 0a3c 0eea 55bd 2896 3ebd ff96 323c
00000030: cc17 24bd 8324 35bc 9d59 31bc 780b 0bbc
00000040: ad5b 2bbc 1525 62bc bdc1 e73c 9837 68bd
00000050: 370c ca3c 668b fdb8 6882 84bd e6c8 bfbd
00000060: fa4e 70bc 413c 453d 416d 80bc 4588 febc
00000070: 4a37 88bd eeea b3bc d684 b43c fdb9 fdbc
00000080: 2885 e7bc 0944 89bd 15f1 1abd 8269 af3b
00000090: 7b98 11bd dc67 b5bd 88dd 00bd 68e0 2f3c
000000a0: df85 c3bd 67f9 d53c f4ee e2bb 33cd 6e3c
000000b0: 597d e0bb a138 71bd c6f2 aabd 3fb7 cfbc
000000c0: 0d01 3a3b 6d5b 6bbd 8fa7 b4bd a4a9 5cbd
000000d0: 05a7 37bd a90b 9bbd 88e0 513d 7f99 51bd
000000e0: d780 67bd 2123 e6bd 4473 633c 0d6a 713b
000000f0: 7707 873c 21cc dfbb 93d8 64bd 84b1 48bc
00000100: 8e69 9eba 6b67 793b 3719 47bc 34b0 68bc
00000110: bd6f 4dbc 9996 1ebd 67d9 23bd c629 1dbd
00000120: 23c2 423c c5be 833b 0393 ccbc b59b c6bc
00000130: 6c67 cabc 31dd 4fbd 0d8f 5fbd 8cf5 e8bb
00000140: ba78 2bbc 8a9f e1bb 6fe5 193d f277 37bd
00000150: 35bf 7ebd 5da9 77bd dd5f 93bc b18d 1cbd
00000160: b958 d8bb 59e1 08bd 1f23 d0bc 463c bcbc
00000170: eca3 f73c e6dc 7ebd 9756 fb3b 3d25 0a3c
00000180: 6e74 9bbc 07bf a9bc 827d 82bc 47d4 883a
00000190: 9017 463c 03b5 c1bc a6c8 1ebd c1d4 22bd
000001a0: 21a1 023d 6571 be3c bb02 58bd 9665 01bd
000001b0: 137e 12bc 0f84 30bd 585b c63c 082b 833c
000001c0: c82a 7fbc 102d 47bc 16d5 dfbc 0d65 3a3c
000001d0: b25c debb 046f 063b bcbe 99bd fcdb 00bd
000001e0: 7978 3c3a a1d7 aebb 2c41 f9bc ec14 12bd
000001f0: c970 8fbd 2478 62bd 37c8 863b b395 bebc

network_body._body_endoder.seq_layers.4.weight f4 [128, 128]
-0.037788887 -0.15560886 -0.056447312 0.0031443662 0.11299531 0.070908755 -0.07107507 -0.016880333
0.03195832 0.0019097639 -0.048925497 0.035671182 -0.093008116 -0.08720757 0.19343072 -0.06009663
-0.019236812 -0.011440559 0.061926834 -0.08574094 0.03435802 0.06962863 -0.10178329 0.04747675
0.015727295 -0.37808976 -0.07803687 0.13964295 -0.016584307 -0.049880266 0.09103654 -0.12706286
-0.08444872 -0.1675111 -0.10837799 0.020506434 -0.17337334 0.14900482 0.1520606 0.07767443
-0.123709254 -0.0030547676 -0.08041375 -0.13138855 0.10731519 0.09714351 0.003011224 -0.014609165
-0.016767362 0.04009387 0.04017984 -0.15974626 -0.018352278 -0.0466101 0.21829285 0.013820128
-0.20063 -0.028300943 0.21591695 0.08613758 -0.028468758 -0.116940945 -0.04728999 0.07445516
0.1545144 -0.10051752 -0.2508272 -0.07456081 -0.18122998 -0.10464608 0.09246018 -0.0043414347
-0.021540148 0.11229065 0.06711813 -0.17069699 0.17446035 -0.1301069 -0.090984255 -0.18568176
-0.09111118 0.020063596 0.13945623 -0.07982393 0.14888927 0.06007508 -0.19800021 0.02268429
-0.108982556 0.07550797 0.015228523 -0.12324164 -0.1395131 -0.10938911 -0.0567513 -0.15594606
-0.17414123 -0.1812078 -0.16390492 -0.11743329 -0.08761506 0.11875329 -0.049438383 -0.11105005
-0.4111897 0.06733967 -0.2420933 0.011982396 -0.14817113 0.053302154 -0.14455587 -0.061800025
-0.3590595 0.12438845 0.06391131 -0.017151078 -0.25058421 -0.09240546 0.15388374 -0.16732556
-0.053527426 -0.05995688 -0.12095114 -0.011340682 -0.040977817 0.061471697 -0.06925296 0.113924526
-0.017165441 -0.04201384 0.036845442 0.03202032 -0.24098174 0.12275053 -0.0017302914 -0.04572442
0.07892987 -0.055582378 -0.04406527 -0.06066509 -0.057415597 0.0018383805 -0.013694385 0.065309405
0.116777495 0.17582098 -0.08143332 0.05549684 0.20064318 0.18182398 -0.07452941 0.005059844
-0.100355655 0.07150255 0.05537301 -0.18568482 0.045551017 0.023673026 -0.14606091 -0.056085803
-0.059158687 0.03184891 0.0001454874 0.082655445 0.07702081 -0.11903716 0.011595104 -0.05811148
0.017443208 0.03429056 0.08829481 0.05277255 0.0039411187 0.08210142 0.12718114 -0.057491917
-0.008921158 0.16058539 -0.021772357 0.15916643 -0.020131564 0.07552863 -0.02576886 0.05959491
0.044267256 -0.012005655 -0.08920267 0.009525474 0.101279795 -0.017621761 -0.052475955 0.071128055
0.04657432 -0.03006173 -0.03706443 0.101515144 0.023158163 0.0345832 0.14418066 0.073024966
-0.2428486 -0.088014305 0.005592714 -0.014529047 -0.10301611 0.04441986 0.028816849 -0.08094194
0.018134959 -0.03642466 -0.036504336 0.0100642685 -0.08603265 0.08170457 0.06225667 0.04448124
-0.09764425 -0.03652921 0.27773967 -0.1447672 0.0013863322 0.06528225 -0.016212668 -0.101139896
-0.053799845 -0.060918048 0.10756648 -0.050531965 0.14825614 -0.07544511 -0.028725045 0.04189205
0.07380478 -0.10639745 0.0033357101 -0.084687345 -0.19097494 -0.037444074 0.060435165 -0.1330384
0.0044277646 0.005647458 -0.017560493 0.018438743 0.0753826 -0.052158464 -0.010646358 0.08904329
0.051508687 -0.13732086 -0.031734098 -0.17938839 0.23421958 -0.0030545525 0.0053111864 -0.03408041
00000000: 85c8 1abd ee57 1fbe 4c35 67bd b611 4e3b
00000010: 166a e73d 9c38 913d ce8f 91bd a048 8abc
00000020: bae6 023d 0b51 fa3a 1a66 48bd f21b 123d
00000030: 0a7b bebd e299 b2bd b412 463e e227 76bd
00000040: 8596 9dbc 2f71 3bbc fea6 7d3d f298 afbd
00000050: ffba 0c3d 7599 8e3d c273 d0bd fb76 423d
00000060: 87d6 803c fb94 c1be cbd1 9fbd 90fe 0e3e
00000070: d0db 87bc 404f 4cbd 5e71 ba3d c41c 02be
00000080: 73f3 acbd 0888 2bbe 48f5 ddbd 1cfd a73c
00000090: c888 31be b894 183e c6b5 1b3e c613 9f3d
000000a0: 475b fdbd 7f32 48bb f7af a4bd b88a 06be
000000b0: 11c8 db3d 2df3 c63d f557 453b 475b 6fbc
000000c0: b55b 89bc 7839 243d 9e93 243d 8694 23be
000000d0: 8457 96bc 3bea 3ebd 2988 5f3e d16d 623c
000000e0: f371 4dbe 61d7 e7bc 5519 5d3e e668 b03d
000000f0: 5037 e9bc bc7e efbd 26b3 41bd f27b 983d
00000100: 0639 1e3e 21dc cdbd 6c6c 80be 57b3 98bd
00000110: 5a94 39be af50 d6bd c35b bd3d 9842 8ebb
00000120: f774 b0bc a4f8 e53d 3b75 893d 31cb 2ebe
00000130: bca5 323e be3a 05be f455 babd 5c23 3ebe
00000140: 8098 babd 695c a43c 9dcd 0e3e bb7a a3bd
00000150: 6e76 183e 4911 763d 91c0 4abe 67d4 b93c
00000160: 3f32 dfbd eca3 9a3d 0e81 793c 1d66 fcbd
00000170: 86dc 0ebe 6607 e0bd 0d74 68bd 53b0 1fbe
00000180: 1452 32be 8a8e 39be b1d6 27be dd80 f0bd
00000190: 866f b3bd ed34 f33d e77f 4abd 356e e3bd
000001a0: 7587 d2be 62e9 893d 4ee7 77be d051 443c
000001b0: 2cba 17be 5c53 5a3d 7406 14be 0622 7dbd
000001c0: a6d6 b7be 5fbf fe3d efe3 823d 6b80 8cbc
000001d0: 934c 80be 133f bdbd b393 1d3e 6457 2bbe
000001e0: 933f 5bbd 5895 75bd 3bb5 f7bd 45ce 39bc
000001f0: 5bd8 27bd bfc9 7b3d 7fd4 8dbd 4351 e93d
00000200: 8a9e 8cbc b416 2cbd 3feb 163d bd27 033d
00000210: ebc3 76be a164 fb3d f2ca e2ba 8849 3bbd
00000220: fca5 a13d 59aa 63bd c97d 34bd f57b 78bd
00000230: 9e2c 6bbd d0f5 f03a 6a5e 60bc f0c0 853d
00000240: 0a29 ef3d 6a0a 343e 83c6 a6bd a850 633d
00000250: 6875 4d3e 1130 3a3e e0a2 98bd 0ccd a53b
00000260: 4487 cdbd ee6f 923d cfce 623d 2924 3ebe
00000270: b493 3a3d efed c13c fe90 15be 3aba 65bd
00000280: 6150 72bd 0174 023d fa8d 1839 4247 a93d
00000290: 16bd 9d3d c1c9 f3bd 64f9 3d3c 4e06 6ebd
000002a0: 0fe5 8e3c 4274 0c3d e9d3 b43d 0828 583d
000002b0: 8024 813b ca24 a83d c63b 023e a57c 6bbd
000002c0: 0c2a 12bc 7f70 243e f15b b2bc 86fc 223e
000002d0: f3ea a4bc c1ae 9a3d 3719 d3bc cb19 743d
000002e0: 9551 353d 5eb3 44bc e4af b6bd bc10 1c3c
000002f0: c86b cf3d 835b 90bc 07f1 56bd 96ab 913d
00000300: b7c4 3e3d 0444 f6bc dfd0 17bd 2ce7 cf3d
00000310: 30b6 bd3c 1da7 0d3d 18a4 133e 1d8e 953d
00000320: 4ead 78be d840 b4bd 1643 b73b 3d0b 6ebc
00000330: 1cfa d2bd 99f1 353d 5011 ec3c e3c4 a5bd
00000340: c48f 943c 0632 15bd 9285 15bd 9ae4 243c
00000350: e331 b0bd ba54 a73d da00 7f3d f631 363d
00000360: b5f9 c7bd a79f 15bd e533 8e3e da3d 14be
00000370: 97b5 b53a b3b2 853d 6ed0 84bc 6f22 cfbd
00000380: 3a5d 5cbd 3485 79bd d14b dc3d 9bfa 4ebd
00000390: 75d0 173e f782 9abd c950 ebbc 0097 2b3d
000003a0: f626 973d e8e6 d9bd ee9b 5a3b 8f70 adbd
000003b0: ef8e 43be f55e 19bd dd8a 773d 383b 08be
000003c0: c816 913b 500e b93b 06db 8fbc d90c 973c
000003d0: 3162 9a3d 1da4 55bd 106e 2ebc 545c b63d
000003e0: c6fa 523d d79d 0cbe 9dfb 01bd 97b1 37be
000003f0: 42d7 6f3e e32e 48bb 7609 ae3b e697 0bbd

network_body._body_endoder.seq_layers.4.bias f4 [128]
0.008536046 0.026708763 -0.009365367 0.03589853 0.033575255 -0.018840214 -0.047764555 -0.017706348
-0.0009348916 -0.002126785 -0.009513567 -0.04814272 0.00069091003 0.032688987 -0.00872053 0.010043332
-0.0095342975 0.0042016 0.0024451567 -0.05149116 -0.005413109 0.008285541 0.025483074 -0.014040379
0.005030734 0.018087905 -0.004401668 -0.0503289 -9.919884e-05 -0.0072388314 0.020331426 0.005449204
-0.048635162 -0.08530736 0.03578915 0.0037037714 -0.017213259 0.082649626 0.024404297 -0.011469417
-0.047068305 0.005564975 -0.06878685 0.023814319 -0.015713088 -0.057269715 0.008849626 0.007670127
-0.05196403 -0.022325428 0.0067938752 -0.076614894 -0.0068227258 -0.016300557 0.03432876 -0.049438752
-0.07248534 -0.012492855 0.011313255 -0.08296142 0.008489244 -0.07499283 -0.0121678505 -0.0043380326
0.007340777 -0.041957125 -0.008835722 -0.044824235 0.020692833 0.0041883197 0.028500034 0.008321433
-0.023516748 0.02202305 0.032042142 0.022256386 0.0028380752 0.048650917 0.026246661 0.0018409942
0.03758286 -0.008147835 0.034936514 0.009933728 0.000797339 0.05063277 0.0009764554 -0.0014249176
-0.009213027 -0.09899275 -0.014909172 -0.0022793289 -0.00982472 -0.028366074 -0.009771868 -0.00978751
0.0249354 -0.021889111 -0.035602007 -0.020448323 -0.048827842 0.028332913 -0.026571073 0.009557723
-0.004764035 -0.020411564 -0.009799077 -0.01809933 0.010362461 -0.0072672567 0.0020885868 -0.027189301
-0.018678479 0.035955977 0.042501908 0.008631018 -0.00850881 -0.0038402756 0.008355695 -0.021422168
-0.049780738 0.0077115074 -0.00035125326 -0.10841641 0.004972253 -0.026951011 0.024015572 0.025040384
00000000: c6da 0b3c 56cc da3c 3271 19bc 560a 133d
00000010: 3586 093d cb56 9abc c4a4 43bd e70c 91bc
00000020: 8313 75ba 8861 0bbb cbde 1bbc 4d31 45bd
00000030: 301e 353a e3e4 053d 8ee0 0ebc ca8c 243c
00000040: be35 1cbc 93ad 893b ec3e 203b 65e8 52bd
00000050: 7360 b1bb 14c0 073c e1c1 d03c 9e09 66bc
00000060: dbd8 a43b 162d 943c de3b 90bb ad25 4ebd
00000070: f908 d0b8 b833 edbb 178e a63c 3c8f b23b
00000080: aa35 47bd a0b5 aebd a597 123d f9ba 723b
00000090: d202 8dbc 3544 a93d 85eb c73c 39ea 3bbc
000000a0: b2ca 40bd 655a b63b 1fe0 8cbd 3f16 c33c
000000b0: bcb8 80bc a693 6abd 06fe 103c b055 fb3b
000000c0: 3cd8 54bd d1e3 b6bc 289f de3b 45e8 9cbd
000000d0: 2c91 dfbb bf88 85bc 509c 0c3d 4a80 4abd
000000e0: 3273 94bd d5ae 4cbc 3b5b 393c ade7 a9bd
000000f0: 7816 0b3c d795 99bd aa5b 47bc 0e26 8ebb
00000100: e78a f03b 3cdb 2bbd b4c3 10bc 9e99 37bd
00000110: 0484 a93c 2c3e 893b e778 e93c 9f56 083c
00000120: 32a6 c0bc af69 b43c 9f3e 033d 0653 b63c
00000130: 00ff 393b 2f46 473d 3d03 d73c 844d f13a
00000140: 7cf0 193d 7f7e 05bc 9719 0f3d 13c1 223c
00000150: 8404 513a 4f64 4f3d d0f8 7f3a 4dc4 baba
00000160: 3cf2 16bc b6bc cabd 9a45 74bc cb60 15bb
00000170: ddf7 20bc f85f e8bc 2f1a 20bc cb5b 20bc
00000180: 5345 cc3c cb50 b3bc 69d3 11bd 3e83 a7bc
00000190: b4ff 47bd 6d1a e83c 94ab d9bc ff97 1c3c
000001a0: 9f1b 9cbb 2736 a7bc 4f8c 20bc 0c45 94bc
000001b0: 50c7 293c 2b22 eebb ace0 083b 19bc debc
000001c0: 9c03 99bc 9346 133d 7b16 2e3d 1d69 0d3c
000001d0: 8968 0bbc 22ad 7bbb 53e6 083c 8b7d afbc
000001e0: e3e6 4bbd d0b0 fc3b 6a28 b8b9 6c09 debd
000001f0: 48ee a23b 5ec8 dcbc 4ebc c43c 7e21 cd3c

action_model._continuous_distribution.log_sigma f4 [1, 2]
-0.46592018 -0.45782465
00000000: 178d eebe fe67 eabe

action_model._continuous_distribution.mu.weight f4 [2, 128]
0.10206277 0.0039432244 0.0027389813 0.0027935766 0.001761152 -0.00042068562 0.003839163 0.11242718
0.0030922887 -0.076967746 0.0009794842 0.0007308984 0.09491635 0.0021713097 -0.002532968 0.0024969145
-0.001757778 0.0013420144 0.10940401 0.00094178185 -0.00971357 0.0002961389 0.0034906876 0.0016924327
-0.0006211684 0.13258383 0.0012202996 0.047539636 0.0025326351 0.14496328 -0.0016473385 -0.0011446516
0.0034727757 0.041719064 0.006634076 0.004400132 0.03754483 -0.1543123 -0.074988864 -0.00213662
-0.0020200794 -0.0005620422 -0.04547587 -0.003410508 -0.0015493344 0.020267414 -0.0009901865 -0.0013037468
0.0010321055 -1.8160405e-05 0.0024802827 -0.0010749552 -0.026257498 0.0044345404 6.423882e-05 -0.0005633377
-0.02345362 0.0005377094 -0.023039825 0.03544993 0.11368581 0.046033766 -0.0037443119 0.0006554709
0.005568572 -0.04566918 0.0033185803 -9.2558366e-07 -0.0008026905 -0.09370937 0.0058459365 0.08930787
0.0003659778 0.0023577516 -0.00080470304 0.0028066223 0.0026813094 0.00055246404 0.003521538 0.017501293
0.13355537 -0.0032111786 -0.0014465794 0.107903056 -0.00073799485 -0.14575535 -0.00015461445 -0.11818209
0.0003066012 0.00963338 0.0016606136 0.125469 0.0017010357 0.00056064664 0.0030427587 -0.0008683324
-0.0027523267 0.0017541787 0.002819276 0.011858484 0.021083072 0.0005501126 0.0018244045 0.15989359
0.005517718 0.0047100787 1.3947112e-05 -0.0013378159 -0.002241662 -0.00045860573 -0.00092786015 0.0028448424
0.0002693365 0.0007491848 -0.1428172 0.0034971475 0.00016019621 -0.0013111153 0.0021128391 -0.003134664
0.0588688 0.002891165 0.1048341 0.006682791 0.13552225 -0.07979217 -0.09723044 0.0011511574
-0.017363012 -0.00241366 0.00089529675 0.001981179 0.004264309 0.00029830917 0.00041550386 0.014634689
0.003146682 0.09955554 -0.0005235831 0.003549737 -0.07039366 0.0012518364 0.0024920946 -0.0023481636
0.0009708293 0.00032265412 0.027033456 0.007526248 -0.04135382 1.25677e-05 -0.0007948046 -0.004016257
-0.00012264651 0.09172481 -0.005635417 0.011083212 0.004929032 0.050193895 -0.0008984042 0.0013565123
-0.0018832587 0.046795316 -0.13784671 0.13585341 0.12582485 0.12343072 -0.1100502 -0.0016343739
-0.0026275995 -0.0025222434 0.039773237 -0.005095357 0.0033946747 -0.012490491 0.0041859234 -0.003572249
0.0030127757 0.0015819566 -0.0011690859 0.0014234979 0.117371865 0.0022751514 -0.006177459 3.185236e-05
0.02446319 0.0009116721 0.13183379 0.052051153 0.080901794 0.026662514 -0.0018798703 -0.004102925
-0.0004129264 0.08332932 -0.0034809653 0.0053371466 -0.0010635939 0.10400004 0.004875741 -0.05413696
-0.007823689 -0.004996988 -0.0039087697 0.009491646 -0.0031827933 -0.0021649995 0.0011645952 -0.07962822
0.10410649 0.005177526 -0.0042648898 -0.053098787 0.0015677735 0.08929657 -0.0031026322 0.062898345
0.00082018116 0.044792447 -0.0032691478 0.05554491 -0.0039248085 0.006666615 0.000396983 -0.002335777
-0.000828655 -0.0009788767 -0.005115242 0.1234191 0.018035162 -0.0009793979 0.00014926924 0.058155235
-0.003016735 0.0062865536 0.0040396824 -0.0014279302 -0.005583038 0.0015521715 -0.0012479147 -0.042673554
0.0041188034 3.1122094e-05 -0.084973164 -0.0033784183 0.0005643673 0.005753587 -0.000609009 -0.005803095
0.06020378 -0.003332103 0.0884981 0.0091722505 0.027737422 0.06595096 0.11922505 0.0050784433
00000000: 4906 d13d 2a36 813b 7b80 333b 7014 373b
00000010: 74d6 e63a 788f dcb9 789a 7b3b 3940 e63d
00000020: ffa7 4a3b 44a1 9dbd 0962 803a c399 3f3a
00000030: 8163 c23d 884c 0e3b 2700 26bb 46a3 233b
00000040: 3e65 e6ba 88e6 af3a 360f e03d e9e1 763a
00000050: aa25 1fbc 1743 9b39 05c4 643b 9ed4 dd3a
00000060: e8d5 22ba 0ec4 073e 76f2 9f3a ecb8 423d
00000070: 91fa 253b 4171 143e 82eb d7ba 2208 96ba
00000080: 8297 633b 9ce1 2a3d aa62 d93b fc2e 903b
00000090: 9cc8 193d 0b04 1ebe c393 99bd 8906 0cbb
000000a0: 4f63 04bb 0356 13ba e844 3abd d482 5fbb
000000b0: 0913 cbba d907 a63c 25c9 81ba 7ce2 aaba
000000c0: b747 873a 2c57 98b7 3d8c 223b 83e5 8cba
000000d0: f719 d7bc 9f4f 913b f4b7 8638 f4ac 13ba
000000e0: ce21 c0bc 11f5 0c3a 04be bcbc f233 113d
000000f0: 1bd4 e83d e78d 3c3d 2163 75bb e8d3 2b3a
00000100: 9178 b63b 9b0f 3bbd 8a7c 593b a075 78b5
00000110: a66b 52ba b3ea bfbd 458f bf3b 0be7 b63d
00000120: b5e0 bf39 8284 1a3b b5f2 52ba 4fef 373b
00000130: e8b8 2f3b 3cd3 103a 9bc9 663b df5e 8f3c
00000140: bdc2 083e a372 52bb 269b bdba 47fc dc3d
00000150: ff75 41ba e440 15be 0020 22b9 7409 f2bd
00000160: 51bf a039 53d5 1d3c f2a8 d93a f27a 003e
00000170: 49f5 de3a 5cf8 123a 0569 473b cda0 63ba
00000180: 6160 34bb 78ec e53a 9ac3 383b 164a 423c
00000190: 68b6 ac3c 6f35 103a db20 ef3a 25bb 233e
000001a0: f9cd b43b 0157 9a3b 64fe 6937 a759 afba
000001b0: d9e8 12bb 0571 f0b9 a43b 73ba 8970 3a3b
000001c0: bc35 8d39 f164 443a ac3e 12be 6630 653b
000001d0: 58fa 2739 bbd9 abba 8f77 0a3b ef6e 4dbb
000001e0: 6920 713d b379 3d3b 43b3 d63d 50fb da3b
000001f0: 58c6 0a3e 146a a3bd c120 c7bd 6fe2 963a
00000200: e03c 8ebc 7f2e 1ebb 59b2 6a3a abd6 013b
00000210: 9ebb 8b3b 6166 9c39 fcd7 d939 56c6 6f3c
00000220: 9038 4e3b c6e3 cb3d 1141 09ba b4a2 683b
00000230: 8d2a 90bd a914 a43a 6952 233b a6e3 19bb
00000240: 407f 7e3a e729 a939 4475 dd3c bf9e f63b
00000250: a062 29bd dcd9 5237 6f5a 50ba ce9a 83bb
00000260: ac9a 00b9 38da bb3d 4ea9 b8bb 5c96 353c
00000270: b883 a13b 1d98 4d3d e382 6bba 00cd b13a
00000280: add7 f6ba 72ac 3f3d b027 0dbe 281d 0b3e
00000290: 3bd8 003e 3fc9 fc3d 0062 e1bd 7d38 d6ba
000002a0: ce33 2cbb 394c 25bb 43e9 223d f4f6 a6bb
000002b0: 3179 5e3b eba4 4cbc 122a 893b 651c 6abb
000002c0: fd71 453b a859 cf3a 033c 99ba aa94 ba3a
000002d0: a960 f03d b51a 153b 486c cabb 3699 0538
000002e0: 0767 c83c 47fd 6e3a 70ff 063e 9733 553d
000002f0: d7af a53d 586b da3c fb65 f6ba d471 86bb
00000300: 0b7e d8b9 90a8 aa3d e820 64bb 3be3 ae3b
00000310: 4a68 8bba f9fd d43d aec4 9f3b b8be 5dbd
00000320: ee2e 00bc c6bd a3bb 2315 80bb d982 1b3c
00000330: 6996 50bb aae2 0dbb 55a5 983a 1f14 a3bd
00000340: c935 d53d 3ca8 a93b 7dc0 8bbb 1d7e 59bd
00000350: c07d cd3a 1fe1 b63d 8855 4bbb d9d0 803d
00000360: 6d01 573a 4978 373d 333f 56bb 0f83 633d
00000370: ae9b 80bb 9f73 da3b 2822 d039 d613 19bb
00000380: 183a 59ba a74d 80ba c39d a7bb 27c3 fc3d
00000390: 7abe 933c 245f 80ba 2885 1c39 2f34 6e3d
000003a0: 6ab4 45bb 6fff cd3b 505f 843b 6329 bbba
000003b0: ebf1 b6bb 3c72 cb3a 1291 a3ba 77ca 2ebd
000003c0: 07f7 863b 1889 0238 6906 aebd 7468 5dbb
000003d0: 0cf2 133a 9688 bc3b e7a5 1fba e427 bebb
000003e0: 3d98 763d 695f 5abb 7e3e b53d 3547 163c
000003f0: 9739 e33c 4c11 873d 432c f43d 1269 a63b

action_model._continuous_distribution.mu.bias f4 [2]
-0.0148033975 -0.045613598
00000000: f389 72bc 53d5 3abd
