Assets/ML-Agents/Training Files/results/9roads_cameraSensor_ppo_vehiclesMasked_1layer_64_256/VehicleAgent/VehicleAgent-12999905.pt (torch, 838483 bytes, 72 tensors)

network_body.observation_encoder.processors.0.conv_layers.0.weight f4 [16, 9, 8, 8]
000000 a1 98 76 bd 76 a9 1b be 6b ca fb bd 09 5c 26 be
       -0.060204152 -0.15201363 -0.122944675 -0.16246046
000010 9d 12 e6 bd 77 fe 44 be 82 37 28 be c2 28 c8 bd
       -0.11234019 -0.19237696 -0.16427425 -0.09773399
000020 24 a6 05 bd 4e 79 a7 bd 2a de b0 bd be 97 f3 bd
       -0.032629147 -0.08177434 -0.086361244 -0.11894177
000030 1e ef 2d be c5 3d 10 be 4e 0d 41 be 43 d2 15 be
       -0.16985747 -0.14086063 -0.18852732 -0.1463099
000040 9b a6 c3 bc ca e8 a9 bd 92 53 bc bd 81 54 fb bc
       -0.023883155 -0.08296354 -0.09195627 -0.030679943
000050 76 d0 e0 bd f8 ad fb bd 29 66 16 be 31 6c f5 bd
       -0.10977261 -0.12289041 -0.14687409 -0.119835265
000060 5a b4 0d 3b f7 de e2 bc 37 96 85 bc e6 3e da b9
       0.002162239 -0.027694209 -0.01630698 -0.00041627063
000070 f2 67 72 bd ca 71 f5 bd fe 95 1e be 15 ef a8 bd
       -0.05918116 -0.11984594 -0.15486905 -0.08248726
000080 1d 21 d5 bb d8 b0 76 3c 21 58 ac bc 90 1a ef bc
       -0.0065041916 0.015056811 -0.021038117 -0.02918747
000090 3f 55 47 bd ab a9 5e bd ff 80 2a bd 1a 51 3d bc
       -0.04866528 -0.054361027 -0.041626927 -0.011554981
0000a0 3a 8a 40 3d d4 eb 85 3c c0 b9 a0 3c c4 98 8d 3d
       0.047006823 0.016347803 0.019619823 0.06913903
0000b0 cd 49 48 3d 26 11 d3 b9 ed 22 6d bd a8 25 4c bd
       0.048898507 -0.00040257833 -0.057894636 -0.0498406
0000c0 05 77 c0 3d 7a 14 97 3a 72 f2 93 3d a6 74 66 3d
       0.09397701 0.0011526488 0.07223977 0.05626359
0000d0 63 c8 52 3c d8 ae 57 bd 32 33 13 3c 4f 80 84 bc
       0.012865159 -0.05265698 0.008984374 -0.016174464
0000e0 17 90 49 3c 42 04 38 3b a1 ce 3d 3d 38 1a 04 bc
       0.01230242 0.002807871 0.046339635 -0.008062892
0000f0 06 f5 68 bd 1b d0 ad bc 19 9c 96 bd 3d 40 85 bd
       -0.056874298 -0.021217396 -0.07353992 -0.06506393
000100 1b 6a 2a 3e ad a9 03 3e f2 86 c7 3d b2 b4 23 3e
       0.16642039 0.12857695 0.09742536 0.15986899
000110 f0 b6 03 3e 56 e8 80 3d 5a c0 02 3e 3c b5 18 3e
       0.12862754 0.062943146 0.12768689 0.14912885
000120 d2 25 08 3e 32 a6 5f 3d c6 a4 57 3d a7 55 07 3e
       0.13295677 0.054601856 0.052647375 0.13216268
000130 a4 e4 b1 3d af f7 49 3c 1b 96 c0 3d 2c be 00 3e
       0.08686188 0.012327119 0.0940363 0.12572545
000140 7e 05 23 3e d7 8a 91 3d 9a 0d 86 3d 46 13 9f 3d
       0.15920064 0.0710656 0.06545563 0.07767348
000150 df 1c ab 3d 1c cd 97 3d 35 24 90 3d e5 e1 be 3d
       0.08355116 0.074121684 0.07038156 0.0932043
000160 dd 0f 0d 3e c7 7a 58 3d 1e 77 98 3d ed 2c 6e 3d
       0.13775583 0.052851465 0.07444595 0.058148313
000170 a8 92 a8 3d 1e 1a a3 3d 41 c7 07 3d 77 34 bc 3d
       0.082310975 0.07963966 0.033149008 0.091896944
000180 a5 e5 db 3d da 68 e6 3b 84 15 9b 3d ed dc 55 3d
       0.107371606 0.0070315422 0.07572463 0.052212644
000190 e9 da b3 3d 44 88 94 3b 0e c6 9a 3d 5e 2e c0 3d
       0.08781988 0.0045328457 0.07557307 0.09383844
0001a0 9b ab 8b 3d 84 62 f3 bc ed 9c 49 3d 23 88 e7 3c
       0.068198405 -0.029710062 0.04922192 0.028263157
0001b0 31 9e 4f 3d 03 b4 73 bc ac 74 24 3d f7 5f 5f 3d
       0.050687972 -0.014874461 0.04015033 0.05453488
0001c0 53 2e 44 bd eb d2 3f bd 4e fd 31 bd b7 e0 a2 3c
       -0.04789574 -0.046832006 -0.04345446 0.019882543
0001d0 7b e0 01 3c 05 a4 4f bd 4b bc fc bc 13 45 7a bc
       0.0079270555 -0.05069353 -0.030851504 -0.015275258
0001e0 1e f3 a0 bd 4f 7f 9b bd 99 5e b5 bd 52 5f 90 bd
       -0.07858871 -0.075926416 -0.08855934 -0.07049431
0001f0 f8 dd cf bd 30 38 da bd 2d b1 b5 bd 7e 3e bd bd
       -0.10149759 -0.10655248 -0.08871684 -0.09240435
000200 95 e0 b6 3d 2a 4c e2 3d 29 a2 64 3d 4b 8e fa 3d
       0.089295544 0.110496834 0.05581871 0.122341715
000210 25 53 c7 3d 01 a6 38 3d a7 aa 98 3d f6 cc be 3d
       0.097326554 0.04508019 0.07454424 0.09316437
000220 f1 80 13 3e 77 12 2b 3d 29 7a ee 3d 36 b5 05 3e
       0.14404656 0.041765656 0.11644394 0.13057408
000230 f4 0f 81 3d 10 36 c0 3c ad ed af 3d f8 17 cb 3d
       0.06301871 0.023463279 0.08590255 0.09916681
000240 3a 1e f4 3d 94 96 bd 3d 46 6b d6 3d ca 59 f9 3d
       0.11919828 0.09257236 0.104696795 0.12175329
000250 fb 00 b8 3d a1 90 8a 3d 4d ae b6 3d 38 17 61 3d
       0.08984562 0.06765867 0.08919964 0.054953784
000260 fd cb 05 3e 4d f1 c9 3d 93 e4 fa 3d 03 dc d9 3d
       0.13066097 0.098604776 0.12250628 0.10637667
000270 97 98 ba 3d 17 ed 9a 3d 9c f6 b4 3c 16 4e 8a 3d
       0.091111355 0.075647525 0.022090249 0.06753175
000280 c8 d3 2f 3d c8 1f 69 3d f5 1b bb 3d 7f 56 4f 3d
       0.04292658 0.056915075 0.09136192 0.0506196
000290 f9 a3 92 3d 95 5f 92 3d a6 73 49 3d e3 43 a1 3d
       0.071601816 0.07147137 0.049182557 0.078742765
0002a0 72 c6 27 3d 42 0c 7a 3d d5 e2 29 3d dc 59 9e 3d
       0.040960737 0.061046846 0.04147609 0.07731983
0002b0 70 81 5e 3d d0 35 8b 3d 15 c2 c8 3c 56 a8 60 3d
       0.05432266 0.06797373 0.024506608 0.054848038
0002c0 ae 42 13 3d 39 16 c5 3c 19 98 2b 3d 2f 57 ec 3c
       0.035952263 0.024058448 0.0418931 0.028850166
0002d0 e0 ec 7c bb 32 ac 48 bc e5 5d 9b 3c e9 48 00 3c
       -0.0038593337 -0.012248086 0.01896567 0.007829883
0002e0 e0 57 86 38 8a 27 30 bd 87 85 18 bd 83 f4 48 bc
       6.405986e-05 -0.043006457 -0.037236717 -0.012265327
0002f0 17 99 97 bc 0d 28 86 3c a1 1c 8b 39 b6 34 62 bd
       -0.018505616 0.01637652 0.00026533476 -0.05522605
000300 3f a9 07 be 71 4e 4f be e6 28 2d be 41 aa 59 be
       -0.13248156 -0.20244767 -0.16910133 -0.21256353
000310 14 46 73 be 38 91 50 be 37 39 53 be f9 27 60 be
       -0.23757201 -0.20367897 -0.20627294 -0.21890248
000320 2d cb c7 bd 0b 94 bb bd 31 e1 db bd c3 f7 47 be
       -0.097555496 -0.09159096 -0.10736311 -0.19528107
000330 e6 ba 43 be 7e 39 08 be 29 31 30 be ac d3 36 be
       -0.19114265 -0.13303182 -0.17206253 -0.17854184
000340 7c 2f 1f be 31 cf 08 be 05 52 2a be 49 47 43 be
       -0.15545458 -0.13360287 -0.1663285 -0.19070162
000350 5a 8a 13 be 02 68 50 be 8a c1 68 be 7c ed 4d be
       -0.14408246 -0.20352176 -0.2273008 -0.20110124
000360 aa eb 9f bd fd d1 03 be 92 7c ea bd 18 21 36 be
       -0.07808621 -0.12873073 -0.11449541 -0.17786062
000370 66 05 29 be d7 82 77 be ee 00 25 be ec 1c 23 be
       -0.16505966 -0.24171005 -0.16113636 -0.15929002
000380 67 d1 60 bd 42 b7 06 be f5 83 99 bd e0 d5 d0 bd
       -0.0548872 -0.13155845 -0.07495872 -0.101970434
000390 78 ec 16 be 44 b8 0e be 7e 0b 02 be 20 ac 1c be
       -0.14738643 -0.1393748 -0.12699696 -0.15300035
0003a0 b4 15 c0 3c ad 82 b3 bc 8d 55 1e bd e7 6a c0 bd
       0.023447849 -0.021912897 -0.038655806 -0.0939539
0003b0 1a c0 8f bd 76 8f 49 bc a6 d7 e5 bb 25 24 a1 bd
       -0.07019062 -0.01230227 -0.0070142327 -0.07868222
0003c0 3a 4e 0e 3b 50 56 8c bc 86 3c 94 bd d2 f0 c0 bd
       0.0021714107 -0.017131 -0.072381064 -0.09420933
0003d0 ac 2a 47 bd c4 76 9d 3a f0 1c 1f bd 8c 80 ba bd
       -0.04862468 0.0012013544 -0.038845956 -0.091065496
0003e0 b8 c6 85 3c 3e c1 1c bd 65 8e 92 bb 24 17 68 bd
       0.016330108 -0.038270228 -0.004472541 -0.056662694
0003f0 05 4f 26 bd 98 03 df bd 10 77 96 bc 2e dd dc bd
       -0.040602703 -0.10889357 -0.01836732 -0.10784374

network_body.observation_encoder.processors.0.conv_layers.0.bias f4 [16]
000000 29 b6 2f bd 97 64 9b 3d 68 e8 8b 3d f7 7c 4a bd
       -0.04289833 0.07587545 0.06831437 -0.049435582
000010 6b e2 aa bd 35 5b 45 bd 08 eb 6c 3e 3b 31 ff bb
       -0.08343967 -0.048182685 0.23136532 -0.007787851
000020 73 53 73 3c 55 ba 27 bd d3 af 77 bd 5a 09 bb 3d
       0.014851439 -0.040949184 -0.060470413 0.09132643
000030 de d3 2c 3e f5 a9 fc 3b f9 1f a1 3c d2 a0 6d 3e
       0.16877696 0.00771069 0.019668566 0.2320588

network_body.observation_encoder.processors.0.conv_layers.2.weight f4 [32, 16, 4, 4]
000000 e8 fe 37 be 99 62 b7 bc b5 41 b6 3d bc 44 8a 3e
       -0.17968333 -0.022385882 0.08899251 0.27005565
000010 17 0b 9f be da 59 11 be a6 1f be 3d b2 53 c9 3e
       -0.31063148 -0.14194432 0.0928338 0.39321667
000020 2f 3d 00 be 15 19 2a bd 05 51 0b bd 27 ce 50 3e
       -0.1252334 -0.041527826 -0.034012813 0.20391141
000030 7f 1b 2c be a8 94 ea bd 8a fe e3 bc a1 af 00 3e
       -0.16807364 -0.11454135 -0.027831335 0.12566997
000040 39 2f 5d be dc 21 71 bd 72 22 9b bd 63 96 81 3d
       -0.21600045 -0.05887018 -0.07574929 0.06327512
000050 57 d3 96 be 7e 68 1d bd ea b2 36 3e e2 98 6b 3e
       -0.29458115 -0.03842973 0.17841688 0.23007539
000060 6e 45 48 be 30 76 d6 bd 28 cb 22 3e df 04 77 3e
       -0.19557735 -0.10471761 0.1589781 0.24122952
000070 25 a7 12 be e6 59 c3 bd 3f 5d 44 3e 4a a4 88 3e
       -0.14321573 -0.09538631 0.19176196 0.26687843
000080 12 3d 4b be 52 ae 67 3d 47 90 3b 3d a5 c1 80 3e
       -0.19847515 0.05656273 0.04579189 0.2514774
000090 32 62 62 be 04 09 32 bd e0 52 cf 3d ed b2 a3 3e
       -0.22107771 -0.04346563 0.10123229 0.31972447
0000a0 96 d8 4e be bf 4c da bd 18 48 bd 3d e3 2f 7a 3e
       -0.20199808 -0.106591694 0.092422664 0.2443233
0000b0 09 a1 bb bd 0c 70 14 be 68 20 d7 3b 08 fa 1f 3e
       -0.091615744 -0.14495867 0.0065651424 0.15622723
0000c0 c7 59 5f be a0 db 6e bc e9 ea 0b 3e df 03 3d 3e
       -0.21811591 -0.01457873 0.1366383 0.18458508
0000d0 0c 2e 5b be e9 55 dc bd 44 b5 fe 3d c8 89 a8 3e
       -0.21404284 -0.107585736 0.124369174 0.3291762
0000e0 b0 e6 1f be 9a 52 79 bd d0 0c a3 bd 5c 6c c7 3d
       -0.15615344 -0.06086979 -0.07961428 0.09737465
0000f0 11 d4 83 bc d2 25 ce bd b8 80 b9 bc 06 03 0f bc
       -0.016092332 -0.100658074 -0.022644386 -0.008728748
000100 b2 70 95 be 22 0d 67 bd 25 27 00 3e 18 46 a1 3e
       -0.29187542 -0.05640901 0.12514932 0.3149879
000110 c6 c8 8e be 63 1b 30 be 0c d5 ff 3d 59 1c ab 3e
       -0.27887553 -0.17197947 0.12491807 0.33420065
000120 ae eb 07 be 16 e1 80 bd d9 7e 16 3d a1 7e 08 3e
       -0.13273498 -0.06292932 0.036742065 0.13329555
000130 9d d2 2f be 54 3e 0d be 15 d7 73 bd fe 78 36 3d
       -0.17170186 -0.13793308 -0.05953129 0.04454898
000140 3d 4a 28 be 2a 34 99 3c 65 72 8d 3d 66 35 71 3e
       -0.1643457 0.018701632 0.06906585 0.23555526
000150 c3 d4 78 be 3b 00 20 be a5 db df 3d 4f 84 c3 3e
       -0.24299912 -0.15625088 0.10930566 0.3818688
000160 c8 d1 d4 bd 78 22 7b bd 3d 87 f3 3c 9d 66 32 3e
       -0.10391575 -0.06131217 0.029727573 0.17421956
000170 9b b3 1b be da 8e f9 bd 5e 4f 88 bd f9 5a 16 3e
       -0.15205233 -0.1218545 -0.06655763 0.14683141
000180 c2 46 41 be 90 ca b9 3c 51 fe 03 3e c2 06 5b 3e
       -0.18874648 0.022679597 0.12889983 0.21389297
000190 e3 de 8c be 17 aa 86 bd 68 3b 01 3e a5 4e c7 3e
       -0.275138 -0.06575411 0.12620318 0.3892719
0001a0 63 f0 09 be dd 0c 0f bd 03 ac 99 3c d8 c7 86 3e
       -0.13470607 -0.034924377 0.01875878 0.26324344
0001b0 08 2d dd bd 89 2b 74 bc 83 0d f3 3c 6e a6 fe 3d
       -0.10799605 -0.014902958 0.029669529 0.12434088
0001c0 b7 df 57 be aa 88 28 bc 71 7c b2 3c bd 0b 4f 3e
       -0.21081434 -0.0102864895 0.021787854 0.20219322
0001d0 79 5b 94 be 53 d9 09 be 9b a2 98 3d 59 1e c8 3e
       -0.28976038 -0.13461809 0.074528895 0.39085653
0001e0 ff 7d 15 be f2 d3 10 bc 28 9b 0a bc b1 13 13 3e
       -0.14598845 -0.008839594 -0.008459844 0.1436298
0001f0 5b 8b e8 bd 0b 01 b5 bd ce ca 00 bc 3a da 57 3e
       -0.11354705 -0.088380896 -0.007860852 0.2107934
000200 0f 4f 02 bd aa ac b4 bd c8 8e fc 3c 0f 1f 2f bd
       -0.031813677 -0.088219956 0.030829802 -0.04275423
000210 23 f7 bc bd 40 11 8c 3d 70 33 f2 3d 5f 02 ff 3d
       -0.09226825 0.06839228 0.11826217 0.12451624
000220 62 82 a5 bd 58 62 aa bc 21 2b da bc 94 0f 9e 3d
       -0.08081509 -0.020798847 -0.026631894 0.07717815
000230 be e6 1d bd 36 89 66 bd d7 62 e1 bb 1e 1c 64 bc
       -0.03855013 -0.0562832 -0.0068782377 -0.013922719
000240 a9 85 38 be f6 5e 6d bd ff 42 0b 3e 9d 44 65 3e
       -0.18019737 -0.05795189 0.13599776 0.22389455
000250 7f b6 9c be 40 07 fe bd c8 c3 bf 3d a3 83 bf 3e
       -0.30607983 -0.124037266 0.09363514 0.37405118
000260 cf f2 0b be c2 65 d2 bd 81 63 31 3d 3d 96 1f 3e
       -0.13666843 -0.10273315 0.043307785 0.15584655
000270 ef c6 f5 bd 70 ac 41 bd 16 0b bf bd c9 4f 97 3d
       -0.12000834 -0.04728359 -0.09328286 0.07388265
000280 27 80 d3 bd 64 16 0f bd 63 bd 0b 3e 1a e6 89 3e
       -0.103271775 -0.034933463 0.13646464 0.26933366
000290 c5 bb 79 be 8d 9e f2 bd 2a 76 20 3e a2 9c b6 3e
       -0.24388035 -0.118466474 0.15670076 0.35666376
0002a0 fa 1d 9e bd 01 c8 ec bd e3 45 09 bd 5f e9 1b 3e
       -0.07720561 -0.11561585 -0.033513915 0.15225743
0002b0 6d ed 72 bd b8 3e f4 bd fb 1f a5 bd 8c 08 af 3d
       -0.059308458 -0.11926025 -0.080627404 0.08546552
0002c0 64 38 79 be 40 c0 02 3d bb 25 00 3e 69 49 34 3e
       -0.24337918 0.031921625 0.12514393 0.17606129
0002d0 ae 74 9a be f4 7e 55 bd d8 1f 24 3e 08 c6 9b 3e
       -0.30167145 -0.052123025 0.16027772 0.30424523
0002e0 cc 58 8c be 61 8b d8 bd 35 c8 e6 3d 72 ba 7c 3e
       -0.27411497 -0.105734594 0.11268655 0.24680498
0002f0 23 c3 f9 bd cc 69 86 bb 73 59 d3 3d c7 fb 60 3e
       -0.121954225 -0.0041019674 0.103197955 0.21971045
000300 26 0c 59 be d2 0a 9f bd 0f e7 ef bc 03 fe 8a 3d
       -0.2119604 -0.07765736 -0.029284982 0.0678673
000310 c1 ed 60 be e8 07 af bd 69 65 e3 3d 4a 6e 68 3e
       -0.21965696 -0.0854643 0.11103327 0.22698322
000320 eb 6c 21 be 06 1c 08 be 94 a6 03 3c 45 34 29 3e
       -0.15764205 -0.1329194 0.008035321 0.16523845
000330 14 c2 85 bd 95 ac 9e bd 1d 64 bc bc 8f ef 44 3e
       -0.06531158 -0.07747761 -0.022996956 0.1923201
000340 1f b2 88 be 93 f1 b4 bd 5f 3c b9 3d a7 4d 4c 3e
       -0.26698396 -0.08835139 0.09044718 0.19951497
000350 d3 b1 66 be 9b 5f f4 bd f7 d7 1e 3e 6f a3 9b 3e
       -0.22528772 -0.11932298 0.15512072 0.30398127
000360 94 d4 de bd c5 e1 44 bd a6 4c 07 3e e0 b0 89 3e
       -0.1088039 -0.048066873 0.13212833 0.26892757
000370 d7 7e 22 be 20 f7 01 be e2 29 45 3d 29 3c 03 3e
       -0.15868698 -0.12691927 0.048135646 0.12815918
000380 0a 3d 3f be 91 94 66 3d ae 83 be 3d dd a8 88 3e
       -0.18675628 0.056294028 0.0930246 0.26691332
000390 22 7f 7a be 3c b5 5d bd c5 9b 3f 3d b7 38 74 3e
       -0.2446256 -0.054127917 0.046779413 0.2384976
0003a0 a3 4b 27 be 1a f1 c2 bd 1b ea ec bd 02 39 7a 3d
       -0.16337447 -0.09518643 -0.115680896 0.061089523
0003b0 cc 51 b8 bc 90 49 e2 bd 7b e2 de bd c4 d6 e6 3c
       -0.022499941 -0.11049187 -0.108830415 0.02817858
0003c0 b8 52 3a be 15 3c 0b bd 7d 95 0e bc e3 8a 5e 3e
       -0.18195617 -0.033992846 -0.008702633 0.21732669
0003d0 9e 3a 92 be 71 85 be bd 68 27 57 3e 69 14 f0 3e
       -0.28560346 -0.09302796 0.21011126 0.46890572
0003e0 d2 0f c2 bd ca d4 55 bd dd 65 b4 3c bb e0 47 3e
       -0.09475674 -0.052204885 0.022021228 0.19519322
0003f0 0b c7 09 be 31 c7 80 bd 28 6c 00 bc 01 6c 51 3e
       -0.13454835 -0.06287993 -0.007838286 0.20451356

network_body.observation_encoder.processors.0.conv_layers.2.bias f4 [32]
000000 3b 34 dc 3d fe 44 07 be 9e 06 17 3e d8 cf 1b 3e
       0.1075215 -0.13209912 0.14748618 0.15216005
000010 d8 6e e1 3d 5f 69 b7 3c 84 b1 56 be a1 d9 0c 3c
       0.1100747 0.022389112 -0.20966154 0.008596809
000020 8f 61 8b bd 26 66 0a be 79 c8 95 bd 01 9d 02 3d
       -0.06805717 -0.13515529 -0.07313628 0.03188801
000030 7b af 59 bd ca 36 5e 3e 0d 39 45 be bf cc 5a be
       -0.053145867 0.21700588 -0.19260044 -0.21367167
000040 b9 f1 49 be a0 18 d5 bd 61 f6 15 be f4 32 86 bd
       -0.19721116 -0.104050875 -0.14644767 -0.06552687
000050 be 4c 1a 3e c8 c6 81 be 13 7b c1 bd 68 19 c1 3b
       0.15068337 -0.2534697 -0.09447303 0.0058929212
000060 69 a7 cd bc 22 16 aa 3d 50 67 30 be 4f e4 15 be
       -0.025104241 0.08305003 -0.1722691 -0.14637874
000070 eb 66 92 bc fd 27 c0 bc 16 f7 cd bd 8a ec 86 bd
       -0.01787134 -0.023456568 -0.100568935 -0.06588085

network_body.observation_encoder.processors.0.dense.0.weight f4 [30, 512]
000000 9d 9f 4a be af 3f 66 bd f9 b3 d0 bc db 6b 42 bd
       -0.1978745 -0.056213077 -0.025476443 -0.04746614
000010 a3 c7 6c be 23 c7 67 3b 28 98 8d bd 2f be 05 3e
       -0.2312303 0.0035366497 -0.06913787 0.1306083
000020 d7 d2 40 3d 7b 8a e4 bd 77 ec 18 be 05 1f 6f 3e
       0.047076073 -0.111592256 -0.14933954 0.23351677
000030 85 00 b4 bd fe 46 c2 bb e0 7f 15 bd 1c 5e 82 3c
       -0.087891616 -0.005928873 -0.036498904 0.015914015
000040 a4 37 c5 bc 42 10 df 3b bf 14 8b 3c fb d2 0a 3c
       -0.024074383 0.006807358 0.016977666 0.008473153
000050 21 1e 12 3e ec 83 ff 3d 97 a5 0c bd 03 ce cf 3c
       0.14269306 0.12476334 -0.034337606 0.025366789
000060 e9 7e 9e bc 27 1f 6e 3c dd a0 de bd 5b 9e 66 be
       -0.019347625 0.0145337945 -0.10870526 -0.22521345
000070 d2 e4 51 3e 59 68 a8 3d cd 8c e2 bd 8d b4 7b 3d
       0.20497444 0.08223028 -0.11062012 0.061451484
000080 96 63 cf 3d d4 4a 66 bc 64 47 15 3d 8a 83 25 3d
       0.101264164 -0.014055926 0.036445037 0.04040865
000090 b0 91 a9 3d fc b1 99 3c 5b 3b cb 3c 6c 46 44 3c
       0.08279741 0.018761627 0.024808576 0.0119796805
0000a0 a5 e2 1a 3e e7 2b 63 3e 7a 4f c3 bd a4 5b 81 be
       0.1512552 0.22184716 -0.09536643 -0.2526523
0000b0 48 ea 2f bd 16 d2 47 bc f1 a6 67 be 91 cd fa bd
       -0.042948037 -0.0121960845 -0.22622277 -0.1224624
0000c0 8a b0 2b be bc c4 90 bc dd 74 1e be 92 1b 60 bd
       -0.16766563 -0.017671935 -0.15474267 -0.054713793
0000d0 27 e1 98 3d 98 ac 9f 3c e9 76 c4 bd a2 3c b6 3d
       0.074648194 0.019491479 -0.09592993 0.088982835
0000e0 7b ee 04 be fd c6 32 bd d7 6f bd bd 10 28 e7 3d
       -0.12981598 -0.0436468 -0.092498474 0.11286938
0000f0 f9 66 94 3d 10 9d 10 3c 1f 47 a6 3c 0c eb 16 bd
       0.07246203 0.008826509 0.020297585 -0.036845252
000100 9c 40 a5 bc d6 da 66 be 15 02 7a bd d1 7d 5b 3d
       -0.02017241 -0.22544417 -0.06103714 0.053586785
000110 70 73 d4 3d f5 c9 8d bd 75 e9 c5 bc 23 93 d1 3d
       0.103735805 -0.06923286 -0.024159173 0.10233142
000120 29 74 88 3d 0b 42 d3 bb 0e de 7e 3c 11 e0 97 bc
       0.06662781 -0.006447082 0.015555872 -0.01853946
000130 30 ee 25 be ee 18 09 be 65 2d e0 bd 21 a6 d6 bc
       -0.16204143 -0.13388416 -0.10946158 -0.026202263
000140 01 8d 21 3d d8 6f 5c bd 55 b8 f1 bd 24 bd ef 3c
       0.039441112 -0.0538176 -0.11802737 0.029264994
000150 c3 73 b1 3d d8 2d 20 be 70 c6 aa bd a7 3c 8c 3d
       0.08664658 -0.15642488 -0.0833863 0.06847506
000160 6d 7f 03 3d 8c 94 4d bd 4d 89 60 bd d5 e4 87 bd
       0.032103945 -0.050190493 -0.05481844 -0.06635443
000170 73 73 54 bd 04 d5 05 3e 49 6f 2a bd 83 21 54 bb
       -0.051867913 0.1306954 -0.041610036 -0.0032368607
000180 a0 dd 89 bd 57 91 07 3e 68 f6 a4 3d 21 9a 25 3c
       -0.06731725 0.13239037 0.08054811 0.010107548
000190 10 cd 0c bd 3f 4f 5f bc 5f eb 67 bd eb 8b 7f bd
       -0.03437525 -0.013629734 -0.05662095 -0.062389296
0001a0 7b 2f cb bd a5 5a a1 be de 5a 59 be d6 46 63 be
       -0.099211656 -0.3151447 -0.2122607 -0.2219499
0001b0 a4 28 66 3e dd 86 8f 3e 77 a5 d2 3d 81 44 e7 3c
       0.2247644 0.2803258 0.10285466 0.028230907
0001c0 a7 e7 72 bd 95 1a 2f bc 9d 8c 76 3d 67 9d 66 3e
       -0.059302952 -0.01068749 0.060192693 0.22520982
0001d0 7e 91 90 bd 73 3b 92 3d 06 91 d9 3a c6 9c 55 bd
       -0.070590004 0.07140245 0.0016599006 -0.052151464
0001e0 5d e1 83 be 19 71 41 bd ba cc b0 bd 1f a7 bb bd
       -0.25757876 -0.047227 -0.086327985 -0.09162735
0001f0 47 5b de bd 1c 2c 4b be eb ed 1b 3e 13 32 03 3e
       -0.108572535 -0.19841045 0.15227477 0.1281207
000200 31 10 93 bd cf 39 28 3b e3 4f 47 bd d3 24 9a 3b
       -0.07180823 0.0025669222 -0.04866017 0.004704097
000210 cd ff b1 bd 2d 3c bf bd 0d 18 00 3d 37 ff 96 bd
       -0.08691368 -0.093376495 0.031272937 -0.07372897
000220 07 21 a2 3c aa 56 d4 3d 27 b4 d9 3c 0c 7f 07 be
       0.01979114 0.10368092 0.026575161 -0.13232058
000230 a6 b0 cf bc 31 d4 01 be 6a 7f 1f be 18 83 0d 3d
       -0.025352787 -0.12678601 -0.15575948 0.03454885
000240 cf 67 e5 bd 13 3a 7c be 91 64 63 3d 45 24 0b 3d
       -0.112014405 -0.24631529 0.05551583 0.033970136
000250 10 ee 68 be fb 0d 84 be 1e b6 4f be ed a5 c0 bd
       -0.22747064 -0.25791916 -0.20284316 -0.09406648
000260 26 eb 9c bd bf d7 6e bd af 00 69 3d ac 17 a1 3d
       -0.076620385 -0.05831122 0.056885418 0.07865843
000270 b2 fc 4f 3c db f9 b3 bc bc c4 cb bd e4 02 cf bd
       0.012694525 -0.021969726 -0.099496335 -0.10107973
000280 f2 10 38 be 02 51 92 bd 86 a2 bf bc 32 8a a8 3d
       -0.17975214 -0.07144357 -0.023392927 0.08229484
000290 de 78 b1 bd 74 e9 c2 3b cb ad a4 bd 1c a9 96 3c
       -0.08665632 0.00594824 -0.08040961 0.018391185
0002a0 6a 5f 82 bd ab f0 81 bd 9e 53 0f bc 4e 19 c3 3d
       -0.06365855 -0.06344732 -0.008747963 0.09526311
0002b0 57 78 73 bc 51 8d 8a 3d 14 c3 bc 3d c4 b6 00 3e
       -0.014860234 0.06765235 0.09216896 0.1256972
0002c0 1e 59 da bd 38 3a a8 ba 82 4f 06 be 65 e3 d8 bd
       -0.10661529 -0.0012834733 -0.13116267 -0.10590247
0002d0 83 7c cd 3d 58 89 40 bd b3 61 8d 3d dd d6 32 be
       0.10033514 -0.04700598 0.069034 -0.17464776
0002e0 42 00 37 3b 1a de b3 bd 12 63 eb bd cd 80 60 be
       0.0027923738 -0.08782597 -0.114935055 -0.21924134
0002f0 fa ec 99 3b 2c 39 0f 3b 91 17 2f 3e 41 b4 39 3d
       0.0046974393 0.0021854145 0.17098834 0.04533792
000300 e3 80 41 bd 69 bc d3 bc 78 36 8f bd f6 2a 4b 3d
       -0.047242057 -0.025846677 -0.06992811 0.049601518
000310 89 f5 6f 3d 2f 86 48 bd 4f f0 68 bd de e4 90 3d
       0.05858377 -0.048956092 -0.0568698 0.07074903
000320 e0 0f 30 bd 5d 88 a5 bc d9 c2 56 3d 50 07 51 3e
       -0.04298389 -0.020206625 0.052431915 0.20412946
000330 63 a6 19 3d da a9 67 3c d6 6e 0e 3d a8 7b 09 3d
       0.037512194 0.014139617 0.03477367 0.033565193
000340 dd 3c ca 3d 47 cd 81 3d 6f fe fd bb bb 1b d6 3d
       0.0987489 0.06337982 -0.007751278 0.10454508
000350 1b c2 8a 3e 1e 8d b6 3e 4a a8 33 3e 9f 25 9f 3e
       0.27101216 0.3565454 0.17544666 0.3108339
000360 d7 df 2c 3e 7f 0e 38 3e 77 85 90 3d e5 63 91 bd
       0.16882263 0.1797428 0.070567064 -0.070991315
000370 e2 d3 18 3d b4 e7 5d be 58 92 e6 bd ce 95 35 be
       0.037311442 -0.21670419 -0.112583816 -0.17732927
000380 9c cd 8f 3c 9f e0 28 bd 8a 8d ce bd 30 8f 3d bd
       0.017554097 -0.04122984 -0.1008559 -0.046279132
000390 1b 6d 99 bc 9e 99 94 3d 11 4d 55 3d d5 66 0b 3d
       -0.018728783 0.07255863 0.05207545 0.034033615
0003a0 97 c8 ce 3c b3 82 95 bc ba e0 5d be 42 dc 13 bd
       0.025242133 -0.018250799 -0.21667758 -0.036098726
0003b0 3b 24 2a 3d dd b7 df bd d2 bb 3d bd dd d1 23 be
       0.04153846 -0.10923741 -0.046321698 -0.15998025
0003c0 e4 68 49 bd ce 98 4f be 6f 5f 9a 3c ac 14 a8 3d
       -0.049172297 -0.20273134 0.018844334 0.08207068
0003d0 10 3b 80 3d 34 4f 74 3d 0b f9 ed 3d 3d 12 f5 3d
       0.06261265 0.059645846 0.11619767 0.11966369
0003e0 d3 39 37 be 61 66 26 be 49 09 36 be e8 59 27 be
       -0.17893152 -0.16249992 -0.1777698 -0.1634289
0003f0 97 af 27 3e 0f 30 56 bc d1 bb fe 3b 09 eb b3 3d
       0.16375576 -0.0130729815 0.0077738543 0.08785064

network_body.observation_encoder.processors.0.dense.0.bias f4 [30]
000000 35 60 37 3c 0e 01 3f be ec 3e 0a 3e 4b 34 43 bc
       0.011192371 -0.18652746 0.13500565 -0.011914323
000010 fa 2c b4 bd e7 04 69 3e 43 59 b0 bd d9 b1 36 3e
       -0.08797641 0.22755776 -0.08610775 0.17841281
000020 2b 7d 54 bd 40 f6 65 bd 58 30 fd bd 6b b6 0a 3e
       -0.051877182 -0.056143045 -0.123627365 0.1354615
000030 0c 28 2f 3b e1 06 69 3d 99 b7 2b 3e 25 27 9d 3d
       0.002672675 0.056891326 0.16769256 0.07673482
000040 c8 8a 40 be 0b b3 5c 3c 88 d6 29 be 6b f5 e1 bd
       -0.18802941 0.013470422 -0.16585743 -0.11033138
000050 a3 f1 43 3e 59 4d 3e 3d 82 36 bb bd 2d 29 ab 3d
       0.19135146 0.046460483 -0.09141256 0.08357463
000060 98 d3 10 be 41 19 8f bd 1b db 28 3e 5a ac 96 3d
       -0.14143217 -0.06987239 0.16489832 0.07357092
000070 ff c2 28 bc a3 82 19 be
       -0.010300397 -0.1499124

network_body.processors.0.conv_layers.0.weight f4 [16, 9, 8, 8]
000000 a1 98 76 bd 76 a9 1b be 6b ca fb bd 09 5c 26 be
       -0.060204152 -0.15201363 -0.122944675 -0.16246046
000010 9d 12 e6 bd 77 fe 44 be 82 37 28 be c2 28 c8 bd
       -0.11234019 -0.19237696 -0.16427425 -0.09773399
000020 24 a6 05 bd 4e 79 a7 bd 2a de b0 bd be 97 f3 bd
       -0.032629147 -0.08177434 -0.086361244 -0.11894177
000030 1e ef 2d be c5 3d 10 be 4e 0d 41 be 43 d2 15 be
       -0.16985747 -0.14086063 -0.18852732 -0.1463099
000040 9b a6 c3 bc ca e8 a9 bd 92 53 bc bd 81 54 fb bc
       -0.023883155 -0.08296354 -0.09195627 -0.030679943
000050 76 d0 e0 bd f8 ad fb bd 29 66 16 be 31 6c f5 bd
       -0.10977261 -0.12289041 -0.14687409 -0.119835265
000060 5a b4 0d 3b f7 de e2 bc 37 96 85 bc e6 3e da b9
       0.002162239 -0.027694209 -0.01630698 -0.00041627063
000070 f2 67 72 bd ca 71 f5 bd fe 95 1e be 15 ef a8 bd
       -0.05918116 -0.11984594 -0.15486905 -0.08248726
000080 1d 21 d5 bb d8 b0 76 3c 21 58 ac bc 90 1a ef bc
       -0.0065041916 0.015056811 -0.021038117 -0.02918747
000090 3f 55 47 bd ab a9 5e bd ff 80 2a bd 1a 51 3d bc
       -0.04866528 -0.054361027 -0.041626927 -0.011554981
0000a0 3a 8a 40 3d d4 eb 85 3c c0 b9 a0 3c c4 98 8d 3d
       0.047006823 0.016347803 0.019619823 0.06913903
0000b0 cd 49 48 3d 26 11 d3 b9 ed 22 6d bd a8 25 4c bd
       0.048898507 -0.00040257833 -0.057894636 -0.0498406
0000c0 05 77 c0 3d 7a 14 97 3a 72 f2 93 3d a6 74 66 3d
       0.09397701 0.0011526488 0.07223977 0.05626359
0000d0 63 c8 52 3c d8 ae 57 bd 32 33 13 3c 4f 80 84 bc
       0.012865159 -0.05265698 0.008984374 -0.016174464
0000e0 17 90 49 3c 42 04 38 3b a1 ce 3d 3d 38 1a 04 bc
       0.01230242 0.002807871 0.046339635 -0.008062892
0000f0 06 f5 68 bd 1b d0 ad bc 19 9c 96 bd 3d 40 85 bd
       -0.056874298 -0.021217396 -0.07353992 -0.06506393
000100 1b 6a 2a 3e ad a9 03 3e f2 86 c7 3d b2 b4 23 3e
       0.16642039 0.12857695 0.09742536 0.15986899
000110 f0 b6 03 3e 56 e8 80 3d 5a c0 02 3e 3c b5 18 3e
       0.12862754 0.062943146 0.12768689 0.14912885
000120 d2 25 08 3e 32 a6 5f 3d c6 a4 57 3d a7 55 07 3e
       0.13295677 0.054601856 0.052647375 0.13216268
000130 a4 e4 b1 3d af f7 49 3c 1b 96 c0 3d 2c be 00 3e
       0.08686188 0.012327119 0.0940363 0.12572545
000140 7e 05 23 3e d7 8a 91 3d 9a 0d 86 3d 46 13 9f 3d
       0.15920064 0.0710656 0.06545563 0.07767348
000150 df 1c ab 3d 1c cd 97 3d 35 24 90 3d e5 e1 be 3d
       0.08355116 0.074121684 0.07038156 0.0932043
000160 dd 0f 0d 3e c7 7a 58 3d 1e 77 98 3d ed 2c 6e 3d
       0.13775583 0.052851465 0.07444595 0.058148313
000170 a8 92 a8 3d 1e 1a a3 3d 41 c7 07 3d 77 34 bc 3d
       0.082310975 0.07963966 0.033149008 0.091896944
000180 a5 e5 db 3d da 68 e6 3b 84 15 9b 3d ed dc 55 3d
       0.107371606 0.0070315422 0.07572463 0.052212644
000190 e9 da b3 3d 44 88 94 3b 0e c6 9a 3d 5e 2e c0 3d
       0.08781988 0.0045328457 0.07557307 0.09383844
0001a0 9b ab 8b 3d 84 62 f3 bc ed 9c 49 3d 23 88 e7 3c
       0.068198405 -0.029710062 0.04922192 0.028263157
0001b0 31 9e 4f 3d 03 b4 73 bc ac 74 24 3d f7 5f 5f 3d
       0.050687972 -0.014874461 0.04015033 0.05453488
0001c0 53 2e 44 bd eb d2 3f bd 4e fd 31 bd b7 e0 a2 3c
       -0.04789574 -0.046832006 -0.04345446 0.019882543
0001d0 7b e0 01 3c 05 a4 4f bd 4b bc fc bc 13 45 7a bc
       0.0079270555 -0.05069353 -0.030851504 -0.015275258
0001e0 1e f3 a0 bd 4f 7f 9b bd 99 5e b5 bd 52 5f 90 bd
       -0.07858871 -0.075926416 -0.08855934 -0.07049431
0001f0 f8 dd cf bd 30 38 da bd 2d b1 b5 bd 7e 3e bd bd
       -0.10149759 -0.10655248 -0.08871684 -0.09240435
000200 95 e0 b6 3d 2a 4c e2 3d 29 a2 64 3d 4b 8e fa 3d
       0.089295544 0.110496834 0.05581871 0.122341715
000210 25 53 c7 3d 01 a6 38 3d a7 aa 98 3d f6 cc be 3d
       0.097326554 0.04508019 0.07454424 0.09316437
000220 f1 80 13 3e 77 12 2b 3d 29 7a ee 3d 36 b5 05 3e
       0.14404656 0.041765656 0.11644394 0.13057408
000230 f4 0f 81 3d 10 36 c0 3c ad ed af 3d f8 17 cb 3d
       0.06301871 0.023463279 0.08590255 0.09916681
000240 3a 1e f4 3d 94 96 bd 3d 46 6b d6 3d ca 59 f9 3d
       0.11919828 0.09257236 0.104696795 0.12175329
000250 fb 00 b8 3d a1 90 8a 3d 4d ae b6 3d 38 17 61 3d
       0.08984562 0.06765867 0.08919964 0.054953784
000260 fd cb 05 3e 4d f1 c9 3d 93 e4 fa 3d 03 dc d9 3d
       0.13066097 0.098604776 0.12250628 0.10637667
000270 97 98 ba 3d 17 ed 9a 3d 9c f6 b4 3c 16 4e 8a 3d
       0.091111355 0.075647525 0.022090249 0.06753175
000280 c8 d3 2f 3d c8 1f 69 3d f5 1b bb 3d 7f 56 4f 3d
       0.04292658 0.056915075 0.09136192 0.0506196
000290 f9 a3 92 3d 95 5f 92 3d a6 73 49 3d e3 43 a1 3d
       0.071601816 0.07147137 0.049182557 0.078742765
0002a0 72 c6 27 3d 42 0c 7a 3d d5 e2 29 3d dc 59 9e 3d
       0.040960737 0.061046846 0.04147609 0.07731983
0002b0 70 81 5e 3d d0 35 8b 3d 15 c2 c8 3c 56 a8 60 3d
       0.05432266 0.06797373 0.024506608 0.054848038
0002c0 ae 42 13 3d 39 16 c5 3c 19 98 2b 3d 2f 57 ec 3c
       0.035952263 0.024058448 0.0418931 0.028850166
0002d0 e0 ec 7c bb 32 ac 48 bc e5 5d 9b 3c e9 48 00 3c
       -0.0038593337 -0.012248086 0.01896567 0.007829883
0002e0 e0 57 86 38 8a 27 30 bd 87 85 18 bd 83 f4 48 bc
       6.405986e-05 -0.043006457 -0.037236717 -0.012265327
0002f0 17 99 97 bc 0d 28 86 3c a1 1c 8b 39 b6 34 62 bd
       -0.018505616 0.01637652 0.00026533476 -0.05522605
000300 3f a9 07 be 71 4e 4f be e6 28 2d be 41 aa 59 be
       -0.13248156 -0.20244767 -0.16910133 -0.21256353
000310 14 46 73 be 38 91 50 be 37 39 53 be f9 27 60 be
       -0.23757201 -0.20367897 -0.20627294 -0.21890248
000320 2d cb c7 bd 0b 94 bb bd 31 e1 db bd c3 f7 47 be
       -0.097555496 -0.09159096 -0.10736311 -0.19528107
000330 e6 ba 43 be 7e 39 08 be 29 31 30 be ac d3 36 be
       -0.19114265 -0.13303182 -0.17206253 -0.17854184
000340 7c 2f 1f be 31 cf 08 be 05 52 2a be 49 47 43 be
       -0.15545458 -0.13360287 -0.1663285 -0.19070162
000350 5a 8a 13 be 02 68 50 be 8a c1 68 be 7c ed 4d be
       -0.14408246 -0.20352176 -0.2273008 -0.20110124
000360 aa eb 9f bd fd d1 03 be 92 7c ea bd 18 21 36 be
       -0.07808621 -0.12873073 -0.11449541 -0.17786062
000370 66 05 29 be d7 82 77 be ee 00 25 be ec 1c 23 be
       -0.16505966 -0.24171005 -0.16113636 -0.15929002
000380 67 d1 60 bd 42 b7 06 be f5 83 99 bd e0 d5 d0 bd
       -0.0548872 -0.13155845 -0.07495872 -0.101970434
000390 78 ec 16 be 44 b8 0e be 7e 0b 02 be 20 ac 1c be
       -0.14738643 -0.1393748 -0.12699696 -0.15300035
0003a0 b4 15 c0 3c ad 82 b3 bc 8d 55 1e bd e7 6a c0 bd
       0.023447849 -0.021912897 -0.038655806 -0.0939539
0003b0 1a c0 8f bd 76 8f 49 bc a6 d7 e5 bb 25 24 a1 bd
       -0.07019062 -0.01230227 -0.0070142327 -0.07868222
0003c0 3a 4e 0e 3b 50 56 8c bc 86 3c 94 bd d2 f0 c0 bd
       0.0021714107 -0.017131 -0.072381064 -0.09420933
0003d0 ac 2a 47 bd c4 76 9d 3a f0 1c 1f bd 8c 80 ba bd
       -0.04862468 0.0012013544 -0.038845956 -0.091065496
0003e0 b8 c6 85 3c 3e c1 1c bd 65 8e 92 bb 24 17 68 bd
       0.016330108 -0.038270228 -0.004472541 -0.056662694
0003f0 05 4f 26 bd 98 03 df bd 10 77 96 bc 2e dd dc bd
       -0.040602703 -0.10889357 -0.01836732 -0.10784374

network_body.processors.0.conv_layers.0.bias f4 [16]
000000 29 b6 2f bd 97 64 9b 3d 68 e8 8b 3d f7 7c 4a bd
       -0.04289833 0.07587545 0.06831437 -0.049435582
000010 6b e2 aa bd 35 5b 45 bd 08 eb 6c 3e 3b 31 ff bb
       -0.08343967 -0.048182685 0.23136532 -0.007787851
000020 73 53 73 3c 55 ba 27 bd d3 af 77 bd 5a 09 bb 3d
       0.014851439 -0.040949184 -0.060470413 0.09132643
000030 de d3 2c 3e f5 a9 fc 3b f9 1f a1 3c d2 a0 6d 3e
       0.16877696 0.00771069 0.019668566 0.2320588

network_body.processors.0.conv_layers.2.weight f4 [32, 16, 4, 4]
000000 e8 fe 37 be 99 62 b7 bc b5 41 b6 3d bc 44 8a 3e
       -0.17968333 -0.022385882 0.08899251 0.27005565
000010 17 0b 9f be da 59 11 be a6 1f be 3d b2 53 c9 3e
       -0.31063148 -0.14194432 0.0928338 0.39321667
000020 2f 3d 00 be 15 19 2a bd 05 51 0b bd 27 ce 50 3e
       -0.1252334 -0.041527826 -0.034012813 0.20391141
000030 7f 1b 2c be a8 94 ea bd 8a fe e3 bc a1 af 00 3e
       -0.16807364 -0.11454135 -0.027831335 0.12566997
000040 39 2f 5d be dc 21 71 bd 72 22 9b bd 63 96 81 3d
       -0.21600045 -0.05887018 -0.07574929 0.06327512
000050 57 d3 96 be 7e 68 1d bd ea b2 36 3e e2 98 6b 3e
       -0.29458115 -0.03842973 0.17841688 0.23007539
000060 6e 45 48 be 30 76 d6 bd 28 cb 22 3e df 04 77 3e
       -0.19557735 -0.10471761 0.1589781 0.24122952
000070 25 a7 12 be e6 59 c3 bd 3f 5d 44 3e 4a a4 88 3e
       -0.14321573 -0.09538631 0.19176196 0.26687843
000080 12 3d 4b be 52 ae 67 3d 47 90 3b 3d a5 c1 80 3e
       -0.19847515 0.05656273 0.04579189 0.2514774
000090 32 62 62 be 04 09 32 bd e0 52 cf 3d ed b2 a3 3e
       -0.22107771 -0.04346563 0.10123229 0.31972447
0000a0 96 d8 4e be bf 4c da bd 18 48 bd 3d e3 2f 7a 3e
       -0.20199808 -0.106591694 0.092422664 0.2443233
0000b0 09 a1 bb bd 0c 70 14 be 68 20 d7 3b 08 fa 1f 3e
       -0.091615744 -0.14495867 0.0065651424 0.15622723
0000c0 c7 59 5f be a0 db 6e bc e9 ea 0b 3e df 03 3d 3e
       -0.21811591 -0.01457873 0.1366383 0.18458508
0000d0 0c 2e 5b be e9 55 dc bd 44 b5 fe 3d c8 89 a8 3e
       -0.21404284 -0.107585736 0.124369174 0.3291762
0000e0 b0 e6 1f be 9a 52 79 bd d0 0c a3 bd 5c 6c c7 3d
       -0.15615344 -0.06086979 -0.07961428 0.09737465
0000f0 11 d4 83 bc d2 25 ce bd b8 80 b9 bc 06 03 0f bc
       -0.016092332 -0.100658074 -0.022644386 -0.008728748
000100 b2 70 95 be 22 0d 67 bd 25 27 00 3e 18 46 a1 3e
       -0.29187542 -0.05640901 0.12514932 0.3149879
000110 c6 c8 8e be 63 1b 30 be 0c d5 ff 3d 59 1c ab 3e
       -0.27887553 -0.17197947 0.12491807 0.33420065
000120 ae eb 07 be 16 e1 80 bd d9 7e 16 3d a1 7e 08 3e
       -0.13273498 -0.06292932 0.036742065 0.13329555
000130 9d d2 2f be 54 3e 0d be 15 d7 73 bd fe 78 36 3d
       -0.17170186 -0.13793308 -0.05953129 0.04454898
000140 3d 4a 28 be 2a 34 99 3c 65 72 8d 3d 66 35 71 3e
       -0.1643457 0.018701632 0.06906585 0.23555526
000150 c3 d4 78 be 3b 00 20 be a5 db df 3d 4f 84 c3 3e
       -0.24299912 -0.15625088 0.10930566 0.3818688
000160 c8 d1 d4 bd 78 22 7b bd 3d 87 f3 3c 9d 66 32 3e
       -0.10391575 -0.06131217 0.029727573 0.17421956
000170 9b b3 1b be da 8e f9 bd 5e 4f 88 bd f9 5a 16 3e
       -0.15205233 -0.1218545 -0.06655763 0.14683141
000180 c2 46 41 be 90 ca b9 3c 51 fe 03 3e c2 06 5b 3e
       -0.18874648 0.022679597 0.12889983 0.21389297
000190 e3 de 8c be 17 aa 86 bd 68 3b 01 3e a5 4e c7 3e
       -0.275138 -0.06575411 0.12620318 0.3892719
0001a0 63 f0 09 be dd 0c 0f bd 03 ac 99 3c d8 c7 86 3e
       -0.13470607 -0.034924377 0.01875878 0.26324344
0001b0 08 2d dd bd 89 2b 74 bc 83 0d f3 3c 6e a6 fe 3d
       -0.10799605 -0.014902958 0.029669529 0.12434088
0001c0 b7 df 57 be aa 88 28 bc 71 7c b2 3c bd 0b 4f 3e
       -0.21081434 -0.0102864895 0.021787854 0.20219322
0001d0 79 5b 94 be 53 d9 09 be 9b a2 98 3d 59 1e c8 3e
       -0.28976038 -0.13461809 0.074528895 0.39085653
0001e0 ff 7d 15 be f2 d3 10 bc 28 9b 0a bc b1 13 13 3e
       -0.14598845 -0.008839594 -0.008459844 0.1436298
0001f0 5b 8b e8 bd 0b 01 b5 bd ce ca 00 bc 3a da 57 3e
       -0.11354705 -0.088380896 -0.007860852 0.2107934
000200 0f 4f 02 bd aa ac b4 bd c8 8e fc 3c 0f 1f 2f bd
       -0.031813677 -0.088219956 0.030829802 -0.04275423
000210 23 f7 bc bd 40 11 8c 3d 70 33 f2 3d 5f 02 ff 3d
       -0.09226825 0.06839228 0.11826217 0.12451624
000220 62 82 a5 bd 58 62 aa bc 21 2b da bc 94 0f 9e 3d
       -0.08081509 -0.020798847 -0.026631894 0.07717815
000230 be e6 1d bd 36 89 66 bd d7 62 e1 bb 1e 1c 64 bc
       -0.03855013 -0.0562832 -0.0068782377 -0.013922719
000240 a9 85 38 be f6 5e 6d bd ff 42 0b 3e 9d 44 65 3e
       -0.18019737 -0.05795189 0.13599776 0.22389455
000250 7f b6 9c be 40 07 fe bd c8 c3 bf 3d a3 83 bf 3e
       -0.30607983 -0.124037266 0.09363514 0.37405118
000260 cf f2 0b be c2 65 d2 bd 81 63 31 3d 3d 96 1f 3e
       -0.13666843 -0.10273315 0.043307785 0.15584655
000270 ef c6 f5 bd 70 ac 41 bd 16 0b bf bd c9 4f 97 3d
       -0.12000834 -0.04728359 -0.09328286 0.07388265
000280 27 80 d3 bd 64 16 0f bd 63 bd 0b 3e 1a e6 89 3e
       -0.103271775 -0.034933463 0.13646464 0.26933366
000290 c5 bb 79 be 8d 9e f2 bd 2a 76 20 3e a2 9c b6 3e
       -0.24388035 -0.118466474 0.15670076 0.35666376
0002a0 fa 1d 9e bd 01 c8 ec bd e3 45 09 bd 5f e9 1b 3e
       -0.07720561 -0.11561585 -0.033513915 0.15225743
0002b0 6d ed 72 bd b8 3e f4 bd fb 1f a5 bd 8c 08 af 3d
       -0.059308458 -0.11926025 -0.080627404 0.08546552
0002c0 64 38 79 be 40 c0 02 3d bb 25 00 3e 69 49 34 3e
       -0.24337918 0.031921625 0.12514393 0.17606129
0002d0 ae 74 9a be f4 7e 55 bd d8 1f 24 3e 08 c6 9b 3e
       -0.30167145 -0.052123025 0.16027772 0.30424523
0002e0 cc 58 8c be 61 8b d8 bd 35 c8 e6 3d 72 ba 7c 3e
       -0.27411497 -0.105734594 0.11268655 0.24680498
0002f0 23 c3 f9 bd cc 69 86 bb 73 59 d3 3d c7 fb 60 3e
       -0.121954225 -0.0041019674 0.103197955 0.21971045
000300 26 0c 59 be d2 0a 9f bd 0f e7 ef bc 03 fe 8a 3d
       -0.2119604 -0.07765736 -0.029284982 0.0678673
000310 c1 ed 60 be e8 07 af bd 69 65 e3 3d 4a 6e 68 3e
       -0.21965696 -0.0854643 0.11103327 0.22698322
000320 eb 6c 21 be 06 1c 08 be 94 a6 03 3c 45 34 29 3e
       -0.15764205 -0.1329194 0.008035321 0.16523845
000330 14 c2 85 bd 95 ac 9e bd 1d 64 bc bc 8f ef 44 3e
       -0.06531158 -0.07747761 -0.022996956 0.1923201
000340 1f b2 88 be 93 f1 b4 bd 5f 3c b9 3d a7 4d 4c 3e
       -0.26698396 -0.08835139 0.09044718 0.19951497
000350 d3 b1 66 be 9b 5f f4 bd f7 d7 1e 3e 6f a3 9b 3e
       -0.22528772 -0.11932298 0.15512072 0.30398127
000360 94 d4 de bd c5 e1 44 bd a6 4c 07 3e e0 b0 89 3e
       -0.1088039 -0.048066873 0.13212833 0.26892757
000370 d7 7e 22 be 20 f7 01 be e2 29 45 3d 29 3c 03 3e
       -0.15868698 -0.12691927 0.048135646 0.12815918
000380 0a 3d 3f be 91 94 66 3d ae 83 be 3d dd a8 88 3e
       -0.18675628 0.056294028 0.0930246 0.26691332
000390 22 7f 7a be 3c b5 5d bd c5 9b 3f 3d b7 38 74 3e
       -0.2446256 -0.054127917 0.046779413 0.2384976
0003a0 a3 4b 27 be 1a f1 c2 bd 1b ea ec bd 02 39 7a 3d
       -0.16337447 -0.09518643 -0.115680896 0.061089523
0003b0 cc 51 b8 bc 90 49 e2 bd 7b e2 de bd c4 d6 e6 3c
       -0.022499941 -0.11049187 -0.108830415 0.02817858
0003c0 b8 52 3a be 15 3c 0b bd 7d 95 0e bc e3 8a 5e 3e
       -0.18195617 -0.033992846 -0.008702633 0.21732669
0003d0 9e 3a 92 be 71 85 be bd 68 27 57 3e 69 14 f0 3e
       -0.28560346 -0.09302796 0.21011126 0.46890572
0003e0 d2 0f c2 bd ca d4 55 bd dd 65 b4 3c bb e0 47 3e
       -0.09475674 -0.052204885 0.022021228 0.19519322
0003f0 0b c7 09 be 31 c7 80 bd 28 6c 00 bc 01 6c 51 3e
       -0.13454835 -0.06287993 -0.007838286 0.20451356

network_body.processors.0.conv_layers.2.bias f4 [32]
000000 3b 34 dc 3d fe 44 07 be 9e 06 17 3e d8 cf 1b 3e
       0.1075215 -0.13209912 0.14748618 0.15216005
000010 d8 6e e1 3d 5f 69 b7 3c 84 b1 56 be a1 d9 0c 3c
       0.1100747 0.022389112 -0.20966154 0.008596809
000020 8f 61 8b bd 26 66 0a be 79 c8 95 bd 01 9d 02 3d
       -0.06805717 -0.13515529 -0.07313628 0.03188801
000030 7b af 59 bd ca 36 5e 3e 0d 39 45 be bf cc 5a be
       -0.053145867 0.21700588 -0.19260044 -0.21367167
000040 b9 f1 49 be a0 18 d5 bd 61 f6 15 be f4 32 86 bd
       -0.19721116 -0.104050875 -0.14644767 -0.06552687
000050 be 4c 1a 3e c8 c6 81 be 13 7b c1 bd 68 19 c1 3b
       0.15068337 -0.2534697 -0.09447303 0.0058929212
000060 69 a7 cd bc 22 16 aa 3d 50 67 30 be 4f e4 15 be
       -0.025104241 0.08305003 -0.1722691 -0.14637874
000070 eb 66 92 bc fd 27 c0 bc 16 f7 cd bd 8a ec 86 bd
       -0.01787134 -0.023456568 -0.100568935 -0.06588085

network_body.processors.0.dense.0.weight f4 [30, 512]
000000 9d 9f 4a be af 3f 66 bd f9 b3 d0 bc db 6b 42 bd
       -0.1978745 -0.056213077 -0.025476443 -0.04746614
000010 a3 c7 6c be 23 c7 67 3b 28 98 8d bd 2f be 05 3e
       -0.2312303 0.0035366497 -0.06913787 0.1306083
000020 d7 d2 40 3d 7b 8a e4 bd 77 ec 18 be 05 1f 6f 3e
       0.047076073 -0.111592256 -0.14933954 0.23351677
000030 85 00 b4 bd fe 46 c2 bb e0 7f 15 bd 1c 5e 82 3c
       -0.087891616 -0.005928873 -0.036498904 0.015914015
000040 a4 37 c5 bc 42 10 df 3b bf 14 8b 3c fb d2 0a 3c
       -0.024074383 0.006807358 0.016977666 0.008473153
000050 21 1e 12 3e ec 83 ff 3d 97 a5 0c bd 03 ce cf 3c
       0.14269306 0.12476334 -0.034337606 0.025366789
000060 e9 7e 9e bc 27 1f 6e 3c dd a0 de bd 5b 9e 66 be
       -0.019347625 0.0145337945 -0.10870526 -0.22521345
000070 d2 e4 51 3e 59 68 a8 3d cd 8c e2 bd 8d b4 7b 3d
       0.20497444 0.08223028 -0.11062012 0.061451484
000080 96 63 cf 3d d4 4a 66 bc 64 47 15 3d 8a 83 25 3d
       0.101264164 -0.014055926 0.036445037 0.04040865
000090 b0 91 a9 3d fc b1 99 3c 5b 3b cb 3c 6c 46 44 3c
       0.08279741 0.018761627 0.024808576 0.0119796805
0000a0 a5 e2 1a 3e e7 2b 63 3e 7a 4f c3 bd a4 5b 81 be
       0.1512552 0.22184716 -0.09536643 -0.2526523
0000b0 48 ea 2f bd 16 d2 47 bc f1 a6 67 be 91 cd fa bd
       -0.042948037 -0.0121960845 -0.22622277 -0.1224624
0000c0 8a b0 2b be bc c4 90 bc dd 74 1e be 92 1b 60 bd
       -0.16766563 -0.017671935 -0.15474267 -0.054713793
0000d0 27 e1 98 3d 98 ac 9f 3c e9 76 c4 bd a2 3c b6 3d
       0.074648194 0.019491479 -0.09592993 0.088982835
0000e0 7b ee 04 be fd c6 32 bd d7 6f bd bd 10 28 e7 3d
       -0.12981598 -0.0436468 -0.092498474 0.11286938
0000f0 f9 66 94 3d 10 9d 10 3c 1f 47 a6 3c 0c eb 16 bd
       0.07246203 0.008826509 0.020297585 -0.036845252
000100 9c 40 a5 bc d6 da 66 be 15 02 7a bd d1 7d 5b 3d
       -0.02017241 -0.22544417 -0.06103714 0.053586785
000110 70 73 d4 3d f5 c9 8d bd 75 e9 c5 bc 23 93 d1 3d
       0.103735805 -0.06923286 -0.024159173 0.10233142
000120 29 74 88 3d 0b 42 d3 bb 0e de 7e 3c 11 e0 97 bc
       0.06662781 -0.006447082 0.015555872 -0.01853946
000130 30 ee 25 be ee 18 09 be 65 2d e0 bd 21 a6 d6 bc
       -0.16204143 -0.13388416 -0.10946158 -0.026202263
000140 01 8d 21 3d d8 6f 5c bd 55 b8 f1 bd 24 bd ef 3c
       0.039441112 -0.0538176 -0.11802737 0.029264994
000150 c3 73 b1 3d d8 2d 20 be 70 c6 aa bd a7 3c 8c 3d
       0.08664658 -0.15642488 -0.0833863 0.06847506
000160 6d 7f 03 3d 8c 94 4d bd 4d 89 60 bd d5 e4 87 bd
       0.032103945 -0.050190493 -0.05481844 -0.06635443
000170 73 73 54 bd 04 d5 05 3e 49 6f 2a bd 83 21 54 bb
       -0.051867913 0.1306954 -0.041610036 -0.0032368607
000180 a0 dd 89 bd 57 91 07 3e 68 f6 a4 3d 21 9a 25 3c
       -0.06731725 0.13239037 0.08054811 0.010107548
000190 10 cd 0c bd 3f 4f 5f bc 5f eb 67 bd eb 8b 7f bd
       -0.03437525 -0.013629734 -0.05662095 -0.062389296
0001a0 7b 2f cb bd a5 5a a1 be de 5a 59 be d6 46 63 be
       -0.099211656 -0.3151447 -0.2122607 -0.2219499
0001b0 a4 28 66 3e dd 86 8f 3e 77 a5 d2 3d 81 44 e7 3c
       0.2247644 0.2803258 0.10285466 0.028230907
0001c0 a7 e7 72 bd 95 1a 2f bc 9d 8c 76 3d 67 9d 66 3e
       -0.059302952 -0.01068749 0.060192693 0.22520982
0001d0 7e 91 90 bd 73 3b 92 3d 06 91 d9 3a c6 9c 55 bd
       -0.070590004 0.07140245 0.0016599006 -0.052151464
0001e0 5d e1 83 be 19 71 41 bd ba cc b0 bd 1f a7 bb bd
       -0.25757876 -0.047227 -0.086327985 -0.09162735
0001f0 47 5b de bd 1c 2c 4b be eb ed 1b 3e 13 32 03 3e
       -0.108572535 -0.19841045 0.15227477 0.1281207
000200 31 10 93 bd cf 39 28 3b e3 4f 47 bd d3 24 9a 3b
       -0.07180823 0.0025669222 -0.04866017 0.004704097
000210 cd ff b1 bd 2d 3c bf bd 0d 18 00 3d 37 ff 96 bd
       -0.08691368 -0.093376495 0.031272937 -0.07372897
000220 07 21 a2 3c aa 56 d4 3d 27 b4 d9 3c 0c 7f 07 be
       0.01979114 0.10368092 0.026575161 -0.13232058
000230 a6 b0 cf bc 31 d4 01 be 6a 7f 1f be 18 83 0d 3d
       -0.025352787 -0.12678601 -0.15575948 0.03454885
000240 cf 67 e5 bd 13 3a 7c be 91 64 63 3d 45 24 0b 3d
       -0.112014405 -0.24631529 0.05551583 0.033970136
000250 10 ee 68 be fb 0d 84 be 1e b6 4f be ed a5 c0 bd
       -0.22747064 -0.25791916 -0.20284316 -0.09406648
000260 26 eb 9c bd bf d7 6e bd af 00 69 3d ac 17 a1 3d
       -0.076620385 -0.05831122 0.056885418 0.07865843
000270 b2 fc 4f 3c db f9 b3 bc bc c4 cb bd e4 02 cf bd
       0.012694525 -0.021969726 -0.099496335 -0.10107973
000280 f2 10 38 be 02 51 92 bd 86 a2 bf bc 32 8a a8 3d
       -0.17975214 -0.07144357 -0.023392927 0.08229484
000290 de 78 b1 bd 74 e9 c2 3b cb ad a4 bd 1c a9 96 3c
       -0.08665632 0.00594824 -0.08040961 0.018391185
0002a0 6a 5f 82 bd ab f0 81 bd 9e 53 0f bc 4e 19 c3 3d
       -0.06365855 -0.06344732 -0.008747963 0.09526311
0002b0 57 78 73 bc 51 8d 8a 3d 14 c3 bc 3d c4 b6 00 3e
       -0.014860234 0.06765235 0.09216896 0.1256972
0002c0 1e 59 da bd 38 3a a8 ba 82 4f 06 be 65 e3 d8 bd
       -0.10661529 -0.0012834733 -0.13116267 -0.10590247
0002d0 83 7c cd 3d 58 89 40 bd b3 61 8d 3d dd d6 32 be
       0.10033514 -0.04700598 0.069034 -0.17464776
0002e0 42 00 37 3b 1a de b3 bd 12 63 eb bd cd 80 60 be
       0.0027923738 -0.08782597 -0.114935055 -0.21924134
0002f0 fa ec 99 3b 2c 39 0f 3b 91 17 2f 3e 41 b4 39 3d
       0.0046974393 0.0021854145 0.17098834 0.04533792
000300 e3 80 41 bd 69 bc d3 bc 78 36 8f bd f6 2a 4b 3d
       -0.047242057 -0.025846677 -0.06992811 0.049601518
000310 89 f5 6f 3d 2f 86 48 bd 4f f0 68 bd de e4 90 3d
       0.05858377 -0.048956092 -0.0568698 0.07074903
000320 e0 0f 30 bd 5d 88 a5 bc d9 c2 56 3d 50 07 51 3e
       -0.04298389 -0.020206625 0.052431915 0.20412946
000330 63 a6 19 3d da a9 67 3c d6 6e 0e 3d a8 7b 09 3d
       0.037512194 0.014139617 0.03477367 0.033565193
000340 dd 3c ca 3d 47 cd 81 3d 6f fe fd bb bb 1b d6 3d
       0.0987489 0.06337982 -0.007751278 0.10454508
000350 1b c2 8a 3e 1e 8d b6 3e 4a a8 33 3e 9f 25 9f 3e
       0.27101216 0.3565454 0.17544666 0.3108339
000360 d7 df 2c 3e 7f 0e 38 3e 77 85 90 3d e5 63 91 bd
       0.16882263 0.1797428 0.070567064 -0.070991315
000370 e2 d3 18 3d b4 e7 5d be 58 92 e6 bd ce 95 35 be
       0.037311442 -0.21670419 -0.112583816 -0.17732927
000380 9c cd 8f 3c 9f e0 28 bd 8a 8d ce bd 30 8f 3d bd
       0.017554097 -0.04122984 -0.1008559 -0.046279132
000390 1b 6d 99 bc 9e 99 94 3d 11 4d 55 3d d5 66 0b 3d
       -0.018728783 0.07255863 0.05207545 0.034033615
0003a0 97 c8 ce 3c b3 82 95 bc ba e0 5d be 42 dc 13 bd
       0.025242133 -0.018250799 -0.21667758 -0.036098726
0003b0 3b 24 2a 3d dd b7 df bd d2 bb 3d bd dd d1 23 be
       0.04153846 -0.10923741 -0.046321698 -0.15998025
0003c0 e4 68 49 bd ce 98 4f be 6f 5f 9a 3c ac 14 a8 3d
       -0.049172297 -0.20273134 0.018844334 0.08207068
0003d0 10 3b 80 3d 34 4f 74 3d 0b f9 ed 3d 3d 12 f5 3d
       0.06261265 0.059645846 0.11619767 0.11966369
0003e0 d3 39 37 be 61 66 26 be 49 09 36 be e8 59 27 be
       -0.17893152 -0.16249992 -0.1777698 -0.1634289
0003f0 97 af 27 3e 0f 30 56 bc d1 bb fe 3b 09 eb b3 3d
       0.16375576 -0.0130729815 0.0077738543 0.08785064

network_body.processors.0.dense.0.bias f4 [30]
000000 35 60 37 3c 0e 01 3f be ec 3e 0a 3e 4b 34 43 bc
       0.011192371 -0.18652746 0.13500565 -0.011914323
000010 fa 2c b4 bd e7 04 69 3e 43 59 b0 bd d9 b1 36 3e
       -0.08797641 0.22755776 -0.08610775 0.17841281
000020 2b 7d 54 bd 40 f6 65 bd 58 30 fd bd 6b b6 0a 3e
       -0.051877182 -0.056143045 -0.123627365 0.1354615
000030 0c 28 2f 3b e1 06 69 3d 99 b7 2b 3e 25 27 9d 3d
       0.002672675 0.056891326 0.16769256 0.07673482
000040 c8 8a 40 be 0b b3 5c 3c 88 d6 29 be 6b f5 e1 bd
       -0.18802941 0.013470422 -0.16585743 -0.11033138
000050 a3 f1 43 3e 59 4d 3e 3d 82 36 bb bd 2d 29 ab 3d
       0.19135146 0.046460483 -0.09141256 0.08357463
000060 98 d3 10 be 41 19 8f bd 1b db 28 3e 5a ac 96 3d
       -0.14143217 -0.06987239 0.16489832 0.07357092
000070 ff c2 28 bc a3 82 19 be
       -0.010300397 -0.1499124
