Assets/ML-Agents/Training Files/results/9roads_cameraSensor_ppo_vehiclesMasked_1layer_64_256/VehicleAgent/VehicleAgent-11999964.pt (torch, 838483 bytes, 72 tensors)

network_body.observation_encoder.processors.0.conv_layers.0.weight f4 [16, 9, 8, 8]
-0.058456175 -0.15059976 -0.119865604 -0.16106287 -0.10874959 -0.18782313 -0.16007926 -0.095528774
-0.031856004 -0.07857689 -0.08560863 -0.11770985 -0.1653892 -0.13505957 -0.18401828 -0.14576171
-0.021860834 -0.084591076 -0.09028857 -0.029279724 -0.10301738 -0.11943727 -0.1437578 -0.121349074
0.004422725 -0.022842648 -0.015074238 -0.00048259128 -0.054529194 -0.109938875 -0.15121824 -0.083477505
0.0030210728 0.024771761 -0.01257478 -0.023304284 -0.03708895 -0.03863058 -0.02935139 -0.0058037555
0.044083096 0.015709355 0.018768685 0.07055049 0.05144833 0.005685561 -0.05362768 -0.046766877
0.09173129 -0.00013198677 0.07447238 0.057584707 0.017349545 -0.04742328 0.0149082765 -0.015521331
0.012320103 0.006778566 0.050058335 -0.0034218356 -0.049773995 -0.008797839 -0.063787855 -0.058237497
0.16620964 0.12880863 0.09871012 0.16022016 0.13101229 0.066474445 0.13055472 0.15019453
0.13387229 0.05709282 0.05355919 0.13329785 0.09140876 0.017661426 0.09860262 0.126862
0.16157372 0.0709914 0.067721896 0.08021501 0.08966009 0.07786842 0.07358413 0.09315901
0.13944206 0.056983795 0.076492935 0.0592422 0.08673651 0.087755725 0.036865942 0.09181249
0.11583401 0.017172908 0.0853174 0.05903485 0.09824314 0.019049324 0.0869827 0.099193715
0.069422685 -0.02616061 0.052755944 0.032337498 0.056219656 -0.0063758628 0.047616582 0.058869213
-0.047142442 -0.04519704 -0.03999791 0.022641115 0.013176852 -0.04465529 -0.025177443 -0.014538216
-0.077376485 -0.07156933 -0.08538754 -0.06736679 -0.095994614 -0.09734187 -0.08177564 -0.08872802
0.088130526 0.108562425 0.05392264 0.12116277 0.09674677 0.044061914 0.07321035 0.09242226
0.14396259 0.041954838 0.11532922 0.12935275 0.06361417 0.024063006 0.08616903 0.09754397
0.119255364 0.09022783 0.1031465 0.12105067 0.09039061 0.06617933 0.088225104 0.053015564
0.13066237 0.09884019 0.12123078 0.10441941 0.091095336 0.07669617 0.021116786 0.06489863
0.045208454 0.05952216 0.0938195 0.050995734 0.07375722 0.075013764 0.051987763 0.078405544
0.039484076 0.06035077 0.040572546 0.07724347 0.054708008 0.06930625 0.025494719 0.05523648
0.035259847 0.023005517 0.041763697 0.028668098 -0.002843702 -0.011883012 0.019738937 0.006702982
0.00032361338 -0.04196641 -0.03733643 -0.012602654 -0.016949013 0.019254837 0.0015342727 -0.055646848
-0.13025843 -0.19836581 -0.16393425 -0.20719567 -0.23290426 -0.19987 -0.2019369 -0.21372107
-0.098197624 -0.09148963 -0.105070196 -0.19224392 -0.18805367 -0.13128446 -0.16895176 -0.17472656
-0.16097249 -0.13557349 -0.16956623 -0.19457342 -0.14609997 -0.20402306 -0.22947843 -0.20362636
-0.07942476 -0.12596779 -0.115952395 -0.17876558 -0.1647037 -0.2390425 -0.16164799 -0.16101474
-0.056681413 -0.1291995 -0.07198999 -0.104083665 -0.14945105 -0.13988262 -0.12503947 -0.15458328
0.021147536 -0.02274247 -0.035290178 -0.09066471 -0.06844299 -0.011133647 -0.0033739426 -0.07199584
0.0011695285 -0.015166683 -0.06994874 -0.09778066 -0.046415936 0.007276629 -0.033880454 -0.09080856
0.016404133 -0.037163574 -0.0019957314 -0.055091765 -0.038795415 -0.10309961 -0.013001149 -0.102511846
00000000: be6f 6fbd d336 1abe 197c f5bd aaed 24be
00000010: 1bb8 debd b554 40be d1eb 23be 97a4 c3bd
00000020: 717b 02bd ecec a0bd 9453 afbd dd11 f1bd
00000030: c95b 29be 0e4d 0abe 4a6f 3cbe 8f42 15be
00000040: 7e15 b3bc 163e adbd 37e9 b8bd 08dc efbc
00000050: c7fa d2bd 879b f4bd 3f35 13be dd85 f8bd
00000060: 82ec 903b 8120 bbbc f0f9 76bc 4e04 fdb9
00000070: 015a 5fbd a227 e1bd f4d8 1abe 41f6 aabd
00000080: 31fd 453b 26ee ca3c 7306 4ebc a0e8 bebc
00000090: 95ea 17bd 193b 1ebd 5472 f0bc 6e2d bebb
000000a0: 7a90 343d e8b0 803c c9c0 993c c67c 903d
000000b0: 7cbb 523d f14d ba3b b3a8 5bbd a08e 3fbd
000000c0: 9ddd bb3d ee65 0ab9 fa84 983d f1dd 6b3d
000000d0: a220 8e3c ea3e 42bd d841 743c 2e4d 7ebc
000000e0: 42da 493c bc1e de3b f809 4d3d e040 60bb
000000f0: d1df 4bbd d024 10bc 35a3 82bd 718a 6ebd
00000100: dc32 2a3e 69e6 033e 8828 ca3d c110 243e
00000110: 1628 063e c123 883d 23b0 053e 98cc 193e
00000120: d115 093e 29da 693d e260 5b3d 3b7f 083e
00000130: 8434 bb3d b2ae 903c 2cf0 c93d 1de8 013e
00000140: 9573 253e f063 913d c7b1 8a3d c447 a43d
00000150: b69f b73d 7a79 9f3d 47b3 963d 27ca be3d
00000160: e6c9 0e3e d767 693d 54a8 9c3d f3a7 723d
00000170: e9a2 b13d 46b9 b33d be00 173d 3008 bc3d
00000180: 623a ed3d 33ae 8c3c e4ba ae3d 87ce 713d
00000190: b333 c93d 540d 9c3c fc23 b23d 1326 cb3d
000001a0: 7b2d 8e3d c74e d6bc 9e16 583d 5374 043d
000001b0: 9546 663d 9dec d0bb 9b09 433d d820 713d
000001c0: 6f18 41bd 8820 39bd d9d4 23bd dc79 b93c
000001d0: b9e3 573c 77e8 36bd ed40 cebc b331 6ebc
000001e0: 9077 9ebd f192 92bd aadf aebd 99f7 89bd
000001f0: d398 c4bd 2d5b c7bd fd79 a7bd 09b7 b5bd
00000200: c77d b43d fa55 de3d fcdd 5c3d 3024 f83d
00000210: 2c23 c63d 447a 343d 4fef 953d e247 bd3d
00000220: ee6a 133e d6d8 2b3d ba31 ec3d 0c75 043e
00000230: 2548 823d c81f c53c 6379 b03d 22c5 c73d
00000240: 283c f43d 5ec9 b83d 793e d33d 6ae9 f73d
00000250: b61e b93d 0789 873d 5daf b43d d926 593d
00000260: 5bcc 053e ba6c ca3d d847 f83d d8d9 d53d
00000270: 3190 ba3d e212 9d3d 1cfd ac3c 93e9 843d
00000280: 802c 393d 82cd 733d 7024 c03d e7e0 503d
00000290: 060e 973d d1a0 993d 1ff1 543d 1693 a03d
000002a0: 0eba 213d 5e32 773d 662f 263d d331 9e3d
000002b0: 8115 603d 6ff0 8d3d 4dda d03c a63f 623d
000002c0: a16c 103d 1176 bc3c 6910 2b3d 5cd9 ea3c
000002d0: 675d 3abb f7b0 42bc 8db3 a13c b0a4 db3b
000002e0: a7aa a939 f8e4 2bbd 16ee 18bd 5d7b 4ebc
000002f0: a8d8 8abc 52bc 9d3c a619 c93a f3ed 63bd
00000300: 7762 05be 6820 4bbe 61de 27be 1a2b 54be
00000310: 747e 6ebe b9aa 4cbe 8cc8 4ebe b2d9 5abe
00000320: d61b c9bd ea5e bbbd 0b2f d7bd 97db 44be
00000330: 2491 40be 6f6f 06be b101 2dbe 85eb 32be
00000340: f9d5 24be c7d3 0abe c5a2 2dbe 413e 47be
00000350: 3b9b 15be 6ceb 50be 65fc 6abe 6e83 50be
00000360: 73a9 a2bd b3fd 00be 7378 edbd 530e 37be
00000370: 16a8 28be 8fc7 74be 0d87 25be 0ce1 24be
00000380: c52a 68bd e04c 04be 7d6f 93bd d129 d5bd
00000390: b209 19be 643d 0fbe 590a 00be 144b 1ebe
000003a0: 993d ad3c 6b4e babc 6f8c 10bd 6bae b9bd
000003b0: d72b 8cbd e669 36bc 5d1d 5dbb 8e72 93bd
000003c0: dd4a 993a ae7d 78bc 4941 8fbd 3a41 c8bd
000003d0: a31e 3ebd ca70 ee3b 3bc6 0abd d7f9 b9bd
000003e0: f661 863c d538 18bd d1ca 02bb e7a7 61bd
000003f0: f1e7 1ebd e325 d3bd c502 55bc bbf1 d1bd

network_body.observation_encoder.processors.0.conv_layers.0.bias f4 [16]
-0.03714065 0.07108403 0.06331877 -0.039389983 -0.07604398 -0.038231082 0.22455628 -0.0082571795
0.017515058 -0.036886968 -0.058415513 0.09011822 0.1580315 0.010537604 0.030271234 0.22931345
00000000: cb20 18bd 8194 913d 45ad 813d 6457 21bd
00000010: f2bc 9bbd 3298 1cbd 15f2 653e 1f49 07bc
00000020: bd7b 8f3c ca16 17bd 1b45 6fbd e78f b83d
00000030: 02d3 213e eaa5 2c3c 61fb f73c 25d1 6a3e

network_body.observation_encoder.processors.0.conv_layers.2.weight f4 [32, 16, 4, 4]
-0.18088245 -0.026029699 0.083177626 0.26362008 -0.3066467 -0.13927943 0.0936083 0.39287007
-0.12490684 -0.039466843 -0.029088061 0.20981619 -0.16856058 -0.11184285 -0.022954153 0.12902743
-0.21712154 -0.06259197 -0.07992836 0.06039441 -0.28821167 -0.03551252 0.17711939 0.22625537
-0.18971395 -0.098515145 0.16465496 0.24572796 -0.13899054 -0.09042789 0.19552729 0.26911217
-0.19961561 0.060001906 0.04563486 0.24804388 -0.21825518 -0.041658435 0.103159 0.31869915
-0.20075294 -0.10330103 0.10212422 0.25356182 -0.09107242 -0.14195187 0.011341199 0.1606679
-0.21934833 -0.018211896 0.13089348 0.17817466 -0.21139492 -0.10490118 0.12547326 0.33039948
-0.15713683 -0.059142467 -0.0753405 0.1033773 -0.017312242 -0.09829967 -0.018964054 -0.004442789
-0.29403362 -0.06269357 0.11690147 0.30589557 -0.27696687 -0.17013891 0.12443557 0.33247516
-0.13549429 -0.063463405 0.03887404 0.13719654 -0.17441182 -0.13646322 -0.0557767 0.04837317
-0.1644218 0.01584585 0.06521772 0.23093554 -0.23986168 -0.15321179 0.11088458 0.38226467
-0.103236005 -0.057919953 0.037369147 0.18251811 -0.1520831 -0.118826196 -0.06149497 0.1513565
-0.18968792 0.019231632 0.12491841 0.20795536 -0.27185136 -0.063442886 0.12669024 0.38709387
-0.13270614 -0.031083908 0.024436595 0.2683047 -0.10626983 -0.0111924345 0.035030004 0.1292274
-0.20932949 -0.013620895 0.021098757 0.19742602 -0.28745213 -0.13305293 0.075235 0.38975555
-0.14474253 -0.0047512157 0.003916757 0.15283556 -0.113568075 -0.08569291 -0.0031526752 0.21417505
-0.041176185 -0.10553835 0.015987733 -0.04712094 -0.08999799 0.0705209 0.115328014 0.11907433
-0.079620674 -0.019558318 -0.024961293 0.08246487 -0.03767551 -0.052852936 -0.0034764046 -0.012007193
-0.17862004 -0.059089724 0.13337713 0.2173526 -0.302191 -0.121516995 0.09440054 0.3742323
-0.13693829 -0.09949821 0.050971195 0.1630359 -0.12074137 -0.044231225 -0.08893933 0.07749349
-0.103048146 -0.037337147 0.13386996 0.26567724 -0.24088094 -0.11519242 0.15979132 0.3590717
-0.0773443 -0.113537885 -0.027661534 0.15999135 -0.059995294 -0.116338 -0.07527513 0.09046857
-0.24429551 0.028990889 0.12131204 0.17102107 -0.2964447 -0.04862299 0.16190226 0.30386946
-0.27051085 -0.10090065 0.119666815 0.252943 -0.11956667 -4.2942404e-05 0.108676635 0.2250391
-0.21437457 -0.082317464 -0.03395293 0.06302437 -0.21638626 -0.08356564 0.111399755 0.22491659
-0.15528253 -0.12957196 0.012751289 0.16899395 -0.064175226 -0.07474685 -0.018788746 0.19570376
-0.26937997 -0.091681235 0.09059122 0.19436574 -0.22029161 -0.117883995 0.15510787 0.3053429
-0.10865082 -0.043710735 0.13753189 0.27591142 -0.15852396 -0.12203081 0.05335807 0.13352694
-0.18696247 0.054391704 0.08971911 0.2614317 -0.24429049 -0.052594125 0.04765666 0.23794839
-0.16434114 -0.093457386 -0.11117856 0.066605724 -0.02359553 -0.10923157 -0.10541971 0.032253742
-0.18238042 -0.027209843 -0.0015654607 0.21688409 -0.28450146 -0.09183979 0.21080187 0.46630394
-0.09461849 -0.047201443 0.03979372 0.20896295 -0.13465692 -0.060275987 -0.0038226857 0.20756732
00000000: 4039 39be 3c3c d5bc 0859 aa3d 36f9 863e
00000010: cc00 9dbe 449f 0ebe b5b5 bf3d 4426 c93e
00000020: 28cf ffbd fca7 21bd 164a eebc 0eda 563e
00000030: 259b 2cbe dd0d e5bd 590a bcbc c41f 043e
00000040: 1c55 5ebe 3830 80bd 7bb1 a3bd 2160 773d
00000050: 7b90 93be 9375 11bd c95e 353e 7daf 673e
00000060: 6044 42be 4fc2 c9bd 4f9b 283e 1ca0 7b3e
00000070: 8953 0ebe 4232 b9bd 4e38 483e 12c9 893e
00000080: 0968 4cbe 8fc4 753d 9eeb 3a3d 37ff 7d3e
00000090: 497e 5fbe 09a2 2abd 0745 d33d 892c a33e
000000a0: 2e92 4dbe 7e8f d3bd 8126 d13d dbd2 813e
000000b0: 2d84 babd d55b 11be 70d0 393c 2086 243e
000000c0: d99c 60be 1d31 95bc f108 063e 6b73 363e
000000d0: e977 58be 6ed6 d6bd 107c 003e 1f2a a93e
000000e0: 7ae8 20be 5f3f 72bd 1f4c 9abd 7ab7 d33d
000000f0: 67d2 8dbc 5651 c9bd 815a 9bbc d194 91bb
00000100: 938b 96be 7d65 80bd 0a6a ef3d 589e 9c3e
00000110: 9ace 8dbe e538 2ebe 13d8 fe3d 2f3a aa3e
00000120: 04bf 0abe 1af9 81bd 633a 1f3d 407d 0c3e
00000130: 0399 32be 04bd 0bbe 1c76 64bd f222 463d
00000140: 305e 28be 28cf 813c de90 853d 5e7a 6c3e
00000150: 4d9e 75be 8de3 1cbe 7417 e33d 32b8 c33e
00000160: 666d d3bd 793d 6dbd 6410 193d 07e6 3a3e
00000170: acbb 1bbe 265b f3bd 26e2 7bbd 33fd 1a3e
00000180: 8d3d 42be a88b 9d3c 39d5 ff3d 40f2 543e
00000190: 1a30 8bbe 58ee 81bd 16bb 013e 2b31 c63e
000001a0: 1ee4 07be aea3 febc 412f c83c 3c5f 893e
000001b0: ffa3 d9bd 7960 37bc 9f7b 0f3d 3054 043e
000001c0: 785a 56be 2d2a 5fbc 4dd7 ac3c 0c2a 4a3e
000001d0: ed2c 93be 073f 08be cf14 9a3d 0a8e c73e
000001e0: 6337 14be 16b0 9bbb 2458 803b ed80 1c3e
000001f0: 6196 e8bd c47f afbd 1d9d 4ebb b450 5b3e
00000200: 5ca8 28bd 7e24 d8bd b5f8 823c e301 41bd
00000210: de50 b8bd 436d 903d 1831 ec3d 3edd f33d
00000220: 2a10 a3bd c438 a0bc a07b ccbc 57e3 a83d
00000230: a351 1abd 527c 58bd 64d4 63bb d1b9 44bc
00000240: 2ce8 36be 1108 72bd 0494 083e ae91 5e3e
00000250: c7b8 9abe e7dd f8bd 1255 c13d 609b bf3e
00000260: 8d39 0cbe b8c5 cbbd 2cc7 503d e2f2 263e
00000270: 4047 f7bd cd2b 35bd d325 b6bd e8b4 9e3d
00000280: e80a d3bd d6ee 18bd 3515 093e d906 883e
00000290: 7ea9 76be 01ea ebbd 56a0 233e 3fd8 b73e
000002a0: b066 9ebd 8d86 e8bd 719a e2bc c6d4 233e
000002b0: a0bd 75bd 9e42 eebd d929 9abd 9647 b93d
000002c0: 9a28 7abe 4d7e ed3c 7272 f83d 2620 2f3e
000002d0: 9ac7 97be e628 47bd b5c9 253e c794 9b3e
000002e0: 6680 8abe 00a5 cebd e013 f53d bf81 813e
000002f0: 5fdf f4bd 0e1d 34b8 db91 de3d a670 663e
00000300: 0285 5bbe 0f96 a8bd 3a12 0bbd ec12 813d
00000310: 5c94 5dbe 7624 abbd 8e25 e43d 8950 663e
00000320: 6202 1fbe 83ae 04be c8ea 503c c00c 2d3e
00000330: 4d6e 83bd e014 99bd dbea 99bc 9166 483e
00000340: 2cec 89be 5fc3 bbbd e487 b93d d007 473e
00000350: 2094 61be 2a6d f1bd 99d4 1e3e e855 9c3e
00000360: 5284 debd 070a 33bd 29d5 0c3e 4344 8d3e
00000370: 1b54 22be 4aeb f9bd fe8d 5a3d 49bb 083e
00000380: 1773 3fbe d6c9 5e3d a7be b73d 60da 853e
00000390: 4927 7abe f06c 57bd a133 433d bea8 733e
000003a0: 0b49 28be 9666 bfbd 96b1 e3bd 9568 883d
000003b0: 6a4b c1bc cdb4 dfbd 4ae6 d7bd 801c 043d
000003c0: efc1 3abe 2de7 debc 2530 cdba dd16 5e3e
000003d0: 2daa 91be 8016 bcbd 72dc 573e 64bf ee3e
000003e0: 57c7 c1bd 4d56 41bd bdfe 223d 62fa 553e
000003f0: 81e3 09be f4e3 76bd 0686 7abb 878c 543e

network_body.observation_encoder.processors.0.conv_layers.2.bias f4 [32]
0.10468847 -0.13500537 0.14400302 0.14906001 0.11467198 0.02033428 -0.21002032 0.0011773505
-0.0877996 -0.1432814 -0.05166636 0.02845589 -0.05479287 0.21653993 -0.1778625 -0.22599237
-0.18966503 -0.1071737 -0.14417352 -0.06245868 0.14534548 -0.255001 -0.083904736 0.0016938952
-0.039928727 0.07615743 -0.17185394 -0.14108142 0.005378085 -0.021314804 -0.117894396 -0.07146302
00000000: e966 d63d d93e 0abe 8775 133e 30a3 183e
00000010: 25d9 ea3d 1394 a63c 910f 57be 5451 9a3a
00000020: 47d0 b3bd 5cb8 12be 1ba0 53bd 541c e93c
00000030: 7d6e 60bd a5bc 5d3e 9621 36be 8b6a 67be
00000040: 8d37 42be e37d dbbd 39a2 13be acd4 7fbd
00000050: 72d5 143e 7e8f 82be 3fd6 abbd b105 de3a
00000060: 4e8c 23bd 6df8 9b3d 7bfa 2fbe a677 10be
00000070: a63a b03b 629c aebc 9e72 f1bd 345b 92bd

network_body.observation_encoder.processors.0.dense.0.weight f4 [30, 512]
-0.19960064 -0.062594764 -0.028138293 -0.053227436 -0.21715294 -0.010036231 -0.05310712 0.15023549
0.06364583 -0.116585225 -0.1376734 0.24034047 -0.076788105 0.010025243 -0.034990482 0.020035386
-0.016386572 0.012885363 0.011747952 0.0012505791 0.13900462 0.12995277 -0.031027872 0.025199039
-0.0060377973 0.022634596 -0.12687656 -0.19037586 0.19196907 0.07929959 -0.12118509 0.06009486
0.0898051 -0.026795328 0.02805049 0.029729307 0.08530686 0.011851988 0.01891554 -0.002731824
0.15302967 0.2210167 -0.117919564 -0.24903761 -0.048140828 -0.012816493 -0.22419609 -0.11855293
-0.17955458 -0.035030067 -0.16669217 -0.070027746 0.0707776 0.004270624 -0.096338466 0.08803768
-0.10938365 -0.055382464 -0.09722076 0.12042207 0.07975638 0.010671392 0.003945559 -0.055907167
-0.015757076 -0.23216143 -0.06301966 0.055084024 0.10837593 -0.071607485 -0.012451392 0.13196273
0.092569105 -0.0026231734 0.017012846 -0.018484203 -0.15638638 -0.12760332 -0.10230308 -0.03322299
0.03750301 -0.050473534 -0.12523371 0.006727424 0.07695747 -0.17393279 -0.08565563 0.054827876
0.044787835 -0.056568783 -0.045863397 -0.035931487 -0.05459992 0.11102958 -0.04170678 -0.006912319
-0.06513524 0.1356883 0.078286625 0.0026382604 -0.03940636 -0.017995818 -0.059203796 -0.06733232
-0.081842124 -0.30322823 -0.20627524 -0.20500256 0.22193116 0.28124112 0.10255134 0.03279253
-0.0612921 -0.019244568 0.06151752 0.21697439 -0.06966667 0.06458496 -0.00856409 -0.06527467
-0.25325826 -0.04812153 -0.09297299 -0.0841999 -0.112959035 -0.18462478 0.16152321 0.13260882
-0.07164746 -0.00047996495 -0.05393894 0.0065038684 -0.07605737 -0.10631417 0.037474778 -0.07148411
0.025250917 0.10908674 0.028598452 -0.13257311 -0.023299921 -0.13584523 -0.15276076 0.03748628
-0.12222418 -0.2640401 0.049754348 0.03690148 -0.21840942 -0.25821584 -0.19961165 -0.06875367
-0.07055509 -0.04744844 0.06380918 0.06754283 0.008147746 -0.019235792 -0.09475754 -0.101921275
-0.17918177 -0.07078287 -0.024783708 0.07932769 -0.091520585 0.013678064 -0.07594279 0.023780592
-0.038561974 -0.059310984 -0.0040438105 0.10086555 -0.013625112 0.071215115 0.09656092 0.12908247
-0.11470928 0.0019987114 -0.13380136 -0.111285195 0.097764365 -0.04859508 0.071761504 -0.17666075
0.0110182855 -0.083608285 -0.11678085 -0.20648918 -0.00063504453 -0.004750204 0.15933254 0.040146172
-0.044950113 -0.0282735 -0.08004652 0.045637134 0.074041836 -0.04595864 -0.059410296 0.0770959
-0.042956073 -0.016190749 0.055580538 0.21247871 0.038303826 0.016274692 0.03717731 0.034801465
0.098119706 0.060849976 -0.010110125 0.10511244 0.27395278 0.36177135 0.17446022 0.3111252
0.16323936 0.17340507 0.064943224 -0.07870443 0.037894316 -0.22052422 -0.11611309 -0.18222928
0.01793467 -0.048259974 -0.108930275 -0.04996394 -0.017112982 0.07412564 0.05679172 0.03724865
0.03149065 -0.01803461 -0.21116453 -0.030178968 0.04377972 -0.103306696 -0.041884508 -0.15862083
-0.050983176 -0.21391414 -0.0044948137 0.057376858 0.06571147 0.06145112 0.119094275 0.118129574
-0.17195018 -0.15897249 -0.17421713 -0.15448788 0.16451393 -0.009656378 0.011779367 0.09155234
00000000: 1c64 4cbe af31 80bd 4782 e6bc 0305 5abd
00000010: 575d 5ebe 016f 24bc da86 59bd 55d7 193e
00000020: bf58 823d 3cc4 eebd 41fa 0cbe d01b 763e
00000030: 1543 9dbd eb40 243c 2e52 0fbd 4021 a43c
00000040: 223d 86bc 211d 533c 7b7a 403c 79ea a33a
00000050: 3a57 0e3e 5712 053e 2a2e febc 376e ce3c
00000060: b7d8 c5bb 306c b93c eeeb 01be e4f1 42be
00000070: 8a93 443e d367 a23d e32f f8bd 0726 763d
00000080: bceb b73d e081 dbbc 24ca e53c e08a f33c
00000090: 5db5 ae3d d72e 423c c3f4 9a3c 6708 33bb
000000a0: cfb3 1c3e 3452 623e d07f f1bd b703 7fbe
000000b0: 512f 45bd 45fc 51bc a993 65be e1cb f2bd
000000c0: 28dd 37be b07b 0fbd 5ab1 2abe b56a 8fbd
000000d0: d9f3 903d 97f0 8b3b 1a4d c5bd 194d b43d
000000e0: 8904 e0bd b9d8 62bd ae1b c7bd d99f f63d
000000f0: 5057 a33d 10d7 2e3c bf49 813b eafe 64bd
00000100: fc14 81bc babb 6dbe 7410 81bd c99f 613d
00000110: 33f4 dd3d f2a6 92bd ec00 4cbc 3d21 073e
00000120: df94 bd3d 8ce9 2bbb 865e 8b3c 2f6c 97bc
00000130: c023 20be 72aa 02be 4784 d1bd d414 08bd
00000140: c29c 193d 56bd 4ebd 443d 00be b971 dc3b
00000150: e19b 9d3d 701b 32be 386c afbd 3293 603d
00000160: 7373 373d abb4 67bd 42db 3bbd e52c 13bd
00000170: 2aa4 5fbd 7a63 e33d bbd4 2abd bc80 e2bb
00000180: a065 85bd e0f1 0a3e bd54 a03d aae6 2c3b
00000190: 9068 21bd f76b 93bc ae7f 72bd 87e5 89bd
000001a0: d89c a7bd bb40 9bbe d139 53be 31ec 51be
000001b0: ec41 633e d6fe 8f3e 7006 d23d 7651 063d
000001c0: 6d0d 7bbd c9a6 9dbc ccf9 7b3d 892e 5e3e
000001d0: 66ad 8ebd 1f45 843d 6650 0cbc baae 85bd
000001e0: 11ab 81be 151b 45bd 9f68 bebd ff70 acbd
000001f0: 1157 e7bd 470e 3dbe 5766 253e 9bca 073e
00000200: e7bb 92bd cea3 fbb9 14ef 5cbd 671e d53b
00000210: f7c3 9bbd 3ebb d9bd 277f 193d 4366 92bd
00000220: 03db ce3c de68 df3d 4d47 ea3c 3fc1 07be
00000230: 7adf bebc 031b 0bbe 516d 1cbe 378b 193d
00000240: ac50 fabd 4430 87be 37cb 4b3d 0226 173d
00000250: b8a6 5fbe de34 84be ff66 4cbe b9ce 8cbd
00000260: 307f 90bd 4c59 42bd 63ae 823d e553 8a3d
00000270: 207e 053c 6194 9dbc 3e10 c2bd 1abc d0bd
00000280: 6d7b 37be 9cf6 90bd 3407 cbbc 8e76 a23d
00000290: 256f bbbd f519 603c e587 9bbd 84cf c23c
000002a0: 29f3 1dbd 13f0 72bd f181 84bb 9992 ce3d
000002b0: dd3b 5fbc 3bd9 913d bbc1 c53d 322e 043e
000002c0: b3ec eabd d0fc 023b 3903 09be 7ee9 e3bd
000002d0: af38 c83d a20b 47bd b2f7 923d 8ee6 34be
000002e0: 0a86 343c d23a abbd cc2a efbd e671 53be
000002f0: 1e79 26ba 99a7 9bbb 1228 233e 5070 243d
00000300: 9c1d 38bd d49d e7bc 6eef a3bd 01ee 3a3d
00000310: 3fa3 973d 203f 3cbd 3658 73bd 75e4 9d3d
00000320: b5f2 2fbd 76a2 84bc 6ba8 633d 0594 593e
00000330: 79e4 1c3d 8152 853c 3c47 183d fb8b 0e3d
00000340: fcf2 c83d d33d 793d f0a4 25bc 3145 d73d
00000350: 8a43 8c3e 183a b93e b3a5 323e cd4b 9f3e
00000360: 3828 273e 1991 313e f400 853d ca2f a1bd
00000370: 1237 1b3d 1ad1 61be b3cc edbd 509a 3abe
00000380: bbeb 923c 40ac 45bd d616 dfbd fda6 4cbd
00000390: 8630 8cbc 2fcf 973d 6f9e 683d 0a92 183d
000003a0: 57fc 003d 52bd 93bc 843b 58be e239 f7bc
000003b0: 5d52 333d 7692 d3bd 178f 2bbd 806d 22be
000003c0: bcd3 50bd 4f0c 5bbe 3b49 93bb ff03 6b3d
000003d0: bc93 863d 2bb4 7b3d b3e7 f33d ebed f13d
000003e0: b513 30be afc9 22be fa65 32be 1232 1ebe
000003f0: 5776 283e c935 1ebc 3ffe 403c cb7f bb3d

network_body.observation_encoder.processors.0.dense.0.bias f4 [30]
0.008261646 -0.18292972 0.13600369 -0.011793413 -0.08260331 0.22442676 -0.08106959 0.17181644
-0.040618427 -0.051146157 -0.124944694 0.13545059 -0.0017086326 0.05984614 0.17274341 0.07726975
-0.19271933 0.0110192085 -0.17716569 -0.096295334 0.19435428 0.050194092 -0.09233376 0.08313069
-0.1354871 -0.062563 0.16838548 0.06718501 -0.013436365 -0.14775506
00000000: db5b 073c ee51 3bbe 8d44 0b3e 2939 41bc
00000010: ed2b a9bd 21d0 653e d007 a6bd a6f0 2f3e
00000020: 825f 26bd a27e 51bd 01e3 ffbd 8fb3 0a3e
00000030: 32f4 dfba 3a21 753d a6e3 303e 9a3f 9e3d
00000040: 3758 45be e989 343c ec6a 35be 7d36 c5bd
00000050: cf04 473e 5298 4d3d 7b19 bdbd 6c40 aa3d
00000060: 21bd 0abe 0821 80bd 3e6d 2c3e 4b98 893d
00000070: 3324 5cbc 1a4d 17be

network_body.processors.0.conv_layers.0.weight f4 [16, 9, 8, 8]
-0.058456175 -0.15059976 -0.119865604 -0.16106287 -0.10874959 -0.18782313 -0.16007926 -0.095528774
-0.031856004 -0.07857689 -0.08560863 -0.11770985 -0.1653892 -0.13505957 -0.18401828 -0.14576171
-0.021860834 -0.084591076 -0.09028857 -0.029279724 -0.10301738 -0.11943727 -0.1437578 -0.121349074
0.004422725 -0.022842648 -0.015074238 -0.00048259128 -0.054529194 -0.109938875 -0.15121824 -0.083477505
0.0030210728 0.024771761 -0.01257478 -0.023304284 -0.03708895 -0.03863058 -0.02935139 -0.0058037555
0.044083096 0.015709355 0.018768685 0.07055049 0.05144833 0.005685561 -0.05362768 -0.046766877
0.09173129 -0.00013198677 0.07447238 0.057584707 0.017349545 -0.04742328 0.0149082765 -0.015521331
0.012320103 0.006778566 0.050058335 -0.0034218356 -0.049773995 -0.008797839 -0.063787855 -0.058237497
0.16620964 0.12880863 0.09871012 0.16022016 0.13101229 0.066474445 0.13055472 0.15019453
0.13387229 0.05709282 0.05355919 0.13329785 0.09140876 0.017661426 0.09860262 0.126862
0.16157372 0.0709914 0.067721896 0.08021501 0.08966009 0.07786842 0.07358413 0.09315901
0.13944206 0.056983795 0.076492935 0.0592422 0.08673651 0.087755725 0.036865942 0.09181249
0.11583401 0.017172908 0.0853174 0.05903485 0.09824314 0.019049324 0.0869827 0.099193715
0.069422685 -0.02616061 0.052755944 0.032337498 0.056219656 -0.0063758628 0.047616582 0.058869213
-0.047142442 -0.04519704 -0.03999791 0.022641115 0.013176852 -0.04465529 -0.025177443 -0.014538216
-0.077376485 -0.07156933 -0.08538754 -0.06736679 -0.095994614 -0.09734187 -0.08177564 -0.08872802
0.088130526 0.108562425 0.05392264 0.12116277 0.09674677 0.044061914 0.07321035 0.09242226
0.14396259 0.041954838 0.11532922 0.12935275 0.06361417 0.024063006 0.08616903 0.09754397
0.119255364 0.09022783 0.1031465 0.12105067 0.09039061 0.06617933 0.088225104 0.053015564
0.13066237 0.09884019 0.12123078 0.10441941 0.091095336 0.07669617 0.021116786 0.06489863
0.045208454 0.05952216 0.0938195 0.050995734 0.07375722 0.075013764 0.051987763 0.078405544
0.039484076 0.06035077 0.040572546 0.07724347 0.054708008 0.06930625 0.025494719 0.05523648
0.035259847 0.023005517 0.041763697 0.028668098 -0.002843702 -0.011883012 0.019738937 0.006702982
0.00032361338 -0.04196641 -0.03733643 -0.012602654 -0.016949013 0.019254837 0.0015342727 -0.055646848
-0.13025843 -0.19836581 -0.16393425 -0.20719567 -0.23290426 -0.19987 -0.2019369 -0.21372107
-0.098197624 -0.09148963 -0.105070196 -0.19224392 -0.18805367 -0.13128446 -0.16895176 -0.17472656
-0.16097249 -0.13557349 -0.16956623 -0.19457342 -0.14609997 -0.20402306 -0.22947843 -0.20362636
-0.07942476 -0.12596779 -0.115952395 -0.17876558 -0.1647037 -0.2390425 -0.16164799 -0.16101474
-0.056681413 -0.1291995 -0.07198999 -0.104083665 -0.14945105 -0.13988262 -0.12503947 -0.15458328
0.021147536 -0.02274247 -0.035290178 -0.09066471 -0.06844299 -0.011133647 -0.0033739426 -0.07199584
0.0011695285 -0.015166683 -0.06994874 -0.09778066 -0.046415936 0.007276629 -0.033880454 -0.09080856
0.016404133 -0.037163574 -0.0019957314 -0.055091765 -0.038795415 -0.10309961 -0.013001149 -0.102511846
00000000: be6f 6fbd d336 1abe 197c f5bd aaed 24be
00000010: 1bb8 debd b554 40be d1eb 23be 97a4 c3bd
00000020: 717b 02bd ecec a0bd 9453 afbd dd11 f1bd
00000030: c95b 29be 0e4d 0abe 4a6f 3cbe 8f42 15be
00000040: 7e15 b3bc 163e adbd 37e9 b8bd 08dc efbc
00000050: c7fa d2bd 879b f4bd 3f35 13be dd85 f8bd
00000060: 82ec 903b 8120 bbbc f0f9 76bc 4e04 fdb9
00000070: 015a 5fbd a227 e1bd f4d8 1abe 41f6 aabd
00000080: 31fd 453b 26ee ca3c 7306 4ebc a0e8 bebc
00000090: 95ea 17bd 193b 1ebd 5472 f0bc 6e2d bebb
000000a0: 7a90 343d e8b0 803c c9c0 993c c67c 903d
000000b0: 7cbb 523d f14d ba3b b3a8 5bbd a08e 3fbd
000000c0: 9ddd bb3d ee65 0ab9 fa84 983d f1dd 6b3d
000000d0: a220 8e3c ea3e 42bd d841 743c 2e4d 7ebc
000000e0: 42da 493c bc1e de3b f809 4d3d e040 60bb
000000f0: d1df 4bbd d024 10bc 35a3 82bd 718a 6ebd
00000100: dc32 2a3e 69e6 033e 8828 ca3d c110 243e
00000110: 1628 063e c123 883d 23b0 053e 98cc 193e
00000120: d115 093e 29da 693d e260 5b3d 3b7f 083e
00000130: 8434 bb3d b2ae 903c 2cf0 c93d 1de8 013e
00000140: 9573 253e f063 913d c7b1 8a3d c447 a43d
00000150: b69f b73d 7a79 9f3d 47b3 963d 27ca be3d
00000160: e6c9 0e3e d767 693d 54a8 9c3d f3a7 723d
00000170: e9a2 b13d 46b9 b33d be00 173d 3008 bc3d
00000180: 623a ed3d 33ae 8c3c e4ba ae3d 87ce 713d
00000190: b333 c93d 540d 9c3c fc23 b23d 1326 cb3d
000001a0: 7b2d 8e3d c74e d6bc 9e16 583d 5374 043d
000001b0: 9546 663d 9dec d0bb 9b09 433d d820 713d
000001c0: 6f18 41bd 8820 39bd d9d4 23bd dc79 b93c
000001d0: b9e3 573c 77e8 36bd ed40 cebc b331 6ebc
000001e0: 9077 9ebd f192 92bd aadf aebd 99f7 89bd
000001f0: d398 c4bd 2d5b c7bd fd79 a7bd 09b7 b5bd
00000200: c77d b43d fa55 de3d fcdd 5c3d 3024 f83d
00000210: 2c23 c63d 447a 343d 4fef 953d e247 bd3d
00000220: ee6a 133e d6d8 2b3d ba31 ec3d 0c75 043e
00000230: 2548 823d c81f c53c 6379 b03d 22c5 c73d
00000240: 283c f43d 5ec9 b83d 793e d33d 6ae9 f73d
00000250: b61e b93d 0789 873d 5daf b43d d926 593d
00000260: 5bcc 053e ba6c ca3d d847 f83d d8d9 d53d
00000270: 3190 ba3d e212 9d3d 1cfd ac3c 93e9 843d
00000280: 802c 393d 82cd 733d 7024 c03d e7e0 503d
00000290: 060e 973d d1a0 993d 1ff1 543d 1693 a03d
000002a0: 0eba 213d 5e32 773d 662f 263d d331 9e3d
000002b0: 8115 603d 6ff0 8d3d 4dda d03c a63f 623d
000002c0: a16c 103d 1176 bc3c 6910 2b3d 5cd9 ea3c
000002d0: 675d 3abb f7b0 42bc 8db3 a13c b0a4 db3b
000002e0: a7aa a939 f8e4 2bbd 16ee 18bd 5d7b 4ebc
000002f0: a8d8 8abc 52bc 9d3c a619 c93a f3ed 63bd
00000300: 7762 05be 6820 4bbe 61de 27be 1a2b 54be
00000310: 747e 6ebe b9aa 4cbe 8cc8 4ebe b2d9 5abe
00000320: d61b c9bd ea5e bbbd 0b2f d7bd 97db 44be
00000330: 2491 40be 6f6f 06be b101 2dbe 85eb 32be
00000340: f9d5 24be c7d3 0abe c5a2 2dbe 413e 47be
00000350: 3b9b 15be 6ceb 50be 65fc 6abe 6e83 50be
00000360: 73a9 a2bd b3fd 00be 7378 edbd 530e 37be
00000370: 16a8 28be 8fc7 74be 0d87 25be 0ce1 24be
00000380: c52a 68bd e04c 04be 7d6f 93bd d129 d5bd
00000390: b209 19be 643d 0fbe 590a 00be 144b 1ebe
000003a0: 993d ad3c 6b4e babc 6f8c 10bd 6bae b9bd
000003b0: d72b 8cbd e669 36bc 5d1d 5dbb 8e72 93bd
000003c0: dd4a 993a ae7d 78bc 4941 8fbd 3a41 c8bd
000003d0: a31e 3ebd ca70 ee3b 3bc6 0abd d7f9 b9bd
000003e0: f661 863c d538 18bd d1ca 02bb e7a7 61bd
000003f0: f1e7 1ebd e325 d3bd c502 55bc bbf1 d1bd

network_body.processors.0.conv_layers.0.bias f4 [16]
-0.03714065 0.07108403 0.06331877 -0.039389983 -0.07604398 -0.038231082 0.22455628 -0.0082571795
0.017515058 -0.036886968 -0.058415513 0.09011822 0.1580315 0.010537604 0.030271234 0.22931345
00000000: cb20 18bd 8194 913d 45ad 813d 6457 21bd
00000010: f2bc 9bbd 3298 1cbd 15f2 653e 1f49 07bc
00000020: bd7b 8f3c ca16 17bd 1b45 6fbd e78f b83d
00000030: 02d3 213e eaa5 2c3c 61fb f73c 25d1 6a3e

network_body.processors.0.conv_layers.2.weight f4 [32, 16, 4, 4]
-0.18088245 -0.026029699 0.083177626 0.26362008 -0.3066467 -0.13927943 0.0936083 0.39287007
-0.12490684 -0.039466843 -0.029088061 0.20981619 -0.16856058 -0.11184285 -0.022954153 0.12902743
-0.21712154 -0.06259197 -0.07992836 0.06039441 -0.28821167 -0.03551252 0.17711939 0.22625537
-0.18971395 -0.098515145 0.16465496 0.24572796 -0.13899054 -0.09042789 0.19552729 0.26911217
-0.19961561 0.060001906 0.04563486 0.24804388 -0.21825518 -0.041658435 0.103159 0.31869915
-0.20075294 -0.10330103 0.10212422 0.25356182 -0.09107242 -0.14195187 0.011341199 0.1606679
-0.21934833 -0.018211896 0.13089348 0.17817466 -0.21139492 -0.10490118 0.12547326 0.33039948
-0.15713683 -0.059142467 -0.0753405 0.1033773 -0.017312242 -0.09829967 -0.018964054 -0.004442789
-0.29403362 -0.06269357 0.11690147 0.30589557 -0.27696687 -0.17013891 0.12443557 0.33247516
-0.13549429 -0.063463405 0.03887404 0.13719654 -0.17441182 -0.13646322 -0.0557767 0.04837317
-0.1644218 0.01584585 0.06521772 0.23093554 -0.23986168 -0.15321179 0.11088458 0.38226467
-0.103236005 -0.057919953 0.037369147 0.18251811 -0.1520831 -0.118826196 -0.06149497 0.1513565
-0.18968792 0.019231632 0.12491841 0.20795536 -0.27185136 -0.063442886 0.12669024 0.38709387
-0.13270614 -0.031083908 0.024436595 0.2683047 -0.10626983 -0.0111924345 0.035030004 0.1292274
-0.20932949 -0.013620895 0.021098757 0.19742602 -0.28745213 -0.13305293 0.075235 0.38975555
-0.14474253 -0.0047512157 0.003916757 0.15283556 -0.113568075 -0.08569291 -0.0031526752 0.21417505
-0.041176185 -0.10553835 0.015987733 -0.04712094 -0.08999799 0.0705209 0.115328014 0.11907433
-0.079620674 -0.019558318 -0.024961293 0.08246487 -0.03767551 -0.052852936 -0.0034764046 -0.012007193
-0.17862004 -0.059089724 0.13337713 0.2173526 -0.302191 -0.121516995 0.09440054 0.3742323
-0.13693829 -0.09949821 0.050971195 0.1630359 -0.12074137 -0.044231225 -0.08893933 0.07749349
-0.103048146 -0.037337147 0.13386996 0.26567724 -0.24088094 -0.11519242 0.15979132 0.3590717
-0.0773443 -0.113537885 -0.027661534 0.15999135 -0.059995294 -0.116338 -0.07527513 0.09046857
-0.24429551 0.028990889 0.12131204 0.17102107 -0.2964447 -0.04862299 0.16190226 0.30386946
-0.27051085 -0.10090065 0.119666815 0.252943 -0.11956667 -4.2942404e-05 0.108676635 0.2250391
-0.21437457 -0.082317464 -0.03395293 0.06302437 -0.21638626 -0.08356564 0.111399755 0.22491659
-0.15528253 -0.12957196 0.012751289 0.16899395 -0.064175226 -0.07474685 -0.018788746 0.19570376
-0.26937997 -0.091681235 0.09059122 0.19436574 -0.22029161 -0.117883995 0.15510787 0.3053429
-0.10865082 -0.043710735 0.13753189 0.27591142 -0.15852396 -0.12203081 0.05335807 0.13352694
-0.18696247 0.054391704 0.08971911 0.2614317 -0.24429049 -0.052594125 0.04765666 0.23794839
-0.16434114 -0.093457386 -0.11117856 0.066605724 -0.02359553 -0.10923157 -0.10541971 0.032253742
-0.18238042 -0.027209843 -0.0015654607 0.21688409 -0.28450146 -0.09183979 0.21080187 0.46630394
-0.09461849 -0.047201443 0.03979372 0.20896295 -0.13465692 -0.060275987 -0.0038226857 0.20756732
00000000: 4039 39be 3c3c d5bc 0859 aa3d 36f9 863e
00000010: cc00 9dbe 449f 0ebe b5b5 bf3d 4426 c93e
00000020: 28cf ffbd fca7 21bd 164a eebc 0eda 563e
00000030: 259b 2cbe dd0d e5bd 590a bcbc c41f 043e
00000040: 1c55 5ebe 3830 80bd 7bb1 a3bd 2160 773d
00000050: 7b90 93be 9375 11bd c95e 353e 7daf 673e
00000060: 6044 42be 4fc2 c9bd 4f9b 283e 1ca0 7b3e
00000070: 8953 0ebe 4232 b9bd 4e38 483e 12c9 893e
00000080: 0968 4cbe 8fc4 753d 9eeb 3a3d 37ff 7d3e
00000090: 497e 5fbe 09a2 2abd 0745 d33d 892c a33e
000000a0: 2e92 4dbe 7e8f d3bd 8126 d13d dbd2 813e
000000b0: 2d84 babd d55b 11be 70d0 393c 2086 243e
000000c0: d99c 60be 1d31 95bc f108 063e 6b73 363e
000000d0: e977 58be 6ed6 d6bd 107c 003e 1f2a a93e
000000e0: 7ae8 20be 5f3f 72bd 1f4c 9abd 7ab7 d33d
000000f0: 67d2 8dbc 5651 c9bd 815a 9bbc d194 91bb
00000100: 938b 96be 7d65 80bd 0a6a ef3d 589e 9c3e
00000110: 9ace 8dbe e538 2ebe 13d8 fe3d 2f3a aa3e
00000120: 04bf 0abe 1af9 81bd 633a 1f3d 407d 0c3e
00000130: 0399 32be 04bd 0bbe 1c76 64bd f222 463d
00000140: 305e 28be 28cf 813c de90 853d 5e7a 6c3e
00000150: 4d9e 75be 8de3 1cbe 7417 e33d 32b8 c33e
00000160: 666d d3bd 793d 6dbd 6410 193d 07e6 3a3e
00000170: acbb 1bbe 265b f3bd 26e2 7bbd 33fd 1a3e
00000180: 8d3d 42be a88b 9d3c 39d5 ff3d 40f2 543e
00000190: 1a30 8bbe 58ee 81bd 16bb 013e 2b31 c63e
000001a0: 1ee4 07be aea3 febc 412f c83c 3c5f 893e
000001b0: ffa3 d9bd 7960 37bc 9f7b 0f3d 3054 043e
000001c0: 785a 56be 2d2a 5fbc 4dd7 ac3c 0c2a 4a3e
000001d0: ed2c 93be 073f 08be cf14 9a3d 0a8e c73e
000001e0: 6337 14be 16b0 9bbb 2458 803b ed80 1c3e
000001f0: 6196 e8bd c47f afbd 1d9d 4ebb b450 5b3e
00000200: 5ca8 28bd 7e24 d8bd b5f8 823c e301 41bd
00000210: de50 b8bd 436d 903d 1831 ec3d 3edd f33d
00000220: 2a10 a3bd c438 a0bc a07b ccbc 57e3 a83d
00000230: a351 1abd 527c 58bd 64d4 63bb d1b9 44bc
00000240: 2ce8 36be 1108 72bd 0494 083e ae91 5e3e
00000250: c7b8 9abe e7dd f8bd 1255 c13d 609b bf3e
00000260: 8d39 0cbe b8c5 cbbd 2cc7 503d e2f2 263e
00000270: 4047 f7bd cd2b 35bd d325 b6bd e8b4 9e3d
00000280: e80a d3bd d6ee 18bd 3515 093e d906 883e
00000290: 7ea9 76be 01ea ebbd 56a0 233e 3fd8 b73e
000002a0: b066 9ebd 8d86 e8bd 719a e2bc c6d4 233e
000002b0: a0bd 75bd 9e42 eebd d929 9abd 9647 b93d
000002c0: 9a28 7abe 4d7e ed3c 7272 f83d 2620 2f3e
000002d0: 9ac7 97be e628 47bd b5c9 253e c794 9b3e
000002e0: 6680 8abe 00a5 cebd e013 f53d bf81 813e
000002f0: 5fdf f4bd 0e1d 34b8 db91 de3d a670 663e
00000300: 0285 5bbe 0f96 a8bd 3a12 0bbd ec12 813d
00000310: 5c94 5dbe 7624 abbd 8e25 e43d 8950 663e
00000320: 6202 1fbe 83ae 04be c8ea 503c c00c 2d3e
00000330: 4d6e 83bd e014 99bd dbea 99bc 9166 483e
00000340: 2cec 89be 5fc3 bbbd e487 b93d d007 473e
00000350: 2094 61be 2a6d f1bd 99d4 1e3e e855 9c3e
00000360: 5284 debd 070a 33bd 29d5 0c3e 4344 8d3e
00000370: 1b54 22be 4aeb f9bd fe8d 5a3d 49bb 083e
00000380: 1773 3fbe d6c9 5e3d a7be b73d 60da 853e
00000390: 4927 7abe f06c 57bd a133 433d bea8 733e
000003a0: 0b49 28be 9666 bfbd 96b1 e3bd 9568 883d
000003b0: 6a4b c1bc cdb4 dfbd 4ae6 d7bd 801c 043d
000003c0: efc1 3abe 2de7 debc 2530 cdba dd16 5e3e
000003d0: 2daa 91be 8016 bcbd 72dc 573e 64bf ee3e
000003e0: 57c7 c1bd 4d56 41bd bdfe 223d 62fa 553e
000003f0: 81e3 09be f4e3 76bd 0686 7abb 878c 543e

network_body.processors.0.conv_layers.2.bias f4 [32]
0.10468847 -0.13500537 0.14400302 0.14906001 0.11467198 0.02033428 -0.21002032 0.0011773505
-0.0877996 -0.1432814 -0.05166636 0.02845589 -0.05479287 0.21653993 -0.1778625 -0.22599237
-0.18966503 -0.1071737 -0.14417352 -0.06245868 0.14534548 -0.255001 -0.083904736 0.0016938952
-0.039928727 0.07615743 -0.17185394 -0.14108142 0.005378085 -0.021314804 -0.117894396 -0.07146302
00000000: e966 d63d d93e 0abe 8775 133e 30a3 183e
00000010: 25d9 ea3d 1394 a63c 910f 57be 5451 9a3a
00000020: 47d0 b3bd 5cb8 12be 1ba0 53bd 541c e93c
00000030: 7d6e 60bd a5bc 5d3e 9621 36be 8b6a 67be
00000040: 8d37 42be e37d dbbd 39a2 13be acd4 7fbd
00000050: 72d5 143e 7e8f 82be 3fd6 abbd b105 de3a
00000060: 4e8c 23bd 6df8 9b3d 7bfa 2fbe a677 10be
00000070: a63a b03b 629c aebc 9e72 f1bd 345b 92bd

network_body.processors.0.dense.0.weight f4 [30, 512]
-0.19960064 -0.062594764 -0.028138293 -0.053227436 -0.21715294 -0.010036231 -0.05310712 0.15023549
0.06364583 -0.116585225 -0.1376734 0.24034047 -0.076788105 0.010025243 -0.034990482 0.020035386
-0.016386572 0.012885363 0.011747952 0.0012505791 0.13900462 0.12995277 -0.031027872 0.025199039
-0.0060377973 0.022634596 -0.12687656 -0.19037586 0.19196907 0.07929959 -0.12118509 0.06009486
0.0898051 -0.026795328 0.02805049 0.029729307 0.08530686 0.011851988 0.01891554 -0.002731824
0.15302967 0.2210167 -0.117919564 -0.24903761 -0.048140828 -0.012816493 -0.22419609 -0.11855293
-0.17955458 -0.035030067 -0.16669217 -0.070027746 0.0707776 0.004270624 -0.096338466 0.08803768
-0.10938365 -0.055382464 -0.09722076 0.12042207 0.07975638 0.010671392 0.003945559 -0.055907167
-0.015757076 -0.23216143 -0.06301966 0.055084024 0.10837593 -0.071607485 -0.012451392 0.13196273
0.092569105 -0.0026231734 0.017012846 -0.018484203 -0.15638638 -0.12760332 -0.10230308 -0.03322299
0.03750301 -0.050473534 -0.12523371 0.006727424 0.07695747 -0.17393279 -0.08565563 0.054827876
0.044787835 -0.056568783 -0.045863397 -0.035931487 -0.05459992 0.11102958 -0.04170678 -0.006912319
-0.06513524 0.1356883 0.078286625 0.0026382604 -0.03940636 -0.017995818 -0.059203796 -0.06733232
-0.081842124 -0.30322823 -0.20627524 -0.20500256 0.22193116 0.28124112 0.10255134 0.03279253
-0.0612921 -0.019244568 0.06151752 0.21697439 -0.06966667 0.06458496 -0.00856409 -0.06527467
-0.25325826 -0.04812153 -0.09297299 -0.0841999 -0.112959035 -0.18462478 0.16152321 0.13260882
-0.07164746 -0.00047996495 -0.05393894 0.0065038684 -0.07605737 -0.10631417 0.037474778 -0.07148411
0.025250917 0.10908674 0.028598452 -0.13257311 -0.023299921 -0.13584523 -0.15276076 0.03748628
-0.12222418 -0.2640401 0.049754348 0.03690148 -0.21840942 -0.25821584 -0.19961165 -0.06875367
-0.07055509 -0.04744844 0.06380918 0.06754283 0.008147746 -0.019235792 -0.09475754 -0.101921275
-0.17918177 -0.07078287 -0.024783708 0.07932769 -0.091520585 0.013678064 -0.07594279 0.023780592
-0.038561974 -0.059310984 -0.0040438105 0.10086555 -0.013625112 0.071215115 0.09656092 0.12908247
-0.11470928 0.0019987114 -0.13380136 -0.111285195 0.097764365 -0.04859508 0.071761504 -0.17666075
0.0110182855 -0.083608285 -0.11678085 -0.20648918 -0.00063504453 -0.004750204 0.15933254 0.040146172
-0.044950113 -0.0282735 -0.08004652 0.045637134 0.074041836 -0.04595864 -0.059410296 0.0770959
-0.042956073 -0.016190749 0.055580538 0.21247871 0.038303826 0.016274692 0.03717731 0.034801465
0.098119706 0.060849976 -0.010110125 0.10511244 0.27395278 0.36177135 0.17446022 0.3111252
0.16323936 0.17340507 0.064943224 -0.07870443 0.037894316 -0.22052422 -0.11611309 -0.18222928
0.01793467 -0.048259974 -0.108930275 -0.04996394 -0.017112982 0.07412564 0.05679172 0.03724865
0.03149065 -0.01803461 -0.21116453 -0.030178968 0.04377972 -0.103306696 -0.041884508 -0.15862083
-0.050983176 -0.21391414 -0.0044948137 0.057376858 0.06571147 0.06145112 0.119094275 0.118129574
-0.17195018 -0.15897249 -0.17421713 -0.15448788 0.16451393 -0.009656378 0.011779367 0.09155234
00000000: 1c64 4cbe af31 80bd 4782 e6bc 0305 5abd
00000010: 575d 5ebe 016f 24bc da86 59bd 55d7 193e
00000020: bf58 823d 3cc4 eebd 41fa 0cbe d01b 763e
00000030: 1543 9dbd eb40 243c 2e52 0fbd 4021 a43c
00000040: 223d 86bc 211d 533c 7b7a 403c 79ea a33a
00000050: 3a57 0e3e 5712 053e 2a2e febc 376e ce3c
00000060: b7d8 c5bb 306c b93c eeeb 01be e4f1 42be
00000070: 8a93 443e d367 a23d e32f f8bd 0726 763d
00000080: bceb b73d e081 dbbc 24ca e53c e08a f33c
00000090: 5db5 ae3d d72e 423c c3f4 9a3c 6708 33bb
000000a0: cfb3 1c3e 3452 623e d07f f1bd b703 7fbe
000000b0: 512f 45bd 45fc 51bc a993 65be e1cb f2bd
000000c0: 28dd 37be b07b 0fbd 5ab1 2abe b56a 8fbd
000000d0: d9f3 903d 97f0 8b3b 1a4d c5bd 194d b43d
000000e0: 8904 e0bd b9d8 62bd ae1b c7bd d99f f63d
000000f0: 5057 a33d 10d7 2e3c bf49 813b eafe 64bd
00000100: fc14 81bc babb 6dbe 7410 81bd c99f 613d
00000110: 33f4 dd3d f2a6 92bd ec00 4cbc 3d21 073e
00000120: df94 bd3d 8ce9 2bbb 865e 8b3c 2f6c 97bc
00000130: c023 20be 72aa 02be 4784 d1bd d414 08bd
00000140: c29c 193d 56bd 4ebd 443d 00be b971 dc3b
00000150: e19b 9d3d 701b 32be 386c afbd 3293 603d
00000160: 7373 373d abb4 67bd 42db 3bbd e52c 13bd
00000170: 2aa4 5fbd 7a63 e33d bbd4 2abd bc80 e2bb
00000180: a065 85bd e0f1 0a3e bd54 a03d aae6 2c3b
00000190: 9068 21bd f76b 93bc ae7f 72bd 87e5 89bd
000001a0: d89c a7bd bb40 9bbe d139 53be 31ec 51be
000001b0: ec41 633e d6fe 8f3e 7006 d23d 7651 063d
000001c0: 6d0d 7bbd c9a6 9dbc ccf9 7b3d 892e 5e3e
000001d0: 66ad 8ebd 1f45 843d 6650 0cbc baae 85bd
000001e0: 11ab 81be 151b 45bd 9f68 bebd ff70 acbd
000001f0: 1157 e7bd 470e 3dbe 5766 253e 9bca 073e
00000200: e7bb 92bd cea3 fbb9 14ef 5cbd 671e d53b
00000210: f7c3 9bbd 3ebb d9bd 277f 193d 4366 92bd
00000220: 03db ce3c de68 df3d 4d47 ea3c 3fc1 07be
00000230: 7adf bebc 031b 0bbe 516d 1cbe 378b 193d
00000240: ac50 fabd 4430 87be 37cb 4b3d 0226 173d
00000250: b8a6 5fbe de34 84be ff66 4cbe b9ce 8cbd
00000260: 307f 90bd 4c59 42bd 63ae 823d e553 8a3d
00000270: 207e 053c 6194 9dbc 3e10 c2bd 1abc d0bd
00000280: 6d7b 37be 9cf6 90bd 3407 cbbc 8e76 a23d
00000290: 256f bbbd f519 603c e587 9bbd 84cf c23c
000002a0: 29f3 1dbd 13f0 72bd f181 84bb 9992 ce3d
000002b0: dd3b 5fbc 3bd9 913d bbc1 c53d 322e 043e
000002c0: b3ec eabd d0fc 023b 3903 09be 7ee9 e3bd
000002d0: af38 c83d a20b 47bd b2f7 923d 8ee6 34be
000002e0: 0a86 343c d23a abbd cc2a efbd e671 53be
000002f0: 1e79 26ba 99a7 9bbb 1228 233e 5070 243d
00000300: 9c1d 38bd d49d e7bc 6eef a3bd 01ee 3a3d
00000310: 3fa3 973d 203f 3cbd 3658 73bd 75e4 9d3d
00000320: b5f2 2fbd 76a2 84bc 6ba8 633d 0594 593e
00000330: 79e4 1c3d 8152 853c 3c47 183d fb8b 0e3d
00000340: fcf2 c83d d33d 793d f0a4 25bc 3145 d73d
00000350: 8a43 8c3e 183a b93e b3a5 323e cd4b 9f3e
00000360: 3828 273e 1991 313e f400 853d ca2f a1bd
00000370: 1237 1b3d 1ad1 61be b3cc edbd 509a 3abe
00000380: bbeb 923c 40ac 45bd d616 dfbd fda6 4cbd
00000390: 8630 8cbc 2fcf 973d 6f9e 683d 0a92 183d
000003a0: 57fc 003d 52bd 93bc 843b 58be e239 f7bc
000003b0: 5d52 333d 7692 d3bd 178f 2bbd 806d 22be
000003c0: bcd3 50bd 4f0c 5bbe 3b49 93bb ff03 6b3d
000003d0: bc93 863d 2bb4 7b3d b3e7 f33d ebed f13d
000003e0: b513 30be afc9 22be fa65 32be 1232 1ebe
000003f0: 5776 283e c935 1ebc 3ffe 403c cb7f bb3d

network_body.processors.0.dense.0.bias f4 [30]
0.008261646 -0.18292972 0.13600369 -0.011793413 -0.08260331 0.22442676 -0.08106959 0.17181644
-0.040618427 -0.051146157 -0.124944694 0.13545059 -0.0017086326 0.05984614 0.17274341 0.07726975
-0.19271933 0.0110192085 -0.17716569 -0.096295334 0.19435428 0.050194092 -0.09233376 0.08313069
-0.1354871 -0.062563 0.16838548 0.06718501 -0.013436365 -0.14775506
00000000: db5b 073c ee51 3bbe 8d44 0b3e 2939 41bc
00000010: ed2b a9bd 21d0 653e d007 a6bd a6f0 2f3e
00000020: 825f 26bd a27e 51bd 01e3 ffbd 8fb3 0a3e
00000030: 32f4 dfba 3a21 753d a6e3 303e 9a3f 9e3d
00000040: 3758 45be e989 343c ec6a 35be 7d36 c5bd
00000050: cf04 473e 5298 4d3d 7b19 bdbd 6c40 aa3d
00000060: 21bd 0abe 0821 80bd 3e6d 2c3e 4b98 893d
00000070: 3324 5cbc 1a4d 17be

network_body._body_endoder.seq_layers.0.weight f4 [30, 33]
-0.13600959 -0.025986934 -0.06852509 0.07324626 0.005692934 0.05459511 0.038224176 0.27004078
-0.0948573 -0.07968002 -0.20814224 0.16387483 0.258926 0.078675784 0.00522452 -0.33032525
-0.22312605 0.09982318 0.059800316 0.2717724 0.035004936 -0.023515446 -0.06105667 -0.009771363
-0.26415408 0.010400289 -0.1382256 -0.19565584 0.27559218 0.21766149 0.27706572 1.0544882
0.12331538 0.03399938 0.12543862 -0.31614882 -0.18028164 -0.08656346 0.1874922 0.058933936
-0.539192 -0.085338056 0.37531775 0.062518746 0.17636518 -0.21802728 -0.053419735 -0.38388804
0.18532911 0.10322924 0.13003501 -0.15972713 0.099783696 0.08042733 -0.44888365 -0.098460965
0.09529757 -0.13594472 -0.027119925 0.055995494 -0.19570765 0.11121146 0.10725693 -0.104120016
-1.4405662 -0.23202783 -0.012474676 0.23307806 -0.07399696 0.1289469 -0.22779 -0.6715441
-0.2749104 0.020768488 -0.4483946 -0.14775997 -0.30882224 0.20350021 -0.21646468 0.23735732
-0.03434499 -0.18632343 -0.09957368 0.25402528 0.035068106 -0.23980986 0.16039787 -0.096565224
-0.124555506 -0.1727608 0.0072482177 -0.48466042 -0.026066218 0.47702083 -0.5332422 0.26927042
-0.07502659 1.0970539 0.07388463 0.29612723 -0.020273618 -0.24980381 -0.106408 -0.11905419
0.19210815 -0.12440266 -0.12574968 -0.031273667 0.04982322 -0.05881783 -0.06652429 0.22144297
-0.18094116 -0.28607312 0.031929716 -0.2251548 -0.22901669 -0.35550648 -0.046815187 0.030621313
-0.22033864 -0.09010054 -0.06781468 0.053187724 0.108004235 -0.14290607 0.17197306 0.15899533
-0.04915006 -0.06661974 -1.7477839 -0.15850912 0.06532908 -0.046529938 0.27652606 0.19296949
-0.06429793 0.015730606 -0.09509477 0.049720567 0.044841234 -0.18824127 -0.15102811 -0.002012404
0.14374405 -0.083164684 0.29219362 -0.27930596 -0.07390617 -0.35098568 0.10548233 0.3300227
0.17261428 0.18031284 -0.29092836 0.03295588 -0.0122607 0.03557392 -0.013077058 0.16251566
0.24527255 -0.0057019237 -0.15381533 -1.5177732 -0.1334477 0.1362706 -0.13083078 -0.1490733
0.19301993 -0.17301078 0.4191662 -0.061221164 0.056033947 0.34625822 -0.17764598 0.061681915
-0.025824117 -0.022979783 -0.26525092 -0.26358917 -0.05126591 -0.101590104 -0.2560665 -0.03905269
0.19223718 0.056969162 -0.41783723 0.0005265354 -0.08818613 -0.0699349 -0.01456082 -0.16822974
-0.15193345 -0.42438057 -0.0999483 0.10249802 -1.2635655 -0.16056176 0.08493732 -0.039985284
-0.2531652 0.1497818 -0.060957573 0.119259 -0.38523918 0.09558568 -0.15015452 0.05038694
0.051860504 0.13854134 -0.041159626 0.07323569 0.1699911 -0.022386026 -0.10297305 -0.30446634
0.20491795 -0.29230854 -0.2064111 0.030648835 -0.017288752 0.096155986 -0.15912203 -0.10793235
0.079853445 0.29671302 0.17894213 -0.06914732 -0.25861856 -1.4133475 0.032648496 -0.13309583
-0.15719825 -0.08465465 -0.09410063 -0.50950885 -0.86937535 -0.5239135 -0.569839 -0.24955465
-0.58257717 -0.041543134 0.3835506 -0.36351192 0.114503376 0.0020563065 -0.18136483 -0.262431
0.12025572 0.0017978359 -0.14669181 0.29791012 -0.2191562 -0.033514842 0.0140241925 0.05992949
00000000: 1946 0bbe 8de2 d4bc e256 8cbd 2302 963d
00000010: cb8b ba3b 1f9f 5f3d f490 1c3d c942 8a3e
00000020: 8b44 c2bd 472f a3bd 3d23 55be cece 273e
00000030: f391 843e c520 a13d 7332 ab3b 6420 a9be
00000040: 287b 64be 1870 cc3d 2df1 743d c125 8b3e
00000050: 5661 0f3d 77a3 c0bc 8f16 7abd 1118 20bc
00000060: 343f 87be f965 2a3c 038b 0dbe 015a 48be
00000070: 6b1a 8d3e a7e2 5e3e 8fdb 8d3e 78f9 863f
00000080: c68c fc3d ef42 0b3d fb72 003e 42de a1be
00000090: c09b 38be 2f48 b1bd f5fd 3f3e b664 713d
000000a0: 7d08 0abf b8c5 aebd a629 c03e d409 803d
000000b0: 1399 343e 8b42 5fbe a7ce 5abd f98c c4be
000000c0: eac6 3d3e da69 d33d e627 053e 828f 23be
000000d0: 655b cc3d 16b7 a43d 14d4 e5be e7a5 c9bd
000000e0: 5f2b c33d 1835 0bbe 9b2a debc 885b 653d
000000f0: 9667 48be d5c2 e33d 85a9 db3d e03c d5bd
00000100: 7964 b8bf b498 6dbe 9562 4cbc 04ac 6e3e
00000110: b88b 97bd a80a 043e c841 69be 50ea 2bbf
00000120: 0ec1 8cbe ad22 aa3c fa93 e5be 644e 17be
00000130: f31d 9ebe 5c62 503e eba8 5dbe cc0d 733e
00000140: 55ad 0cbd 92cb 3ebe 49ed cbbd 9a0f 823e
00000150: 93a3 0f3d b790 75be 573f 243e fdc3 c5bd
00000160: f516 ffbd 35e8 30be 7582 ed3b 6925 f8be
00000170: d288 d5bc 133c f43e 9082 08bf d0dd 893e
00000180: 8aa7 99bd 436c 8c3f d350 973d fd9d 973e
00000190: dc14 a6bc 92cc 7fbe 70ec d9bd afd2 f3bd
000001a0: 00b8 443e d2c6 febd 86c4 00be d118 00bd
000001b0: 6f13 4c3d f7ea 70bd e33d 88bd f2c1 623e
000001c0: a448 39be 2d78 92be bcc8 023d fb8e 66be
000001d0: 5a83 6abe f204 b6be 48c1 3fbd 8cd9 fa3c
000001e0: 74a0 61be a286 b8bd 6ce2 8abd 5fdb 593d
000001f0: 5331 dd3d f855 12be b519 303e accf 223e
00000200: 9351 49bd ee6f 88bd 62b7 dfbf 3750 22be
00000210: 41cb 853d 2d96 3ebd d394 8d3e cb99 453e
00000220: a2ae 83bd 79dd 803c 0cc1 c2bd cba7 4b3d
00000230: 71ab 373d 52c2 40be 1da7 1abe 89e2 03bb
00000240: a431 133e 3f52 aabd 679a 953e 3101 8fbe
00000250: 1e5c 97bd 65b4 b3be 1f07 d83d bcf8 a83e
00000260: ccc1 303e eea3 383e 90f4 94be bffc 063d
00000270: 1ae1 48bc f5b5 113d 2841 56bc 816a 263e
00000280: ba28 7b3e 34d7 babb c481 1dbe 6446 c2bf
00000290: 84a6 08be 858a 0b3e 81f8 05be aca6 18be
000002a0: 04a7 453e bd29 31be f49c d63e 0bc3 7abd
000002b0: da83 653d c248 b13e d4e8 35be 2da6 7c3d
000002c0: 198d d3bc 1940 bcbc f8ce 87be 29f5 86be
000002d0: 34fc 51bd 790e d0bd 261b 83be b7f5 1fbd
000002e0: d3d9 443e 7f58 693d c3ee d5be 3107 0a3a
000002f0: ee9a b4bd 073a 8fbd 8190 6ebc 6b44 2cbe
00000300: 7194 1bbe 6948 d9be b2b1 ccbd 7bea d13d
00000310: 84bc a1bf 4d6a 24be 9ef3 ad3d 9cc7 23bd
00000320: de9e 81be 6660 193e a6ae 79bd 103e f43d
00000330: 123e c5be 6dc2 c33d 1bc2 19be 8962 4e3d
00000340: ae6b 543d c8dd 0d3e ff96 28bd 98fc 953d
00000350: 2612 2e3e e662 b7bc 89e3 d2bd 03e3 9bbe
00000360: 03d6 513e 77a9 95be 6e5d 53be 4413 fb3c
00000370: 24a1 8dbc 6eed c43d e3f0 22be a30b ddbd
00000380: 348a a33d c5ea 973e 9b3c 373e 1c9d 8dbd
00000390: a769 84be 92e8 b4bf 6eba 053d 464a 08be
000003a0: 94f8 20be 6b5f adbd d5b7 c0bd 2c6f 02bf
000003b0: 628f 5ebf 321f 06bf f8e0 11bf 418b 7fbe
000003c0: c723 15bf 2229 2abd bf60 c43e 3c1e babe
000003d0: bf80 ea3d 19c3 063b b4b7 39be 5b5d 86be
000003e0: a248 f63d 5da5 eb3a 6136 16be ad87 983e
000003f0: 7c6a 60be dc46 09bd bac5 653c a078 753d

network_body._body_endoder.seq_layers.0.bias f4 [30]
0.15985076 0.016884997 0.051635325 0.0653026 0.006975493 -0.139964 -0.064675614 0.18703476
0.01251397 -0.045692336 -0.07497686 0.03659954 0.20329969 0.24023876 -0.060942873 0.08001759
0.2659914 -0.0044015734 -0.07415488 0.13328557 0.01965708 0.04094789 0.10143397 -0.022144286
-0.06445657 -0.009720741 0.14372851 0.17912796 0.089086086 0.19392556
00000000: ebaf 233e 6852 8a3c 907f 533d 5fbd 853d
00000010: ad92 e43b b952 0fbe a674 84bd 0a86 3f3e
00000020: 6507 4d3c e327 3bbd 788d 99bd 66e9 153d
00000030: cb2d 503e 2601 763e 3c9f 79bd 43e0 a33d
00000040: 0630 883e 133b 90bb 84de 97bd 037c 083e
00000050: e207 a13c fab8 273d 9dbc cf3d ef67 b5bc
00000060: ce01 84bd be43 1fbc 912d 133e 526d 373e
00000070: c472 b63d 6c94 463e

action_model._continuous_distribution.log_sigma f4 [1, 2]
-0.89830464 -0.49625608
00000000: 4bf7 65bf 4715 febe

action_model._continuous_distribution.mu.weight f4 [2, 30]
-0.10121425 0.13963868 -0.33106473 -0.03632375 0.04755594 -0.006885211 0.034235213 -0.39146104
0.23653865 0.06429447 0.23074237 -0.108389385 -0.09567659 -0.3411442 0.1491145 0.24068809
-0.43385002 -0.1769156 -0.10976048 0.021774545 -0.031427916 0.09916639 0.16651498 0.40583786
0.13748258 0.38894054 -0.0211516 -0.09810465 -0.14917739 -0.084709845 0.4001816 -0.48004523
0.25482494 -0.84649396 -0.6852013 -0.3709724 -0.55408204 -0.12977877 0.51753384 -0.4993624
0.043248665 -0.40120247 0.498306 0.46967947 -0.5476283 0.45668113 0.3890518 0.18417765
-0.46685737 0.4546069 -0.44717982 -0.5214508 0.26333788 0.06608506 -0.6366714 0.21970224
0.37444457 0.5362687 -0.50445366 0.43163386
00000000: 6b49 cfbd 71fd 0e3e 5181 a9be 36c8 14bd
00000010: 04ca 423d 569d e1bb 393a 0c3d 956d c8be
00000020: 3037 723e d2ac 833d ba47 6c3e 41fb ddbd
00000030: 17f2 c3bd 74aa aebe 79b1 183e f076 763e
00000040: 9721 debe 5d29 35be 1aca e0bd 8860 b23c
00000050: 8fba 00bd c017 cb3d e782 2a3e fbc9 cf3e
00000060: 3cc8 0c3e 3723 c73e 1f46 adbc 17eb c8bd
00000070: f5c1 18be 5b7c adbd 9ae4 cc3e 7dc8 f5be
00000080: 6a78 823e d4b3 58bf 5a69 2fbf 18f0 bdbe
00000090: 52d8 0dbf bae4 04be 197d 043f 6eac ffbe
000000a0: 8325 313d 696a cdbe f721 ff3e d479 f03e
000000b0: 5e31 0cbf 1cd2 e93e cc31 c73e 1199 3c3e
000000c0: ee07 efbe 3cc2 e83e c1f4 e4be cd7d 05bf
000000d0: 39d4 863e 9b57 873d e6fc 22bf a0f9 603e
000000e0: 33b7 bf3e e848 093f e023 01bf 1dff dc3e

action_model._continuous_distribution.mu.bias f4 [2]
-0.13360962 0.14043096
00000000: f6d0 08be 22cd 0f3e
