Assets/ML-Agents/Training Files/results/9roads_cameraSensor_ppo_vehiclesMasked_1layer_64_256/VehicleAgent/VehicleAgent-13764035.onnx (onnx, 139655 bytes, 11 tensors)

network_body.observation_encoder.processors.0.conv_layers.0.weight f4 [16, 9, 8, 8]
-0.058695212 -0.15120913 -0.12213888 -0.16064773 -0.110240415 -0.19164893 -0.1631232 -0.09560075
-0.030694103 -0.08054595 -0.08521396 -0.11734021 -0.16781838 -0.14066684 -0.1882133 -0.14610553
-0.022056831 -0.08133059 -0.090638965 -0.029606381 -0.108318284 -0.12187384 -0.14650694 -0.11995303
0.0052941907 -0.026054429 -0.015786791 0.0019723864 -0.05818336 -0.1212644 -0.15637815 -0.08231222
-0.0060567865 0.01309879 -0.023168828 -0.029647365 -0.048990306 -0.057734277 -0.04454088 -0.013535042
0.050390374 0.018362332 0.020042628 0.07148032 0.051080015 -0.0010234698 -0.059477165 -0.05011903
0.0952245 0.00528617 0.07436093 0.058896672 0.015249941 -0.048973758 0.011426783 -0.013714608
0.013631437 0.004693958 0.048062466 -0.00458841 -0.053647418 -0.019035708 -0.07212012 -0.0620238
0.16877146 0.13035099 0.09934821 0.16251987 0.1318088 0.06502491 0.1302826 0.15251571
0.13513045 0.056423757 0.054619092 0.13444163 0.08966337 0.013908251 0.0960496 0.1278136
0.16128297 0.07254637 0.06706462 0.078922614 0.085275225 0.07527808 0.07138662 0.09352704
0.14048827 0.05434925 0.0750904 0.060100544 0.083809964 0.0792338 0.032450616 0.09223773
0.108315855 0.006564956 0.074947886 0.052239727 0.08853106 0.0033019953 0.07467892 0.093308076
0.07046951 -0.028230231 0.04941127 0.029479057 0.052409068 -0.015231966 0.039501872 0.054437276
-0.046302613 -0.043799166 -0.041486077 0.021924403 0.010321986 -0.04778833 -0.028637644 -0.013625998
-0.078501225 -0.0752702 -0.08824657 -0.0689953 -0.099875934 -0.10540466 -0.08838677 -0.09106265
0.091672696 0.112721 0.0578694 0.12480202 0.1000255 0.04722152 0.07704212 0.09603844
0.14729562 0.044862743 0.11947977 0.13334942 0.06644082 0.02623401 0.089194275 0.10196687
0.12152872 0.094740726 0.10705796 0.123193495 0.091711015 0.06930568 0.09128057 0.05630753
0.13362297 0.10128793 0.1243886 0.10864863 0.09313982 0.07694866 0.023463156 0.06899851
0.045237146 0.059139833 0.093082406 0.052594177 0.0739203 0.07330454 0.051292166 0.08078034
0.044361547 0.064054154 0.04413631 0.08051422 0.057719316 0.070252374 0.026961839 0.05736581
0.038302653 0.027798845 0.045137487 0.031114532 -0.0013110078 -0.008959807 0.022130162 0.01011132
0.0025044582 -0.039848365 -0.034251202 -0.008832157 -0.015119743 0.019821063 0.0032889245 -0.051922604
-0.13287635 -0.20231842 -0.16677475 -0.2108276 -0.23669231 -0.20288756 -0.20419836 -0.21908541
-0.0992049 -0.091304734 -0.10516422 -0.19371463 -0.1906257 -0.1320866 -0.17065193 -0.17884572
-0.15529373 -0.13362609 -0.16524886 -0.18857647 -0.14241815 -0.20311472 -0.22614308 -0.20081986
-0.0766555 -0.12816076 -0.11427166 -0.17865035 -0.16521578 -0.24417534 -0.16403952 -0.16230832
-0.054219235 -0.13066977 -0.07244186 -0.100254245 -0.14574888 -0.13867113 -0.1263734 -0.15394957
0.021803504 -0.022953268 -0.03741471 -0.093690895 -0.06946067 -0.011909561 -0.006543675 -0.079254635
0.0027540945 -0.016467974 -0.07114896 -0.09336171 -0.045632295 0.002970022 -0.037426878 -0.09043179
0.018593235 -0.036094565 -0.0025042193 -0.053777587 -0.03756569 -0.10844839 -0.017715577 -0.106957205
00000000: 646a 70bd 91d6 1abe f323 fabd d780 24be
00000010: bac5 e1bd 9e3f 44be c509 27be 53ca c3bd
00000020: 3372 fbbc 46f5 a4bd a884 aebd 1050 f0bd
00000030: 95d8 2bbe f80a 10be fdba 40be b09c 15be
00000040: 87b0 b4bc a790 a6bd eca0 b9bd 1589 f2bc
00000050: fad5 ddbd fe98 f9bd ea05 16be efa9 f5bd
00000060: e47a ad3b 1970 d5bc 4d53 81bc 2743 013b
00000070: ad51 6ebd 7859 f8bd 9821 20be 4f93 a8bd
00000080: 0278 c6bb 4f9c 563c 8ecc bdbc 08df f2bc
00000090: 0faa 48bd c77a 6cbd 7f70 36bd 15c2 5dbc
000000a0: 2366 4e3d 9a6c 963c 7030 a43c 4664 923d
000000b0: 4739 513d f325 86ba 549e 73bd 9d49 4dbd
000000c0: 1005 c33d 9c37 ad3b 8b4a 983d a33d 713d
000000d0: e3da 793c b598 48bd 6737 3b3c 3cb3 60bc
000000e0: 6456 5f3c c6cf 993b 26dd 443d 5f5a 96bb
000000f0: 65bd 5bbd c6f0 9bbc b7b3 93bd ab0c 7ebd
00000100: 6dd2 2c3e bb7a 053e 1377 cb3d 9c6b 263e
00000110: e3f8 063e c82b 853d cd68 053e 142d 1c3e
00000120: a35f 0a3e 991c 673d 45b8 5f3d 11ab 093e
00000130: 6ea1 b73d 6fdf 633c a7b5 c43d 91e1 023e
00000140: 5d27 253e 3193 943d 2d59 893d 2ea2 a13d
00000150: c7a4 ae3d 652b 9a3d 2633 923d 1b8b bf3d
00000160: 28dc 0f3e 529d 5e3d ffc8 993d fd2b 763d
00000170: 8fa4 ab3d 5545 a23d f0ea 043d 23e7 bc3d
00000180: b4d4 dd3d d81e d73b 477e 993d 53f9 553d
00000190: c64f b53d 4a66 583b 43f1 983d 4e18 bf3d
000001a0: 5252 903d 1643 e7bc 7963 4a3d 107e f13c
000001b0: e4aa 563d 7f8f 79bc b7cc 213d 9ff9 5e3d
000001c0: cfa7 3dbd c166 33bd 4eed 29bd ce9a b33c
000001d0: 8c1d 293c b2bd 43bd 7e99 eabc 943f 5fbc
000001e0: 40c5 a0bd 4327 9abd 9eba b4bd 684d 8dbd
000001f0: c18b ccbd 66de d7bd 1f04 b5bd 0e7f babd
00000200: e5be bb3d 45da e63d 7708 6d3d 3498 ff3d
00000210: 2bda cc3d 5a6b 413d 42c8 9d3d cdaf c43d
00000220: aad4 163e ffc1 373d cfb1 f43d c08c 083e
00000230: 2012 883d b5e8 d63c 7dab b63d 02d4 d03d
00000240: 0de4 f83d 6d07 c23d 3441 db3d df4c fc3d
00000250: fcd2 bb3d 23f0 8d3d 4ff1 ba3d b9a2 663d
00000260: 76d4 083e 0c70 cf3d 73bf fe3d 2c83 de3d
00000270: 17c0 be3d 4297 9d3d ce35 c03c 174f 8d3d
00000280: 964a 393d 9c3c 723d fda1 be3d fe6c 573d
00000290: 8763 973d b120 963d bc17 523d 2a70 a53d
000002a0: 74b4 353d d32e 833d 47c8 343d a4e4 a43d
000002b0: 176b 6c3d 7ae0 8f3d 13df dc3c 69f8 6a3d
000002c0: 3ee3 1c3d 67ba e33c 16e2 383d e7e3 fe3c
000002d0: 1fd6 abba 28cc 12bc 504a b53c f3a9 253c
000002e0: d621 243b 0a38 23bd fd4a 0cbd c0b4 10bc
000002f0: ccb8 77bc c85f a23c ff8a 573b ccac 54bd
00000300: bd10 08be 8f2c 4fbe 00c7 2abe 31e3 57be
00000310: 785f 72be c2c1 4fbe 6019 51be ed57 60be
00000320: f02b cbbd fafd babd 5760 d7bd 215d 46be
00000330: 6233 43be b641 07be 61bf 2ebe 5523 37be
00000340: 5205 1fbe 47d5 08be ff36 29be 311a 41be
00000350: 10d6 11be 4efd 4fbe 0d92 67be b9a3 4dbe
00000360: 8ffd 9cbd 933c 03be 4307 eabd 1ef0 36be
00000370: 532e 29be 1a09 7abe faf9 27be 2734 26be
00000380: fd14 5ebd 4cce 05be 665c 94bd 1952 cdbd
00000390: 323f 15be ceff 0dbe 0768 01be f5a4 1dbe
000003a0: 439d b23c 7e08 bcbc 2b40 19bd 03e1 bfbd
000003b0: 6541 8ebd 5220 43bc 536c d6bb 4150 a2bd
000003c0: 0a7e 343b d8e7 86bc 8cb6 91bd 6d34 bfbd
000003d0: eee8 3abd b3a4 423b ed4c 19bd 4d34 b9bd
000003e0: d750 983c e5d7 13bd d41d 24bb e345 5cbd
000003f0: 7bde 19bd 311a debd 4220 91bc 610c dbbd

network_body.observation_encoder.processors.0.conv_layers.0.bias f4 [16]
-0.041497625 0.074129544 0.06920265 -0.049631305 -0.08500719 -0.04699384 0.2285776 -0.010586073
0.015752552 -0.04220973 -0.05981389 0.091184184 0.1677069 0.008665707 0.018481757 0.23280655
00000000: 6af9 29bd 3bd1 973d 1eba 8d3d 324a 4bbd
00000010: 4018 aebd 9d7c 40bd 3f10 6a3e 3571 2dbc
00000020: 7f0b 813c 1ce4 2cbd 69ff 74bd c6be ba3d
00000030: 5cbb 2b3e 9cfa 0d3c 0e67 973c d764 6e3e

network_body.observation_encoder.processors.0.conv_layers.2.weight f4 [32, 16, 4, 4]
-0.17990078 -0.022009805 0.089350715 0.27142313 -0.31107685 -0.14144216 0.093605176 0.39429894
-0.12434988 -0.03936382 -0.032218706 0.2071222 -0.16745448 -0.11341007 -0.025849717 0.12604272
-0.21621391 -0.057716843 -0.07387105 0.066603824 -0.29476076 -0.037177067 0.18075527 0.23399632
-0.1945329 -0.10248286 0.16187097 0.24457102 -0.14089775 -0.09178579 0.19599162 0.2712638
-0.1998472 0.056990094 0.04767964 0.2566066 -0.22144683 -0.042637087 0.103901565 0.3234689
-0.20119245 -0.1050988 0.09503683 0.24767274 -0.09119106 -0.14379025 0.008126628 0.15770994
-0.21785073 -0.01260403 0.13854815 0.18821962 -0.21467203 -0.10767826 0.124516174 0.3308253
-0.15672727 -0.06048694 -0.078955226 0.09839167 -0.016471105 -0.10043844 -0.022488859 -0.00918383
-0.291769 -0.054540835 0.12834923 0.32004315 -0.27932596 -0.17148921 0.12666172 0.33709392
-0.13318993 -0.06279543 0.038366262 0.13524117 -0.17241573 -0.13801187 -0.05912132 0.044414893
-0.16684252 0.018335653 0.06988498 0.23774959 -0.2444439 -0.15654445 0.110153854 0.38360456
-0.10408166 -0.06028421 0.031339165 0.17536867 -0.15220727 -0.12143587 -0.06610267 0.1469533
-0.18917151 0.024737079 0.13293514 0.21930288 -0.27546772 -0.06453887 0.12899615 0.3936341
-0.13398206 -0.032839715 0.021894833 0.2665834 -0.10727421 -0.013145874 0.031975742 0.1267272
-0.21191771 -0.009298044 0.02408745 0.20573996 -0.29021582 -0.13473935 0.07697955 0.39466003
-0.14582303 -0.007425619 -0.0044569224 0.14855127 -0.112885706 -0.08686039 -0.00562812 0.2130462
-0.032176014 -0.08839108 0.030030088 -0.043263927 -0.09545843 0.065651596 0.11528917 0.122600004
-0.08169689 -0.021390587 -0.026786683 0.07681697 -0.03923275 -0.05600335 -0.0066280025 -0.014056452
-0.1820426 -0.057830077 0.13654564 0.22627588 -0.30703226 -0.12445812 0.0947445 0.37614545
-0.13645697 -0.101646446 0.045340583 0.1574084 -0.119680725 -0.046461493 -0.09199313 0.074801736
-0.10475874 -0.03458128 0.13604535 0.27167258 -0.24424152 -0.11838835 0.15754755 0.35827652
-0.077124126 -0.11497367 -0.03233485 0.15358207 -0.059410427 -0.1189912 -0.08002848 0.08528463
-0.24285579 0.03421921 0.12877554 0.18148434 -0.3011454 -0.05037512 0.16316676 0.3089668
-0.27275586 -0.103346035 0.11589263 0.25065377 -0.120393224 -0.0015667784 0.106390096 0.22323161
-0.21259116 -0.07612416 -0.025993802 0.0721243 -0.2198925 -0.08416583 0.11383127 0.23080233
-0.15693428 -0.13076828 0.01127587 0.16843511 -0.06422026 -0.07489851 -0.019555788 0.19551605
-0.26911363 -0.08849853 0.08928905 0.20126009 -0.22420983 -0.11707118 0.15784779 0.30901125
-0.1094077 -0.04853869 0.13611019 0.27379423 -0.15753527 -0.124882795 0.049774926 0.12912709
-0.18761119 0.05792213 0.09653447 0.27121532 -0.2462799 -0.05454902 0.04717086 0.24037907
-0.16311821 -0.09401431 -0.113722526 0.063073136 -0.02235838 -0.11056389 -0.108917505 0.027950099
-0.18450353 -0.03999591 -0.010794593 0.2161046 -0.2865882 -0.09256387 0.21004662 0.46868634
-0.09329308 -0.051656507 0.025045944 0.20047489 -0.13331024 -0.061754797 -0.006845909 0.20388982
00000000: e937 38be e84d b4bc 82fd b63d f9f7 8a3e
00000010: 7745 9fbe 37d6 10be 12b4 bf3d 8de1 c93e
00000020: 26ab febd f53b 21bd c3f7 03bd d817 543e
00000030: 3079 2bbe 8a43 e8bd c9c2 d3bc 5811 013e
00000040: 2e67 5dbe 7f68 6cbd b449 97bd 9667 883d
00000050: e2ea 96be fb46 18bd e917 393e bb9c 6f3e
00000060: a233 47be 89e2 d1bd 81c1 253e d370 7a3e
00000070: 8047 10be 30fa bbbd 07b2 483e 17e3 8a3e
00000080: bfa4 4cbe 726e 693d ba4b 433d f161 833e
00000090: f5c2 62be 3aa4 2ebd 58ca d43d b79d a53e
000000a0: 6505 4ebe 0a3e d7bd aba2 c23d ec9d 7d3e
000000b0: 61c2 babd c03d 13be 8c25 053c b77e 213e
000000c0: 4314 5fbe 2281 4ebc 91df 0d3e a5bc 403e
000000d0: fcd2 5bbe 6b86 dcbd 5602 ff3d ef61 a93e
000000e0: 1d7d 20be 27c1 77bd 47b3 a1bd 9281 c93d
000000f0: 69ee 86bc abb2 cdbd 8e3a b8bc c677 16bc
00000100: bf62 95be 3666 5fbd fb6d 033e b2dc a33e
00000110: d003 8fbe de9a 2fbe 9cb3 013e 9397 ac3e
00000120: f162 08be e49a 80bd f125 1d3d a97c 0a3e
00000130: c08d 30be fc52 0dbe 3229 72bd 64ec 353d
00000140: c4d8 2abe a734 963c db1f 8f3d a174 733e
00000150: 804f 7abe 304d 20be 5898 e13d d167 c43e
00000160: c428 d5bd 93ec 76bd 7f5d 003d d893 333e
00000170: 39dc 1bbe 5fb3 f8bd d660 87bd ed7a 163e
00000180: 2db6 41be 6aa5 ca3c 2620 083e ef90 603e
00000190: 1b0a 8dbe f42c 84bd 9117 043e 698a c93e
000001a0: 9832 09be f082 06bd cb5c b33c 9f7d 883e
000001b0: 95b2 dbbd cb61 57bc fff8 023d c6c4 013e
000001c0: f500 59be d356 18bc 0b53 c53c 7fad 523e
000001d0: 2b97 94be 1df9 09be 74a7 9d3d e110 ca3e
000001e0: a252 15be 9b52 f3bb 600b 92bb d31d 183e
000001f0: 9f30 e7bd dce3 b1bd 186c b8bb c828 5a3e
00000200: ffca 03bd 6206 b5bd a901 f63c 8435 31bd
00000210: b67f c3bd 5874 863d ba1c ec3d b615 fb3d
00000220: b350 a7bd 503b afbc bf6f dbbc 3752 9d3d
00000230: 85b2 20bd c563 65bd b72f d9bb 084d 66bc
00000240: 6069 3abe 3bdf 6cbd 9fd2 0b3e ddb4 673e
00000250: 5533 9dbe e6e3 febd 6809 c23d 2396 c03e
00000260: 60bb 0bbe 032c d0bd 0cb7 393d ab2f 213e
00000270: 2b1b f5bd 684e 3ebd e566 bcbd a731 993d
00000280: c08b d6bd 1aa5 0dbd 794f 0b3e ab18 8b3e
00000290: 731a 7abe 9775 f2bd 2554 213e 0570 b73e
000002a0: 41f3 9dbd 5177 ebbd 8c71 04bd 9e44 1d3e
000002b0: 5958 73bd a9b1 f3bd f9e5 a3bd b5a9 ae3d
000002c0: 30af 78be 7129 0c3d bcdd 033e 08d7 393e
000002d0: bb2f 9abe 2456 4ebd 3015 273e e530 9e3e
000002e0: a8a6 8bbe 16a7 d3bd 1d59 ed3d b155 803e
000002f0: b990 f6bd 5c5c cdba 0de3 d93d d496 643e
00000300: 7fb1 59be fce6 9bbd f4f0 d4bc e8b5 933d
00000310: 802b 61be 225f acbd 5e20 e93d 7257 6c3e
00000320: 61b3 20be 1fe8 05be 6dbe 383c 417a 2c3e
00000330: e985 83bd 6464 99bd 7633 a0bc 5c35 483e
00000340: 43c9 89be b83e b5bd 2ddd b63d 2017 4e3e
00000350: 4397 65be 04c3 efbd daa2 213e b936 9e3e
00000360: 2511 e0bd 81d0 46bd 7860 0b3e c22e 8c3e
00000370: ed50 21be 8dc2 ffbd cbe0 4b3d e439 043e
00000380: 261d 40be c13f 6d3d ddb3 c53d bcdc 8a3e
00000390: cc30 7cbe cb6e 5fbd 3b36 413d ee25 763e
000003a0: 7608 27be 938a c0bd 5be7 e8bd 7d2c 813d
000003b0: ec28 b7bc 526f e2bd 2410 dfbd 9bf7 e43c
000003c0: 7eee 3cbe c0d2 23bd cedb 30bc 864a 5d3e
000003d0: b0bb 92be 2092 bdbd 7616 573e a8f7 ef3e
000003e0: 7110 bfbd c695 53bd 272d cd3c 4a49 4d3e
000003f0: 7b82 08be 99f2 7cbd a653 e0bb 7ec8 503e

network_body.observation_encoder.processors.0.conv_layers.2.bias f4 [32]
0.108410805 -0.13267511 0.14614281 0.15370283 0.11178392 0.019900952 -0.21661258 0.0072122333
-0.06946415 -0.1293664 -0.07844232 0.03190638 -0.05533532 0.21912938 -0.2001728 -0.22647382
-0.19190396 -0.106511764 -0.14436565 -0.07190991 0.14815961 -0.2541128 -0.10380518 0.01316075
-0.02221719 0.08264259 -0.17476028 -0.14369059 -0.024016783 -0.02269966 -0.099247456 -0.066636406
00000000: 7c06 de3d fcdb 07be 76a6 153e 4664 1d3e
00000010: f8ee e43d 5207 a33c b0cf 5dbe 9954 ec3b
00000020: 3843 8ebd a078 04be 5ea6 a0bd 44b0 023d
00000030: 4aa7 62bd 7463 603e 19fa 4cbe c1e8 67be
00000040: 7982 44be d722 dabd 97d4 13be 8145 93bd
00000050: 27b7 173e 131b 82be cf97 d4bd 30a0 573c
00000060: d300 b6bc 8540 a93d 5cf4 32be a023 13be
00000070: d8be c4bc a3f4 b9bc 4042 cbbd ab78 88bd

network_body.observation_encoder.processors.0.dense.0.weight f4 [30, 512]
-0.20222102 -0.057704248 -0.03141555 -0.05211511 -0.2277778 0.0026232721 -0.074327655 0.11534812
0.052701715 -0.11028746 -0.15640773 0.22847748 -0.07616183 0.00019802574 -0.041150287 0.0069988756
-0.038330097 -0.0045903977 0.019364301 0.017172426 0.14933988 0.13385092 -0.026898792 0.027461855
-0.0134910615 0.008398896 -0.09839546 -0.22859111 0.20534499 0.08002822 -0.111921884 0.058795076
0.10141424 -0.011062031 0.04435818 0.047928352 0.085425444 0.024974406 0.030464571 0.021346422
0.14908515 0.2128183 -0.09912738 -0.25746107 -0.040687244 -0.022067847 -0.22282463 -0.13360375
-0.16830273 -0.016694004 -0.15756153 -0.054824445 0.083190784 0.022549639 -0.09830366 0.08581579
-0.12414683 -0.04166105 -0.093177795 0.10619075 0.0822684 0.0099522425 0.018626267 -0.05128035
-0.016170856 -0.22097929 -0.06262939 0.04748365 0.097704716 -0.079934195 -0.03112775 0.09121507
0.060475245 -0.006559748 0.007865564 -0.026157739 -0.1616028 -0.13362485 -0.11517113 -0.0414487
0.018353809 -0.07633091 -0.13533553 0.021406727 0.09514071 -0.15207931 -0.08344241 0.07549629
0.04097245 -0.053302385 -0.05351299 -0.06505296 -0.047740206 0.12713392 -0.052882653 -0.014486025
-0.07258519 0.13332453 0.08769426 0.020985104 -0.029358866 -0.007476824 -0.05021817 -0.055443577
-0.085330635 -0.30323547 -0.19949989 -0.21686225 0.2333523 0.29046017 0.11209108 0.03583817
-0.068162695 -0.022641119 0.054896306 0.2207103 -0.06570258 0.06612256 0.000988041 -0.06656578
-0.26366577 -0.052958496 -0.089413635 -0.09860424 -0.12026723 -0.20805617 0.14243309 0.11825844
-0.0775373 0.0040138853 -0.055501718 0.011483614 -0.08239274 -0.09945106 0.0298455 -0.06599667
0.016860288 0.10464324 0.017887937 -0.13342822 -0.020945808 -0.13945931 -0.16256084 0.022991313
-0.11276768 -0.25281054 0.04666451 0.034721557 -0.22874305 -0.26413357 -0.20941961 -0.09600432
-0.079611205 -0.06712785 0.05409911 0.083478734 0.01116163 -0.017436316 -0.09428628 -0.08943811
-0.19037117 -0.078913525 -0.02978819 0.0738242 -0.095199086 0.00055858115 -0.08771917 0.009635802
-0.07676293 -0.069060706 -0.015801203 0.08693227 -0.0225964 0.059655465 0.084306955 0.117820196
-0.11568646 -0.0071729743 -0.12705186 -0.09710558 0.10642526 -0.041137677 0.07385653 -0.1726853
0.006921167 -0.09331103 -0.11565692 -0.22061808 0.0018526355 0.0036115886 0.17314194 0.041950833
-0.053539846 -0.034790237 -0.07752682 0.044091154 0.06536629 -0.05817722 -0.06473479 0.060215317
-0.049139153 -0.026566435 0.044535875 0.19615106 0.031613488 0.006533746 0.029971516 0.028922223
0.106903024 0.07024417 -0.0030917278 0.106589064 0.27073398 0.35853603 0.18185896 0.32179025
0.17226546 0.18394135 0.07648802 -0.06330658 0.043595582 -0.21180664 -0.10673297 -0.16999152
0.01163932 -0.04825487 -0.108157806 -0.054653388 -0.027487818 0.06496412 0.044366248 0.023209171
0.01756279 -0.02566263 -0.22479169 -0.043392826 0.033026632 -0.11678659 -0.054069422 -0.16682056
-0.056106668 -0.21068148 0.015856206 0.0814278 0.057440802 0.05328486 0.108183555 0.110395744
-0.18406633 -0.16898295 -0.1845459 -0.17179415 0.15600991 -0.020219833 0.0004957477 0.080340184
00000000: 0713 4fbe 4a5b 6cbd 97ad 00bd a776 55bd
00000010: 953e 69be 34eb 2b3b 1939 98bd a33b ec3d
00000020: c1dd 573d 64de e1bd 5929 20be 00f6 693e
00000030: bcfa 9bbd 21a5 4f39 348d 28bd d356 e53b
00000040: 0500 1dbd 0c6b 96bb e2a1 9e3c 30ad 8c3c
00000050: 8eec 183e 3710 093e db5a dcbc aff7 e03c
00000060: 9d09 5dbc 869b 093c 8f83 c9bd ca13 6abe
00000070: f545 523e d6e5 a33d 4d37 e5bd 1bd3 703d
00000080: 45b2 cf3d 853d 35bc ecb0 353d 8550 443d
00000090: 89f3 ae3d 2097 cc3c d690 f93c b1de ae3c
000000a0: c7a9 183e 0aed 593e 4c03 cbbd f0d1 83be
000000b0: aba7 26bd a1c7 b4bc 242c 64be 6ccf 08be
000000c0: 8d57 2cbe ddc1 88bc cf57 21be 998f 60bd
000000d0: ee5f aa3d 05ba b83c 6e53 c9bd 30c0 af3d
000000e0: b140 febd c7a4 2abd 00d4 bebd 897a d93d
000000f0: 567c a83d bb0e 233c 1d96 983c 580b 52bd
00000100: be78 84bc 6548 62be d643 80bd 377e 423d
00000110: 6919 c83d 8ab4 a3bd a0ff febc f7ce ba3d
00000120: e4b4 773d 28f3 d6bb 91de 003c c148 d6bc
00000130: 347b 25be f4d4 08be d7de ebbd 1dc6 29bd
00000140: ba5a 963c 6153 9cbd 6695 0abe 295d af3c
00000150: 22d9 c23d aeba 1bbe dbe3 aabd cd9d 9a3d
00000160: bad2 273d 9a53 5abd 7030 5bbd 7c3a 85bd
00000170: 3c8b 43bd 652f 023e 7b9b 58bd cb56 6dbc
00000180: 8ba7 94bd 3a86 083e 0c99 b33d f4e8 ab3c
00000190: 0182 f0bc 2500 f5bb 91b1 4dbd ce18 63bd
000001a0: d4c1 aebd ae41 9bbe b349 4cbe 2311 5ebe
000001b0: e8f3 6e3e 32b7 943e 0290 e53d 0ccb 123d
000001c0: e298 8bbd de79 b9bc f3da 603d e201 623e
000001d0: 138f 86bd 446b 873d 2881 813a a453 88bd
000001e0: 33ff 86be 02eb 58bd 7f1e b7bd 05f1 c9bd
000001f0: aa4e f6bd ad0c 55be fbd9 113e 7b31 f23d
00000200: e0cb 9ebd e986 833b c555 63bd c525 3c3c
00000210: 86bd a8bd ffac cbbd 8d7e f43c 4329 87bd
00000220: 961e 8a3c 324f d63d b989 923c 68a1 08be
00000230: 8b96 abbc 6cce 0ebe 5976 26be 4758 bc3c
00000240: bef2 e6bd 6270 81be 4923 3f3d 3138 0e3d
00000250: 9e3b 6abe 843c 87be 1872 56be ea9d c4bd
00000260: 330b a3bd 547a 89bd 0797 5d3d e6f6 aa3d
00000270: 45df 363c 9bd6 8ebc 2a19 c1bd 542b b7bd
00000280: a9f0 42be 6a9d a1bd 5d06 f4bc 2431 973d
00000290: bdf7 c2bd bf6d 123a 1ca6 b3bd 7cdf 1d3c
000002a0: e235 9dbd b36f 8dbd 8671 81bc 8c09 b23d
000002b0: 161c b9bc 4a59 743d 20a9 ac3d b74b f13d
000002c0: 06ed ecbd 450b ebbb e219 02be 4adf c6bd
000002d0: 7df5 d93d fb7f 28bd 1842 973d 6ad4 30be
000002e0: f5ca e23b da19 bfbd 89dd ecbd b5e9 61be
000002f0: 22d4 f23a 67b0 6c3b 1f4c 313e a3d4 2b3d
00000300: 994c 5bbd 3580 0ebd 62c6 9ebd ed98 343d
00000310: c3de 853d 3d4b 6ebd ac93 84bd 56a4 763d
00000320: 2346 49bd daa1 d9bc 406b 363d d3db 483e
00000330: 257d 013d 0919 d63b d386 f53c 4cee ec3c
00000340: f9ef da3d 2ddc 8f3d 969e 4abb 5e4b da3d
00000350: a59d 8a3e 0992 b73e 3c39 3a3e b1c1 a43e
00000360: 5b66 303e 1f5b 3c3e c0a5 9c3d e1a6 81bd
00000370: 4891 323d d7e3 58be d196 dabd 4212 2ebe
00000380: d9b2 3e3c e6a6 45bd d781 ddbd 3bdc 5fbd
00000390: 222e e1bc e90b 853d 62b9 353d 2921 be3c
000003a0: d7df 8f3c 703a d2bc cb2f 66be adbc 31bd
000003b0: ef46 073d cf2d efbd e677 5dbd 02d3 2abe
000003c0: 1bd0 65bd e3bc 57be e0e4 813c 9ec3 a63d
000003d0: 0c47 6b3d 3a41 5a3d 578f dd3d 2a17 e23d
000003e0: e27b 3cbe de09 2dbe 9af9 3cbe ceea 2fbe
000003f0: 10c1 1f3e 10a4 a5bc 11f5 013a 6589 a43d

network_body.observation_encoder.processors.0.dense.0.bias f4 [30]
0.017172633 -0.18952712 0.14107478 -0.018442163 -0.08637075 0.22830117 -0.087745756 0.17631842
-0.0503572 -0.060551908 -0.12294158 0.14370139 -0.016220413 0.05637595 0.17046762 0.08038159
-0.18666339 0.01619279 -0.16351801 -0.10577234 0.19187893 0.051509645 -0.097502135 0.08033474
-0.13503154 -0.06952515 0.16896829 0.07466016 -0.011462168 -0.15145615
00000000: 9fad 8c3c 6613 42be e875 103e 0514 97bc
00000010: 26e3 b0bd c8c7 693e 0cb4 b3bd d18c 343e
00000020: 5a43 4ebd 4705 78bd ccc8 fbbd 7526 133e
00000030: ace0 84bc 78ea 663d 108f 2e3e 1a9f a43d
00000040: b024 3fbe bea6 843c 4471 27be 2b9f d8bd
00000050: e97b 443e c7fb 523d 33af c7bd 8a86 a43d
00000060: b545 0abe 3463 8ebd 0606 2d3e 6de7 983d
00000070: d1cb 3bbc 5217 1bbe

network_body._body_endoder.seq_layers.0.weight f4 [30, 33]
-0.13966292 -0.032784775 -0.06603691 0.06576375 0.008146954 0.05673017 0.037410375 0.27427003
-0.09565294 -0.08749412 -0.19484791 0.18040647 0.25837094 0.08229504 0.016860673 -0.34419385
-0.2240838 0.10091976 0.043254506 0.28084508 0.035842307 -0.02719256 -0.07807065 -0.018575963
-0.26014397 0.016160736 -0.14086413 -0.1918569 0.28297517 0.21674658 0.27806908 1.0595106
0.12582265 0.036232814 0.13240808 -0.3194829 -0.1694263 -0.105958976 0.18017447 0.06432832
-0.56856704 -0.081049226 0.38781017 0.06199606 0.18227391 -0.21097438 -0.04866047 -0.4124594
0.19447629 0.11066194 0.13674553 -0.15812984 0.09461761 0.08405557 -0.46515507 -0.117180616
0.09631372 -0.12886387 -0.026875718 0.059818845 -0.18877403 0.11674865 0.10214719 -0.106264666
-1.4536974 -0.2281713 -0.019851502 0.2344584 -0.07521098 0.13281238 -0.21950828 -0.67984617
-0.2747136 0.020879967 -0.45054471 -0.14375943 -0.32861876 0.21564414 -0.21607329 0.24534433
-0.029755684 -0.19714923 -0.09648245 0.2601089 0.039889656 -0.2325655 0.16369095 -0.09738577
-0.11833676 -0.17359044 0.003710564 -0.49875727 -0.026311578 0.48010504 -0.5377151 0.27026728
-0.07447083 1.109655 0.06134417 0.30644417 -0.020700386 -0.2509613 -0.100551754 -0.119971655
0.18700483 -0.12868361 -0.1289002 -0.035407543 0.05792603 -0.06814019 -0.06289827 0.23036897
-0.17919973 -0.29942322 0.047011442 -0.22376136 -0.22603859 -0.3378728 -0.0543155 0.029481158
-0.22253111 -0.08170053 -0.08135581 0.050591625 0.10556655 -0.13305345 0.176786 0.1499483
-0.04631716 -0.067206055 -1.7669134 -0.1565379 0.07037624 -0.04460923 0.27421436 0.19888133
-0.070327826 0.0145003665 -0.09810656 0.04644051 0.048131797 -0.18159752 -0.15849699 -0.005925266
0.14631127 -0.0776887 0.2822771 -0.26909313 -0.075308315 -0.3490809 0.11919826 0.3193676
0.17273115 0.17877391 -0.27668262 0.03327031 -0.016001191 0.02998675 -0.0041763545 0.16598932
0.23647101 -0.002547634 -0.15340948 -1.5286924 -0.13182585 0.13875702 -0.13383193 -0.16346534
0.20076178 -0.17190787 0.42505893 -0.07412287 0.06234739 0.35584483 -0.1928041 0.052781332
-0.02592435 -0.03189143 -0.28486452 -0.25804025 -0.034084998 -0.09717832 -0.24686748 -0.0071414676
0.18560323 0.052137103 -0.4089127 -0.018646048 -0.13246247 -0.0805841 -0.014211641 -0.16524056
-0.14199245 -0.446845 -0.10304703 0.11055984 -1.2759564 -0.14238225 0.099886976 -0.03653454
-0.24995287 0.15889695 -0.06974033 0.118471794 -0.39387038 0.09128835 -0.14367047 0.046173673
0.05081846 0.1432167 -0.029055335 0.08466475 0.16104823 -0.0118979905 -0.12121889 -0.2987513
0.2229919 -0.2941913 -0.20018946 0.02319209 -0.008591969 0.08859667 -0.18472469 -0.10970634
0.098764986 0.3083803 0.16192499 -0.06524693 -0.25833148 -1.4320905 0.039149284 -0.1439564
-0.14903224 -0.08582817 -0.09122988 -0.50661075 -0.8810246 -0.50870305 -0.5749833 -0.2505745
-0.5768772 -0.017274786 0.37948212 -0.32767484 0.123952724 0.008892963 -0.18367335 -0.24303548
0.1334495 0.02278499 -0.14844455 0.29843137 -0.20603141 -0.03451988 0.026349727 0.09092154
00000000: cc03 0fbe 5449 06bd 5c3e 87bd 25af 863d
00000010: cd7a 053c e55d 683d 9f3b 193d 1f6d 8c3e
00000020: b0e5 c3bd 1e30 b3bd 3686 47be 79bc 383e
00000030: 3249 843e 4d8a a83d 651f 8a3c 2d3a b0be
00000040: 3976 65be 05af ce3d a32b 313d edca 8f3e
00000050: 62cf 123d eec2 debc 81e3 9fbd 9e2c 98bc
00000060: 9731 85be 8563 843c b03e 10be 2376 44be
00000070: 1fe2 903e d1f2 5d3e 125f 8e3e 0b9e 873f
00000080: a7d7 003e dc68 143d fc95 073e 4393 a3be
00000090: 177e 2dbe 0501 d9bd a87f 383e 91be 833d
000000a0: 9c8d 11bf 23fd a5bd 0e8f c63e 95ef 7d3d
000000b0: 03a6 3a3e ab09 58be 3350 47bd e12d d3be
000000c0: cb24 473e baa2 e23d 0507 0c3e caec 21be
000000d0: e1c6 c13d 5425 ac3d ce28 eebe 64fc efbd
000000e0: 2140 c53d e4f4 03be 772a dcbc 9b04 753d
000000f0: fb4d 41be eb19 ef3d 8c32 d13d 4aa1 d9bd
00000100: c212 babf bda5 69be 9e9f a2bc dd15 703e
00000110: 3708 9abd f8ff 073e c7c6 60be 660a 2ebf
00000120: 43a7 8cbe 770c ab3c ccad e6be ac35 13be
00000130: b840 a8be d1d1 5c3e 5142 5dbe 8b3b 7b3e
00000140: 31c2 f3bc 7de1 49be 9798 c5bd fe2c 853e
00000150: 5663 233d a725 6ebe 9a9e 273e 3172 c7bd
00000160: 8b5a f2bd b1c1 31be ef2c 733b 1d5d ffbe
00000170: 618b d7bc 54d0 f53e b2a7 09bf 7960 8a3e
00000180: 2a84 98bd 2d09 8e3f 0644 7b3d 40e6 9c3e
00000190: db93 a9bc 007e 80be 14ee cdbd b3b3 f5bd
000001a0: 327e 3f3e a3c5 03be 6afe 03be 8007 11bd
000001b0: d843 6d3d 158d 8bbd cfd0 80bd d8e5 6b3e
000001c0: 2280 37be 004e 99be 128f 403d b321 65be
000001d0: a976 67be aafd acbe ee79 5ebd 7882 f13c
000001e0: 32df 63be 9c52 a7bd e09d a6bd 2a39 4f3d
000001f0: 4633 d83d 2a3f 08be 6407 353e 0c8c 193e
00000200: 10b7 3dbd 54a3 89bd 382a e2bf 794b 20be
00000210: 6b21 903d 2bb8 36bd d365 8c3e 8ca7 4b3e
00000220: 0908 90bd f292 6d3c 18ec c8bd 6738 3e3d
00000230: d925 453d b3f4 39be 094d 22be bc28 c2bb
00000240: 9fd2 153e 411b 9fbd a086 903e 93c6 89be
00000250: 3f3b 9abd bbba b2be 381e f43d 2684 a33e
00000260: 6fe0 303e 8210 373e 58a9 8dbe 7346 083d
00000270: ee14 83bc c6a6 f53c cdd9 88bb 1bf9 293e
00000280: 7525 723e 35f6 26bb 6017 1dbe 31ac c3bf
00000290: 5bfd 06be 5216 0e3e 3d0b 09be 7563 27be
000002a0: 7f94 4d3e 9e08 30be 53a1 d93e bbcd 97bd
000002b0: fa5f 7f3d 4b31 b63e 706e 45be 3d31 583d
000002c0: 4d5f d4bc 97a0 02bd c3d9 91be da1d 84be
000002d0: b69c 0bbd 6d05 c7bd d4ca 7cbe f902 eabb
000002e0: c60e 3e3e b78d 553d 015d d1be 99bf 98bc
000002f0: 3ea4 07be 4709 a5bd f1d7 68bc d234 29be
00000300: 7866 11be dec8 e4be 520a d3bd 336d e23d
00000310: 8a52 a3bf a7cc 11be 8b91 cc3d 3ea5 15bd
00000320: a5f3 7fbe e2b5 223e 05d4 8ebd 57a1 f23d
00000330: 61a9 c9be 63f5 ba3d 5a1e 13be 9b20 3d3d
00000340: 0427 503d 66a7 123e 7405 eebc b664 ad3d
00000350: d4e9 243e caef 42bc 9c41 f8bd eef5 98be
00000360: fd57 643e 3ea0 96be 77fe 4cbe 57fd bd3c
00000370: 54c5 0cbc 2c72 b53d 7828 3dbe b8ad e0bd
00000380: 4c45 ca3d 06e4 9d3e aacf 253e 2fa0 85bd
00000390: 0644 84be be4e b7bf 005b 203d 4e69 13be
000003a0: e89b 18be aec6 afbd bbd6 babd 3eb1 01bf
000003b0: d48a 61bf 5d3a 02bf 1b32 13bf 4d4b 80be
000003c0: 39ae 13bf da83 8dbc 7b4b c23e ffc4 a7be
000003d0: edda fd3d cab3 113c de14 3cbe 4bde 78be
000003e0: fca6 083e 96a7 ba3c d901 18be ffcb 983e
000003f0: e6f9 52be b864 0dbd 62db d73c 1335 ba3d

network_body._body_endoder.seq_layers.0.bias f4 [30]
0.16341361 0.022234114 0.0504617 0.06677738 0.0056441086 -0.13503273 -0.063277066 0.18705204
0.016625859 -0.035923343 -0.068155885 0.03573123 0.20891322 0.24416578 -0.055911932 0.08290963
0.27044323 -0.0019656327 -0.0688302 0.135429 0.019815927 0.043813594 0.10576989 -0.016866058
-0.060793687 -0.011454677 0.14624313 0.18557042 0.08826924 0.19861475
00000000: e655 273e 5124 b63c edb0 4e3d 94c2 883d
00000010: 37f2 b83b 0546 0abe 6897 81bd 928a 3f3e
00000020: f432 883c 5b24 13bd 5095 8bbd e95a 123d
00000030: 59ed 553e 9806 7a3e e903 65bd 86cc a93d
00000040: 8977 8a3e d8d1 00bb d9f6 8cbd e6ad 0a3e
00000050: 0355 a23c e275 333d e29d d83d b02a 8abc
00000060: cd02 79bd 66ac 3bbc c2c0 153e 2c06 3e3e
00000070: 81c6 b43d aa61 4b3e

action_model._continuous_distribution.log_sigma f4 [1, 2]
-0.98786694 -0.535973
00000000: d9e4 7cbf 8735 09bf

action_model._continuous_distribution.mu.weight f4 [2, 30]
-0.10331266 0.14624587 -0.33516204 -0.036239468 0.045621794 -0.012407243 0.03593256 -0.38995358
0.2441508 0.06305198 0.24698535 -0.10636587 -0.10051617 -0.34525764 0.15251115 0.2416605
-0.44420218 -0.18176016 -0.125245 0.02466219 -0.026275577 0.11016795 0.18907015 0.4140753
0.14362296 0.39933088 -0.020998897 -0.093206055 -0.14604206 -0.08177295 0.40616885 -0.4912279
0.2625477 -0.8502602 -0.681507 -0.37603715 -0.55828226 -0.11839644 0.52523804 -0.5036412
0.053954594 -0.3960507 0.5013588 0.47631255 -0.5507018 0.46408582 0.39470577 0.18876562
-0.47362295 0.45758498 -0.45091027 -0.52356243 0.26598796 0.072393335 -0.6392736 0.21021412
0.37777844 0.5472153 -0.5071256 0.4403883
00000000: 9695 d3bd 7ac1 153e 5c9a abbe d66f 14bd
00000010: ebdd 3a3d c047 4bbc 052e 133d ffa7 c7be
00000020: ab02 7a3e 6621 813d bae9 7c3e 59d6 d9bd
00000030: 6cdb cdbd 9cc5 b0be e22b 1c3e da75 773e
00000040: 786e e3be 561f 3abe 3a40 00be 5c08 ca3c
00000050: e13f d7bc bc9f e13d 9b9b 413e ad01 d43e
00000060: e611 133e 1975 cc3e e105 acbc d1e2 bebd
00000070: 0d8c 15be 9478 a7bd 5df5 cf3e 3982 fbbe
00000080: a76c 863e a7aa 59bf 3e77 2ebf f187 c0be
00000090: 96eb 0ebf d579 f2bd 0076 063f a1ee 00bf
000000a0: 7eff 5c3d 28c7 cabe 0d59 003f 3ddf f33e
000000b0: cbfa 0cbf a89c ed3e e016 ca3e c64b 413e
000000c0: b57e f2be 9448 ea3e b6dd e6be 3008 06bf
000000d0: 932f 883e f542 943d 6fa7 23bf 5f42 573e
000000e0: 2d6c c13e 4d16 0c3f fcd2 01bf 937a e13e

action_model._continuous_distribution.mu.bias f4 [2]
-0.13454007 0.14061274
00000000: dfc4 09be c9fc 0f3e
