Assets/ML-Agents/Training Files/results/9roads_imitation_gailOnly_MonzaNewChkptReachRwd/VehicleAgent/VehicleAgent-10999630.onnx (onnx, 156328 bytes, 9 tensors)

network_body._body_endoder.seq_layers.0.weight f4 [128, 38]
000000 38 52 05 3c 45 3a e3 3b 3f 9f 09 3a 76 9c d7 3e
       0.008137278 0.0069344365 0.0005249865 0.42111558
000010 31 95 fa bc 53 48 6d 3e 40 f6 00 3e 9e e5 2c be
       -0.030588718 0.23172121 0.12593937 -0.16884467
000020 93 10 17 3e 84 d9 1d 3e b4 fc cf bd a7 60 51 3d
       0.14752416 0.15415007 -0.10155621 0.051117565
000030 0b 0f 32 3e 30 b1 14 3e e5 97 d8 bb d2 cf 30 bd
       0.17388551 0.14520717 -0.006609904 -0.043166943
000040 28 f2 d1 bd 5b 35 07 3d ca d7 0a be 4e 63 b6 3c
       -0.10251266 0.033009868 -0.1355888 0.022264149
000050 bb 51 84 bd f8 a3 58 3e 07 06 5b be f4 27 79 bb
       -0.06460901 0.21156299 -0.21389018 -0.0038018199
000060 bb 79 43 3e 73 d7 d8 bc ce b1 5d 3e 57 11 f7 be
       0.19089405 -0.026469922 0.21649858 -0.48255417
000070 7d 7c 06 be 56 ec 1f 3d 3d b2 50 3e 3d 75 f1 3d
       -0.13133426 0.039043747 0.20380493 0.117899396
000080 81 d2 50 3c c2 b6 22 3e d4 78 a6 3e 40 d6 53 3d
       0.012745501 0.15890029 0.3251406 0.051717997
000090 20 93 a0 3c ee f4 01 3e 45 c2 4b bd 5e 1e 6d 3e
       0.019601405 0.1269109 -0.049745817 0.23156115
0000a0 b7 38 44 3e eb 35 22 be ad e8 41 be 52 f3 60 3e
       0.1916226 -0.1584088 -0.18936415 0.2196782
0000b0 46 fb 67 3d 36 d6 5b 3e ba 01 84 bd 95 9c e0 3d
       0.056636117 0.21468434 -0.06445642 0.10967366
0000c0 f6 09 11 3f 2a 4e 1c 3e 7f 02 58 3e 2c af 55 3e
       0.56655824 0.15264192 0.21094702 0.20867604
0000d0 dd 4b b5 3d f9 d6 46 bd 82 32 20 be 16 31 a1 3e
       0.088523604 -0.048544858 -0.15644267 0.31482762
0000e0 15 5d 74 3e 80 77 10 3c 20 16 ae 3c d1 fc 4f 3d
       0.23863633 0.0088175535 0.021250784 0.050778214
0000f0 92 2f 1b 3d 43 9e 1c be 76 82 18 be 9d 58 04 3e
       0.037887163 -0.15294747 -0.14893517 0.12924428
000100 e4 07 25 bd 36 03 b2 3d 7e 81 8c bd 7b bb 98 be
       -0.04029073 0.08692019 -0.06860636 -0.29830536
000110 33 06 8f 3e f6 d0 8c 3e af 39 cf bd d5 ea 48 be
       0.27934417 0.27503175 -0.10118424 -0.19620831
000120 3e 78 77 ba 21 7a 3c be b7 8b 7a 3e 0a 9e e9 bd
       -0.000944022 -0.18405963 0.2446736 -0.11407097
000130 c2 14 21 be 22 5b c2 bd a5 be 9a 3d cb 4e 74 3e
       -0.15730575 -0.094900385 0.07555894 0.23858182
000140 61 0a 3f bd 6d 3a 1c be 4e fb 12 be 80 b1 6e 3e
       -0.046640757 -0.15256663 -0.14353678 0.23309898
000150 41 a7 8a bd 54 cf 64 bc f0 59 a3 3e cc 56 0c 3e
       -0.067701824 -0.0139654465 0.31904554 0.13704985
000160 42 4e 2d 3e 3b 43 31 3e c6 ef 1e be 86 65 8c bd
       0.16924384 0.17310803 -0.15521154 -0.068553016
000170 05 af 4c be de cb 63 bd ba 8a ef 3d 2b f8 32 be
       -0.1998864 -0.055614345 0.11696382 -0.17477481
000180 49 93 30 be e5 00 9a be 6f 60 21 be 6b 59 25 be
       -0.17243685 -0.30078807 -0.15759443 -0.16147391
000190 a0 eb 49 3e 9f 08 a5 bc 67 0d b5 be b2 d4 62 be
       0.1971879 -0.020145712 -0.35361788 -0.2215145
0001a0 40 ff de 3d 5c b3 bd bd 30 23 8c bd ec bf 14 3e
       0.10888529 -0.09262726 -0.06842649 0.14526337
0001b0 4e a2 a1 bd 83 27 10 be c2 51 a5 3d 6d 80 69 3c
       -0.07892285 -0.14077573 0.08072235 0.0142518105
0001c0 31 0b 8d 3c 21 78 72 bd b5 55 69 3d 4e b6 dd ba
       0.01721725 -0.059196595 0.056966502 -0.0016915293
0001d0 13 54 39 3e 59 4e 49 3a b6 2c 05 bd de d8 0b bf
       0.18098478 0.0007679216 -0.032513343 -0.5462779
0001e0 1b e7 30 be c7 33 11 3d 08 ce f4 3e 4a 1e 55 3d
       -0.1727566 0.03544977 0.4781344 0.05203084
0001f0 55 f4 8e be b7 1b 53 3d fd cb ef bc e3 64 a4 be
       -0.27920786 0.051540103 -0.029272074 -0.3210822
000200 ba 49 1c 3e ce 75 2b bd 7e 42 5d be 06 4b 88 3e
       0.152625 -0.041860394 -0.21607396 0.26619738
000210 6c b6 17 3e b1 ab e3 be 04 d3 32 3d 46 0e f0 3c
       0.14815682 -0.44466928 0.04365827 0.029303681
000220 77 06 5c 3d 47 a7 b8 bb d0 37 d7 3d 9f 60 e1 3e
       0.053717103 -0.0056351754 0.10508692 0.4401903
000230 99 f2 97 bd b4 32 83 3e 82 2b 0c 3e 7f 07 5d 3e
       -0.07419319 0.2562462 0.13688472 0.21584891
000240 61 0a f4 bd c0 ef 18 3d 64 1e 1c be e6 fc 59 3e
       -0.11916042 0.03733802 -0.15245968 0.2128788
000250 65 06 4f be 37 e1 99 bd 83 02 8f bd d8 f5 1d be
       -0.20217283 -0.075136594 -0.06982901 -0.15425813
000260 b4 52 53 3e 4f a2 23 3e 88 85 1c bd 6c b7 0c 3d
       0.20637017 0.15979885 -0.038213283 0.034354612
000270 67 51 98 3d 2d fc 69 bd 1b 4f 81 3d 4f 47 4e be
       0.07437401 -0.05712526 0.06313916 -0.2014439
000280 3a 72 ad be 22 b9 b3 be b3 85 62 3b 71 50 bf bc
       -0.3387621 -0.35102183 0.0034564554 -0.023353787
000290 e4 78 98 bb 36 9c 29 3e 04 0a d7 3c bd 1f 11 3e
       -0.004653083 0.16563496 0.026249893 0.14172263
0002a0 76 c5 dc bc 80 48 8b be 84 4e 01 bf 10 36 b2 3d
       -0.026949625 -0.2720375 -0.5051043 0.08701718
0002b0 4b 99 91 bd 8b 65 48 3e f6 c2 96 be 1e 17 d7 3e
       -0.071093164 0.19569986 -0.29445618 0.42009825
0002c0 98 ad cc bc c3 1d d9 3e a4 2c 97 be ad f3 9a be
       -0.02498512 0.4240552 -0.29526246 -0.30264035
0002d0 53 24 c2 3c 37 2b 51 bd 75 3e 20 be bf d4 4e 3e
       0.023698961 -0.051066604 -0.15648825 0.20198344
0002e0 cd 8d b1 be f0 05 f0 3c d1 93 d7 bd c2 c4 f5 bd
       -0.34678498 0.029299706 -0.105262406 -0.12000419
0002f0 1e 87 15 3e e9 d9 41 3e b0 bd 94 3e c6 0c 18 bc
       0.14602324 0.18930782 0.2905097 -0.009280389
000300 d8 d1 9c 3e 1f 1b 84 3d ed fc 87 be 86 0b 90 bd
       0.30628848 0.064504854 -0.26560155 -0.07033448
000310 0c 23 7f bd eb 0f 45 bd 05 f8 e2 bc 81 62 70 be
       -0.062289283 -0.048110884 -0.027706156 -0.23475076
000320 1c 08 23 3d 06 e6 ae be 88 87 76 3e df 7c 6b 3e
       0.039802656 -0.3415987 0.24075139 0.22996853
000330 11 6b 8f 3c 01 14 b8 3e 2a ea 85 be d3 01 90 bd
       0.017507108 0.35952762 -0.26155216 -0.07031598
000340 77 96 bc 3d d0 2b d5 bd 8c 59 81 be 82 d7 05 3b
       0.092083864 -0.10408747 -0.2526363 0.0020422642
000350 d8 6b 92 3d cf ec 9a 3e 69 f1 82 3e c1 57 90 3e
       0.07149476 0.30258796 0.25574806 0.2819195
000360 7c 4f da 3d aa 58 2f be 21 c5 a0 3b 3e 54 7f be
       0.10659692 -0.17123666 0.004906312 -0.2493448
000370 f5 b9 7a 3d 4c e7 db bb d9 38 0e 3e 75 7e 82 3e
       0.0612125 -0.0067109223 0.13888873 0.25487104
000380 1b 74 29 3d 35 a6 60 3e 6c 42 a9 be 55 b7 1f be
       0.041370492 0.21938403 -0.33058488 -0.1559728
000390 30 c0 7b 3c cf 1e 3d 3e 21 92 9b 3d 29 6f 93 3e
       0.015365645 0.18468784 0.07596231 0.28795746
0003a0 01 ea 69 be 4c 7c 46 be fa 72 99 bd 28 c7 30 3e
       -0.22843172 -0.19383353 -0.07492633 0.17263472
0003b0 e9 3e 97 be 5b 26 d1 3d dc e7 3c 3d b0 96 c6 3c
       -0.29540184 0.10212394 0.046119556 0.024241775
0003c0 62 20 c3 3d f9 27 21 3e c6 37 06 bf f9 ce 87 be
       0.09527661 0.15737905 -0.52428854 -0.26525095
0003d0 55 f6 f8 bd d9 54 a8 be 61 41 95 be f4 a1 8e 3e
       -0.12156359 -0.32877234 -0.29151443 0.27857935
0003e0 12 8e 43 3b 46 71 0c 3d 33 c0 75 3e 03 80 a2 3c
       0.002983932 0.034287713 0.239991 0.019836431
0003f0 7f ab 89 be cc 22 e6 be a7 cd 83 3c bc 8c 0d be
       -0.26888654 -0.44948423 0.016089274 -0.13823217

network_body._body_endoder.seq_layers.0.bias f4 [128]
000000 35 6e e8 bd f8 30 9c bd a6 e3 2d 3d 57 e0 c0 bd
       -0.11349145 -0.076265275 0.04245343 -0.094177894
000010 49 62 d5 3b 3c 50 2e 3c 03 be a6 3d 9f 33 d2 bd
       0.0065119606 0.010639247 0.081417106 -0.10263752
000020 ab d7 37 bc 26 95 3a 3d 1c 97 36 bd 89 2b d1 bc
       -0.011220853 0.045552395 -0.044577703 -0.025533454
000030 f0 22 23 3c 93 03 bb 3c 6b 16 ae bb 18 df 2f bd
       0.00995706 0.022828853 -0.005312731 -0.04293737
000040 8b 88 bc 3c 19 e9 70 bd ca f0 85 3c 40 08 e5 3b
       0.023014328 -0.05881605 0.016350169 0.006989509
000050 7e a7 51 bd 3c 36 2f bd ed 6b d2 bb d4 64 84 3d
       -0.051185124 -0.04277633 -0.006421557 0.06464544
000060 79 05 2b bd fe 8b 8c bd c9 dc d4 bc 0e e2 f2 3c
       -0.041753266 -0.06862639 -0.025984185 0.029648807
000070 87 d1 32 bd 48 f9 0a 3c 90 77 30 3d f4 86 c4 3c
       -0.043656852 0.008482285 0.043082774 0.023990132
000080 a5 dc fb bc 88 50 8a 3d 30 8c 2a 3c 09 31 04 bc
       -0.03074486 0.06753641 0.0104094 -0.0080683315
000090 64 46 17 3b 92 d6 68 bc ac 86 69 bb 15 87 40 3d
       0.0023082728 -0.014211314 -0.003563325 0.047003824
0000a0 a4 e4 3b 3d 1d a8 0b bd 3b b5 81 3b d2 d6 d0 3c
       0.045872346 -0.034095872 0.003958372 0.02549306
0000b0 89 0c d4 bd ee bd 44 3c 4a c7 09 3d d9 87 9f 3c
       -0.103539534 0.012008173 0.033637322 0.019473957
0000c0 1b 14 92 3d 1c 14 64 bd c1 e1 56 bc 10 a4 88 3b
       0.07132741 -0.05568324 -0.013115347 0.0041699484
0000d0 e9 31 ed bc 59 2d 99 bc b5 6b 66 3d 49 ed 91 3b
       -0.028954463 -0.018698381 0.05625506 0.0044533354
0000e0 48 15 00 3d 04 63 a6 3b e9 be 58 3b 79 7d c0 3c
       0.031270295 0.0050777216 0.0033072776 0.02349733
0000f0 bf 4a ac bd 47 9c 21 bd ff 28 70 3d 0b af 5e bc
       -0.08412694 -0.03945568 0.058632847 -0.013591538
000100 d9 9e 0c 3c c4 97 de bb 3d e2 49 3d 75 02 41 3d
       0.008582794 -0.006792994 0.049288023 0.047121484
000110 2a 40 af bc 9b 14 41 3d 01 3a 73 bc 16 84 8c 3d
       -0.0213929 0.04713879 -0.014845372 0.06861131
000120 38 e3 98 3d 30 1b ff ba 05 13 ac 3c 2e 3a 34 3c
       0.074652135 -0.0019463059 0.021005163 0.011000199
000130 2e 84 a0 3b 31 8c 83 bd 25 c8 13 3d 2e 8a dd bc
       0.0048985695 -0.06423224 0.036079545 -0.027043428
000140 72 6c 56 3d 43 53 79 3d ad 96 31 bb 7b d0 d9 bc
       0.052349515 0.06087042 -0.0027097866 -0.026588669
000150 91 60 97 bd 2c d5 ae bc 5d 13 61 bd 0d 24 96 3d
       -0.073914655 -0.021341883 -0.054950107 0.07331095
000160 2d 35 ca bc 76 be 08 bc e2 c7 b9 3c 3b bd 07 bd
       -0.02468356 -0.008346191 0.02267832 -0.03313945
000170 f5 1c 9c bc 95 29 41 3d bf 66 cd 3b 6d 1e 8b bd
       -0.019056777 0.047158796 0.006268352 -0.06792913
000180 c7 7d 13 bd b5 fd 8d 3c 45 e5 a6 3c 5e 83 2d bb
       -0.036008622 0.017332891 0.020372996 -0.0026476006
000190 33 c3 8e 3c b3 b1 94 3c 69 dd a9 bd d4 8d 0a bc
       0.017427063 0.01815114 -0.08294184 -0.008456666
0001a0 0d 41 07 bc 3b b4 b9 bd 4b ed 8d bd ea bd a7 3b
       -0.008255255 -0.09067579 -0.06930026 0.005119075
0001b0 74 2a a1 3d 4b 21 d9 bc 6d df d4 3c 40 68 a7 3c
       0.078694254 -0.026505133 0.025985444 0.020435452
0001c0 fb 14 58 bd cd 4f 36 3d cf 42 42 bb 86 e8 86 3c
       -0.052754384 0.044509698 -0.0029641872 0.016468298
0001d0 2d 4c 4f 3d df 90 ab bd 7d 2c 9b 3d 4a 26 90 bd
       0.050609756 -0.08377241 0.07576845 -0.07038553
0001e0 a0 f1 28 bd 01 49 1e 3d d9 16 c9 bb be 30 9f 3d
       -0.041246057 0.03864384 -0.006136757 0.07772969
0001f0 f3 b1 b7 3c b5 08 17 bd 6c 7e 8b bd 4a 7e 29 bd
       0.02242372 -0.036873538 -0.068112224 -0.041380204

network_body._body_endoder.seq_layers.2.weight f4 [128, 128]
000000 95 20 30 bd 24 74 5f bd da b4 3e 3d 3c 13 60 bd
       -0.042999823 -0.05455412 0.046559192 -0.054705843
000010 0a ff 56 3b 7d 1b c5 bd 93 89 9b bd b5 da ae 3b
       0.0032805824 -0.096243836 -0.075945996 0.0053361305
000020 7d 84 26 3e cc a3 08 3d 58 9a ad 3d 3a c6 ad 3d
       0.16261478 0.033359334 0.08476704 0.08485074
000030 f1 8d d4 3d aa 64 b9 3d 37 d2 e5 bd ba 23 44 3d
       0.10378636 0.09052403 -0.11221736 0.047885634
000040 c7 73 63 bd b7 35 b6 bc ec 4d e8 bd 5d bb 74 3d
       -0.055530336 -0.02224241 -0.113429874 0.059748996
000050 1e a0 95 bd 13 7b cc bd 6f e8 96 bd 0a 6d 21 bd
       -0.073059306 -0.09984412 -0.07368552 -0.03941063
000060 7e a3 0c 3d d7 87 a4 3d 24 2b aa 3d 77 36 2f 3c
       0.034335606 0.08033722 0.0830901 0.010694138
000070 4f cc d9 3d 6c 5f c4 bb 66 8f 32 3e 34 a8 8b 3d
       0.10634672 -0.0059928205 0.17437515 0.068191916
000080 8d cf 32 3d 9c 25 db 3c 01 75 8b 3b 40 35 72 3d
       0.043654967 0.026751332 0.0042558913 0.059132814
000090 0f e5 0e 3d 02 33 15 3e 79 81 34 3e 71 23 b3 3d
       0.034886416 0.14570239 0.17627515 0.08746994
0000a0 9e ba 9b bd e1 92 e1 3d 14 9c 2b 3d 14 df 2a be
       -0.07603954 0.11014343 0.041896895 -0.1668666
0000b0 4d a5 76 bc fa ad 6a 3e b6 c1 20 bd 55 68 e6 bd
       -0.015054059 0.2291793 -0.039247237 -0.112503685
0000c0 34 82 f5 3a fe cd e0 3d 17 b7 8b bd 59 ac 71 bd
       0.001873082 0.1097679 -0.06822031 -0.059002254
0000d0 c5 77 09 3e 44 9b 60 bd 54 2e d6 bc a4 bd 05 3e
       0.13424595 -0.054835573 -0.026145138 0.13060623
0000e0 68 a6 eb 3d 80 d6 84 3d b8 fc 64 bc 8b b5 a5 3d
       0.11506349 0.06486225 -0.0139762685 0.08091267
0000f0 f1 5b 1d 3d e7 86 f3 3c 87 f7 0f be c6 f5 84 bd
       0.03841776 0.029727412 -0.14059268 -0.0649219
000100 8a 4d 7a 3d f3 80 ef bc 84 41 b7 bd 44 c3 08 3d
       0.061109103 -0.029236292 -0.08948043 0.033389345
000110 85 30 a6 bd 49 c1 a3 3d 17 2b e1 bd cd ff 04 be
       -0.08114723 0.079958506 -0.10994547 -0.12988205
000120 24 92 9e bd 37 2a 2c bd 0f 8b 63 be c2 29 4f bc
       -0.07742718 -0.042032447 -0.22221015 -0.012644233
000130 6c a6 6f bd 0b fe 40 3e 35 2e 65 3d 3f 55 91 3c
       -0.05850832 0.1884691 0.05595227 0.017740844
000140 7b ed 89 3c cc 52 ee 3d 2c bd 8f bd cd 95 14 be
       0.016836872 0.11636886 -0.070185035 -0.1451027
000150 39 91 1f 3e 34 09 b6 bd de 8d 2e 3e 1f 70 d5 3c
       0.15582742 -0.08888474 0.17046306 0.02605444
000160 31 6b 43 3c 4a 0a 7f 3d 58 f2 2b 3e d7 0c 04 3e
       0.011927412 0.06226567 0.16791666 0.12895523
000170 1d a8 2d bd 27 f1 3e 3d 4f e8 25 3d 26 91 e3 3d
       -0.042396653 0.0466167 0.04050475 0.11111669
000180 23 5c 4a bd 0a a5 f9 bd c2 b9 a9 3e 41 0e 01 3e
       -0.049404275 -0.12189682 0.33149534 0.12603094
000190 58 d6 90 bd d3 e3 ea 3d f5 9d 9a bd f8 6d f0 3c
       -0.07072133 0.11469235 -0.07549659 0.029349312
0001a0 e8 17 05 be 2d bb 03 be fe 1a 2d 3d 5f f1 0c 3e
       -0.12997401 -0.1286437 0.04226207 0.13763951
0001b0 c5 c9 20 bd 00 08 a4 3d e3 0b 17 3d be 1b ad bc
       -0.039254922 0.080093384 0.03687657 -0.021131393
0001c0 b7 90 7e 3e 54 ae 4a 3d a0 36 53 3d b3 8d 5e 3c
       0.24859892 0.04948266 0.051565766 0.013583588
0001d0 a7 9b 24 be 2b 21 95 bd 58 73 a5 3d 5f a8 87 3a
       -0.16075002 -0.07281717 0.08078641 0.0010349861
0001e0 84 e8 50 3d 52 bf b4 bd 5b 15 51 3c 72 e1 d9 bc
       0.051002994 -0.08825554 0.012761439 -0.026596759
0001f0 f6 af 02 3d 89 3c 4a 3e d3 2b b2 bd 73 19 ae 3c
       0.03190609 0.19749655 -0.08699765 0.02125237
000200 c6 ac 75 bd 79 62 bb 3d 67 71 10 bd 70 0c 34 3e
       -0.059979223 0.091496415 -0.0352644 0.1758287
000210 21 6a a5 bd 03 c3 e4 3c 15 d3 b2 bd e8 c0 c4 bd
       -0.08076883 0.02792502 -0.08731667 -0.096071064
000220 54 55 46 3c bf 72 24 3e 39 0d c6 bd 7b 5e b1 bc
       0.012105305 0.16059397 -0.09670491 -0.021651497
000230 f0 27 67 3e f6 c1 83 3d 1a f1 7e be 42 64 1a bc
       0.22573829 0.064334795 -0.2489666 -0.009423317
000240 c0 9c 2b be e3 2d ec 3d 6f b6 65 be f6 a6 30 be
       -0.16759014 0.1153219 -0.22432874 -0.1725119
000250 a5 79 c2 bd 9f 6d f3 bd 7e 33 4e 3d b3 ed 1b 3e
       -0.09495858 -0.11886143 0.050342076 0.15227394
000260 93 05 ca bd 75 f7 5d bd 58 2a 1b bd 07 9c 36 3e
       -0.098643444 -0.05419107 -0.03788218 0.17832957
000270 90 4b 3b ba 8d b7 f0 3d 9d 5e 21 3e 9b 08 8a 3c
       -0.00071447436 0.117537595 0.15758748 0.016849807
000280 69 fe a0 be 6d 6f 3a 3e 4b 07 41 be e1 65 31 bc
       -0.314441 0.18206568 -0.18850438 -0.0108275125
000290 ed 68 ca 3d 14 28 20 3b 49 46 94 bc fe 12 cb bd
       0.09883294 0.002443795 -0.01809992 -0.09915732
0002a0 e3 eb ef bb 3d 59 96 be 10 7f b8 bb ec f6 2d 3e
       -0.007321821 -0.29364958 -0.0056303814 0.16988724
0002b0 73 9e ea bd 46 9f 7f 3e b3 f4 49 3e 22 ee 86 bd
       -0.11456003 0.24963102 0.19722252 -0.06588389
0002c0 88 b1 86 3e 5e ca 26 3d ef d9 82 bd 96 a6 21 3e
       0.2630732 0.040720336 -0.06389224 0.15786204
0002d0 3a 72 28 3d e4 02 cf bd 61 ca 61 3e 18 6f e1 3d
       0.04112456 -0.10107973 0.22049858 0.110075176
0002e0 27 87 33 be 2f ab 8b be 62 be 07 3e d4 c5 42 bd
       -0.17532025 -0.2727904 0.13256219 -0.047551945
0002f0 03 d1 c1 3d e0 41 96 3d 66 ab 09 3e 68 a7 ab bd
       0.09463694 0.073367834 0.1344429 -0.083815396
000300 93 75 bb 3c 46 75 11 bc f5 37 d1 bd 31 8f 97 bd
       0.022883212 -0.008878058 -0.10215751 -0.074003585
000310 bd fc f2 bc 9c fb 7e 3d b9 37 a0 bd ba 84 62 3d
       -0.02966153 0.062251672 -0.07823128 0.05530236
000320 1f c4 01 3e 7a 4e a6 bd 1c c3 5b bc be c2 64 bd
       0.1267247 -0.08120437 -0.013413217 -0.055849783
000330 1b ae 1c be df ad e7 bd f0 38 34 bd c6 96 d5 bd
       -0.15300791 -0.1131246 -0.043999612 -0.104291484
000340 07 31 eb 3d 07 46 a5 3d ba f2 8a bd 40 c2 b1 bd
       0.114839606 0.08069997 -0.06784578 -0.08679628
000350 85 fd 1e be fe 19 0a be bd cd 4f bd 62 55 f8 3d
       -0.15526398 -0.13486478 -0.050733317 0.121256605
000360 3b 02 f3 3d 3b dd 9a be af 9c b2 3c 68 01 05 3e
       0.1186566 -0.3024691 0.021803228 0.12988818
000370 38 02 2d 3e e1 1a 2f 3e b2 d3 22 bc d8 c9 cb bc
       0.16895378 0.17100097 -0.009938167 -0.02487652
000380 9e d6 7f bd 82 04 b4 3b 1b c4 90 be 12 e5 95 bd
       -0.062460534 0.0054937014 -0.28274617 -0.07319082
000390 15 94 4e bc 11 f5 5b be d0 30 e1 bd 15 fe 0e be
       -0.012608548 -0.21480204 -0.10995638 -0.13964112
0003a0 4c ba fa bd bd e0 1c 3d 8e 8e 23 be bc 35 d7 bd
       -0.122425646 0.038300265 -0.15972349 -0.10508296
0003b0 dd 4b dd bd 50 2b dc 3a 6f c7 40 3d 12 dc 99 3d
       -0.108054854 0.0016797576 0.047065195 0.07512678
0003c0 8b 52 93 ba 4a 69 c9 bd 30 a2 ce 3d 97 fb 99 be
       -0.001123981 -0.098345354 0.100895286 -0.3007476
0003d0 3a 95 11 be 3a 70 b1 bc f8 8a 44 3e c7 8a 9c 3b
       -0.14217082 -0.02165996 0.19193637 0.0047772857
0003e0 f1 5b 9f bd 27 54 04 be e6 2d 2e 3d 2f 58 6b 3d
       -0.07781208 -0.12922727 0.04252424 0.057457145
0003f0 4a de d7 3d 4e 05 a7 bc 4d 54 00 be ca 94 ba bd
       0.10540445 -0.020388272 -0.12532158 -0.091104105

network_body._body_endoder.seq_layers.2.bias f4 [128]
000000 5a ed a9 bd c5 e3 c9 3c a0 fc d4 bc 82 47 b3 bd
       -0.08297224 0.024644742 -0.025999367 -0.087538734
000010 ce 33 04 bc 55 f7 1f bd a9 7b 3f ba 1c e1 65 bd
       -0.008068992 -0.039054234 -0.00073044986 -0.056122884
000020 c8 f0 4b bd e6 31 9d 3c ca 94 7a 3c e7 04 41 bc
       -0.049790174 0.019188832 0.015294263 -0.011780954
000030 4e 5c 60 3c a8 81 29 3b 95 02 95 bc 6f 49 24 bc
       0.013693882 0.0025864635 -0.018189708 -0.010027274
000040 2b 4a 84 bd 80 2b 8f bd 86 cc ce 3a 23 b0 67 bd
       -0.06459459 -0.06990719 0.0015777505 -0.05656446
000050 fa 5e 0a 3c f9 19 db bc f6 8e 0b bd a7 70 c8 3a
       0.008445496 -0.026745783 -0.034071885 0.0015292362
000060 f0 1c 0c bb 02 7c 19 bd ec 29 e1 bc 51 16 8d bc
       -0.0021379553 -0.03747178 -0.02748581 -0.017222555
000070 2e 6a 01 bd d9 07 b2 ba 0e 89 1b 3c 34 79 f9 bc
       -0.0315954 -0.0013582661 0.009493126 -0.030453302
000080 47 e0 b1 3c 87 71 f1 bc cb 7c 40 bd 72 5d 67 bc
       0.02171339 -0.02947308 -0.04699401 -0.0141214
000090 2d 7f 52 bd e9 8f 98 bc 66 f7 85 bd f0 14 ab bc
       -0.051390816 -0.01862331 -0.06541328 -0.020884007
0000a0 ab 7c ae bd 03 e1 8a bc 25 80 4d bd 46 45 a7 3b
       -0.08519872 -0.016952997 -0.050171036 0.0051046936
0000b0 9d 09 4c bd f1 c1 53 bd 05 64 c1 bc e8 90 6b bd
       -0.049813855 -0.05169863 -0.023607263 -0.05751124
0000c0 cd 3d f4 3c 14 3a 3d bd c0 13 d1 bc 89 02 05 bc
       0.029814625 -0.046197966 -0.025522113 -0.00811828
0000d0 56 39 60 3c 13 4f b5 3b 6b d6 ff bc 17 d9 ea bc
       0.013685545 0.005533108 -0.031230172 -0.02866797
0000e0 b2 6f a8 bc f0 a8 d7 bb c2 01 8e bd 47 32 d7 bc
       -0.020561073 -0.006581418 -0.06933929 -0.026269091
0000f0 5e 89 53 3d 2f 90 8f bd ff df 26 bc 84 ac 17 bd
       0.051644675 -0.07009923 -0.010185241 -0.037029758
000100 96 b2 8d 3c 32 08 8a bd 86 3c 31 ba 4a 87 54 bd
       0.01729707 -0.067398444 -0.0006761033 -0.051886834
000110 ad 22 86 bd a8 cb 15 3c 0f a1 2d bd 16 9d 12 bd
       -0.06549583 0.009142794 -0.042389926 -0.03579434
000120 c0 02 c3 bc ce bd 64 bc 30 10 37 bc d5 3c 6e bd
       -0.023805022 -0.013961269 -0.011173293 -0.058163483
000130 22 53 9d bc 0c 1b a0 bb fd 77 08 bc dc ff 10 bd
       -0.01920468 -0.0048860367 -0.008329389 -0.035400257
000140 d8 26 05 3d f3 d0 23 bd 61 86 a3 bc 30 39 9e bb
       0.032507747 -0.03999419 -0.019961538 -0.0048285946
000150 4f b2 00 3d a0 25 17 3d 84 d1 d9 bc a5 3b 24 3d
       0.03142005 0.036901116 -0.026589163 0.040095944
000160 a4 0d 87 bd ca d9 77 bc 37 4b 73 bd 5e 87 10 bb
       -0.065943986 -0.015127609 -0.059397902 -0.0022053341
000170 64 57 2f bc 6b a1 47 bd c2 a5 43 3c f6 a6 46 bc
       -0.010701988 -0.048737925 0.011941375 -0.0121247675
000180 d0 e8 2e bc bf 14 ad bc 8c f0 76 bc 34 e6 ac bd
       -0.010675624 -0.021128057 -0.015071999 -0.08442345
000190 75 18 1d bd 8d d6 09 bd 80 fc 9a bc cf 9a a7 bc
       -0.038353402 -0.033651877 -0.01891923 -0.02045956
0001a0 4b c8 c9 3b a9 f2 f0 bc ef 49 6f bd d2 3f 9c bc
       0.00615791 -0.029412584 -0.058420118 -0.0190734
0001b0 7d 34 42 bc a5 3d da bc c2 d8 17 3c 64 0c b3 bc
       -0.0118533345 -0.026640723 0.009267988 -0.021856494
0001c0 26 68 6d 3c 06 ed c1 bd 54 c3 05 bc e5 e1 7c bc
       0.014490163 -0.09469037 -0.008164246 -0.015434717
0001d0 7d 24 45 bd 6d dc 90 bd 3b d2 a4 bc a7 fd a6 bd
       -0.0481305 -0.07073293 -0.020119777 -0.08153849
0001e0 ea 54 14 bc 2f 10 53 bd 67 45 86 bc 5c ec 3d bd
       -0.009053448 -0.051529106 -0.016390515 -0.046367988
0001f0 9a eb b4 bb e2 f5 65 bd 7b df f2 bb 90 56 cd bc
       -0.00552125 -0.056142695 -0.007411895 -0.02506569

network_body._body_endoder.seq_layers.4.weight f4 [128, 128]
000000 1b c9 a2 bd cb 1b 86 3d c1 04 09 3e 54 1a 97 bd
       -0.07948514 0.0654827 0.1338072 -0.073780686
000010 4c 2c 2c bd 8a 9b 3b bd dd 8d 1b be 33 d1 cc 3d
       -0.042034432 -0.04580263 -0.15190835 0.10000839
000020 9e 72 4c be 1b b9 88 3e 2c db 57 b9 fb 56 a3 3d
       -0.19965598 0.26703724 -0.00020585646 0.079755746
000030 1e ba 85 be 68 dc 0f be a6 78 9b bd 49 a2 b0 3d
       -0.2611856 -0.14048922 -0.07591371 0.086247034
000040 a2 0d 46 3e f3 99 c4 3d d1 d9 d7 3b 1f f2 9e 3c
       0.19341138 0.09599676 0.006587245 0.019402562
000050 10 4e 59 be 08 75 03 be f9 d8 90 bd 11 04 4c be
       -0.21221185 -0.12837613 -0.07072634 -0.19923426
000060 89 08 05 3e d2 30 2b be 41 fc a9 bd 6a a6 84 bd
       0.12991537 -0.16717842 -0.08300067 -0.064770535
000070 0b 91 9d bc 23 ff f2 3c f5 d8 32 3e 63 a5 a1 3d
       -0.019234201 0.029662674 0.17465575 0.07892873
000080 b1 d0 09 be f0 52 8b bc f7 3e d3 bd 49 8f 2a be
       -0.13458516 -0.017007321 -0.10314744 -0.16656221
000090 e1 6a bf bd a2 5f 14 be cf 9a 0f 3d 8c 83 c6 bd
       -0.093465574 -0.14489606 0.035059746 -0.09693059
0000a0 a7 e5 88 3d 34 0f db bd f0 ee 0b 3e 20 4f 64 bd
       0.06684428 -0.10696259 0.13665366 -0.055739522
0000b0 f7 ef 0e bc 28 95 d8 3c 8e 49 46 bc bf 36 92 3c
       -0.008724204 0.02643831 -0.012102498 0.01784837
0000c0 9f 75 db bd a1 00 07 be 23 8c 0f 3e 71 81 55 3d
       -0.10715794 -0.13183834 0.14018302 0.052125398
0000d0 cc 2d 22 be f9 c7 14 be 6a 2d 06 3c f5 9c 12 bd
       -0.15837783 -0.14529409 0.0081895385 -0.035794217
0000e0 48 38 97 bd cc 94 1e 3d 96 e7 6d 3c 85 31 c8 bd
       -0.07383782 0.038716123 0.014520546 -0.0977507
0000f0 f7 47 63 3d f2 77 f1 bd 95 09 26 bd f3 cf 13 3b
       0.055488553 -0.11790456 -0.040536482 0.0022554367
000100 d1 7b be bc 9a 6c 56 be f4 78 fc ba 39 1b 2c bd
       -0.0232524 -0.20939866 -0.0019262121 -0.04201815
000110 d3 3e fd 3c 46 d4 d1 bd ed 3c eb 3b b7 bc 96 3d
       0.030913746 -0.10245566 0.007178894 0.07360213
000120 04 49 1e 3e 4f da 96 ba b9 da ec bc 33 8b cd 3d
       0.15457541 -0.0011509153 -0.028912889 0.10036316
000130 b9 a7 af 3d 01 53 09 3d 09 d6 70 bd 5b f5 9a 3d
       0.085769124 0.033526424 -0.05879787 0.07566329
000140 e9 69 4f bd 5b 07 81 3d d8 ea 2b be b0 ec c0 bd
       -0.050638113 0.06300231 -0.16788805 -0.094201446
000150 a3 5d a1 3d 9a 41 76 3d 13 fc 6b bd c1 91 04 be
       0.07879188 0.060121156 -0.057613444 -0.12946226
000160 10 11 4a 3d 14 23 97 bd a5 1f 7c bd 17 ea 07 3d
       0.04933268 -0.073797375 -0.061553616 0.03318223
000170 c7 a6 4d 3e b5 2e 47 3d b0 fb 1b bd 31 99 9f 3e
       0.20083152 0.048628528 -0.038081825 0.31171563
000180 39 51 1e 3c 4d eb ff 3d cc cb 15 3e d9 7e 88 bd
       0.00966292 0.12496052 0.14628524 -0.06664819
000190 8d c5 eb 3d 7a d5 da bd 66 30 3c bd e8 7b 40 3c
       0.11512289 -0.10685249 -0.045944594 0.011748292
0001a0 ed a5 a0 be 7c d7 25 be 61 58 01 3e 4a ac 07 be
       -0.3137659 -0.16195482 0.1263137 -0.13249317
0001b0 a8 ae 50 3d 31 85 eb bd ac 9b 00 be 6d 38 3f 3e
       0.050947815 -0.115000136 -0.12559384 0.18673868
0001c0 69 85 99 3e 14 fb cf bd 0f ef 45 bd 62 4f 7c 3e
       0.29984596 -0.10155311 -0.048323687 0.24639657
0001d0 b1 be e6 3d c2 e0 44 be 9c f9 a1 bd 35 93 e3 bd
       0.1126684 -0.19226363 -0.07908937 -0.11112062
0001e0 e5 0f 53 bd 70 22 a1 bd 4d ae 2b be 8b 21 a6 bc
       -0.05152883 -0.078678966 -0.16765709 -0.020279666
0001f0 1d d9 d3 3d da 19 bf bc 07 12 5c bd f7 1d f3 bd
       0.103441454 -0.023327757 -0.05372813 -0.1187095
000200 27 57 7e bd f4 46 02 bd 0e 3e 36 3e 2a 8e 38 3d
       -0.062094834 -0.031805947 0.1779711 0.045057453
000210 cc d1 22 be 11 11 2d bc db fd 18 be 34 fd 75 3b
       -0.15900344 -0.010563151 -0.14940588 0.0037534954
000220 2c cd b6 3d b6 c3 cd 3c f2 c1 67 3e b4 e4 f2 bd
       0.08925852 0.025117736 0.22632578 -0.11860028
000230 98 12 75 bd dc 95 00 be b6 7d b2 bc 31 92 7f bb
       -0.059832186 -0.12557167 -0.02178846 -0.003899705
000240 40 ea ca bd fa c0 9d bd ae e5 f6 3c 0b d3 47 39
       -0.09907961 -0.07702823 0.030138817 0.00019056739
000250 2b 23 69 be 0a b3 d1 bd 84 1a 2f be 90 74 67 be
       -0.22767322 -0.10239227 -0.17099959 -0.22603059
000260 89 fc 9e bd ef ce 34 3e 63 49 28 3e 79 48 03 be
       -0.07763011 0.17657064 0.16434245 -0.12820615
000270 11 a1 2c 3c 6a f7 eb bd ac 44 4b 3d f9 0c 26 3e
       0.010536448 -0.115218 0.049626037 0.16215886
000280 e2 49 16 bd 87 a5 fc 3c 1b c0 05 be 03 7b 03 3e
       -0.036691554 0.030840648 -0.13061564 0.12839894
000290 de 13 c9 bd 8d 7a 41 be cd 60 da 3c 8d 43 03 bd
       -0.098182425 -0.18894406 0.026657486 -0.032046843
0002a0 2b 72 64 be cb 9e 69 3b 36 e2 57 3e 8d 38 bf 3d
       -0.22309177 0.0035647627 0.21082386 0.09336958
0002b0 31 b8 a1 3d 22 ca 9d bd 0b d2 f4 3d bf bc a1 3c
       0.0789646 -0.077045694 0.11954125 0.019743321
0002c0 c6 ca 19 be ea b2 80 bd 5c 14 9c bc 84 f4 53 bd
       -0.15018758 -0.06284125 -0.019052677 -0.05174686
0002d0 41 91 69 3d 54 ec 59 bd 93 98 7a bd 85 9c 00 3d
       0.05702329 -0.053203896 -0.061180662 0.03139927
0002e0 4a 43 fb 3d 34 e6 cb ba e2 33 dd bd 0d 82 c9 bc
       0.12268694 -0.0015556277 -0.108009115 -0.024598146
0002f0 56 9b 9a be 77 0c a8 bd 31 e3 d5 3b 14 55 0c bd
       -0.30196637 -0.082055025 0.0065273275 -0.034260824
000300 c7 c9 11 3e 34 69 5f 3b 6f 71 a0 bd fd a5 90 bc
       0.14237128 0.0034089806 -0.07834136 -0.017657274
000310 31 f1 ed bd 72 45 7c bd 3a 08 9b bd ff f6 d1 3d
       -0.11618269 -0.061589666 -0.075699285 0.10252189
000320 cc 2b 57 bd a4 fc 1e bc 26 c0 a7 bb 86 70 57 be
       -0.052532002 -0.009703789 -0.0051193414 -0.21039018
000330 46 a2 aa bc 8c b0 71 bc f9 61 b6 3d 8b 62 b4 3e
       -0.020829331 -0.014751565 0.089054056 0.35231432
000340 14 49 83 be 7f 27 20 3d 80 3b 8d 3e 0a 9a d1 3d
       -0.25641692 0.039100166 0.27584457 0.10234459
000350 90 1b a1 bb 6b c0 03 3d 7e 02 2f bd f7 fd 31 bd
       -0.004916616 0.032165926 -0.042726986 -0.04345509
000360 26 95 09 bc 89 59 35 be 72 bd 09 be 88 f7 8c 3d
       -0.008397376 -0.17709936 -0.13451174 0.0688315
000370 39 6f 8c bd ec 9c d2 3c 32 c5 8f bd 34 63 c2 3d
       -0.068571515 0.025709592 -0.07020034 0.09491578
000380 0c ae ec bd d8 ce 11 bb a2 4b b0 3d 39 47 cf 3d
       -0.11556634 -0.0022248533 0.08608176 0.101210065
000390 e3 03 19 3e ab bc 5e 3e 9b db 00 3e 99 31 6e bd
       0.14942889 0.21751659 0.12583773 -0.05815277
0003a0 19 6b 4f bd 69 1d 6c 3e 44 90 28 be b8 03 82 bb
       -0.050639246 0.23058094 -0.16461283 -0.0039677285
0003b0 e6 e8 7d 3e b5 c4 44 3e 5c 21 28 be 20 ae 99 bd
       0.24795875 0.19215663 -0.16418976 -0.07503915
0003c0 43 72 d6 3d f7 c3 73 bd 23 6f be bc f9 7f ce bd
       0.104710124 -0.05951306 -0.023246353 -0.100830026
0003d0 8a b4 89 bd 12 2c 2e 3d ca 2c 2a be 05 81 e1 3c
       -0.06723888 0.042522497 -0.16618648 0.027527342
0003e0 59 fc 03 bd 7f 64 06 be 0c 00 df bd 99 42 68 bd
       -0.03222308 -0.13124274 -0.10888681 -0.056704137
0003f0 17 bc da bd ef 76 ff 3d ad aa 47 bd c1 96 56 bd
       -0.106804065 0.12473857 -0.048746753 -0.052389864

network_body._body_endoder.seq_layers.4.bias f4 [128]
000000 01 69 4b bd ee ce a2 bd ed 8e 87 bc 54 1d 4c bc
       -0.049660686 -0.07949625 -0.016547645 -0.012458164
000010 80 82 be bc 88 e1 0c bc ac ba 24 3d 06 52 56 bc
       -0.023255587 -0.008598693 0.040217087 -0.013081079
000020 92 8f ea 3c 7e 76 11 bd d4 d1 b0 bc 4c 03 2b bd
       0.028632913 -0.035513394 -0.021584429 -0.04175119
000030 c9 d7 6d bd b9 bf 95 bc 3c c1 1c bd ef 36 0f 3c
       -0.058067117 -0.018279897 -0.03827022 0.0087411245
000040 82 3c 33 bc 31 47 bd bb c4 99 0f bd b9 05 4d bc
       -0.010939719 -0.005776309 -0.03505875 -0.012513571
000050 27 03 8d 3c d0 52 27 3c 24 04 3a 3d af 27 13 bd
       0.017213417 0.010212615 0.045414105 -0.035926517
000060 88 02 b9 bb 11 4c 6d 3d 91 59 39 bd af 42 c2 3c
       -0.0056460537 0.05793387 -0.045251433 0.023713438
000070 9d 87 f3 3c f9 79 54 bd 8b df 87 3a b3 48 37 3b
       0.029727751 -0.051874135 0.0010366304 0.0027966916
000080 a4 76 d3 bc 05 a9 fd bb f0 1c a9 3c 28 f3 55 bc
       -0.025813408 -0.007741096 0.020643681 -0.013058461
000090 4c 6e e2 b9 37 7c a3 bc d0 9d 04 bc e8 57 a5 3d
       -0.00043188257 -0.019956691 -0.008094266 0.080734074
0000a0 a9 63 02 3d 25 7f b7 3c 5f 6f fb 3a 10 31 04 bd
       0.031833325 0.022399494 0.0019182971 -0.032273352
0000b0 c4 31 e4 3c c0 f2 01 3c d2 7f e1 bb a8 73 15 bd
       0.027855761 0.007931411 -0.0068816924 -0.03648725
0000c0 2d a8 79 3b 3e d1 e1 bc c7 7b b8 bc c4 93 2e bd
       0.0038094625 -0.027565595 -0.02251996 -0.04262139
0000d0 86 99 a6 b8 09 e6 36 ba 05 3c 59 3c 3a c3 2e bd
       -7.944093e-05 -0.0006977027 0.013258939 -0.04266665
0000e0 44 c4 3f bd 71 17 db bc 2e fa c2 bc f5 b4 89 bd
       -0.046818033 -0.026744576 -0.023800936 -0.06723968
0000f0 f5 7e 0e bd 87 6e b9 3b 17 b5 04 bd 52 a2 ab bc
       -0.034789044 0.005658928 -0.032399263 -0.020951424
000100 a0 cb 86 bc d6 89 10 3d f4 67 1c bd ab 58 06 bd
       -0.016454518 0.0352877 -0.038185075 -0.032799404
000110 09 27 07 bd 8f 35 ce bb 63 83 f8 bc f0 d2 06 bd
       -0.03299621 -0.006293006 -0.030336088 -0.03291601
000120 d4 f9 9d bc e6 ef 05 bc fd a2 de 3c 84 a9 9c 39
       -0.019284166 -0.008174872 0.027177328 0.00029880938
000130 3b ff 57 bc 0c 07 b5 bb 75 2e 9d bc 45 86 ce bb
       -0.01318341 -0.0055245217 -0.019187192 -0.0063026273
000140 ad ca 7a bd 4b 4f 25 bd f9 6f 95 3c 9f cc 05 3c
       -0.061228443 -0.040358823 0.01824187 0.008166461
000150 d1 2a 23 3d ad 52 7f 3c 17 6e 82 3d 90 91 d5 3b
       0.039835755 0.015583676 0.06368654 0.0065175965
000160 4e 3e d3 bc 12 df 09 bd a9 08 9b bb bf 80 9d 3d
       -0.025786545 -0.033660002 -0.004731257 0.07690572
000170 bd a6 cd bc 69 88 15 bd 79 56 eb bb 67 cd cd bc
       -0.025103921 -0.036507044 -0.007181939 -0.025122358
000180 3a c7 4b bc 53 06 d3 bb 80 b0 ed bc 5c 7f 1a bd
       -0.012437636 -0.006439963 -0.029014826 -0.037719116
000190 ac 09 d1 bc bc 13 1e bd 68 3b 97 bb a2 50 80 bc
       -0.025517307 -0.03859304 -0.004615236 -0.015663449
0001a0 6d 73 a2 bc b9 37 b2 3c 73 f4 3c bd df 75 99 bc
       -0.01983043 0.021755086 -0.046131562 -0.018732963
0001b0 ff 37 09 bc 67 13 2f 3d 18 b4 da bc ae 09 f6 bb
       -0.008375167 0.042743113 -0.026697204 -0.007508478
0001c0 da 8a 1e bc 2e 55 05 bc 35 ea 46 bc 3d 76 35 bc
       -0.0096766595 -0.008137984 -0.0121408 -0.0110755535
0001d0 8d aa 15 3b dd 52 11 3b b9 42 3a bd c0 81 cf bc
       0.0022837252 0.0022174635 -0.045473788 -0.025330424
0001e0 f5 86 1e bd 1f 66 38 3c 5a ff a6 3c c3 c8 c3 3a
       -0.038702924 0.011254816 0.020385433 0.0014937151
0001f0 48 c6 3d bd 6a 34 d3 bc cc d5 96 bc f1 f6 f5 bc
       -0.046331674 -0.025781829 -0.018412493 -0.030024977

action_model._continuous_distribution.log_sigma f4 [1, 2]
000000 97 5c eb be d7 b9 9b be
       -0.45969078 -0.30415222

action_model._continuous_distribution.mu.weight f4 [2, 128]
000000 64 fc 9f 3d 08 2b 11 3d 50 29 8a bd 18 0e 9b 3b
       0.078118116 0.03544143 -0.06746161 0.0047319047
000010 e6 1d 1a bb fe da ab 3a fa 5b e4 bc 50 0f fe ba
       -0.0023516356 0.0013111529 -0.02787589 -0.0019383226
000020 dd 3c d9 bd 6d c6 4c 3d eb 2b 88 ba aa 82 a7 3d
       -0.10607312 0.04999392 -0.0010389065 0.08179219
000030 55 90 44 ba 2d 76 07 3b 21 82 2a bb 10 f2 35 39
       -0.0007498314 0.0020669803 -0.0026017504 0.0001735168
000040 37 4f 9e bd aa 04 72 3d bc c9 15 3a 45 8c 17 bb
       -0.07729953 0.05908648 0.00057139597 -0.0023124379
000050 c8 28 08 3b 51 54 f0 b9 ed a0 06 be c6 dc 2a bb
       0.002077626 -0.00045839188 -0.13147326 -0.0026071533
000060 46 64 62 bb 06 82 e5 bd e9 2e 19 3b dc f4 07 3e
       -0.003454463 -0.11206441 0.0023373908 0.13277
000070 6b d2 c4 3a 20 7f 67 b7 7f 84 f7 3d 30 3e 64 3d
       0.0015016323 -1.37982715e-05 0.120858185 0.05572337
000080 01 31 bf 3b 07 e1 1e bb f3 d3 dd 3a 1b 6e 0b bb
       0.005834699 -0.0024243013 0.0016924128 -0.0021275345
000090 0e 7e 9c b8 0f ff 60 bd 07 cd ff 3c 2a e9 d1 bd
       -7.462139e-05 -0.054930743 0.031225694 -0.10249551
0000a0 30 f0 b0 bd bd 31 49 3b 8c 86 a9 ba 98 5b d0 ba
       -0.08639562 0.0030699812 -0.0012933775 -0.0015896438
0000b0 d8 57 01 be b8 57 7d ba 29 81 86 3b f8 36 99 3c
       -0.12631166 -0.0009664255 0.0041047526 0.018702969
0000c0 3b cb 58 bd 7f ed 4c ba 96 74 0d 3e 6f fa 1b 3d
       -0.05292819 -0.0007817372 0.13814005 0.03808063
0000d0 6b 48 44 ba c9 a2 01 ba f9 e2 8b 39 2d ef 8a 3a
       -0.0007487598 -0.00049452164 0.00026681254 0.0010599844
0000e0 7c f9 22 bd 23 4b 00 bd 4a 9f ac 3c 36 4e 31 bb
       -0.039788708 -0.031321656 0.021072049 -0.0027054674
0000f0 3b 93 29 bd ab f7 ca bd 1e 4f c5 ba 0b 60 db bd
       -0.041400176 -0.0991052 -0.0015053486 -0.10711678
000100 28 8a be 3d 92 13 ee bc 84 95 5b 3a 66 11 6d 3b
       0.09303695 -0.029062066 0.00083764666 0.00361737
000110 78 db 6f 3d ea 90 d1 3a 9a 23 14 bc 8e 9c 19 bd
       0.05855891 0.0015988622 -0.009041691 -0.037502818
000120 a2 09 07 bb ce 12 a0 ba cc 87 0f ba 82 69 d2 3a
       -0.0020605107 -0.0012212635 -0.00054752524 0.0016053172
000130 b8 af af 3c 56 15 32 ba e9 8c 02 3b b6 a5 df 3d
       0.021446094 -0.00067933404 0.0019920415 0.10920279
000140 e6 c9 dc 3d 0b 90 99 bc b7 b2 b4 3a 73 c4 8c 39
       0.107806966 -0.018745443 0.0013786171 0.00026849247
000150 e7 ca d9 ba 36 b4 70 ba 6d 8d 0c be f0 16 85 ba
       -0.0016616256 -0.0009182127 -0.13725825 -0.0010153931
000160 15 0e 64 bd 66 3c 1c bd b6 06 38 3a 2a e4 cd bd
       -0.055677492 -0.038143538 0.0007020043 -0.100532845
000170 4d 11 0d ba a7 f1 99 bc ee 4d f8 ba c4 7e 8e ba
       -0.0005381301 -0.018791987 -0.0018944123 -0.0010871519
000180 ba 2f e8 3a 15 71 d0 bd a5 d0 2c 3e 2e 47 89 bb
       0.0017714419 -0.10177819 0.16876467 -0.0041893935
000190 ce 65 2a bb 88 25 3c 3b 02 29 2b bb c8 78 1c 3b
       -0.0026000622 0.0028708894 -0.0026116972 0.0023875702
0001a0 07 ed 32 bc 59 c9 df 3a b1 73 93 bc 1b 81 90 39
       -0.01092077 0.0017073556 -0.017999502 0.0002756201
0001b0 57 b1 b7 3a c3 58 b5 bd b3 b5 cb bc 48 9c 3a 38
       0.0014014643 -0.088548206 -0.024866914 4.4491404e-05
0001c0 f9 4b 45 bb 13 4c 96 3b a1 2f 3c 3d c7 a9 f4 ba
       -0.0030105098 0.0045867055 0.04594386 -0.001866632
0001d0 c4 fc 38 bb b0 fe bd 3a 49 c8 ea 3d 99 49 84 ba
       -0.0028226832 0.0014495458 0.114639826 -0.0010092735
0001e0 53 a6 16 39 8e 9a 07 b9 32 84 83 3c 32 da 36 3a
       0.00014367075 -0.0001293218 0.016054247 0.00069752627
0001f0 30 1e 14 3d 45 e3 b0 bd 1e 9f ca 37 2b d0 be 3c
       0.0361616 -0.08637098 2.4154371e-05 0.023292622
000200 eb 28 3b 3d 6b 47 51 bc af cf 93 3c 2e 45 ef 3d
       0.04569332 -0.012773375 0.018043367 0.11683117
000210 bc f6 b8 b9 9f fb 60 3b 93 e3 14 3e 1d d9 92 bb
       -0.00035279046 0.0034329665 0.14539938 -0.0044814483
000220 f7 99 50 3d 29 6b 03 3d 33 23 71 ba f5 28 e6 3c
       0.050928082 0.032084618 -0.00091986655 0.028095702
000230 e5 b7 41 3a 83 3c 06 3b 30 28 85 ba 07 c2 f1 ba
       0.0007389768 0.0020482845 -0.0010159072 -0.0018444665
000240 3c dc 37 3d 6a f3 98 bd 97 a1 1a 3b 5b be 2b 3a
       0.044887766 -0.074683025 0.002359485 0.00065514975
000250 ba 05 f9 39 ea 81 27 bb a5 0d 10 3d 58 c6 bf 39
       0.00047497248 -0.0025559613 0.035169262 0.00036578136
000260 03 de 9f bb fb 69 ac 3d 04 3b 9a 3c ab b2 c4 3d
       -0.004878761 0.08418652 0.018826969 0.09604391
000270 10 8a d1 3a 32 cb 79 ba bb fa bf bc f3 a8 d4 bd
       0.001598658 -0.00095288747 -0.023434987 -0.10383787
000280 44 a0 9d 3d ec fd 9b ba ef 92 23 3a 32 48 65 ba
       0.07696584 -0.0011901236 0.00062398514 -0.00087464147
000290 68 13 37 3b 4c 5a 68 3d 27 96 c1 3d 9a 61 fb 3d
       0.002793515 0.05672674 0.094524674 0.122744754
0002a0 bf 35 c2 3d a2 f2 1b b9 7c b0 7a ba fc f6 01 bb
       0.094829075 -0.0001487234 -0.00095630414 -0.0019831052
0002b0 ac f6 13 3c cb 29 6d 39 33 eb 5b 3b 2f e5 8f 3d
       0.009030979 0.0002261765 0.0033556938 0.07026135
0002c0 a1 32 97 3d 94 ce 4a 3b ab 68 33 b9 bc 81 0f bd
       0.073827036 0.0030945884 -0.00017109762 -0.035035834
0002d0 f6 a6 13 3a d6 78 08 bb 78 bf d2 3a 20 dd 31 b9
       0.0005632484 -0.0020823977 0.0016078791 -0.00016962411
0002e0 96 fd 8d 3c 28 b8 83 3d 0f ed e5 bc b8 48 89 ba
       0.017332833 0.064316094 -0.02806714 -0.0010473942
0002f0 eb de 89 bd 29 28 82 3c fc 61 0c b9 4f 4c 23 3d
       -0.06731971 0.01588829 -0.00013387942 0.039867695
000300 b4 08 83 3d b5 d4 eb 3d 5b fb d7 3a d0 a5 a9 3a
       0.06398144 0.1151518 0.0016478108 0.0012943093
000310 25 8b 32 bc e0 ae 2f 3a 31 ff 6e 3d 5c 20 99 3c
       -0.010897432 0.00067017786 0.05834884 0.018692188
000320 41 f8 10 bb 00 70 6d bb ae 03 45 ba 98 c8 ba b9
       -0.0022120627 -0.0036230087 -0.0007515502 -0.0003562614
000330 00 9a 07 bd 55 9f f1 ba 19 a3 21 3b 7a 30 88 3d
       -0.03310585 -0.0018434325 0.0024663864 0.06649871
000340 0f 7f eb 3c 18 80 42 3a b8 ed 75 3a 1c 44 cd b9
       0.02874711 0.00074196 0.0009381431 -0.00039151392
000350 18 f0 d0 ba 7f a6 8d ba f3 e9 93 3d 70 42 00 bb
       -0.0015940694 -0.0010807066 0.07222357 -0.001957085
000360 c2 e1 8b bc f3 18 c6 3c 02 3e 10 3b 71 4b 01 3e
       -0.017075423 0.024181819 0.0022009616 0.12626435
000370 72 5d 42 ba fe 28 b1 3d bd 9e 8c bb 63 c6 2d ba
       -0.0007414437 0.08650397 -0.004291384 -0.0006628988
000380 c5 d2 49 bb a9 9d fe bc 5e 6a 8a 3b 4f d1 18 3d
       -0.0030795794 -0.031081038 0.0042241057 0.037308987
000390 08 a6 1d 39 20 36 f2 39 64 1f bc bb 0c 12 5e bb
       0.00015034538 0.00046198163 -0.0057410467 -0.0033885268
0003a0 2d d3 41 bb ec 5c 68 3b 08 23 8a bc 6a 88 e4 39
       -0.0029575333 0.0035455776 -0.016862407 0.00043589185
0003b0 33 1a 0a 3b 25 70 a4 3d ba da 4a bd 7b 77 66 b8
       0.0021072745 0.08029202 -0.049525 -5.4947548e-05
0003c0 b8 7b a6 bb b3 57 00 b9 b3 d6 b6 bd d6 fa a4 3a
       -0.0050806664 -0.00012239702 -0.089276694 0.0012586962
0003d0 9e ed da ba 03 0e 1e bb e9 d8 a7 3d 5f be 80 ba
       -0.0016702896 -0.0024117238 0.08195669 -0.000982236
0003e0 db 71 fd 3a cb 42 0d bb 91 11 10 3e d2 37 1a 3a
       0.00193363 -0.0021554704 0.14069201 0.00058829517
0003f0 75 b9 be 3c 68 8a 61 3c 34 ad 7d ba 11 bb cb bc
       0.023281792 0.013765909 -0.00096769934 -0.024869474

action_model._continuous_distribution.mu.bias f4 [2]
000000 ec ea fd bc ca b7 fb 3b
       -0.030995809 0.0076818215
