Assets/ML-Agents/Training Files/results/9roads_imitation_gailOnly_MonzaNewChkptReachRwd/VehicleAgent/VehicleAgent-11665095.onnx (onnx, 156328 bytes, 9 tensors)

network_body._body_endoder.seq_layers.0.weight f4 [128, 38]
00000000: faf9 e0bb 453a e33b 74ac 30bb 9b7c da3e
00000010: 5960 0cbd f384 623e 40f6 003e 0525 27be
00000020: ae82 133e c4d4 233e 273f d7bd a760 513d
00000030: 4308 333e 9d40 123e f41e 8539 c13f 20bd
00000040: 28f2 d1bd f97e 053d 1cba 0bbe 1bca a33c
00000050: 9fe2 b6bd f8a3 583e fde2 5abe c65e 9dbb
00000060: db13 433e ffd9 12bd ceb1 5d3e abdc f5be
00000070: 6f24 0abe 2a8d 313d fa81 4f3e 3d75 f13d
00000080: a445 583c 410f 233e f05d a73e dc6f 3f3d
00000090: 21e7 6a3c 4005 033e 8e7e 49bd 5e1e 6d3e
000000a0: 7111 453e 610e 26be b6a4 34be de14 6e3e
000000b0: 46fb 673d 78a6 5a3e ac8d 67bd 5359 d63d
000000c0: e788 103f 2a4e 1c3e bd52 4f3e 3892 5c3e
000000d0: d4bf b83d c1ea 70bd 8232 20be 2292 9e3e
000000e0: 6da6 813e 8e25 2e3c d33e 123d d1fc 4f3d
000000f0: 2002 0f3d 165b 16be d0bc 16be f01b fe3d
00000100: e407 25bd 432b aa3d a7da 6dbd a683 9cbe
00000110: a91f 943e f6d0 8c3e bc64 d7bd f79c 47be
00000120: 3a29 7438 e3a4 3dbe 77ce 793e 110e f1bd
00000130: 9068 28be 225b c2bd c3ce 963d a7d4 613e
00000140: 1ba6 8bbd 43bf 1dbe 4efb 12be 24c3 763e
00000150: 65d1 89bd a8d4 a8bc a73a a33e cc56 0c3e
00000160: 3d26 2f3e 7f00 263e 7657 27be 1ec7 9ebd
00000170: 05af 4cbe 662d 5fbd b830 e13d 2fd5 42be
00000180: 11ae 38be e500 9abe 70e9 24be 1bf7 2cbe
00000190: 7c88 423e 217c 19bd 670d b5be d657 69be
000001a0: 8528 db3d 0bbd b1bd 0778 8fbd ecbf 143e
000001b0: 704d a5bd 3ce1 10be 25f6 9a3d 3ff6 be3b
000001c0: e429 673c f824 73bd db27 133d 4eb6 ddba
000001d0: b517 3b3e 46ed fc3b 8477 6bbc aaf5 0fbf
000001e0: 1be7 30be 2c23 143d 0ef0 f53e 332a 573d
000001f0: 9a60 99be b71b 533d 842f 0abd d298 a0be
00000200: 0974 233e e98d 1bbd 7e42 5dbe 6194 833e
00000210: c98f 0f3e fab4 e7be 1211 443d 460e f03c
00000220: 464d 4c3d 4e69 1fbb 2bd1 d93d 674f e83e
00000230: 99f2 97bd b84a 813e 9cd8 0e3e 79af 503e
00000240: 6856 d5bd c0ef 183d 08ec 21be dc5c 5e3e
00000250: b1fd 4cbe 3904 abbd 5129 9dbd ed08 19be
00000260: b3e8 5a3e 4fa2 233e efb7 2ebd fedb 3d3d
00000270: 23a1 933d a160 5ebd 1b4f 813d ac4a 59be
00000280: abe9 a7be 99a0 b5be a8bc 513c 7150 bfbc
00000290: f73b 00bc e923 203e e2ee cf3c badd 1e3e
000002a0: 76c5 dcbc 0d9b 90be 9ff0 00bf 116d 9a3d
000002b0: aa80 a3bd 8b65 483e 0c47 99be ffe7 d73e
000002c0: 5aab fbbc 6625 d93e a42c 97be 99a1 9ebe
000002d0: a9bf 273d d77b 27bd f877 30be bfd4 4e3e
000002e0: 474c b0be a874 013d 8168 dabd 3739 fbbd
000002f0: 1fa9 1b3e 8451 3f3e 9f1a 973e c60c 18bc
00000300: 6a11 9e3e c475 5b3d 36bb 8fbe 20b7 80bd
00000310: 0c23 7fbd ac42 2cbd eee2 fcbc c76b 77be
00000320: 6123 303d 06e6 aebe 7d76 763e 8241 673e
00000330: d0c2 933c 0313 b73e 2aea 85be 4392 90bd
00000340: 5240 ad3d 0b5a e8bd b15e 7fbe 82d7 053b
00000350: 2bc5 873d e7eb 983e ccbd 823e e2f7 913e
00000360: 7c4f da3d f677 33be 64e2 3dbc e5fb 7fbe
00000370: eb30 693d 4ce7 dbbb b98f 043e e51f 823e
00000380: 77ef 1d3d b24f 563e 8b1a b1be 3b38 1bbe
00000390: df6e 073c cf1e 3d3e e3a0 ae3d cae3 8d3e
000003a0: 7143 6ebe 0d80 5cbe fa72 99bd ad3e 383e
000003b0: 2ffc 9abe 937f da3d bfc3 d93c b096 c63c
000003c0: c1db c93d abbb 133e fc70 05bf 0a62 97be
000003d0: 55f6 f8bd 84e3 a4be e299 98be c824 8c3e
000003e0: 50ee 97bb 4671 0c3d ba58 763e 0ea8 a03c
000003f0: 6fd3 89be 217e ebbe a7cd 833c 69b3 09be
-0.006865737 0.0069344365 -0.0026958259 0.4267319 -0.03427157 0.22121029 0.12593937 -0.16322716
0.14405319 0.15999132 -0.10510092 0.051117565 0.1748362 0.1428246 0.000253908 -0.0391233
-0.10251266 0.032591794 -0.13645214 0.019993832 -0.08929943 0.21156299 -0.21375652 -0.0048025576
0.19050543 -0.03585243 0.21649858 -0.4801992 -0.13490461 0.043347515 0.20264426 0.117899396
0.013200197 0.15923788 0.32688856 0.046737537 0.014337332 0.12794971 -0.049192958 0.23156115
0.19244935 -0.16216423 -0.17640957 0.23250148 0.056636117 0.21352565 -0.056531593 0.10466256
0.56458896 0.15264192 0.20246406 0.21540153 0.09020963 -0.05881763 -0.15644267 0.30970865
0.25322285 0.010629071 0.035704445 0.050778214 0.034914136 -0.14683184 -0.14720464 0.124076724
-0.04029073 0.08309033 -0.05806985 -0.3056919 0.28930405 0.27503175 -0.105172604 -0.19493471
5.821253e-05 -0.1851993 0.24395166 -0.11770261 -0.16446137 -0.094900385 0.073636554 0.22053777
-0.068187915 -0.15404992 -0.14353678 0.24097878 -0.06729392 -0.020609215 0.31880686 0.13704985
0.1710443 0.16211127 -0.16341957 -0.07752822 -0.1998864 -0.054486655 0.109956205 -0.19026636
-0.18035151 -0.30078807 -0.16104674 -0.16891138 0.18997377 -0.037471894 -0.35361788 -0.22787413
0.10701088 -0.08678635 -0.07005315 0.14526337 -0.08071411 -0.1414842 0.075664796 0.0058276947
0.014109109 -0.059361428 0.03592668 -0.0016915293 0.18270762 0.007718715 -0.014371756 -0.5623423
-0.1727566 0.036166355 0.4803471 0.05253048 -0.29956514 0.051540103 -0.03373672 -0.31366593
0.15962233 -0.037977133 -0.21607396 0.25699142 0.14019693 -0.45255262 0.047867842 0.029303681
0.04987838 -0.002432424 0.10635599 0.4537308 -0.07419319 0.25252318 0.13949817 0.20379438
-0.10416871 0.03733802 -0.15812695 0.2171511 -0.2001865 -0.08350415 -0.07673896 -0.14944811
0.2137783 0.15979885 -0.04265588 0.04635238 0.07208469 -0.05429137 0.06313916 -0.21219891
-0.32795462 -0.3547409 0.012801327 -0.023353787 -0.007826797 0.15638699 0.025382463 0.1551427
-0.026949625 -0.28243294 -0.5036716 0.07540334 -0.07983525 0.19569986 -0.29937017 0.42169186
-0.030721355 0.42411345 -0.29526246 -0.30982664 0.040954266 -0.040889587 -0.17233264 0.20198344
-0.34433195 0.031605393 -0.10664464 -0.12266772 0.15201233 0.1868344 0.29512498 -0.009280389
0.3087266 0.053579107 -0.28072518 -0.06284928 -0.062289283 -0.04205577 -0.030869927 -0.24162208
0.04300249 -0.3415987 0.24068637 0.22583583 0.01803723 0.35756692 -0.26155216 -0.07059147
0.08459534 -0.11345299 -0.24938466 0.0020422642 0.06629404 0.2986748 0.2553543 0.28509432
0.10659692 -0.1752623 -0.01158962 -0.24998434 0.056931417 -0.0067109223 0.12945451 0.2541496
0.03855845 0.20928839 -0.34590563 -0.15158169 0.00826618 0.18468784 0.085267805 0.27712852
-0.23267914 -0.21533222 -0.07492633 0.17992659 -0.30270526 0.10668864 0.026582597 0.024241775
0.09856368 0.14427058 -0.52125525 -0.29566985 -0.12156359 -0.3220483 -0.29804903 0.27371812
-0.0046365634 0.034287713 0.24057284 0.019611385 -0.26919124 -0.45994666 0.016089274 -0.13447346

network_body._body_endoder.seq_layers.0.bias f4 [128]
00000000: 6215 f0bd 46e0 97bd 50f1 1a3d 8443 c3bd
00000010: ca03 463b ac71 c03b 82ee a03d af55 d1bd
00000020: 5e1c 44bc c1ae 463d bd49 39bd eb32 c2bc
00000030: ecf1 353c 98ba 8e3c 9bed 95bb b94f 36bd
00000040: efea b63c c79b 6fbd 9650 703c b019 143b
00000050: c91e 4fbd 1881 34bd a65c efba 1631 8c3d
00000060: dbd0 1bbd 21d2 8cbd d000 c2bc 7aa2 ec3c
00000070: 1230 2ebd c22a 013c 3f69 3a3d 5328 c53c
00000080: 67a3 03bd ac6a 8b3d 40cb 083c b01f 11bc
00000090: d07b 063b d4a9 5dbc a6e2 00bc 1d32 3b3d
000000a0: 44e1 433d ae10 fdbc ab17 3eb9 ce1a cc3c
000000b0: e8ca d1bd 3b08 513c 649e 053d 54a6 8d3c
000000c0: 0341 943d 103c 5dbd 75f9 89bc 1bec 483a
000000d0: fec4 02bd e080 86bc d549 5c3d cf99 db3b
000000e0: 3d7e f83c 16a3 f93b 1571 b33b fda5 b93c
000000f0: ad97 a3bd 981d 12bd 075a 743d c43d 84bc
00000100: dcf5 d13b 3d4d f8bb b1bf 543d 2244 463d
00000110: 47d4 bbbc db0f 343d ba62 a0bc cad4 843d
00000120: b07e 993d 0388 31bb 4e3c 9f3c 56f1 523c
00000130: 56fb eb3a afe0 81bd 5e5c e03c 5c42 d3bc
00000140: fff0 443d 0330 5c3d c66d b7bb eda5 f1bc
00000150: beeb 93bd aa78 a8bc c9dc 63bd 3b7f 973d
00000160: 925b f8bc e28b 1bbc 9987 d33c c106 1fbd
00000170: ca69 b9bc 2510 433d e771 1f3c 5cbd 8cbd
00000180: a36c 07bd 68ea 8e3c 0f07 7d3c c58f d5ba
00000190: 0f2f 9e3c b07b 923c 4dad a6bd 85ea 46bc
000001a0: 64f9 e5bb c2d7 bfbd a3ea 8dbd 9021 783b
000001b0: 350d 9c3d 828d b9bc 791e fe3c a740 c43c
000001c0: b59a 47bd 955e 433d 1d95 a9ba cf68 7b3c
000001d0: 8796 4d3d c1b9 aabd 3533 9e3d 7d3b 8dbd
000001e0: c120 41bd 0ac9 163d cc3e 02bc d056 a63d
000001f0: ee62 c33c 70ab 14bd b1f9 8cbd 913d 35bd
-0.117228284 -0.07415824 0.03782779 -0.09534362 0.003021466 0.0058729257 0.07857992 -0.10221421
-0.011969654 0.048506502 -0.045236338 -0.02370592 0.011105042 0.01742296 -0.004575444 -0.044509623
0.022328822 -0.05849817 0.014667651 0.0022598319 -0.05056647 -0.044068426 -0.0018261864 0.068453
-0.038040977 -0.068760164 -0.023682028 0.028886069 -0.042526312 0.007883729 0.045510527 0.02406708
-0.032138254 0.068074554 0.00834924 -0.008857653 0.0020520575 -0.01352926 -0.007866537 0.04570209
0.047822252 -0.030891743 -0.00018128629 0.024915125 -0.102437794 0.01275831 0.032621756 0.017291225
0.072389625 -0.05401236 -0.016842583 0.0007664577 -0.031926148 -0.016418874 0.05378135 0.006701685
0.030333633 0.0076183183 0.005476127 0.022662157 -0.07987914 -0.035672754 0.05965617 -0.016142733
0.0064074825 -0.007577567 0.051940624 0.04840482 -0.02292837 0.043960433 -0.019578326 0.06485899
0.07494867 -0.0027089126 0.019437935 0.012874922 0.0018003981 -0.06341683 0.027387794 -0.025788479
0.048081394 0.053756725 -0.005597803 -0.029498065 -0.07222699 -0.02056535 -0.05563048 0.07397314
-0.030317102 -0.0094938 0.025821494 -0.0388248 -0.022633452 0.04762282 0.009731746 -0.06872055
-0.03306259 0.017445758 0.015443577 -0.0016293457 0.019309549 0.017881244 -0.08138523 -0.012140875
-0.007018255 -0.093673244 -0.06929519 0.0037861802 0.076197065 -0.022650484 0.03102039 0.02395661
-0.048731524 0.047697622 -0.0012938116 0.015344813 0.050192382 -0.08336211 0.07724611 -0.06896112
-0.047150377 0.03681282 -0.007949542 0.08122027 0.023850884 -0.036296308 -0.06883562 -0.044248167

network_body._body_endoder.seq_layers.2.weight f4 [128, 128]
00000000: 3178 2ebd 0699 1dbd b79c 763d 4c6a 7dbd
00000010: 2d59 16bb afc7 babd 552f 90bd 711d 1bbb
00000020: fbb6 203e c710 1e3d a3b4 bb3d b2b2 b23d
00000030: ec16 043e 5feb b73d ef02 f4bd a600 e73c
00000040: 5580 8cbd 123a dabc a872 05be 6c4f 923d
00000050: c2e9 8dbd 06cd e4bd 3bbc 9dbd 9c1f 71bc
00000060: 85b2 e83c 30cf a03d fedb bb3d 300d 613c
00000070: 0f60 dc3d 9e72 15bc 4737 453e 0e9d 803d
00000080: fb29 fd3c 75b9 233d 4ff8 813c d92c 403d
00000090: 8532 f63c 3b7e 133e 3478 2b3e a91e bb3d
000000a0: 5b28 63bd 8b47 d83d 3cf7 3e3d 05a3 24be
000000b0: cc00 52bc db78 7a3e ceb6 0ebd 0024 b4bd
000000c0: 09ca 983c 2758 de3d 174b 95bd 5d10 45bd
000000d0: 3767 033e 5477 26bd a4b6 c8bc 6520 073e
000000e0: 7de9 da3d 319a 7e3d 24af 3dbc b205 a73d
000000f0: ee4a 143d bcda 3b3d 86c0 f2bd 0d58 b2bd
00000100: 1a5d 383d cea6 27bd 4a66 a6bd fb45 f13c
00000110: f3a1 a0bd 0c6e 9a3d c7bf d7bd 5d0e 15be
00000120: 0a42 8abd a07c 01bd 5555 67be 01b0 59bc
00000130: de4c 93bd bc81 483e 0ca2 7f3d d8a6 393c
00000140: 9f5b bc3c 072c f63d e535 8abd 5343 24be
00000150: 9e29 0b3e 5f9d d0bd 9638 243e 00b4 893c
00000160: 5832 b43c 4e51 6c3d bd14 203e fa82 173e
00000170: 2bdf 4dbd ba88 493d 0b15 1f3d 95f5 f43d
00000180: 6f12 35bd aa9e e6bd 4d33 aa3e 88c4 093e
00000190: 575a 85bd f322 ef3d ba49 97bd a99a 3c3d
000001a0: 6fa3 16be e573 e1bd 81ab ff3c 8c90 033e
000001b0: 3472 55bd e5e6 ae3d 43bf 553d c65d 65bc
000001c0: d085 7d3e 61c9 2c3d e1fe 8e3d fb57 0a39
000001d0: 6d0b 33be 329d 9cbd df4c ab3d fda0 bbbc
000001e0: 7370 143d 1664 e4bd b8b7 4f3a 9e2c b4bc
000001f0: 2f91 f83c 1340 553e 8ed1 c9bd 4a6c 003d
00000200: eed9 81bd eed5 b73d 7bab dbbc 4fc7 303e
00000210: 260e a9bd 27e9 043d b9d5 acbd f8f5 bdbd
00000220: ede7 9e3c c154 233e e53b c4bd 6668 b7bc
00000230: 418c 703e 1621 833d ba4c 82be 19e6 18bc
00000240: dd75 2ebe f872 d23d 71a1 64be ee6d 19be
00000250: ceb2 c8bd dbb0 efbd 7c1b 393d 4fd0 253e
00000260: e571 c3bd 2b41 87bd f1e7 22bd 560a 3a3e
00000270: f0e8 a23b 0d4f ec3d 043f 293e 4076 4a3c
00000280: c54f a3be 8d6d 403e a391 44be 4b92 29bc
00000290: 8d41 c83d 0135 0ebb fed1 46bc a708 d1bd
000002a0: fa85 68bb 3489 95be 0ee3 a9bb 7f93 313e
000002b0: 9703 f8bd 57cf 7e3e aead 4c3e 0a2d 84bd
000002c0: 1626 893e 7685 1e3d cbfa 7fbd 5a4b 213e
000002d0: d7dd f93c e6e4 c7bd 9ba6 603e 2133 f43d
000002e0: 8c2e 38be 5409 88be fa8f 073e f66d 01bd
000002f0: aa00 c43d f984 9d3d 4c5e 133e 4018 b6bd
00000300: b1be bc3c f469 35bc 6ea9 c5bd 2ec0 9cbd
00000310: 994d 00bd 803c 8c3d d093 afbd 2273 653d
00000320: da46 063e d7bf 98bd 4e9d 82bc 5a33 79bd
00000330: f2f2 22be eadd e6bd fe06 06bd dacb d8bd
00000340: 05c7 df3d 0006 af3d 3d9c 89bd 97d6 c2bd
00000350: feb4 19be 7457 09be 128c 61bd c502 033e
00000360: 7644 fa3d 6acf 9dbe 3bf8 d33c 88ae 0b3e
00000370: bef6 273e 8523 2c3e 0471 88bc dd78 bdbc
00000380: bd05 81bd 90cc 5f3c dba8 8ebe cf14 9ebd
00000390: 2d89 04bc c13e 5cbe 475f e1bd d47b 0abe
000003a0: 2b31 f3bd 48d4 3c3d b6da 29be 76ca d4bd
000003b0: 5206 dabd 8d23 473b 7078 543d b235 a43d
000003c0: 12dd 4b3b ddbe c0bd 1e57 d03d 6033 9bbe
000003d0: c62c 14be 830e d4bc a6ca 4a3e ce66 273a
000003e0: 27b8 9ebd a5cf 06be 66d0 2c3d 2dd0 5f3d
000003f0: 2ac8 be3d 022e 5dbc 248e 01be 9ae6 cfbd
-0.042595092 -0.038476013 0.06020805 -0.06186895 -0.0022941337 -0.09120118 -0.07040278 -0.0023668671
0.15694802 0.03859022 0.09165313 0.0872549 0.12899369 0.0898044 -0.11914622 0.028198551
-0.06860415 -0.026639018 -0.13032019 0.07144055 -0.069293514 -0.111719176 -0.07701918 -0.014717009
0.028405437 0.07852018 0.091728196 0.013736054 0.10760509 -0.009121565 0.19259368 0.06279956
0.030903807 0.039971787 0.015865473 0.04691777 0.030053386 0.14403622 0.16745073 0.09136707
-0.055458408 0.10560521 0.0466225 -0.16077812 -0.012817573 0.24460165 -0.034842305 -0.08795929
0.018651025 0.108566575 -0.07289713 -0.04811131 0.12832342 -0.040641144 -0.024501152 0.13195951
0.106890656 0.062158767 -0.011577401 0.08155383 0.03620427 0.0458629 -0.11853127 -0.087082006
0.045010664 -0.04093056 -0.08124979 0.029452315 -0.07843389 0.07540521 -0.105346255 -0.1455626
-0.06750877 -0.031612992 -0.22591145 -0.0132865915 -0.07192396 0.1958074 0.0624104 0.011331283
0.022992907 0.12020116 -0.06748561 -0.16041307 0.13590094 -0.10186266 0.16037211 0.016809464
0.021996662 0.057694726 0.15632911 0.14796057 -0.050261658 0.04920266 0.038838428 0.119609036
-0.044207033 -0.112607315 0.33242264 0.13453877 -0.065113716 0.11676588 -0.07387109 0.046045933
-0.14710782 -0.11008433 0.03120971 0.12848109 -0.052110866 0.085401334 0.052184355 -0.013999408
0.24758077 0.042184237 0.06982208 0.00013193481 -0.17484827 -0.0764717 0.083642714 -0.022903914
0.036240052 -0.111519024 0.00079237996 -0.021993931 0.030342666 0.20825224 -0.098544225 0.031353272
-0.06340395 0.08976351 -0.026815167 0.1726353 -0.08254652 0.032448914 -0.08439202 -0.092754304
0.0193977 0.159503 -0.095817365 -0.022388648 0.23491003 0.06402795 -0.25449163 -0.009332203
-0.17037149 0.10275835 -0.2232721 -0.14983341 -0.09799729 -0.117036544 0.045192227 0.16192745
-0.09543208 -0.06604227 -0.039771978 0.18168005 0.004971616 0.11538515 0.16527945 0.012357295
-0.31896797 0.1879179 -0.19196181 -0.01034982 0.09778128 -0.0021699073 -0.012135027 -0.102067284
-0.0035480247 -0.2920624 -0.0051845377 0.17341422 -0.1211006 0.24883781 0.19988129 -0.06453903
0.2678687 0.038701497 -0.062495034 0.157514 0.03050129 -0.09760456 0.21938555 0.119238146
-0.17986506 -0.26569617 0.13238516 -0.031599008 0.09570439 0.07691378 0.1439144 -0.08891344
0.023040147 -0.0110726245 -0.09651457 -0.07653843 -0.031324003 0.06847477 -0.08573115 0.056018002
0.13112965 -0.074584655 -0.01594415 -0.06083999 -0.15912989 -0.112727955 -0.032721512 -0.105857566
0.10926632 0.08546066 -0.06719253 -0.09513586 -0.1501045 -0.13412267 -0.055065222 0.12794025
0.12220089 -0.30822307 0.025875201 0.13640797 0.16402718 0.16810425 -0.016655453 -0.023128921
-0.062999226 0.013659611 -0.27863201 -0.07718813 -0.008089346 -0.21508314 -0.11004501 -0.13523799
-0.118746124 0.046100885 -0.16587338 -0.10390179 -0.10645737 0.003038618 0.05187267 0.08018054
0.003110711 -0.09411404 0.10172866 -0.30312634 -0.14470205 -0.025885826 0.19803867 0.00063858635
-0.07749968 -0.13165148 0.04219093 0.05464189 0.09315522 -0.013499739 -0.12651879 -0.10151406

network_body._body_endoder.seq_layers.2.bias f4 [128]
00000000: 5bc1 90bd 885a c83c 3caf e4bc facf babd
00000010: 6912 f9bb 54b1 30bd 2aa7 9eb8 b64a 74bd
00000020: 017b 4cbd 758a 523c 4564 833c a0e0 30bc
00000030: c958 703c e7b1 1039 62a4 a9bc c90a 26bc
00000040: 1af6 8cbd 678d 8cbd 567f 843b 9ef1 6cbd
00000050: a0b1 133c 7752 eebc a855 1abd d789 973a
00000060: 78ed ebbb a9a2 1fbd 9797 c0bc 950b 7abc
00000070: 6151 13bd 79ef 10bb c832 853c e5ae eebc
00000080: 093c c33c 2abb 17bd 7a2e 44bd a0be 58bc
00000090: 725f 51bd c06d 78bc f3aa 83bd e6ff aebc
000000a0: 10ef adbd 5f42 76bc 8246 60bd f842 113c
000000b0: 71b2 58bd e2e8 5dbd 2b2b b4bc 13ee 7bbd
000000c0: 2761 213d c36a 37bd 2c5b 00bd 47bd 01bc
000000d0: 5633 983c 737b 183c 3ee8 0bbd 6ed4 fdbc
000000e0: ab9f a4bc b7d9 11bc f422 8fbd 7804 c6bc
000000f0: af2a 4f3d 06e7 91bd de76 b9bb b722 15bd
00000100: 41e9 a53c d961 8bbd 9ab7 28bb 83ef 4bbd
00000110: ed2f 90bd f770 253c d3d3 36bd 3164 18bd
00000120: ff17 debc ad7e 9abc bf44 5fbc 4228 87bd
00000130: 47c8 7bbc ba91 9cbb 33ce 4cbc 5c7c 15bd
00000140: 4eaa 133d 5844 32bd d490 b9bc 822d 2cbb
00000150: 89b7 0e3d f5a5 0e3d b717 f0bc 9759 263d
00000160: b290 8bbd c22c 88bc 72ac 7dbd fa93 eb39
00000170: b9c5 83bc 9532 69bd ffc3 423c e430 2fbc
00000180: 713b f4bb 18df b8bc 316f 9abc f052 b4bd
00000190: d3ae 27bd ab7f 1cbd 2069 93bc 292c 9ebc
000001a0: f6d6 453c 61d5 f5bc 71fd 81bd a998 90bc
000001b0: f9e0 8eba 7705 fcbc ed1f 2a3c fcd8 edbc
000001c0: 9996 2f3c b706 c9bd 7a05 febb 9ef6 7dbc
000001d0: e715 53bd bedc 90bd 7bf8 aebc 2117 b2bd
000001e0: e9ce dfbb fe64 56bd d609 98bc a8e7 4dbd
000001f0: 8060 15bc 5739 74bd cae7 0cbc 20f5 c6bc
-0.0706813 0.024457231 -0.02791559 -0.091217 -0.0076010716 -0.043137863 -7.565164e-05 -0.059641562
-0.049921993 0.012850394 0.016039023 -0.010795742 0.0146696055 0.00013799184 -0.020708267 -0.010134407
-0.06882878 -0.06862908 0.0040435 -0.05784761 0.009014517 -0.029092057 -0.037679344 0.0011561465
-0.0071999393 -0.038973484 -0.023509784 -0.01526155 -0.03596628 -0.0022115393 0.016259566 -0.02913613
0.023832338 -0.037043728 -0.047895886 -0.013229042 -0.051116414 -0.015162885 -0.0642909 -0.021362256
-0.08492863 -0.015030473 -0.05475474 0.008866064 -0.05290455 -0.054177172 -0.02199324 -0.061506342
0.039399292 -0.04477955 -0.03133695 -0.007918662 0.018579166 0.009306776 -0.03415703 -0.030985083
-0.020095667 -0.008902005 -0.06989089 -0.024172053 0.050577816 -0.07124142 -0.005659922 -0.03641006
0.020252826 -0.06805772 -0.00257442 -0.049788963 -0.07040391 0.010097734 -0.044635605 -0.037204925
-0.027111052 -0.018859232 -0.01362723 -0.065994754 -0.015367574 -0.004778114 -0.012500334 -0.03649555
0.036051087 -0.04352221 -0.022652067 -0.0026272242 0.034843 0.034826238 -0.029308183 0.040612783
-0.06814708 -0.016622905 -0.061932035 0.00044932944 -0.016085492 -0.056933004 0.011887549 -0.010692809
-0.007453375 -0.022567317 -0.018851848 -0.088048816 -0.04093821 -0.03820769 -0.017994463 -0.019308167
0.012075176 -0.030008974 -0.06347168 -0.017650919 -0.0010900787 -0.030764325 0.010383588 -0.02903413
0.010717058 -0.09815734 -0.0077521177 -0.015500693 -0.05153456 -0.07073353 -0.02135872 -0.08695818
-0.0068300855 -0.052342407 -0.018559378 -0.050269753 -0.009117246 -0.059624996 -0.008600185 -0.024286807

network_body._body_endoder.seq_layers.4.weight f4 [128, 128]
00000000: f6e9 a9bd 0c0e 883d c6c4 123e c4ea aabd
00000010: 6955 55bd aaae 47bd 5b22 19be bd27 cb3d
00000020: 28be 51be fc26 893e afdf 46bb dc29 9f3d
00000030: 8519 87be 2fdc 0dbe c072 aebd 3386 ba3d
00000040: c46b 423e 1cb3 c23d ae0b 59bb 033e 8f3c
00000050: 7131 54be cc5d 00be e061 97bd 76c8 45be
00000060: 51e3 053e a7ae 33be e774 afbd fc04 98bd
00000070: d7f9 97bc eda3 ae3c 65e5 2a3e a788 903d
00000080: b41e 09be 0e0e 65bc 7d02 dcbd 0c56 30be
00000090: 41f6 abbd c34b 1ebe 395c e63c 3bc8 cebd
000000a0: 2643 823d ffad e8bd 0339 0a3e d5f4 66bd
000000b0: 0630 14bc 979f d73c f107 7fbc 774e 5a3c
000000c0: 5c04 eebd d5e7 04be 3dde 0e3e b798 4b3d
000000d0: 9a9d 25be 42e5 15be 2cb7 aa3b 8dea 11bd
000000e0: 879d 8bbd 3e6b 193d 4e0b 00ba c143 d7bd
000000f0: 23cc 483d 1d0b f4bd a0c1 19bd 7441 26bc
00000100: 8a7c 24bc 47cc 5cbe bef9 183b f115 5bbd
00000110: 5253 0f3d a95d e1bd fdfa 323c ddd3 9c3d
00000120: a508 0b3e 56a6 c4ba 6d00 fabc f962 d33d
00000130: 141f b83d 0d77 143d bb93 76bd a035 883d
00000140: 9936 7fbd ab41 833d 9394 26be 430c d6bd
00000150: 3f75 9c3d 7d13 853d 28d6 50bd ab64 04be
00000160: f4a3 5b3d 8ae8 8fbd 0067 84bd e2e0 dd3c
00000170: 5a0a 523e 4448 833d f23d 3cbd 21d8 9f3e
00000180: 17c1 b13b df87 ee3d 78ef 263e 2499 76bd
00000190: 66fc e13d 01e0 edbd 9171 72bd 4c51 1b3c
000001a0: d908 a6be 9ef8 2fbe 1d37 023e 33ab 12be
000001b0: 0611 5c3d 90cd d8bd 614b 02be 332a 3f3e
000001c0: 0e2e 993e 104b cfbd 1c16 6fbd 93ed 723e
000001d0: 7acd e73d 0ab5 41be f82a 9ebd 7157 f0bd
000001e0: 9953 5fbd 96dc abbd f138 2ebe 9c77 bebc
000001f0: e653 dc3d 9b8d 3bbc 1843 65bd bfb7 e4bd
00000200: b3c5 80bd 919e f9bc 2583 3a3e c0f6 403d
00000210: 91cf 26be 4064 42bc 9460 1bbe 8221 19ba
00000220: 1ed6 b13d 3a12 f53c bdce 623e 9cae 01be
00000230: c0b9 84bd 502a 0bbe ee0a debc 2c92 d0bb
00000240: f311 dcbd ce6b a9bd 9627 e43c 767e 0abc
00000250: b013 71be 9ed6 c3bd 63c4 32be 2cfe 64be
00000260: 8032 8fbd 012e 323e 84f2 283e e79d 08be
00000270: 3ff6 b53b fd15 f2bd c20a 623d 4bd5 233e
00000280: 9269 2bbd 0a74 943c 5c3b 13be 3940 023e
00000290: 9954 cdbd e26b 47be 4542 d63c 2669 efbc
000002a0: e36a 68be f33b 003b 73b9 5d3e 8e1e b53d
000002b0: 52f4 aa3d c9c1 abbd 3af5 f53d e4ef ac3c
000002c0: f7d0 1ebe 5a7b 8bbd 7a63 81bc a9bb 4cbd
000002d0: fb6d 723d e722 55bd 2f8e 7dbd 2576 103d
000002e0: 19cc 013e b2a4 92bb 8691 e1bd ea82 97bc
000002f0: 5e1d 9abe 050e b0bd 0df9 803b 2fe3 16bd
00000300: 2f49 1c3e 5518 2fba c615 a3bd ef2e 9cbc
00000310: 99a0 f8bd 6f23 85bd 0cf1 9cbd b181 df3d
00000320: d991 61bd 00ae 8abc 32d4 11ba c941 57be
00000330: fe36 1bbc 385b a7bc abbf b73d 3399 b23e
00000340: 2b1c 86be 7201 183d c2f4 8f3e d814 cb3d
00000350: aa12 b7ba bade 003d 5876 34bd c9e0 37bd
00000360: 139d 0b39 7611 2abe 412e 12be 57a4 8c3d
00000370: ad8a 87bd 03b3 093d 61a9 89bd 60b1 bb3d
00000380: 47dd f5bd 2496 b8bb 5a29 b33d b32d d53d
00000390: faa8 183e f6b2 563e 21d2 fa3d ef17 8cbd
000003a0: 0dd6 5bbd de09 643e 37ce 27be 9790 01bc
000003b0: a70b 803e 8b1d 483e 52f5 25be 45f2 9cbd
000003c0: 86e2 e13d fac5 83bd b26a dfbc 2a03 ccbd
000003d0: cd5d 8bbd 5028 083d 149e 2cbe 9ca0 fa3c
000003e0: 1e36 f9bc 1f27 0fbe 0bfc e1bd 5e06 85bd
000003f0: cbb4 dcbd ec71 0a3e dbef 3ebd d841 63bd
-0.08296578 0.06643304 0.14332876 -0.08345559 -0.052083407 -0.048750557 -0.14954512 0.09919689
-0.20482695 0.26787555 -0.0030345728 0.07771656 -0.26386657 -0.13853525 -0.085179806 0.09107628
0.18986422 0.09506819 -0.0033118534 0.017485624 -0.20721985 -0.1253578 -0.07391715 -0.19314751
0.13074996 -0.17547093 -0.08567219 -0.07422826 -0.01855175 0.0213184 0.1668907 0.07057314
-0.13390619 -0.013980402 -0.10742662 -0.17220324 -0.083965786 -0.15458588 0.028120147 -0.10096785
0.06360464 -0.11361312 0.1349831 -0.056385834 -0.009044653 0.026321216 -0.015565858 0.013324372
-0.11621925 -0.12979062 0.13951965 0.049706187 -0.16173401 -0.14638236 0.005209824 -0.035624076
-0.06817155 0.03745579 -0.0004884497 -0.1051097 0.049022805 -0.11916182 -0.03753817 -0.010147441
-0.010039458 -0.215623 0.0023342217 -0.05348772 0.03499157 -0.110041924 0.010924098 0.07657597
0.13577516 -0.0015003185 -0.030517781 0.10321612 0.08990303 0.03624635 -0.06019948 0.06650853
-0.062307928 0.064090095 -0.16267614 -0.104515575 0.076395504 0.06497858 -0.050985485 -0.12929027
0.053623155 -0.07026775 -0.06464958 0.027084772 0.20511761 0.06410268 -0.045957513 0.3121958
0.0054246294 0.11647009 0.16302288 -0.06020464 0.11034469 -0.11614991 -0.059190337 0.009479832
-0.32428625 -0.17184684 0.12716337 -0.1432312 0.053727172 -0.10586083 -0.12724067 0.18668441
0.2991795 -0.10121739 -0.058370695 0.2372344 0.113184884 -0.18916717 -0.077230394 -0.11735428
-0.054523084 -0.08391683 -0.17013909 -0.023250394 0.1075819 -0.011447336 -0.05597219 -0.11167859
-0.06287708 -0.030471118 0.1821409 0.04711032 -0.16290118 -0.011864722 -0.1517356 -0.000584148
0.08683418 0.029915918 0.22149177 -0.12664264 -0.064807415 -0.1359036 -0.027104821 -0.0063650813
-0.10745611 -0.08272515 0.027850907 -0.008453002 -0.23542666 -0.09562419 -0.17457728 -0.22362584
-0.06992054 0.17400362 0.16498762 -0.13341485 0.0055530365 -0.118206 0.05518604 0.15999334
-0.041848727 0.018121738 -0.14378113 0.12719811 -0.10025901 -0.19474748 0.026154647 -0.029224943
-0.22697024 0.0019566983 0.21652775 0.088437185 0.08347382 -0.08386571 0.12009664 0.021110483
-0.15509401 -0.06810637 -0.015794504 -0.049983654 0.059186917 -0.05203524 -0.061903175 0.03526892
0.12675513 -0.0044751996 -0.110140845 -0.018495042 -0.3010053 -0.08596424 0.003935939 -0.036837753
0.15262292 -0.0006679346 -0.07963137 -0.019065348 -0.121400066 -0.06500899 -0.076631635 0.109134085
-0.05507073 -0.016928673 -0.00055629306 -0.21021189 -0.00947356 -0.020429239 0.08972105 0.34882507
-0.26193365 0.037110753 0.28116423 0.09916085 -0.0013967354 0.03146241 -0.044058174 -0.044892106
0.00013314588 -0.16608223 -0.14275457 0.06867283 -0.06618247 0.033617985 -0.067217596 0.09164691
-0.12005096 -0.0056331325 0.087481216 0.10409107 0.1490821 0.20966706 0.1224711 -0.068405025
-0.05367093 0.22269389 -0.16387258 -0.007908008 0.2500889 0.1954252 -0.16206864 -0.07663397
0.11029534 -0.064342454 -0.027272556 -0.09961541 -0.068050005 0.03324157 -0.16857177 0.030594163
-0.030421313 -0.13979767 -0.110344015 -0.06495355 -0.10776671 0.1352002 -0.046615463 -0.055482715

network_body._body_endoder.seq_layers.4.bias f4 [128]
00000000: e8e0 5abd 685f b0bd 30ae 89bc 9001 1fbc
00000010: dfd9 59bc dead 0dbb 0d1d 393d 801b 59bc
00000020: 6d41 e73c b310 26bd 3358 a3bc bfac 46bd
00000030: 44b5 4bbd 6bba b7bc b000 0dbd 62ff fb3b
00000040: 79bd 37bc 9111 01bc 9c6c 19bd 7383 06bc
00000050: c056 9f3c 5e5c 513c 1c42 3e3d 2af5 15bd
00000060: f44e 5fbb 9318 773d 04eb 47bd 5928 f73c
00000070: 7eb0 df3c 909e 4ebd d39d a0bb d489 103b
00000080: 8ded dcbc 7bf7 b0ba 0623 b63c 42f9 86bc
00000090: 17d8 f4ba 0591 cebc 715d 19bc 80ae ab3d
000000a0: 8fd0 083d 8318 863c f7c6 143b 086f febc
000000b0: 3335 f63c d157 143b 26af b6bb 5a7e 0dbd
000000c0: 11ef f73a 4568 debc 03fa afbc 45f9 39bd
000000d0: 9610 edbb 8c2e de3a fd91 4b3c 13eb 12bd
000000e0: d8bf 38bd a33c ccbc 030a edbc 40ae 87bd
000000f0: 13b8 03bd 0a8a e23b f501 f5bc 4a01 a4bc
00000100: 2fd6 94bc bb2d 143d e09d 01bd c0ff bdbc
00000110: 77c1 15bd 6c0f 10bc 7a31 0abd ca38 08bd
00000120: 5293 5cbc 0fde 1dbc 99b7 de3c a715 85bb
00000130: d7bd 8bbc 6ee2 d5bb 3d8d a5bc 76f8 0dbb
00000140: b194 8abd 56ec 21bd 7a1b a83c ba3e 163c
00000150: 7f1a 163d 30b0 183c fb0d 813d a487 0d3c
00000160: 1e3b b2bc 910a 01bd cd2b 23bb 8270 a53d
00000170: 3426 85bc 4808 14bd 1f98 09bc 0625 cdbc
00000180: be87 18bc ef1b ba39 0b59 eebc fc3c 35bd
00000190: 9200 e1bc 4e14 aabc 0134 cdba 0eb1 48bc
000001a0: 949d 93bc d06a 913c 878d 35bd 0669 babc
000001b0: db60 0dbc 0021 2b3d b2c3 c5bc 020e 853a
000001c0: ee80 e1bb c803 edbb b832 46bc 5571 88bc
000001d0: 2f1b ed39 6ae3 b13b cbfc 42bd 17e4 8cbc
000001e0: 3303 08bd e873 3c3c decd c93c e8be a53b
000001f0: da34 54bd 401c d6bc 380e 6dbc 377e 0cbd
-0.053437144 -0.08611947 -0.016806692 -0.009704962 -0.013296573 -0.0021618525 0.04519372 -0.013251185
0.02822944 -0.04054327 -0.019939518 -0.048504587 -0.049733415 -0.022427758 -0.034424484 0.007690356
-0.011214607 -0.007877723 -0.037457094 -0.008210051 0.019450545 0.01277837 0.046449766 -0.03661076
-0.003407416 0.06032617 -0.048808113 0.030170606 0.027305838 -0.050444186 -0.0049016266 0.0022054808
-0.026968742 -0.0013501489 0.022233497 -0.016476277 -0.0018680122 -0.025215635 -0.009360657 0.083828926
0.033402022 0.01636911 0.00227016 -0.031058803 0.030054664 0.002263535 -0.0055750785 -0.034544326
0.0018915852 -0.027149329 -0.02148152 -0.045403738 -0.007234643 0.0016951128 0.012424943 -0.035868715
-0.04510483 -0.024931258 -0.028935438 -0.066250324 -0.03215797 0.006913428 -0.02990816 -0.020020146
-0.018168537 0.036176424 -0.031644702 -0.02319324 -0.036561456 -0.008792739 -0.03373859 -0.033257283
-0.013462858 -0.009635462 0.027187156 -0.004061419 -0.017058296 -0.0065272367 -0.02020895 -0.0021662987
-0.06766642 -0.03953203 0.020520914 0.009170229 0.036646362 0.00931935 0.06301495 0.008638296
-0.021756705 -0.031504218 -0.0024897933 0.080781 -0.016253568 -0.03614071 -0.008398085 -0.025042068
-0.009309707 0.00035497497 -0.029095193 -0.044247612 -0.027466092 -0.020761635 -0.0015655757 -0.012249244
-0.018019475 0.017751127 -0.044324424 -0.022755157 -0.008629049 0.041779518 -0.024141166 0.0010151269
-0.0068818247 -0.007233117 -0.012097053 -0.016655603 0.00045224416 0.005428721 -0.047604363 -0.017198605
-0.033206176 0.011502244 0.024634298 0.005058158 -0.051808216 -0.026136518 -0.014468722 -0.034300055

action_model._continuous_distribution.log_sigma f4 [1, 2]
00000000: a436 f9be ef63 a5be
-0.486745 -0.32302806

action_model._continuous_distribution.mu.weight f4 [2, 128]
00000000: 0ebb a43d f4d8 1a3d 924e 86bd 71e1 dd3b
00000010: 466e 3839 2fb4 aaba 1859 e8bc cdc1 71ba
00000020: 0ef0 d9bd a484 4e3d 2fdd f1ba daae ac3d
00000030: 6885 82ba 70cf e6ba 8879 22bb dbab 1cba
00000040: b06a 9fbd df57 6c3d d7d7 eeb9 34f2 82b9
00000050: d4bc 45ba 6d2a 11bb c30a 08be 97b6 b5b9
00000060: 19af 843a c82b e6bd d202 c53a 60e9 093e
00000070: eaef 8b3a c87e 37bb 8e32 fa3d 8628 683d
00000080: a554 e23b 8417 0cba 4e5d b039 f629 883a
00000090: 2629 d4b9 d0c9 41bd 767c df3c 7148 d2bd
000000a0: 3899 b1bd 6e91 013a cb71 0bba 58f6 0d3b
000000b0: c0cf 00be c59d 1b3b 4857 813b 0061 853c
000000c0: 2456 4bbd 8e4f dfba 4773 0f3e d41a 2e3d
000000d0: b2bf 3d3b dfd0 06b9 86a4 eaba 45bc c0ba
000000e0: 4f6b 17bd 1f5e 11bd aee5 ac3c 087d 223b
000000f0: f6a5 3cbd 6e2f c8bd d309 d9b9 c7a2 d5bd
00000100: cfe5 c13d c4f3 f9bc ae99 3f3a 5585 c0ba
00000110: 9b52 803d a4bc 95b9 8d3b f4bb 15c4 f8bc
00000120: 04f2 2eba 8070 b339 12ec 543a 310d 71ba
00000130: 5169 943c a8f2 0dba 80bd 85b8 69f1 e13d
00000140: bdc1 e33d 8316 2fbc 3014 153b cba8 513a
00000150: 4a72 a13a 39ca 2dba 6e15 0dbe 0783 e339
00000160: d824 5fbd ff96 0ebd 114a 48ba a5b3 cdbd
00000170: af24 78bb 5561 a9bc 801c 9aba 8838 68ba
00000180: a296 75bb 0ace ccbd a5c2 2d3e 9073 fb3a
00000190: 68ba 9b3a 1dde edba 394e 043a d84f 49ba
000001a0: 525c 51b9 ae13 243b 18ab 45bc 07aa b4ba
000001b0: f41c c4ba 7eef b4bd 57ae d0bc 8b03 913a
000001c0: a7fd 44bb 30cb 293a 61ba 2c3d 2887 17b9
000001d0: ccba d8ba a6f1 2cba 5844 ef3d 32f5 d7ba
000001e0: 87f1 0abb 9e8f 01bb dc52 893c 1549 51b8
000001f0: 5599 1a3d 4ef5 a7bd 826a 4939 0f18 e63c
00000200: 0180 263d bce3 4fbc 2e82 a93b 2396 ee3d
00000210: de47 663b e2dc babb c0a1 133e 6207 a6b9
00000220: 9c67 413d db33 ec3c d64d 143b 48f8 b33c
00000230: 6e94 32ba 7eae 9a3b 9a11 28bb b050 ed39
00000240: 4332 203d ae3e 9abd e7cb adba 599e 8fba
00000250: 6270 52bb 4708 173b db2d 083d 5c17 713b
00000260: df61 733b eb73 a83d 061a 693c 0354 ce3d
00000270: cafb 8a3b 51e3 d6b9 a33a e4bc f341 c9bd
00000280: 8d85 9b3d 3401 feb9 16ab 64bb 5ad7 74b9
00000290: 3a3b 0bba fd98 503d 2689 bb3d 734c f93d
000002a0: 7d99 bd3d 7457 aaba c43f 78bb aea6 a13a
000002b0: 2327 87bb 1a69 0e3b b95c 893b dae9 8a3d
000002c0: ed52 943d 12e9 083a 7062 ca3b a167 1dbd
000002d0: cae3 7b3b e039 193b 47ad 783a da8c 71ba
000002e0: 2055 023c 972b 923d ce06 c1bc ca86 1a3b
000002f0: 2f27 a1bd 7f91 913b 8a8a 0b3a 037b f73c
00000300: 2b84 803d b86d e83d 80c2 2b3b 3a3f 65bb
00000310: b825 8cbc 433f 373b 607a 643d 8ee2 f93b
00000320: 49dc 9e3a 9374 523b 8c00 103b 0d8c 5b3a
00000330: 41a3 dabc 10d7 c9ba dd01 92bb 4dde 8f3d
00000340: 5f91 b23c d23f 4eba 3b4e 07bb 4206 203b
00000350: 7c34 683a 189c 543a 7610 8e3d 833c 43bb
00000360: 27de 04bd 9585 973c 45d1 baba afbc 013e
00000370: c957 feb9 ccd9 b23d be43 a3b8 0bbb 173b
00000380: 2c32 67bb d110 36bd 8a0c 163c af89 163d
00000390: 448a bc3b df03 e6ba 39f9 363a f487 debb
000003a0: ec6e 6fbb 86b1 ce3b 12c4 02bd 2de8 a4bb
000003b0: 4e55 abb9 a245 9b3d f305 76bd ed4a 4cbb
000003c0: 732b 26bb 094d 88ba 575e b0bd 862b 5b3a
000003d0: 2374 b339 dd35 67ba a78f a13d 6103 88b8
000003e0: abc2 783a 5775 d73a 8f59 113e c6a9 613b
000003f0: 88f1 b53c ac0a 5d3b 6d54 a23b 33d4 c0bc
0.0804349 0.03780456 -0.06557955 0.0067712595 0.00017588687 -0.001302367 -0.028362796 -0.0009222299
-0.1064149 0.050419465 -0.0018452759 0.08431788 -0.0009957971 -0.0017609429 -0.0024791677 -0.0005976536
-0.07784021 0.057700988 -0.0004555571 -0.00024975988 -0.0007543091 -0.0022150532 -0.13285355 -0.0003465905
0.0010122984 -0.11238819 0.0015030748 0.13467932 0.0010676358 -0.0027999151 0.12216674 0.05667927
0.006907063 -0.000534408 0.00033638853 0.0010388482 -0.0004046645 -0.047311604 0.027281027 -0.10267723
-0.08671802 0.000494263 -0.00053193857 0.0021661725 -0.1257925 0.002374516 0.0039471723 0.016281605
-0.049642697 -0.0017037259 0.14008819 0.042506054 0.002895337 -0.00012857046 -0.0017901815 -0.0014704546
-0.03696757 -0.03549015 0.021105614 0.0024793763 -0.04605671 -0.097746715 -0.00041396785 -0.10431438
0.09467661 -0.030511744 0.0007308972 -0.0014688174 0.06265756 -0.00028560043 -0.007453388 -0.030366937
-0.00066736364 0.0003422536 0.00081223354 -0.0009195386 0.018116625 -0.0005414882 -6.377231e-05 0.110323735
0.11120937 -0.01068652 0.0022747628 0.00079978694 0.0012317386 -0.000662956 -0.13777706 0.00043394437
-0.054478496 -0.03481197 -0.0007640431 -0.1004403 -0.0037863662 -0.020676294 -0.0011757761 -0.00088585215
-0.0037473817 -0.10000236 0.16968782 0.0019184221 0.0011881115 -0.001814786 0.00050470565 -0.0007679439
-0.00019966185 0.0025036144 -0.012064718 -0.0013783582 -0.0014962242 -0.08834742 -0.025473757 0.0011063678
-0.0030058415 0.00064771157 0.042169932 -0.00014450832 -0.0016535162 -0.0006597288 0.116829574 -0.0016476272
-0.002120109 -0.001976944 0.016763143 -4.9897546e-05 0.037743885 -0.08201085 0.00019208531 0.028087644
0.040649418 -0.012688573 0.0051729893 0.1164973 0.003513805 -0.005702601 0.14417171 -0.00031667488
0.04721795 0.02883332 0.0022629402 0.021968976 -0.0006812279 0.004720508 -0.0025645257 0.0004526428
0.039110433 -0.075314865 -0.001325962 -0.0010957225 -0.0032110442 0.0023045705 0.033246856 0.0036787605
0.0037137193 0.082252346 0.014227396 0.10074618 0.0042414414 -0.00040986625 -0.027859991 -0.09827032
0.07593832 -0.00048447552 -0.0034892014 -0.00023349878 -0.00053112546 0.05092715 0.09157018 0.12172785
0.09257791 -0.0012996034 -0.0037879804 0.0012333 -0.0041245385 0.0021730126 0.0041919616 0.06782885
0.07242379 0.00052227185 0.0061762854 -0.038428906 0.0038435333 0.0023380443 0.00094862696 -0.0009214409
0.007954866 0.0713722 -0.023562815 0.0023578876 -0.07868802 0.0044423933 0.0005323073 0.030210024
0.06275209 0.11349052 0.002620846 -0.0034980313 -0.01710783 0.002796129 0.05578077 0.0076258844
0.0012120093 0.003211294 0.0021972982 0.0008375056 -0.026689174 -0.0015399177 -0.0044557885 0.070248224
0.021797834 -0.00078677863 -0.0020645994 0.0024417792 0.00088579184 0.0008110418 0.069367334 -0.0029790706
-0.032438423 0.018496314 -0.0014253041 0.12669633 -0.0004851206 0.08732948 -7.785064e-05 0.0023152258
-0.0035277708 -0.04444963 0.009158263 0.0367524 0.0057537872 -0.0017548761 0.0006979886 -0.006791109
-0.003653462 0.0063077835 -0.03192527 -0.0050325603 -0.0003267922 0.07581641 -0.060064267 -0.003117259
-0.0025355488 -0.0010398935 -0.08611744 0.00083606725 0.0003422807 -0.0008819977 0.07888728 -6.485615e-05
0.0009489457 0.0016438168 0.1419432 0.0034433468 0.022209898 0.0033728285 0.004953912 -0.023538684

action_model._continuous_distribution.mu.bias f4 [2]
00000000: 7b18 0ebd 98bf f53b
-0.034691315 0.0074996464
