Assets/ML-Agents/Training Files/results/9roads_imitation_6epoch-2048buffer/VehicleAgent/VehicleAgent-4999902.onnx (onnx, 89849 bytes, 7 tensors)

network_body._body_endoder.seq_layers.0.weight f4 [128, 38]
00000000: 689a 873e 20af 3bbe 2526 32be 2207 9f3d
00000010: d810 19be 7866 de3d 116c cd3d ae54 3fbd
00000020: a94e d43e 2dd4 bbbd 9e16 ab3d 2358 843e
00000030: b094 0ebe 62e1 d43e 779e c23c 0190 903e
00000040: 2e3b 5cbd b66d ef3c 1aed f83d 8340 5ebd
00000050: 0e76 e23d 1ded 3a3e 572d 82bd 47e5 7b3e
00000060: bbbf 0d3e 40f6 433e 30f6 f03d d943 a7bd
00000070: 5a6f 83bd 77cf 03bd 2062 b63b e296 213e
00000080: 1d19 35bd bcd8 8b3e bf69 e13d d792 36bc
00000090: b37c 743d ca14 46bd 098a 7c3e 205a e5bd
000000a0: dd70 4d3c 1f9d 0cbd 1470 98be e741 aa3e
000000b0: 5f5f a3be cb9c 6e3e abb5 8d3a b617 37bd
000000c0: 4459 433e 8585 f3bc bc54 7dbe 65cb 90be
000000d0: ed27 8ebe bbc5 903d bd49 ca3d 3421 f23d
000000e0: 54ca d5be c20d 2abe 4f01 9d3d 79e7 76bd
000000f0: fb35 87be 0948 8e3e 033e 67be 59f5 2b3d
00000100: cbd2 0f3d 369a 793e 9fc1 013e 7c4d 04be
00000110: a4e9 f2bc d21b b13e 5b9a e8be f965 9f39
00000120: 89b5 a4be de16 ccbe e5f7 fd3d c34e 49be
00000130: 1b92 903d e0cd 643e e7e7 053e 8b9f b63e
00000140: ec52 debe e138 3fbe 8557 7f3e 5872 a1bb
00000150: 954a 413e 3ff7 183e 524f b33e 52ba b83d
00000160: 2dcf 55bc 9b41 303d f4a5 7cbe 9a75 06be
00000170: a703 e63d 1e8b b13c ff23 73bd 3a39 a9bc
00000180: d7fc b03d 8b3a 19be 0adc 07be 669a ff3d
00000190: 033d 843e 1a32 923e b629 08bd 83cc ccbe
000001a0: 4065 3ebe 35a0 15bd 70ae e73e 1106 abbe
000001b0: 8c15 103d ce81 e13d c035 a23e 00b3 6cbe
000001c0: c117 41be bdc3 37be a4a0 7fbe e2a7 27bd
000001d0: d0e3 f63d 6dc9 3a3e b137 fb3d e5fa 02bd
000001e0: 5fba 0a3e 6d4c 94bb b1bf 9f3d a1b9 0e3d
000001f0: ad29 74be 6bf5 0b3c f9a5 fd3e d7bf 21be
00000200: 9985 debe 78c6 0ebd 86db e43d 1438 05be
00000210: 0705 96bd de05 a23b eb27 20be 42ee c8bd
00000220: 669b c23d a0ae 2e3e 4e79 a6bd e9ac b7be
00000230: 690f be3d 75fc 043e a454 57be 5003 d43d
00000240: 9245 563e 1b42 3bbe a761 713d b00c 1e3e
00000250: 234d 7cbe 8981 ccbd 3475 2dbe 4be1 603d
00000260: f409 38bd 53cd cc3c b04d 15bd e1dd 583d
00000270: 49bd 84bd 9a4f 74be 7ec7 e1bd 7391 c53d
00000280: 8ced 5b3e cc35 05bd 652c 1ebe 0d13 da3e
00000290: a604 60be 177c 90be 360d 403e d9c6 c3bd
000002a0: 3349 e73e de83 84bc a0ec 523e c5d3 823e
000002b0: 310a 3f3d 80c6 75be 0f96 3fbe eb79 d5bd
000002c0: 8605 1e3e 06eb 0b3e 667f 713e a52f 87be
000002d0: f712 1ebe f91c babe f0ee f0be 650d 1c3e
000002e0: b658 923d 6196 fbbd 5f39 083e 57cf 173e
000002f0: 6964 3dbc bc38 543e 0a49 a43e 1335 b33e
00000300: 30ba 413e 62b7 033f 9527 9a3d b660 38be
00000310: 9a27 2d3e 36dd 89be 4a04 b33e bdd6 2d3e
00000320: 5f92 403e 3512 383e 3e18 8dbe 3f02 72be
00000330: caff debc 3598 63be eac2 373e e280 6d3d
00000340: e56b 823d 8b60 ad3e 00bb 833d 7471 7c3e
00000350: 921d 2ebd 0dfa 19bf d44c 8bbd 4b26 35be
00000360: ff3a 223e 739e c2bd 1081 033e 346c 0dbf
00000370: 0498 a93e 85b1 81be 9001 d63d 2d8e 053e
00000380: 375a f13e 23c5 903e 207b 12bd a26f 523e
00000390: 813d e83d 856f c4bd dfc1 c8be ea44 e43d
000003a0: 795e 0ebc 8fe8 db3e 45b9 92be b2aa 04be
000003b0: e9b9 543c 6579 5abe bbf5 e93c b730 843d
000003c0: be70 4a3e 9751 7abd a7bf 433d baca 73be
000003d0: 4a59 d73e cd2c ecbc 1a02 e83e 592a 9d3d
000003e0: 6b7a 073e c8c7 513d 7f16 023e 92cf 2dbe
000003f0: 9039 833e 5c95 72be 7b97 92be 039e b73a
0.2648499 -0.18328524 -0.17397363 0.07765032 -0.14947832 0.10859388 0.10030378 -0.046711616
0.41466263 -0.09171329 0.08353923 0.25848493 -0.13923907 0.41578203 0.023757203 0.28234866
-0.053767376 0.029227119 0.121545985 -0.054260742 0.110576734 0.18254514 -0.06356304 0.24599181
0.1384267 0.19136906 0.117657065 -0.08167238 -0.06417723 -0.032180276 0.0055658966 0.15780213
-0.044213403 0.27313793 0.110064976 -0.011143408 0.059689235 -0.04835967 0.24662031 -0.111988306
0.012539116 -0.03432953 -0.2977301 0.33253404 -0.319087 0.23302 0.0010811588 -0.044700347
0.19077021 -0.029726753 -0.24739355 -0.28280178 -0.27764836 0.07068964 0.09877346 0.11822739
-0.41755927 -0.1660681 0.07666265 -0.060279343 -0.2640837 0.27789333 -0.2258225 0.04198203
0.035113137 0.24375233 0.12671517 -0.12920183 -0.029652424 0.34591538 -0.45430264 0.0003040282
-0.3216975 -0.39861196 0.12400798 -0.19658951 0.070591174 0.2234416 0.13076745 0.35668597
-0.4342264 -0.18674041 0.2493573 -0.004926961 0.18876107 0.14938067 0.35021454 0.09019913
-0.013049883 0.043031316 -0.24672681 -0.13130799 0.112311654 0.021672782 -0.0593605 -0.02065717
0.086419754 -0.14963739 -0.13267532 0.12480621 0.25827798 0.2855385 -0.033242904 -0.3999978
-0.18593311 -0.03652974 0.45250273 -0.33403066 0.0351768 0.110110864 0.31681633 -0.23115158
-0.18856718 -0.17945762 -0.24963623 -0.04093159 0.120551705 0.182409 0.12266482 -0.031977553
0.13547657 -0.004525712 0.07800234 0.034845 -0.23844023 0.008542399 0.4954069 -0.15795837
-0.43461302 -0.034857243 0.11174683 -0.13009673 -0.07325178 0.004944547 -0.15640227 -0.09811069
0.09502296 0.17058802 -0.08128606 -0.35874107 0.09280283 0.1298693 -0.21028382 0.10352194
0.20924976 -0.18286936 0.05893102 0.15434527 -0.246388 -0.09985644 -0.1693924 0.054902356
-0.044931367 0.02500025 -0.03645104 0.052945975 -0.06481416 -0.2385849 -0.11024378 0.09646883
0.21477336 -0.032522008 -0.15446623 0.4259266 -0.21876773 -0.28219673 0.1875504 -0.095594116
0.45173034 -0.01617616 0.20598078 0.25552192 0.04664058 -0.24001503 -0.18709587 -0.10423645
0.15431795 0.13663873 0.23583755 -0.26403537 -0.15436922 -0.3635023 -0.47057295 0.15239485
0.071458265 -0.12284542 0.13303135 0.14825188 -0.011559584 0.20724767 0.32086974 0.3500143
0.18918681 0.51451695 0.07527081 -0.18005642 0.16909638 -0.26926583 0.3496421 0.16976447
0.18805836 0.17975695 -0.27557558 -0.2363367 -0.02722158 -0.22226031 0.17945448 0.05798424
0.063682355 0.3386272 0.06432152 0.24652654 -0.04250867 -0.6014717 -0.06801763 -0.17690389
0.15842818 -0.09502878 0.12842202 -0.5524323 0.3312379 -0.2533075 0.10449517 0.13042517
0.4713914 0.28275403 -0.035761952 0.20550397 0.11339856 -0.09591583 -0.39210412 0.11145957
-0.008689516 0.42950866 -0.28656974 -0.1295574 0.012983778 -0.21335371 0.028559556 0.06454604
0.1976957 -0.061112966 0.047790196 -0.23807803 0.4206031 -0.028829956 0.45314103 0.07674093
0.13230292 0.051215917 0.12703894 -0.16973713 0.25629854 -0.23689789 -0.28631195 0.0014008883

network_body._body_endoder.seq_layers.0.bias f4 [128]
00000000: 417c 0cbe 0fbe bb3c 2ef4 47bd 3007 903d
00000010: c741 773c b314 99bd 2aa9 d1bc 0f2f a63d
00000020: 4d58 f5bd c8af 61bd 97be 78bd 982b 6ebd
00000030: 4783 833d 1011 003d 6733 4bbd 683c 1abc
00000040: 0a30 2a3e 63ed afbc ae34 293d 3aab f33b
00000050: 190b 9cbd c463 e13c 5000 bebd 347b afbd
00000060: 907a d0bd 1f4c 35bd 51ad b43a a1e2 0abc
00000070: 640b b93d b097 a13c 1237 133c 0260 0dbb
00000080: 2d27 f9bb a441 37bd 159f 7c3d 5738 e4bc
00000090: 9ecb c53d 2565 42bd a357 c2bc f27a 173d
000000a0: b984 83bd 061d 9eba b760 943d 24b8 ff3d
000000b0: 032a 76bd 08fb 9f3c 8765 84bc 013f d2bc
000000c0: 369f 8f3d 0cab d53c a816 c93d 3f19 9dba
000000d0: 0dbc a03b 20c3 64bd 5880 903d 9933 223d
000000e0: 4ea9 f4bd 09cd f53b 71ba dabd 5a3d b73d
000000f0: b10f 0b3d eadf 233c c0f6 27bd fa0b b53d
00000100: 0c6b 8e3d c47c b0bd f51f b33d 6b65 8abd
00000110: 8396 eb3d 7a90 033e c7c2 7bbd 54a5 be3d
00000120: 92ec 4c3d d4ac abbc f809 8e3d c62e a6bd
00000130: 11cf aa3d 1a2d 4c3d fff9 bebc 4b18 b93c
00000140: 9b33 6dbc 4873 b3bc 8c36 063d b0ca c7bd
00000150: b3d1 293d 8804 d8bd d916 96bd a195 3fbd
00000160: c245 eebc 906b de3c 6e85 f23c 8267 273d
00000170: 5752 8bbd d48c a7bd 5e84 56bd 80aa 1dbd
00000180: 6b46 3c3d 6974 7abc bcfa cb3d 3ab7 e2bc
00000190: ba9d 333d 1790 f93d c3be eabc e1e5 ed3d
000001a0: 8fa6 4bbd b961 acbc 4f86 09be c232 e53d
000001b0: 9e03 a43b 0f56 38bd 80cb 8dbd b25d 023e
000001c0: 7da7 c8bc a968 833d 7241 c03c c278 e7bb
000001d0: 5d92 983d 473f 2f3d f87b 68bd 4781 683d
000001e0: acae 73bd 32b4 83bb b52b 01be 7f38 d2bd
000001f0: 25f0 453d b5b7 fc3c 3193 d63d bf3b 34bd
-0.13719274 0.022917775 -0.048816852 0.07032621 0.015091366 -0.07474651 -0.025593359 0.081144445
-0.11979733 -0.05509928 -0.060728636 -0.058147043 0.064215235 0.031266272 -0.049609568 -0.009413816
0.16619888 -0.0214755 0.041310005 0.0074361833 -0.07619304 0.027513392 -0.09277403 -0.08568421
-0.10179627 -0.044262048 0.0013784562 -0.008476884 0.09035376 0.01972565 0.008985298 -0.0021572118
-0.007603547 -0.044740334 0.06167515 -0.027858896 0.096579775 -0.04745974 -0.02372343 0.036982484
-0.06421799 -0.0012063093 0.072450094 0.12486294 -0.06009866 0.01952888 -0.016161693 -0.025664808
0.07012789 0.026082538 0.098187745 -0.0011985673 0.00490523 -0.05585015 0.0705573 0.03959999
-0.11946355 0.0075012487 -0.10680092 0.08947249 0.03395051 0.010002116 -0.041006804 0.08840175
0.06954011 -0.08617547 0.0874633 -0.06757625 0.11503317 0.12848082 -0.06146505 0.093088776
0.0500303 -0.020956434 0.06935495 -0.0811439 0.08340276 0.0498477 -0.023312567 0.022594592
-0.014477636 -0.021905556 0.032766864 -0.097554564 0.04145975 -0.10547739 -0.073285766 -0.046773557
-0.029085997 0.0271509 0.02960464 0.040870197 -0.068028145 -0.08181158 -0.05237233 -0.03849268
0.045965593 -0.015286543 0.09959933 -0.02767526 0.04385159 0.12185686 -0.028655415 0.116161115
-0.04971939 -0.021042692 -0.13430141 0.11191322 0.005005314 -0.045003947 -0.0692358 0.12731054
-0.024493927 0.06416447 0.023468707 -0.007063956 0.074497916 0.042784955 -0.05675885 0.056763913
-0.059492752 -0.0040192837 -0.12614329 -0.10264682 0.048324723 0.030849317 0.10477293 -0.04400229

network_body._body_endoder.seq_layers.2.weight f4 [128, 128]
00000000: 6603 2fbd bd45 183e 1a02 9bbd e71d bcbd
00000010: 1dc8 ae3b a0f7 a03d b50a 073e 3ee4 58bd
00000020: f5f2 593d 00c9 f8bb 2524 0fbd 56f5 753d
00000030: 2e74 15bc 8b06 b03c 6a89 12bc e9e4 9b3d
00000040: bf7a d53d 4c6b 973d 760e c23d 57d2 b4bd
00000050: 2c61 22bb 1273 8f3d 6f8f 04be b3b8 b1bd
00000060: e874 743d 833d f73c a717 8abb aa80 21bd
00000070: 2579 29be 940e 513d 5d6d 24bc a59f 803d
00000080: c203 53bd a153 9abd 8bd8 593c aed5 72bc
00000090: 8eec 6fbb d0a3 62bd 3394 003c 285e b6bc
000000a0: 96b1 11bd eebe be3c 898c f6bd de6c 3bbc
000000b0: 669a 2dbe 8739 a4bc 6573 e13c f1bd 5b3d
000000c0: b81f 5b3d 7c37 bc3d 11c5 1ebc 9625 a33d
000000d0: f169 fcbd 22a0 103d ed0e a23d c8f7 acbd
000000e0: 6498 28bc 39ad 033e 4624 b93d 81ae ddbd
000000f0: 8f23 c33a db80 45bc c110 323b 85da 90bd
00000100: b58f a4bd 6d5e 773d fe6e 74bc e7be 2fbe
00000110: 709c 313d b5c5 4a3e 9515 1d3e 2e0b c2bd
00000120: 8c2d 273e a47c fbbc 06a5 a93d f114 fc3d
00000130: 1231 6cbe 010a ff3c 80b6 f83c dc22 5dbd
00000140: a1fb a9bd e671 4f3d a1b1 afbd e4d3 00be
00000150: 7eae 87bc a407 a43c 1ad4 283e baba b8bc
00000160: 4362 b23b adcd e13c de77 c83c 29ab c0bc
00000170: 7662 92bd 9135 043e d025 b33d 4086 75bc
00000180: 4951 a53c 9e37 00be ee18 eabd 711d d73d
00000190: 9d89 1bbd 7f51 e8bc c3de 183e 211f f0bd
000001a0: 2655 513c f3e0 29be 51fb 793c edbc 943a
000001b0: c7e1 bb3d fc52 b73d f270 0dbe 3471 0dbd
000001c0: 16bf b1bd fb65 be3d 3a30 cabb 8c95 05be
000001d0: 8733 6ebe 76ee a9bd 59aa c53d 6785 1c3e
000001e0: 7b93 11bd c26e 88bd 13dc a7bd 86a4 a6bc
000001f0: 1d92 c8bd 2863 dabc 56f8 153e 261c f53d
00000200: 09fb 9b3d 2d5d 34be db89 0dbe fac6 31bd
00000210: 0ad4 943d 02be d63c 19ca f5bd 8298 2bbd
00000220: 2552 83be a888 b23d f70e fabc 74c9 52be
00000230: 1f97 2f3e 751d a93c c88f d73d 844e 053e
00000240: 3552 67be 43b7 ff3b 57b3 1fbe 71ba 233e
00000250: df55 6a3d 40e0 993d c585 1bbd ab33 3ebe
00000260: b6bd 9bbc 3835 18be d9ed 1fbd fcae 6a3d
00000270: 2780 2b3c f28c 343d aeb3 9e3d 00fa 123d
00000280: da21 c63d 77b0 7ebe 51ed 47bd b8ec af3d
00000290: 1ce1 533d 0062 983d 50f0 48bd e21d 023e
000002a0: a799 e33d c178 d93c 90d6 b4bd 2624 10be
000002b0: b10c bb3d 4a85 9f3e 17d7 8d3e e3da b23b
000002c0: 3029 883e ac7a a4bd 269c 653e 8ca9 b4bc
000002d0: 17b3 90bd 0969 17bd 1a1a 84bd 7c64 86bd
000002e0: d402 5bbd a0d9 a93d db79 cd3d 16cc abbd
000002f0: 7c67 0d3d 647e 933d f278 543d 1327 6fbd
00000300: 4aec 88be 29c4 37be ba21 39be ed55 a03d
00000310: aa7c ed3d 95f3 d5bd 1d86 203e efac 1e3e
00000320: 2f38 953c f950 84bb 45ca 253e 5651 e13c
00000330: 5dbe 43be 0b5b 0b3e df80 efbc a7b0 49be
00000340: d4b4 123e 9761 5bbe 378c 2abe bf4c 47bd
00000350: 9012 2439 92d1 a03d 326f acbd 3a10 a23d
00000360: 8faa 453e 4f4d 083e 4e16 3bbd 7f7e 67be
00000370: c122 d8bd 3482 3bbe e82c 933c c582 3abe
00000380: 1f9f 84bc d42a 1e3d 19de 9ebd 3653 c2bc
00000390: e11d c5bd 32dc b6bd 7702 8fbd 3602 053e
000003a0: 48c2 83bc c28b c83d 0d8c 35be b833 d4bd
000003b0: edab 873d 2b49 12be e412 ea3d 7557 04bd
000003c0: 1e9e e8bd 695d f2bd 888e f23d 8846 183b
000003d0: c207 fd3d 65fb 113d e639 b2bd 11bf 5fbe
000003e0: 571f 80bd b488 cbbd 1f22 7ebc 29b0 d83d
000003f0: c4c9 f33d 2a42 bfbd 6afe 30be 375a b3bd
-0.04272785 0.14870353 -0.0756876 -0.09185391 0.005333914 0.07859731 0.13187678 -0.052952044
0.053210218 -0.0075923204 -0.03494658 0.060048424 -0.009121938 0.021487495 -0.008943895 0.076120205
0.104238026 0.07393512 0.094754145 -0.08829182 -0.0024777157 0.0700437 -0.1294534 -0.08677807
0.059681803 0.030180698 -0.0042142454 -0.039429344 -0.16550119 0.051039293 -0.01003584 0.0628045
-0.051517256 -0.07535482 0.013296257 -0.014821453 -0.0036609503 -0.055332005 0.007847833 -0.022261694
-0.03556975 0.023284402 -0.12038524 -0.01143953 -0.1695343 -0.020046962 0.027520845 0.05364794
0.053497046 0.0919027 -0.009690539 0.07966153 -0.12324894 0.035308965 0.07913003 -0.08445698
-0.010290239 0.12859048 0.09040122 -0.108242996 0.0014887917 -0.012054647 0.002717063 -0.07072929
-0.080352224 0.060392786 -0.014919041 -0.17162667 0.04336208 0.19801982 0.15340264 -0.094747886
0.16325969 -0.030699082 0.08283429 0.12308682 -0.23065594 0.0311327 0.03036046 -0.053988323
-0.082999475 0.05064573 -0.08578802 -0.1258083 -0.016562697 0.020023175 0.1648716 -0.022549976
0.0054438426 0.027563894 0.02447122 -0.023519116 -0.07147686 0.12911059 0.087474465 -0.014985621
0.020180361 -0.12521216 -0.11430536 0.105036624 -0.037973035 -0.028359173 0.14928727 -0.11724687
0.012776649 -0.16589718 0.015257672 0.0011347808 0.09173923 0.08951375 -0.13812616 -0.034531787
-0.08679025 0.09296795 -0.0061703 -0.13045329 -0.23261844 -0.08297436 0.09651632 0.15285264
-0.03554104 -0.066617504 -0.08196273 -0.020342123 -0.09793494 -0.02665861 0.14645514 0.119682595
0.076162405 -0.17613669 -0.13822119 -0.04340265 0.07267006 0.02621365 -0.12001438 -0.04189349
-0.2564861 0.08717471 -0.030524714 -0.20584661 0.17147492 0.020643929 0.10525471 0.13018233
-0.22589953 0.007803829 -0.15595756 0.1598909 0.0572108 0.075134754 -0.03796937 -0.18574397
-0.01901136 -0.14864051 -0.03904519 0.057295784 0.010467566 0.04407973 0.07749115 0.03588295
0.096744254 -0.24872003 -0.048810307 0.085900724 0.051728353 0.07440567 -0.049057305 0.12706712
0.11113291 0.026546838 -0.08829987 -0.1407629 0.0913328 0.3115638 0.27703163 0.0054582222
0.26593924 -0.0803121 0.22422847 -0.022053503 -0.07065409 -0.036965404 -0.06450291 -0.065621346
-0.053469494 0.08293462 0.10033008 -0.08388536 0.03452252 0.072018415 0.051873155 -0.058386873
-0.26742774 -0.17945923 -0.18079272 0.07828889 0.115960434 -0.1044685 0.1567616 0.15495656
0.018215267 -0.004037973 0.16190441 0.027504604 -0.19115587 0.13608949 -0.029236255 -0.19696294
0.14326793 -0.21423946 -0.1665505 -0.048657175 0.00015647174 0.07852472 -0.08419646 0.07913251
0.19303344 0.13310741 -0.04567557 -0.22606848 -0.10553504 -0.18311387 0.017965749 -0.18213947
-0.016189156 0.038615063 -0.077572055 -0.023721319 -0.096248396 -0.08928718 -0.06982892 0.12989125
-0.016083851 0.09792282 -0.17729206 -0.10361427 0.06624589 -0.14285724 0.11429384 -0.032309968
-0.113582835 -0.11834223 0.11843592 0.00232354 0.12354995 0.03564014 -0.087024495 -0.2185023
-0.062559776 -0.099381834 -0.015511065 0.10580475 0.11903718 -0.09338792 -0.17284551 -0.087574415

network_body._body_endoder.seq_layers.2.bias f4 [128]
00000000: aa71 13bd cde3 60bd 458b 36bb e56f 0c3d
00000010: b3bd 2ebc abc5 b33c 6dd3 83b9 339e 8bbd
00000020: f551 6b3b 76aa 8c3d b6f3 583b 5c25 9fbc
00000030: 6598 79bd 088d bf3c 8401 f7bb 3e1c 09bd
00000040: eb55 81bb 0adf 56bd 5663 7d3d 66c2 1fbd
00000050: 89ae ac38 414f b9bc 2d8b d6bd 112b 97bb
00000060: 9041 24bd 209e 2abb bc0c eebc 3612 e1ba
00000070: 401c 273c 57d5 843d 01f4 87bc d1cd 1e3c
00000080: c1fa 98bd 5ea0 03bc ec00 813b dfa3 02be
00000090: 346d 243b 2cc8 dfbd f4ae aebd 71d3 4f3d
000000a0: eda9 ba3d 5514 393c 635b da3d 348a 06be
000000b0: a2b4 14bd 25ef a03c cb38 4abd 87e8 533d
000000c0: 9deb a9bd d569 3b3d 9a16 c83d 02ad 35bd
000000d0: 644c f0bd 82cd 83bd 72ba fcbc 6c15 94bd
000000e0: e07d b13c 5b93 33bd f366 a6bd 4542 b53c
000000f0: d906 f7ba 6f80 99bd 80ef 313d ec4a acbc
00000100: 0839 d5bd 13b4 a1bb d95d 9a3d d853 dabd
00000110: 3d36 80bd 0047 9c3b 4d0d 93bd c0e9 b33d
00000120: a066 8fbd 4d66 b1bc 4076 fcbc 6e7a 463d
00000130: d47d c23b 591e 283d ec4a 47bd d16b 38bc
00000140: 5a26 53bd e9ab e7bd 2b95 973c 1e3b 1dbd
00000150: 6d7e 013d 76b0 e1bd 2dd9 f6bd 5e73 cb3b
00000160: 8a3a bcbc e5d6 b5bd e844 733d b3fc b5bb
00000170: ef9b 5bbd ad4e cdbd 1338 06be 97de 4dbd
00000180: 9ea5 3c3d e86b 2a3d 28e7 523c 9717 d8bc
00000190: 0f6e 15bd 25e3 213d d5a8 3fbd ab2d a8bd
000001a0: 13df 95bc 6b7e d7bc 9033 9bbd 2638 cc3d
000001b0: dbd1 bfbc 02bc cabc 785b fdbd 92c1 2b3c
000001c0: f21b a23c 8943 88bb 24af 00bd 648d 06bd
000001d0: 7e6e 8fbd c363 93bd 6040 b33b c0e4 5bbc
000001e0: e395 42bd c307 823c 6178 aebd af70 7dbd
000001f0: 1d5b 0d3b fa6f 84bd b172 d2bc fdcd bf3c
-0.03599707 -0.054904748 -0.0027854007 0.0342864 -0.010665345 0.021944841 -0.00025143792 -0.068172835
0.0035907004 0.0686845 0.0033104247 -0.019426994 -0.06093635 0.023382679 -0.0075380225 -0.0334742
-0.00394701 -0.0524588 0.061862312 -0.039003752 8.234109e-05 -0.022620799 -0.104757644 -0.004613288
-0.040101588 -0.0026034191 -0.029058807 -0.0017171565 0.010199606 0.06486004 -0.016595842 0.009692625
-0.074697025 -0.00803384 0.0039368775 -0.12757824 0.0025089504 -0.10926852 -0.085294634 0.050738756
0.09114442 0.011296351 0.10661962 -0.13138658 -0.036305077 0.019645283 -0.04937057 0.051735427
-0.08296893 0.045755226 0.09769936 -0.044354446 -0.1173332 -0.06435682 -0.030850623 -0.072306484
0.021666467 -0.0438417 -0.08125105 0.022126326 -0.0018846645 -0.074952 0.043441296 -0.02103182
-0.104112685 -0.0049347966 0.07537431 -0.10660523 -0.06260345 0.004769206 -0.07180271 0.08784819
-0.07001996 -0.021655226 -0.030818105 0.0484566 0.00593541 0.041044567 -0.048655435 -0.011256174
-0.051550247 -0.11312086 0.018503746 -0.038386457 0.03161471 -0.110199854 -0.12053142 0.006208821
-0.022977132 -0.088788785 0.059391886 -0.0055538057 -0.053615507 -0.10024772 -0.13107328 -0.050261106
0.046056382 0.041606814 0.012872495 -0.026378436 -0.036481913 0.039523263 -0.04679187 -0.082118355
-0.018294847 -0.026305398 -0.07578194 0.09971647 -0.023415497 -0.024747852 -0.12370962 0.0104831625
0.019788716 -0.0041584414 -0.031417027 -0.032849684 -0.070034966 -0.071967624 0.0054703206 -0.0134212375
-0.047506224 0.015872842 -0.08519054 -0.06187504 0.00215692 -0.0646667 -0.025689455 0.023413653

action_model._continuous_distribution.log_sigma f4 [1, 2]
00000000: a5f8 d7be 5ab4 64be
-0.42181888 -0.22334424

action_model._continuous_distribution.mu.weight f4 [2, 128]
00000000: 6ea3 c6bb ab55 30bc 8329 ef3d cd5f a53b
00000010: fb7f 273c 5198 ee3d bff8 49be e639 30be
00000020: 811b b3bc 83a3 8bbd d8ba a3bb 5df4 fcba
00000030: 3e6e 923d 1184 16be 40a0 3abd 9216 f73c
00000040: ca59 a93b 862d 05bc 5134 203e 94ed 1e3e
00000050: 762a 88ba 5bd1 203b b78f acbc f355 fdbb
00000060: f561 22bc 8c8f d13d 5326 cdbb e406 623c
00000070: 567d 3dbc 5e4d 923d 342c c53b 412c 783b
00000080: 6f4e 863d fa5c 4e3d 6e4e 35bc 9091 4dbe
00000090: 1362 ef39 24d2 0bbd 33dd 173d 8bbe 23be
000000a0: eacb 5c3e 5b2e 803c 44c1 b53d b91b 27bd
000000b0: 88d5 123a 9de9 2ebb 0b2b 853b c908 313c
000000c0: 6112 db3c de7b 593d d402 0e3e ad28 913d
000000d0: d70a dfbc 2856 bebd 0ce0 2abb a989 623c
000000e0: 44ad 05be bf8a d83c 92cb 263d cc2b 813d
000000f0: 3856 10bc 5561 ab3d 176a a1bd 1be2 42be
00000100: beb3 48bc 1a7b 5d3b 5ba7 37be 451b 623b
00000110: f432 32be d4c3 e53b 0973 dc3a 86e2 eb3c
00000120: cdab 783d 92a7 29bc e99b 823b a52d f9bc
00000130: 84c5 5dbe 714f 37be a563 39bb ef12 e8bb
00000140: 7de4 33bd f0ad cebd 088b 2d3b bc14 f2ba
00000150: 40ae 09be 89fb b13b 54b0 bebc 91f4 67be
00000160: d737 a43d 1b11 adbd 6f57 0dbe 56f9 013d
00000170: 3c2a fc3d 1b6e dbbd 49b7 69bd 6a9b a5bd
00000180: 5a9c 49bd b79a e83c 20ac 5ab7 62ca 393a
00000190: b3d4 08bc a2af c1bd b396 dd3d 4cbf f1bd
000001a0: 60fd 483c 8b1b 69b9 057b e73d e12c 9a3b
000001b0: b58b 91bb c7da 55bb 9227 7fbd c49f c9bb
000001c0: d035 5f3e a12a 113d f5d9 3d3c af1a 313e
000001d0: 6eec c3bd 0547 4fbd 4afa fcbb 393b d33c
000001e0: d5f0 f33a dcef d43d 26e5 d93c cfab d0ba
000001f0: d71c 303c 9e0f ec3d 8c4f 723b c9a1 283e
00000200: bd4f ea3a ce72 913c 4ac3 84bd c203 a3bb
00000210: f747 373b 42d7 6dbd 850d e3bb d28f d93c
00000220: 0e97 f43c cf51 f23c 07c7 5abc 66c1 983a
00000230: 90fd 68bd a104 0d3d 825d 783b a4f6 973c
00000240: dd6b 22bc 06ce 27bc 1c94 563d ada4 82bd
00000250: 4c58 1abc 476d f0bb b1db 16be 58bc e53b
00000260: 5603 71bc f7a0 5bbd cd14 84ba 9326 593c
00000270: 200d bb3b c6eb d73d 00bd 8dbc a850 d2b8
00000280: 106d 49be 3f70 003d c88f ebbb c026 d3bd
00000290: d494 33bc 9efe 2bbe d6e0 53bd 7877 493d
000002a0: 2d3c f83d 7adf c83b 305a 663e d371 05be
000002b0: 788d 1e3b e1a7 f1ba c85f 6ebb b24c 4f3d
000002c0: 4c0c 59bd f2a1 d23d 47d7 f93d 20eb edbc
000002d0: 86ff a7bd c8b7 67bd 0ce0 a1bb 0ffd a8bc
000002e0: 56c4 4c3d c606 8ebc d840 e3bc eec2 5e3d
000002f0: 4fc8 64bc d9dd 3fbd aaac 6a3d 9609 5cbc
00000300: c0fc d3bd 3f5c e43a 9f13 163e 033e 03be
00000310: cbe2 7d3c 7756 dc3b fca3 0bbc 18e0 873d
00000320: 5105 b0bd 0379 9cbc 036f fe3a ae24 b33d
00000330: 88ed 07bc 86f6 af3d 8620 83bc 935c b6bb
00000340: adaa 44bb 63c7 d4bd 2641 c6bb 0632 5a3b
00000350: 3054 763d 5597 9bbd e4d3 93bd e739 39bd
00000360: 1329 1fbd b6b4 79bd e10d a23d 4759 9b3c
00000370: a606 72bd 16ff f6bd 587c f5bd 124c cdbc
00000380: 7c4a 6b3d f5c8 443d 5bad b7bb 1dc0 083b
00000390: 8844 2c3c 7564 833d 521f 6ebd 9cd1 08bd
000003a0: 71f0 b7bb 2f40 19bc 91e7 86bd a846 003e
000003b0: 2798 d9ba 4d7e 02bc d68b b5bd a31d b0bb
000003c0: ec67 193c f6ba 183c 5253 ebbb bcb2 13bd
000003d0: f140 4dbd ad11 88bd 0414 4d3b daf3 2e3d
000003e0: 831d 0ebc 8b37 abba 883e 45bc 8d49 893b
000003f0: 2f2a 0e3c ce33 a3bd fe74 5bbb cb04 f53d
-0.006061963 -0.010762612 0.116778396 0.0050468207 0.010223384 0.11650146 -0.19723795 -0.17209587
-0.0218637 -0.06818297 -0.0049966387 -0.00192989 0.07149933 -0.14698817 -0.045562983 0.03016213
0.0051681744 -0.008128529 0.15644957 0.15520316 -0.0010388631 0.0024538848 -0.021064622 -0.007731193
-0.00991105 0.102324575 -0.006260672 0.013795588 -0.011565527 0.07143663 0.0060172323 0.0037868174
0.06557929 0.050381638 -0.011066062 -0.20075059 0.00045658703 -0.034135953 0.037076186 -0.15990655
0.21562162 0.015647104 0.08874753 -0.040797923 0.00056012766 -0.0026689537 0.004063969 0.010805317
0.026742162 0.053096645 0.13868266 0.070878364 -0.027226849 -0.09293777 -0.0026073484 0.013826766
-0.13054377 0.026433347 0.040721484 0.06307182 -0.008809619 0.08368174 -0.07881563 -0.19031565
-0.012249885 0.0033795298 -0.17934935 0.0034501117 -0.1740225 0.00701187 0.0016818951 0.028794538
0.060710717 -0.010354893 0.003985871 -0.030417273 -0.21657377 -0.17901398 -0.0028288153 -0.007082335
-0.043919075 -0.1009177 0.0026480574 -0.0018469314 -0.13445377 0.0054315967 -0.02327744 -0.22651888
0.08018463 -0.08450528 -0.13802885 0.031731926 0.12312743 -0.1071436 -0.05705956 -0.080862835
-0.049221374 0.028394086 -1.30338885e-05 0.00070873473 -0.008351493 -0.094573274 0.10819759 -0.11804065
0.012267441 -0.00022230872 0.11302761 0.004705057 -0.004441703 -0.0032631622 -0.062293597 -0.0061530787
0.21797872 0.035441045 0.01158761 0.17295335 -0.0956658 -0.05060484 -0.0077202665 0.025785076
0.0018611202 0.10397312 0.026598524 -0.0015920344 0.010749063 0.11526416 0.0036973683 0.16467966
0.0017876547 0.017754938 -0.06482561 -0.004974813 0.0027966478 -0.058066614 -0.006929102 0.026557837
0.029857185 0.029580025 -0.013353116 0.0011654317 -0.05688244 0.034428243 0.0037897532 0.018550225
-0.009913412 -0.010241991 0.05238734 -0.06379066 -0.009420466 -0.0073372456 -0.14732243 0.0070109777
-0.014710268 -0.053620305 -0.0010077 0.013253826 0.0057083517 0.10543017 -0.017302036 -0.00010028604
-0.1967051 0.031357046 -0.007188771 -0.10310125 -0.010960776 -0.16796347 -0.051728092 0.0491862
0.121208526 0.006130156 0.22495341 -0.13031702 0.0024193209 -0.0018436873 -0.0036373008 0.05061025
-0.052990243 0.10284795 0.12199264 -0.02904278 -0.08203034 -0.05657175 -0.0049400385 -0.02062848
0.049991928 -0.017337214 -0.02774088 0.05438512 -0.013963773 -0.04684243 0.05729357 -0.01343002
-0.103509426 0.0017422511 0.14655922 -0.12816624 0.015495966 0.0067241746 -0.008522984 0.06634539
-0.08594764 -0.019100672 0.0019411746 0.087472305 -0.008296378 0.085919425 -0.01600672 -0.005565235
-0.0030008957 -0.103895925 -0.006050247 0.0033293976 0.06013888 -0.07597224 -0.07218149 -0.045221236
-0.03885753 -0.060963355 0.079128034 0.01896347 -0.05908837 -0.120603725 -0.11986607 -0.025060687
0.05744408 0.04804321 -0.0056053824 0.0020866462 0.010514386 0.06415645 -0.058135338 -0.033403024
-0.0056133796 -0.0093536815 -0.065871365 0.12526953 -0.0016601131 -0.007964683 -0.08864562 -0.0053746267
0.009363156 0.009321919 -0.0071815634 -0.036059126 -0.05011076 -0.066439964 0.0031292448 0.042713024
-0.008674028 -0.0013062818 -0.012038834 0.004189676 0.00867705 -0.07968865 -0.003348648 0.11963805

action_model._continuous_distribution.mu.bias f4 [2]
00000000: 60b4 7abb 8fcf fb3d
-0.0038254485 0.12295448
