Assets/ML-Agents/Training Files/results/9roads_imitation_6epoch-2048buffer/VehicleAgent/VehicleAgent-4999902.pt (torch, 631312 bytes, 49 tensors)

network_body._body_endoder.seq_layers.0.weight f4 [128, 38]
000000 68 9a 87 3e 20 af 3b be 25 26 32 be 22 07 9f 3d
       0.2648499 -0.18328524 -0.17397363 0.07765032
000010 d8 10 19 be 78 66 de 3d 11 6c cd 3d ae 54 3f bd
       -0.14947832 0.10859388 0.10030378 -0.046711616
000020 a9 4e d4 3e 2d d4 bb bd 9e 16 ab 3d 23 58 84 3e
       0.41466263 -0.09171329 0.08353923 0.25848493
000030 b0 94 0e be 62 e1 d4 3e 77 9e c2 3c 01 90 90 3e
       -0.13923907 0.41578203 0.023757203 0.28234866
000040 2e 3b 5c bd b6 6d ef 3c 1a ed f8 3d 83 40 5e bd
       -0.053767376 0.029227119 0.121545985 -0.054260742
000050 0e 76 e2 3d 1d ed 3a 3e 57 2d 82 bd 47 e5 7b 3e
       0.110576734 0.18254514 -0.06356304 0.24599181
000060 bb bf 0d 3e 40 f6 43 3e 30 f6 f0 3d d9 43 a7 bd
       0.1384267 0.19136906 0.117657065 -0.08167238
000070 5a 6f 83 bd 77 cf 03 bd 20 62 b6 3b e2 96 21 3e
       -0.06417723 -0.032180276 0.0055658966 0.15780213
000080 1d 19 35 bd bc d8 8b 3e bf 69 e1 3d d7 92 36 bc
       -0.044213403 0.27313793 0.110064976 -0.011143408
000090 b3 7c 74 3d ca 14 46 bd 09 8a 7c 3e 20 5a e5 bd
       0.059689235 -0.04835967 0.24662031 -0.111988306
0000a0 dd 70 4d 3c 1f 9d 0c bd 14 70 98 be e7 41 aa 3e
       0.012539116 -0.03432953 -0.2977301 0.33253404
0000b0 5f 5f a3 be cb 9c 6e 3e ab b5 8d 3a b6 17 37 bd
       -0.319087 0.23302 0.0010811588 -0.044700347
0000c0 44 59 43 3e 85 85 f3 bc bc 54 7d be 65 cb 90 be
       0.19077021 -0.029726753 -0.24739355 -0.28280178
0000d0 ed 27 8e be bb c5 90 3d bd 49 ca 3d 34 21 f2 3d
       -0.27764836 0.07068964 0.09877346 0.11822739
0000e0 54 ca d5 be c2 0d 2a be 4f 01 9d 3d 79 e7 76 bd
       -0.41755927 -0.1660681 0.07666265 -0.060279343
0000f0 fb 35 87 be 09 48 8e 3e 03 3e 67 be 59 f5 2b 3d
       -0.2640837 0.27789333 -0.2258225 0.04198203
000100 cb d2 0f 3d 36 9a 79 3e 9f c1 01 3e 7c 4d 04 be
       0.035113137 0.24375233 0.12671517 -0.12920183
000110 a4 e9 f2 bc d2 1b b1 3e 5b 9a e8 be f9 65 9f 39
       -0.029652424 0.34591538 -0.45430264 0.0003040282
000120 89 b5 a4 be de 16 cc be e5 f7 fd 3d c3 4e 49 be
       -0.3216975 -0.39861196 0.12400798 -0.19658951
000130 1b 92 90 3d e0 cd 64 3e e7 e7 05 3e 8b 9f b6 3e
       0.070591174 0.2234416 0.13076745 0.35668597
000140 ec 52 de be e1 38 3f be 85 57 7f 3e 58 72 a1 bb
       -0.4342264 -0.18674041 0.2493573 -0.004926961
000150 95 4a 41 3e 3f f7 18 3e 52 4f b3 3e 52 ba b8 3d
       0.18876107 0.14938067 0.35021454 0.09019913
000160 2d cf 55 bc 9b 41 30 3d f4 a5 7c be 9a 75 06 be
       -0.013049883 0.043031316 -0.24672681 -0.13130799
000170 a7 03 e6 3d 1e 8b b1 3c ff 23 73 bd 3a 39 a9 bc
       0.112311654 0.021672782 -0.0593605 -0.02065717
000180 d7 fc b0 3d 8b 3a 19 be 0a dc 07 be 66 9a ff 3d
       0.086419754 -0.14963739 -0.13267532 0.12480621
000190 03 3d 84 3e 1a 32 92 3e b6 29 08 bd 83 cc cc be
       0.25827798 0.2855385 -0.033242904 -0.3999978
0001a0 40 65 3e be 35 a0 15 bd 70 ae e7 3e 11 06 ab be
       -0.18593311 -0.03652974 0.45250273 -0.33403066
0001b0 8c 15 10 3d ce 81 e1 3d c0 35 a2 3e 00 b3 6c be
       0.0351768 0.110110864 0.31681633 -0.23115158
0001c0 c1 17 41 be bd c3 37 be a4 a0 7f be e2 a7 27 bd
       -0.18856718 -0.17945762 -0.24963623 -0.04093159
0001d0 d0 e3 f6 3d 6d c9 3a 3e b1 37 fb 3d e5 fa 02 bd
       0.120551705 0.182409 0.12266482 -0.031977553
0001e0 5f ba 0a 3e 6d 4c 94 bb b1 bf 9f 3d a1 b9 0e 3d
       0.13547657 -0.004525712 0.07800234 0.034845
0001f0 ad 29 74 be 6b f5 0b 3c f9 a5 fd 3e d7 bf 21 be
       -0.23844023 0.008542399 0.4954069 -0.15795837
000200 99 85 de be 78 c6 0e bd 86 db e4 3d 14 38 05 be
       -0.43461302 -0.034857243 0.11174683 -0.13009673
000210 07 05 96 bd de 05 a2 3b eb 27 20 be 42 ee c8 bd
       -0.07325178 0.004944547 -0.15640227 -0.09811069
000220 66 9b c2 3d a0 ae 2e 3e 4e 79 a6 bd e9 ac b7 be
       0.09502296 0.17058802 -0.08128606 -0.35874107
000230 69 0f be 3d 75 fc 04 3e a4 54 57 be 50 03 d4 3d
       0.09280283 0.1298693 -0.21028382 0.10352194
000240 92 45 56 3e 1b 42 3b be a7 61 71 3d b0 0c 1e 3e
       0.20924976 -0.18286936 0.05893102 0.15434527
000250 23 4d 7c be 89 81 cc bd 34 75 2d be 4b e1 60 3d
       -0.246388 -0.09985644 -0.1693924 0.054902356
000260 f4 09 38 bd 53 cd cc 3c b0 4d 15 bd e1 dd 58 3d
       -0.044931367 0.02500025 -0.03645104 0.052945975
000270 49 bd 84 bd 9a 4f 74 be 7e c7 e1 bd 73 91 c5 3d
       -0.06481416 -0.2385849 -0.11024378 0.09646883
000280 8c ed 5b 3e cc 35 05 bd 65 2c 1e be 0d 13 da 3e
       0.21477336 -0.032522008 -0.15446623 0.4259266
000290 a6 04 60 be 17 7c 90 be 36 0d 40 3e d9 c6 c3 bd
       -0.21876773 -0.28219673 0.1875504 -0.095594116
0002a0 33 49 e7 3e de 83 84 bc a0 ec 52 3e c5 d3 82 3e
       0.45173034 -0.01617616 0.20598078 0.25552192
0002b0 31 0a 3f 3d 80 c6 75 be 0f 96 3f be eb 79 d5 bd
       0.04664058 -0.24001503 -0.18709587 -0.10423645
0002c0 86 05 1e 3e 06 eb 0b 3e 66 7f 71 3e a5 2f 87 be
       0.15431795 0.13663873 0.23583755 -0.26403537
0002d0 f7 12 1e be f9 1c ba be f0 ee f0 be 65 0d 1c 3e
       -0.15436922 -0.3635023 -0.47057295 0.15239485
0002e0 b6 58 92 3d 61 96 fb bd 5f 39 08 3e 57 cf 17 3e
       0.071458265 -0.12284542 0.13303135 0.14825188
0002f0 69 64 3d bc bc 38 54 3e 0a 49 a4 3e 13 35 b3 3e
       -0.011559584 0.20724767 0.32086974 0.3500143
000300 30 ba 41 3e 62 b7 03 3f 95 27 9a 3d b6 60 38 be
       0.18918681 0.51451695 0.07527081 -0.18005642
000310 9a 27 2d 3e 36 dd 89 be 4a 04 b3 3e bd d6 2d 3e
       0.16909638 -0.26926583 0.3496421 0.16976447
000320 5f 92 40 3e 35 12 38 3e 3e 18 8d be 3f 02 72 be
       0.18805836 0.17975695 -0.27557558 -0.2363367
000330 ca ff de bc 35 98 63 be ea c2 37 3e e2 80 6d 3d
       -0.02722158 -0.22226031 0.17945448 0.05798424
000340 e5 6b 82 3d 8b 60 ad 3e 00 bb 83 3d 74 71 7c 3e
       0.063682355 0.3386272 0.06432152 0.24652654
000350 92 1d 2e bd 0d fa 19 bf d4 4c 8b bd 4b 26 35 be
       -0.04250867 -0.6014717 -0.06801763 -0.17690389
000360 ff 3a 22 3e 73 9e c2 bd 10 81 03 3e 34 6c 0d bf
       0.15842818 -0.09502878 0.12842202 -0.5524323
000370 04 98 a9 3e 85 b1 81 be 90 01 d6 3d 2d 8e 05 3e
       0.3312379 -0.2533075 0.10449517 0.13042517
000380 37 5a f1 3e 23 c5 90 3e 20 7b 12 bd a2 6f 52 3e
       0.4713914 0.28275403 -0.035761952 0.20550397
000390 81 3d e8 3d 85 6f c4 bd df c1 c8 be ea 44 e4 3d
       0.11339856 -0.09591583 -0.39210412 0.11145957
0003a0 79 5e 0e bc 8f e8 db 3e 45 b9 92 be b2 aa 04 be
       -0.008689516 0.42950866 -0.28656974 -0.1295574
0003b0 e9 b9 54 3c 65 79 5a be bb f5 e9 3c b7 30 84 3d
       0.012983778 -0.21335371 0.028559556 0.06454604
0003c0 be 70 4a 3e 97 51 7a bd a7 bf 43 3d ba ca 73 be
       0.1976957 -0.061112966 0.047790196 -0.23807803
0003d0 4a 59 d7 3e cd 2c ec bc 1a 02 e8 3e 59 2a 9d 3d
       0.4206031 -0.028829956 0.45314103 0.07674093
0003e0 6b 7a 07 3e c8 c7 51 3d 7f 16 02 3e 92 cf 2d be
       0.13230292 0.051215917 0.12703894 -0.16973713
0003f0 90 39 83 3e 5c 95 72 be 7b 97 92 be 03 9e b7 3a
       0.25629854 -0.23689789 -0.28631195 0.0014008883

network_body._body_endoder.seq_layers.0.bias f4 [128]
000000 41 7c 0c be 0f be bb 3c 2e f4 47 bd 30 07 90 3d
       -0.13719274 0.022917775 -0.048816852 0.07032621
000010 c7 41 77 3c b3 14 99 bd 2a a9 d1 bc 0f 2f a6 3d
       0.015091366 -0.07474651 -0.025593359 0.081144445
000020 4d 58 f5 bd c8 af 61 bd 97 be 78 bd 98 2b 6e bd
       -0.11979733 -0.05509928 -0.060728636 -0.058147043
000030 47 83 83 3d 10 11 00 3d 67 33 4b bd 68 3c 1a bc
       0.064215235 0.031266272 -0.049609568 -0.009413816
000040 0a 30 2a 3e 63 ed af bc ae 34 29 3d 3a ab f3 3b
       0.16619888 -0.0214755 0.041310005 0.0074361833
000050 19 0b 9c bd c4 63 e1 3c 50 00 be bd 34 7b af bd
       -0.07619304 0.027513392 -0.09277403 -0.08568421
000060 90 7a d0 bd 1f 4c 35 bd 51 ad b4 3a a1 e2 0a bc
       -0.10179627 -0.044262048 0.0013784562 -0.008476884
000070 64 0b b9 3d b0 97 a1 3c 12 37 13 3c 02 60 0d bb
       0.09035376 0.01972565 0.008985298 -0.0021572118
000080 2d 27 f9 bb a4 41 37 bd 15 9f 7c 3d 57 38 e4 bc
       -0.007603547 -0.044740334 0.06167515 -0.027858896
000090 9e cb c5 3d 25 65 42 bd a3 57 c2 bc f2 7a 17 3d
       0.096579775 -0.04745974 -0.02372343 0.036982484
0000a0 b9 84 83 bd 06 1d 9e ba b7 60 94 3d 24 b8 ff 3d
       -0.06421799 -0.0012063093 0.072450094 0.12486294
0000b0 03 2a 76 bd 08 fb 9f 3c 87 65 84 bc 01 3f d2 bc
       -0.06009866 0.01952888 -0.016161693 -0.025664808
0000c0 36 9f 8f 3d 0c ab d5 3c a8 16 c9 3d 3f 19 9d ba
       0.07012789 0.026082538 0.098187745 -0.0011985673
0000d0 0d bc a0 3b 20 c3 64 bd 58 80 90 3d 99 33 22 3d
       0.00490523 -0.05585015 0.0705573 0.03959999
0000e0 4e a9 f4 bd 09 cd f5 3b 71 ba da bd 5a 3d b7 3d
       -0.11946355 0.0075012487 -0.10680092 0.08947249
0000f0 b1 0f 0b 3d ea df 23 3c c0 f6 27 bd fa 0b b5 3d
       0.03395051 0.010002116 -0.041006804 0.08840175
000100 0c 6b 8e 3d c4 7c b0 bd f5 1f b3 3d 6b 65 8a bd
       0.06954011 -0.08617547 0.0874633 -0.06757625
000110 83 96 eb 3d 7a 90 03 3e c7 c2 7b bd 54 a5 be 3d
       0.11503317 0.12848082 -0.06146505 0.093088776
000120 92 ec 4c 3d d4 ac ab bc f8 09 8e 3d c6 2e a6 bd
       0.0500303 -0.020956434 0.06935495 -0.0811439
000130 11 cf aa 3d 1a 2d 4c 3d ff f9 be bc 4b 18 b9 3c
       0.08340276 0.0498477 -0.023312567 0.022594592
000140 9b 33 6d bc 48 73 b3 bc 8c 36 06 3d b0 ca c7 bd
       -0.014477636 -0.021905556 0.032766864 -0.097554564
000150 b3 d1 29 3d 88 04 d8 bd d9 16 96 bd a1 95 3f bd
       0.04145975 -0.10547739 -0.073285766 -0.046773557
000160 c2 45 ee bc 90 6b de 3c 6e 85 f2 3c 82 67 27 3d
       -0.029085997 0.0271509 0.02960464 0.040870197
000170 57 52 8b bd d4 8c a7 bd 5e 84 56 bd 80 aa 1d bd
       -0.068028145 -0.08181158 -0.05237233 -0.03849268
000180 6b 46 3c 3d 69 74 7a bc bc fa cb 3d 3a b7 e2 bc
       0.045965593 -0.015286543 0.09959933 -0.02767526
000190 ba 9d 33 3d 17 90 f9 3d c3 be ea bc e1 e5 ed 3d
       0.04385159 0.12185686 -0.028655415 0.116161115
0001a0 8f a6 4b bd b9 61 ac bc 4f 86 09 be c2 32 e5 3d
       -0.04971939 -0.021042692 -0.13430141 0.11191322
0001b0 9e 03 a4 3b 0f 56 38 bd 80 cb 8d bd b2 5d 02 3e
       0.005005314 -0.045003947 -0.0692358 0.12731054
0001c0 7d a7 c8 bc a9 68 83 3d 72 41 c0 3c c2 78 e7 bb
       -0.024493927 0.06416447 0.023468707 -0.007063956
0001d0 5d 92 98 3d 47 3f 2f 3d f8 7b 68 bd 47 81 68 3d
       0.074497916 0.042784955 -0.05675885 0.056763913
0001e0 ac ae 73 bd 32 b4 83 bb b5 2b 01 be 7f 38 d2 bd
       -0.059492752 -0.0040192837 -0.12614329 -0.10264682
0001f0 25 f0 45 3d b5 b7 fc 3c 31 93 d6 3d bf 3b 34 bd
       0.048324723 0.030849317 0.10477293 -0.04400229

network_body._body_endoder.seq_layers.2.weight f4 [128, 128]
000000 66 03 2f bd bd 45 18 3e 1a 02 9b bd e7 1d bc bd
       -0.04272785 0.14870353 -0.0756876 -0.09185391
000010 1d c8 ae 3b a0 f7 a0 3d b5 0a 07 3e 3e e4 58 bd
       0.005333914 0.07859731 0.13187678 -0.052952044
000020 f5 f2 59 3d 00 c9 f8 bb 25 24 0f bd 56 f5 75 3d
       0.053210218 -0.0075923204 -0.03494658 0.060048424
000030 2e 74 15 bc 8b 06 b0 3c 6a 89 12 bc e9 e4 9b 3d
       -0.009121938 0.021487495 -0.008943895 0.076120205
000040 bf 7a d5 3d 4c 6b 97 3d 76 0e c2 3d 57 d2 b4 bd
       0.104238026 0.07393512 0.094754145 -0.08829182
000050 2c 61 22 bb 12 73 8f 3d 6f 8f 04 be b3 b8 b1 bd
       -0.0024777157 0.0700437 -0.1294534 -0.08677807
000060 e8 74 74 3d 83 3d f7 3c a7 17 8a bb aa 80 21 bd
       0.059681803 0.030180698 -0.0042142454 -0.039429344
000070 25 79 29 be 94 0e 51 3d 5d 6d 24 bc a5 9f 80 3d
       -0.16550119 0.051039293 -0.01003584 0.0628045
000080 c2 03 53 bd a1 53 9a bd 8b d8 59 3c ae d5 72 bc
       -0.051517256 -0.07535482 0.013296257 -0.014821453
000090 8e ec 6f bb d0 a3 62 bd 33 94 00 3c 28 5e b6 bc
       -0.0036609503 -0.055332005 0.007847833 -0.022261694
0000a0 96 b1 11 bd ee be be 3c 89 8c f6 bd de 6c 3b bc
       -0.03556975 0.023284402 -0.12038524 -0.01143953
0000b0 66 9a 2d be 87 39 a4 bc 65 73 e1 3c f1 bd 5b 3d
       -0.1695343 -0.020046962 0.027520845 0.05364794
0000c0 b8 1f 5b 3d 7c 37 bc 3d 11 c5 1e bc 96 25 a3 3d
       0.053497046 0.0919027 -0.009690539 0.07966153
0000d0 f1 69 fc bd 22 a0 10 3d ed 0e a2 3d c8 f7 ac bd
       -0.12324894 0.035308965 0.07913003 -0.08445698
0000e0 64 98 28 bc 39 ad 03 3e 46 24 b9 3d 81 ae dd bd
       -0.010290239 0.12859048 0.09040122 -0.108242996
0000f0 8f 23 c3 3a db 80 45 bc c1 10 32 3b 85 da 90 bd
       0.0014887917 -0.012054647 0.002717063 -0.07072929
000100 b5 8f a4 bd 6d 5e 77 3d fe 6e 74 bc e7 be 2f be
       -0.080352224 0.060392786 -0.014919041 -0.17162667
000110 70 9c 31 3d b5 c5 4a 3e 95 15 1d 3e 2e 0b c2 bd
       0.04336208 0.19801982 0.15340264 -0.094747886
000120 8c 2d 27 3e a4 7c fb bc 06 a5 a9 3d f1 14 fc 3d
       0.16325969 -0.030699082 0.08283429 0.12308682
000130 12 31 6c be 01 0a ff 3c 80 b6 f8 3c dc 22 5d bd
       -0.23065594 0.0311327 0.03036046 -0.053988323
000140 a1 fb a9 bd e6 71 4f 3d a1 b1 af bd e4 d3 00 be
       -0.082999475 0.05064573 -0.08578802 -0.1258083
000150 7e ae 87 bc a4 07 a4 3c 1a d4 28 3e ba ba b8 bc
       -0.016562697 0.020023175 0.1648716 -0.022549976
000160 43 62 b2 3b ad cd e1 3c de 77 c8 3c 29 ab c0 bc
       0.0054438426 0.027563894 0.02447122 -0.023519116
000170 76 62 92 bd 91 35 04 3e d0 25 b3 3d 40 86 75 bc
       -0.07147686 0.12911059 0.087474465 -0.014985621
000180 49 51 a5 3c 9e 37 00 be ee 18 ea bd 71 1d d7 3d
       0.020180361 -0.12521216 -0.11430536 0.105036624
000190 9d 89 1b bd 7f 51 e8 bc c3 de 18 3e 21 1f f0 bd
       -0.037973035 -0.028359173 0.14928727 -0.11724687
0001a0 26 55 51 3c f3 e0 29 be 51 fb 79 3c ed bc 94 3a
       0.012776649 -0.16589718 0.015257672 0.0011347808
0001b0 c7 e1 bb 3d fc 52 b7 3d f2 70 0d be 34 71 0d bd
       0.09173923 0.08951375 -0.13812616 -0.034531787
0001c0 16 bf b1 bd fb 65 be 3d 3a 30 ca bb 8c 95 05 be
       -0.08679025 0.09296795 -0.0061703 -0.13045329
0001d0 87 33 6e be 76 ee a9 bd 59 aa c5 3d 67 85 1c 3e
       -0.23261844 -0.08297436 0.09651632 0.15285264
0001e0 7b 93 11 bd c2 6e 88 bd 13 dc a7 bd 86 a4 a6 bc
       -0.03554104 -0.066617504 -0.08196273 -0.020342123
0001f0 1d 92 c8 bd 28 63 da bc 56 f8 15 3e 26 1c f5 3d
       -0.09793494 -0.02665861 0.14645514 0.119682595
000200 09 fb 9b 3d 2d 5d 34 be db 89 0d be fa c6 31 bd
       0.076162405 -0.17613669 -0.13822119 -0.04340265
000210 0a d4 94 3d 02 be d6 3c 19 ca f5 bd 82 98 2b bd
       0.07267006 0.02621365 -0.12001438 -0.04189349
000220 25 52 83 be a8 88 b2 3d f7 0e fa bc 74 c9 52 be
       -0.2564861 0.08717471 -0.030524714 -0.20584661
000230 1f 97 2f 3e 75 1d a9 3c c8 8f d7 3d 84 4e 05 3e
       0.17147492 0.020643929 0.10525471 0.13018233
000240 35 52 67 be 43 b7 ff 3b 57 b3 1f be 71 ba 23 3e
       -0.22589953 0.007803829 -0.15595756 0.1598909
000250 df 55 6a 3d 40 e0 99 3d c5 85 1b bd ab 33 3e be
       0.0572108 0.075134754 -0.03796937 -0.18574397
000260 b6 bd 9b bc 38 35 18 be d9 ed 1f bd fc ae 6a 3d
       -0.01901136 -0.14864051 -0.03904519 0.057295784
000270 27 80 2b 3c f2 8c 34 3d ae b3 9e 3d 00 fa 12 3d
       0.010467566 0.04407973 0.07749115 0.03588295
000280 da 21 c6 3d 77 b0 7e be 51 ed 47 bd b8 ec af 3d
       0.096744254 -0.24872003 -0.048810307 0.085900724
000290 1c e1 53 3d 00 62 98 3d 50 f0 48 bd e2 1d 02 3e
       0.051728353 0.07440567 -0.049057305 0.12706712
0002a0 a7 99 e3 3d c1 78 d9 3c 90 d6 b4 bd 26 24 10 be
       0.11113291 0.026546838 -0.08829987 -0.1407629
0002b0 b1 0c bb 3d 4a 85 9f 3e 17 d7 8d 3e e3 da b2 3b
       0.0913328 0.3115638 0.27703163 0.0054582222
0002c0 30 29 88 3e ac 7a a4 bd 26 9c 65 3e 8c a9 b4 bc
       0.26593924 -0.0803121 0.22422847 -0.022053503
0002d0 17 b3 90 bd 09 69 17 bd 1a 1a 84 bd 7c 64 86 bd
       -0.07065409 -0.036965404 -0.06450291 -0.065621346
0002e0 d4 02 5b bd a0 d9 a9 3d db 79 cd 3d 16 cc ab bd
       -0.053469494 0.08293462 0.10033008 -0.08388536
0002f0 7c 67 0d 3d 64 7e 93 3d f2 78 54 3d 13 27 6f bd
       0.03452252 0.072018415 0.051873155 -0.058386873
000300 4a ec 88 be 29 c4 37 be ba 21 39 be ed 55 a0 3d
       -0.26742774 -0.17945923 -0.18079272 0.07828889
000310 aa 7c ed 3d 95 f3 d5 bd 1d 86 20 3e ef ac 1e 3e
       0.115960434 -0.1044685 0.1567616 0.15495656
000320 2f 38 95 3c f9 50 84 bb 45 ca 25 3e 56 51 e1 3c
       0.018215267 -0.004037973 0.16190441 0.027504604
000330 5d be 43 be 0b 5b 0b 3e df 80 ef bc a7 b0 49 be
       -0.19115587 0.13608949 -0.029236255 -0.19696294
000340 d4 b4 12 3e 97 61 5b be 37 8c 2a be bf 4c 47 bd
       0.14326793 -0.21423946 -0.1665505 -0.048657175
000350 90 12 24 39 92 d1 a0 3d 32 6f ac bd 3a 10 a2 3d
       0.00015647174 0.07852472 -0.08419646 0.07913251
000360 8f aa 45 3e 4f 4d 08 3e 4e 16 3b bd 7f 7e 67 be
       0.19303344 0.13310741 -0.04567557 -0.22606848
000370 c1 22 d8 bd 34 82 3b be e8 2c 93 3c c5 82 3a be
       -0.10553504 -0.18311387 0.017965749 -0.18213947
000380 1f 9f 84 bc d4 2a 1e 3d 19 de 9e bd 36 53 c2 bc
       -0.016189156 0.038615063 -0.077572055 -0.023721319
000390 e1 1d c5 bd 32 dc b6 bd 77 02 8f bd 36 02 05 3e
       -0.096248396 -0.08928718 -0.06982892 0.12989125
0003a0 48 c2 83 bc c2 8b c8 3d 0d 8c 35 be b8 33 d4 bd
       -0.016083851 0.09792282 -0.17729206 -0.10361427
0003b0 ed ab 87 3d 2b 49 12 be e4 12 ea 3d 75 57 04 bd
       0.06624589 -0.14285724 0.11429384 -0.032309968
0003c0 1e 9e e8 bd 69 5d f2 bd 88 8e f2 3d 88 46 18 3b
       -0.113582835 -0.11834223 0.11843592 0.00232354
0003d0 c2 07 fd 3d 65 fb 11 3d e6 39 b2 bd 11 bf 5f be
       0.12354995 0.03564014 -0.087024495 -0.2185023
0003e0 57 1f 80 bd b4 88 cb bd 1f 22 7e bc 29 b0 d8 3d
       -0.062559776 -0.099381834 -0.015511065 0.10580475
0003f0 c4 c9 f3 3d 2a 42 bf bd 6a fe 30 be 37 5a b3 bd
       0.11903718 -0.09338792 -0.17284551 -0.087574415

network_body._body_endoder.seq_layers.2.bias f4 [128]
000000 aa 71 13 bd cd e3 60 bd 45 8b 36 bb e5 6f 0c 3d
       -0.03599707 -0.054904748 -0.0027854007 0.0342864
000010 b3 bd 2e bc ab c5 b3 3c 6d d3 83 b9 33 9e 8b bd
       -0.010665345 0.021944841 -0.00025143792 -0.068172835
000020 f5 51 6b 3b 76 aa 8c 3d b6 f3 58 3b 5c 25 9f bc
       0.0035907004 0.0686845 0.0033104247 -0.019426994
000030 65 98 79 bd 08 8d bf 3c 84 01 f7 bb 3e 1c 09 bd
       -0.06093635 0.023382679 -0.0075380225 -0.0334742
000040 eb 55 81 bb 0a df 56 bd 56 63 7d 3d 66 c2 1f bd
       -0.00394701 -0.0524588 0.061862312 -0.039003752
000050 89 ae ac 38 41 4f b9 bc 2d 8b d6 bd 11 2b 97 bb
       8.234109e-05 -0.022620799 -0.104757644 -0.004613288
000060 90 41 24 bd 20 9e 2a bb bc 0c ee bc 36 12 e1 ba
       -0.040101588 -0.0026034191 -0.029058807 -0.0017171565
000070 40 1c 27 3c 57 d5 84 3d 01 f4 87 bc d1 cd 1e 3c
       0.010199606 0.06486004 -0.016595842 0.009692625
000080 c1 fa 98 bd 5e a0 03 bc ec 00 81 3b df a3 02 be
       -0.074697025 -0.00803384 0.0039368775 -0.12757824
000090 34 6d 24 3b 2c c8 df bd f4 ae ae bd 71 d3 4f 3d
       0.0025089504 -0.10926852 -0.085294634 0.050738756
0000a0 ed a9 ba 3d 55 14 39 3c 63 5b da 3d 34 8a 06 be
       0.09114442 0.011296351 0.10661962 -0.13138658
0000b0 a2 b4 14 bd 25 ef a0 3c cb 38 4a bd 87 e8 53 3d
       -0.036305077 0.019645283 -0.04937057 0.051735427
0000c0 9d eb a9 bd d5 69 3b 3d 9a 16 c8 3d 02 ad 35 bd
       -0.08296893 0.045755226 0.09769936 -0.044354446
0000d0 64 4c f0 bd 82 cd 83 bd 72 ba fc bc 6c 15 94 bd
       -0.1173332 -0.06435682 -0.030850623 -0.072306484
0000e0 e0 7d b1 3c 5b 93 33 bd f3 66 a6 bd 45 42 b5 3c
       0.021666467 -0.0438417 -0.08125105 0.022126326
0000f0 d9 06 f7 ba 6f 80 99 bd 80 ef 31 3d ec 4a ac bc
       -0.0018846645 -0.074952 0.043441296 -0.02103182
000100 08 39 d5 bd 13 b4 a1 bb d9 5d 9a 3d d8 53 da bd
       -0.104112685 -0.0049347966 0.07537431 -0.10660523
000110 3d 36 80 bd 00 47 9c 3b 4d 0d 93 bd c0 e9 b3 3d
       -0.06260345 0.004769206 -0.07180271 0.08784819
000120 a0 66 8f bd 4d 66 b1 bc 40 76 fc bc 6e 7a 46 3d
       -0.07001996 -0.021655226 -0.030818105 0.0484566
000130 d4 7d c2 3b 59 1e 28 3d ec 4a 47 bd d1 6b 38 bc
       0.00593541 0.041044567 -0.048655435 -0.011256174
000140 5a 26 53 bd e9 ab e7 bd 2b 95 97 3c 1e 3b 1d bd
       -0.051550247 -0.11312086 0.018503746 -0.038386457
000150 6d 7e 01 3d 76 b0 e1 bd 2d d9 f6 bd 5e 73 cb 3b
       0.03161471 -0.110199854 -0.12053142 0.006208821
000160 8a 3a bc bc e5 d6 b5 bd e8 44 73 3d b3 fc b5 bb
       -0.022977132 -0.088788785 0.059391886 -0.0055538057
000170 ef 9b 5b bd ad 4e cd bd 13 38 06 be 97 de 4d bd
       -0.053615507 -0.10024772 -0.13107328 -0.050261106
000180 9e a5 3c 3d e8 6b 2a 3d 28 e7 52 3c 97 17 d8 bc
       0.046056382 0.041606814 0.012872495 -0.026378436
000190 0f 6e 15 bd 25 e3 21 3d d5 a8 3f bd ab 2d a8 bd
       -0.036481913 0.039523263 -0.04679187 -0.082118355
0001a0 13 df 95 bc 6b 7e d7 bc 90 33 9b bd 26 38 cc 3d
       -0.018294847 -0.026305398 -0.07578194 0.09971647
0001b0 db d1 bf bc 02 bc ca bc 78 5b fd bd 92 c1 2b 3c
       -0.023415497 -0.024747852 -0.12370962 0.0104831625
0001c0 f2 1b a2 3c 89 43 88 bb 24 af 00 bd 64 8d 06 bd
       0.019788716 -0.0041584414 -0.031417027 -0.032849684
0001d0 7e 6e 8f bd c3 63 93 bd 60 40 b3 3b c0 e4 5b bc
       -0.070034966 -0.071967624 0.0054703206 -0.0134212375
0001e0 e3 95 42 bd c3 07 82 3c 61 78 ae bd af 70 7d bd
       -0.047506224 0.015872842 -0.08519054 -0.06187504
0001f0 1d 5b 0d 3b fa 6f 84 bd b1 72 d2 bc fd cd bf 3c
       0.00215692 -0.0646667 -0.025689455 0.023413653

action_model._continuous_distribution.log_sigma f4 [1, 2]
000000 a5 f8 d7 be 5a b4 64 be
       -0.42181888 -0.22334424

action_model._continuous_distribution.mu.weight f4 [2, 128]
000000 6e a3 c6 bb ab 55 30 bc 83 29 ef 3d cd 5f a5 3b
       -0.006061963 -0.010762612 0.116778396 0.0050468207
000010 fb 7f 27 3c 51 98 ee 3d bf f8 49 be e6 39 30 be
       0.010223384 0.11650146 -0.19723795 -0.17209587
000020 81 1b b3 bc 83 a3 8b bd d8 ba a3 bb 5d f4 fc ba
       -0.0218637 -0.06818297 -0.0049966387 -0.00192989
000030 3e 6e 92 3d 11 84 16 be 40 a0 3a bd 92 16 f7 3c
       0.07149933 -0.14698817 -0.045562983 0.03016213
000040 ca 59 a9 3b 86 2d 05 bc 51 34 20 3e 94 ed 1e 3e
       0.0051681744 -0.008128529 0.15644957 0.15520316
000050 76 2a 88 ba 5b d1 20 3b b7 8f ac bc f3 55 fd bb
       -0.0010388631 0.0024538848 -0.021064622 -0.007731193
000060 f5 61 22 bc 8c 8f d1 3d 53 26 cd bb e4 06 62 3c
       -0.00991105 0.102324575 -0.006260672 0.013795588
000070 56 7d 3d bc 5e 4d 92 3d 34 2c c5 3b 41 2c 78 3b
       -0.011565527 0.07143663 0.0060172323 0.0037868174
000080 6f 4e 86 3d fa 5c 4e 3d 6e 4e 35 bc 90 91 4d be
       0.06557929 0.050381638 -0.011066062 -0.20075059
000090 13 62 ef 39 24 d2 0b bd 33 dd 17 3d 8b be 23 be
       0.00045658703 -0.034135953 0.037076186 -0.15990655
0000a0 ea cb 5c 3e 5b 2e 80 3c 44 c1 b5 3d b9 1b 27 bd
       0.21562162 0.015647104 0.08874753 -0.040797923
0000b0 88 d5 12 3a 9d e9 2e bb 0b 2b 85 3b c9 08 31 3c
       0.00056012766 -0.0026689537 0.004063969 0.010805317
0000c0 61 12 db 3c de 7b 59 3d d4 02 0e 3e ad 28 91 3d
       0.026742162 0.053096645 0.13868266 0.070878364
0000d0 d7 0a df bc 28 56 be bd 0c e0 2a bb a9 89 62 3c
       -0.027226849 -0.09293777 -0.0026073484 0.013826766
0000e0 44 ad 05 be bf 8a d8 3c 92 cb 26 3d cc 2b 81 3d
       -0.13054377 0.026433347 0.040721484 0.06307182
0000f0 38 56 10 bc 55 61 ab 3d 17 6a a1 bd 1b e2 42 be
       -0.008809619 0.08368174 -0.07881563 -0.19031565
000100 be b3 48 bc 1a 7b 5d 3b 5b a7 37 be 45 1b 62 3b
       -0.012249885 0.0033795298 -0.17934935 0.0034501117
000110 f4 32 32 be d4 c3 e5 3b 09 73 dc 3a 86 e2 eb 3c
       -0.1740225 0.00701187 0.0016818951 0.028794538
000120 cd ab 78 3d 92 a7 29 bc e9 9b 82 3b a5 2d f9 bc
       0.060710717 -0.010354893 0.003985871 -0.030417273
000130 84 c5 5d be 71 4f 37 be a5 63 39 bb ef 12 e8 bb
       -0.21657377 -0.17901398 -0.0028288153 -0.007082335
000140 7d e4 33 bd f0 ad ce bd 08 8b 2d 3b bc 14 f2 ba
       -0.043919075 -0.1009177 0.0026480574 -0.0018469314
000150 40 ae 09 be 89 fb b1 3b 54 b0 be bc 91 f4 67 be
       -0.13445377 0.0054315967 -0.02327744 -0.22651888
000160 d7 37 a4 3d 1b 11 ad bd 6f 57 0d be 56 f9 01 3d
       0.08018463 -0.08450528 -0.13802885 0.031731926
000170 3c 2a fc 3d 1b 6e db bd 49 b7 69 bd 6a 9b a5 bd
       0.12312743 -0.1071436 -0.05705956 -0.080862835
000180 5a 9c 49 bd b7 9a e8 3c 20 ac 5a b7 62 ca 39 3a
       -0.049221374 0.028394086 -1.30338885e-05 0.00070873473
000190 b3 d4 08 bc a2 af c1 bd b3 96 dd 3d 4c bf f1 bd
       -0.008351493 -0.094573274 0.10819759 -0.11804065
0001a0 60 fd 48 3c 8b 1b 69 b9 05 7b e7 3d e1 2c 9a 3b
       0.012267441 -0.00022230872 0.11302761 0.004705057
0001b0 b5 8b 91 bb c7 da 55 bb 92 27 7f bd c4 9f c9 bb
       -0.004441703 -0.0032631622 -0.062293597 -0.0061530787
0001c0 d0 35 5f 3e a1 2a 11 3d f5 d9 3d 3c af 1a 31 3e
       0.21797872 0.035441045 0.01158761 0.17295335
0001d0 6e ec c3 bd 05 47 4f bd 4a fa fc bb 39 3b d3 3c
       -0.0956658 -0.05060484 -0.0077202665 0.025785076
0001e0 d5 f0 f3 3a dc ef d4 3d 26 e5 d9 3c cf ab d0 ba
       0.0018611202 0.10397312 0.026598524 -0.0015920344
0001f0 d7 1c 30 3c 9e 0f ec 3d 8c 4f 72 3b c9 a1 28 3e
       0.010749063 0.11526416 0.0036973683 0.16467966
000200 bd 4f ea 3a ce 72 91 3c 4a c3 84 bd c2 03 a3 bb
       0.0017876547 0.017754938 -0.06482561 -0.004974813
000210 f7 47 37 3b 42 d7 6d bd 85 0d e3 bb d2 8f d9 3c
       0.0027966478 -0.058066614 -0.006929102 0.026557837
000220 0e 97 f4 3c cf 51 f2 3c 07 c7 5a bc 66 c1 98 3a
       0.029857185 0.029580025 -0.013353116 0.0011654317
000230 90 fd 68 bd a1 04 0d 3d 82 5d 78 3b a4 f6 97 3c
       -0.05688244 0.034428243 0.0037897532 0.018550225
000240 dd 6b 22 bc 06 ce 27 bc 1c 94 56 3d ad a4 82 bd
       -0.009913412 -0.010241991 0.05238734 -0.06379066
000250 4c 58 1a bc 47 6d f0 bb b1 db 16 be 58 bc e5 3b
       -0.009420466 -0.0073372456 -0.14732243 0.0070109777
000260 56 03 71 bc f7 a0 5b bd cd 14 84 ba 93 26 59 3c
       -0.014710268 -0.053620305 -0.0010077 0.013253826
000270 20 0d bb 3b c6 eb d7 3d 00 bd 8d bc a8 50 d2 b8
       0.0057083517 0.10543017 -0.017302036 -0.00010028604
000280 10 6d 49 be 3f 70 00 3d c8 8f eb bb c0 26 d3 bd
       -0.1967051 0.031357046 -0.007188771 -0.10310125
000290 d4 94 33 bc 9e fe 2b be d6 e0 53 bd 78 77 49 3d
       -0.010960776 -0.16796347 -0.051728092 0.0491862
0002a0 2d 3c f8 3d 7a df c8 3b 30 5a 66 3e d3 71 05 be
       0.121208526 0.006130156 0.22495341 -0.13031702
0002b0 78 8d 1e 3b e1 a7 f1 ba c8 5f 6e bb b2 4c 4f 3d
       0.0024193209 -0.0018436873 -0.0036373008 0.05061025
0002c0 4c 0c 59 bd f2 a1 d2 3d 47 d7 f9 3d 20 eb ed bc
       -0.052990243 0.10284795 0.12199264 -0.02904278
0002d0 86 ff a7 bd c8 b7 67 bd 0c e0 a1 bb 0f fd a8 bc
       -0.08203034 -0.05657175 -0.0049400385 -0.02062848
0002e0 56 c4 4c 3d c6 06 8e bc d8 40 e3 bc ee c2 5e 3d
       0.049991928 -0.017337214 -0.02774088 0.05438512
0002f0 4f c8 64 bc d9 dd 3f bd aa ac 6a 3d 96 09 5c bc
       -0.013963773 -0.04684243 0.05729357 -0.01343002
000300 c0 fc d3 bd 3f 5c e4 3a 9f 13 16 3e 03 3e 03 be
       -0.103509426 0.0017422511 0.14655922 -0.12816624
000310 cb e2 7d 3c 77 56 dc 3b fc a3 0b bc 18 e0 87 3d
       0.015495966 0.0067241746 -0.008522984 0.06634539
000320 51 05 b0 bd 03 79 9c bc 03 6f fe 3a ae 24 b3 3d
       -0.08594764 -0.019100672 0.0019411746 0.087472305
000330 88 ed 07 bc 86 f6 af 3d 86 20 83 bc 93 5c b6 bb
       -0.008296378 0.085919425 -0.01600672 -0.005565235
000340 ad aa 44 bb 63 c7 d4 bd 26 41 c6 bb 06 32 5a 3b
       -0.0030008957 -0.103895925 -0.006050247 0.0033293976
000350 30 54 76 3d 55 97 9b bd e4 d3 93 bd e7 39 39 bd
       0.06013888 -0.07597224 -0.07218149 -0.045221236
000360 13 29 1f bd b6 b4 79 bd e1 0d a2 3d 47 59 9b 3c
       -0.03885753 -0.060963355 0.079128034 0.01896347
000370 a6 06 72 bd 16 ff f6 bd 58 7c f5 bd 12 4c cd bc
       -0.05908837 -0.120603725 -0.11986607 -0.025060687
000380 7c 4a 6b 3d f5 c8 44 3d 5b ad b7 bb 1d c0 08 3b
       0.05744408 0.04804321 -0.0056053824 0.0020866462
000390 88 44 2c 3c 75 64 83 3d 52 1f 6e bd 9c d1 08 bd
       0.010514386 0.06415645 -0.058135338 -0.033403024
0003a0 71 f0 b7 bb 2f 40 19 bc 91 e7 86 bd a8 46 00 3e
       -0.0056133796 -0.0093536815 -0.065871365 0.12526953
0003b0 27 98 d9 ba 4d 7e 02 bc d6 8b b5 bd a3 1d b0 bb
       -0.0016601131 -0.007964683 -0.08864562 -0.0053746267
0003c0 ec 67 19 3c f6 ba 18 3c 52 53 eb bb bc b2 13 bd
       0.009363156 0.009321919 -0.0071815634 -0.036059126
0003d0 f1 40 4d bd ad 11 88 bd 04 14 4d 3b da f3 2e 3d
       -0.05011076 -0.066439964 0.0031292448 0.042713024
0003e0 83 1d 0e bc 8b 37 ab ba 88 3e 45 bc 8d 49 89 3b
       -0.008674028 -0.0013062818 -0.012038834 0.004189676
0003f0 2f 2a 0e 3c ce 33 a3 bd fe 74 5b bb cb 04 f5 3d
       0.00867705 -0.07968865 -0.003348648 0.11963805

action_model._continuous_distribution.mu.bias f4 [2]
000000 60 b4 7a bb 8f cf fb 3d
       -0.0038254485 0.12295448

exp_avg f4 [128, 38]
000000 45 ff c7 b8 00 00 00 00 0e 77 c8 b8 78 ec e0 38
       -9.536607e-05 0.0 -9.558919e-05 0.00010725198
000010 8d 4a da 38 9a e6 01 b9 00 00 00 00 da df d0 b9
       0.00010408936 -0.00012388304 0.0 -0.00039839634
000020 b2 30 65 39 b1 7d 19 39 d6 4e 32 b9 00 00 00 00
       0.00021857282 0.00014638041 -0.00017004772 0.0
000030 64 9f e2 b9 a4 c3 c6 39 16 32 de 39 00 b2 bb b6
       -0.00043224834 0.00037911267 0.00042380457 -5.593756e-06
000040 00 00 00 00 50 99 e8 39 8e 60 3f 3a 88 d4 5e 3a
       0.0 0.00044364715 0.00073004595 0.00085002976
000050 a6 f6 47 b9 00 00 00 00 36 38 09 39 58 82 58 b9
       -0.00019070003 0.0 0.00013086278 -0.00020647922
000060 48 00 52 b8 48 1a 03 b9 00 00 00 00 fe 79 d9 b9
       -5.0068164e-05 -0.00012502924 0.0 -0.00041480357
000070 9c c2 1a 39 47 36 c5 39 da 3d 0f b9 00 00 00 00
       0.00014759082 0.00037615208 -0.00013660584 0.0
000080 ea 3f 70 b9 42 7b de 39 00 08 58 b4 0b 03 b8 39
       -0.00022911993 0.00042434974 -2.0119478e-07 0.00035097482
000090 27 30 a9 b8 82 2a d5 b9 ee ca e3 38 00 00 00 00
       -8.067517e-05 -0.00040658197 0.00010862002 0.0
0000a0 7a 13 2b b9 e9 93 89 b7 1f 55 a7 b8 a4 22 de 38
       -0.00016315086 -1.6400549e-05 -7.9790356e-05 0.00010592237
0000b0 00 00 00 00 af a2 f3 b9 00 d9 97 36 18 ff 52 b9
       0.0 -0.0004646978 4.525413e-06 -0.0002012219
0000c0 52 6a 6a 38 00 00 00 00 7d 84 f7 b7 4c f5 59 b6
       5.5888966e-05 0.0 -2.950639e-05 -3.2478301e-06
0000d0 34 2c aa b7 bb 4e 0b 39 00 00 00 00 e7 4c bb b8
       -2.0286163e-05 0.00013285402 0.0 -8.931179e-05
0000e0 be 33 20 39 f0 e7 91 37 da d9 c0 38 00 00 00 00
       0.00015278065 1.7393351e-05 9.1958515e-05 0.0
0000f0 8c f0 38 b8 6e 1d 2f 38 db d5 05 37 5f 08 cd 38
       -4.4093045e-05 4.175066e-05 7.97721e-06 9.776721e-05
000100 00 00 00 00 7f fb 4b ba 93 53 dc b8 75 b1 ab b9
       0.0 -0.0007781311 -0.000105059844 -0.00032747877
000110 c9 2d 1e b8 00 00 00 00 ec 64 e8 b7 aa 79 c3 37
       -3.7712776e-05 0.0 -2.770355e-05 2.3302466e-05
000120 3e 58 cc b7 5e e8 a2 b8 b6 43 7f b8 ce b6 a6 39
       -2.4359786e-05 -7.768044e-05 -6.08598e-05 0.00031798187
000130 c4 02 d7 b8 00 00 00 00 bc 41 90 b8 bf 13 d3 38
       -0.00010252514 0.0 -6.878699e-05 0.00010064942
000140 d6 23 ab 37 8a c9 20 b9 00 00 00 00 cc eb be b8
       2.0401476e-05 -0.00015333868 0.0 -9.1038266e-05
000150 91 3a 20 3a 66 d8 c6 39 cb bc 79 b8 00 00 00 00
       0.00061122427 0.00037926732 -5.9542053e-05 0.0
000160 4c 08 85 b9 11 79 86 39 e3 28 e9 38 df f4 46 b9
       -0.00025373918 0.00025648673 0.000111179215 -0.00018973973
000170 00 00 00 00 d9 73 10 39 38 16 58 3a 67 6e 63 3a
       0.0 0.00013776067 0.0008243057 0.0008675814
000180 b3 56 62 b9 00 00 00 00 52 30 2e 39 16 fc c3 b9
       -0.00021585338 0.0 0.00016611934 -0.00037381117
000190 52 f8 94 b9 48 1c 77 37 00 00 00 00 7e ac 18 b9
       -0.00028413773 1.4728932e-05 0.0 -0.00014560108
0001a0 48 b4 e8 b8 a5 16 b2 39 04 52 bf b8 00 00 00 00
       -0.00011096202 0.00033967677 -9.122866e-05 0.0
0001b0 36 e7 34 b9 f7 e4 32 38 d8 04 84 b9 fb 22 5f ba
       -0.0001725227 4.2651747e-05 -0.0002518061 -0.00085119874
0001c0 b4 19 17 b9 7a 52 f0 b9 76 d3 c2 38 00 00 00 00
       -0.00014410057 -0.00045837817 9.2900285e-05 0.0
0001d0 86 da 37 b9 cd 27 ff 38 c2 09 81 38 5f dc d8 38
       -0.00017533646 0.00012166761 6.153017e-05 0.0001034073
0001e0 00 00 00 00 80 5d 44 39 bb f0 82 b9 0c 7b ac 38
       0.0 0.00018726848 -0.0002497489 8.2245184e-05
0001f0 31 3d 6c 37 00 00 00 00 3e 5b c9 38 f3 3b 87 39
       1.4080943e-05 0.0 9.601422e-05 0.00025793872
000200 00 50 95 39 bc e8 7a b8 00 00 00 00 27 df 97 b8
       0.000284791 -5.9821396e-05 0.0 -7.2418065e-05
000210 3b 82 08 39 33 e1 43 39 ec 2a 49 36 00 00 00 00
       0.00013018485 0.00018680542 2.9976318e-06 0.0
000220 b7 c3 d2 39 88 51 dd b9 70 56 b1 39 07 1a ab b8
       0.0004020014 -0.0004221315 0.00033824472 -8.1587634e-05
000230 00 00 00 00 f3 4b 5a 3a de 4a 2a 39 3a 89 5f 3a
       0.0 0.00083273574 0.00016240354 0.0008527223
000240 02 cd 24 38 00 00 00 00 16 fd 0c 3a b4 ca 78 38
       3.9291575e-05 0.0 0.0005378289 5.931659e-05
000250 52 d7 de 39 b9 de 5e 3a e6 63 44 b8 fa cd 10 39
       0.00042503566 0.0008501816 -4.682308e-05 0.00013809642
000260 e3 0c 31 b8 00 00 00 00 e8 59 46 b7 a7 55 03 b8
       -4.221209e-05 0.0 -1.1822653e-05 -3.1312604e-05
000270 ef 55 39 38 09 08 54 b8 00 00 00 00 51 ec bb b8
       4.418747e-05 -5.0552222e-05 0.0 -8.960872e-05
000280 b1 42 95 b9 82 4a 05 ba 04 aa 1e 39 00 00 00 00
       -0.00028469184 -0.000508465 0.0001513139 0.0
000290 5c b5 60 39 ac 7e 1a ba f1 20 d7 b9 06 ba c1 38
       0.00021429866 -0.00058935094 -0.0004103254 9.237607e-05
0002a0 00 00 00 00 40 4e f3 39 80 dd 3f ba 05 c8 e8 b9
       0.0 0.00046406873 -0.0007319078 -0.00044399514
0002b0 a5 72 89 39 00 00 00 00 8b 73 1f ba 51 c4 1c 3a
       0.00026216093 0.0 -0.0006082586 0.0005980181
0002c0 d3 c1 28 b9 ed 0f 9e 39 00 00 00 00 45 48 47 ba
       -0.00016093934 0.00030147974 0.0 -0.00076020166
0002d0 06 23 12 38 b5 25 66 ba b2 77 a9 36 00 00 00 00
       3.484173e-05 -0.00087794225 5.050527e-06 0.0
0002e0 7a d5 8e ba da 0c 5e b9 28 63 83 b9 a0 b3 fe ba
       -0.0010897361 -0.00021176357 -0.00025060144 -0.0019432195
0002f0 48 f5 67 39 88 7f 09 ba 4b df 9b b8 00 00 00 00
       0.00022121251 -0.0005245139 -7.4325675e-05 0.0
000300 14 bc 6a b9 38 04 a6 38 60 5d 41 b7 fc 58 a1 b8
       -0.00022386044 7.9162826e-05 -1.1525437e-05 -7.693653e-05
000310 00 00 00 00 bc 57 d3 b9 30 98 6c b7 97 02 5f b9
       0.0 -0.00040310423 -1.410213e-05 -0.00021267902
000320 fe 53 1d b8 00 00 00 00 9d d8 6e b9 b0 3e 92 b9
       -3.750994e-05 0.0 -0.00022778143 -0.00027893996
000330 eb bf c3 b9 44 9e 4e 39 00 00 00 00 65 e8 8f 3a
       -0.00037336288 0.0001970465 0.0 0.0010979293
000340 f0 fe 95 b8 7f e3 e8 39 f1 b6 a9 38 00 00 00 00
       -7.1523595e-05 0.00044419986 8.0926235e-05 0.0
000350 da 5e 7b b9 93 7c 88 39 be 4e e5 b9 ec 56 b5 39
       -0.0002397256 0.00026032756 -0.0004373695 0.00034587772
000360 00 00 00 00 1e ca 37 ba fa c0 0f 39 56 a5 c4 b9
       0.0 -0.0007011014 0.00013709432 -0.00037507218
000370 7c 06 56 b9 00 00 00 00 f2 5f 9d ba 9d c3 3c b9
       -0.00020411046 0.0 -0.0012006743 -0.00018001949
000380 f6 a1 54 ba e3 0a e6 ba 62 b4 dc 38 ee 1c 0f ba
       -0.0008111292 -0.0017550852 0.000105240164 -0.0005459328
000390 4a 06 41 b9 00 00 00 00 62 79 ec 38 4e 47 b5 b8
       -0.00018408257 0.0 0.00011275966 -8.644034e-05
0003a0 a8 ed d5 b7 7a 61 4a b9 00 00 00 00 7d fd 7f b8
       -2.5502246e-05 -0.00019300534 0.0 -6.1032817e-05
0003b0 1e 98 98 b7 66 cc 5f b9 3e 0c b7 37 00 00 00 00
       -1.8190647e-05 -0.00021343082 2.1821e-05 0.0
0003c0 18 da 4b b9 2e b2 d6 b9 31 c5 da b9 27 1e 39 38
       -0.00019440835 -0.00040950015 -0.0004172712 4.413552e-05
0003d0 00 00 00 00 9e 85 b1 39 04 18 8a 38 94 90 94 38
       0.0 0.00033859623 6.584826e-05 7.08412e-05
0003e0 3e 48 88 38 00 00 00 00 3e f1 36 ba fe 18 d1 39
       6.4984415e-05 0.0 -0.0006978697 0.00039882207
0003f0 74 93 97 b9 f7 4d f8 38 00 00 00 00 b8 d1 e6 b9
       -0.00028910825 0.000118400836 0.0 -0.0004402527

exp_avg_sq f4 [128, 38]
000000 67 1a 19 35 00 00 00 00 a6 f2 1c 35 3c 10 19 35
       5.703536e-07 0.0 5.846763e-07 5.7020566e-07
000010 ec 95 04 36 98 54 10 35 00 00 00 00 ed 91 92 35
       1.9756799e-06 5.376728e-07 0.0 1.0920318e-06
000020 da 02 8e 35 8c 6d 3c 36 db 39 f5 34 00 00 00 00
       1.0580654e-06 2.8077948e-06 4.5676902e-07 0.0
000030 77 fb b5 35 d4 7d 8c 35 3b fb 23 36 52 1a 26 35
       1.3558737e-06 1.0467434e-06 2.4435128e-06 6.187812e-07
000040 00 00 00 00 6e 93 19 36 1b 2e 08 36 ec 60 7e 36
       0.0 2.2884592e-06 2.0292416e-06 3.7905365e-06
000050 35 85 ec 34 00 00 00 00 93 d4 18 36 80 2a be 35
       4.4055346e-07 0.0 2.27735e-06 1.4168472e-06
000060 af df 3e 36 0e 48 10 35 00 00 00 00 7f 9d 4a 36
       2.8442407e-06 5.3749034e-07 0.0 3.019202e-06
000070 3f 8e 12 36 b4 34 87 36 b2 32 ca 34 00 00 00 00
       2.1838493e-06 4.029449e-06 3.7662318e-07 0.0
000080 69 a4 27 36 d0 e5 00 36 e7 58 4d 36 54 af dc 36
       2.4980638e-06 1.9207255e-06 3.0599128e-06 6.576922e-06
000090 26 ac 35 35 d5 42 9c 36 7f c8 ef 34 00 00 00 00
       6.7678263e-07 4.6569426e-06 4.46631e-07 0.0
0000a0 69 b7 63 35 b1 ee 48 33 61 ad d2 34 5c 11 bd 34
       8.4830987e-07 4.6783217e-08 3.9241698e-07 3.5216624e-07
0000b0 00 00 00 00 41 a9 c5 35 9a e4 e9 33 59 71 2e 35
       0.0 1.4726903e-06 1.08914904e-07 6.4984994e-07
0000c0 d6 84 f6 34 00 00 00 00 45 db 1c 34 28 59 e7 32
       4.5917722e-07 0.0 1.4608402e-07 2.6932483e-08
0000d0 08 a3 9b 34 4a de 8f 34 00 00 00 00 37 15 03 36
       2.898962e-07 2.6797562e-07 0.0 1.953287e-06
0000e0 53 46 9c 34 ea 05 8f 35 6c 06 04 35 00 00 00 00
       2.9108432e-07 1.0656051e-06 4.9183177e-07 0.0
0000f0 b8 0c 9a 33 a4 bd f4 33 d6 7d b9 34 9e 61 a0 33
       7.173497e-08 1.1396631e-07 3.4550493e-07 7.468337e-08
000100 00 00 00 00 b2 86 17 36 4a 3d 43 35 bb 26 c1 35
       0.0 2.2579156e-06 7.273235e-07 1.4390893e-06
000110 7c 00 dd 34 00 00 00 00 6f 7a 0c 34 50 c4 15 34
       4.116481e-07 0.0 1.3083057e-07 1.3948124e-07
000120 82 fb cf 34 7c 9d 0f 36 ae e5 65 34 fc 3c 03 36
       3.873975e-07 2.1400328e-06 2.1410844e-07 1.9556019e-06
000130 3c 9d 6a 35 00 00 00 00 f1 36 b3 35 ca 29 13 35
       8.74006e-07 0.0 1.3352529e-06 5.482258e-07
000140 2a ca 28 36 15 f2 38 35 00 00 00 00 d1 29 49 35
       2.5151626e-06 6.889762e-07 0.0 7.4939186e-07
000150 b3 72 bc 35 ce 0d 68 36 af fb 9b 35 00 00 00 00
       1.4040473e-06 3.457873e-06 1.162165e-06 0.0
000160 d5 32 10 36 4b 44 08 36 81 19 82 36 1f 99 43 35
       2.148726e-06 2.030533e-06 3.877271e-06 7.286598e-07
000170 00 00 00 00 8c ce bb 35 99 1f 06 36 24 f9 8d 36
       0.0 1.3992699e-06 1.9985948e-06 4.2311312e-06
000180 bc b0 c7 35 00 00 00 00 e6 84 73 36 c5 c7 5c 36
       1.4878092e-06 0.0 3.6287179e-06 3.2898836e-06
000190 f1 e5 b3 36 35 78 59 35 00 00 00 00 07 35 d5 35
       5.3613844e-06 8.1013724e-07 0.0 1.588517e-06
0001a0 30 f4 0b 36 a5 0e 8d 36 7f 65 d3 35 00 00 00 00
       2.085475e-06 4.2038323e-06 1.5750264e-06 0.0
0001b0 0d 20 8e 36 d9 a4 86 36 0a f5 cd 36 ad d6 2c 37
       4.235661e-06 4.012702e-06 6.1380024e-06 1.0301982e-05
0001c0 fa 57 7b 35 8f 85 f5 36 11 1f d6 33 00 00 00 00
       9.363281e-07 7.3171173e-06 9.9708025e-08 0.0
0001d0 91 d2 9a 36 5a ba 98 35 0f d6 91 36 9e 15 44 34
       4.614071e-06 1.1379118e-06 4.3462564e-06 1.8261787e-07
0001e0 00 00 00 00 5e 2a fd 35 df ab 4f 36 cd 75 ce 36
       0.0 1.8862299e-06 3.0945446e-06 6.1529922e-06
0001f0 b4 fc d4 33 00 00 00 00 b5 2c 50 37 b6 c8 06 35
       9.917986e-08 0.0 1.2408175e-05 5.0210963e-07
000200 08 11 a8 36 83 03 ab 34 00 00 00 00 db 84 f3 35
       5.008773e-06 3.1853787e-07 0.0 1.8143577e-06
000210 2d eb 88 36 b4 34 df 36 13 f5 68 34 00 00 00 00
       4.080494e-06 6.6520533e-06 2.1695841e-07 0.0
000220 c6 b4 72 37 13 92 fc 35 69 67 ce 36 94 38 16 35
       1.4466414e-05 1.8817976e-06 6.151317e-06 5.5961686e-07
000230 00 00 00 00 57 7f 18 36 9c 27 79 36 37 6c e3 36
       0.0 2.2723887e-06 3.7126947e-06 6.777725e-06
000240 36 d1 e2 34 00 00 00 00 f9 7d 7c 37 8c c3 52 36
       4.2248e-07 0.0 1.5049701e-05 3.1406262e-06
000250 f5 7c e5 36 80 6a 72 37 e5 70 c0 35 fa b8 37 37
       6.8392787e-06 1.44491205e-05 1.4337971e-06 1.0950718e-05
000260 9e f0 cf 34 00 00 00 00 ad 9f 7f 36 d0 e5 09 36
       3.8731827e-07 0.0 3.8090905e-06 2.054836e-06
000270 f5 6d 3c 37 e5 45 c9 34 00 00 00 00 7d 66 da 36
       1.1231275e-05 3.7490022e-07 0.0 6.5088375e-06
000280 59 cd ee 36 05 6d 81 37 42 fc 02 35 00 00 00 00
       7.1168583e-06 1.5428765e-05 4.879586e-07 0.0
000290 e7 d4 02 37 16 d1 54 36 20 dc 81 37 45 96 9e 35
       7.798174e-06 3.1712166e-06 1.5480502e-05 1.1815652e-06
0002a0 00 00 00 00 0e 86 f0 36 54 07 3a 37 90 87 93 37
       0.0 7.1681634e-06 1.108817e-05 1.7586892e-05
0002b0 19 ea 52 35 00 00 00 00 84 71 8d 37 82 88 02 37
       7.8571753e-07 0.0 1.686137e-05 7.780387e-06
0002c0 aa 26 b7 37 c6 79 66 36 00 00 00 00 fe b9 d4 36
       2.1833304e-05 3.4343552e-06 0.0 6.3397447e-06
0002d0 c1 fa f1 36 17 0a 6b 37 e4 5d 09 35 00 00 00 00
       7.2115513e-06 1.4009441e-05 5.1173106e-07 0.0
0002e0 c9 ad bc 37 43 a2 40 37 7c b6 cd 37 16 9b 34 38
       2.2492271e-05 1.1481871e-05 2.452288e-05 4.305978e-05
0002f0 dd 3a a1 36 71 8d fb 37 7b e6 de 35 00 00 00 00
       4.8050265e-06 2.9987395e-05 1.6607368e-06 0.0
000300 2a 6a e0 36 7a 95 45 36 2e cb 57 37 de 7b 90 35
       6.6880793e-06 2.9442294e-06 1.2862305e-05 1.0764886e-06
000310 00 00 00 00 7b e4 b9 36 63 98 40 37 29 15 b5 37
       0.0 5.5400283e-06 1.1479572e-05 2.1586735e-05
000320 7c 86 17 36 00 00 00 00 0f 65 09 37 12 0f bb 35
       2.2579034e-06 0.0 8.189366e-06 1.3936972e-06
000330 ff d4 2e 37 25 89 84 35 00 00 00 00 6b c2 1d 37
       1.04208e-05 9.874681e-07 0.0 9.403196e-06
000340 94 2e 9c 37 70 cd f0 37 e3 65 61 36 00 00 00 00
       1.8618339e-05 2.8705894e-05 3.3586919e-06 0.0
000350 42 a9 87 37 29 36 12 36 da 4f 52 37 cd 3e a3 35
       1.617207e-05 2.178722e-06 1.2535567e-05 1.2162724e-06
000360 00 00 00 00 73 66 34 37 bb b3 a2 37 5d 24 f0 37
       0.0 1.0752689e-05 1.9395598e-05 2.8627162e-05
000370 bf 4f 97 36 00 00 00 00 06 38 a6 37 56 33 d5 36
       4.5094343e-06 0.0 1.981483e-05 6.353871e-06
000380 ed e8 82 37 6e 40 41 38 60 e2 92 36 1f a9 ed 37
       1.5605672e-05 4.607479e-05 4.3774926e-06 2.8331355e-05
000390 38 5d b8 34 00 00 00 00 e0 7f 3d 35 05 3d 27 35
       3.4340496e-07 0.0 7.059407e-07 6.2301143e-07
0003a0 bf 28 31 36 45 ba be 34 00 00 00 00 e5 18 2c 35
       2.6398773e-06 3.5525787e-07 0.0 6.411122e-07
0003b0 d4 ba 40 35 c2 82 43 36 77 ce ab 34 00 00 00 00
       7.1797444e-07 2.9133375e-06 3.2001455e-07 0.0
0003c0 bd fd c0 36 73 f2 fd 35 e8 7b b2 36 3a 3b 9c 34
       5.751585e-06 1.8920531e-06 5.319238e-06 2.9100357e-07
0003d0 00 00 00 00 61 f7 63 35 17 82 1c 36 49 42 88 36
       0.0 8.4924073e-07 2.3321534e-06 4.0608325e-06
0003e0 9f 56 12 35 00 00 00 00 c1 9a 05 37 a9 f7 52 36
       5.451529e-07 0.0 7.963449e-06 3.1436596e-06
0003f0 43 18 e0 36 e1 d9 e5 34 00 00 00 00 d5 0b 9f 35
       6.6785447e-06 4.2813102e-07 0.0 1.1849867e-06

exp_avg f4 [128]
000000 7f c8 68 39 02 58 66 b9 b2 14 bb b8 5e 7f 30 39
       0.00022199935 -0.00021967295 -8.92071e-05 0.00016832116
000010 2d e4 ab 39 1c 45 8c 39 f0 ad 68 37 1e 69 d9 39
       0.00032785666 0.0002675437 1.3868776e-05 0.00041467784
000020 78 d5 ed 39 88 a0 2c 3a 1c 51 2c ba f2 2e dc 38
       0.0004536321 0.00065852003 -0.00065733655 0.00010499162
000030 d0 bd 9b 38 50 42 67 b9 9b 4f 1c 3a 66 eb 91 39
       7.426331e-05 -0.0002205458 0.000596279 0.0002783194
000040 98 66 a6 38 d8 e7 b7 39 a0 76 bb 38 2e 6b a4 b9
       7.9346064e-05 0.00035077217 8.9389505e-05 -0.00031360373
000050 76 26 e5 b9 d8 df 3a b7 b5 2f 14 b8 7a 01 04 b9
       -0.0004370694 -1.1138582e-05 -3.533038e-05 -0.00012589051
000060 1f 11 cf b8 96 30 e0 b7 ce 29 e3 39 29 99 d0 39
       -9.873718e-05 -2.6725505e-05 0.0004332796 0.00039786965
000070 d8 ae df b9 d6 49 d1 b9 c0 38 b7 b9 a8 51 7f b9
       -0.00042664143 -0.00039918598 -0.00034946762 -0.00024349114
000080 08 1d 14 38 c0 e3 49 37 d1 af 22 3a 93 ed e9 39
       3.5312987e-05 1.2033561e-05 0.0006206008 0.0004461823
000090 1c 25 11 3a 8a 23 20 ba f2 f8 d6 b8 06 49 87 39
       0.0005536841 -0.00061088114 -0.00010250685 0.00025803613
0000a0 da 54 df 39 44 31 10 b9 84 54 74 39 f2 06 f1 39
       0.00042597094 -0.00013751263 0.00023301138 0.00045972277
0000b0 10 90 1b 37 7d 56 9d 39 ec bf 13 38 f0 7a cd b9
       9.272262e-06 0.00030009812 3.5226272e-05 -0.00039192243
0000c0 90 b7 fa 39 6b e3 f6 b9 c3 51 dd 39 38 bc d1 b8
       0.0004782048 -0.00047090216 0.00042213322 -0.00010000955
0000d0 2a aa 63 39 2a bf 82 39 27 e5 9c 39 16 bc 93 b9
       0.00021711798 0.0002493796 0.0002992537 -0.0002817816
0000e0 01 7b 37 b9 96 0c 9f b9 d4 91 8f 37 95 4e 26 b9
       -0.00017498063 -0.0003033622 1.7114835e-05 -0.00015860268
0000f0 a2 8b a9 39 02 23 89 b9 5d 1e 8f 39 ad 1d cb ba
       0.00032338226 -0.0002615676 0.00027297708 -0.0015496515
000100 c8 de 94 38 02 f2 07 39 70 54 5f 38 a3 54 33 ba
       7.098686e-05 0.00012964758 5.324598e-05 -0.000684092
000110 87 74 98 39 c4 6b 3c 3a 80 21 0d b9 cf 26 cd 39
       0.0002907852 0.0007187689 -0.00013459288 0.00039129562
000120 58 0d da b7 f2 e2 84 b9 b9 71 43 39 88 a7 38 ba
       -2.5993839e-05 -0.0002534609 0.00018639014 -0.0007044007
000130 a6 61 49 b9 ce cb 07 b9 3d aa 72 b9 bb 54 88 39
       -0.0001920523 -0.00012950526 -0.00023142337 0.0002600307
000140 30 69 98 39 1e ca 06 ba b3 a1 0e 3a 8f ba 24 ba
       0.0002907007 -0.0005141812 0.0005440965 -0.0006283903
000150 30 1a 42 b8 a4 d0 9e b7 00 7c f6 37 ab 5f 8d 39
       -4.6277593e-05 -1.8932224e-05 2.9383227e-05 0.00026964894
000160 91 9e a5 38 21 4e 07 ba 11 7e ee 38 f1 68 15 39
       7.8973484e-05 -0.00051614834 0.00011372206 0.00014248841
000170 1f 1e b8 b9 a2 60 b6 39 77 3b 32 39 19 99 1c ba
       -0.00035117657 0.00034785742 0.00016997555 -0.0005973741
000180 6c e9 84 b9 a6 7f 87 b9 16 be c8 39 68 91 e9 39
       -0.00025350915 -0.00025844312 0.00038288598 0.0004454956
000190 d0 a6 37 b8 bc ef 97 b9 6a 65 08 39 bd 10 cc 3a
       -4.3785956e-05 -0.0002897958 0.0001300775 0.0015568953
0001a0 12 44 05 ba 9c 4a b5 39 24 0c 45 b8 57 fb f3 39
       -0.00050836906 0.000345786 -4.6979767e-05 0.00046535835
0001b0 aa 5b e2 38 6d 0a ea 38 ec a6 c2 b8 4d 47 0a ba
       0.000107935935 0.000111599315 -9.2817325e-05 -0.0005274907
0001c0 ff eb a4 39 aa 59 d8 b9 b8 b1 ee 39 1a da 4f 3a
       0.00031456348 -0.00041265535 0.00045527308 0.0007928923
0001d0 5f 4c 05 3a 16 6b 4c 39 7c 8c f8 39 be a6 50 3a
       0.00050849275 0.00019494849 0.00047406915 0.0007959417
0001e0 a0 58 e5 b8 ec 12 47 39 90 e4 a0 b8 7a 6c e4 39
       -0.000109360786 0.00018985168 -7.6719676e-05 0.0004356837
0001f0 75 71 74 ba 34 fc e6 b7 53 44 3d b9 50 68 49 b9
       -0.0009324768 -2.7535578e-05 -0.00018049897 -0.00019207713

exp_avg_sq f4 [128]
000000 fc 81 52 37 d1 db 8b 36 55 80 9f 37 a4 99 ea 37
       1.254724e-05 4.168113e-06 1.9014036e-05 2.7966518e-05
000010 8a 1c a4 38 32 18 a6 38 de 5d ae 37 79 77 b3 37
       7.825445e-05 7.9200036e-05 2.0786127e-05 2.1394097e-05
000020 4e ca 09 37 fa 7e 11 38 00 48 70 38 cc 1f ab 37
       8.212939e-06 3.468895e-05 5.7287514e-05 2.0399595e-05
000030 b2 de d2 37 aa 51 40 38 fd f7 f5 37 cc 53 93 38
       2.5137651e-05 4.5852423e-05 2.9321754e-05 7.0251146e-05
000040 ec 22 fd 38 83 42 27 37 7d b5 89 38 7a dd 90 38
       0.00012070485 9.969462e-06 6.566474e-05 6.907708e-05
000050 c0 1f 87 37 f1 54 b4 36 ad e5 10 37 dd 45 99 37
       1.6108039e-05 5.3743065e-06 8.636544e-06 1.8271554e-05
000060 46 dc 05 37 ea 41 44 38 23 61 a8 38 0b 5e 1f 38
       7.978704e-06 4.679143e-05 8.0289574e-05 3.799614e-05
000070 4d 92 08 38 19 a6 21 38 a4 17 12 38 8c 5a a2 36
       3.256118e-05 3.854008e-05 3.483113e-05 4.8385173e-06
000080 6d 69 7f 37 7c 98 bb 37 a3 cf 22 38 57 2a 15 37
       1.5223731e-05 2.2363143e-05 3.8817187e-05 8.89095e-06
000090 65 b5 44 37 e3 d4 0a 37 cc 16 24 37 d8 73 54 38
       1.1724745e-05 8.2750075e-06 9.78047e-06 5.0652627e-05
0000a0 22 bc 09 37 2c c8 39 37 13 ea 46 37 07 0e 4e 39
       8.209639e-06 1.1073465e-05 1.1856219e-05 0.00019650917
0000b0 de 30 09 36 7d 73 aa 38 48 d1 c1 37 39 c5 b5 37
       2.0443035e-06 8.127743e-05 2.3104847e-05 2.166872e-05
0000c0 93 ea 43 37 9d 84 70 37 88 1e 92 38 5d 92 ba 36
       1.1677522e-05 1.4335991e-05 6.9675094e-05 5.560271e-06
0000d0 bd c8 83 37 65 fd da 37 6a 9a 3c 38 dd 5d a3 37
       1.5709893e-05 2.6105621e-05 4.4966502e-05 1.9474823e-05
0000e0 fe e3 38 37 92 7f ff 37 32 be a1 37 8a 7b e1 35
       1.1020338e-05 3.0457773e-05 1.9281262e-05 1.6799761e-06
0000f0 50 bc 6d 38 cf dc 9f 35 6e d1 16 38 18 7f a5 38
       5.6680583e-05 1.1910687e-06 3.5957833e-05 7.891486e-05
000100 51 a6 02 39 53 5f fc 37 33 7f 1d 39 d6 7b 3f 37
       0.00012459724 3.008513e-05 0.00015020072 1.141332e-05
000110 1d 8d a6 37 1c f9 ff 38 6d 66 b1 36 e9 68 e9 37
       1.9854453e-05 0.00012205748 5.286935e-06 2.7824617e-05
000120 d5 c8 17 37 48 1d e5 37 67 0a 19 37 80 86 a0 37
       9.047061e-06 2.7312562e-05 9.121933e-06 1.9136118e-05
000130 4e 4d bc 38 b9 d2 a3 37 4c a0 02 37 81 c5 0e 37
       8.978938e-05 1.952924e-05 7.785926e-06 8.5098445e-06
000140 21 a3 61 36 69 7a 9e 38 be a2 f0 37 bb 70 3e 37
       3.3622566e-06 7.556828e-05 2.8686012e-05 1.135113e-05
000150 b0 a1 08 37 1d fe d1 36 b8 31 11 38 8b 69 24 37
       8.1438775e-06 6.258268e-06 3.4616998e-05 9.799735e-06
000160 e9 ae d7 36 6d f1 2d 38 27 28 29 37 a6 0c 87 37
       6.4278615e-06 4.147126e-05 1.0082534e-05 1.6099144e-05
000170 a5 2e f0 37 96 dc 37 38 52 d0 22 38 41 87 f9 37
       2.863195e-05 4.3836037e-05 3.8817823e-05 2.9746096e-05
000180 2c 0b 04 38 ab c4 71 37 8c 52 47 38 3b 2e 86 38
       3.1481657e-05 1.441051e-05 4.7522175e-05 6.398229e-05
000190 b8 7f 28 36 f6 e8 24 39 8c 74 b8 37 22 a9 29 39
       2.5108293e-06 0.00015727044 2.198878e-05 0.00016180103
0001a0 c4 e7 d3 38 10 12 db 37 24 71 ba 36 59 6e 79 36
       0.00010104434 2.6115245e-05 5.5564033e-06 3.7168122e-06
0001b0 43 ec 4f 36 5f eb 21 37 78 e6 cb 37 8b 5f 01 39
       3.0982926e-06 9.651149e-06 2.4306806e-05 0.00012337991
0001c0 71 dc d4 37 d3 27 4c 37 29 95 5b 39 f2 2b 23 37
       2.537502e-05 1.216862e-05 0.00020941034 9.725789e-06
0001d0 f7 6c d0 37 34 8b 83 37 72 09 e4 37 d6 2e a4 37
       2.4846273e-05 1.5681238e-05 2.7184116e-05 1.9572133e-05
0001e0 eb cc 8f 38 15 3f a6 37 e1 b9 0a 36 02 b1 b0 36
       6.85694e-05 1.9818117e-05 2.0671798e-06 5.265815e-06
0001f0 0e 3e 30 39 bf 0e ba 36 fe 1d 30 37 2b 16 88 38
       0.00016807785 5.5449486e-06 1.0497401e-05 6.4891145e-05
