Assets/ML-Agents/Training Files/results/9roads_cameraSensor_ppo_vehiclesAndChekpointsMasked_2layers_148_512/VehicleAgent/VehicleAgent-5799562.pt (torch, 864239 bytes, 84 tensors)

network_body.observation_encoder.processors.0.conv_layers.0.weight f4 [16, 9, 8, 8]
000000 4a 3f 5e bc dc 03 09 bd 70 01 c4 3c 4f df c5 3c
       -0.013564894 -0.033450946 0.023926467 0.024154333
000010 0f 9e 4c bd 77 fa 51 bc 52 7d a1 3c d1 30 11 bd
       -0.049955424 -0.012816063 0.019713078 -0.035446946
000020 ea 31 7d bc 9f 52 c9 3c f5 4d e8 bb 4b e7 f2 bc
       -0.015453795 0.02457553 -0.0070893713 -0.029651305
000030 aa ad 29 bd 9f d4 28 bd 57 b4 f7 bc 65 61 41 3b
       -0.041425385 -0.041218396 -0.03023736 0.0029507515
000040 0a e6 25 3c 75 1d 2b bd f3 5f ee 3b a0 9b 19 3b
       0.010125646 -0.04177614 0.0072746216 0.0023438707
000050 38 59 94 3a 8f d5 b4 3c 4d f0 1d bd 5e 11 53 bc
       0.0011318093 0.022074489 -0.038559247 -0.012882559
000060 03 5e 01 3b 07 68 2b bd 46 1e f1 bc d2 32 d1 3b
       0.0019739873 -0.041847255 -0.02943338 0.006384232
000070 89 f8 c9 bb 40 c3 06 bd 9f 65 35 bd 0d 5d f6 3c
       -0.006163661 -0.03290105 -0.044286367 0.030073667
000080 43 9b 1a bd 3d 38 66 3c 88 45 d6 3c c2 5f 48 3c
       -0.037745725 0.014051494 0.026156202 0.012229862
000090 bb 56 89 bc d6 40 95 bc 1b fc b6 bc 3e bd 15 3c
       -0.01676499 -0.018219393 -0.02233701 0.009139357
0000a0 95 79 9f bc c9 08 4b 3c 91 80 6b 3c 40 a4 2d bd
       -0.019467155 0.012392231 0.014373914 -0.04239297
0000b0 9d 84 fd 3c 5d 7d bb 3c 2d b6 26 bc ed 72 0c 3d
       0.030947024 0.022886926 -0.01017527 0.03428929
0000c0 2f c3 03 bb 5f b0 58 3b d4 be c9 3c c5 8d 09 3d
       -0.0020105352 0.003306411 0.024627127 0.033582468
0000d0 92 e4 06 3d a9 df d5 bc a7 6d 8f 3c e5 50 11 bd
       0.032932825 -0.026107626 0.017508341 -0.035477538
0000e0 b8 fd 1b bd 3c 44 04 3d d8 48 31 bd 28 19 41 bd
       -0.038083762 0.032291636 -0.04328236 -0.04714313
0000f0 0a 4b 90 3c 4d 9f 1e 3a b6 98 1b b9 b3 58 b7 bc
       0.017613906 0.00060509593 -0.00014838841 -0.022381162
000100 81 70 44 3c 43 40 18 bd 94 91 82 ba 2a 3a d6 bb
       0.011989714 -0.03717066 -0.0009961599 -0.0065376954
000110 10 06 2d 3d 9c 37 66 bc 0e 57 c6 bc fb 6a fd 3c
       0.04224211 -0.014051344 -0.024211433 0.030934801
000120 01 a4 fe 3c c7 65 56 bc 3a 3f d9 3c ed 8f de bb
       0.031084063 -0.013085789 0.026519407 -0.0067920596
000130 5c 38 33 3d 55 b6 90 3b b3 1a c1 bc bc b8 1d bb
       0.04375492 0.004416267 -0.023572301 -0.002406641
000140 85 a5 b6 bc 13 e7 9a bc fb 5e 01 3d f5 d8 19 3d
       -0.022295723 -0.018909013 0.03158472 0.037560422
000150 d4 a0 8c bb 0a c2 0c 3c 7f a4 15 bd 01 e0 70 bc
       -0.004291633 0.008591184 -0.03653383 -0.014701844
000160 f2 c4 0f 3d 0d 33 89 bc 50 2d 18 bc 87 35 8e 3c
       0.03509993 -0.016747976 -0.009288147 0.017359508
000170 d3 fd 0d bd d4 83 90 bc 49 97 0e bd 54 0e fe 3c
       -0.034665894 -0.017640986 -0.034812246 0.031012692
000180 43 98 e1 ba ce a2 ab bc cf a4 b0 bc 0a 4b e5 3a
       -0.0017211515 -0.020951655 -0.021562962 0.0017493677
000190 f3 f0 74 bc 68 81 1b 3d 71 66 4f 3c 18 6d 14 3d
       -0.014950025 0.03796521 0.012658701 0.036236852
0001a0 fc 6f 36 bc 93 a1 72 3c ad ff 4e 3c c2 60 18 3d
       -0.011135098 0.01480903 0.0126342 0.03720165
0001b0 e4 36 03 3d ad 63 0a bd 46 eb ff 3c 9e b1 27 bb
       0.03203477 -0.033786464 0.031240117 -0.0025588046
0001c0 af b0 8f bc d6 2d 76 ba 87 37 35 3b e2 da 84 bc
       -0.017540304 -0.00093909854 0.0027651505 -0.016217653
0001d0 4e 0f 9d bc 09 11 8b bc 30 91 5a bc 81 e6 e5 bc
       -0.019172337 -0.016975896 -0.013340279 -0.028064014
0001e0 c1 50 e8 bc 3a 95 a3 3c 41 10 d1 bc a0 d8 aa b9
       -0.028358819 0.019968618 -0.025520446 -0.00032586325
0001f0 6a 88 c2 3b 59 ad 10 3c 72 9b 0d bd 6f 83 9f 3c
       0.005936672 0.008830392 -0.034572072 0.019471852
000200 5f f0 5b 3c b0 fc d0 3c 47 bc ec bc e1 30 23 bd
       0.013424008 0.025511116 -0.028898371 -0.039841536
000210 6e 2a 29 bd b4 91 f0 3c a8 fb 1c bd 54 07 02 bb
       -0.04130023 0.029366352 -0.038325936 -0.0019840794
000220 1c c3 af bc 4e a3 e1 3c 1a 69 10 bd c7 58 0f bd
       -0.02145534 0.02754369 -0.035256483 -0.034996774
000230 55 86 fd bc 01 b6 cd bc fa 89 1e 3d f1 e7 35 3c
       -0.030947844 -0.0251112 0.038705803 0.011102662
000240 1d d4 3e 3c de 3a 16 3d cc 20 d9 3c e5 aa 77 3c
       0.011647251 0.036677234 0.026504897 0.015116428
000250 9c b3 22 3d c0 0e 7c bc a7 ef 86 3c da be 03 bd
       0.03972207 -0.015384376 0.016471697 -0.032164432
000260 4e dc a0 3c d0 b0 0a 3d cb ff 21 bc 56 79 ce 3c
       0.0196363 0.033860028 -0.009887646 0.025204342
000270 ee a8 02 bd c3 eb 64 3c d5 ff c9 bb 9c 56 22 bd
       -0.031899385 0.013972226 -0.0061645308 -0.03963338
000280 e0 d7 ec bb 3b 87 09 bb 69 f2 f7 3c d4 32 52 3c
       -0.0072278827 -0.0020985145 0.030266957 0.012829501
000290 44 80 1e 3d 36 af f2 b9 88 ca 9a bc f8 23 56 3a
       0.038696542 -0.0004628838 -0.018895403 0.0008168812
0002a0 3c 23 a6 bc dd 09 ef bb 58 53 cd 3b 6a 29 8c 3c
       -0.020280473 -0.007294877 0.006266039 0.017109592
0002b0 dd 89 81 3b c4 70 dc bc f4 11 fb ba 2b fd 33 bd
       0.003953202 -0.02690924 -0.0019155131 -0.04394261
0002c0 ce 81 0d 3d 04 40 e1 bc b4 c7 8b 3c 65 5f dc 3c
       0.03454762 -0.027496345 0.017063 0.026900956
0002d0 bb 22 d7 3b 2f ed 5b 3c 9f fe e9 3c 6d 20 81 bc
       0.0065654195 0.013423248 0.028563796 -0.015762532
0002e0 39 fc 5f 3c 6b d0 0d bd 42 5f ae 3c 65 2d 26 bd
       0.013670974 -0.03462259 0.021285657 -0.040570635
0002f0 39 82 11 bc e2 e6 6e bc 69 97 90 3c b4 fc 13 bd
       -0.008881145 -0.014581414 0.017650323 -0.03612967
000300 66 c5 d4 3c 66 d9 2d 3b 33 37 16 bc be 30 7f 3c
       0.025973033 0.0026527285 -0.009168434 0.015575586
000310 3e e5 05 bd 75 4d 12 bd ab 40 75 bd c9 ce 68 bd
       -0.032689326 -0.0357184 -0.059876125 -0.05683783
000320 74 89 3e bc 7d d6 a3 bc 5c 52 42 bc b7 ab 8c 3c
       -0.011629451 -0.019999737 -0.011860456 0.017171724
000330 65 85 d2 bc 88 82 52 bc 7b 08 a3 bc 70 ae 55 bc
       -0.025698373 -0.012848504 -0.019901505 -0.013042077
000340 93 ac f7 b8 0b c3 16 3c f2 09 a4 3c 01 5e 25 ba
       -0.00011810022 0.009201775 0.020024274 -0.0006308258
000350 72 c4 37 bd e9 3e 5b bc ee 5e a4 3c d6 1d 1b bd
       -0.04486508 -0.013381698 0.020064797 -0.03787025
000360 18 c6 83 bc e6 6e 9d 3b e9 8b 24 bc 72 04 95 bc
       -0.01608567 0.00480448 -0.010043123 -0.018190596
000370 91 31 a2 3b e8 1c ce bc 66 45 1d 3a 67 43 f1 3b
       0.0049497564 -0.025160268 0.0005999416 0.0073627713
000380 ba b7 12 bd a4 4e 95 bc 49 84 15 bd 5a 60 33 bd
       -0.035819747 -0.018225975 -0.03650311 -0.04379306
000390 81 79 aa bc 21 70 28 bd 64 89 54 3c 1f ce 5d 3c
       -0.02080989 -0.04112256 0.01297221 0.013537913
0003a0 76 fb 83 3c af 76 37 bd 22 dd c9 bc df a5 3f bc
       0.016111117 -0.04479092 -0.024641577 -0.011697262
0003b0 6b 28 57 bd ae f4 23 bd d4 bc 7a bc 12 b5 1d 3c
       -0.05252878 -0.040028267 -0.015303809 0.00962569
0003c0 ec a8 1e bd df 91 da 3c aa d6 b8 3c 5e 3c 5b 3b
       -0.038735315 0.026680885 0.022563297 0.003345273
0003d0 33 02 7f bc fc bf 51 bd 28 99 08 3c 06 25 ab 3b
       -0.015564489 -0.05120848 0.008337297 0.0052229194
0003e0 d4 4f 15 bd cf bf 16 bd 77 4d 2b 3c 00 12 f9 bc
       -0.036453083 -0.036804017 0.010455481 -0.03040409
0003f0 e5 05 03 bd 96 75 8b bc 8a ba e7 bb 7d dc 84 3c
       -0.031988043 -0.017023843 -0.0070717977 0.016218418

network_body.observation_encoder.processors.0.conv_layers.0.bias f4 [16]
000000 9d cb 1c bd c0 b2 ac 3c a9 69 fe bc 51 bb 96 bd
       -0.03828012 0.021081328 -0.031056242 -0.073599465
000010 c9 47 3a bd 6b 53 db 3c 1b 4a 96 bc d7 33 ac 3c
       -0.045478616 0.026773175 -0.018345883 0.021020813
000020 d5 10 0b bd 1d db 40 bd 53 6f 24 bd 73 74 6a 3b
       -0.0339516 -0.047083963 -0.04014523 0.0035774976
000030 5e c4 11 3d 57 7a f5 bc de 2d b6 bc 89 c3 96 bc
       0.03558766 -0.029965563 -0.022238668 -0.018403785

network_body.observation_encoder.processors.0.conv_layers.2.weight f4 [32, 16, 4, 4]
000000 e4 58 18 3e be df ee 3d 93 91 b9 3d 8b 3c 90 3d
       0.14877659 0.11663769 0.09060969 0.07042798
000010 8b a9 86 3d 28 39 36 3e f6 5e 02 3e 74 a7 c4 3d
       0.065753065 0.17795241 0.12731537 0.09602252
000020 9d 9c 16 3e fe ee 94 3d e4 e9 c2 3d 8c eb 06 3e
       0.1470818 0.07272147 0.09517267 0.13175792
000030 d1 ad bd 3d a6 94 7a 3d 20 74 d3 3d 00 9e ef 3d
       0.092616685 0.06117692 0.103248835 0.11700058
000040 53 85 89 3d 2d d5 0b 3e 01 3b a8 3d 2b cb 50 3d
       0.06714883 0.13655539 0.08214379 0.050975006
000050 33 82 8d 3c 33 b7 ac 3d a8 4c 41 3d c1 8e 51 3d
       0.017273998 0.0843338 0.047192246 0.05116153
000060 40 c9 cd 3d 80 3e ca 3d 95 44 f9 3d f6 57 f8 3d
       0.10048151 0.09875202 0.12171284 0.12126152
000070 42 90 cd 3d 66 3c bb 3d c2 ad 28 3d 5f d9 de 3d
       0.100372806 0.091423795 0.041181333 0.10881304
000080 79 1f fa bc 61 a4 32 3d 6f 74 80 3d f0 21 04 bc
       -0.030532585 0.043613795 0.06272208 -0.008064732
000090 9c ce 7c 3d 3d 62 08 bd 30 39 3c bb 96 58 04 3d
       0.061720476 -0.033296812 -0.002872061 0.032311045
0000a0 94 f8 b0 bc c4 10 0d 3d df a5 6f 3d 3f 94 0e 3c
       -0.021602906 0.034439817 0.058507796 0.008702337
0000b0 1e dd a6 bc 1d 62 3f bc ef 8d 2b 3d 4e 25 2c 3d
       -0.020369109 -0.011681107 0.041883405 0.042027764
0000c0 30 21 8a 3d f5 2b a8 3d 90 c4 41 3d 38 70 83 3d
       0.06744611 0.08211509 0.047306597 0.064178884
0000d0 b9 62 21 3d 9f 7e d4 3c 18 77 ce 3d f8 c8 40 3d
       0.03940079 0.025939284 0.10081309 0.04706666
0000e0 7a 3f a1 3d b4 df d2 3d be 7e 24 3d 9e 37 f9 3c
       0.07873435 0.10296574 0.040159933 0.030422028
0000f0 46 a4 e8 3d a2 2d 7a 3d 8e 65 cd 3d 0a 7e 01 3e
       0.11359458 0.061078675 0.10029136 0.12645736
000100 1b b5 f6 3d 0c 4d 27 3d 8e e5 1f 3e ed fe a6 3d
       0.12046262 0.040844962 0.15614912 0.08154092
000110 41 65 b4 3d 53 57 e1 3d b4 b6 18 3e 08 0d 1f 3e
       0.08808375 0.11002984 0.14913446 0.15532315
000120 9e 93 12 3e c9 36 01 3e bc 21 26 3e 18 b8 15 3e
       0.14314124 0.12618555 0.16223806 0.14621007
000130 a6 03 cd 3d 2a 5a ec 3d 54 ef e7 3d f0 1e 19 3e
       0.100104615 0.11540635 0.11324945 0.14953208
000140 ca e4 74 3d 95 66 2d 3d 90 a1 cf 3d f3 c9 3f 3d
       0.059788503 0.042334158 0.101382375 0.046823453
000150 08 5b 77 3d 50 c2 de 3d 9c 40 39 3d 8a 4e c8 3d
       0.06038955 0.10876906 0.045227632 0.09780605
000160 ee ff 27 3d 26 84 f4 3b 1b 68 88 3d 6e c9 7e 3d
       0.041015558 0.0074620424 0.066604815 0.062203817
000170 a6 4f fe 3c b3 57 9c 3d 64 c3 58 bb d8 64 f1 bb
       0.031043839 0.07633915 -0.0033075446 -0.007366758
000180 e1 39 05 3e de f3 0f 3d e1 08 4d 3d 7c 3c df 3d
       0.1301036 0.03514468 0.050057296 0.10900208
000190 cc 0d 0c 3e 1a bc 58 3d 18 da 1a 3e 32 29 70 3d
       0.13677138 0.052913763 0.15122259 0.058633037
0001a0 ec aa 04 3e b9 f1 b8 3d 1f 8a 16 3e 70 2b e2 3d
       0.12955827 0.0903048 0.14701127 0.11043441
0001b0 08 49 97 3d fe 0d 0d 3e 0a 1f 89 3d cd 8b fc 3d
       0.073869765 0.13774869 0.06695373 0.123313524
0001c0 c6 38 f5 3d 05 e2 e0 3d f7 d6 76 3d 76 39 b3 3d
       0.11973719 0.1098061 0.0602636 0.08751194
0001d0 33 d1 04 3e fa c2 17 3e 40 3b d6 3d 3d a7 80 3d
       0.12970428 0.14820471 0.1046052 0.06281898
0001e0 da d8 a4 3d 44 eb b4 3d f8 f1 35 3e ca 80 fe 3d
       0.08049174 0.08833936 0.17768085 0.12426908
0001f0 2d 5f ed 3d 63 83 4a 3d 27 63 e9 3d d3 b0 88 3d
       0.11590419 0.049441706 0.11395865 0.066743515
000200 c9 ac bc 3d c0 7b 15 3e 00 b9 e1 3d 61 bb f0 3d
       0.09212644 0.14597988 0.11021614 0.1175449
000210 45 61 2e 3e 16 84 26 3e 86 3e 2c 3e a9 13 18 3e
       0.17029293 0.16261324 0.16820726 0.1485125
000220 93 d7 a2 3d 56 56 d3 3d 29 91 14 3e 8a 1c e4 3d
       0.07951274 0.10319202 0.14508499 0.11138256
000230 5d 4a 20 3e bd b5 af 3d dd ee f6 3d 57 14 18 3e
       0.15653367 0.08579586 0.12057278 0.14851509
000240 1e ed d2 3d 60 60 de 3c ee 23 52 3d ae ec ef 3c
       0.10299133 0.027145565 0.051303796 0.029287662
000250 5d 59 8d 3d 56 c2 41 3d 39 b8 cd 3c c1 8b ed 3d
       0.0690181 0.047304474 0.025112258 0.115989216
000260 3a 37 43 3d 41 15 e1 3d 17 fe 80 3d 78 10 4b 3d
       0.04766009 0.10990382 0.06298464 0.049576253
000270 d0 3a e6 3d 80 0e 16 3d c1 e0 21 3d 48 9e b4 3d
       0.11241686 0.036634922 0.039520983 0.08819252
000280 f2 58 1e 3d ff f3 0a 3e 47 88 96 3d 9e 07 12 3d
       0.038659044 0.1356964 0.073502116 0.035651796
000290 81 7d 90 3d ed d6 0a 3e 5b 2f 86 3d b1 61 e2 3d
       0.07055188 0.1355855 0.06552001 0.110537894
0002a0 5b 2f b1 3c f1 41 a6 3d 9b 0a 10 3e 63 13 5c 3d
       0.021629026 0.08118046 0.14066546 0.053729426
0002b0 52 0f b7 3d c0 e1 d7 3d ed 9c 9d 3d 31 2b ac 3d
       0.08938469 0.10541105 0.07695947 0.084066756
0002c0 49 f8 52 3d 79 6a dc 3d 05 c2 a6 3d 7c 29 ca 3d
       0.051506314 0.107624955 0.08142475 0.09871194
0002d0 e5 8a 08 3e fb 82 90 3d d9 02 32 3d 92 91 d1 3d
       0.13334234 0.070562325 0.043459747 0.102328435
0002e0 0f 3a ec 3d 59 f1 af 3d 5f 7b c7 3d b0 05 85 3d
       0.11534511 0.08590955 0.09740328 0.064952254
0002f0 21 a4 57 3d 04 5f a0 3c 79 77 e7 3d 78 f0 0a 3e
       0.05264676 0.019576557 0.113020845 0.13568294
000300 40 19 f6 3c 7a 51 e7 3d 75 db 43 3d 19 8b c0 3d
       0.030041337 0.11294837 0.047816712 0.09401531
000310 3c 89 f5 3d b0 13 b4 3d b9 da 9c 3d bb 2e 54 3d
       0.11989066 0.087928176 0.076589055 0.05180238
000320 8a e6 0f 3e 14 cf 03 3e 74 02 70 3d 9b a4 73 3d
       0.14052787 0.12871963 0.05859609 0.059483152
000330 23 66 ce 3d d8 08 0c 3e 9f 27 80 3d 2d 7a c5 3d
       0.10078075 0.13675249 0.06257557 0.09642444
000340 f0 17 26 3e 3c 23 23 3e a4 95 30 3e 25 5e b2 3d
       0.16220069 0.1593141 0.17244583 0.08709363
000350 52 52 1e 3e 97 3f eb 3d 37 a8 fb 3d 33 f5 c0 3d
       0.1546109 0.11486738 0.12287944 0.09421768
000360 ec 27 35 3e 03 60 30 3e 71 4b 84 3d 33 51 40 3e
       0.1769101 0.17224126 0.06459702 0.18780975
000370 5c 63 e4 3d 04 31 ea 3d 96 77 0b 3e d8 15 84 3d
       0.11151764 0.1143513 0.13619837 0.06449479
000380 8c 68 e2 3d e4 3f b8 3d a8 ad 02 3e e2 05 da 3d
       0.11055097 0.08996561 0.12761557 0.10645653
000390 36 bd 23 3e ce 0b c1 3d 39 eb e9 3d 0b 51 fa 3d
       0.15990147 0.0942608 0.11421818 0.12222489
0003a0 a2 5e be 3d a3 c4 00 3e 1a 71 95 3d 08 59 0b 3e
       0.092953935 0.12575011 0.07296963 0.13608181
0003b0 6b be 82 3c d7 9a c9 3d fe a6 4b 3d d7 e4 6b 3c
       0.015959939 0.098439865 0.049719803 0.014397821
0003c0 9e df ea 3d 0c c1 04 3e 9e ac 51 3d b9 58 ab 3c
       0.11468433 0.12964267 0.05119001 0.02091633
0003d0 9b 6a a8 3c 13 6c 4b 3d 18 57 02 3e cf 6a 9b 3d
       0.020558646 0.049663614 0.12728536 0.075887315
0003e0 bc 54 8a 3d 7f 7f 22 3d 11 4b dc 3d 74 52 ea 3d
       0.06754443 0.03967237 0.10756505 0.11441508
0003f0 89 e7 ea 3d dc b8 e3 3d 3a 5d 4f 3d 96 e2 cd 3d
       0.11469943 0.111192435 0.050626017 0.100529835

network_body.observation_encoder.processors.0.conv_layers.2.bias f4 [32]
000000 36 87 c2 bd 77 85 09 be d6 05 cf bd fe 3a 15 bd
       -0.09498446 -0.13429819 -0.10108535 -0.036433212
000010 a1 47 cf 3b 0c e5 3a 3d 92 73 2f bd de f5 ed bd
       0.0063256775 0.045628592 -0.042834826 -0.11619161
000020 77 79 06 be d1 82 56 3c b2 e5 a7 bc 17 e5 ed bd
       -0.13132273 0.0130927125 -0.02049527 -0.11615961
000030 99 26 4f bd 17 0c c9 bd af 41 c0 3c ab 04 c0 bd
       -0.05057392 -0.09816759 0.02346882 -0.0937589
000040 91 53 22 be 3b da ec bd 8f c8 0a be 7e 37 8e bd
       -0.1585219 -0.11565062 -0.1355307 -0.06944178
000050 14 59 8f 3b 24 94 69 be ff 38 4f be e8 a9 11 3e
       0.0043746326 -0.22810417 -0.20236586 0.1422497
000060 f6 b4 00 3d db ab 36 be 2c 51 2a 3d fc 08 c4 bc
       0.031422578 -0.17838995 0.041581318 -0.023930065
000070 ac 83 04 bd bf 29 c6 bd 8a a3 3f be 91 49 c2 3a
       -0.032352135 -0.09675931 -0.18714729 0.001482295

network_body.observation_encoder.processors.0.dense.0.weight f4 [30, 512]
000000 57 7a 0b 3d 1a 52 06 3c ee b4 78 3c b7 a2 d0 3d
       0.03405222 0.0081982855 0.015179856 0.101872854
000010 69 de 19 be 74 bb 89 3c 91 c2 83 bd 37 00 0c bc
       -0.15026249 0.016813017 -0.06433595 -0.008544973
000020 91 fa 09 bd 71 71 0e 3d 49 ef 3a bd e0 90 61 3c
       -0.033686224 0.034776155 -0.045638356 0.013767451
000030 22 1a 6f bd 8f 61 b3 bd a2 9f 27 3d 87 ba fb 3d
       -0.05837453 -0.08758842 0.040923722 0.12291437
000040 2d 46 3a 3d 01 94 ae 3d 40 a6 f1 3d e6 c3 9d 3d
       0.04547708 0.08524323 0.11799288 0.0770338
000050 56 04 1a 3e 71 11 31 bd e3 d2 ae bc 4b 7a 23 3d
       0.15040717 -0.043229524 -0.021340793 0.03991155
000060 f1 10 69 bd b7 ad 0a 3e 1d ac 1b 3e 8f 88 39 3d
       -0.056900922 0.1354283 0.15202375 0.045296248
000070 05 14 8c 3a 39 b6 2a bc c0 0e 27 3d 2f 9c ab 3c
       0.0010687119 -0.010419422 0.04078555 0.020948498
000080 ea ee 15 3e b2 ad b5 3d 59 10 66 bd f8 99 c3 3d
       0.1464192 0.088710204 -0.056167934 0.095508516
000090 35 99 7a 3d 09 d1 f5 3c d2 2b ac 3d 9f 9b 54 bc
       0.061181266 0.030006902 0.084067956 -0.012976556
0000a0 d3 89 15 bb 8e 94 08 3d f0 e5 02 bd 62 0a b6 3c
       -0.0022817745 0.033344798 -0.031957567 0.022221748
0000b0 e0 4a 29 bd e5 01 5b bd 01 24 af 3d e2 05 a4 bc
       -0.041331172 -0.053468604 0.08551789 -0.020022336
0000c0 bb 85 51 3c 61 fd 6c 3d ab 58 12 bd 2d 9f 03 3e
       0.0127882315 0.05785883 -0.03572909 0.1285369
0000d0 fe ef 3f bd 89 94 2a bd 21 c0 32 bd 98 e1 26 3d
       -0.046859734 -0.04164556 -0.04364026 0.040742487
0000e0 12 f6 3f bd ca b4 6e 3d d3 f4 ef 3d d0 fb 77 3d
       -0.04686553 0.058277883 0.117166184 0.06054288
0000f0 c2 21 16 3e 76 c0 22 bd b6 af 0d be 46 02 97 3c
       0.14661315 -0.039734326 -0.1383656 0.018433701
000100 55 d1 21 bd 5d 3d 61 3d 9c dc af bd e3 6a 85 bb
       -0.039506275 0.05499016 -0.08587 -0.00407158
000110 ed 87 2b 3d 3d 15 d7 bc 5d 94 20 3d f1 5e 8f bc
       0.041877676 -0.026255244 0.03920399 -0.017501326
000120 80 03 b1 3c fc e6 82 bd dc eb 30 3c 8d 42 be bc
       0.021608114 -0.06391713 0.010798421 -0.023225093
000130 89 10 17 3b e9 22 9d bd e5 44 98 bd c2 97 20 bd
       0.0023050627 -0.07672674 -0.074350156 -0.039207228
000140 71 ea 3c bd 83 28 4d bc 51 7c 52 3d 23 37 c4 3a
       -0.04612202 -0.012521866 0.05138809 0.0014970045
000150 fa c2 7b ba ce 6a d5 3d 81 aa 16 3d ac fa 72 3d
       -0.0009603944 0.10420762 0.0367837 0.05932109
000160 af c0 69 3c ce ae 80 3c 20 01 da bc 94 96 ff bb
       0.014267131 0.015708353 -0.026611865 -0.0077999327
000170 3d b4 66 3d fe 2a 4f bb ae 73 97 bd ce d2 3d be
       0.056324232 -0.0031611319 -0.07395111 -0.18537447
000180 2a 75 04 3e 95 35 93 3d 5d 15 13 3e 32 7d 64 ba
       0.1293532 0.07187954 0.14363618 -0.00087161653
000190 53 b0 bf 3d d8 71 76 3d 34 46 e0 3d 63 ee f1 bc
       0.09359803 0.060167164 0.1095089 -0.029532617
0001a0 7a ab 61 3a 16 95 d8 bc 75 53 c5 3d 5d 59 67 3c
       0.0008608621 -0.026438277 0.09635059 0.014120427
0001b0 1a 13 6f 3d 43 88 99 3d f1 56 86 3d f3 d8 23 3e
       0.058367826 0.07496693 0.065595515 0.16000728
0001c0 a5 62 c3 3d 3f 6f d3 bc 85 49 90 3d d3 cb cc 3c
       0.09540299 -0.025809882 0.07045273 0.024999535
0001d0 f6 bb d1 3d 34 e4 2a bd cb ff 01 3d 28 61 32 bd
       0.10240929 -0.041721538 0.031738084 -0.043549687
0001e0 23 43 1a bd 81 89 c1 bc 41 e1 80 bd 3e e0 45 bc
       -0.037661683 -0.023625137 -0.06292964 -0.012077389
0001f0 2d 3f 14 3e 8d 62 d9 3c ba 6c 8d 3d 70 f6 e9 bc
       0.14477225 0.02653625 0.069055036 -0.028559893
000200 bb 33 87 3d 90 82 49 3d 84 74 bf 3c e0 ca 55 3d
       0.06601664 0.04919678 0.023370989 0.05219543
000210 f7 d4 08 be 48 a9 83 3d d6 10 ed bc 46 1a 63 3d
       -0.1336249 0.06428772 -0.028938692 0.05544498
000220 f6 95 47 bd be a2 14 3d c0 c6 a1 bd 9e 33 4a bd
       -0.048727 0.036288016 -0.07899237 -0.049365632
000230 e7 f9 0c be a3 ff 11 3d 7d e9 04 bd cd 03 8f bc
       -0.13767205 0.035644185 -0.032449234 -0.017457867
000240 ef f4 57 3d 6a c4 5c bc 4d 98 78 3d df c1 67 bc
       0.05272382 -0.013474563 0.06069212 -0.014145344
000250 e9 6e 3b bc 64 01 bb 3c 0b a4 fe 3c 61 63 1e bd
       -0.011440017 0.022827812 0.031084081 -0.038668994
000260 75 c7 c2 3b b9 45 5a bd a0 4f b6 3c f9 4d 5b bc
       0.0059441873 -0.05328915 0.022254765 -0.013385289
000270 2f 35 93 3c e5 38 b7 3d bd 50 11 be da 32 02 3e
       0.017969696 0.08946399 -0.14190955 0.12714711
000280 d9 67 5d 3d c7 7a e5 3c 84 7f 1a 3d 67 84 03 3d
       0.054054115 0.028012646 0.037719265 0.03210869
000290 6d 8c 73 3c 06 94 70 bd 85 45 ec bd 30 0e 9a bc
       0.014865023 -0.058734916 -0.11536697 -0.018805593
0002a0 3b f4 2b bc d8 fc 7f 3c 2f 25 94 bc 01 6d 40 bb
       -0.010495241 0.0156242475 -0.018084137 -0.0029361846
0002b0 18 0a ea bc 65 9a ba bd 4e 32 c3 bd 1c e3 83 3d
       -0.028569266 -0.0911148 -0.09531079 0.06439802
0002c0 73 c1 6c 3d 20 e3 c3 bc 5e a1 2e bd 20 17 99 3d
       0.057801675 -0.023912013 -0.04263436 0.07475114
0002d0 81 d2 48 3d aa f4 9b 3d f7 33 38 3b 45 69 b9 3c
       0.049028877 0.07615025 0.0028107145 0.022633204
0002e0 b5 b4 0d 3c 71 e1 00 be 4c a0 c8 3b c4 b7 aa bd
       0.008649041 -0.12585999 0.0061226245 -0.08335832
0002f0 c5 f4 57 3c c5 15 8d bc 61 9d 30 3d 99 e7 cf 3d
       0.013180916 -0.017222295 0.04311884 0.101515956
000300 47 d0 18 3e 1c 68 cf 3c 60 f6 c4 bd 6f 98 09 3e
       0.14923202 0.025318198 -0.09617305 0.13437055
000310 2c 9b 0f bd 13 09 75 3c 60 91 dd 3c 0d c9 9d bc
       -0.035060093 0.014955777 0.02704686 -0.019260908
000320 44 08 c7 bd 57 bc 5a bd f9 24 89 3d c0 3d fa bd
       -0.097183734 -0.05340227 0.06696505 -0.12218809
000330 28 3a 40 3d 19 60 bc 3d 10 e3 45 3e 79 b7 90 3d
       0.046930462 0.09198017 0.19324899 0.07066245
000340 4e c5 88 3d 59 d0 00 3e 1f 80 10 3d 65 dd cc 3d
       0.06678258 0.12579478 0.035278436 0.10003165
000350 9f 86 64 3d d9 18 bb 3d eb d0 34 bd 7c 10 37 3d
       0.055792447 0.09135599 -0.044144552 0.044693455
000360 66 49 50 3d e7 81 43 bd 7d 28 11 3e 81 03 18 3e
       0.05085125 -0.047731306 0.14175601 0.14845087
000370 c2 00 28 3d c4 ff 19 3c 6d 13 a5 bd 8d 33 f1 bb
       0.041016348 0.009399358 -0.08060346 -0.0073608817
000380 77 36 83 bd 70 0f 16 bd 44 ea f4 3c 49 a4 8e 3d
       -0.06406873 -0.036635816 0.029896863 0.06964929
000390 bf dd 4d 39 bb ff fc bd df 8b 86 3b 1f da ba 3c
       0.0001963293 -0.12353464 0.0041060294 0.022809086
0003a0 e8 ac 0b 3c 60 8e ce 3d 7d 41 ac bc a1 6e cb 3d
       0.008525111 0.100857496 -0.021027321 0.0993321
0003b0 e0 48 9d 3c 6a 35 a3 bc ca 42 a0 bd e4 40 76 bd
       0.019199789 -0.01992293 -0.07825239 -0.06012048
0003c0 d3 6e 41 3b 19 02 be 3d 1a bd 59 3d a4 26 11 bd
       0.002951552 0.09277744 0.053158857 -0.03543724
0003d0 d4 89 8b bc f9 77 08 3d e4 3a da bc 7d 23 0c 3e
       -0.017033495 0.03331754 -0.02663941 0.13685413
0003e0 12 a5 0d bc 17 28 6a bd f7 31 4a 3b 4c 7e b6 bd
       -0.008645313 -0.05716714 0.0030852535 -0.08910808
0003f0 47 c5 96 bc 3d ec 12 3e 62 35 13 bd e5 5a 34 3d
       -0.018404616 0.1434793 -0.03593958 0.044031996

network_body.observation_encoder.processors.0.dense.0.bias f4 [30]
000000 12 ed e3 3b 4c b7 81 bd f1 a8 56 bd 10 6d 8b bc
       0.006955751 -0.06333789 -0.05240721 -0.017019778
000010 be e0 d3 bc 8a 79 81 bd 1e 43 61 bd 40 1e 23 bd
       -0.025864001 -0.0632201 -0.05499565 -0.03982377
000020 7e 90 47 bd 57 d9 a0 bd 07 32 b0 bc 8b 23 f6 bc
       -0.048721783 -0.07853954 -0.02150823 -0.030046245
000030 24 5c 70 bd 61 ea 59 bd 10 c8 6a bd 08 8b 8a bd
       -0.058681622 -0.053202037 -0.0573197 -0.06764799
000040 3c e9 be bd 2c 50 46 bd e7 6a 40 bc 95 cf 20 3d
       -0.0932183 -0.0484163 -0.0117442375 0.039260466
000050 64 d4 3d bd 55 7e db bd 8c e4 fe bc 22 a4 43 3d
       -0.04634513 -0.10717455 -0.031114839 0.04776395
000060 51 40 aa bd 3e c0 d8 bc 32 2c 56 bd 48 84 48 bd
       -0.08313049 -0.026458856 -0.05228824 -0.04895428
000070 9b 96 63 bd 79 55 6e 3c
       -0.05556355 0.014546745

network_body.processors.0.conv_layers.0.weight f4 [16, 9, 8, 8]
000000 4a 3f 5e bc dc 03 09 bd 70 01 c4 3c 4f df c5 3c
       -0.013564894 -0.033450946 0.023926467 0.024154333
000010 0f 9e 4c bd 77 fa 51 bc 52 7d a1 3c d1 30 11 bd
       -0.049955424 -0.012816063 0.019713078 -0.035446946
000020 ea 31 7d bc 9f 52 c9 3c f5 4d e8 bb 4b e7 f2 bc
       -0.015453795 0.02457553 -0.0070893713 -0.029651305
000030 aa ad 29 bd 9f d4 28 bd 57 b4 f7 bc 65 61 41 3b
       -0.041425385 -0.041218396 -0.03023736 0.0029507515
000040 0a e6 25 3c 75 1d 2b bd f3 5f ee 3b a0 9b 19 3b
       0.010125646 -0.04177614 0.0072746216 0.0023438707
000050 38 59 94 3a 8f d5 b4 3c 4d f0 1d bd 5e 11 53 bc
       0.0011318093 0.022074489 -0.038559247 -0.012882559
000060 03 5e 01 3b 07 68 2b bd 46 1e f1 bc d2 32 d1 3b
       0.0019739873 -0.041847255 -0.02943338 0.006384232
000070 89 f8 c9 bb 40 c3 06 bd 9f 65 35 bd 0d 5d f6 3c
       -0.006163661 -0.03290105 -0.044286367 0.030073667
000080 43 9b 1a bd 3d 38 66 3c 88 45 d6 3c c2 5f 48 3c
       -0.037745725 0.014051494 0.026156202 0.012229862
000090 bb 56 89 bc d6 40 95 bc 1b fc b6 bc 3e bd 15 3c
       -0.01676499 -0.018219393 -0.02233701 0.009139357
0000a0 95 79 9f bc c9 08 4b 3c 91 80 6b 3c 40 a4 2d bd
       -0.019467155 0.012392231 0.014373914 -0.04239297
0000b0 9d 84 fd 3c 5d 7d bb 3c 2d b6 26 bc ed 72 0c 3d
       0.030947024 0.022886926 -0.01017527 0.03428929
0000c0 2f c3 03 bb 5f b0 58 3b d4 be c9 3c c5 8d 09 3d
       -0.0020105352 0.003306411 0.024627127 0.033582468
0000d0 92 e4 06 3d a9 df d5 bc a7 6d 8f 3c e5 50 11 bd
       0.032932825 -0.026107626 0.017508341 -0.035477538
0000e0 b8 fd 1b bd 3c 44 04 3d d8 48 31 bd 28 19 41 bd
       -0.038083762 0.032291636 -0.04328236 -0.04714313
0000f0 0a 4b 90 3c 4d 9f 1e 3a b6 98 1b b9 b3 58 b7 bc
       0.017613906 0.00060509593 -0.00014838841 -0.022381162
000100 81 70 44 3c 43 40 18 bd 94 91 82 ba 2a 3a d6 bb
       0.011989714 -0.03717066 -0.0009961599 -0.0065376954
000110 10 06 2d 3d 9c 37 66 bc 0e 57 c6 bc fb 6a fd 3c
       0.04224211 -0.014051344 -0.024211433 0.030934801
000120 01 a4 fe 3c c7 65 56 bc 3a 3f d9 3c ed 8f de bb
       0.031084063 -0.013085789 0.026519407 -0.0067920596
000130 5c 38 33 3d 55 b6 90 3b b3 1a c1 bc bc b8 1d bb
       0.04375492 0.004416267 -0.023572301 -0.002406641
000140 85 a5 b6 bc 13 e7 9a bc fb 5e 01 3d f5 d8 19 3d
       -0.022295723 -0.018909013 0.03158472 0.037560422
000150 d4 a0 8c bb 0a c2 0c 3c 7f a4 15 bd 01 e0 70 bc
       -0.004291633 0.008591184 -0.03653383 -0.014701844
000160 f2 c4 0f 3d 0d 33 89 bc 50 2d 18 bc 87 35 8e 3c
       0.03509993 -0.016747976 -0.009288147 0.017359508
000170 d3 fd 0d bd d4 83 90 bc 49 97 0e bd 54 0e fe 3c
       -0.034665894 -0.017640986 -0.034812246 0.031012692
000180 43 98 e1 ba ce a2 ab bc cf a4 b0 bc 0a 4b e5 3a
       -0.0017211515 -0.020951655 -0.021562962 0.0017493677
000190 f3 f0 74 bc 68 81 1b 3d 71 66 4f 3c 18 6d 14 3d
       -0.014950025 0.03796521 0.012658701 0.036236852
0001a0 fc 6f 36 bc 93 a1 72 3c ad ff 4e 3c c2 60 18 3d
       -0.011135098 0.01480903 0.0126342 0.03720165
0001b0 e4 36 03 3d ad 63 0a bd 46 eb ff 3c 9e b1 27 bb
       0.03203477 -0.033786464 0.031240117 -0.0025588046
0001c0 af b0 8f bc d6 2d 76 ba 87 37 35 3b e2 da 84 bc
       -0.017540304 -0.00093909854 0.0027651505 -0.016217653
0001d0 4e 0f 9d bc 09 11 8b bc 30 91 5a bc 81 e6 e5 bc
       -0.019172337 -0.016975896 -0.013340279 -0.028064014
0001e0 c1 50 e8 bc 3a 95 a3 3c 41 10 d1 bc a0 d8 aa b9
       -0.028358819 0.019968618 -0.025520446 -0.00032586325
0001f0 6a 88 c2 3b 59 ad 10 3c 72 9b 0d bd 6f 83 9f 3c
       0.005936672 0.008830392 -0.034572072 0.019471852
000200 5f f0 5b 3c b0 fc d0 3c 47 bc ec bc e1 30 23 bd
       0.013424008 0.025511116 -0.028898371 -0.039841536
000210 6e 2a 29 bd b4 91 f0 3c a8 fb 1c bd 54 07 02 bb
       -0.04130023 0.029366352 -0.038325936 -0.0019840794
000220 1c c3 af bc 4e a3 e1 3c 1a 69 10 bd c7 58 0f bd
       -0.02145534 0.02754369 -0.035256483 -0.034996774
000230 55 86 fd bc 01 b6 cd bc fa 89 1e 3d f1 e7 35 3c
       -0.030947844 -0.0251112 0.038705803 0.011102662
000240 1d d4 3e 3c de 3a 16 3d cc 20 d9 3c e5 aa 77 3c
       0.011647251 0.036677234 0.026504897 0.015116428
000250 9c b3 22 3d c0 0e 7c bc a7 ef 86 3c da be 03 bd
       0.03972207 -0.015384376 0.016471697 -0.032164432
000260 4e dc a0 3c d0 b0 0a 3d cb ff 21 bc 56 79 ce 3c
       0.0196363 0.033860028 -0.009887646 0.025204342
000270 ee a8 02 bd c3 eb 64 3c d5 ff c9 bb 9c 56 22 bd
       -0.031899385 0.013972226 -0.0061645308 -0.03963338
000280 e0 d7 ec bb 3b 87 09 bb 69 f2 f7 3c d4 32 52 3c
       -0.0072278827 -0.0020985145 0.030266957 0.012829501
000290 44 80 1e 3d 36 af f2 b9 88 ca 9a bc f8 23 56 3a
       0.038696542 -0.0004628838 -0.018895403 0.0008168812
0002a0 3c 23 a6 bc dd 09 ef bb 58 53 cd 3b 6a 29 8c 3c
       -0.020280473 -0.007294877 0.006266039 0.017109592
0002b0 dd 89 81 3b c4 70 dc bc f4 11 fb ba 2b fd 33 bd
       0.003953202 -0.02690924 -0.0019155131 -0.04394261
0002c0 ce 81 0d 3d 04 40 e1 bc b4 c7 8b 3c 65 5f dc 3c
       0.03454762 -0.027496345 0.017063 0.026900956
0002d0 bb 22 d7 3b 2f ed 5b 3c 9f fe e9 3c 6d 20 81 bc
       0.0065654195 0.013423248 0.028563796 -0.015762532
0002e0 39 fc 5f 3c 6b d0 0d bd 42 5f ae 3c 65 2d 26 bd
       0.013670974 -0.03462259 0.021285657 -0.040570635
0002f0 39 82 11 bc e2 e6 6e bc 69 97 90 3c b4 fc 13 bd
       -0.008881145 -0.014581414 0.017650323 -0.03612967
000300 66 c5 d4 3c 66 d9 2d 3b 33 37 16 bc be 30 7f 3c
       0.025973033 0.0026527285 -0.009168434 0.015575586
000310 3e e5 05 bd 75 4d 12 bd ab 40 75 bd c9 ce 68 bd
       -0.032689326 -0.0357184 -0.059876125 -0.05683783
000320 74 89 3e bc 7d d6 a3 bc 5c 52 42 bc b7 ab 8c 3c
       -0.011629451 -0.019999737 -0.011860456 0.017171724
000330 65 85 d2 bc 88 82 52 bc 7b 08 a3 bc 70 ae 55 bc
       -0.025698373 -0.012848504 -0.019901505 -0.013042077
000340 93 ac f7 b8 0b c3 16 3c f2 09 a4 3c 01 5e 25 ba
       -0.00011810022 0.009201775 0.020024274 -0.0006308258
000350 72 c4 37 bd e9 3e 5b bc ee 5e a4 3c d6 1d 1b bd
       -0.04486508 -0.013381698 0.020064797 -0.03787025
000360 18 c6 83 bc e6 6e 9d 3b e9 8b 24 bc 72 04 95 bc
       -0.01608567 0.00480448 -0.010043123 -0.018190596
000370 91 31 a2 3b e8 1c ce bc 66 45 1d 3a 67 43 f1 3b
       0.0049497564 -0.025160268 0.0005999416 0.0073627713
000380 ba b7 12 bd a4 4e 95 bc 49 84 15 bd 5a 60 33 bd
       -0.035819747 -0.018225975 -0.03650311 -0.04379306
000390 81 79 aa bc 21 70 28 bd 64 89 54 3c 1f ce 5d 3c
       -0.02080989 -0.04112256 0.01297221 0.013537913
0003a0 76 fb 83 3c af 76 37 bd 22 dd c9 bc df a5 3f bc
       0.016111117 -0.04479092 -0.024641577 -0.011697262
0003b0 6b 28 57 bd ae f4 23 bd d4 bc 7a bc 12 b5 1d 3c
       -0.05252878 -0.040028267 -0.015303809 0.00962569
0003c0 ec a8 1e bd df 91 da 3c aa d6 b8 3c 5e 3c 5b 3b
       -0.038735315 0.026680885 0.022563297 0.003345273
0003d0 33 02 7f bc fc bf 51 bd 28 99 08 3c 06 25 ab 3b
       -0.015564489 -0.05120848 0.008337297 0.0052229194
0003e0 d4 4f 15 bd cf bf 16 bd 77 4d 2b 3c 00 12 f9 bc
       -0.036453083 -0.036804017 0.010455481 -0.03040409
0003f0 e5 05 03 bd 96 75 8b bc 8a ba e7 bb 7d dc 84 3c
       -0.031988043 -0.017023843 -0.0070717977 0.016218418

network_body.processors.0.conv_layers.0.bias f4 [16]
000000 9d cb 1c bd c0 b2 ac 3c a9 69 fe bc 51 bb 96 bd
       -0.03828012 0.021081328 -0.031056242 -0.073599465
000010 c9 47 3a bd 6b 53 db 3c 1b 4a 96 bc d7 33 ac 3c
       -0.045478616 0.026773175 -0.018345883 0.021020813
000020 d5 10 0b bd 1d db 40 bd 53 6f 24 bd 73 74 6a 3b
       -0.0339516 -0.047083963 -0.04014523 0.0035774976
000030 5e c4 11 3d 57 7a f5 bc de 2d b6 bc 89 c3 96 bc
       0.03558766 -0.029965563 -0.022238668 -0.018403785

network_body.processors.0.conv_layers.2.weight f4 [32, 16, 4, 4]
000000 e4 58 18 3e be df ee 3d 93 91 b9 3d 8b 3c 90 3d
       0.14877659 0.11663769 0.09060969 0.07042798
000010 8b a9 86 3d 28 39 36 3e f6 5e 02 3e 74 a7 c4 3d
       0.065753065 0.17795241 0.12731537 0.09602252
000020 9d 9c 16 3e fe ee 94 3d e4 e9 c2 3d 8c eb 06 3e
       0.1470818 0.07272147 0.09517267 0.13175792
000030 d1 ad bd 3d a6 94 7a 3d 20 74 d3 3d 00 9e ef 3d
       0.092616685 0.06117692 0.103248835 0.11700058
000040 53 85 89 3d 2d d5 0b 3e 01 3b a8 3d 2b cb 50 3d
       0.06714883 0.13655539 0.08214379 0.050975006
000050 33 82 8d 3c 33 b7 ac 3d a8 4c 41 3d c1 8e 51 3d
       0.017273998 0.0843338 0.047192246 0.05116153
000060 40 c9 cd 3d 80 3e ca 3d 95 44 f9 3d f6 57 f8 3d
       0.10048151 0.09875202 0.12171284 0.12126152
000070 42 90 cd 3d 66 3c bb 3d c2 ad 28 3d 5f d9 de 3d
       0.100372806 0.091423795 0.041181333 0.10881304
000080 79 1f fa bc 61 a4 32 3d 6f 74 80 3d f0 21 04 bc
       -0.030532585 0.043613795 0.06272208 -0.008064732
000090 9c ce 7c 3d 3d 62 08 bd 30 39 3c bb 96 58 04 3d
       0.061720476 -0.033296812 -0.002872061 0.032311045
0000a0 94 f8 b0 bc c4 10 0d 3d df a5 6f 3d 3f 94 0e 3c
       -0.021602906 0.034439817 0.058507796 0.008702337
0000b0 1e dd a6 bc 1d 62 3f bc ef 8d 2b 3d 4e 25 2c 3d
       -0.020369109 -0.011681107 0.041883405 0.042027764
0000c0 30 21 8a 3d f5 2b a8 3d 90 c4 41 3d 38 70 83 3d
       0.06744611 0.08211509 0.047306597 0.064178884
0000d0 b9 62 21 3d 9f 7e d4 3c 18 77 ce 3d f8 c8 40 3d
       0.03940079 0.025939284 0.10081309 0.04706666
0000e0 7a 3f a1 3d b4 df d2 3d be 7e 24 3d 9e 37 f9 3c
       0.07873435 0.10296574 0.040159933 0.030422028
0000f0 46 a4 e8 3d a2 2d 7a 3d 8e 65 cd 3d 0a 7e 01 3e
       0.11359458 0.061078675 0.10029136 0.12645736
000100 1b b5 f6 3d 0c 4d 27 3d 8e e5 1f 3e ed fe a6 3d
       0.12046262 0.040844962 0.15614912 0.08154092
000110 41 65 b4 3d 53 57 e1 3d b4 b6 18 3e 08 0d 1f 3e
       0.08808375 0.11002984 0.14913446 0.15532315
000120 9e 93 12 3e c9 36 01 3e bc 21 26 3e 18 b8 15 3e
       0.14314124 0.12618555 0.16223806 0.14621007
000130 a6 03 cd 3d 2a 5a ec 3d 54 ef e7 3d f0 1e 19 3e
       0.100104615 0.11540635 0.11324945 0.14953208
000140 ca e4 74 3d 95 66 2d 3d 90 a1 cf 3d f3 c9 3f 3d
       0.059788503 0.042334158 0.101382375 0.046823453
000150 08 5b 77 3d 50 c2 de 3d 9c 40 39 3d 8a 4e c8 3d
       0.06038955 0.10876906 0.045227632 0.09780605
000160 ee ff 27 3d 26 84 f4 3b 1b 68 88 3d 6e c9 7e 3d
       0.041015558 0.0074620424 0.066604815 0.062203817
000170 a6 4f fe 3c b3 57 9c 3d 64 c3 58 bb d8 64 f1 bb
       0.031043839 0.07633915 -0.0033075446 -0.007366758
000180 e1 39 05 3e de f3 0f 3d e1 08 4d 3d 7c 3c df 3d
       0.1301036 0.03514468 0.050057296 0.10900208
000190 cc 0d 0c 3e 1a bc 58 3d 18 da 1a 3e 32 29 70 3d
       0.13677138 0.052913763 0.15122259 0.058633037
0001a0 ec aa 04 3e b9 f1 b8 3d 1f 8a 16 3e 70 2b e2 3d
       0.12955827 0.0903048 0.14701127 0.11043441
0001b0 08 49 97 3d fe 0d 0d 3e 0a 1f 89 3d cd 8b fc 3d
       0.073869765 0.13774869 0.06695373 0.123313524
0001c0 c6 38 f5 3d 05 e2 e0 3d f7 d6 76 3d 76 39 b3 3d
       0.11973719 0.1098061 0.0602636 0.08751194
0001d0 33 d1 04 3e fa c2 17 3e 40 3b d6 3d 3d a7 80 3d
       0.12970428 0.14820471 0.1046052 0.06281898
0001e0 da d8 a4 3d 44 eb b4 3d f8 f1 35 3e ca 80 fe 3d
       0.08049174 0.08833936 0.17768085 0.12426908
0001f0 2d 5f ed 3d 63 83 4a 3d 27 63 e9 3d d3 b0 88 3d
       0.11590419 0.049441706 0.11395865 0.066743515
000200 c9 ac bc 3d c0 7b 15 3e 00 b9 e1 3d 61 bb f0 3d
       0.09212644 0.14597988 0.11021614 0.1175449
000210 45 61 2e 3e 16 84 26 3e 86 3e 2c 3e a9 13 18 3e
       0.17029293 0.16261324 0.16820726 0.1485125
000220 93 d7 a2 3d 56 56 d3 3d 29 91 14 3e 8a 1c e4 3d
       0.07951274 0.10319202 0.14508499 0.11138256
000230 5d 4a 20 3e bd b5 af 3d dd ee f6 3d 57 14 18 3e
       0.15653367 0.08579586 0.12057278 0.14851509
000240 1e ed d2 3d 60 60 de 3c ee 23 52 3d ae ec ef 3c
       0.10299133 0.027145565 0.051303796 0.029287662
000250 5d 59 8d 3d 56 c2 41 3d 39 b8 cd 3c c1 8b ed 3d
       0.0690181 0.047304474 0.025112258 0.115989216
000260 3a 37 43 3d 41 15 e1 3d 17 fe 80 3d 78 10 4b 3d
       0.04766009 0.10990382 0.06298464 0.049576253
000270 d0 3a e6 3d 80 0e 16 3d c1 e0 21 3d 48 9e b4 3d
       0.11241686 0.036634922 0.039520983 0.08819252
000280 f2 58 1e 3d ff f3 0a 3e 47 88 96 3d 9e 07 12 3d
       0.038659044 0.1356964 0.073502116 0.035651796
000290 81 7d 90 3d ed d6 0a 3e 5b 2f 86 3d b1 61 e2 3d
       0.07055188 0.1355855 0.06552001 0.110537894
0002a0 5b 2f b1 3c f1 41 a6 3d 9b 0a 10 3e 63 13 5c 3d
       0.021629026 0.08118046 0.14066546 0.053729426
0002b0 52 0f b7 3d c0 e1 d7 3d ed 9c 9d 3d 31 2b ac 3d
       0.08938469 0.10541105 0.07695947 0.084066756
0002c0 49 f8 52 3d 79 6a dc 3d 05 c2 a6 3d 7c 29 ca 3d
       0.051506314 0.107624955 0.08142475 0.09871194
0002d0 e5 8a 08 3e fb 82 90 3d d9 02 32 3d 92 91 d1 3d
       0.13334234 0.070562325 0.043459747 0.102328435
0002e0 0f 3a ec 3d 59 f1 af 3d 5f 7b c7 3d b0 05 85 3d
       0.11534511 0.08590955 0.09740328 0.064952254
0002f0 21 a4 57 3d 04 5f a0 3c 79 77 e7 3d 78 f0 0a 3e
       0.05264676 0.019576557 0.113020845 0.13568294
000300 40 19 f6 3c 7a 51 e7 3d 75 db 43 3d 19 8b c0 3d
       0.030041337 0.11294837 0.047816712 0.09401531
000310 3c 89 f5 3d b0 13 b4 3d b9 da 9c 3d bb 2e 54 3d
       0.11989066 0.087928176 0.076589055 0.05180238
000320 8a e6 0f 3e 14 cf 03 3e 74 02 70 3d 9b a4 73 3d
       0.14052787 0.12871963 0.05859609 0.059483152
000330 23 66 ce 3d d8 08 0c 3e 9f 27 80 3d 2d 7a c5 3d
       0.10078075 0.13675249 0.06257557 0.09642444
000340 f0 17 26 3e 3c 23 23 3e a4 95 30 3e 25 5e b2 3d
       0.16220069 0.1593141 0.17244583 0.08709363
000350 52 52 1e 3e 97 3f eb 3d 37 a8 fb 3d 33 f5 c0 3d
       0.1546109 0.11486738 0.12287944 0.09421768
000360 ec 27 35 3e 03 60 30 3e 71 4b 84 3d 33 51 40 3e
       0.1769101 0.17224126 0.06459702 0.18780975
000370 5c 63 e4 3d 04 31 ea 3d 96 77 0b 3e d8 15 84 3d
       0.11151764 0.1143513 0.13619837 0.06449479
000380 8c 68 e2 3d e4 3f b8 3d a8 ad 02 3e e2 05 da 3d
       0.11055097 0.08996561 0.12761557 0.10645653
000390 36 bd 23 3e ce 0b c1 3d 39 eb e9 3d 0b 51 fa 3d
       0.15990147 0.0942608 0.11421818 0.12222489
0003a0 a2 5e be 3d a3 c4 00 3e 1a 71 95 3d 08 59 0b 3e
       0.092953935 0.12575011 0.07296963 0.13608181
0003b0 6b be 82 3c d7 9a c9 3d fe a6 4b 3d d7 e4 6b 3c
       0.015959939 0.098439865 0.049719803 0.014397821
0003c0 9e df ea 3d 0c c1 04 3e 9e ac 51 3d b9 58 ab 3c
       0.11468433 0.12964267 0.05119001 0.02091633
0003d0 9b 6a a8 3c 13 6c 4b 3d 18 57 02 3e cf 6a 9b 3d
       0.020558646 0.049663614 0.12728536 0.075887315
0003e0 bc 54 8a 3d 7f 7f 22 3d 11 4b dc 3d 74 52 ea 3d
       0.06754443 0.03967237 0.10756505 0.11441508
0003f0 89 e7 ea 3d dc b8 e3 3d 3a 5d 4f 3d 96 e2 cd 3d
       0.11469943 0.111192435 0.050626017 0.100529835

network_body.processors.0.conv_layers.2.bias f4 [32]
000000 36 87 c2 bd 77 85 09 be d6 05 cf bd fe 3a 15 bd
       -0.09498446 -0.13429819 -0.10108535 -0.036433212
000010 a1 47 cf 3b 0c e5 3a 3d 92 73 2f bd de f5 ed bd
       0.0063256775 0.045628592 -0.042834826 -0.11619161
000020 77 79 06 be d1 82 56 3c b2 e5 a7 bc 17 e5 ed bd
       -0.13132273 0.0130927125 -0.02049527 -0.11615961
000030 99 26 4f bd 17 0c c9 bd af 41 c0 3c ab 04 c0 bd
       -0.05057392 -0.09816759 0.02346882 -0.0937589
000040 91 53 22 be 3b da ec bd 8f c8 0a be 7e 37 8e bd
       -0.1585219 -0.11565062 -0.1355307 -0.06944178
000050 14 59 8f 3b 24 94 69 be ff 38 4f be e8 a9 11 3e
       0.0043746326 -0.22810417 -0.20236586 0.1422497
000060 f6 b4 00 3d db ab 36 be 2c 51 2a 3d fc 08 c4 bc
       0.031422578 -0.17838995 0.041581318 -0.023930065
000070 ac 83 04 bd bf 29 c6 bd 8a a3 3f be 91 49 c2 3a
       -0.032352135 -0.09675931 -0.18714729 0.001482295

network_body.processors.0.dense.0.weight f4 [30, 512]
000000 57 7a 0b 3d 1a 52 06 3c ee b4 78 3c b7 a2 d0 3d
       0.03405222 0.0081982855 0.015179856 0.101872854
000010 69 de 19 be 74 bb 89 3c 91 c2 83 bd 37 00 0c bc
       -0.15026249 0.016813017 -0.06433595 -0.008544973
000020 91 fa 09 bd 71 71 0e 3d 49 ef 3a bd e0 90 61 3c
       -0.033686224 0.034776155 -0.045638356 0.013767451
000030 22 1a 6f bd 8f 61 b3 bd a2 9f 27 3d 87 ba fb 3d
       -0.05837453 -0.08758842 0.040923722 0.12291437
000040 2d 46 3a 3d 01 94 ae 3d 40 a6 f1 3d e6 c3 9d 3d
       0.04547708 0.08524323 0.11799288 0.0770338
000050 56 04 1a 3e 71 11 31 bd e3 d2 ae bc 4b 7a 23 3d
       0.15040717 -0.043229524 -0.021340793 0.03991155
000060 f1 10 69 bd b7 ad 0a 3e 1d ac 1b 3e 8f 88 39 3d
       -0.056900922 0.1354283 0.15202375 0.045296248
000070 05 14 8c 3a 39 b6 2a bc c0 0e 27 3d 2f 9c ab 3c
       0.0010687119 -0.010419422 0.04078555 0.020948498
000080 ea ee 15 3e b2 ad b5 3d 59 10 66 bd f8 99 c3 3d
       0.1464192 0.088710204 -0.056167934 0.095508516
000090 35 99 7a 3d 09 d1 f5 3c d2 2b ac 3d 9f 9b 54 bc
       0.061181266 0.030006902 0.084067956 -0.012976556
0000a0 d3 89 15 bb 8e 94 08 3d f0 e5 02 bd 62 0a b6 3c
       -0.0022817745 0.033344798 -0.031957567 0.022221748
0000b0 e0 4a 29 bd e5 01 5b bd 01 24 af 3d e2 05 a4 bc
       -0.041331172 -0.053468604 0.08551789 -0.020022336
0000c0 bb 85 51 3c 61 fd 6c 3d ab 58 12 bd 2d 9f 03 3e
       0.0127882315 0.05785883 -0.03572909 0.1285369
0000d0 fe ef 3f bd 89 94 2a bd 21 c0 32 bd 98 e1 26 3d
       -0.046859734 -0.04164556 -0.04364026 0.040742487
0000e0 12 f6 3f bd ca b4 6e 3d d3 f4 ef 3d d0 fb 77 3d
       -0.04686553 0.058277883 0.117166184 0.06054288
0000f0 c2 21 16 3e 76 c0 22 bd b6 af 0d be 46 02 97 3c
       0.14661315 -0.039734326 -0.1383656 0.018433701
000100 55 d1 21 bd 5d 3d 61 3d 9c dc af bd e3 6a 85 bb
       -0.039506275 0.05499016 -0.08587 -0.00407158
000110 ed 87 2b 3d 3d 15 d7 bc 5d 94 20 3d f1 5e 8f bc
       0.041877676 -0.026255244 0.03920399 -0.017501326
000120 80 03 b1 3c fc e6 82 bd dc eb 30 3c 8d 42 be bc
       0.021608114 -0.06391713 0.010798421 -0.023225093
000130 89 10 17 3b e9 22 9d bd e5 44 98 bd c2 97 20 bd
       0.0023050627 -0.07672674 -0.074350156 -0.039207228
000140 71 ea 3c bd 83 28 4d bc 51 7c 52 3d 23 37 c4 3a
       -0.04612202 -0.012521866 0.05138809 0.0014970045
000150 fa c2 7b ba ce 6a d5 3d 81 aa 16 3d ac fa 72 3d
       -0.0009603944 0.10420762 0.0367837 0.05932109
000160 af c0 69 3c ce ae 80 3c 20 01 da bc 94 96 ff bb
       0.014267131 0.015708353 -0.026611865 -0.0077999327
000170 3d b4 66 3d fe 2a 4f bb ae 73 97 bd ce d2 3d be
       0.056324232 -0.0031611319 -0.07395111 -0.18537447
000180 2a 75 04 3e 95 35 93 3d 5d 15 13 3e 32 7d 64 ba
       0.1293532 0.07187954 0.14363618 -0.00087161653
000190 53 b0 bf 3d d8 71 76 3d 34 46 e0 3d 63 ee f1 bc
       0.09359803 0.060167164 0.1095089 -0.029532617
0001a0 7a ab 61 3a 16 95 d8 bc 75 53 c5 3d 5d 59 67 3c
       0.0008608621 -0.026438277 0.09635059 0.014120427
0001b0 1a 13 6f 3d 43 88 99 3d f1 56 86 3d f3 d8 23 3e
       0.058367826 0.07496693 0.065595515 0.16000728
0001c0 a5 62 c3 3d 3f 6f d3 bc 85 49 90 3d d3 cb cc 3c
       0.09540299 -0.025809882 0.07045273 0.024999535
0001d0 f6 bb d1 3d 34 e4 2a bd cb ff 01 3d 28 61 32 bd
       0.10240929 -0.041721538 0.031738084 -0.043549687
0001e0 23 43 1a bd 81 89 c1 bc 41 e1 80 bd 3e e0 45 bc
       -0.037661683 -0.023625137 -0.06292964 -0.012077389
0001f0 2d 3f 14 3e 8d 62 d9 3c ba 6c 8d 3d 70 f6 e9 bc
       0.14477225 0.02653625 0.069055036 -0.028559893
000200 bb 33 87 3d 90 82 49 3d 84 74 bf 3c e0 ca 55 3d
       0.06601664 0.04919678 0.023370989 0.05219543
000210 f7 d4 08 be 48 a9 83 3d d6 10 ed bc 46 1a 63 3d
       -0.1336249 0.06428772 -0.028938692 0.05544498
000220 f6 95 47 bd be a2 14 3d c0 c6 a1 bd 9e 33 4a bd
       -0.048727 0.036288016 -0.07899237 -0.049365632
000230 e7 f9 0c be a3 ff 11 3d 7d e9 04 bd cd 03 8f bc
       -0.13767205 0.035644185 -0.032449234 -0.017457867
000240 ef f4 57 3d 6a c4 5c bc 4d 98 78 3d df c1 67 bc
       0.05272382 -0.013474563 0.06069212 -0.014145344
000250 e9 6e 3b bc 64 01 bb 3c 0b a4 fe 3c 61 63 1e bd
       -0.011440017 0.022827812 0.031084081 -0.038668994
000260 75 c7 c2 3b b9 45 5a bd a0 4f b6 3c f9 4d 5b bc
       0.0059441873 -0.05328915 0.022254765 -0.013385289
000270 2f 35 93 3c e5 38 b7 3d bd 50 11 be da 32 02 3e
       0.017969696 0.08946399 -0.14190955 0.12714711
000280 d9 67 5d 3d c7 7a e5 3c 84 7f 1a 3d 67 84 03 3d
       0.054054115 0.028012646 0.037719265 0.03210869
000290 6d 8c 73 3c 06 94 70 bd 85 45 ec bd 30 0e 9a bc
       0.014865023 -0.058734916 -0.11536697 -0.018805593
0002a0 3b f4 2b bc d8 fc 7f 3c 2f 25 94 bc 01 6d 40 bb
       -0.010495241 0.0156242475 -0.018084137 -0.0029361846
0002b0 18 0a ea bc 65 9a ba bd 4e 32 c3 bd 1c e3 83 3d
       -0.028569266 -0.0911148 -0.09531079 0.06439802
0002c0 73 c1 6c 3d 20 e3 c3 bc 5e a1 2e bd 20 17 99 3d
       0.057801675 -0.023912013 -0.04263436 0.07475114
0002d0 81 d2 48 3d aa f4 9b 3d f7 33 38 3b 45 69 b9 3c
       0.049028877 0.07615025 0.0028107145 0.022633204
0002e0 b5 b4 0d 3c 71 e1 00 be 4c a0 c8 3b c4 b7 aa bd
       0.008649041 -0.12585999 0.0061226245 -0.08335832
0002f0 c5 f4 57 3c c5 15 8d bc 61 9d 30 3d 99 e7 cf 3d
       0.013180916 -0.017222295 0.04311884 0.101515956
000300 47 d0 18 3e 1c 68 cf 3c 60 f6 c4 bd 6f 98 09 3e
       0.14923202 0.025318198 -0.09617305 0.13437055
000310 2c 9b 0f bd 13 09 75 3c 60 91 dd 3c 0d c9 9d bc
       -0.035060093 0.014955777 0.02704686 -0.019260908
000320 44 08 c7 bd 57 bc 5a bd f9 24 89 3d c0 3d fa bd
       -0.097183734 -0.05340227 0.06696505 -0.12218809
000330 28 3a 40 3d 19 60 bc 3d 10 e3 45 3e 79 b7 90 3d
       0.046930462 0.09198017 0.19324899 0.07066245
000340 4e c5 88 3d 59 d0 00 3e 1f 80 10 3d 65 dd cc 3d
       0.06678258 0.12579478 0.035278436 0.10003165
000350 9f 86 64 3d d9 18 bb 3d eb d0 34 bd 7c 10 37 3d
       0.055792447 0.09135599 -0.044144552 0.044693455
000360 66 49 50 3d e7 81 43 bd 7d 28 11 3e 81 03 18 3e
       0.05085125 -0.047731306 0.14175601 0.14845087
000370 c2 00 28 3d c4 ff 19 3c 6d 13 a5 bd 8d 33 f1 bb
       0.041016348 0.009399358 -0.08060346 -0.0073608817
000380 77 36 83 bd 70 0f 16 bd 44 ea f4 3c 49 a4 8e 3d
       -0.06406873 -0.036635816 0.029896863 0.06964929
000390 bf dd 4d 39 bb ff fc bd df 8b 86 3b 1f da ba 3c
       0.0001963293 -0.12353464 0.0041060294 0.022809086
0003a0 e8 ac 0b 3c 60 8e ce 3d 7d 41 ac bc a1 6e cb 3d
       0.008525111 0.100857496 -0.021027321 0.0993321
0003b0 e0 48 9d 3c 6a 35 a3 bc ca 42 a0 bd e4 40 76 bd
       0.019199789 -0.01992293 -0.07825239 -0.06012048
0003c0 d3 6e 41 3b 19 02 be 3d 1a bd 59 3d a4 26 11 bd
       0.002951552 0.09277744 0.053158857 -0.03543724
0003d0 d4 89 8b bc f9 77 08 3d e4 3a da bc 7d 23 0c 3e
       -0.017033495 0.03331754 -0.02663941 0.13685413
0003e0 12 a5 0d bc 17 28 6a bd f7 31 4a 3b 4c 7e b6 bd
       -0.008645313 -0.05716714 0.0030852535 -0.08910808
0003f0 47 c5 96 bc 3d ec 12 3e 62 35 13 bd e5 5a 34 3d
       -0.018404616 0.1434793 -0.03593958 0.044031996

network_body.processors.0.dense.0.bias f4 [30]
000000 12 ed e3 3b 4c b7 81 bd f1 a8 56 bd 10 6d 8b bc
       0.006955751 -0.06333789 -0.05240721 -0.017019778
000010 be e0 d3 bc 8a 79 81 bd 1e 43 61 bd 40 1e 23 bd
       -0.025864001 -0.0632201 -0.05499565 -0.03982377
000020 7e 90 47 bd 57 d9 a0 bd 07 32 b0 bc 8b 23 f6 bc
       -0.048721783 -0.07853954 -0.02150823 -0.030046245
000030 24 5c 70 bd 61 ea 59 bd 10 c8 6a bd 08 8b 8a bd
       -0.058681622 -0.053202037 -0.0573197 -0.06764799
000040 3c e9 be bd 2c 50 46 bd e7 6a 40 bc 95 cf 20 3d
       -0.0932183 -0.0484163 -0.0117442375 0.039260466
000050 64 d4 3d bd 55 7e db bd 8c e4 fe bc 22 a4 43 3d
       -0.04634513 -0.10717455 -0.031114839 0.04776395
000060 51 40 aa bd 3e c0 d8 bc 32 2c 56 bd 48 84 48 bd
       -0.08313049 -0.026458856 -0.05228824 -0.04895428
000070 9b 96 63 bd 79 55 6e 3c
       -0.05556355 0.014546745
