Assets/ML-Agents/Training Files/results/9roads_cameraSensor_ppo_vehiclesAndChekpointsMasked_2layers_148_512/VehicleAgent/VehicleAgent-7999889.onnx (onnx, 143800 bytes, 13 tensors)

network_body.observation_encoder.processors.0.conv_layers.0.weight f4 [16, 9, 8, 8]
000000 c0 60 d0 bb f3 4d cd bc 83 ce 02 3d d3 94 02 3d
       -0.0063591897 -0.025061583 0.031935226 0.03188021
000010 d3 36 28 bd bf 01 38 bb 31 c6 eb 3c af 07 d8 bc
       -0.04106791 -0.0028077213 0.028781028 -0.026370851
000020 6c 40 15 bc a2 a7 fd 3c 49 c2 c6 b9 c4 60 b7 bc
       -0.009109598 0.030963723 -0.00037910257 -0.022385009
000030 e8 9b 0c bd ea b0 0b bd b6 e6 bd bc 07 9e 35 3c
       -0.03432837 -0.034104265 -0.0231813 0.01108504
000040 a1 e5 71 3c e9 bf 16 bd bc 29 58 3c b8 de fa 3b
       0.01476422 -0.036804114 0.013193544 0.0076559447
000050 07 60 c9 3b 2e 2c da 3c fa 2f 06 bd 02 61 d8 bb
       0.0061454806 0.026632395 -0.032760598 -0.006603361
000060 21 3b cc 3b 86 dd 16 bd 64 77 c5 bc 42 9e 38 3c
       0.0062326347 -0.036832355 -0.024104781 0.0112682
000070 fb 77 f5 ba 96 94 e6 bc ec f1 20 bd 8a 6c 0e 3d
       -0.0018727774 -0.028147023 -0.039293215 0.03477148
000080 58 fd 05 bd 0e fd 9d 3c 73 f3 00 3d f0 98 8b 3c
       -0.03271231 0.019285705 0.03148217 0.0170407
000090 72 f5 42 bc 94 e7 49 bc f5 95 84 bc ab 77 7c 3c
       -0.011899339 -0.012323279 -0.016184786 0.01540939
0000a0 83 8c 76 bc e1 ad 8a 3c 8d be 9b 3c 24 a6 19 bd
       -0.015048149 0.016928615 0.01901176 -0.03751196
0000b0 5d 80 12 3d 9a b5 e4 3c d0 d6 a1 bb ea 13 21 3d
       0.035766948 0.027918626 -0.0049389377 0.039325632
0000c0 0d 1f fd 3a bb 53 df 3b 8a 45 ee 3c 5c 53 19 3d
       0.0019311622 0.0068154014 0.029085893 0.037433013
0000d0 ab e8 15 3d dd a8 be bc 75 07 ac 3c d9 29 06 bd
       0.036598843 -0.02327388 0.02099965 -0.032754753
0000e0 70 62 0f bd 15 62 12 3d 16 7e 23 bd b2 45 33 bd
       -0.035005987 0.03573807 -0.039915167 -0.04376764
0000f0 22 7a a8 3c 1f 91 8d 3b 60 79 6f 3b 8b 4f 9d bc
       0.02056605 0.0043202783 0.003654085 -0.019202968
000100 3e a0 98 3c cb 79 f2 bc 43 1d cd 3b a5 3b 1d 3a
       0.018631097 -0.029599091 0.006259592 0.00059979624
000110 08 3c 4d 3d 68 94 b2 bb 49 6b 86 bc 2b 20 20 3d
       0.05010608 -0.0054498203 -0.01640858 0.039093178
000120 a1 ed 14 3d ff 40 fb bb a6 36 03 3d 0f b4 5b ba
       0.036359433 -0.0076676602 0.03203454 -0.0008381018
000130 31 86 4a 3d fe 61 2b 3c cb 1d 90 bc bb 1d 93 3b
       0.04944438 0.010460375 -0.017592331 0.004489628
000140 24 27 90 bc 9b 0a 68 bc 99 6d 17 3d 96 23 2f 3d
       -0.017596789 -0.014162685 0.036969755 0.042758547
000150 75 ce 89 3a 7f 31 60 3c a3 c1 fb bc 64 65 06 bc
       0.00105138 0.013683676 -0.030731982 -0.008202884
000160 44 1e 20 3d c3 7d 47 bc aa 08 8f bb 6c dd b6 3c
       0.039091364 -0.01217598 -0.0043650465 0.022322379
000170 94 a2 f6 bc 00 bc 4f bc 3a ca f4 bc 1c ce 13 3d
       -0.03010682 -0.0126791 -0.029881585 0.036085233
000180 82 9b 48 3b e9 ea 84 bc dd ca 88 bc 5b bb d9 3b
       0.0030610268 -0.016225295 -0.016698295 0.006644649
000190 f3 32 21 bc 28 7a 33 3d ec 93 98 3c 84 03 30 3d
       -0.009838807 0.04381767 0.018625222 0.042972103
0001a0 a6 cc e3 bb 12 be 9f 3c 42 22 91 3c 7c cf 2d 3d
       -0.006951886 0.019499812 0.01771653 0.0424342
0001b0 28 26 19 3d 0b 8f e6 bc c3 f3 16 3d 91 bc 40 3b
       0.037389904 -0.02814438 0.036853563 0.002940927
0001c0 d6 b1 49 bc 9e e0 78 3b 0f 89 02 3c 23 ed 34 bc
       -0.012310466 0.003797568 0.007967248 -0.011042866
0001d0 c2 ba 66 bc b6 a7 50 bc 77 9f 0f bc 30 02 c4 bc
       -0.0140826125 -0.012735298 -0.008766047 -0.023926824
0001e0 b8 61 c2 bc d8 bc ca 3c 2d ac aa bc 58 2d 99 3b
       -0.023728237 0.02474825 -0.020834053 0.004674595
0001f0 bc 88 30 3c ce 9b 69 3c 93 b5 f0 bc ff ea c6 3c
       0.0107747875 0.014258338 -0.029383456 0.024281977
000200 aa af b7 3c c6 05 11 3d 03 c9 9d bc aa a2 f8 bc
       0.02242263 0.035405897 -0.019260889 -0.030351002
000210 f6 c0 fe bc 99 82 24 3d 20 09 e8 bc d6 dd 04 3c
       -0.03109787 0.04016361 -0.028324664 0.00810953
000220 2b 49 60 bc 8d 11 12 3d 39 5c de bc 7e 79 da bc
       -0.01368932 0.03566127 -0.027143585 -0.02666926
000230 e6 56 bb bc 03 86 87 bc ea ec 40 3d 08 a4 a4 3c
       -0.022868585 -0.016543394 0.04710094 0.020097747
000240 12 fb 9b 3c 41 60 35 3d df ab 0d 3d 65 76 bf 3c
       0.019040618 0.044281248 0.034587737 0.023371885
000250 5c fa 43 3d 4e a1 fc bb fb 12 ca 3c 7d dc bc bc
       0.047846183 -0.0077096587 0.024667254 -0.023054356
000260 42 9b d9 3c 99 b1 2b 3d b0 be f5 ba 6b e9 07 3d
       0.02656329 0.041917417 -0.0018748846 0.03318159
000270 22 3e cb bc 1a fc b1 3c 29 79 97 3a e6 8d 04 bd
       -0.0248099 0.021726657 0.0011556494 -0.032361887
000280 a6 70 9e 39 2f 01 ba 3b 16 2f 1d 3d 0a d9 a3 3c
       0.00030220038 0.0056764106 0.038374983 0.020000953
000290 84 fd 3d 3d 9a 1e 03 3c 82 f8 2a bc 82 fb 15 3c
       0.04638435 0.008002901 -0.010435225 0.009154202
0002a0 da b7 61 bc a2 0f 05 3a f1 9e 66 3c dd 6e c7 3c
       -0.013776744 0.0005075877 0.0140759805 0.024344856
0002b0 55 a8 3d 3c a4 46 97 bc 84 9c c1 3b 9a 30 17 bd
       0.011575778 -0.018466301 0.0059085507 -0.036911584
0002c0 bf f5 2e 3d 3e 9d a0 bc 09 25 d0 3c 4b eb 10 3d
       0.04271483 -0.019606229 0.025408285 0.035380643
0002d0 64 0b 6d 3c a3 4d a3 3c 7a ed 0f 3d 6c 9e 1d bc
       0.014468048 0.019934481 0.035138585 -0.00962029
0002e0 c2 d6 aa 3c 5f 54 da bc 5e 66 ec 3c 04 d3 05 bd
       0.020854358 -0.02665156 0.028857406 -0.032671943
0002f0 4e 35 0e bb 65 74 e3 bb a3 bf c8 3c 26 19 f5 bc
       -0.0021699253 -0.0069413655 0.024505442 -0.029919218
000300 9d 85 0f 3d b7 d5 37 3c c1 fd 9c b9 ad a2 ce 3c
       0.035039533 0.011220387 -0.000299437 0.025224054
000310 56 a2 ba bc c8 86 ce bc cc 59 4b bd 7b 5f 40 bd
       -0.022782486 -0.025210753 -0.049646184 -0.046966057
000320 81 91 b0 bb 13 b8 59 bc 5f c3 99 bb c9 ec cb 3c
       -0.005388439 -0.013288516 -0.0046924795 0.024893181
000330 58 38 91 bc 07 0a 88 bb 51 e4 3f bc 9a 25 a0 bb
       -0.017727062 -0.004151586 -0.01171215 -0.004887295
000340 ae 8b a2 3b b3 0d 6d 3c d0 98 cc 3c ae 75 70 3b
       0.004960499 0.014468598 0.02497521 0.0036691236
000350 78 09 22 bd 7d f0 01 bc a9 6b ca 3c 21 90 06 bd
       -0.03955981 -0.007930872 0.02470954 -0.032852296
000360 10 04 4b bc 9f a2 0a 3c cd f6 af bb a6 c1 59 bc
       -0.012391105 0.008461623 -0.005369997 -0.013290798
000370 1f f0 22 3c 11 ed a9 bc 4e 75 9b 3b cd 8a 3e 3c
       0.009944945 -0.020742925 0.0047442084 0.011629772
000380 f1 6f fb bc 47 3a 5f bc 2f 2a 02 bd e3 7e 21 bd
       -0.030693026 -0.013624734 -0.03177851 -0.03942765
000390 65 02 85 bc fd 76 15 bd f0 e6 8e 3c 34 9e 8e 3c
       -0.016236493 -0.03649043 0.017444104 0.017409422
0003a0 38 32 9e 3c f6 4c 2a bd cd 0e af bc 61 2e 17 bc
       0.019311056 -0.041577302 -0.021369362 -0.009227366
0003b0 1d c9 4b bd 7b ff 18 bd c0 19 56 bc 50 2e 3d 3c
       -0.049752343 -0.03735302 -0.013067663 0.011546686
0003c0 23 f7 1a bd f6 2a e2 3c ea a2 bc 3c 31 c5 65 3b
       -0.037833344 0.027608376 0.023026902 0.0035060162
0003d0 96 c9 70 bc 9e 9e 4d bd 2b b3 10 3c 05 79 c5 3b
       -0.014696499 -0.050200097 0.0088317795 0.0060263895
0003e0 d7 07 14 bd 46 81 14 bd e2 49 36 3c 19 38 f4 bc
       -0.03614029 -0.036256097 0.0111260135 -0.029811906
0003f0 58 7e fe bc 58 bf 82 bc 12 44 da bb e8 37 87 3c
       -0.031066105 -0.01596038 -0.0066609466 0.01650615

network_body.observation_encoder.processors.0.conv_layers.0.bias f4 [16]
000000 76 4c e4 bc 13 32 c4 3c fd 1c 07 bd 03 4a 86 bd
       -0.02786849 0.023949658 -0.03298663 -0.06557085
000010 be e1 08 bd e7 76 dc 3c c5 06 34 bc d3 66 10 3d
       -0.03341841 0.026912166 -0.010987942 0.03525431
000020 a8 cc ab bc 5c 5b 4e bd e9 e6 1b bd 48 69 d4 bb
       -0.020971611 -0.050380096 -0.03806201 -0.006482277
000030 36 c2 1b 3d 66 12 88 bc 31 68 f3 bc 27 e0 75 3a
       0.03802701 -0.016610336 -0.029712768 0.00093794096

network_body.observation_encoder.processors.0.conv_layers.2.weight f4 [32, 16, 4, 4]
000000 10 55 0a 3e ba 54 d6 3d 83 4f a2 3d da d3 6b 3d
       0.13509011 0.10465379 0.07925322 0.057575084
000010 13 b9 7e 3d f4 da 30 3e 2f 9b ea 3d 5b ab a2 3d
       0.06218822 0.17271024 0.1145538 0.0794284
000020 f0 5a 07 3e 6a 36 6b 3d e9 76 a3 3d 12 37 ee 3d
       0.13218284 0.05742494 0.07981665 0.116315976
000030 e5 2b ac 3d 05 73 4f 3d 7c db bb 3d 41 26 db 3d
       0.0840681 0.0506468 0.09172723 0.10700656
000040 ca 99 87 3d 7d 68 0b 3e 3f ae a7 3d d0 f0 4d 3d
       0.0662113 0.13614078 0.08187532 0.050278485
000050 34 51 7c 3c d1 de a8 3d 19 94 3a 3d bd 27 48 3d
       0.01540022 0.08245624 0.045551393 0.048866022
000060 fe ca c7 3d 24 43 c4 3d 30 5e f3 3d 89 46 f1 3d
       0.097555146 0.095831186 0.11883199 0.11781032
000070 26 a5 c5 3d 7b 19 b3 3d 59 5e 17 3d 80 c7 d5 3d
       0.0965064 0.087450944 0.03695521 0.10438442
000080 cb c4 63 bd b8 91 a2 3c 0a f6 27 3d 95 80 ec bc
       -0.0556076 0.019844875 0.041006126 -0.028869906
000090 52 d1 2a 3d 45 2b 4e bd 68 f4 c4 bc 71 4b 1d 3c
       0.04170353 -0.050334234 -0.024042323 0.009600506
0000a0 ab d2 2f bd f0 71 13 3c 73 28 f7 3c 6f e1 8b bc
       -0.042925518 0.008999333 0.030170655 -0.017075269
0000b0 6f ba 08 bd 3b 6d c7 bc 99 e6 f7 3c ec d2 04 3d
       -0.033380922 -0.024344077 0.030261325 0.032427713
0000c0 7c a5 40 3d aa 8f 7e 3d ca 94 e2 3c 28 16 3a 3d
       0.04703282 0.062148727 0.027658839 0.045431286
0000d0 00 94 9f 3c 90 24 c7 3b e2 3b a7 3d ba f7 e1 3c
       0.019479752 0.0060773566 0.081657186 0.027583946
0000e0 d9 14 77 3d ed 78 ac 3d 03 7c a5 3c 5c 39 23 3c
       0.060322616 0.08421502 0.020200735 0.009962406
0000f0 1a c4 c1 3d 07 c4 2b 3d a5 90 a6 3d 4d 59 dc 3d
       0.094612315 0.041934993 0.081330575 0.1075922
000100 f1 02 e5 3d f2 5f 03 3d 07 2c 17 3e d4 85 95 3d
       0.11182202 0.032073922 0.14762889 0.07300916
000110 68 07 9b 3d a3 96 c9 3d a1 28 0d 3e f2 28 14 3e
       0.07569772 0.09843185 0.1378503 0.14468744
000120 d8 40 0e 3e 4d 9d fa 3d 04 14 23 3e 07 ca 12 3e
       0.13891923 0.12237034 0.15925604 0.1433488
000130 71 9b cc 3d 9b f7 ed 3d 58 aa e9 3d 38 1f 1a 3e
       0.099905856 0.116194926 0.114094436 0.15050972
000140 c4 24 57 3d 63 79 11 3d db f2 c1 3d e3 84 23 3d
       0.052525297 0.035516154 0.09470149 0.039921653
000150 7a f9 58 3d 21 42 d1 3d 11 73 20 3d 66 0d bb 3d
       0.052972294 0.10217691 0.039172236 0.09133415
000160 2a db 09 3d 9e 5f b9 39 ef 68 74 3d 8b 71 62 3d
       0.033656277 0.0003535719 0.059670385 0.055284064
000170 1a 86 c3 3c 9f 84 8c 3d f6 17 29 bc d3 c3 6a bc
       0.023867656 0.06861233 -0.010320654 -0.014328915
000180 9c c6 04 3e 25 e4 0f 3d 5a ba 4d 3d 3d 55 df 3d
       0.12966388 0.035129685 0.050226547 0.1090493
000190 95 00 0c 3e f1 a8 59 3d 34 25 1b 3e 7c f7 6f 3d
       0.13672097 0.05313963 0.1515091 0.05858563
0001a0 28 34 04 3e 06 1d b8 3d c6 45 16 3e 45 35 e1 3d
       0.12910521 0.08989911 0.14675054 0.109964885
0001b0 96 a1 94 3d 03 a6 0b 3e 78 e7 86 3d 4c 8b fa 3d
       0.072573826 0.13637547 0.06587118 0.122336
0001c0 08 aa f8 3d 26 9a e3 3d 1c 80 7e 3d 99 68 b7 3d
       0.12141806 0.11113386 0.062133893 0.08955497
0001d0 18 ee 0a 3e 4e 16 1e 3e f4 15 e4 3d dc 77 8e 3d
       0.13567388 0.15438196 0.11137 0.06956455
0001e0 57 82 b1 3d a5 e0 c1 3d f9 6d 3d 3e 0f 5b 07 3e
       0.086674385 0.09466676 0.18498982 0.1321833
0001f0 50 f2 fb 3d 56 c9 6b 3d e5 6f fa 3d 90 ed 97 3d
       0.12302077 0.057565056 0.122283734 0.07418358
000200 da fc d0 3d 5c ce 1f 3e 5a 55 f7 3d e5 f6 03 3e
       0.102044776 0.15606064 0.120768264 0.12887152
000210 e1 0e 3f 3e ca 44 35 3e 98 37 3b 3e e9 4c 27 3e
       0.1865802 0.17702022 0.18282926 0.16337933
000220 37 87 c9 3d 0a bc f7 3d 7a 01 26 3e 25 5d 03 3e
       0.09840243 0.120964125 0.16211501 0.128285
000230 b0 c3 31 3e 9d b0 d2 3d cd bf 0d 3e 4e 8f 2a 3e
       0.17359805 0.102875926 0.13842697 0.16656229
000240 d2 7a ad 3d af ac 27 3c a8 c7 12 3d bf b8 63 3c
       0.08470692 0.010234042 0.03583494 0.013899027
000250 6b 83 54 3d 71 3a f7 3c 2e bb 20 3c cf 33 cb 3d
       0.051883142 0.030179234 0.009810252 0.09921991
000260 14 0c 16 3d e5 c0 c4 3d 09 75 47 3d 88 c2 15 3d
       0.036632612 0.09607104 0.048695598 0.036562473
000270 62 b2 d1 3d f2 29 d6 3c 85 7c ed 3c 12 c8 9f 3d
       0.10239102 0.026143048 0.02899004 0.07801832
000280 5d 5a 0a 3d b7 1f 0f 3e ae f9 b5 3d 5f c8 39 3d
       0.033777583 0.13976942 0.08885513 0.045357104
000290 50 a3 97 3d 4a 39 17 3e 48 cb 8d 3d 6d 1a e7 3d
       0.07404196 0.14767948 0.069235384 0.11284337
0002a0 f1 49 7f 3c 9e 0a bd 3d 50 59 1c 3e 3f e5 87 3d
       0.015581594 0.09230541 0.15268445 0.06635522
0002b0 ce 97 bd 3d a6 8d f1 3d 09 c3 9b 3d 52 76 a8 3d
       0.0925747 0.117945954 0.076055594 0.08225693
0002c0 da 9e 10 3d 19 99 bc 3d f1 ac 87 3d a7 99 aa 3d
       0.035307743 0.092088886 0.06624783 0.08330088
0002d0 a3 9b f0 3d 1f d5 60 3d 1e a2 e2 3c 95 34 b0 3d
       0.11748435 0.054890748 0.027665194 0.08603779
0002e0 76 28 cb 3d 4b 28 8f 3d 8a 22 a7 3d 3b fc 47 3d
       0.09919827 0.06990107 0.08160885 0.04882453
0002f0 d2 5c 16 3d f2 e4 54 3b 0e ea c5 3d 0d 78 f4 3d
       0.036709614 0.0032485095 0.09663783 0.1193696
000300 94 a8 13 3c 6a 65 bd 3d 0d 17 e3 3c 1a a0 97 3d
       0.00901236 0.09247859 0.027720952 0.07403584
000310 af 41 ce 3d bc ad 8d 3d a1 83 6c 3d 76 9b 04 3d
       0.10071122 0.06917903 0.05774272 0.03237482
000320 ef 76 f7 3d ea 85 de 3d 65 05 1e 3d 4f 3d 21 3d
       0.12083232 0.10865386 0.038579363 0.03936511
000330 d6 88 a4 3d c6 11 ee 3d 28 4c 2d 3d 49 5f 9b 3d
       0.08033912 0.11624484 0.042308956 0.075865336
000340 d7 1d 13 3e 33 4f 10 3e bd fb 1d 3e 75 ac 8f 3d
       0.14366852 0.14092712 0.15428062 0.070153154
000350 a2 6e 15 3e 93 f0 db 3d 19 38 ee 3d f7 37 b2 3d
       0.14592984 0.10739245 0.116317935 0.08702081
000360 ca bd 30 3e 04 7e 2b 3e 02 d9 72 3d 02 25 3a 3e
       0.17259899 0.1674729 0.059288986 0.1817818
000370 b7 a4 d2 3d 96 5b d7 3d 01 d2 01 3e 28 b9 61 3d
       0.10285323 0.105155155 0.12677766 0.05510822
000380 de d3 d6 3d e3 c4 ad 3d 99 7f fb 3d 2b 46 cf 3d
       0.10489629 0.08484819 0.12280197 0.10120805
000390 6b fa 11 3e 39 ec 9d 3d 9a 15 c6 3d 41 11 d5 3d
       0.14255683 0.077110715 0.09672089 0.104036815
0003a0 39 83 a8 3d 35 73 ea 3d 27 ba 7a 3d 3b a2 fc 3d
       0.08228154 0.11447755 0.061212685 0.123356305
0003b0 8e 6c 26 3b 66 49 ac 3d df 08 19 3d db 27 6c 3b
       0.0025394293 0.08412437 0.037361976 0.0036034498
0003c0 59 d2 dd 3d e5 ef fc 3d 9c 5c 38 3d 06 46 6d 3c
       0.10831136 0.12350444 0.045010194 0.014482027
0003d0 b3 19 58 3c bc 71 2d 3d d8 fe f4 3d 35 71 8a 3d
       0.013189721 0.042344794 0.1196267 0.06759874
0003e0 2c 2a 72 3d db 95 fd 3c 90 32 ca 3d 7c 5c d7 3d
       0.05912225 0.030955246 0.09872925 0.10515687
0003f0 47 ea d9 3d 1f c5 d1 3d 8e eb 2a 3d 33 7d bb 3d
       0.10640388 0.10242676 0.04172855 0.09154739

network_body.observation_encoder.processors.0.conv_layers.2.bias f4 [32]
000000 54 98 be bd b5 88 16 be 8e 5a e3 bd 44 49 10 bd
       -0.09306398 -0.14700587 -0.11101256 -0.03522612
000010 ff f6 00 bc 48 94 8b 3d 26 f8 7b bd ca cd e3 bd
       -0.007871388 0.06815392 -0.06151595 -0.111232355
000020 32 79 ee bd 9d 89 7c 3c e5 84 d8 bc 01 4b df bd
       -0.1164421 0.015413669 -0.026430557 -0.10902978
000030 3f 27 67 bd 47 0d 00 be be f1 2c 3c 78 13 c1 bd
       -0.056433912 -0.12505065 0.010555683 -0.094275415
000040 2e 7f 53 be 2f 82 03 be 2d ab 12 be 81 ed 90 bd
       -0.20653984 -0.1284263 -0.14323111 -0.0707655
000050 38 af 17 3c 88 c3 68 be d2 46 61 be 47 b7 1a 3e
       0.009258084 -0.22730839 -0.21999672 0.15108977
000060 62 7c 08 3d 24 45 3d be 9d 1c 0c 3d 1a 05 99 bc
       0.033321746 -0.18483406 0.034206975 -0.01867919
000070 5c 4d 3a bd 4a 1d b2 bd 76 64 38 be fe db e2 3b
       -0.045483932 -0.08696993 -0.18007073 0.006923198

network_body.observation_encoder.processors.0.dense.0.weight f4 [30, 512]
000000 60 fe 6a 3d e8 6d 02 3d f2 bf 0e 3d 1b ec f0 3d
       0.057371497 0.031843096 0.034851022 0.117637835
000010 55 43 0c be e4 93 14 3d 5a fc 61 bd 10 88 cb 39
       -0.1369756 0.036273852 -0.0551723 0.00038820552
000020 84 53 ed bc 80 7a 40 3d 54 09 bc bc 6f ba 02 3d
       -0.028970487 0.046991825 -0.022953667 0.03191608
000030 53 25 3d bd 1d 62 94 bd b4 7d 84 3d 93 43 28 3e
       -0.046178173 -0.07245276 0.064692885 0.16432028
000040 27 0c 92 3d ee d1 ea 3d a8 af 17 3e a8 b2 d2 3d
       0.07131224 0.11465822 0.14813101 0.10287982
000050 54 af 31 3e e0 eb 7d bc 12 32 8b 39 b8 b8 70 3d
       0.17352039 -0.0154981315 0.0002654945 0.05876991
000060 81 a8 4e bd 4b ca 14 3e c6 e2 2c 3e 6f 2c 88 3d
       -0.050453667 0.14530294 0.16883382 0.066491
000070 4a 24 29 3c 06 bf f7 b8 bf 88 6b 3d b6 66 6e 3d
       0.010323593 -0.00011813459 0.057503458 0.05820342
000080 fc 28 30 3e 1f 08 e7 3d ad 48 0c bd a0 00 e9 3d
       0.17203134 0.11280846 -0.034248997 0.11377072
000090 9b 31 a3 3d 55 2b 51 3d ce 91 ca 3d 58 be 48 3b
       0.07968446 0.051066715 0.09891091 0.0030631032
0000a0 cc 23 3b bc 7b ec eb 3c 44 82 01 bd fa 6c db 3c
       -0.011422109 0.028799286 -0.03161837 0.026785363
0000b0 f0 cc 2b bd 3e 0b 4f bd 5b ee ba 3d 0f 19 9e bb
       -0.04194349 -0.05054783 0.09127494 -0.0048247646
0000c0 42 f0 c9 3c c7 ab 92 3d 44 66 a2 bc 65 48 14 3e
       0.024650697 0.0716167 -0.019824155 0.14480741
0000d0 38 6b 6d bd c6 3f 39 bd 72 ba 27 bd 66 ef 33 3d
       -0.05796358 -0.045226835 -0.040949292 0.04392948
0000e0 5d 24 89 bd af d3 1b 3d c0 be d8 3d 47 d4 72 3d
       -0.06696389 0.038043674 0.10583258 0.059284475
0000f0 76 2f 19 3e a1 f8 2e bd e8 d7 17 be ed 32 8c 3c
       0.14959511 -0.04271758 -0.14828455 0.017114127
000100 78 a5 30 bd 98 48 6e 3d 6e 82 aa bd f7 11 1a bc
       -0.043126553 0.0581747 -0.08325659 -0.009403697
000110 81 9b 17 3d 0c 73 16 bd ec 09 af 3c 6c 00 25 bd
       0.037013534 -0.03673081 0.021367036 -0.040283605
000120 d4 95 41 3b b7 d9 a6 bd e5 ce 0d bc e9 01 2c bd
       0.0029538767 -0.081469946 -0.0086552845 -0.04199401
000130 ad 91 27 bc 56 d1 bf bd 51 1e c7 bd 8d eb 58 bd
       -0.010227603 -0.093660995 -0.09722579 -0.052959014
000140 b2 0d a6 3c b4 25 67 3d 28 00 f3 3d a9 86 84 3d
       0.020270202 0.05643244 0.11865264 0.06470997
000150 64 35 50 3d b7 7e 20 3e a9 e8 b9 3d e5 22 e8 3d
       0.050832167 0.15673338 0.090775795 0.113347806
000160 b3 1c 62 3d a3 e4 64 3d 47 7e a8 3c ce 7e 2b 3d
       0.05520315 0.055882107 0.020568026 0.041868977
000170 50 ee cf 3d 2d f9 3f 3d c1 c6 a3 bc 65 13 05 be
       0.101528764 0.046868492 -0.019992234 -0.1299568
000180 d7 df e2 3d c3 47 65 3d d6 b3 08 3e 69 53 fb bb
       0.1107785 0.05597664 0.13349852 -0.0076698554
000190 18 48 98 3d ed a4 35 3d 63 35 c9 3d 63 f2 1b bd
       0.07435626 0.04434674 0.09824636 -0.038072955
0001a0 4c 8e 57 bc 72 10 30 bd a0 53 9a 3d a0 eb 73 bc
       -0.013156485 -0.042984433 0.075354815 -0.01488772
0001b0 de 25 2a 3d 93 b6 80 3d 88 47 73 3d cf 43 13 3e
       0.04154002 0.06284823 0.05939439 0.14381336
0001c0 2d 17 cf 3d 00 4a cd bc 64 b5 8a 3d 39 da c9 3c
       0.10111842 -0.0250597 0.06772879 0.02464019
0001d0 48 4c e9 3d a9 79 f2 bc b0 5d 36 3d ec ee f9 bc
       0.113915026 -0.029599028 0.04452294 -0.030509435
0001e0 8b 67 f7 bc 15 96 80 bc 4a 99 5b bd 57 f6 6e bb
       -0.03020074 -0.015696565 -0.053612985 -0.0036462748
0001f0 1a 02 19 3e 1e ed 31 3d bd f1 af 3d 1b 1c 06 bb
       0.14942208 0.043439023 0.0859103 -0.002046353
000200 c9 72 da 3d 79 d1 ad 3d f6 8f 66 3d b7 2b a0 3d
       0.10666425 0.08487219 0.056289636 0.07820838
000210 b1 24 dd bd f7 8a c8 3d b9 ab 37 bc e1 4a 91 3d
       -0.10798014 0.097921304 -0.011210375 0.0709436
000220 a9 b4 1b bd 94 18 4f 3d 14 99 6e bd f7 0c ce bc
       -0.038014088 0.05056055 -0.058251455 -0.025152666
000230 6d c0 f5 bd d4 e5 69 3d ad 50 53 bb 10 97 d9 3c
       -0.11999593 0.057103947 -0.0032244131 0.02656129
000240 a4 d6 9a 3d 06 ad 31 3c 40 a4 ac 3d 73 96 46 3b
       0.07560471 0.010844475 0.08429766 0.0030302077
000250 0b 0f a9 3c b8 5c 60 3d ce d7 58 3d 22 17 c5 bc
       0.020637056 0.054775923 0.052940182 -0.024058882
000260 e1 14 b8 3c a0 35 10 bd 41 a9 03 3d 87 cf bd 3a
       0.022470893 -0.03520739 0.032143835 0.0014481404
000270 42 f4 2b 3d f1 92 d5 3d 31 c5 05 be 21 57 1e 3e
       0.04198099 0.104284175 -0.13063504 0.15462925
000280 e0 53 af 3d e8 ce 54 3d 40 9c 89 3d b6 c5 81 3d
       0.0856092 0.051955134 0.067192554 0.063365385
000290 3b 68 18 3d dc 20 a8 bc be ae 91 bd bf de c7 3c
       0.037208777 -0.020523481 -0.071134076 0.024398206
0002a0 07 33 40 3c 47 e2 19 3d f6 9a 68 3c 0f 70 0b 3d
       0.011730916 0.03756931 0.014197102 0.034042414
0002b0 f5 56 f4 bb 0e 45 80 bd a6 13 76 bd 8a ce d5 3d
       -0.007456655 -0.06263171 -0.060077332 0.10439785
0002c0 82 91 a6 3d cb 96 bd 3a 9e a6 a0 bc f8 a6 c1 3d
       0.08133222 0.0014464495 -0.0196107 0.09455675
0002d0 78 97 96 3d 87 01 c7 3d 38 12 a2 3c 8f 16 1e 3d
       0.07353109 0.09717088 0.019784078 0.038595732
0002e0 1b ca 5e 3c ee 2d f2 bd 5a a1 a0 3c a7 9c 82 bd
       0.01359799 -0.11825167 0.019608188 -0.06377535
0002f0 28 70 db 3c c0 17 cf ba 09 8e 7b 3d ea bc 04 3e
       0.026786879 -0.0015799925 0.061414752 0.1296269
000300 fb 97 33 3e 87 26 57 3d 96 85 8b bd 46 0d 1e 3e
       0.17538445 0.052526977 -0.06812589 0.15434751
000310 a2 17 9c bb 63 b6 3c 3d 0f 8d 71 3d 97 2c 1e 3c
       -0.0047635594 0.046072375 0.058972415 0.009654186
000320 16 64 c7 bd 0b 25 48 bd 9e 9b a2 3d 34 93 e8 bd
       -0.09735887 -0.048863452 0.07939838 -0.11356202
000330 d6 bf 2e 3d ab 8c d3 3d 52 c3 4a 3e 33 72 be 3d
       0.042663418 0.10329565 0.19801071 0.092991255
000340 da 0b 91 3d dd 61 06 3e 7d a5 26 3d 50 ee c1 3d
       0.07082339 0.1312327 0.040685166 0.094692826
000350 fb 9d 80 3d ba 83 c8 3d 31 ce 51 bd 92 1a 18 3d
       0.062801324 0.0979075 -0.05122203 0.037134714
000360 fc ff 18 3d 22 f5 81 bd ce 9d 0c 3e d9 b7 08 3e
       0.0373535 -0.063455835 0.13732073 0.13351382
000370 cb 1e ec 3c ea b5 8e ba ee 3d b9 bd 75 e7 a4 bc
       0.028823277 -0.0010887955 -0.09045015 -0.020129899
000380 42 3a 47 bd 27 15 9b bc 83 36 4f 3d 3e 06 bc 3d
       -0.048639543 -0.018930985 0.050589096 0.09180878
000390 17 a5 01 bb 53 43 f9 bd a9 5a e4 3b 28 ad c8 3c
       -0.001978224 -0.12171044 0.0069688153 0.02449663
0003a0 6e e8 2c 3c fe dd ce 3d d6 7a 5a bc 5b 01 ec 3d
       0.010553462 0.101009354 -0.01333495 0.11523696
0003b0 a2 1d 2e 3d 32 cc 36 3c 9e 05 1c bd c6 b8 cb bc
       0.04250873 0.011157082 -0.038091294 -0.02486838
0003c0 a0 60 0c 3d 81 19 01 3e 31 6a aa 3d 61 46 d6 bb
       0.034271836 0.12607385 0.08321036 -0.0065391515
0003d0 a7 21 93 3c db 3b 89 3d 4e ac c8 ba b6 6c 1f 3e
       0.017960383 0.0670087 -0.001531014 0.15568814
0003e0 c0 61 94 3c 2e d5 10 bd b7 88 c1 3c 5e 74 9b bd
       0.018113017 -0.035359554 0.023624761 -0.07590555
0003f0 74 ea 16 3b 19 2f 2a 3e 3d 07 96 bc 35 1d 95 3d
       0.0023027929 0.16619529 -0.018313998 0.072809614

network_body.observation_encoder.processors.0.dense.0.bias f4 [30]
000000 3a 7a 97 3a c7 b5 8c bc 80 a2 a7 bd 33 37 01 3c
       0.0011556812 -0.017176522 -0.08185291 0.007886696
000010 99 98 00 3c 89 7b 93 bd 45 e8 c9 ba b1 4a a5 bc
       0.007848882 -0.07201297 -0.0015404305 -0.020177217
000020 da 41 11 bd 35 99 a0 bd 46 12 a5 bc 68 6a c9 bc
       -0.03546319 -0.07841722 -0.020150315 -0.024586871
000030 7f 4d b1 bd 71 11 cb bd 2a 5e 05 3b f9 6e 01 bd
       -0.08657359 -0.09915436 0.0020350316 -0.031599972
000040 61 a5 82 bd 1c 8a 6a bd 2b ac 49 bc 9a 3d e6 3a
       -0.063792 -0.057260618 -0.012309114 0.0017565966
000050 3d 60 67 bd 1c 79 86 bd f2 c8 8b bd ae d0 0c 3d
       -0.056488264 -0.065660685 -0.06825437 0.0343787
000060 f6 a3 ee bd bc 6a 86 bd c4 2f 10 bd b2 32 21 bd
       -0.11652367 -0.06563327 -0.035201803 -0.039354987
000070 3b 26 4a bd 40 7f ee 3c
       -0.049352866 0.029113412

network_body._body_endoder.seq_layers.0.weight f4 [30, 33]
000000 c7 a3 23 3e e1 7d fb 3b bc 9a dc 3e 71 a5 cc 3b
       0.15980445 0.007674918 0.43086803 0.006245308
000010 06 47 15 3e 34 a0 ba 3d eb d1 e3 3d eb e4 57 3e
       0.14577875 0.091125876 0.11124023 0.21083419
000020 7f 42 cd 3d d9 be 00 bd b2 04 1a 3d 23 30 2d 3c
       0.10022449 -0.031432007 0.037602134 0.010570559
000030 0e 7e 23 3e 40 4f 24 be ea a7 02 be 9e cd 42 3d
       0.15966055 -0.16045856 -0.12759367 0.047559373
000040 9f 93 07 3e f2 30 94 bd 13 ea 31 3e ef b4 2e 3d
       0.13239907 -0.07235898 0.17374448 0.04265302
000050 8f f8 c7 3d f1 1d 1c bd f7 ff 6b be be d4 7b be
       0.09764206 -0.03811449 -0.23046862 -0.24592873
000060 aa b4 0b 3d 93 f0 93 bc 70 6e 46 3e 91 52 58 3e
       0.03410784 -0.01805905 0.19378066 0.21125247
000070 6e 9e 61 3c a4 db a4 3e fe 83 95 be b4 95 41 3f
       0.013770683 0.32198822 -0.29202265 0.75619054
000080 0d 57 95 3d 00 65 22 be f6 38 5c be 7d 2c 67 3e
       0.07291994 -0.15858841 -0.21506104 0.22575565
000090 6b 3a c4 bd 4d 16 75 3d ba ed a8 3e b1 54 31 be
       -0.09581455 0.05983572 0.3299387 -0.17317463
0000a0 cd db 33 bd a2 6e fe b8 98 7c c4 bc 4e 28 cc 3d
       -0.04391079 -0.00012132271 -0.023985192 0.09968625
0000b0 c0 ee 31 3d d3 11 7b 3e 5c 2d 93 3d d5 e9 6c be
       0.04344058 0.24518518 0.07186386 -0.23136075
0000c0 16 20 ff bd 47 46 2a bb 62 1c 7c bc ed fc aa 3d
       -0.12457292 -0.002598183 -0.015387626 0.08349023
0000d0 6f 1f 14 3e ec 34 3e 3d d2 0e 40 be 9b a2 80 3e
       0.14465116 0.04643719 -0.18755654 0.25124058
0000e0 52 c5 aa 3d b3 47 63 3e 42 bd 34 be ad d7 8e 3e
       0.08338417 0.2219532 -0.17650321 0.27898923
0000f0 22 f1 bf bd 0e e3 2a be dd b5 e4 3d ae 8e 38 3e
       -0.09372164 -0.16688177 0.111675 0.18023178
000100 30 74 8a bf 85 38 d3 3d 9b 72 a3 3d 32 e1 1c bd
       -1.0816708 0.103135146 0.07980844 -0.0383007
000110 3c 5f 7d be 10 ca ab 3d 6e d1 fc bd 1b 76 d7 bd
       -0.2474336 0.0838815 -0.12344633 -0.10520574
000120 40 9e 9f 3d d9 a0 30 be c6 36 42 3d 26 49 87 bc
       0.07793856 -0.17248859 0.047415517 -0.016514372
000130 45 d4 15 3e 80 7e a2 be c5 5f 1d 3e 9b f2 e7 bc
       0.14631756 -0.31737137 0.15368564 -0.028313925
000140 e2 71 81 bd 63 3a a1 be a8 5e 22 3e da 00 5c be
       -0.063205495 -0.31489858 0.15856421 -0.214847
000150 50 c0 48 3e 92 0f df bd b1 41 63 3d 24 52 67 be
       0.19604611 -0.10891642 0.05548257 -0.22589928
000160 55 32 04 be dd 49 f9 3d a8 eb 5d 3d 7e b6 3e 3c
       -0.12909825 0.121722914 0.054179817 0.011640189
000170 26 18 8d be 91 5f 95 bd 30 e5 8f 3e 63 35 72 3e
       -0.27557486 -0.072936185 0.28104544 0.23653178
000180 96 17 b7 3e 1d 63 90 bd 6d 74 dd 3e 35 18 80 3e
       0.35760182 -0.07050154 0.43252888 0.25018468
000190 88 33 2d 3e e5 01 0f 3e a7 d2 32 3e 5b ba e7 bd
       0.16914189 0.13965566 0.1746317 -0.11314841
0001a0 58 15 69 be 53 b6 ba 3c 6a 89 84 bd d1 f1 8f 3d
       -0.22762048 0.022792017 -0.06471522 0.07028545
0001b0 6f 3c 9d 3b 3c 10 82 3d 19 e7 ec bd a3 58 3b be
       0.004798464 0.06350753 -0.11567516 -0.18295531
0001c0 90 10 5b be 9e 66 45 3e ac 9f 56 be 0f 48 1f 3d
       -0.21393037 0.19277427 -0.20959347 0.03888708
0001d0 be be 03 3e 6a 5c 5f bc b6 0d 55 3e 41 ec 9d bd
       0.12865731 -0.013632873 0.20806012 -0.077110775
0001e0 11 f3 4e bc 8a 29 fd bd eb 83 fa bd 25 5a 8e bc
       -0.012631194 -0.123614386 -0.122321926 -0.017376969
0001f0 53 9a b7 3d 1d 26 8f be b5 8d 2f bc 33 d7 9e be
       0.08964982 -0.27958766 -0.010714938 -0.3102356
000200 bf cf ef bd 12 54 44 be 64 1b 89 3f 0f 1b 87 3d
       -0.11709546 -0.19172695 1.0711484 0.06596958
000210 2c b9 9a 3d 0d 23 c6 be 79 e3 6f bd 1e 2d c5 bd
       0.0755485 -0.38698617 -0.058566544 -0.09627746
000220 03 fe b0 bd a7 3d 8c 3e 2a b5 1e be 8a c1 1d bd
       -0.08642199 0.27390787 -0.15498796 -0.03851465
000230 ab 71 0e be 28 93 60 3e 9b 41 40 be c9 ce 2c bc
       -0.13910548 0.21931136 -0.18775027 -0.010547348
000240 26 ac 29 3e ac 3e 81 bb ef 1c 84 be 2e f8 70 be
       0.16569576 -0.0039442386 -0.25803325 -0.23532173
000250 80 91 19 3d ec 29 b5 bd 95 02 58 be 11 06 b4 bd
       0.037492275 -0.088458866 -0.21094735 -0.087902196
000260 33 f9 be 3d 33 76 ef bc e9 82 41 3e d1 fc d2 3d
       0.09324875 -0.029231166 0.18897595 0.10302127
000270 44 4c 02 3e 5f 39 18 be fb 7f 25 bd eb ee 5c 3e
       0.12724406 -0.14865635 -0.040405255 0.21575515
000280 38 c1 80 3d 31 3b 4f be 38 4a 5e 3d 09 7d 24 3f
       0.062868536 -0.20237423 0.05427 0.6425329
000290 14 cb b8 3d 25 36 71 be 16 af 26 3e 21 88 13 bd
       0.09023109 -0.23555811 0.16277727 -0.036018495
0002a0 da 1b 33 3e f8 6f a0 3e 13 82 6d 3d 11 c6 6c bd
       0.17491093 0.31335425 0.057985377 -0.05780608
0002b0 6f 7a a7 be 17 3f cc 3c b8 b3 8b bd fa 6b 67 be
       -0.32710597 0.024932427 -0.06821388 -0.22599784
0002c0 7b 0b a0 be 73 84 39 3e c3 5b 6a 3e f0 be 5b 3e
       -0.3125876 0.18116932 0.22886567 0.21459556
0002d0 10 50 6e 3c 8a b8 72 bd 16 53 06 bd 4c 6d 15 3e
       0.014545456 -0.05925802 -0.03279408 0.14592475
0002e0 bd b2 51 be f6 f8 8b 3d 20 97 73 bd 3c 99 08 3e
       -0.2047834 0.06834595 -0.059470296 0.13339704
0002f0 a6 c2 d6 be 1e cd 40 be 8c d3 6b 3e 84 b8 45 3e
       -0.4194538 -0.18828246 0.23029917 0.19308668
000300 b3 b2 28 be 57 83 46 3e 7c 53 e3 3c 76 2b 16 be
       -0.16474418 0.1938604 0.02774977 -0.14665017
000310 31 07 32 be c6 2e 1f be b8 46 c5 be 25 a0 24 3e
       -0.17385556 -0.15545186 -0.38530517 0.16076715
000320 58 cd 4f 3d 70 45 02 3e 13 f0 13 3c 8d 87 89 3e
       0.05073294 0.12721801 0.009029406 0.2686123
000330 17 d7 5e 3e 1b cb 99 3e a3 a4 b3 3d 65 a9 8a bd
       0.21761738 0.3003777 0.08771636 -0.06770591
000340 9f 36 15 be d0 d0 65 be c2 21 56 3e 9c cd b7 3d
       -0.14571618 -0.22442937 0.20911315 0.08974764
000350 f4 a9 64 3d 79 97 78 be 13 a0 d1 3e 7d 1c ed bd
       0.055826142 -0.24276532 0.4094244 -0.11577699
000360 0e 16 46 3d 27 d6 7a be 21 de 8a bc 3c 57 7e 3b
       0.048360877 -0.24495755 -0.016951622 0.003880932
000370 38 2f 85 bd ee f1 48 be c0 72 db 3d 48 95 39 3e
       -0.06503147 -0.19623539 0.10715246 0.18123353
000380 ba 2c 51 bc 12 67 06 bc 31 90 2e 3e da 2f bb 3e
       -0.012767011 -0.008203285 0.17047192 0.36559945
000390 19 92 bb be 97 aa ee bb 66 b0 db 3d fe ab ff bd
       -0.366349 -0.0072835195 0.10727005 -0.12483977
0003a0 ae cb 75 3d eb 05 6f 3d 40 6a ec 3c d0 d3 46 3e
       0.060008697 0.058355253 0.028859258 0.19416738
0003b0 76 b2 81 bd 25 8a 27 be 44 2e 80 be 61 ba 94 bc
       -0.06332867 -0.16361292 -0.25035298 -0.018155279
0003c0 6f 1d eb 3d 55 4c 29 bd 5b e8 95 bb 24 e2 ec 3d
       0.114802234 -0.04133256 -0.004574818 0.115665704
0003d0 72 fb 93 3b 5b ce 0f be d2 54 b7 3e 29 6e 3f bd
       0.0045160586 -0.14043562 0.358069 -0.046735916
0003e0 81 99 b8 bb 11 db c6 3d 72 c4 24 3d eb 7d b6 3b
       -0.0056335335 0.09709752 0.040226407 0.00556921
0003f0 85 5c ed bd c2 28 46 3e 30 f2 04 3e 87 4f 7f be
       -0.11589912 0.19351485 0.12983012 -0.24932681

network_body._body_endoder.seq_layers.0.bias f4 [30]
000000 cb e9 04 3d 1e 47 4b 3d 75 24 87 3d 7d f2 90 3d
       0.032449525 0.04962837 0.065987505 0.07077501
000010 08 57 86 bc b3 7e 28 be 57 d7 77 be 18 08 57 3d
       -0.016398922 -0.16454582 -0.2420324 0.052497953
000020 0c 6a dd bc 96 0f db bd 4e 58 83 3d b1 a0 d7 3d
       -0.027028106 -0.10696332 0.06413327 0.10528696
000030 58 56 28 be 33 16 10 3d d9 42 d2 3c 55 39 1c bd
       -0.16439188 0.03517742 0.025666641 -0.038140614
000040 20 cd 0c 3d 84 16 c6 bd 23 15 09 3c 74 3c 29 be
       0.03437531 -0.09672263 0.008366856 -0.16526967
000050 ae c3 a0 3d fe f6 d7 3d 03 a1 33 bc 6e 97 75 3d
       0.07849823 0.10545157 -0.010963681 0.059958868
000060 17 8d 72 3c 76 b1 b7 3d b2 45 0f 3d 6c 02 9d 3c
       0.014804146 0.08969395 0.034978576 0.019166194
000070 f2 d8 34 bc f7 32 80 3d
       -0.011038052 0.06259721

network_body._body_endoder.seq_layers.2.weight f4 [30, 30]
000000 f7 2e 87 3e 80 ed 31 be 57 47 6d 3e 4c c4 f8 3e
       0.2640302 -0.17375755 0.23171745 0.48587263
000010 d4 b4 19 3e f5 d5 4c bd 79 ec 9e 3e b9 d2 a7 3e
       0.15010387 -0.050008733 0.3103979 0.32777956
000020 6e 9b c1 be a5 7f d0 3d 71 12 0f bc 1c 6d 9c 3e
       -0.37813896 0.10180596 -0.008732424 0.30551994
000030 7d 00 5e be 71 12 ee bd 89 a9 e2 be dd 01 99 bc
       -0.21679874 -0.11624611 -0.4426997 -0.018677646
000040 e1 39 0f bf 40 52 43 be d8 8c 05 bd ae 29 ac be
       -0.5594769 -0.19074345 -0.032605022 -0.3362555
000050 fb 60 2a 3e 53 c5 a7 be f8 7b 6c be d3 9b 1b 3e
       0.16638558 -0.32767734 -0.23094165 0.15196161
000060 63 64 b7 bc 56 7b 81 bd d6 87 d0 3c 1b 26 86 3e
       -0.022386735 -0.063223526 0.025455397 0.26200947
000070 4a be 94 be 54 3c da be fd 02 77 bd 8f 12 73 3e
       -0.2905143 -0.42624152 -0.060305584 0.23737548
000080 f0 b6 f6 bc 38 9c 2a be 56 27 fa bd ff 1e a2 3e
       -0.030116528 -0.16661155 -0.12214534 0.31664273
000090 9f 46 be be 30 d4 d4 be 44 5d 55 3e 5b be 3d 3e
       -0.37163255 -0.41568136 0.2083636 0.18529646
0000a0 0e b3 de bd 02 79 0d 3c f7 64 47 be b6 5e 8c 3d
       -0.10873996 0.008634808 -0.19472109 0.06854002
0000b0 fd fb c8 3e 45 05 0b 3e 5d 0f 40 3f 30 33 b7 3d
       0.39254752 0.13576229 0.7502344 0.0894531
0000c0 96 e2 43 3e 96 c2 ab bd 8f e0 81 be 70 99 e2 bb
       0.19129404 -0.08386724 -0.25366637 -0.006915264
0000d0 81 cc 23 3f 90 b1 af be 2f eb c1 3d c4 1f c0 3d
       0.63983923 -0.34315157 0.09468686 0.09381059
0000e0 9e a9 cd bd ea 07 a6 3d b8 87 6b 3e b8 68 18 3e
       -0.100421175 0.08106978 0.23000991 0.14883697
0000f0 16 95 42 3d d3 c3 29 be 29 9f 85 3e 2e 30 bc 3e
       0.04750546 -0.16578607 0.26097992 0.36755508
000100 eb e1 80 3e 48 bc 6e bd 4c e0 77 be b7 f1 47 bd
       0.25172362 -0.058285028 -0.24206656 -0.0488145
000110 6b 13 9f be 0f 09 6e be 1d 25 d1 3e cc 61 b6 3e
       -0.31069502 -0.23245643 0.40848628 0.35621488
000120 c9 60 c0 be 81 52 9a 3e 13 cd 78 be 27 31 d6 3e
       -0.3757384 0.3014107 -0.2429698 0.41834375
000130 e9 78 09 bf 96 38 bf be 26 6a 62 3e ad 9a b3 3d
       -0.5370012 -0.3734786 0.22110805 0.087697364
000140 6a 5d 72 3e af 04 82 be 90 42 8f be fe 80 5b 3e
       0.23668447 -0.25394198 -0.2798047 0.21435925
000150 a8 0d d5 3d 51 0d 22 3c 03 b9 81 3e 26 61 fc 3e
       0.10402995 0.00989087 0.25336465 0.49292868
000160 a0 df 13 be 59 0f 56 be 23 c7 7b be bd 92 37 3f
       -0.14440775 -0.20904292 -0.24587683 0.7170828
000170 90 a9 bb 3e 71 cb 85 3d 56 21 06 be 99 80 05 be
       0.36652803 0.06532944 -0.13098654 -0.13037337
000180 c4 c5 67 be d5 6c 58 be 93 76 2f be 73 c1 28 3e
       -0.22634035 -0.21135266 -0.17135076 0.16480045
000190 23 d2 b6 be af 50 b1 be 3a 73 0a 3e fb 66 25 bb
       -0.35707197 -0.3463187 0.13520518 -0.0025238383
0001a0 1a b5 6f be 69 20 79 3e 11 00 34 3f 08 6c 37 3e
       -0.23408929 0.2432877 0.703126 0.17912304
0001b0 f5 b3 68 3e 6f ea 61 3e fb f1 72 b9 61 84 80 be
       0.22724898 0.22062086 -0.00023169063 -0.25100997
0001c0 4c 50 76 3e b8 53 e0 bd eb e3 8e 3e d1 4a cc 3c
       0.24054068 -0.10953468 0.27908263 0.024938019
0001d0 b0 a7 be be c5 51 37 bc 2e 59 1f be 54 c5 dd 3d
       -0.3723731 -0.011188929 -0.15561363 0.10828653
0001e0 b9 57 05 be 13 89 4b 3d 45 fa 2c be 00 97 cc be
       -0.13021745 0.04969127 -0.16892345 -0.39958954
0001f0 e7 92 d7 bd 07 f5 23 3d b7 ea f9 3d 75 ef 88 bd
       -0.10526066 0.0400286 0.122029714 -0.06686298
000200 6e c8 31 3e 16 98 64 be f9 12 1a be 06 ed 50 3e
       0.17361614 -0.22323641 -0.150463 0.20402917
000210 34 99 03 be 07 87 b7 3d e0 67 c0 3d f0 15 66 bc
       -0.12851411 0.08961301 0.093948126 -0.014043316
000220 59 bc 93 3e 19 fe 60 be c7 91 eb 3d a9 d8 1a 3e
       0.28854635 -0.2197193 0.11502414 0.15121712
000230 20 e4 6a 3e 97 44 1f 3f 53 72 98 3e 87 9f 8f 3d
       0.22938585 0.62214035 0.29774722 0.07012849
000240 36 9d 05 be c9 96 14 3f b7 64 17 be 0a 87 4a 3e
       -0.13048252 0.5804258 -0.14784513 0.19778076
000250 dd 40 cf be a0 f8 96 3e 39 48 dc be 5d 99 69 3e
       -0.40479174 0.2948656 -0.43023852 0.2281241
000260 4f 2a bf 3e cc 03 2d be d6 b1 77 3e 16 15 3f 3d
       0.37336966 -0.1689598 0.24188933 0.04665097
000270 13 ef 96 bd 04 1a 12 3e 3f 40 01 3e 65 c3 1c 3f
       -0.073698185 0.14267737 0.12622164 0.6123565
000280 f5 ad 38 3e c4 58 6c bf e3 d4 00 be b2 37 b8 bc
       0.1803511 -0.92322946 -0.1258121 -0.022487495
000290 f7 10 4d be e8 44 c8 3e 17 51 ef bd bb 3b 75 3d
       -0.20026003 0.3911507 -0.116853885 0.059871417
0002a0 5b f9 1f bf f2 d5 17 3f 1b f0 3b bc 59 16 32 bf
       -0.6248986 0.5931083 -0.01147082 -0.6956535
0002b0 b1 86 0d be e7 8d 54 3e bd a9 34 3f 81 cf 37 bf
       -0.13820912 0.20757256 0.705715 -0.71801
0002c0 b2 7d e6 be b8 8a 17 bf 92 84 02 be dd 70 ba be
       -0.45017773 -0.59196043 -0.12745884 -0.36414233
0002d0 82 6f d6 bc 27 8c 03 3e e2 e2 42 bf 05 90 43 be
       -0.026176218 0.12846433 -0.76127446 -0.19097908
0002e0 27 e7 8e be a2 e7 dd 3d 07 f8 d9 bd 36 b5 e4 3d
       -0.2791073 0.10835196 -0.106430106 0.11167376
0002f0 20 31 9e 3e 36 aa 0f bc 4e f0 99 be c1 be 00 be
       0.30896854 -0.008768609 -0.3006615 -0.12572767
000300 11 13 72 bd f8 aa c3 be a2 27 39 3e 40 f7 b6 3c
       -0.059100214 -0.38216376 0.18081525 0.022334695
000310 ea ca d5 3e bb 28 ce be af 8c 98 bd c6 16 89 be
       0.41756374 -0.4026545 -0.07448708 -0.26775187
000320 dd 62 e6 bd 6a 49 92 3d 99 81 8c 3e ee 3e 98 be
       -0.112493254 0.07142909 0.27442625 -0.29735512
000330 cd ca d4 bc eb 2b 33 3e 76 76 79 be e5 70 f9 3d
       -0.02597561 0.17497222 -0.24361596 0.12179736
000340 67 69 a0 3b ef fd a2 3e 0e 12 2c be 1a 59 22 3f
       0.0048953774 0.3183436 -0.16803762 0.6341721
000350 4e cd 7d 3c a5 8c 74 be 17 e9 b3 be f3 cf 60 be
       0.015490843 -0.23881777 -0.3513877 -0.21954326
000360 ce f5 0a 3d 44 1a 7b be 05 4c b3 3e 20 8e a1 bd
       0.033925824 -0.24521738 0.35018936 -0.07888436
000370 c7 91 99 3b e9 a0 bd bd 04 9a c1 be 71 21 f5 be
       0.0046865675 -0.09259207 -0.37812817 -0.47877076
000380 58 e4 99 3e e9 31 61 3c ce 68 15 3f 51 49 a1 3e
       0.30057025 0.01374481 0.58363044 0.31501248
000390 21 61 d6 3e bb 31 65 be 6d 9c 05 3d f0 0f 9b 3e
       0.41870978 -0.22382252 0.032619882 0.30285597
0003a0 34 26 62 3e 7f aa dc be 04 6b 18 bd f8 2f 9d 3e
       0.22084886 -0.43098828 -0.037211433 0.3070066
0003b0 5d 35 c5 bd f1 b4 b9 be fd 73 b0 bb 04 75 aa 3e
       -0.09629319 -0.3627086 -0.0053849206 0.332924
0003c0 cb 4a 1c bf ab 47 9d 3e 8f e7 86 3e 02 76 43 be
       -0.61051625 0.3071874 0.2634854 -0.19087985
0003d0 88 fb 18 bf 78 f7 7b 3e 26 5e a5 3b f0 0b 63 3d
       -0.59758806 0.2460612 0.0050466238 0.055431306
0003e0 57 16 fa bd ed a4 4c be a1 17 c8 be 5e 97 66 bc
       -0.12211292 -0.19984789 -0.39080527 -0.014074175
0003f0 f1 2c 54 3e 90 e0 9a bd 53 c4 62 3e b9 39 87 be
       0.20720269 -0.07562363 0.22145204 -0.26411226

network_body._body_endoder.seq_layers.2.bias f4 [30]
000000 aa e7 0b 3d cd 8d 10 bd 51 9d a6 3d 30 ae e4 3b
       0.03415648 -0.03529148 0.081354745 0.0069787726
000010 a9 92 cd 3d 5f cd 66 3d ac d5 60 ba 54 0b ee bb
       0.10037739 0.0563482 -0.00085767615 -0.007264534
000020 c0 53 2c bc 9e 8e d2 3d d8 77 b5 3d f8 e6 e3 3d
       -0.010518014 0.10281108 0.08860749 0.11128038
000030 bb b1 61 3b e4 69 6b bc 56 6d f3 ba b4 63 ef 3c
       0.003443821 -0.014368508 -0.0018572013 0.029222347
000040 e1 df 74 3d a3 57 17 bb 3c cc 26 3d de 5e 2b 3d
       0.05978382 -0.0023093007 0.040722117 0.04183852
000050 14 bd 03 bc 9e ea c4 3d e4 a6 f7 3d 22 87 15 3d
       -0.008040685 0.09615062 0.12092379 0.036505826
000060 3e c4 62 3d 1d 43 9b 3d d5 c8 46 3d 4c f4 e5 bc
       0.055362932 0.0758116 0.048531372 -0.028070591
000070 0e 19 16 bd 40 d8 71 3c
       -0.036644988 0.014761031

action_model._continuous_distribution.log_sigma f4 [1, 2]
000000 78 45 00 3e 56 c5 c8 bd
       0.125265 -0.09803264

action_model._continuous_distribution.mu.weight f4 [2, 30]
000000 57 6d 58 3c a5 59 3b bd 44 90 8f bc 99 53 7e be
       0.013209662 -0.04573979 -0.017524846 -0.24836577
000010 3f 87 ee 3d 24 7a d9 be 7f 6e 5a 3d fd f9 26 bd
       0.1164689 -0.42475998 0.053328034 -0.04076575
000020 08 6a c7 bd ad 9c b3 3d be b3 48 3d c9 3f af bb
       -0.09737021 0.08770118 0.04899954 -0.00534818
000030 53 1b 99 be c6 3e 73 be 70 67 96 bd af 1a 6d be
       -0.2990366 -0.23754415 -0.07343948 -0.2315471
000040 46 69 b3 3c a9 fd b0 3d e7 c6 5d bd c6 1f 99 3e
       0.021900784 0.08642132 -0.054144766 0.29907054
000050 5e ba 26 3d 0a 22 77 bc d8 7b 07 3c 7e 76 df 3c
       0.040705077 -0.015083799 0.008269273 0.027278181
000060 1b 92 5f bd cb b7 ab 3d 08 ee 1e be 05 63 18 be
       -0.054582696 0.08384665 -0.15520489 -0.14881523
000070 e6 4d 84 bc 34 29 eb 3c 1c 3f 94 3e 3f d3 7f be
       -0.016150426 0.02870617 0.289544 -0.24982928
000080 2b 93 65 3e 0f 18 ec bd 2f ec 19 be 78 e3 a1 3d
       0.22419421 -0.11528026 -0.15031503 0.07904714
000090 13 b6 61 be c2 c7 be be 72 72 72 be 1a 44 73 3e
       -0.22042112 -0.37261778 -0.2367647 0.23756447
0000a0 19 14 7b 3e 66 d5 87 3e 4c aa 9a be e7 8b ba be
       0.24519385 0.26529998 -0.3020805 -0.36434862
0000b0 e8 27 c0 be 28 52 f0 be 87 47 3b 3e 2b 2a 8e be
       -0.37530446 -0.4693768 0.18289004 -0.27766547
0000c0 8f 69 3e be 4d 18 ed 3c 68 84 f2 3d 56 ca 85 3e
       -0.18594955 0.028942252 0.11841661 0.26130933
0000d0 a6 38 97 3e 95 64 24 3e c3 11 6f 3e b7 4f 73 3e
       0.29535407 0.16053994 0.2334662 0.23760878
0000e0 91 7f 52 3e 27 3d 1a 3e ec 0c a6 be 92 fb e8 be
       0.20556475 0.1506239 -0.32431734 -0.45504433

action_model._continuous_distribution.mu.bias f4 [2]
000000 f1 a9 29 3d 40 ec e0 3d
       0.041421834 0.10982561
