Assets/ML-Agents/Training Files/results/9roads_cameraSensor_ppo_vehiclesAndChekpointsMasked_2layers_148_512/VehicleAgent/VehicleAgent-7499976.onnx (onnx, 143800 bytes, 13 tensors)

network_body.observation_encoder.processors.0.conv_layers.0.weight f4 [16, 9, 8, 8]
0	0xbc4516d2	-0.012029367
1	0xbd00ba34	-0.031427577
2	0x3cd9637b	0.026536694
3	0x3cda8899	0.026676463
4	0xbd40200f	-0.046905573
5	0xbc1afafc	-0.009459253
6	0x3cbae43e	0.022813912
7	0xbd041135	-0.032242972
8	0xbc6d2a8b	-0.014475475
9	0x3cd0b6b6	0.025477748
10	0xbbc7a3a2	-0.0060925046
11	0xbce371ce	-0.027764227
12	0xbd215893	-0.03939111
13	0xbd21c177	-0.039491143
14	0xbcea024d	-0.02856555
15	0x3bb16936	0.0054141534
16	0x3c24a9c1	0.010050238
17	0xbd29e9ba	-0.041482665
18	0x3c069e83	0.008216503
19	0x3b572d5a	0.0032833428
20	0x3ad7c810	0.0016462822
21	0x3cb89254	0.022530712
22	0xbd1a799d	-0.037713636
23	0xbc4150db	-0.011799063
24	0x3a8d1a43	0.0010765273
25	0xbd2cab9e	-0.042155854
26	0xbcf30699	-0.029666232
27	0x3bc8d808	0.0061292686
28	0xbbdb0ce8	-0.006684888
29	0xbd0834f4	-0.033253625
30	0xbd35226f	-0.04422229
31	0x3cf5226e	0.029923644
32	0xbd1bf43a	-0.03807471
33	0x3c603578	0.013684623
34	0x3cd48e57	0.02594678
35	0x3c3e84ae	0.011628313
36	0xbc8b3d47	-0.016996993
37	0xbc91be9f	-0.01779109
38	0xbcb07369	-0.021539407
39	0x3c244741	0.010026754
40	0xbc9eb4a6	-0.01937325
41	0x3c4b0fe1	0.012393923
42	0x3c70fb65	0.014708375
43	0xbd2ae9e1	-0.04172695
44	0x3d013b2b	0.031550568
45	0x3cbe9cb8	0.023268089
46	0xbc1c55f0	-0.0095419735
47	0x3d0f043e	0.034916155
48	0xbb07295c	-0.0020624017
49	0x3b3a1eb8	0.0028399657
50	0x3cc9ac0f	0.024618177
51	0x3d08e409	0.033420596
52	0x3d03ec7a	0.032207943
53	0xbcdfb1ca	-0.027306456
54	0x3c88bf07	0.016692651
55	0xbd176962	-0.036965735
56	0xbd1f28da	-0.03885732
57	0x3d01b681	0.03166819
58	0xbd34cd62	-0.04414118
59	0xbd44d242	-0.04805208
60	0x3c87dfb5	0.016586164
61	0xb98d1eb6	-0.00026916497
62	0xba0fbfe4	-0.0005483611
63	0xbcc029fd	-0.023457522
64	0x3c7cebf8	0.015437119
65	0xbd088a5c	-0.033335075
66	0x3b525cd3	0.0032098785
67	0xbb1b7e64	-0.0023726458
68	0x3d3e3660	0.046438575
69	0xbc1fe031	-0.009758041
70	0xbca50c26	-0.020147394
71	0x3d108566	0.03528347
72	0x3d0870e0	0.03331077
73	0xbc336753	-0.010949927
74	0x3ceaf4b2	0.028681133
75	0xbb832100	-0.0040017366
76	0x3d3dfa8c	0.04638152
77	0x3be0d9bf	0.006861895
78	0xbcad878a	-0.021182794
79	0x3a25eb18	0.0006329282
80	0xbca6ad60	-0.020346344
81	0xbc8b3e87	-0.016997589
82	0x3d09cb03	0.033640873
83	0x3d22ac2f	0.03971499
84	0xbb0970e7	-0.0020971836
85	0x3c2dc8cb	0.010606955
86	0xbd0d1909	-0.034447704
87	0xbc4871b5	-0.012234141
88	0x3d144d7c	0.036206707
89	0xbc7891f7	-0.0151715195
90	0xbbfb3098	-0.007665705
91	0x3c9ab72e	0.018886175
92	0xbd09d37e	-0.03364896
93	0xbc855bc7	-0.016279114
94	0xbd092dbd	-0.033490885
95	0x3d04acce	0.032391362
96	0xb9718874	-0.00023034384
97	0xbca189e5	-0.019719074
98	0xbca52c79	-0.020162808
99	0x3b46180b	0.0030226733
100	0xbc5f8557	-0.013642631
101	0x3d22a12a	0.03970448
102	0x3c6dd04e	0.014514996
103	0x3d1dcdf8	0.038526505
104	0xbc1959c6	-0.009359783
105	0x3c895373	0.016763425
106	0x3c74c5d3	0.014939743
107	0x3d22426d	0.03961413
108	0x3d0c1dcc	0.034208104
109	0xbd01fcf8	-0.03173539
110	0x3d0840cc	0.03326492
111	0xba1cd379	-0.00059824396
112	0xbc724950	-0.014787987
113	0x3a9a3c3d	0.001176722
114	0x3b9c6376	0.004772599
115	0xbc65c289	-0.014023432
116	0xbc8f4806	-0.017490398
117	0xbc83b439	-0.016077148
118	0xbc4c4bfe	-0.01246929
119	0xbce2412f	-0.027618973
120	0xbcd747b3	-0.026279306
121	0x3cb4b4a2	0.022058789
122	0xbcc2ea1e	-0.023793276
123	0x3abdde68	0.0014485838
124	0x3bf07cb7	0.007339086
125	0x3c2a47a6	0.010393059
126	0xbd0783b6	-0.033084594
127	0x3ca79e7b	0.020461312
128	0x3ca65e31	0.020308586
129	0x3d068233	0.03283901
130	0xbcae3f2f	-0.021270363
131	0xbd04590e	-0.03231149
132	0xbd09772b	-0.033560913
133	0x3d185ffc	0.037200913
134	0xbcfcf75b	-0.030879667
135	0x3bb5aeca	0.005544518
136	0xbc7e3611	-0.01551582
137	0x3d09b37d	0.03361844
138	0xbcef7326	-0.029229712
139	0xbce9f54c	-0.02855935
140	0xbcca413e	-0.024689313
141	0xbc99ad41	-0.018759372
142	0x3d37d72d	0.044882942
143	0x3c90ebc0	0.01769054
144	0x3c8f3c67	0.017484857
145	0x3d2ec6f9	0.042670224
146	0x3d05bba9	0.03264967
147	0x3cb1abc7	0.021688355
148	0x3d3c94da	0.046040393
149	0xbc197cb2	-0.009368109
150	0x3cb822b8	0.022477493
151	0xbcd0a1f1	-0.025467845
152	0x3ccb4e36	0.024817567
153	0x3d243478	0.0400891
154	0xbb8195d3	-0.003954628
155	0x3cff2591	0.031145843
156	0xbcdc57fd	-0.026897425
157	0x3ca0cac4	0.019627936
158	0xba7a3342	-0.0009544381
159	0xbd0d31bf	-0.03447127
160	0xbaca2314	-0.0015421831
161	0x3b6ff48b	0.0036614265
162	0x3d14f7a4	0.03636898
163	0x3c92630e	0.017869499
164	0x3d3526c8	0.044226438
165	0x3bb7a7dc	0.005604727
166	0xbc516929	-0.01278142
167	0x3bd777ef	0.0065755765
168	0xbc724f5e	-0.01478943
169	0xba40e8b9	-0.0007358897
170	0x3c51f621	0.012815029
171	0x3cbd27ff	0.02309036
172	0x3c257c77	0.0101004755
173	0xbca641d0	-0.020295054
174	0x3b86fd3c	0.0041195434
175	0xbd1e2d47	-0.0386174
176	0x3d2acc1c	0.04169856
177	0xbca8ca5b	-0.020604303
178	0x3cc44023	0.023956364
179	0x3d0bbfc6	0.034118436
180	0x3c528071	0.012848006
181	0x3c9724c6	0.018450152
182	0x3d08b012	0.03337104
183	0xbc3abed2	-0.011398034
184	0x3ca1d9c5	0.01975716
185	0xbce40fbf	-0.02783954
186	0x3ce0709a	0.027397443
187	0xbd0c68bd	-0.034279574
188	0xbb7c8cc8	-0.003853606
189	0xbc125bd7	-0.008933029
190	0x3cb96efd	0.022635931
191	0xbd026536	-0.031834804
192	0x3cec93a1	0.028878989
193	0x3ba72e3f	0.0051019485
194	0xbbc90bcb	-0.006135439
195	0x3c9e6ec3	0.019339925
196	0xbcef45dd	-0.029208118
197	0xbd02e255	-0.03195413
198	0xbd66f289	-0.056383643
199	0xbd5a431b	-0.053286653
200	0xbc1abd41	-0.009444536
201	0xbc93079b	-0.017947963
202	0xbc2260c5	-0.009910767
203	0x3ca02b8d	0.019552017
204	0xbcba3991	-0.022732528
205	0xbc1a8c3a	-0.009432847
206	0xbc8d2c27	-0.017232968
207	0xbc275aa9	-0.010214486
208	0x3a84428f	0.0010090637
209	0x3c2953ae	0.010334892
210	0x3ca9b9fc	0.020718567
211	0xb9864798	-0.00025611813
212	0xbd338949	-0.043832097
213	0xbc491784	-0.012273673
214	0x3ca6dd88	0.020369306
215	0xbd190cb6	-0.037365638
216	0xbc864177	-0.016388638
217	0x3b85f794	0.0040883515
218	0xbc270a9f	-0.010195403
219	0xbc9323e4	-0.01796145
220	0x3babcfb5	0.0052432665
221	0xbcd1692a	-0.025562841
222	0xb9411f13	-0.0001841749
223	0x3bdba2eb	0.006702771
224	0xbd0fd196	-0.035111986
225	0xbc95f7e7	-0.018306686
226	0xbd13fc3f	-0.036129232
227	0xbd3414ae	-0.043965034
228	0xbcabaf48	-0.020957604
229	0xbd29e682	-0.041479595
230	0x3c4b35b5	0.0124029415
231	0x3c4de0df	0.0125658205
232	0x3c7a7bd3	0.015288311
233	0xbd3b9873	-0.045799684
234	0xbcd30a5c	-0.025761776
235	0xbc56c4ef	-0.013108476
236	0xbd5adea1	-0.05343497
237	0xbd29732f	-0.041369613
238	0xbc8db86c	-0.017299853
239	0x3beb08a6	0.007172662
240	0xbd2a83dc	-0.041629657
241	0x3cc0b323	0.023522919
242	0x3c9c9b88	0.019117132
243	0x39547bcd	0.00020264015
244	0xbc96c716	-0.018405478
245	0xbd5e6736	-0.05429765
246	0x3b9fa089	0.004871432
247	0x3ae907fe	0.0017778871
248	0xbd243268	-0.040087134
249	0xbd2590ea	-0.040421404
250	0x3be2881d	0.0069131986
251	0xbd0906a1	-0.033453587
252	0xbd0f9b11	-0.035059992
253	0xbca72e51	-0.020407828
254	0xbc2fce8f	-0.0107304
255	0x3c52a198	0.01285591

network_body.observation_encoder.processors.0.conv_layers.0.bias f4 [16]
0	0xbcedba64	-0.029019542
1	0x3cc4e495	0.024034778
2	0xbcf7af92	-0.030235086
3	0xbd91e0fd	-0.07122991
4	0xbd053d26	-0.03252902
5	0x3cfe5974	0.031048514
6	0xbbe63470	-0.007025294
7	0x3d0aed97	0.03391799
8	0xbcb36556	-0.021898907
9	0xbd365532	-0.044514842
10	0xbd13455f	-0.03595483
11	0xbb66f035	-0.003523839
12	0x3d24808c	0.040161654
13	0xbc9e9aca	-0.019360919
14	0xbd1263aa	-0.03573958
15	0x38ef8202	0.00011420624

network_body.observation_encoder.processors.0.conv_layers.2.weight f4 [32, 16, 4, 4]
0	0x3e0b2a7b	0.13590424
1	0x3dd82769	0.10554392
2	0x3da40011	0.08007825
3	0x3d6f5a5e	0.05843579
4	0x3d7fa4ec	0.06241314
5	0x3e3103d7	0.17286621
6	0x3dead68c	0.11466703
7	0x3da30645	0.0796018
8	0x3e0652d9	0.13117541
9	0x3d679425	0.056537766
10	0x3da1c5f0	0.07899082
11	0x3dec922e	0.11551319
12	0x3da893d1	0.08231319
13	0x3d4945b7	0.04913875
14	0x3db90974	0.09035006
15	0x3dd804b0	0.10547769
16	0x3d86ee11	0.06588376
17	0x3e0b1152	0.13580826
18	0x3da6fed6	0.08154075
19	0x3d4c9434	0.049946025
20	0x3c760091	0.0150147835
21	0x3da811a5	0.082064904
22	0x3d38f614	0.045156553
23	0x3d468fea	0.04847709
24	0x3dc6bffd	0.097045876
25	0x3dc34715	0.09535042
26	0x3df26afc	0.11836812
27	0x3df051a0	0.11734319
28	0x3dc485c8	0.09595829
29	0x3db1fd25	0.086908616
30	0x3d152835	0.036415298
31	0x3dd4ac4e	0.10384427
32	0xbd334a33	-0.043771934
33	0x3d02c202	0.0319233
34	0x3d57e098	0.052704424
35	0xbc8dd52e	-0.017313566
36	0x3d54bf7d	0.05194043
37	0xbd246f6a	-0.040145315
38	0xbc6350fb	-0.013874288
39	0x3ca33dac	0.019926868
40	0xbd06faaa	-0.032953896
41	0x3c9a9878	0.01887153
42	0x3d246590	0.04013592
43	0xbbdf15f4	-0.006808037
44	0xbcc95cbc	-0.024580352
45	0xbc7ccc29	-0.015429535
46	0x3d211aff	0.039332386
47	0x3d2c387b	0.04204605
48	0x3d44a569	0.04800931
49	0x3d816b7d	0.0631933
50	0x3cebdef1	0.02879283
51	0x3d3e5784	0.04647018
52	0x3ca32781	0.019916298
53	0x3bd27ffc	0.0064239483
54	0x3da7fecb	0.08202895
55	0x3ce4b9d7	0.027920647
56	0x3d7480c2	0.059693106
57	0x3dab4c91	0.08364213
58	0x3c9fc65e	0.019503769
59	0x3c177aa2	0.009245547
60	0x3dbe8b1d	0.093038775
61	0x3d2674f1	0.040638868
62	0x3da3cd30	0.07998121
63	0x3dd933af	0.10605561
64	0x3df4a7d8	0.11946076
65	0x3d23208d	0.039825965
66	0x3e1f1680	0.15535927
67	0x3da56889	0.08076579
68	0x3daa941e	0.08329032
69	0x3dd9303c	0.10604903
70	0x3e14e471	0.14540268
71	0x3e1bf17b	0.15228836
72	0x3e1611c1	0.1465521
73	0x3e0517a7	0.12997304
74	0x3e2af5ce	0.1669533
75	0x3e1a9781	0.15096857
76	0x3ddbd30f	0.107336156
77	0x3dfd0d3d	0.123560406
78	0x3df89fc2	0.121398464
79	0x3e2180e5	0.15771826
80	0x3d4f65d7	0.05063423
81	0x3d093411	0.03349692
82	0x3dbdd095	0.092682995
83	0x3d1b5104	0.03791906
84	0x3d4eafc6	0.0504606
85	0x3dcbe1e5	0.09955195
86	0x3d154fea	0.036453165
87	0x3db5d357	0.088782005
88	0x3cf9f82f	0.030513851
89	0xbb327c13	-0.0027234599
90	0x3d677d7c	0.056516156
91	0x3d55e404	0.052219406
92	0x3ca62c5f	0.02028483
93	0x3d857d49	0.06518037
94	0xbc5fe98b	-0.013666521
95	0xbc90a68d	-0.017657543
96	0x3e01fe61	0.12694694
97	0x3d048efd	0.032362927
98	0x3d42587c	0.047447667
99	0x3dd9b53d	0.106302716
100	0x3e08c778	0.13357341
101	0x3d4c7d8a	0.04992441
102	0x3e17d6e9	0.14828075
103	0x3d63183c	0.055443034
104	0x3e0088cb	0.12552182
105	0x3db0c42b	0.08631166
106	0x3e12920d	0.14313526
107	0x3dd9dffc	0.10638425
108	0x3d8cb717	0.06870859
109	0x3e07c359	0.13258113
110	0x3d7e4f97	0.06208762
111	0x3df2d006	0.118560836
112	0x3df42d66	0.119227216
113	0x3ddf35ca	0.10898931
114	0x3d759e0c	0.05996518
115	0x3db2dc27	0.08733397
116	0x3e084a9b	0.1330971
117	0x3e1b74db	0.15181296
118	0x3ddeea4a	0.10884531
119	0x3d894f0a	0.06704529
120	0x3daa8d80	0.0832777
121	0x3dbb0a2e	0.09132801
122	0x3e39f743	0.18160729
123	0x3e03da01	0.1287613
124	0x3df3ce70	0.11904609
125	0x3d5b8ff9	0.0536041
126	0x3df25896	0.11833303
127	0x3d8f9f04	0.07012752
128	0x3dcd011b	0.100099765
129	0x3e1dcc01	0.15409853
130	0x3df3515f	0.11880755
131	0x3e01ef14	0.12688857
132	0x3e3c91f0	0.18415046
133	0x3e32bb1f	0.17454194
134	0x3e38a5a2	0.18031934
135	0x3e24c99d	0.16092534
136	0x3dc2f86f	0.09520041
137	0x3df1363f	0.11777925
138	0x3e22a912	0.15884808
139	0x3dfff9df	0.12498831
140	0x3e2e1b39	0.17002572
141	0x3dcb8810	0.09938061
142	0x3e0a172b	0.134854
143	0x3e26d5e0	0.16292524
144	0x3dbc100f	0.091827504
145	0x3c8d4f55	0.017249743
146	0x3d2f3a19	0.042780016
147	0x3cab3903	0.020901209
148	0x3d6cacfc	0.05778216
149	0x3d13aa59	0.036051128
150	0x3c80dccc	0.015730284
151	0x3dd7e973	0.10542574
152	0x3d28e405	0.04123308
153	0x3dce6a82	0.100789085
154	0x3d5af790	0.05345875
155	0x3d29985d	0.04140507
156	0x3dd99321	0.10623766
157	0x3cf6584a	0.030071396
158	0x3d075a73	0.033045243
159	0x3da7f0a5	0.08200196
160	0x3d0ec5b9	0.03485653
161	0x3e1010a8	0.14068854
162	0x3db7c376	0.08972828
163	0x3d3d61e9	0.046235953
164	0x3d992026	0.07476835
165	0x3e17ffd5	0.14843686
166	0x3d8f2fde	0.06991552
167	0x3de8a20a	0.113590315
168	0x3c7e7cd9	0.015532696
169	0x3dbd1191	0.09231866
170	0x3e1c1956	0.1524404
171	0x3d877f49	0.066160746
172	0x3dbc79a0	0.09202886
173	0x3df0c045	0.117554225
174	0x3d9ab6eb	0.0755442
175	0x3da7a196	0.08185117
176	0x3d094dd7	0.0335215
177	0x3db8bb18	0.0902006
178	0x3d83be92	0.06432833
179	0x3da6d90f	0.081468694
180	0x3debf8d4	0.115220696
181	0x3d574165	0.0525526
182	0x3ccf4677	0.025302155
183	0x3dab8e2e	0.08376728
184	0x3dc55c03	0.096366905
185	0x3d8965ae	0.06708847
186	0x3da15e94	0.078793675
187	0x3d3c97e3	0.046043288
188	0x3d09cef9	0.03364465
189	0x398a112a	0.000263342
190	0x3dbfe7b7	0.09370368
191	0x3dee8670	0.11646736
192	0x3c0faa7f	0.008768677
193	0x3dbcbfab	0.09216245
194	0x3ce01b33	0.02735672
195	0x3d970985	0.073748626
196	0x3dcc72c5	0.09982828
197	0x3d8bba36	0.06822626
198	0x3d6838ec	0.05669491
199	0x3d00f6e4	0.031485453
200	0x3df44973	0.11928072
201	0x3ddb628a	0.10712154
202	0x3d179713	0.03700931
203	0x3d1b3da5	0.037900586
204	0x3da060da	0.07830973
205	0x3dea23a7	0.114325814
206	0x3d25a1ac	0.040437385
207	0x3d97b36d	0.074072696
208	0x3e169379	0.14704694
209	0x3e13ce22	0.14434102
210	0x3e216332	0.15760496
211	0x3d964f4f	0.07339346
212	0x3e1807ac	0.14846677
213	0x3de12a24	0.10994366
214	0x3df34512	0.118784085
215	0x3db783b4	0.08960667
216	0x3e319c3c	0.17344755
217	0x3e2c7dbd	0.1684484
218	0x3d768a93	0.06019075
219	0x3e3afe59	0.18261088
220	0x3dd21dee	0.10259615
221	0x3dd6e8d4	0.10493627
222	0x3e018c62	0.12651208
223	0x3d603049	0.05473355
224	0x3dd4d1c5	0.10391573
225	0x3dab9862	0.08378674
226	0x3df94bde	0.12172674
227	0x3dcd4321	0.100225694
228	0x3e1078bb	0.14108555
229	0x3d9abfad	0.075560905
230	0x3dc2d89c	0.09513971
231	0x3dd20702	0.10255243
232	0x3da421af	0.08014237
233	0x3de6151f	0.11234497
234	0x3d71d7e3	0.059043776
235	0x3df84e0e	0.12124263
236	0xb7a44d8d	-1.9586436e-05
237	0x3da75801	0.08171082
238	0x3d0f514d	0.034989644
239	0x3aa33a9a	0.0012453378
240	0x3dd93e26	0.10607557
241	0x3df83ef3	0.121213816
242	0x3d2ec60d	0.042669345
243	0x3c47f53b	0.012204464
244	0x3c2d1197	0.010563276
245	0x3d227bc5	0.039668817
246	0x3def7b1e	0.116934046
247	0x3d851764	0.06498602
248	0x3d655c78	0.05599639
249	0x3ce3f7cc	0.02782812
250	0x3dc3c0e0	0.09558272
251	0x3dd10bb8	0.10207313
252	0x3dd2e31a	0.102972224
253	0x3dcae7fd	0.099075295
254	0x3d1d48d8	0.038399547
255	0x3db4b5ef	0.088237636

network_body.observation_encoder.processors.0.conv_layers.2.bias f4 [32]
0	0xbdb81c29	-0.08989746
1	0xbe152f5c	-0.14568847
2	0xbddb8902	-0.107194915
3	0xbd317721	-0.0433265
4	0xbc91dd21	-0.017805638
5	0x3d989ac0	0.07451391
6	0xbd48ef08	-0.049056083
7	0xbde79fde	-0.11309789
8	0xbdf80535	-0.12110368
9	0x3c84a2a7	0.01619084
10	0xbcb9c073	-0.022674775
11	0xbdda7e6b	-0.106686436
12	0xbd6f91dc	-0.05848871
13	0xbdfdfde4	-0.124019414
14	0x3ba1a269	0.004932691
15	0xbdbbde5e	-0.091732726
16	0xbe4c7ad4	-0.1996873
17	0xbdfde0b4	-0.12396374
18	0xbe13906a	-0.14410558
19	0xbd8ebbe7	-0.06969433
20	0x3bc3a0b5	0.0059700855
21	0xbe5d2abd	-0.21598335
22	0xbe6a02db	-0.22852652
23	0x3e187f81	0.14892389
24	0x3d14e979	0.03635547
25	0xbe2c53f8	-0.16828907
26	0x3d139b89	0.036037
27	0xbcab19cf	-0.02088633
28	0xbd3d3f3c	-0.046202883
29	0xbdb9cca4	-0.09072235
30	0xbe33a8cc	-0.1754486
31	0x3b3718c3	0.0027938343

network_body.observation_encoder.processors.0.dense.0.weight f4 [30, 512]
0	0x3d7b430c	0.061343238
1	0x3d131f70	0.035918653
2	0x3d1ff95b	0.039056163
3	0x3df9c8a7	0.121964745
4	0xbe0961bc	-0.13416189
5	0x3d1f1c67	0.038845446
6	0xbd58aa16	-0.05289658
7	0x3b1c174d	0.00238176
8	0xbd0a8ba6	-0.033824585
9	0x3d286568	0.041112334
10	0xbd028d59	-0.03187308
11	0x3cb3dba2	0.021955315
12	0xbd4872b4	-0.048937514
13	0xbd9d4a7c	-0.076802224
14	0x3d68b01f	0.056808587
15	0x3e1dd0ce	0.15411684
16	0x3d93f236	0.072239324
17	0x3deae984	0.11470321
18	0x3e168845	0.1470042
19	0x3dcf6211	0.101261266
20	0x3e2db430	0.16963267
21	0xbca29ed7	-0.019851131
22	0xbb93f9a1	-0.004515842
23	0x3d5c6d24	0.053815022
24	0xbd68b0be	-0.05680918
25	0x3e0cfaa0	0.13767481
26	0x3e21f2f5	0.15815337
27	0x3d604978	0.054757565
28	0x3bb22412	0.005436429
29	0xbbd5ad19	-0.006520879
30	0x3d40e432	0.047092624
31	0x3d3ea894	0.046547487
32	0x3e2faa05	0.17154701
33	0x3de64c24	0.112449914
34	0xbd0e9356	-0.03480848
35	0x3de5d83c	0.11222884
36	0x3d8e7dee	0.06957613
37	0x3d23ced7	0.03999218
38	0x3db20258	0.08691853
39	0xbc1b3961	-0.009474129
40	0xbca5778c	-0.020198606
41	0x3c9a746f	0.018854348
42	0xbd320581	-0.04346228
43	0x3c5ff168	0.013668396
44	0xbd4bdcb8	-0.04977104
45	0xbd7534dd	-0.059864867
46	0x3da2e3de	0.079536185
47	0xbc9b8aa5	-0.01898701
48	0x3b114f95	0.0022172679
49	0x3d45e8ce	0.048317723
50	0xbd32270f	-0.04349428
51	0x3df7c58b	0.12098225
52	0xbd9a00e6	-0.075197026
53	0xbd814901	-0.063127525
54	0xbd73c58b	-0.059514564
55	0x3cce2abc	0.025166862
56	0xbdaa0e78	-0.08303541
57	0x3cacd706	0.021098625
58	0x3db1a810	0.086746335
59	0x3d1f37db	0.038871627
60	0x3e0856be	0.1331434
61	0xbd77b6a8	-0.06047693
62	0xbe2acd67	-0.16679917
63	0xbb29b3de	-0.0025894563
64	0xbd0c2dad	-0.034223247
65	0x3d892a93	0.066975735
66	0xbd98c83b	-0.07460066
67	0xba62e1a3	-0.00086548383
68	0x3d393954	0.045220688
69	0xbceb0c29	-0.028692322
70	0x3cedf8a2	0.029049221
71	0xbd06edd4	-0.032941654
72	0x3bc597aa	0.0060300427
73	0xbda18244	-0.07886174
74	0xbbda059a	-0.0066535
75	0xbd25c152	-0.040467568
76	0xbbe06858	-0.0068483762
77	0xbdb8f398	-0.09030837
78	0xbdbfc781	-0.09364224
79	0xbd4afe64	-0.049559012
80	0x3ca2ed8e	0.019888666
81	0x3d654794	0.055976465
82	0x3df1fac1	0.11815406
83	0x3d837228	0.06418258
84	0x3d4f184e	0.050560288
85	0x3e201372	0.15632418
86	0x3db8dcac	0.09026465
87	0x3de70232	0.112797156
88	0x3d62034e	0.055178933
89	0x3d63cb9f	0.05561411
90	0x3ca22d00	0.019796848
91	0x3d2759fe	0.040857308
92	0x3dd0439e	0.10169147
93	0x3d3f87ea	0.046760477
94	0xbca788f6	-0.02045105
95	0xbe060b90	-0.13090348
96	0x3de79530	0.11307752
97	0x3d6c8794	0.057746485
98	0x3e0a1f72	0.13488558
99	0xbbcef833	-0.0063162087
100	0x3da7740f	0.08176433
101	0x3d54f158	0.051987976
102	0x3dd7fd32	0.1054634
103	0xbcfc5721	-0.030803265
104	0xbc12db0b	-0.008963357
105	0xbd1de225	-0.038545746
106	0x3da1559e	0.07877658
107	0xbc3d9dcb	-0.011573265
108	0x3d342729	0.04398266
109	0x3d84af26	0.064787194
110	0x3d753fee	0.05987542
111	0x3e145adc	0.14487785
112	0x3dd92664	0.106030256
113	0xbca4e1b9	-0.020127164
114	0x3d94b717	0.07261484
115	0x3cf1a753	0.029498732
116	0x3df54629	0.119762726
117	0xbcc1386f	-0.02358648
118	0x3d4f6bca	0.050639905
119	0xbcc8b1aa	-0.02449878
120	0xbcec7bf5	-0.028867701
121	0xbc6d00c8	-0.014465518
122	0xbd58ad61	-0.052899722
123	0xbb576b0c	-0.0032870201
124	0x3e1c4c85	0.15263565
125	0x3d3c7f0f	0.04601961
126	0x3db4d56b	0.08829769
127	0xb9e3b4ae	-0.0004343143
128	0x3dd43d2d	0.10363231
129	0x3da7393a	0.08165212
130	0x3d58fb90	0.052974284
131	0x3d994f29	0.07485802
132	0xbde67797	-0.11253279
133	0x3dbe4c6e	0.092919216
134	0xbc876fbe	-0.016532775
135	0x3d86355c	0.06553146
136	0xbd3993b5	-0.04530688
137	0x3d2bb725	0.041922707
138	0xbd8e9214	-0.06961456
139	0xbd1c2139	-0.03811762
140	0xbe004211	-0.12525202
141	0x3d4cd31e	0.050006025
142	0xbc54781a	-0.012968088
143	0x3c659f96	0.014015099
144	0x3d9c73b0	0.07639253
145	0x3c407f88	0.011749156
146	0x3dae24f1	0.0850314
147	0x3b7ccf91	0.0038575868
148	0x3cb16491	0.0216544
149	0x3d64b766	0.055838965
150	0x3d5d349d	0.054005254
151	0xbcbd0f53	-0.023078596
152	0x3cd915ee	0.026499715
153	0xbd0102de	-0.031496875
154	0x3d1135b5	0.03545161
155	0x3b8b6108	0.0042535104
156	0x3d44f6f9	0.048087094
157	0x3de2a6d5	0.11066977
158	0xbdffd25e	-0.12491296
159	0x3e234dbc	0.15947622
160	0x3d9ae60c	0.07563409
161	0x3d2b8d7c	0.041882977
162	0x3d6854ba	0.056721427
163	0x3d57027c	0.052492604
164	0x3cdd6c95	0.027029315
165	0xbcfe0390	-0.031007558
166	0xbda74789	-0.08167941
167	0x3c649919	0.013952517
168	0x3b3061a0	0.0026913658
169	0x3ce9b635	0.028529266
170	0x3b739ab7	0.0037171075
171	0x3cb67ed4	0.022277273
172	0xbc759053	-0.014988023
173	0xbd9190fc	-0.07107732
174	0xbd8e5fa1	-0.069518335
175	0x3dbfbc45	0.093620814
176	0x3dadb325	0.08481435
177	0x3b94894d	0.004532969
178	0xbc8ca309	-0.017167585
179	0x3dc4a258	0.09601277
180	0x3d94ba2c	0.07262072
181	0x3dc48022	0.09594752
182	0x3c962dde	0.018332418
183	0x3d17d35d	0.037066806
184	0x3c579fd6	0.013160666
185	0xbdf45005	-0.11929325
186	0x3c8fe756	0.017566364
187	0xbd87f570	-0.0663861
188	0x3cdb228c	0.026749872
189	0xbb1a7d0c	-0.002357307
190	0x3d74294d	0.0596097
191	0x3e01ce61	0.12676384
192	0x3e3199e7	0.17343865
193	0x3d4e4f59	0.05036864
194	0xbd900d68	-0.07033807
195	0x3e1bd2dd	0.15217157
196	0xbbd6dcb2	-0.0065570707
197	0x3d353070	0.044235647
198	0x3d695f07	0.05697539
199	0x3bf8588a	0.007578914
200	0xbdcbd9bd	-0.0995364
201	0xbd522cf4	-0.051312402
202	0x3d9caa68	0.0764969
203	0xbdf0036e	-0.11719404
204	0x3d2942ae	0.041323356
205	0x3dd03d23	0.10167911
206	0x3e479d7b	0.19493668
207	0x3db73eec	0.08947548
208	0x3d9572b0	0.072972655
209	0x3e088a56	0.13334021
210	0x3d2f3ebd	0.04278444
211	0x3dc64aeb	0.09682258
212	0x3d85cb02	0.06532861
213	0x3dcd88dc	0.100358695
214	0xbd4840d6	-0.048889957
215	0x3d21d2b1	0.03950757
216	0x3d274c8d	0.04084449
217	0xbd76a6aa	-0.060217537
218	0x3e0fc0b7	0.14038359
219	0x3e0bb885	0.13644607
220	0x3d03bcda	0.032162525
221	0x3ad4a057	0.0016222101
222	0xbdb431b8	-0.087985456
223	0xbc9265a9	-0.017870741
224	0xbd11cda1	-0.035596494
225	0xbbd08c7e	-0.006364404
226	0x3d80d60b	0.062908255
227	0x3dd40353	0.103521965
228	0x3c444f5e	0.011981813
229	0xbddb454e	-0.10706578
230	0x3cb8775a	0.022517849
231	0x3d24a1b0	0.04019326
232	0x3cc94c06	0.024572384
233	0x3deb47e3	0.11488321
234	0xba5a130d	-0.0008318879
235	0x3e0160fa	0.1263465
236	0x3d3760d8	0.04477009
237	0x3c52c609	0.012864598
238	0xbd0fc6f5	-0.03510185
239	0xbca13987	-0.019680751
240	0x3d267167	0.040635493
241	0x3e07ce9f	0.13262413
242	0x3db83402	0.08994295
243	0x38ab6119	8.172001e-05
244	0x3cd41a1c	0.025891356
245	0x3d9a9c87	0.075493865
246	0x3bee0552	0.007263818
247	0x3e2831bf	0.16425227
248	0x3cdaa621	0.026690545
249	0xbcd64029	-0.02615364
250	0x3d0817b9	0.03322575
251	0xbd88ac1a	-0.06673451
252	0x3c3e1e8e	0.0116039645
253	0x3e33d86d	0.17563029
254	0xbc13c7e8	-0.009019829
255	0x3da85f8f	0.08221351

network_body.observation_encoder.processors.0.dense.0.bias f4 [30]
0	0x3c7f6d1a	0.015589977
1	0xbcd991c1	-0.026558759
2	0xbda2ee50	-0.07955611
3	0xbc6cd1f9	-0.014454358
4	0xbcd9b0b0	-0.026573509
5	0xbda25907	-0.07927137
6	0xba28e84c	-0.00064433063
7	0xbc9c5a80	-0.019086123
8	0xbd5ba6f1	-0.053626005
9	0xbda87279	-0.08224959
10	0xbca4ee13	-0.020133054
11	0xbcd04a32	-0.025426004
12	0xbdc38045	-0.0954595
13	0xbdc641e4	-0.096805364
14	0xbb945877	-0.0045271474
15	0xbd3a0aea	-0.045420565
16	0xbd95e6d9	-0.07319421
17	0xbd7e9531	-0.062154
18	0xbd1c34a8	-0.038136154
19	0x3baf4068	0.005348254
20	0xbd57da9f	-0.052698728
21	0xbd792b18	-0.060832113
22	0xbd61ffe3	-0.055175673
23	0x3cd4309d	0.025902087
24	0xbdfb6c3a	-0.12276502
25	0xbd6b2b47	-0.05741432
26	0xbcfc4295	-0.030793468
27	0xbd17bc7d	-0.03704499
28	0xbd5439ee	-0.05181306
29	0x3cfd7060	0.030937374

network_body._body_endoder.seq_layers.0.weight f4 [30, 33]
0	0x3e33402a	0.17504945
1	0x3ca5f3c0	0.02025783
2	0x3edef141	0.43543437
3	0x3c964a5c	0.018346004
4	0x3e1d056c	0.153341
5	0x3db93625	0.090435304
6	0x3dda1f5d	0.10650513
7	0x3e603eb8	0.21898925
8	0x3de31cf6	0.11089508
9	0xbd000cb4	-0.031262115
10	0x3d342e92	0.043989725
11	0x3c05c114	0.008163709
12	0x3e29e8f7	0.16592775
13	0xbe2237c7	-0.1584159
14	0xbdf6d929	-0.12053139
15	0x3d6c6b6f	0.057719644
16	0x3e144469	0.14479221
17	0xbd868395	-0.06568066
18	0x3e33eb2a	0.17570177
19	0x3d4b1278	0.04957816
20	0x3ddfc828	0.10926849
21	0xbd426218	-0.04745683
22	0xbe60d276	-0.21955284
23	0xbe72d599	-0.23714294
24	0x3d10c5c1	0.035344843
25	0xbc02610f	-0.007957711
26	0x3e527c2f	0.20555185
27	0x3e5554fc	0.208332
28	0x3c9b9888	0.018993631
29	0x3eaa2014	0.332276
30	0xbe92db8b	-0.28683123
31	0x3f3e2345	0.7427257
32	0x3d96c616	0.07362001
33	0xbe2e87a0	-0.17043924
34	0xbe6742b6	-0.22584042
35	0x3e655a2f	0.22397684
36	0xbdd88953	-0.105730675
37	0x3d596810	0.053077757
38	0x3ea9df6e	0.33178276
39	0xbe351350	-0.17683148
40	0xbd52bc20	-0.05144894
41	0xbbf25380	-0.007395208
42	0xbcc717dc	-0.02430337
43	0x3dd3a300	0.10333824
44	0x3d325959	0.04354224
45	0x3e77ef89	0.24212469
46	0x3d920421	0.07129694
47	0xbe741f48	-0.23840058
48	0xbe0ac5ed	-0.13552065
49	0xbc68a95c	-0.014200535
50	0xbc8634e9	-0.016382651
51	0x3daa8051	0.08325256
52	0x3e0ff152	0.140569
53	0x3d1fc2d8	0.039004177
54	0xbe3201e7	-0.17383538
55	0x3e7ba0ce	0.24573061
56	0x3d97f5c6	0.074199244
57	0x3e630d28	0.22172987
58	0xbe3b1408	-0.1826936
59	0x3e89a439	0.26883104
60	0xbdb23e9d	-0.08703349
61	0xbe2f070b	-0.1709253
62	0x3dd4e96e	0.10396086
63	0x3e3f7b50	0.18699384
64	0xbf8a2130	-1.0791378
65	0x3dbc9c01	0.09209443
66	0x3d8dcb27	0.06923514
67	0xbd390c09	-0.045177493
68	0xbe805f7b	-0.25072846
69	0x3da92b65	0.0826023
70	0xbe0b28f7	-0.13589846
71	0xbddb7b39	-0.10716862
72	0x3d85d35f	0.065344565
73	0xbe3ddbb3	-0.1854084
74	0x3d0768fb	0.0330591
75	0xbca6e23a	-0.020371545
76	0x3e08b6ec	0.13351029
77	0xbea4844a	-0.3213218
78	0x3e18996d	0.14902277
79	0xbd03620a	-0.03207592
80	0xbd8e7b2c	-0.06957087
81	0xbe9edf8a	-0.31029922
82	0x3e1fd178	0.1560725
83	0xbe60b0f3	-0.21942501
84	0x3e4639ab	0.19357936
85	0xbde98891	-0.11403001
86	0x3d418ff2	0.047256418
87	0xbe6429f3	-0.22281627
88	0xbe0b65ce	-0.13613054
89	0x3ddfb738	0.10923618
90	0x3d4df139	0.050278876
91	0x3bae80dd	0.0053254203
92	0xbe93374b	-0.28753123
93	0xbda2dfdd	-0.07952855
94	0x3e895d44	0.2682897
95	0x3e687731	0.22701718
96	0x3eb759a9	0.35810593
97	0xbd92b284	-0.071629554
98	0x3ed4bf69	0.41552284
99	0x3e881c93	0.265843
100	0x3e39bdf7	0.18138872
101	0x3e134753	0.14382677
102	0x3e3f8c75	0.18705924
103	0xbdde2a97	-0.10847967
104	0xbe6b4cd5	-0.22978528
105	0x3c700063	0.01464853
106	0xbd693549	-0.056935582
107	0x3da42ae2	0.08015992
108	0x3b0b0823	0.0021214567
109	0x3d87381a	0.066024974
110	0xbdfb09b7	-0.12257712
111	0xbe309f37	-0.17248236
112	0xbe592eca	-0.21209255
113	0x3e4bfb4a	0.19920078
114	0xbe4afc19	-0.1982273
115	0x3d4e4d4c	0.050366685
116	0x3e0b12eb	0.13581435
117	0xbbd24886	-0.006417337
118	0x3e5d9239	0.21637811
119	0xbd782019	-0.060577486
120	0xbcbf2df7	-0.023337347
121	0xbde256f0	-0.11051738
122	0xbdec4fa2	-0.11538626
123	0xbc8e0b4d	-0.017339373
124	0x3dd18434	0.10230294
125	0xbe882509	-0.26590756
126	0xbcaa9088	-0.020820871
127	0xbe9d995b	-0.30781063
128	0xbdd693bb	-0.10477396
129	0xbe3dfae2	-0.18552735
130	0x3f87685a	1.057872
131	0x3d8aaccf	0.06771242
132	0x3db42977	0.08796971
133	0xbec165a9	-0.37772873
134	0xbd6e4ef1	-0.058180753
135	0xbdafced6	-0.08584373
136	0xbdb00eca	-0.08596571
137	0x3e8a3cd4	0.26999533
138	0xbe23c982	-0.15994838
139	0xbd05f19c	-0.03270112
140	0xbe073558	-0.13203943
141	0x3e5d2fed	0.21600313
142	0xbe491d53	-0.19640093
143	0xbc53f1ee	-0.0129360985
144	0x3e33298e	0.1749632
145	0xbb915a36	-0.004435803
146	0xbe816b50	-0.25277185
147	0xbe6aa735	-0.22915347
148	0x3d4151e2	0.04719723
149	0xbdba2194	-0.09088436
150	0xbe4e2d75	-0.20134528
151	0xbda9d72f	-0.08292996
152	0x3dd92974	0.1060361
153	0xbd285be1	-0.041103248
154	0x3e48ddd4	0.1961587
155	0x3de0f5e7	0.10984402
156	0x3e0128bb	0.12613194
157	0xbe0fde80	-0.14049721
158	0xbcf78412	-0.030214343
159	0x3e5146a4	0.20437104
160	0x3d7f3052	0.06230194
161	0xbe47802a	-0.19482484
162	0x3d56e6ea	0.05246631
163	0x3f22e561	0.63631254
164	0x3dc0492f	0.09388959
165	0xbe761ff9	-0.24035634
166	0x3e205c74	0.15660268
167	0xbd1121bb	-0.03543256
168	0x3e2c1d16	0.1680797
169	0x3e9f24ac	0.31082666
170	0x3d7fc37e	0.062442295
171	0xbd02e5de	-0.0319575
172	0xbea95660	-0.3307371
173	0x3cee4e00	0.029089928
174	0xbd6891ff	-0.056779858
175	0xbe69f15c	-0.22845978
176	0xbe95ac5c	-0.29233062
177	0x3e3c472e	0.18386528
178	0x3e6ebe12	0.23314694
179	0x3e574e73	0.2102602
180	0x3a88b529	0.0010429966
181	0xbd8b250e	-0.06794177
182	0xbd04c7cc	-0.032417104
183	0x3e176595	0.14784844
184	0xbe5244ca	-0.20534053
185	0x3d88dd1e	0.066828
186	0xbd42d5e8	-0.04756728
187	0x3e08ec5b	0.13371412
188	0xbed66114	-0.4187094
189	0xbe3b7709	-0.18307127
190	0x3e6bec72	0.23039415
191	0x3e401aa6	0.18760166
192	0xbe0eab84	-0.13932616
193	0x3e471990	0.19443345
194	0x3ccae963	0.02476949
195	0xbe33828b	-0.17530267
196	0xbe27e807	-0.16397105
197	0xbe114cc5	-0.14189442
198	0xbec66572	-0.38749272
199	0x3e213138	0.15741432
200	0x3d4fbcce	0.050717168
201	0x3dfd1526	0.12357549
202	0x3be100f9	0.006866571
203	0x3e8a8e01	0.27061465
204	0x3e810e90	0.25206423
205	0x3e981713	0.29705104
206	0x3dbb99a1	0.09160162
207	0xbd56c867	-0.052437212
208	0xbe1bec3e	-0.15226838
209	0xbe4fc59f	-0.2029023
210	0x3e57dd92	0.21080616
211	0x3dbc4ce1	0.09194351
212	0x3d557583	0.05211402
213	0xbe836d28	-0.25669217
214	0x3ece8c2a	0.40341312
215	0xbded6ec2	-0.11593391
216	0x3d4124e5	0.047154326
217	0xbe7b0bb9	-0.2451619
218	0xbc8ce5a3	-0.017199343
219	0x3be628ed	0.0070239217
220	0xbd83e242	-0.0643964
221	0xbe46b542	-0.19405082
222	0x3de0e59c	0.109812945
223	0x3e39fe3e	0.18163392
224	0xbc7ee7d1	-0.015558199
225	0x3c76ac53	0.015055734
226	0x3e2e4ae0	0.1702075
227	0x3eba7acc	0.36421812
228	0xbecc0198	-0.39844966
229	0x3ba0bc0e	0.0049052304
230	0x3dfce63e	0.12348603
231	0xbddf9050	-0.10916197
232	0x3d975baf	0.07390534
233	0x3d816a7c	0.063191384
234	0x3d3403aa	0.043948807
235	0x3e4a8334	0.19776613
236	0xbd852b1e	-0.065023646
237	0xbe2ef6e1	-0.17086364
238	0xbe788312	-0.2426875
239	0xbc30f3f4	-0.01080035
240	0x3de85b5f	0.11345553
241	0xbd1ff584	-0.0390525
242	0xbc60e877	-0.013727299
243	0x3e02904b	0.12750356
244	0x3bdde4fa	0.006771681
245	0xbe095051	-0.13409545
246	0x3ebe7118	0.3719566
247	0xbd083610	-0.033254683
248	0x39ffde24	0.00048802898
249	0x3dcf49af	0.10121476
250	0x3d447232	0.047960468
251	0x3cb575fe	0.02215099
252	0xbe054675	-0.13015158
253	0x3e538ef8	0.20660007
254	0x3e0aca78	0.13553798
255	0xbe7f3436	-0.2492226

network_body._body_endoder.seq_layers.0.bias f4 [30]
0	0x3d0c774b	0.034293454
1	0x3d4a09d5	0.049325783
2	0x3d944c8b	0.07241162
3	0x3d92d5e4	0.07169703
4	0xbc7621ab	-0.0150226755
5	0xbe3308cd	-0.17483826
6	0xbe77c6b7	-0.24196897
7	0x3d5c139e	0.053729646
8	0xbcec4bcd	-0.028844738
9	0xbddad5f0	-0.106853366
10	0x3d87322d	0.06601367
11	0x3dcf70d8	0.10128945
12	0xbe2e0bff	-0.16996764
13	0x3d156e39	0.03648207
14	0x3cce3ba7	0.025174929
15	0xbd14f4be	-0.036366217
16	0x3d0b5aa3	0.034021985
17	0xbdce6bc7	-0.10079151
18	0x3bbd0793	0.005768725
19	0xbe299e3e	-0.16564271
20	0x3da8dc20	0.082451105
21	0x3dd4f11b	0.1039755
22	0xbc4651d6	-0.012104472
23	0x3d7da448	0.06192425
24	0x3c87132d	0.016488636
25	0x3db71e06	0.089412734
26	0x3d0d3dba	0.034482695
27	0x3c9dee4b	0.019278666
28	0xbc7ae89d	-0.015314248
29	0x3d7bc164	0.06146373

network_body._body_endoder.seq_layers.2.weight f4 [30, 30]
0	0x3e808c7e	0.25107187
1	0xbe2ac52a	-0.16676775
2	0x3e74afa5	0.23895128
3	0x3ef2075b	0.47271237
4	0x3e144fb5	0.14483531
5	0xbd5c83a5	-0.053836484
6	0x3e9b4d63	0.3033248
7	0x3ea99a8b	0.3312572
8	0xbebf1018	-0.37316966
9	0x3ddfade4	0.10921839
10	0xbc476d3a	-0.012172038
11	0x3e9b052a	0.30277377
12	0xbe622210	-0.22083306
13	0xbdfc1974	-0.12309542
14	0xbee241a6	-0.4419071
15	0xbc6ab0a8	-0.014324345
16	0xbf0dfe85	-0.5546649
17	0xbe404e1e	-0.187798
18	0xbd0cd794	-0.03438528
19	0xbea9a4af	-0.33133456
20	0x3e2c770c	0.16842288
21	0xbea516a9	-0.3224385
22	0xbe684ec9	-0.22686304
23	0x3e1a9f88	0.15099919
24	0xbc402a87	-0.011728889
25	0xbd89fff4	-0.06738272
26	0x3c73253f	0.014840423
27	0x3e847e50	0.2587762
28	0xbe919d89	-0.28440502
29	0xbed89153	-0.42298374
30	0xbd8d1816	-0.0688936
31	0x3e7b68db	0.24551718
32	0xbcf1f23a	-0.029534448
33	0xbe305ad0	-0.17222142
34	0xbe01e65d	-0.12685533
35	0x3ea15c6d	0.31515828
36	0xbec1047f	-0.37698743
37	0xbed1bb38	-0.4096315
38	0x3e59325a	0.21210614
39	0x3e3f86b0	0.18703723
40	0xbde95536	-0.11393206
41	0x3c04e7a8	0.008111872
42	0xbe4a47bf	-0.19753931
43	0x3d863ca6	0.065545365
44	0x3ec7d0f9	0.3902662
45	0x3e1225fa	0.142723
46	0x3f439680	0.7640152
47	0x3daed22c	0.08536181
48	0x3e44261b	0.19155161
49	0xbda75020	-0.081695795
50	0xbe7f6d6a	-0.24944082
51	0xbb405634	-0.0029348256
52	0x3f259a06	0.64688146
53	0xbeae1944	-0.3400365
54	0x3dc1c459	0.094612785
55	0x3dc28349	0.09497697
56	0xbdde9113	-0.108675145
57	0x3da1ee9c	0.07906839
58	0x3e69535b	0.22785704
59	0x3e14c0df	0.145267
60	0x3d0efd99	0.03490982
61	0xbe23e0d6	-0.16003737
62	0x3e8904e7	0.26761553
63	0x3eb5d4e9	0.35514
64	0x3e7cf910	0.24704385
65	0xbd809757	-0.06278866
66	0xbe7f5e15	-0.24938233
67	0xbd380dd6	-0.04493507
68	0xbe9c8305	-0.3056871
69	0xbe67b319	-0.22626914
70	0x3ecfb6d6	0.4056918
71	0x3eb52cfc	0.35385883
72	0xbec2e7b3	-0.38067397
73	0x3e97567f	0.2955818
74	0xbe789fa6	-0.24279651
75	0x3ed87612	0.4227758
76	0xbf08546c	-0.5325382
77	0xbebe404c	-0.3715843
78	0x3e604864	0.21902615
79	0x3dbb5302	0.09146692
80	0x3e756133	0.2396286
81	0xbe7dacda	-0.24772969
82	0xbe8d7e71	-0.2763553
83	0x3e5b369a	0.21407548
84	0x3de7ecff	0.113245
85	0x3bbd5a1e	0.005778565
86	0x3e79475a	0.24343625
87	0x3efb0996	0.4903075
88	0xbe0f0f84	-0.13970762
89	0xbe53897f	-0.2065792
90	0xbe7c9c44	-0.24668986
91	0x3f3598a1	0.7093602
92	0x3eb72f11	0.35778096
93	0x3d8614a3	0.06546905
94	0xbe0e4ed6	-0.13897261
95	0xbe063be6	-0.13108787
96	0xbe70982d	-0.2349555
97	0xbe504fcb	-0.20342939
98	0xbe229e71	-0.15880753
99	0x3e1bdc81	0.15220834
100	0xbeb6ec6f	-0.3572726
101	0xbea5fc19	-0.32418898
102	0x3e06f7fa	0.13180533
103	0x3b869b0e	0.0041078394
104	0xbe72fa9a	-0.2372841
105	0x3e7b9f1a	0.24572411
106	0x3f360605	0.71102935
107	0x3e2ecfe5	0.17071493
108	0x3e6c5fcd	0.2308342
109	0x3e528324	0.20557839
110	0x3c41c47c	0.011826631
111	0xbe67dfd6	-0.2264398
112	0x3e797716	0.24361834
113	0xbdd8c3a1	-0.10584188
114	0x3e892223	0.26783857
115	0x3d0d5f7b	0.034514885
116	0xbebc5129	-0.3678067
117	0x3c044703	0.008073571
118	0xbe2bacd6	-0.1676515
119	0x3dd3e841	0.10347033
120	0xbde8f802	-0.11375429
121	0x3d2cbe8b	0.042173903
122	0xbe319805	-0.17343147
123	0xbec344b2	-0.38138348
124	0xbdce4323	-0.10071399
125	0x3d39206f	0.045196947
126	0x3e03b51f	0.12862061
127	0xbd975a54	-0.073902756
128	0x3e2b2dd0	0.16716695
129	0xbe6aba2a	-0.22922578
130	0xbe12d3c4	-0.14338595
131	0x3e56516d	0.20929499
132	0xbdf3597d	-0.11882303
133	0x3dca88b9	0.09889359
134	0x3dcf0882	0.101090446
135	0xbcbc8563	-0.023012822
136	0x3e8df0ed	0.27722874
137	0xbe63b7c8	-0.22238076
138	0x3dfa98c3	0.12236168
139	0x3e14f0e2	0.14545015
140	0x3e64c37d	0.22340198
141	0x3f1de61e	0.61679256
142	0x3e969052	0.29406983
143	0x3d8e4152	0.069460526
144	0xbe0aa8db	-0.13540976
145	0x3f17080c	0.58996654
146	0xbe06990a	-0.13144317
147	0x3e4ea345	0.2017947
148	0xbed1b927	-0.40961573
149	0x3e9a25bd	0.30106917
150	0xbed2d8cc	-0.41181028
151	0x3e56ec99	0.20988692
152	0x3eb6a7a8	0.35674787
153	0xbe21a021	-0.1578374
154	0x3e6f2112	0.23352459
155	0x3d4cba61	0.049982432
156	0xbd956cfc	-0.07296178
157	0x3e0e1649	0.13875689
158	0x3e0da287	0.1383153
159	0x3f157091	0.5837489
160	0x3e36ee60	0.1786437
161	0xbf627505	-0.8845981
162	0xbdfaa68a	-0.12238796
163	0xbc8d88ee	-0.017277207
164	0xbe480e39	-0.19536676
165	0x3ec2098e	0.37897915
166	0xbdf89dd8	-0.12139481
167	0x3d67294b	0.056435864
168	0xbf1d8c73	-0.61542434
169	0x3f0d6346	0.55229604
170	0xbc122963	-0.008921
171	0xbf2a6ac4	-0.6656916
172	0xbe0a9834	-0.13534623
173	0x3e50c403	0.20387273
174	0x3f2f658f	0.6851434
175	0xbf32d644	-0.69858193
176	0xbedd5ff1	-0.4323726
177	0xbf108102	-0.5644685
178	0xbe0b1259	-0.13581218
179	0xbeb85923	-0.36005506
180	0xbcc26193	-0.023728168
181	0x3e0660ff	0.13122939
182	0xbf432a74	-0.76236653
183	0xbe3ef750	-0.1864903
184	0xbe8fab4d	-0.2806038
185	0x3de007a1	0.10938955
186	0xbdd5fe1e	-0.1044886
187	0x3ddf4148	0.10901123
188	0x3e9d23bd	0.3069133
189	0xbc2223a1	-0.00989619
190	0xbe9abbdc	-0.3022145
191	0xbe0138cc	-0.12619323
192	0xbd634803	-0.055488598
193	0xbec38f89	-0.38195446
194	0x3e3c7fd0	0.18408132
195	0x3ca54372	0.020173762
196	0x3ed77f61	0.4208937
197	0xbecf6a77	-0.40510914
198	0xbd90edfa	-0.070766404
199	0xbe899929	-0.26874664
200	0xbdedb8f5	-0.116075434
201	0x3d8e8375	0.06958667
202	0x3e8e9c39	0.27853563
203	0xbe98cf75	-0.29845777
204	0xbcde9b88	-0.027173772
205	0x3e37a452	0.17933777
206	0xbe77455d	-0.24147554
207	0x3df46a83	0.11934378
208	0x3b7d133b	0.0038616199
209	0x3ea3c917	0.31989357
210	0xbe36c36d	-0.17847987
211	0x3f24f096	0.64429605
212	0x3c8dad2d	0.01729449
213	0xbe7c5493	-0.24641638
214	0xbeb6a1e2	-0.35670382
215	0xbe634e80	-0.22197914
216	0x3cda46a3	0.02664501
217	0xbe733fca	-0.23754802
218	0x3eb549f2	0.35407978
219	0xbd9ba04f	-0.07598936
220	0xbadc2369	-0.0016795221
221	0xbdbe4ee8	-0.09292394
222	0xbec36a9d	-0.38167277
223	0xbef6cf7a	-0.48205167
224	0x3e98f968	0.29877782
225	0x3cbaebe3	0.022817558
226	0x3f195d12	0.5990764
227	0x3e9edd5b	0.31028256
228	0x3ed67da2	0.41892725
229	0xbe628f60	-0.22125006
230	0x3d1bc41d	0.038028825
231	0x3e9d6a3c	0.30745113
232	0x3e6bd038	0.23028648
233	0xbeda79a1	-0.4267092
234	0xbd137725	-0.036002297
235	0x3e9de936	0.30841988
236	0xbdd98084	-0.106202155
237	0xbeba9812	-0.36444145
238	0xbbe87606	-0.0070941476
239	0x3ea88a54	0.32918036
240	0xbf1f5f1d	-0.62254506
241	0x3ea1577f	0.31512067
242	0x3e877623	0.2645732
243	0xbe4c9706	-0.19979486
244	0xbf1a718d	-0.60329515
245	0x3e78a548	0.242818
246	0xbbb0f969	-0.0054008258
247	0x3d8df26c	0.06931004
248	0xbdeb0605	-0.114757575
249	0xbe498cb4	-0.1968258
250	0xbec87714	-0.3915335
251	0xbc35e243	-0.011101308
252	0x3e4e1e8c	0.2012884
253	0xbd985179	-0.07437415
254	0x3e5cf777	0.21578775
255	0xbe800e42	-0.25010878

network_body._body_endoder.seq_layers.2.bias f4 [30]
0	0x3d0dd781	0.03462935
1	0xbd0d1c88	-0.034451038
2	0x3da96c45	0.08272604
3	0x3c4ec3bf	0.012619912
4	0x3dd31153	0.10306039
5	0x3d7d493e	0.061837427
6	0x39c57259	0.00037659964
7	0xbbc3ceb0	-0.005975567
8	0xbc0c340a	-0.008557329
9	0x3dd5904d	0.10427914
10	0x3db7e8c5	0.08979944
11	0x3de5fe1e	0.1123011
12	0x3be60809	0.007020001
13	0xbc3ff0a0	-0.011715084
14	0xb9d0d97c	-0.0003983489
15	0x3d01b946	0.03167083
16	0x3d7d049c	0.061771974
17	0xba730301	-0.0009270162
18	0x3d2af16d	0.041734148
19	0x3d2df35d	0.042468417
20	0xbb6ed6c2	-0.0036443924
21	0x3dc6f1f3	0.09714117
22	0x3df8d699	0.12150306
23	0x3d209c56	0.039211594
24	0x3d66906a	0.056290068
25	0x3d9d992a	0.07695229
26	0x3d5171a0	0.051133752
27	0xbcc7bd0a	-0.024382133
28	0xbd0fca33	-0.03510494
29	0x3c7f6b10	0.0155894905

action_model._continuous_distribution.log_sigma f4 [1, 2]
0	0x3df25a6b	0.11833652
1	0xbd92a80e	-0.0716096

action_model._continuous_distribution.mu.weight f4 [2, 30]
0	0x3cae3167	0.021263791
1	0xbd36921b	-0.04457293
2	0xbbf90fca	-0.007600759
3	0xbe7cd0bf	-0.24689005
4	0x3df184ab	0.117928825
5	0xbed1c1a2	-0.40968043
6	0x3d55b7b5	0.05217715
7	0xbd21237f	-0.039340492
8	0xbdc48f02	-0.09597589
9	0x3dd051cc	0.101718515
10	0x3d61c3f0	0.0551185
11	0x3ae2d92d	0.0017307155
12	0xbe97170b	-0.29509768
13	0xbe6c0465	-0.23048551
14	0xbd8c718b	-0.06857594
15	0xbe68e3a7	-0.22743092
16	0x3cdfacdf	0.027304111
17	0x3db3cfb3	0.0877985
18	0xbd629240	-0.055315256
19	0x3ea1a022	0.31567484
20	0x3d56507f	0.05232286
21	0xbbbed403	-0.0058236136
22	0x3c5e6d1f	0.013575821
23	0x3d0cf9ad	0.034417797
24	0xbd45322e	-0.04814356
25	0x3dc24aa4	0.09486893
26	0xbe1c5c54	-0.15269595
27	0xbe13b69f	-0.14425133
28	0xbc37147e	-0.011174319
29	0x3cff5490	0.031168252
30	0x3e91ea75	0.2849919
31	0xbe81b6e5	-0.2533485
32	0x3e62eed9	0.22161426
33	0xbdf321c6	-0.11871676
34	0xbe19c339	-0.15015878
35	0x3da83e05	0.08214954
36	0xbe635273	-0.2219942
37	0xbec1143a	-0.37710744
38	0xbe773374	-0.24140722
39	0x3e708995	0.23489983
40	0x3e76dd5b	0.24107878
41	0x3e86100f	0.26184127
42	0xbe9db498	-0.30801845
43	0xbebd0ba0	-0.36922932
44	0xbec12cd1	-0.37729505
45	0xbef44bc8	-0.47714067
46	0x3e39d2f2	0.18146876
47	0xbe8e82fc	-0.27834308
48	0xbe439f43	-0.19103722
49	0x3cd41a41	0.025891425
50	0x3df1bf83	0.11804106
51	0x3e83d3c1	0.25747493
52	0x3e967064	0.29382622
53	0x3e2133c8	0.15742409
54	0x3e6d4664	0.23171383
55	0x3e6e597d	0.23276325
56	0x3e534213	0.20630674
57	0x3e1d6231	0.15369488
58	0xbea6a5b7	-0.32548305
59	0xbee9ba6c	-0.4565004

action_model._continuous_distribution.mu.bias f4 [2]
0	0x3d1cff94	0.038329676
1	0x3dddd2cb	0.10831221
