Assets/ML-Agents/Training Files/results/9roads_gridSensor_noRotation_ppo_1layer/VehicleAgent/VehicleAgent-16499686.onnx (onnx, 88197 bytes, 11 tensors)

network_body.observation_encoder.processors.0.conv_layers.0.weight f4 [16, 3, 8, 8]
00000000: 1b18 8cbd 1e87 b23d f419 b5be 7113 99bd
00000010: 88a7 093e 2c6e 2b3d 6efa 033e 3def adbd
00000020: 5505 eb3e 17ab a63d 9f1d 513e d70c 25be
00000030: d5ed 5cbe 749c ddbd 4a77 b8be 5087 4bbe
00000040: 2986 d73e 8afd f13d 43c8 7b3d ebb9 d63c
00000050: 7612 f7bd 93b2 bf3d 8b3b ab3c dbdd 2d3d
00000060: 445f 8c3e d411 6ebb 1678 b2bd fbee 09be
00000070: 11df 61be 3e2b e9bd 0eb9 fabd 2679 d1bc
00000080: 9eec 893e 0c43 623e eb9f c33b 4976 913e
00000090: 282a 943c ded5 9f3e 2c49 ae3d 287a 473e
000000a0: 5ccd ac3c c202 4c3e b60c 2bbd be25 923e
000000b0: 8034 9ebd aba7 76bd 25d2 f5be 546d 9f3d
000000c0: 20d3 98bd 53b2 54bc 32bf 04be 498d cfbb
000000d0: 7272 bcbd ce6b c7be 83db 71bf a8e4 d0be
000000e0: 107a b4bc d16e 91bc 8c9f 8dbc 21a0 163e
000000f0: befc 363e b09a b6be b273 18bf 8253 353e
00000100: 7423 0cbc 943d 6cbe 5123 733d 88ee 2a3e
00000110: 180d 61bd 7daa 613d 691a 9bbd b0ac 0e3e
00000120: 73ea 9bbd 82c3 a7bc e4bd 0a3c cc7c 4c3e
00000130: a3dc a13c 7198 fbbb 8b93 773d 447e f7bb
00000140: 93c8 743e 18a7 453e e32c 253d 51c6 8a3e
00000150: e79f a9bd af9c 46bd 2bf0 9ebd fa8f d8bd
00000160: 35c0 203e 7d58 5d3e 47b7 583d 29dc 223e
00000170: 178c a73d b8ce 2abe a2f9 4abe 1205 2abe
00000180: 9d42 013e 8a2f c3bc c862 66bd ac0d cd3d
00000190: b74d adbd fb90 4ebd 3f1c 00be e83f 1fbe
000001a0: 932b 4f3e a249 b4bd ac40 2b3b a86a d4bc
000001b0: f2a5 17be b689 ee3b 153c b03d 5ed7 74bd
000001c0: 12ba dd3d 64f1 acbc 1b39 52ba c387 92bd
000001d0: bc53 10be 262c 8dbc 168d 68ba 7ef4 013d
000001e0: 1139 343e 555a 173d b09f 513e 761b 833e
000001f0: 2d20 41bd 0d23 1d3e 2857 863c 5d34 4fbe
00000200: bafd 273f af71 023e c6de d33d a737 993d
00000210: 7cdb 10bd 9c30 a5bd 9ea9 bebd 70c1 a83c
00000220: 1668 9ebd 74b8 2abe 4989 eabe 2b78 b03e
00000230: ed64 2a3e 4b4d 073b e707 f4bd 0d52 c4bd
00000240: 6dec 48be d207 abbd 5883 37bf ee1b 56bd
00000250: 7ee0 3a3e ea8a 6fbe 26fd fdbd 2f43 48bd
00000260: d7a3 91be 6208 d9be 3c3b 3ebf a500 2f3d
00000270: d651 593e f121 823d b67a 4ebd 0800 47be
00000280: 790f e1be c197 83be bd68 6bbf 3bc4 47bf
00000290: ac24 4c3d e819 0bbe 2b63 3a3d c8e5 f63e
000002a0: f185 41bf 3ad3 aabe a469 b8be 3688 90be
000002b0: 151a abbd 1084 983e d131 4c3e 56bd e83d
000002c0: 446a 5fbe 1d44 81bd d02c 15be 0633 263e
000002d0: fa92 0e3e 975c dc3e fef4 3f3f 3aee b73e
000002e0: ba45 80be f4c0 9ebe 1fe8 1dbf 0c96 a4be
000002f0: c362 37be 5687 863e 5be3 893d c1ef debc
00000300: bd56 b3bc ea01 13be 8e84 c23b a8dd cdbe
00000310: a6c5 8ebe 30eb a7be 45d2 06be 0d05 26bd
00000320: d52c 363e edb9 6ebe f58d b73d 4059 85bd
00000330: 9c17 b0be bc19 e5be 362a 33bf 174d a9bd
00000340: caba 013e 9c9b 03bf a2c2 d2bd 8e9e 613d
00000350: 96e3 283b 35c0 1bbf f4bc f3be 0cba 423e
00000360: 04ce 69be a9bf 9abe a439 a7be 6aa2 5abe
00000370: 5352 66be cd33 d1be 8ec2 4abe 9b7a ab3e
00000380: 5ce5 fdbd fa0a 44be 24d4 7abe 133e 1fbd
00000390: 0353 89bd 75c6 3d3e 4b07 d43d a56b 903e
000003a0: 8bc3 4dbe 7991 7dbe 5ee6 4f3d 7162 4dbd
000003b0: ac8e 5abd dab4 f63d f1fa 27bd 5d50 143b
000003c0: 3b73 923c 803d b83c 5b09 51bd be6c 4d3b
000003d0: ff1f 0abe a6ad e1bd ce58 c9be 68cb e1be
000003e0: 5eb3 4d3b 96cd 1bbe d346 14be 664b e33d
000003f0: 0ff7 d73d 11af 083f 8431 313e 5240 07bd
-0.06840535 0.08717178 -0.35371363 -0.07474411 0.13442814 0.041853115 0.128885 -0.08492897
0.45902506 0.081381015 0.20421456 -0.1611818 -0.215751 -0.10820857 -0.3602851 -0.19875836
0.42094544 0.11815937 0.06147028 0.0262117 -0.12064068 0.09360232 0.020902416 0.042447906
0.27416432 -0.0036326544 -0.08714311 -0.1347007 -0.2205775 -0.11385201 -0.12242328 -0.025570463
0.26938337 0.22095889 0.0059699914 0.28410557 0.018086508 0.31217855 0.0851005 0.19480193
0.021094017 0.19922927 -0.04176017 0.2854442 -0.07724857 -0.060218494 -0.4801189 0.077845246
-0.07462144 -0.012981969 -0.1296356 -0.006333981 -0.09201516 -0.38949436 -0.94475573 -0.4079945
-0.02203086 -0.017753037 -0.017287992 0.14709522 0.17869851 -0.35664892 -0.5955154 0.17707637
-0.008553375 -0.23070365 0.059359852 0.16692555 -0.054944128 0.05509423 -0.07573397 0.13933063
-0.07613077 -0.020478968 0.008468125 0.19969481 0.019758528 -0.0076780845 0.060443442 -0.007552894
0.23904638 0.19302022 0.04032601 0.27104428 -0.08282452 -0.04848927 -0.07760652 -0.10574336
0.15698321 0.21615787 0.052909162 0.15904297 0.08181017 -0.1668042 -0.1982179 -0.16603497
0.12623067 -0.02382638 -0.05624655 0.10012373 -0.084620886 -0.050431233 -0.12510775 -0.15551722
0.20231466 -0.08803107 0.0026131077 -0.025929764 -0.14809397 0.0072796 0.0860521 -0.059775703
0.10826506 -0.021111198 -0.00080193736 -0.07154801 -0.14094442 -0.017232966 -0.0008871121 0.031727307
0.17599894 0.03695138 0.20471072 0.2560689 -0.047149826 0.15345402 0.016398981 -0.20234819
0.6562153 0.1273868 0.10345225 0.07481318 -0.035365567 -0.08065912 -0.09309696 0.02060005
-0.077346966 -0.16671926 -0.45807865 0.3446668 0.16640063 0.0020645435 -0.1191557 -0.095859624
-0.1962144 -0.08351101 -0.7168479 -0.05227273 0.182497 -0.23392835 -0.124018 -0.048892196
-0.28445312 -0.42389208 -0.74309134 0.042725224 0.21222624 0.0635413 -0.050409995 -0.19433606
-0.43957117 -0.25701717 -0.9195669 -0.780338 0.04983966 -0.13584101 0.04550473 0.48222184
-0.75595003 -0.33364278 -0.36018097 -0.2822892 -0.08354584 0.29788256 0.19940878 0.11364238
-0.21817881 -0.0631182 -0.14567876 0.16230401 0.13923255 0.4303939 0.74983203 0.3592394
-0.25053197 -0.31006587 -0.61682314 -0.32145727 -0.17908768 0.26275128 0.06732818 -0.027213933
-0.021891946 -0.14356199 0.005936212 -0.40208173 -0.2788517 -0.3279662 -0.13166149 -0.04053216
0.1779054 -0.23313113 0.08962623 -0.06511164 -0.34393013 -0.44746196 -0.69986284 -0.08266657
0.1266891 -0.51409316 -0.102910295 0.05508285 0.0025770417 -0.6084016 -0.47605097 0.19016284
-0.22832495 -0.3022435 -0.32661164 -0.21351019 -0.22492342 -0.40859833 -0.19800779 0.33491978
-0.123972625 -0.19144812 -0.24494988 -0.038877558 -0.06705286 0.18532737 0.103529535 0.28207126
-0.20094125 -0.24762525 0.050756805 -0.05014271 -0.05335872 0.120462134 -0.0410108 0.0022630908
0.017877212 0.022490263 -0.051034313 0.0031345333 -0.13488768 -0.11019449 -0.39325565 -0.441005
0.0031387429 -0.15215144 -0.14480142 0.110983655 0.105451696 0.5339213 0.17304045 -0.033020325

network_body.observation_encoder.processors.0.conv_layers.0.bias f4 [16]
00000000: 3b99 31be 5d95 9abd bb1e 4c3c 085e b5bc
00000010: f8c0 30be 6788 96bc 6cde 85bd dff7 763c
00000020: b50b 9bbe 1258 91be 2362 bdbc 9d3e 8dbd
00000030: bc6c 2ebe 245b 7e3d c61d 5cbe 5e88 1abe
-0.17343609 -0.0754802 0.012458499 -0.022139564 -0.17261112 -0.018375589 -0.06536564 0.0150737455
-0.3028237 -0.28387505 -0.023118084 -0.06896708 -0.17033666 0.062098637 -0.21495733 -0.15091082

network_body.observation_encoder.processors.0.conv_layers.2.weight f4 [32, 16, 4, 4]
00000000: e10b febe b1c2 4cbf f9e6 943e 6f33 4c3e
00000010: 3f73 8abe aac7 893c 6934 5fbe b2b8 d53d
00000020: 604b 33bf b753 1b3b a3ba 973e eff6 a5bd
00000030: 8b74 cabe 53c4 9dbe f16b f3bc 3670 5dbd
00000040: 0fca cd3d b4f4 5e3c a887 0dbe 7908 6fbe
00000050: 21d6 fabe 93e9 66be 31ba a2bd 43fe b73b
00000060: 6699 15be fbcb 093f e645 6b3e d7f2 bf3e
00000070: 76ad 853d 0cc1 f6bd fa4e 893e 267d 8dbe
00000080: f55c 9ebe 0d82 a5bc e136 36be 43d4 87be
00000090: 9330 b9bc 3eb5 f93c 5c95 223e ccc2 90bd
000000a0: 35c1 d9be 864b ae3d b011 adbd 9cdd 173e
000000b0: a5a2 65be e0fe 76be 719d 9bbe d43b fabd
000000c0: 2786 483e e993 3b3e afd0 1fbe b960 f2bd
000000d0: a9c3 07be b755 963e 853f 83bd b232 873e
000000e0: 05bd 8fbe 0464 c13e 2edf 4ebe dc63 a6be
000000f0: 488e 30bf e7c1 153e d291 1a3d 0699 e9be
00000100: 7ffd 20be 4f74 e8be b645 7bbe 22da 1c3d
00000110: 01b6 433c c69f 90be 3d8b 323e 70e2 93bc
00000120: 645a 69be a3df 7c3e e03d 0e3d 8c2d 3d3e
00000130: 9ef9 be3e 514f c63e 0afe a5bd 61e7 0a3e
00000140: a1a2 23bf 56f5 9f3d d4ac 2c3e 4094 89be
00000150: 721b 203e 138f eabd 79c3 e8bd ae76 86be
00000160: 1228 e0be dc3d a1be 27e9 d13e df49 9abe
00000170: afe1 95bd a453 e53d 296d 043d 1943 1dbe
00000180: 278e 1c3e 2ef3 403e 552f 05bf 45b1 053c
00000190: 2801 aabe b5ab c2bc dc8c ddbd 7b07 ccbd
000001a0: 1fa6 4bbe 7fe9 423d 72b7 843d 064e 22be
000001b0: 9c0d 20be 3c98 84be f849 3f3e 1048 a3bc
000001c0: e97b b2be 308e 60be 1b9d 083f fb31 abbe
000001d0: ce71 453e 7bee 9ebe cb76 9bbe 6e54 b7bd
000001e0: c3b4 c9bd ee83 983e 5063 27be d5c7 47be
000001f0: bd47 1c3e c2e1 83be 46f2 e73d b305 1b3e
00000200: a93b 903d 6f42 56be 0a4f b6be 1bb3 79be
00000210: f085 9d3e a9d7 ce3d c495 70bd d683 60be
00000220: f311 6abd e53f 37be 8cd4 803e 9b88 fabd
00000230: 66e6 e73e 60d9 243e fab1 a4bd 611e 52bd
00000240: a495 873c bda9 e7bd 66de 2e3e 204d c1be
00000250: 7d72 e6be 5b1b 8b3c 3918 863e e65a 1fbe
00000260: 2849 1fbf d1c7 063b eee3 333d 3eb2 d9be
00000270: 02de 2bbe 9972 4ebf 9a32 10be f0a2 c4be
00000280: 36ac 8ebe e4e4 a0be aa7e 6fbd 4d24 0e3f
00000290: 7fa1 d6be 41d7 4f3d bd1d a1be 3207 8d3e
000002a0: 02a8 a1be a0aa 7fbd a48a 5d3e a88a df3e
000002b0: 0811 ecbd 0fcb 083e 2910 15bf d8cd 14be
000002c0: 4e31 2dbf 3bbd 70be 1942 843e 80df ecbe
000002d0: 5fab d8be e57e dfbe ad20 3dbf 6f82 bf3e
000002e0: a1ac 31be 2621 c8bd 02f1 743d 5247 3bbd
000002f0: 7d8e 453c 922e 48be bb55 64be 501d 16be
00000300: b143 5e3e 5a73 e8bd 4a07 c53d e33f 54be
00000310: 15a5 34be ee60 39be 6ac4 dabe bdea a5bd
00000320: ffd8 a5be 7844 8d3e 8eb2 2dbc 7250 773d
00000330: 8385 0c3e 547c 1c3c f716 5c3e a72e 95bd
00000340: e45b 90bd 35c0 14be 3c92 0abe 69e4 55be
00000350: 5862 843d 3fe1 a2be 427d 1cbf 6d0e a83d
00000360: 4b41 623d d54a 5f3e adb8 983c 0a58 35bf
00000370: e44a 933e 0b4e 683e 9d71 d7bc bc79 06be
00000380: b986 c5bd fe04 f2bd b45e e8be c9df b03e
00000390: 785b 6dbe b8ad a83d 8241 a03e f226 56be
000003a0: 2b67 9abe c39a 6c3e 3287 d93d fd61 15be
000003b0: 1322 7e3e b558 89bd d109 6bbe c246 34be
000003c0: e209 0dbf 563c cfbe bd02 0b3d 741e eb3d
000003d0: f2df 95be 27df c3bd 7eeb 353e 27d3 be3e
000003e0: 3793 c1be 0a35 93be 5b52 2f3e 8ec9 b33d
000003f0: c155 cf3d 8439 3abe 2638 94be efd6 bfbd
-0.49618438 -0.79984576 0.29082468 0.19941495 -0.2704105 0.01681884 -0.21797337 0.104356185
-0.7003689 0.002370102 0.2963458 -0.081037395 -0.3954204 -0.30813846 -0.029714556 -0.05406209
0.10048305 0.013608146 -0.1382128 -0.23343076 -0.48991492 -0.22550039 -0.079456694 0.005615027
-0.14609298 0.53826874 0.22975883 0.3748996 0.06527226 -0.120485395 0.26818067 -0.27634543
-0.30930296 -0.020203615 -0.17794372 -0.2652913 -0.02260617 0.03048193 0.15877289 -0.070684046
-0.42530218 0.08510499 -0.08450639 0.14830631 -0.22425325 -0.24120665 -0.30393556 -0.122184426
0.19582425 0.18318142 -0.1560695 -0.11834855 -0.13258232 0.2936227 -0.064086 0.26405865
-0.28073898 0.37771618 -0.20202324 -0.32498062 -0.68967104 0.14624749 0.03773672 -0.4562456
-0.15721701 -0.45401236 -0.24538311 0.038293965 0.011945249 -0.28246897 0.17435928 -0.01805231
-0.22788388 0.24694686 0.034726977 0.18474406 0.37299818 0.3873239 -0.08105095 0.13564827
-0.63920027 0.07810466 0.16862804 -0.26870918 0.1563547 -0.114530705 -0.113654085 -0.2626242
-0.4378057 -0.31492507 0.40998194 -0.30134484 -0.07318436 0.11197594 0.032330666 -0.15357627
0.15288602 0.18842766 -0.5202535 0.00815994 -0.33204007 -0.023763517 -0.108178824 -0.09962364
-0.19887589 0.04758596 0.06480302 -0.15850076 -0.15630192 -0.25897396 0.1868056 -0.019931823
-0.3486016 -0.2192924 0.53364724 -0.3343657 0.19281694 -0.3104132 -0.3036407 -0.089516506
-0.09848931 0.29788154 -0.16346478 -0.19509824 0.15261741 -0.25758177 0.11325507 0.15138893
0.07042629 -0.2092378 -0.35607177 -0.2438473 0.3076625 0.10099728 -0.058736578 -0.21925291
-0.057146024 -0.17895468 0.2516216 -0.12233087 0.45292968 0.16098547 -0.08041759 -0.051298503
0.016550846 -0.11311672 0.17077026 -0.37754154 -0.45009223 0.016980818 0.26190355 -0.15562019
-0.62221 0.0020565877 0.043918543 -0.425188 -0.16783908 -0.8064361 -0.14081803 -0.3840556
-0.27865762 -0.3142463 -0.058470406 0.5552414 -0.41920087 0.05074239 -0.31468 0.27544552
-0.31573492 -0.06241858 0.21634918 0.43660474 -0.11526686 0.1335871 -0.58227783 -0.14531648
-0.6765336 -0.23509686 0.25831679 -0.46264267 -0.42318246 -0.436515 -0.73877984 0.374042
-0.17351009 -0.097719476 0.059800155 -0.045722313 0.012057898 -0.19549015 -0.22298329 -0.1465962
0.2170551 -0.113501266 0.09620531 -0.20727496 -0.17641099 -0.18103382 -0.42727977 -0.081014134
-0.32392117 0.275913 -0.010601653 0.060379453 0.13722806 0.0095511265 0.21493135 -0.07284289
-0.07048777 -0.14526446 -0.13532346 -0.20887913 0.0646407 -0.31812474 -0.6112863 0.082058765
0.05523805 0.2180589 0.018642748 -0.7083746 0.28768075 0.22686021 -0.026299292 -0.13132375
-0.09644837 -0.118173584 -0.45384753 0.34545735 -0.23179424 0.08236259 0.31299978 -0.20913294
-0.30156836 0.23105912 0.106214896 -0.14588161 0.24817686 -0.06706373 -0.22952963 -0.17605117
-0.55093205 -0.4047572 0.03393816 0.11480418 -0.2927242 -0.09564047 0.17765614 0.3727047
-0.3780763 -0.28751403 0.1712126 0.08778678 0.10123778 -0.18186003 -0.28949088 -0.09367167

network_body.observation_encoder.processors.0.conv_layers.2.bias f4 [32]
00000000: 3ed4 50be 8517 53be 641d 8cbe c749 12bc
00000010: 1fad c5be 4ef4 6fbe cc8d 61be 9cd7 36be
00000020: d5bf 66be 39bf a83d 5d2a d1bd 764d 44bd
00000030: cc43 c7bd f137 47be d015 ac3e 8a3f 7dbe
00000040: 64c6 9fbe a14d 00be cf80 c23c b474 1abe
00000050: d6ad d6be 5029 3cbd 6363 ffbd a089 873e
00000060: a82f 32be be26 01bf 3ac3 b1be efb8 be3d
00000070: bdaa 9cbe c41a c5bd 2f08 7dbc c3d8 b2bd
-0.20393464 -0.2061444 -0.27366173 -0.008928723 -0.38608643 -0.23433039 -0.22026747 -0.17855686
-0.22534116 0.08239598 -0.10213158 -0.047925435 -0.09729728 -0.19454934 0.33610392 -0.2473127
-0.31206048 -0.12529613 0.023743061 -0.15083581 -0.419295 -0.045937836 -0.124701284 0.26472187
-0.17400992 -0.5044974 -0.3471926 0.09312617 -0.30599013 -0.09624246 -0.015443846 -0.0873275

network_body.observation_encoder.processors.0.dense.0.weight f4 [30, 288]
00000000: 0e08 55bd c1f0 70be d232 793d eec5 2d3d
00000010: 1062 d6bc 1c4d 953e f394 09bf 07a6 8d3e
00000020: 7585 c83d e3ce b73e 2835 0e3d b66e a5bd
00000030: dcde a23e f91c 83bd 33bc d9bb 26b0 9c3e
00000040: 7e41 0dbf eef3 adbe ef4d 5f3d 992e 8bbe
00000050: 04ff 503e 2532 923d bc02 f6be 0364 b03e
00000060: 87e5 3abe d38d aebe b003 99be cdcc 563e
00000070: ef57 1f3d 9cb5 4bbe 1002 d53d fee2 353e
00000080: 5616 79be 4a3c 613e 1402 8abe acab 20bd
00000090: 057e 7dbd e658 06bd a272 133d 21e6 0dbe
000000a0: c81d 8f3c c7ec 1dbe 9191 84bd d5dc 81be
000000b0: d108 a23e 876e c13d ec32 183c cd2e 923e
000000c0: a6c3 e53e d7ab fb3c 001d b73e 515e 823d
000000d0: f264 dc3d 2603 fcbb 5d2a 793c 5363 a63e
000000e0: f32a 46bd 9033 72be 70f2 623e 3afd 813e
000000f0: ca8d d2be 9a66 56bf 33de 30be f160 8fbe
00000100: e829 343e 11e4 c73d 1ce7 d8bd ad0e 0e3e
00000110: 5d5c aebe 0e5c 5dbd 58d6 2fbc f330 d33e
00000120: c301 ee3e d930 913e c371 ab3e 8883 f0be
00000130: c5b4 3bbe ffde 9bb8 2239 f5bd 2522 1d3e
00000140: ed72 f2be 2c13 9d3e dcbf 1dbd 2cca 76bd
00000150: 7340 ccbd e0a4 be3e 3ccc bbbe 4e53 abbe
00000160: 4aa3 453e 14ce 04be 042e 4ebe 432b dfbd
00000170: 3d2c f3be dbe9 263e 88d8 2dbd 9d40 afbd
00000180: 3e84 213f 2239 8e3e 54ac 563e 771a c33e
00000190: d86e e7bd 0b5c c43e 16e9 46be 4ae0 8d3e
000001a0: 14cb acbd 4ca4 bbbe 68f2 d83e ff11 993d
000001b0: f118 0bbe f7b0 88be e741 da3c 6e06 6d3e
000001c0: e366 11bf 16c1 333d 15fc 87bc 9f37 30be
000001d0: 55fd c2be 27a7 edbc add2 f93d f671 25bd
000001e0: 129a 263d 3902 9dbe 0850 24be 287e 6bbe
000001f0: bbe8 50be 0c98 a7be ad9a 21be 20d0 b6bd
00000200: a85f e9bd 0fa6 bf3d 7e8e 61be 57a4 d0be
00000210: 9418 a73e 7090 8a3e 2753 7dbe 1fab 7dbd
00000220: 5542 723e a0af 2cbe 9e77 30be 6610 d23d
00000230: 2e41 bebd 0d3e bcb9 52be b8bc ac13 213c
00000240: 8cf9 963e 61dd 0fbe 53aa b13d 3db4 1c3d
00000250: acba f3bc 9a97 ae3d 3058 593e 66ed babe
00000260: c41f 92be e0ec c93e d2ba 903d 6bb3 c83e
00000270: e9cf 423e 5dc1 b63e 6708 923e 429f 893d
00000280: 576e 573e d47c 2cbe e555 ec3e c39b 983a
00000290: e677 823d 84a8 29be 1d5a 4d3e 1b1a 8cbe
000002a0: bd8a e8bd 58fa bdbe 828b 8b3e 8324 a4bb
000002b0: 75fd 983e 355d fc3d 3652 cfbe a945 74be
000002c0: b3ed e73d 183f 203e 5259 10be cd2e 1c3e
000002d0: a044 bcbe 601f 08bf 3acc 44be 975c e83d
000002e0: c06c bc3c 65e4 afbe 3e3e a53d 6c7e 4cbd
000002f0: 3f66 073e 9514 e63d da2c 2b3e 7432 30be
00000300: 14d7 7ebe 5041 3ebe 7cdd c03e 10d1 a1bd
00000310: db4c 0bbe b9ec 9b3d cfbe 4d3e 2e94 943e
00000320: 3d10 953d 14b3 4bbd 046e 813d acc7 0bbd
00000330: 7b14 c1be dc94 9ebe f656 c13e 3d15 43bd
00000340: 2851 12bf 2593 393e 584d 533e 6a40 d13d
00000350: 18a8 9b3e 75af 723c a5c7 bebe a270 753d
00000360: a3c5 243b df49 53be 5f35 823d 8a0a 5b3e
00000370: 2200 6c3d f899 16be 0651 983d 2e62 71be
00000380: b481 4e3e 3564 cfbe 2baf 113e 8caa 3ebe
00000390: 0cd7 d53e e431 40bb 033c 57be fb8a c2be
000003a0: f798 b33e f615 85bd e350 923e 6844 3cbe
000003b0: a86c 0fbe 70fa b93e 31c5 8abd f92a 13be
000003c0: 5752 41bf 3430 01bf f39f 82bd 6dcb b2bd
000003d0: 95c8 b7be 88bc ca3e fe63 6abd a4a0 e2be
000003e0: 21af 903d 8180 f1be e225 a7be a1ea 81bd
000003f0: aa7f e33d dde0 2b3d a102 b53e 9de2 2f3e
-0.052009635 -0.2352934 0.06083948 0.04242509 -0.026169807 0.29160392 -0.53742903 0.2766573
0.0979108 0.3590003 0.034718663 -0.08077757 0.31810653 -0.064020105 -0.0066447495 0.3060314
-0.5517806 -0.33975166 0.054517683 -0.2718399 0.2040978 0.071384706 -0.4804896 0.34451303
-0.1825162 -0.34092578 -0.29885626 0.20976563 0.03890222 -0.19893497 0.10400784 0.17762372
-0.24324927 0.21995655 -0.2695471 -0.03922622 -0.06188776 -0.032799624 0.035997994 -0.13857318
0.017470255 -0.15422355 -0.06473077 -0.25363794 0.3164735 0.094449095 0.0092894845 0.2855133
0.4487583 0.030721588 0.35764313 0.06365646 0.10761441 -0.007690805 0.015207854 0.32497653
-0.048380803 -0.23652482 0.22162795 0.2538851 -0.411238 -0.8375031 -0.17272262 -0.28003648
0.17594111 0.09760297 -0.105909556 0.13872786 -0.34054843 -0.05404287 -0.010732256 0.41248283
0.4648572 0.2835758 0.3348523 -0.4697535 -0.18330677 -7.432512e-05 -0.11973788 0.15345056
-0.47353306 0.3067869 -0.03851305 -0.0602514 -0.0997323 0.37235165 -0.36679256 -0.33461994
0.19300571 -0.12969238 -0.20134741 -0.108969234 -0.4749469 0.16300146 -0.04244283 -0.08557246
0.6309241 0.27777964 0.20964175 0.3810613 -0.11300439 0.38351473 -0.19424853 0.2771018
-0.084371716 -0.36648786 0.4237244 0.074741356 -0.13583733 -0.26697513 0.026642753 0.23146984
-0.5679762 0.043885313 -0.016599694 -0.17208718 -0.38083902 -0.029010369 0.12198386 -0.040391885
0.040674277 -0.30665758 -0.16046154 -0.22997344 -0.2040128 -0.3273319 -0.1578166 -0.089264154
-0.11395198 0.09357845 -0.22027013 -0.4075038 0.3263594 0.27063322 -0.24738751 -0.061930772
0.23658116 -0.1686387 -0.1723313 0.10257034 -0.09289776 -0.00035904386 -0.02255169 0.00983135
0.29487264 -0.14049293 0.08675065 0.038257826 -0.029752098 0.085250095 0.21225047 -0.36509246
-0.2853986 0.39438534 0.07066883 0.39199385 0.19024624 0.356944 0.28522035 0.06719829
0.21038185 -0.16844493 0.46159282 0.00116431 0.06370525 -0.1656819 0.20053907 -0.27363667
-0.11354587 -0.3710506 0.27254874 -0.0050092353 0.29880872 0.12322465 -0.4049241 -0.23854698
0.113246344 0.15649068 -0.14096573 0.15252228 -0.36771107 -0.53172874 -0.19218531 0.11345785
0.023001075 -0.3435394 0.080685124 -0.049925253 0.13222598 0.112343945 0.16716328 -0.17206746
-0.24886733 -0.18579602 0.3766898 -0.07901204 -0.13603537 0.07613511 0.20092319 0.29019302
0.07278488 -0.04973133 0.06319812 -0.03412597 -0.37710938 -0.30972946 0.37761658 -0.047627676
-0.57155085 0.18122537 0.20634973 0.10217364 0.30401683 0.01481234 -0.37261692 0.05992187
0.0025142215 -0.20633648 0.06357836 0.21390739 0.057617314 -0.14707172 0.07437329 -0.23572609
0.20166665 -0.4050614 0.14226978 -0.18619746 0.4176563 -0.0029326612 -0.21018986 -0.3799666
0.3507764 -0.06498329 0.28577337 -0.1838547 -0.14006293 0.3632388 -0.067758925 -0.14371862
-0.75516266 -0.5046418 -0.06378164 -0.08730207 -0.3589522 0.39596963 -0.057224266 -0.44263184
0.07064653 -0.47168353 -0.3264609 -0.0634358 0.11108334 0.041962493 0.35353568 0.1717629

network_body.observation_encoder.processors.0.dense.0.bias f4 [30]
00000000: 5661 53be 0bf0 7ebe 5fc1 f3bd e1c4 b0bd
00000010: a5e5 19be fb61 493e b247 59be d9a7 cabe
00000020: 3a14 90be e56d 6fbe 1aa9 65be 9ca0 173e
00000030: 50c5 9e3d e77a f1bd 63b8 23bd 69f8 9dbd
00000040: f361 06bd b78a 683d 789d 26be 673b 083e
00000050: bec3 b1be 87dc 9abe 4029 4d3d d714 a4bd
00000060: b92c 9e3d 3389 59bd 0727 2a3c 9d1b 0abd
00000070: c9df 87be 4bcb ba3d
-0.206426 -0.24896257 -0.11902117 -0.08631302 -0.15029009 0.19666283 -0.21218756 -0.39581183
-0.28140432 -0.23381765 -0.22427788 0.14807361 0.07752478 -0.1179102 -0.039970767 -0.07713396
-0.032808255 0.056772914 -0.16271007 0.1330391 -0.34719652 -0.30246374 0.050088167 -0.080117874
0.07723374 -0.05310936 0.010385281 -0.03371774 -0.26537922 0.09120806

network_body._body_endoder.seq_layers.0.weight f4 [30, 33]
00000000: 9555 ae3d 6a4b c2be 1a36 a6be 3489 a43e
00000010: b5aa 5bbf 555f be3e ea0f f5bb cc0e 91bd
00000020: 8fe4 123f 22d1 2fbf 70d8 993e 84b3 8c3e
00000030: d0c0 403e bd5c 86bd 96ca c6bc 6c96 c9be
00000040: 9a95 1a3f e16f 053e 0e3a 17bf f27c 98be
00000050: e250 51be 026c fd3d 11fd ed3d 847d e7be
00000060: fc0b f7bd d934 9e3d 5930 b6be 4151 a23e
00000070: e118 afbe 452a 553e 9a8a ea3e c19f 603e
00000080: 96d2 523e f22d ae3d 5387 29bf a018 60bc
00000090: 13b8 653e bd89 e8be d025 b2be 95f1 f63c
000000a0: 37bc 9bbe d4f2 753e 9147 d63d 9b1a b83e
000000b0: fbbd 323d b3b4 a83b a6d4 2abf 1c2d 463e
000000c0: f34e 133e d684 3d3e e3df 6d3e 4914 b5bd
000000d0: ff5d e83b cc05 dfbe b2ea a23c a088 903e
000000e0: 3982 7fbd 97ae 83be 55be 983e d3e1 a1be
000000f0: cb8f 793d a931 21be 8d45 29be ae19 913e
00000100: 55f9 94be d43c 52be bda8 0d3e 7811 06be
00000110: 1be4 18bf 61fd 063e 10d5 c3bd bcf1 473e
00000120: f9f9 1ebe 80ca f9bc 0c7b ab3d 9013 34be
00000130: 44f9 d7be 3f87 febc 4d74 07bf aab9 e73d
00000140: a630 49bf 3653 32be 5eb2 0dbe f3f7 02bf
00000150: ff5e b4be bde0 d5be eedd fabb c712 50bd
00000160: 3f9f ddbd 632d 043e e6ba e3be 56c9 b8be
00000170: 5ada e6be 5154 dd3c 5e23 c23b 6cef 33be
00000180: 335d fc3d 5175 6c3f 9bf1 3e3f 5d1a a0be
00000190: 6f92 2bbf 8a76 d1bd 94ba 6bbc 8bab 3ebd
000001a0: 5e41 28be ae20 eebd 1750 09bf 85f8 5d3d
000001b0: f856 0cbf 0576 3f3e 9b39 35bd 299f 91be
000001c0: d019 2ebe 3422 40bc 2f9a c2bd b21c 063d
000001d0: 126a 843e abef 193e a758 15be 2567 8f3e
000001e0: 1cde 95be adf3 b53d a78e 50bf ba61 fcbe
000001f0: 3f2f 633e 7a8e 9ebe 8de4 c43d 4698 cfbe
00000200: 9dc2 fcbd 5d4f 90bd d0db a03c c094 a6bd
00000210: 0853 c2be 320a 193e d0fe 80bd 73fe 99be
00000220: 2f61 d0be 9284 e2be 6979 aebd 6416 a7bd
00000230: ab3c 85be ae0c 47bf 2f3c ba3e 4feb adbe
00000240: ffd0 2c3e a19a c9bd e98b a53d 40d0 fcbd
00000250: 2be8 b2be b0b8 b73b 6cf1 5d3c 6278 1b3c
00000260: 91dc 743c 34fb 74be 4166 543d 4cc1 403e
00000270: 48fb 603e af79 db3d 0d1f 1f3e 3621 9e3c
00000280: f279 523e cecf c0bb 8458 653e fda4 81be
00000290: 647b 323f fc14 a3bd 8197 ecbd bd33 cfbe
000002a0: e883 253e a181 2c3e 257d 693e f9a5 b7be
000002b0: 57d5 103d 1b98 423d 5038 983c 1688 0cbf
000002c0: 83e3 813d dfc8 8f3e 85fd 7abc 30be bfbe
000002d0: f5eb f3be 4ec8 d2be a3d8 25bf f04c 33be
000002e0: 7faa 47bf 4dd0 01be 656c 3b3e a002 afbc
000002f0: ff42 673e fffc 4b3e 7203 c7be 192a ea3e
00000300: 841f edbe 7312 0dbd f88e 0abf 1b68 5b3e
00000310: d82e dd3f bbb0 4f3f feb1 b83d d446 86be
00000320: 9be6 c93d 2f45 01bf 08f9 a83d f42c ac3d
00000330: a6b0 883e da0c c8be 80fb db3d 3021 ec3c
00000340: 5973 373e 95ee 23be a319 90be ee00 c23d
00000350: 4be8 8ebb e1f8 8d3e d9d5 563e d832 8bbe
00000360: 1753 423e e737 ca3c 3a60 a8be 4279 59be
00000370: ad36 86be 9041 e33d bf2a ca3e 71c8 c7bd
00000380: 7364 1dbe 373b 5fbd d4ce dd3d f979 823d
00000390: b3f8 dbbe 4310 8cbf 42d9 6fbf 0e9d af3d
000003a0: c534 6cbd 34df e6be 5c7d 26bc fc2d 8b3d
000003b0: dd1b cc3e fe19 913e 0bbf f9be 72dc 423d
000003c0: f00a 1dbe b626 58bd 0d9a 04be 0e1a bcbe
000003d0: 373a 60be 832b 1a3e ea36 603d 55da c0bd
000003e0: 131d 5ebe f237 ee3c 4b1f a93c 19a1 e6be
000003f0: 7fd9 c3be 9ed2 623c 5d8a 3cbd a8a9 973d
0.08512417 -0.3794816 -0.3246315 0.32135928 -0.85807353 0.37182108 -0.0074787037 -0.070829004
0.5738 -0.68678486 0.3004794 0.2748071 0.18823552 -0.06560657 -0.024266522 -0.39372575
0.60384524 0.1303096 -0.5907296 -0.29782826 -0.2044101 0.123741165 0.11620534 -0.45212948
-0.12062833 0.07724924 -0.3558376 0.31702617 -0.3419867 0.20816906 0.4580887 0.21935941
0.20588145 0.08504857 -0.66222113 -0.013677746 0.224335 -0.45417586 -0.34794474 0.030144492
-0.30417034 0.24018413 0.10462869 0.35957798 0.04363821 0.005148494 -0.66730726 0.19353145
0.14385585 0.18507704 0.23229937 -0.0884176 0.0070912833 -0.4355911 0.019887302 0.28229237
-0.06238005 -0.2571914 0.29832712 -0.31617603 0.060928147 -0.157416 -0.16530438 0.28339905
-0.29096475 -0.20531017 0.138339 -0.13092601 -0.5972306 0.13182594 -0.09562123 0.19525808
-0.15525045 -0.030492067 0.08373079 -0.17585588 -0.42182362 -0.03107035 -0.52911836 0.113147095
-0.78589857 -0.17414555 -0.13837573 -0.5115959 -0.35228726 -0.41773024 -0.0076558506 -0.050799157
-0.108213894 0.12907939 -0.4447853 -0.36091107 -0.45088464 0.027017744 0.0059246263 -0.17571801
0.12322464 0.9236651 0.7458741 -0.31270114 -0.67020315 -0.10227688 -0.014387745 -0.046550315
-0.16431186 -0.11627327 -0.5363783 0.054192085 -0.54820204 0.18697365 -0.04424439 -0.28441742
-0.17002034 -0.011726905 -0.095020644 0.03274221 0.25862175 0.15032832 -0.145846 0.2800838
-0.29271019 0.08884368 -0.8146767 -0.4929331 0.22185992 -0.30968076 0.09613905 -0.40545863
-0.12341807 -0.07046387 0.019636065 -0.081338406 -0.37953973 0.14945295 -0.062986016 -0.30076942
-0.40699145 -0.44241768 -0.08519251 -0.081585675 -0.26022848 -0.7775372 0.3637404 -0.3396859
0.168766 -0.09843946 0.08083326 -0.12344408 -0.34942755 0.0056067333 0.013546329 0.009489151
0.014945165 -0.23923951 0.05185533 0.18823737 0.21970856 0.10716569 0.15539189 0.019302946
0.20554331 -0.0058841472 0.22397047 -0.2532119 0.6971953 -0.07962987 -0.115523346 -0.4046916
0.161636 0.16846325 0.22801645 -0.35868815 0.035359707 0.04750834 0.01858154 -0.5489515
0.063422225 0.2808294 -0.015319233 -0.3744979 -0.47640958 -0.41168445 -0.64783686 -0.17509818
-0.7799453 -0.12677117 0.18303068 -0.021363556 0.2258415 0.19920729 -0.38869816 0.45735243
-0.46313107 -0.034441423 -0.54124403 0.21426432 1.727992 0.81129044 0.09018324 -0.26225913
0.09858438 -0.5049619 0.08250624 0.08407012 0.26697272 -0.39072305 0.10741329 0.028824419
0.17915095 -0.1600898 -0.2814456 0.094728336 -0.0043611876 0.27728942 0.20980014 -0.27187228
0.18977009 0.02468486 -0.32885915 -0.21237662 -0.2621359 0.110964894 0.39485738 -0.09755028
-0.1537035 -0.05449983 0.10830465 0.06370921 -0.4296318 -1.0942463 -0.93690884 0.08574878
-0.057667512 -0.45092165 -0.010161724 0.0679588 0.39865008 0.28340143 -0.48778567 0.047573514
-0.15336204 -0.052771293 -0.1294939 -0.36738628 -0.21897207 0.15055661 0.05473987 -0.094166435
-0.21690778 0.029079411 0.020644804 -0.45044783 -0.38251874 0.01384416 -0.04603039 0.07405406

network_body._body_endoder.seq_layers.0.bias f4 [30]
00000000: 2c39 b83e b0c6 7d3e 668b 83bd 695f c03d
00000010: 09fd 993e 8ded 8c3e cfbe 8f3e 2d11 7e3e
00000020: 2702 4f3e 4de8 213e ed89 c0be bb00 a13d
00000030: 7447 523e 6548 123e dc65 5a3e 0ffe 7d3e
00000040: 1b2f 78bd fad8 a43d a8b4 783e 719f b53d
00000050: 3f16 633e 8a0a 853d dd4b 2d3e 6816 583e
00000060: e61c af3d 26f3 ad3e 30dc 09bd d892 8c3e
00000070: 5281 cd3d 756f 1f3e
0.3598112 0.24782825 -0.064230725 0.09393198 0.30075863 0.27524987 0.28075263 0.2481124
0.20215665 0.15811272 -0.3760523 0.078614675 0.2053507 0.14285429 0.21327919 0.24803947
-0.0605918 0.080491975 0.24287665 0.08868302 0.22176455 0.06496151 0.16923471 0.21102297
0.08550434 0.3397457 -0.033657253 0.27455783 0.100344315 0.15569861

action_model._continuous_distribution.log_sigma f4 [1, 2]
00000000: bc97 c33d 20fd b93e
0.095504254 0.36325932

action_model._continuous_distribution.mu.weight f4 [2, 30]
00000000: 8b5d 783e 0190 ce3d c71f a13d 19b8 833c
00000010: 97ec b4be 88c9 03be ffc7 c73c af7d 083e
00000020: 2c4f 66be a571 74be 8317 213d 50b3 14be
00000030: fff9 e63d 1be2 683d e81f 8b3c fa60 cd3d
00000040: 8068 433e 5d1c ab3d 0705 03bf e258 20be
00000050: 2242 56be feca 6fbe 10c0 2ebe 90fd a3bd
00000060: 36db 563d 04b5 043c 089e 473d b841 8b3d
00000070: 7e23 8dbe 1d3a bb3d e1e6 1c3d c531 2abe
00000080: 137a 403e 0f2a 333d b76d e4bd 2dc6 d73e
00000090: 6a87 dabe 18a7 c8be 28f9 e4bd e7de 29be
000000a0: e5dc 8c3d 3921 463e 0032 7abe f64a 1abe
000000b0: 6119 20be aa8c ba3e 418f e03d b279 ad3e
000000c0: 9af1 18be 7075 293e f49a 643e ec6a 9fbd
000000d0: 4f37 ab3e 8f94 2dbe af08 74bd a89e 89be
000000e0: ab28 633e 18f5 c0be 5cee 133d dacb 13be
0.24254434 0.1008606 0.07867389 0.016078996 -0.35336754 -0.12869847 0.024387358 0.13329194
-0.22491139 -0.23871477 0.039329063 -0.14521527 0.11278152 0.056856256 0.016982988 0.100282624
0.19082832 0.08355019 -0.51179546 -0.15658906 -0.20923665 -0.23417279 -0.17065454 -0.080073476
0.05245515 0.008099798 0.048734695 0.06799644 -0.2756614 0.091419436 0.03830612 -0.16620548
0.18796568 0.043741282 -0.11153739 0.42143384 -0.42681438 -0.39189982 -0.11180335 -0.16588937
0.0687807 0.19348611 -0.24433136 -0.15067658 -0.15634681 0.36435443 0.109648235 0.3388191
-0.14935914 0.16548705 0.22324735 -0.077840656 0.33440635 -0.16951202 -0.059578594 -0.26878858
0.22183482 -0.37686992 0.03611599 -0.14433232

action_model._continuous_distribution.mu.bias f4 [2]
00000000: dbfe 023e ed18 e33d
0.12792532 0.110887386
